MAPPO/2DAction/save/SF_T2/agent_8_MAPPO_r.pt (torch, 31814 bytes, 15 tensors)

policy_net.module_0.bias f4 [32]
0	0xbd5d839e	-0.054080598
1	0x3d0bb0b0	0.03410405
2	0xbd8115b1	-0.063029654
3	0xbd51770e	-0.05113893
4	0x3c8d4574	0.017245032
5	0xbd61f672	-0.05516667
6	0x3d45eeef	0.048323568
7	0xbd119b0f	-0.035548266
8	0x3d18184b	0.037132543
9	0xbcb84be2	-0.022497121
10	0xbc77ad91	-0.015117065
11	0xbd395e22	-0.045255788
12	0x3d17bc9a	0.0370451
13	0x3d211c33	0.039333533
14	0xbd192eeb	-0.03739826
15	0xbd35203f	-0.044220205
16	0xbd02ebea	-0.031963266
17	0xbd5578df	-0.052117225
18	0x3d5088be	0.050911658
19	0x3d670715	0.05640324
20	0x3d367977	0.04454943
21	0x3d2d8d1c	0.0423709
22	0xbd84448c	-0.06458387
23	0xbd199797	-0.037498083
24	0xbd567ad1	-0.05236322
25	0xbd0bccd7	-0.034130897
26	0x3d0cbf17	0.034361925
27	0x3d646506	0.055760406
28	0xbd880929	-0.06642372
29	0x3d4f3e4a	0.050596513
30	0x3b821156	0.0039693518
31	0xbd325b8a	-0.04354433

policy_net.module_0.lin.weight f4 [32, 2]
0	0x3e334be3	0.17509417
1	0x3d7306b9	0.059332583
2	0xbebb561c	-0.36589134
3	0xbdbe32bb	-0.0928702
4	0x3f0bdb3c	0.546314
5	0xbe4264c2	-0.18983749
6	0x3e9ffcf2	0.3124767
7	0xbe4c95a7	-0.19978963
8	0xbe94ce33	-0.29063568
9	0xbd1266d7	-0.035742607
10	0x3e8b2a0d	0.2718052
11	0x3cb9c02f	0.022674648
12	0xbe83a13b	-0.25708947
13	0xbe82dd7a	-0.25559598
14	0xbe87e838	-0.26544356
15	0xbe396d12	-0.18108013
16	0xbdef6156	-0.11688487
17	0x3e58baf4	0.21165067
18	0x3e4b0c0f	0.19828819
19	0xbeeb2f4e	-0.45934528
20	0x3e2b768f	0.16744445
21	0xbeba7a37	-0.36421368
22	0x3de316fd	0.11088369
23	0x3e0cd0cb	0.13751523
24	0xbcef0289	-0.029176014
25	0xbc311ad4	-0.010809619
26	0xbc2c5788	-0.010518916
27	0x3c3e5ff6	0.011619559
28	0x3e351c88	0.17686665
29	0x3eb274d1	0.3485475
30	0x3e7f0e00	0.24907684
31	0xbef073a4	-0.46963227
32	0x3e3c4ee4	0.1838947
33	0x3e18ce8e	0.14922544
34	0x3e46e5f3	0.19423656
35	0x3d868b97	0.065695934
36	0xbea8c34d	-0.32961503
37	0x3f087f89	0.53319603
38	0xbe20f64f	-0.1571896
39	0xbe4dc79c	-0.20095676
40	0xbdd79fd1	-0.105285294
41	0xbe373983	-0.17893033
42	0xbda6347d	-0.0811548
43	0xbdcf3113	-0.10116782
44	0x3ebaf2a6	0.3651325
45	0x3e4e0510	0.20119119
46	0xbe0d619e	-0.13806769
47	0xbec3c16a	-0.382335
48	0x3e14a9ea	0.14517942
49	0x3e2dca95	0.1697181
50	0x3ebaaf28	0.3646176
51	0xbe962d29	-0.2933133
52	0xbec3a7dc	-0.38214004
53	0x3e6b7c09	0.22996534
54	0xbed3907c	-0.4132117
55	0xbd3e3350	-0.046435654
56	0x3def9512	0.11698355
57	0x3d9f8a2f	0.07790028
58	0xbe602d12	-0.21892193
59	0xbe299e8c	-0.16564387
60	0x3edcad2e	0.43100876
61	0x3e740129	0.23828568
62	0x3debb542	0.115091816
63	0xbe832ac9	-0.2561858

policy_net.module_2.bias f4 [32]
0	0xbd1ed115	-0.038773615
1	0x3d294ed9	0.04133496
2	0x3d211950	0.03933078
3	0xbd8a57b3	-0.067550085
4	0xbd0fec88	-0.035137683
5	0xbd141d28	-0.036160618
6	0xbc933c15	-0.017972985
7	0x3c26c8f8	0.010179751
8	0xbd3c3f96	-0.045959078
9	0x3d4ab3a5	0.04948773
10	0x3d49e10d	0.04928689
11	0x3d289863	0.041160952
12	0x3d33a2be	0.043856375
13	0x3d39c4bb	0.045353632
14	0x3d37fc19	0.044918153
15	0x3d405d27	0.046963837
16	0x3d4b188c	0.049583957
17	0x3cdbe490	0.026842386
18	0xbd301a7c	-0.042994007
19	0xbcadb9f3	-0.021206832
20	0x3d4d30e1	0.050095443
21	0xbd538635	-0.05164166
22	0x3d39bf9f	0.04534876
23	0x3d87c784	0.066298515
24	0x3d27ebde	0.040996425
25	0xbd257f05	-0.04040434
26	0xbd26d916	-0.040734373
27	0xbd42aae1	-0.047526244
28	0xbce176fc	-0.027522556
29	0xbd2fd998	-0.042932123
30	0x3ce8af7f	0.028403996
31	0x3d3590b7	0.044327464

policy_net.module_2.lin.weight f4 [32, 32]
0	0x3ee90383	0.45510492
1	0xbe9725fc	-0.29521167
2	0x3e99bbae	0.30026
3	0xbc4ec2c6	-0.01261968
4	0x3e24cf9e	0.16094825
5	0xbe371244	-0.17878062
6	0x3f0262ed	0.509322
7	0x3f0437cd	0.51647645
8	0xbe8d9ae7	-0.27657244
9	0x3e13cea7	0.144343
10	0xbe3cafcb	-0.18426435
11	0xbea14787	-0.31499884
12	0x3e21b5b7	0.15791975
13	0x3ed1f2bd	0.41005507
14	0x3e04ba5d	0.12961717
15	0xbd6ac5de	-0.057317607
16	0x3d4e8f51	0.050429646
17	0x3c6d0e3b	0.014468725
18	0xbecd52da	-0.40102273
19	0xbc95e6c7	-0.01829852
20	0x3eba005a	0.36328393
21	0xbe1bee41	-0.15227605
22	0x3d809944	0.06279233
23	0xbe376ada	-0.17911854
24	0x3ee1e14b	0.44117197
25	0x3e0bb03b	0.13641445
26	0xbe90612f	-0.28199145
27	0xbe1b5190	-0.15167832
28	0xbd718b3d	-0.05897068
29	0x3e3913c8	0.18073952
30	0xbda46491	-0.08026994
31	0xbdc8bd09	-0.098016806
32	0xbe93e7f0	-0.28887892
33	0x3e90cbb0	0.282804
34	0xbcf87f79	-0.030334221
35	0xbc294a65	-0.010332678
36	0xbec3cd94	-0.3824278
37	0x3dc01d3f	0.09380578
38	0x3e82d2ae	0.2555136
39	0xbd3b79ec	-0.04577057
40	0x3e6c88df	0.23099087
41	0x3ddde6c2	0.10835029
42	0x3e51af58	0.20477045
43	0x3e820d5f	0.25400826
44	0xbea80850	-0.32818842
45	0x3ef1bba1	0.47213462
46	0x3e970f01	0.29503635
47	0xbe42d0ba	-0.19024935
48	0x3e386845	0.18008526
49	0xbe1b1e3a	-0.1514825
50	0x3f020056	0.5078176
51	0x3d8e8e06	0.069606826
52	0x3e8df21c	0.27723777
53	0x3e21a0c7	0.15783988
54	0x3e4eb2fe	0.20185468
55	0xbe20e6f4	-0.15713102
56	0x3e2920dc	0.16516441
57	0xbefcda44	-0.49385273
58	0xbe9cf379	-0.30654505
59	0x3df83c19	0.12120838
60	0xbefeb5ed	-0.49748173
61	0x3d97eec7	0.0741859
62	0x3e588796	0.21145472
63	0x3cf52bb0	0.029928058
64	0xbe0a2ed3	-0.13494425
65	0xbee22a7a	-0.44173032
66	0xbe3c3c98	-0.1838249
67	0xbda9516d	-0.08267484
68	0x3e9e2717	0.30889198
69	0xbecb878c	-0.39751852
70	0xbe9443b9	-0.28957918
71	0xbdda2e02	-0.106533065
72	0xbe436b99	-0.19084014
73	0xbd44fc01	-0.048091892
74	0x3e3ce22b	0.18445651
75	0xbeb57713	-0.3544241
76	0x3da81e26	0.08208875
77	0x3dd30029	0.10302765
78	0x3edf6a7e	0.43635935
79	0xbe3b3a68	-0.18283999
80	0x3de96bc5	0.113975085
81	0x3c13753a	0.009000117
82	0x3f265b6a	0.64983237
83	0x3ec1f060	0.37878704
84	0x3bcbb76e	0.006216935
85	0x3dc99b2f	0.09844052
86	0xbec3b7ac	-0.38226068
87	0xbe64ecd9	-0.22355975
88	0xbe4f71a3	-0.20258193
89	0x3d5f25b6	0.054479323
90	0x3d3c9188	0.046037227
91	0xbe8f6737	-0.28008434
92	0xbe5ca73f	-0.21548174
93	0xbe2c2272	-0.16810015
94	0x3edea1b1	0.43482736
95	0xbd9b25fe	-0.07575606
96	0x3d473475	0.04863401
97	0xbf0b817d	-0.5449446
98	0x3f04e7f8	0.51916456
99	0xbe4f3d07	-0.20238124
100	0x3d62952a	0.055318035
101	0x3e5815b0	0.21102023
102	0x3e0e44a0	0.13893366
103	0x3e786e35	0.2426079
104	0x3cc65da8	0.02421458
105	0xbdeaa60c	-0.11457452
106	0xbd20d56f	-0.039266046
107	0x3e98e32e	0.29860824
108	0xbec95038	-0.39319015
109	0x3da04a42	0.078266636
110	0x3d187b14	0.03722675
111	0x3e8073f4	0.25088465
112	0x3e2feac6	0.17179403
113	0x3e9e7feb	0.3095697
114	0xbc9f6b81	-0.019460442
115	0xbf2c11ae	-0.6721448
116	0xbe0d0c6f	-0.13774274
117	0xbdd63491	-0.10459245
118	0xbd782819	-0.060585115
119	0x3d153f3f	0.03643727
120	0xbe29dec8	-0.1658889
121	0xbda81af6	-0.082082674
122	0x3eff480e	0.4985966
123	0xbd539c03	-0.051662456
124	0xbcb8fc5f	-0.022581277
125	0x3e35d44d	0.17756768
126	0x3e9389b0	0.28815985
127	0xbdc6947e	-0.096962914
128	0x3d9fcbd0	0.07802546
129	0xbd47735b	-0.048693996
130	0xbdc484b2	-0.09595622
131	0x3e94147f	0.28921887
132	0xbe36335c	-0.1779303
133	0xbe0691cc	-0.13141555
134	0x3f11f815	0.5701917
135	0xbcd157fe	-0.025554653
136	0xbe895232	-0.26820523
137	0xbef598a3	-0.47968015
138	0x3e8faddb	0.2806233
139	0x3e93cd4a	0.2886756
140	0x3ec6978b	0.38787493
141	0xbde722a1	-0.11285902
142	0x3ef9099c	0.48640144
143	0xbe7cc71f	-0.24685334
144	0x3bc76675	0.006085212
145	0x3dcf9561	0.10135914
146	0xbd8e597e	-0.06950663
147	0xbe1014c7	-0.14070426
148	0xbf131744	-0.57457376
149	0x3d8c3c1c	0.068474025
150	0x3d13acc2	0.036053427
151	0x3dc7c7e6	0.097549245
152	0x3e4cbc8e	0.19993803
153	0xbe62a903	-0.22134785
154	0x3be1a119	0.0068856594
155	0xbd615801	-0.055015568
156	0x3ebd4338	0.36965346
157	0xbccab06c	-0.024742328
158	0xbd092ac0	-0.033488035
159	0xbca76b00	-0.020436764
160	0x3d421661	0.047384623
161	0x3e207ab8	0.15671813
162	0x3eb71f8b	0.35766253
163	0x3e388660	0.1802001
164	0xbe9bde15	-0.30442873
165	0xbf09af2b	-0.5378291
166	0xbe1cd82f	-0.15316842
167	0x3ddc7927	0.107652955
168	0x3ebd04b9	0.36917666
169	0x3ea80ab4	0.32820666
170	0x3d7f0a7a	0.06226585
171	0xbe09c95c	-0.13455719
172	0x3e727ff9	0.2368163
173	0xbcb32a7b	-0.021870842
174	0x3d05a071	0.032623712
175	0xbdce65f0	-0.10078037
176	0xbe457107	-0.19281398
177	0x3e3fa7c7	0.18716346
178	0x3dc3cae7	0.09560185
179	0xbe007bb7	-0.12547193
180	0xbe2e8728	-0.17043746
181	0xbf1711ae	-0.5901135
182	0x3f04c305	0.51860076
183	0xbdd04cf0	-0.10170925
184	0x3e1b1674	0.15145284
185	0x3e078438	0.13234031
186	0x3e87a90f	0.2649617
187	0xbb7d4a4b	-0.0038649018
188	0x3e7dca2e	0.24784157
189	0xbd474351	-0.048648182
190	0x3e85d287	0.26137182
191	0x3d877a2d	0.066151
192	0xbd1ac486	-0.037785076
193	0x3e44dd4b	0.19225042
194	0x3d07237b	0.03299282
195	0xbe01db5f	-0.1268134
196	0xbd250b2d	-0.04029386
197	0x3d2c1ab9	0.042017672
198	0xbd97394e	-0.07383977
199	0x3ea6fb8d	0.32613793
200	0xbe9cda44	-0.30635273
201	0xbe031bca	-0.1280357
202	0x3ee62385	0.44948974
203	0x3ed5989f	0.41718003
204	0xbda5b54b	-0.080912195
205	0xbebed87f	-0.37274548
206	0x3e181188	0.14850438
207	0x3e23692d	0.1595809
208	0xbcd98335	-0.026551822
209	0x3bb95b7c	0.0056566577
210	0xbe9707be	-0.29498094
211	0x3ef2985d	0.4738187
212	0x3e7929f1	0.24332406
213	0xbf248207	-0.64260906
214	0xbdcfd7f3	-0.10148611
215	0x3e8b987e	0.2726478
216	0x3b253005	0.0025205624
217	0x3dd76687	0.105176024
218	0xbd1a70cd	-0.03770523
219	0x3d382f76	0.044967137
220	0xbe46133b	-0.19343273
221	0x3e6c47ce	0.23074266
222	0x3ecf8fd5	0.40539423
223	0xbde38654	-0.111096054
224	0xbe8dee4a	-0.27720863
225	0x3e0f97c2	0.14022735
226	0x3e1718fd	0.14755626
227	0xbdef489a	-0.116837695
228	0x3eab7dd4	0.33494437
229	0xbe4819af	-0.19541048
230	0x3db62399	0.088935085
231	0x3dfa15cf	0.12211191
232	0x3ea5fb4d	0.3241829
233	0xbf2999a8	-0.66250086
234	0xbeda7788	-0.4266932
235	0xbeb1e29f	-0.3474321
236	0x3e6e9b8a	0.23301521
237	0xbed53f8b	-0.41650042
238	0x3da5af0e	0.0809003
239	0x3dca4e20	0.098781824
240	0x3cc9e540	0.024645448
241	0xbb4487fc	-0.002998828
242	0x3e3b52ee	0.18293354
243	0x3dc2083e	0.09474228
244	0x3e8c1c67	0.2736542
245	0x3e1aaf72	0.1510599
246	0x3edefa54	0.4355036
247	0x3d3091f0	0.043107927
248	0xbee0ebcb	-0.43929896
249	0xbe821f7a	-0.2541464
250	0xbe9d9fdf	-0.30786034
251	0x3e8f6ebb	0.28014168
252	0xbea5d184	-0.3238641
253	0x3ce1c8a4	0.027561493
254	0x3e1ee404	0.15516669
255	0xbd582fcb	-0.052779954

policy_net.module_4.weight f4 [32, 32]
0	0xbe9bbba6	-0.30416602
1	0x3f2da5dc	0.67831206
2	0x3e8b2c75	0.27182356
3	0x3e311d87	0.1729642
4	0x3ea74972	0.32673222
5	0x3e97c627	0.29643366
6	0x3e98efbb	0.298704
7	0x3e69f834	0.22848588
8	0xbec91614	-0.39274657
9	0x3c57521c	0.013142135
10	0xbdcdcbf8	-0.100486696
11	0x3e8291dd	0.2550191
12	0xbec8df81	-0.3923302
13	0x3caa3b7e	0.020780321
14	0x3e456e4a	0.19280353
15	0xbe7ec90f	-0.24881385
16	0x3d8796c8	0.06620556
17	0x3e0a4797	0.13503872
18	0xbeb59ab0	-0.3546958
19	0xbdfe5425	-0.12418393
20	0x3d464b8b	0.048411887
21	0xbe6c1c67	-0.2305771
22	0x3e480a9a	0.19535294
23	0x3eb5ca4e	0.3550591
24	0xbe09bad2	-0.13450173
25	0xbd19f813	-0.037590098
26	0xbb90ed13	-0.0044227927
27	0x3ec659bd	0.3874034
28	0xbdcfb747	-0.10142379
29	0x3e7a9560	0.24471045
30	0xbe1d653d	-0.1537065
31	0x3e58bae2	0.2116504
32	0xbdb091f1	-0.08621586
33	0xbe1147f6	-0.14187607
34	0x3efb6296	0.49098653
35	0xbebeeded	-0.37290898
36	0x3dcc6a09	0.09981162
37	0xbe93fb7c	-0.28902805
38	0xbe114eb2	-0.14190176
39	0x3e7b67af	0.24551271
40	0xbec9383c	-0.39300716
41	0x3d12c822	0.035835393
42	0x3e12c237	0.143319
43	0x3eef7325	0.46767536
44	0xbe442416	-0.1915439
45	0x3e02ea3a	0.12784663
46	0xbe831be0	-0.25607204
47	0xbe8528a4	-0.2600757
48	0x3d981fc6	0.07427935
49	0x3e4c4f72	0.19952181
50	0x3e46c88f	0.19412445
51	0x3e839672	0.25700718
52	0x3e2500e1	0.16113617
53	0x3b85e515	0.0040861466
54	0xbe0032f0	-0.12519431
55	0x3f00102b	0.5002467
56	0xbca1d8be	-0.019756671
57	0x3e236f9b	0.15960543
58	0xbe1478e6	-0.14499244
59	0xbd45276c	-0.0481333
60	0xbe9012e8	-0.28139424
61	0xbf353852	-0.7078906
62	0xb8a9d694	-8.098516e-05
63	0xbda921f2	-0.08258428
64	0xbdf375f3	-0.118877314
65	0x3e8d6de7	0.2762291
66	0xbdae85f7	-0.085216455
67	0x3e3f5d9a	0.1868805
68	0x3e92431a	0.2856682
69	0x3d8b7f44	0.06811383
70	0xbe8ce035	-0.27514806
71	0x3c3be1a1	0.011467368
72	0xbca38404	-0.01996041
73	0x3e1ac2d5	0.15113385
74	0x3ea3c44e	0.31985706
75	0x3ef55149	0.47913578
76	0x3cf95faa	0.030441124
77	0xbd380a24	-0.044931546
78	0xbb22d2e9	-0.002484495
79	0xbaafee8f	-0.0013422536
80	0xbe9bfa93	-0.3046461
81	0xbd9519b5	-0.07280294
82	0x3e857cc9	0.26071766
83	0x3ed3c5f9	0.4136198
84	0x3dc7943a	0.09745069
85	0x3e707a2a	0.23484102
86	0x3ec8e5f5	0.39237943
87	0xbf19b56d	-0.6004246
88	0x3e6ae3d0	0.22938466
89	0xbe89115c	-0.26771057
90	0x3afde7e5	0.0019371478
91	0xbb508ed4	-0.0031823413
92	0xbd178d9d	-0.037000287
93	0xbe7214fd	-0.23640819
94	0xbeccf337	-0.40029308
95	0x3e7106c6	0.2353774
96	0x3dda5730	0.10661161
97	0x3d9964c1	0.074899204
98	0xbeb5c110	-0.35498857
99	0xbd73609d	-0.05941831
100	0x3de47320	0.11154771
101	0xbd8204f4	-0.06348601
102	0xbd4a78eb	-0.049431723
103	0x3e550242	0.20801643
104	0xbf244584	-0.6416857
105	0x3db9a05b	0.090637885
106	0x3efae5ca	0.4900344
107	0x3e532e62	0.20623162
108	0x3da5cc40	0.08095598
109	0x3e8d6bc4	0.2762128
110	0x3d420d40	0.047375917
111	0xbe1cf32f	-0.15327142
112	0x3eac71fd	0.33680716
113	0xbd4d1d3a	-0.0500767
114	0xbe83b87f	-0.25726697
115	0xbf17fd09	-0.59370476
116	0xbeae7005	-0.3406984
117	0x3e06bd7a	0.13158217
118	0x3f1a8c88	0.60370684
119	0x3dbffab9	0.093739934
120	0xbd879a93	-0.066212796
121	0xbdde0646	-0.1084104
122	0x3e42ffd4	0.19042903
123	0xbd480578	-0.04883334
124	0x3e80c994	0.25153792
125	0xbf0d15be	-0.551113
126	0x3e1d995d	0.15390535
127	0x3dd35c4e	0.1032034
128	0x3d53b275	0.05168386
129	0xbed1b86c	-0.40961015
130	0x3eecd549	0.46256474
131	0x3eee2583	0.46512994
132	0xbe81898d	-0.25300255
133	0x3d7d9fb5	0.061919887
134	0x3e1b7990	0.15183091
135	0xbdea06c3	-0.11427071
136	0x3d62cbe2	0.05537022
137	0x3dbcc7af	0.09217774
138	0x3e418244	0.18897349
139	0x3efc641b	0.49295124
140	0xbc29ba7d	-0.010359404
141	0xbefc458f	-0.4927182
142	0x3ee9859b	0.45609745
143	0x3d986f18	0.074430645
144	0x3deefe68	0.11669618
145	0x3b67e3ae	0.003538351
146	0xbe266d8a	-0.16252723
147	0x3d041ec5	0.032255907
148	0xbd950cf8	-0.07277864
149	0xbda25b99	-0.07927627
150	0x3e545b9e	0.20738074
151	0x3ea1d4ad	0.3160757
152	0xbe15c198	-0.14624631
153	0xbe91bde1	-0.2846518
154	0xbb3f450a	-0.0029185438
155	0xbdfc2ebb	-0.12313601
156	0x3ef26366	0.4734146
157	0xbe63b98f	-0.22238754
158	0x3dcb705e	0.09933542
159	0x3bb2e2f2	0.005459183
160	0xbd2ad0b9	-0.04170296
161	0xbc7f7250	-0.015591219
162	0xbec081b3	-0.37598953
163	0x3e4988ef	0.19681142
164	0xbe3f056b	-0.1865441
165	0x3ea4bfaa	0.32177478
166	0xbe1e81c8	-0.15479195
167	0x3d6348b3	0.055489253
168	0xbf070e95	-0.52756625
169	0x3e814db2	0.2525459
170	0x3c9cef67	0.019157125
171	0x3ecc4e73	0.39903602
172	0x3e054bd0	0.13017201
173	0x3c19cb3d	0.009386835
174	0x3dcb504a	0.09927423
175	0x3e3faa57	0.18717323
176	0x3eefb7ca	0.46819907
177	0xbe435f43	-0.19079308
178	0xbdd05e42	-0.10174228
179	0xbd15e133	-0.03659172
180	0x3e9dd2ed	0.30824986
181	0x3e84f8f4	0.25971186
182	0xbe27bada	-0.16379872
183	0x3ece8046	0.4033224
184	0x3e46a7d7	0.19399963
185	0x3e8b1a90	0.27168703
186	0xbebb4488	-0.36575723
187	0xbef7506a	-0.4830354
188	0xbe20cfc8	-0.15704262
189	0x3e23bba9	0.15989555
190	0xbe90cb95	-0.2828032
191	0x3e9e1508	0.3087542
192	0xbed6533d	-0.4186038
193	0x3e55578f	0.20834182
194	0x3c8cea09	0.01720144
195	0x3d5ff9e3	0.05468167
196	0x3e69ed74	0.22844487
197	0x3e603ffd	0.2189941
198	0xbecc62f1	-0.39919236
199	0x3e483f40	0.19555378
200	0x3ef04bfe	0.46932977
201	0x3e3f09f3	0.18656139
202	0x3e8f67dc	0.28008926
203	0x3de9cce5	0.11416034
204	0x3de178d8	0.11009377
205	0x3e88d628	0.26725888
206	0x3ecf45a0	0.40482807
207	0x3e29f322	0.16596654
208	0xbd776e60	-0.060407996
209	0x3cd6a132	0.02619991
210	0xbef65d22	-0.4811793
211	0xbe9d1a9b	-0.3068436
212	0x3eb998e0	0.36249447
213	0xbbe2987f	-0.0069151516
214	0x3e0b0994	0.13577873
215	0x3e0bd7bb	0.13656513
216	0xbe3e91fa	-0.18610373
217	0x3e0c14ab	0.13679759
218	0xbe5d8a7b	-0.21634857
219	0xbe8210d9	-0.2540348
220	0xbe79ffc9	-0.2441398
221	0xbec4e5bd	-0.38456526
222	0x3e80ea0b	0.2517856
223	0xbeb9bf71	-0.3627887
224	0xbea9866e	-0.33110374
225	0xbdc11fda	-0.09429903
226	0x3e86defd	0.26342002
227	0xbe2d8e00	-0.169487
228	0xbe95e266	-0.2927429
229	0x3da0e3ed	0.078559734
230	0x3d7f0e62	0.062269576
231	0x3e362ed5	0.17791303
232	0xbe02c66f	-0.12771009
233	0x3e8d5b25	0.276086
234	0x3f12989d	0.5726412
235	0xbe04adb0	-0.12956882
236	0x3ec8005c	0.39062774
237	0xbecec102	-0.40381628
238	0xbe4a47d4	-0.19753963
239	0x3e29a568	0.16567004
240	0x3eed390a	0.4633258
241	0x3d4ed4d4	0.050495937
242	0x3bdc1298	0.0067160837
243	0xbdf8e0ef	-0.12152278
244	0x3d097576	0.033559285
245	0xbe25fa92	-0.16208866
246	0x3f11129d	0.56669027
247	0x3d1660f3	0.03671355
248	0xbe21c886	-0.1579915
249	0xbd8c0fe5	-0.06838969
250	0xbe085693	-0.13314275
251	0x3e7d2b6e	0.24723598
252	0xbf243aa8	-0.64152
253	0x3d908301	0.07056237
254	0xbe3286f7	-0.17434298
255	0x3d3a01cc	0.04541187

policy_net.module_4.bias f4 [32]
0	0x3d1bfb9d	0.038081754
1	0x3d261658	0.040548652
2	0x3d3d167c	0.04616402
3	0x3d28727f	0.041124817
4	0x3d1a1306	0.0376158
5	0x3d1e7b86	0.03869202
6	0x3d1ecd5f	0.038770076
7	0x3d240a15	0.040048677
8	0x3d22e293	0.03976686
9	0x3d1ce636	0.038305484
10	0x3d2c83ce	0.042117886
11	0x3d239708	0.039938956
12	0x3d26a028	0.04068008
13	0x3d18283f	0.037147757
14	0x3d3510f6	0.04420563
15	0x3d310afc	0.043223366
16	0x3d679a1e	0.056543462
17	0x3d32849e	0.043583505
18	0x3d1c5d8a	0.038175143
19	0x3d3e26f8	0.046423882
20	0x3d1d539a	0.038409807
21	0x3d18cfab	0.037307423
22	0x3d18335a	0.037158348
23	0x3d202252	0.03909523
24	0x3d200dd7	0.0390757
25	0x3d1cc638	0.038274974
26	0x3d1bb343	0.038012754
27	0x3d1b98ff	0.037987705
28	0x3d2678ad	0.04064243
29	0x3d1c919c	0.0382248
30	0x3d1c90be	0.038223974
31	0x3d2381f5	0.03991886

policy_net.module_8.weight f4 [24, 24]
0	0x3a79b770	0.00095259305
1	0xba861af8	-0.0010231426
2	0xba2e802b	-0.0006656672
3	0x3a016d3f	0.00049372384
4	0xbb890eda	-0.0041826786
5	0xb8f47241	-0.00011656108
6	0x3a1dcbc7	0.000601944
7	0x3aab2aaa	0.001305898
8	0x3b358e15	0.0027703096
9	0x3a3fe138	0.0007319632
10	0xba372bca	-0.0006987421
11	0xb9a7af0f	-0.0003198315
12	0x39af1d56	0.00033400458
13	0x3b563792	0.003268693
14	0xbb6848b9	-0.0035443737
15	0xbad97a1c	-0.0016592178
16	0x3a927e42	0.0011176544
17	0x37dc6ccf	2.6276712e-05
18	0xba15d01d	-0.000571491
19	0x3a41bed2	0.00073908
20	0x3b84da09	0.004054312
21	0xbb4d8f1c	-0.0031365817
22	0x3af15152	0.0018411076
23	0x3b5a2bd4	0.0033290284
24	0xbd244188	-0.040101558
25	0xbd0d3af2	-0.034480043
26	0xbd20c324	-0.0392486
27	0xbce2bd75	-0.02767823
28	0xbcb4d7f4	-0.02207563
29	0xbd195f68	-0.037444502
30	0xbd1dfb13	-0.03856952
31	0xbd2dc90e	-0.04242807
32	0xbd18e084	-0.03732349
33	0xbd218fa7	-0.03944364
34	0xbcad646b	-0.021166047
35	0xbd139b51	-0.036036793
36	0xbcc62d60	-0.024191558
37	0xbd199a68	-0.03750077
38	0xbd124bfb	-0.035716992
39	0xbd1e6a5f	-0.038675662
40	0xbd258942	-0.040414102
41	0xbd1ce962	-0.03830851
42	0xbd21001e	-0.039306752
43	0xbd255522	-0.040364392
44	0xbd0dcb2e	-0.034617595
45	0xbd1a11af	-0.03761452
46	0xbd19d99f	-0.037561055
47	0xbd18100f	-0.03712469
48	0x3d190424	0.037357464
49	0x3d160b0c	0.03663163
50	0x3d14bc80	0.03631258
51	0x3ce531b3	0.0279778
52	0x3cca9e9a	0.02473383
53	0x3d291627	0.04128089
54	0x3d240c3c	0.04005073
55	0x3d267ec8	0.04064825
56	0x3d25f8f1	0.040520612
57	0x3d199170	0.037492216
58	0x3cb448ee	0.022007432
59	0x3cf304bb	0.029665342
60	0x3cad86c1	0.02118242
61	0x3d26393d	0.04058193
62	0x3d1f5ee9	0.038908873
63	0x3d1eb59a	0.038747407
64	0x3d166ff8	0.036727875
65	0x3d22a371	0.03970665
66	0x3d19e1db	0.03756891
67	0x3d1333cb	0.035938065
68	0x3d16e80b	0.036842387
69	0x3d1ff8fa	0.039055802
70	0x3d120dfa	0.03565786
71	0x3d29f7b3	0.04149599
72	0x3c582268	0.013191797
73	0x3d0bb952	0.034112282
74	0x3cab0aeb	0.02087923
75	0x3cd6c396	0.02621631
76	0x3d01fe11	0.031736437
77	0x3d31a17c	0.043366894
78	0x3ca55ef2	0.020186875
79	0x3d17e356	0.03708204
80	0x3cc35b19	0.02384715
81	0x3d07e803	0.033180248
82	0x3cd10729	0.02551611
83	0x3c9b1f42	0.018935803
84	0x3ccf830f	0.025331048
85	0x3d574a34	0.052561
86	0x3c7f8060	0.015594572
87	0x3c3cfa72	0.01153432
88	0x3bd18ad1	0.006394722
89	0x3c957023	0.018241948
90	0xbade4387	-0.001695738
91	0x3d0e7530	0.034779727
92	0x3c79f7b0	0.015256807
93	0x3c72bc7a	0.014815444
94	0x3cd72fb2	0.02626786
95	0x3ca0c104	0.019623287
96	0x3d1ae51d	0.037816156
97	0x3cd68ff2	0.026191685
98	0x3c569fdd	0.013099638
99	0x3c81f722	0.015864912
100	0x3cf1b2de	0.029504236
101	0x3d2af838	0.041740626
102	0x3d2ddc0f	0.042446192
103	0x3d702dba	0.05863736
104	0x3d33325e	0.043749206
105	0x3d4dd2ed	0.050249983
106	0x3cbfaf05	0.023398886
107	0x3c68762a	0.014188329
108	0x3cca7f69	0.024718957
109	0x3d30ae81	0.04313517
110	0x3d66e880	0.056374073
111	0x3d406bc0	0.04697776
112	0x3d12111a	0.03566084
113	0x3cdd7fea	0.027038533
114	0x3d389de6	0.04507246
115	0x3d2a93a1	0.041644696
116	0x3cdaef3c	0.026725404
117	0x3d3dbafc	0.0463209
118	0x3d3c76fb	0.046011906
119	0x3d0b3f72	0.033996053
120	0xbd9e92fe	-0.0774288
121	0xbd9c3872	-0.076279536
122	0xbd96a4ed	-0.07355676
123	0xbd0f4b18	-0.034983724
124	0xbcfacb45	-0.030614505
125	0xbd04e333	-0.032443237
126	0xbbb2d350	-0.0054573193
127	0x3c62d9f8	0.013845913
128	0xbd2068d7	-0.039162483
129	0xbce67603	-0.028132444
130	0xbcb191df	-0.021676002
131	0xbd69005b	-0.056885105
132	0xbd82b1cd	-0.06381569
133	0xba635e55	-0.00086734194
134	0x3c6183a9	0.0137643
135	0x3c238274	0.009979833
136	0xbcd767a8	-0.026294544
137	0xbd1c10f5	-0.03810211
138	0xbbacae46	-0.0052697985
139	0xbd845d06	-0.06463055
140	0xbd3dc869	-0.046333704
141	0x3bfb7763	0.007674144
142	0xbc711432	-0.014714288
143	0xbce70e7d	-0.02820515
144	0xbc7f8f18	-0.015598081
145	0xbc4b33d7	-0.012402496
146	0xbc0ade2e	-0.008475823
147	0xbb9b1881	-0.0047331457
148	0xbc3c54dc	-0.011494841
149	0xbcb1bc87	-0.021696342
150	0x3b2639d5	0.002536406
151	0xbc347b81	-0.011015774
152	0xbc930e3d	-0.017951125
153	0xbcc8ce19	-0.024512338
154	0x3b108246	0.0022050305
155	0x3ac2f733	0.0014874696
156	0x3b046509	0.0020201823
157	0xbcc345cb	-0.02383699
158	0xbcce8f59	-0.025214838
159	0xbc4a5ef5	-0.012351741
160	0xbb3548e9	-0.0027661866
161	0xbca349af	-0.019932596
162	0x3b07747c	0.0020668795
163	0xbd0e1a21	-0.034692887
164	0x3cadb669	0.021205144
165	0x3c666abd	0.014063534
166	0xbce74ca0	-0.02823478
167	0x3c0b64ff	0.008507966
168	0xbaadcf45	-0.0013260624
169	0x3b20dcbd	0.0024545633
170	0xbab8c61e	-0.001409713
171	0xbb1895c7	-0.0023282634
172	0xba461cab	-0.00075573724
173	0xba87d8c6	-0.0010364286
174	0xbb2ec8c0	-0.002666995
175	0xb96c7665	-0.00022550819
176	0x39f2acef	0.00046286682
177	0xb92300ad	-0.00015545143
178	0xb9249a49	-0.00015697734
179	0xbb266109	-0.0025387427
180	0x3b980d0e	0.004640228
181	0x3b247341	0.002509311
182	0x39b8221d	0.0003512063
183	0x3aa63b25	0.0012682421
184	0x3b047a2e	0.0020214426
185	0xb98e9ac7	-0.0002719967
186	0x3b8945d9	0.0041892347
187	0xba4bda50	-0.00077763665
188	0xbb0dfa70	-0.0021664165
189	0x3ad744cc	0.0016423701
190	0x3b45a877	0.0030160227
191	0x3a7cb774	0.0009640374
192	0x3d9e71fa	0.07736583
193	0x3d9ee54d	0.077585794
194	0x3d911c50	0.07085478
195	0x3d096860	0.033546805
196	0x3cc4b1fc	0.02401065
197	0x3d0270b4	0.031845763
198	0x3c1b4ab0	0.009478256
199	0xbc7e2e20	-0.015513927
200	0x3d1f083d	0.038826216
201	0x3cb434c0	0.02199781
202	0x3cc5bed5	0.024138847
203	0x3d7c2694	0.06156023
204	0x3d87e894	0.06636158
205	0xbaef035e	-0.0018235256
206	0xbc44a6c0	-0.012002647
207	0xbc5fcd2b	-0.013659756
208	0x3cdd884d	0.027042532
209	0x3d21d6ee	0.039511614
210	0x3ba71539	0.0050989655
211	0x3d77b468	0.060474783
212	0x3d3c5fd7	0.045989837
213	0xbbaa181c	-0.0051908623
214	0x3c596fce	0.013271285
215	0x3cef2c7d	0.029196018
216	0xbcc4a5dd	-0.024004871
217	0xbcecee7d	-0.028922314
218	0xbc9a722a	-0.018853266
219	0xbccbf1be	-0.024895545
220	0xbcf29e9b	-0.029616645
221	0xbd5f288b	-0.054482024
222	0x3d132f47	0.03593376
223	0xbc006730	-0.007837102
224	0xbdaa7c9f	-0.08324551
225	0xbcbaf137	-0.022820098
226	0xbcf04622	-0.029330317
227	0xbc67a3e1	-0.014138193
228	0xbb083e33	-0.0020789027
229	0xbd13d547	-0.03609207
230	0xbc14246d	-0.009041888
231	0x3d18f1cd	0.037339974
232	0x3d83468e	0.064099416
233	0x3d68cb49	0.056834493
234	0x3d72e524	0.059300557
235	0x3c94f507	0.018183244
236	0x3cb5125b	0.02210348
237	0x3d1668fa	0.036721207
238	0xbcdf584d	-0.027263785
239	0x3ce60fe4	0.02808375
240	0x3b9da0d0	0.00481043
241	0xbab8959e	-0.0014082675
242	0x3babf004	0.005247118
243	0x3b4ab2f5	0.003092942
244	0xbc3f3145	-0.011669462
245	0xbcd9f792	-0.026607309
246	0xbbad95c9	-0.005297397
247	0xbd266811	-0.04062659
248	0xbd125d2b	-0.035733383
249	0xbcc6b2ac	-0.02425512
250	0x3c10e983	0.008844736
251	0x3c624d27	0.01381234
252	0x3c42b938	0.01188498
253	0xbc2cf0e2	-0.010555478
254	0xbd201fda	-0.039092876
255	0xbc880816	-0.016605418

policy_net.module_8.bias f4 [24]
0	0x00000000	0.0
1	0xbcf59956	-0.029980343
2	0x3cf597a2	0.02997953
3	0x3c96c796	0.018405717
4	0x3cc910bf	0.024544118
5	0xbd6e394e	-0.05816012
6	0xbc33ce5c	-0.010974493
7	0x00000000	0.0
8	0x3d6e43fe	0.05817031
9	0xbc58f324	-0.013241563
10	0x3c2445d9	0.010026419
11	0xbc96c378	-0.018403754
12	0xbd37c860	-0.044868827
13	0x3c58f326	0.013241565
14	0x3d374f80	0.04475355
15	0x3c3c04cb	0.011475752
16	0xbc2eca28	-0.010668315
17	0xbd89ffbb	-0.0673823
18	0xbd9a506f	-0.07534873
19	0x00000000	0.0
20	0xbc4b2bad	-0.01240055
21	0x3d9a4e8a	0.075345114
22	0xbcc7dfe2	-0.024398748
23	0x3c4b2796	0.012399575

value_net.module_0.bias f4 [32]
0	0xbca1770b	-0.019710084
1	0xbb03d621	-0.0020116644
2	0x3bb06f00	0.005384326
3	0x3ccd3dac	0.025053822
4	0xbc01e77c	-0.007928725
5	0xbd296e0e	-0.041364722
6	0xbd413351	-0.04716808
7	0xbbd30bd3	-0.0064406185
8	0xbc04f698	-0.008115433
9	0xbb749f8b	-0.003732654
10	0x3d1afd6c	0.03783934
11	0x3c9cbabe	0.019132014
12	0xbc276e3d	-0.010219154
13	0x3cae77ae	0.021297302
14	0xbcafd1da	-0.02146237
15	0x3a1886ec	0.0005818445
16	0xba879928	-0.0010345327
17	0xbcc80de3	-0.024420684
18	0x3ba5a1b4	0.005054677
19	0xbbf53842	-0.007483513
20	0xbc929391	-0.01789263
21	0xbbeb8786	-0.0071877865
22	0xbce1b564	-0.027552314
23	0xbb256a09	-0.0025240204
24	0x3c34b9d7	0.011030636
25	0x3b8ad702	0.0042370567
26	0x3b4c0499	0.003113067
27	0xbc5c5e3a	-0.0134502
28	0x3b459f8c	0.0030154912
29	0x3b8aff5d	0.0042418675
30	0x3cc7677f	0.024341343
31	0x3a365f2e	0.0006956932

value_net.module_0.lin.weight f4 [32, 42]
0	0x3e786612	0.24257687
1	0xbca2e840	-0.019886136
2	0xbd37d5c1	-0.044881586
3	0x3dd1ff90	0.10253823
4	0xbd7da963	-0.061929118
5	0x3ea5a633	0.32353362
6	0xbe794df8	-0.24346149
7	0xbd16f51c	-0.03685485
8	0x3eaa5a40	0.3327198
9	0xbece6623	-0.403123
10	0xbe900306	-0.28127307
11	0xbe0f8d36	-0.14018711
12	0x3e346071	0.17614914
13	0xbe7c37c8	-0.24630654
14	0x3f094d9b	0.5363404
15	0xbd69e593	-0.057103705
16	0x3e1ae76f	0.15127347
17	0x3e69a221	0.22815754
18	0xbe2f78e5	-0.17135961
19	0x3d1665af	0.036718067
20	0x3dbfb1cf	0.09360086
21	0xbe48048f	-0.19532989
22	0xbd6e3c09	-0.058162723
23	0x3df6705c	0.120331496
24	0x3ecdff96	0.4023406
25	0xbd801281	-0.06253529
26	0xbe8d0298	-0.2754104
27	0xbd81ad31	-0.06331862
28	0xbe8bdf31	-0.2731872
29	0xbdeddcb7	-0.11614364
30	0x3d92ce2a	0.07168229
31	0xbca1e8c2	-0.019764308
32	0xbcc80607	-0.024416937
33	0x3da67724	0.08128193
34	0x3d3f232e	0.04666441
35	0x3c941657	0.018077059
36	0x3ecec093	0.40381297
37	0x3ddf808e	0.10913192
38	0xbe577b89	-0.21043219
39	0x3d7a1944	0.06105925
40	0xbd5d37b7	-0.054008212
41	0x3e1a6505	0.15077598
42	0x3d109013	0.03529365
43	0x3e904d12	0.281838
44	0x3e91ef1f	0.28502747
45	0xbd346351	-0.044040028
46	0xbe522780	-0.2052288
47	0x3e102824	0.14077812
48	0xbe9623e2	-0.2932425
49	0xbd82e699	-0.06391639
50	0x3d26f4cc	0.0407608
51	0xbea08cfe	-0.31357569
52	0xbe5e28c1	-0.21695234
53	0x3eb67a54	0.35640204
54	0xbf010672	-0.5040046
55	0xbd9d9a92	-0.076954976
56	0xbde34cda	-0.11098643
57	0xbd7ab65f	-0.06120908
58	0xbe63e8df	-0.22256802
59	0xbcfc99f1	-0.030835124
60	0xbccd41de	-0.025055822
61	0x3e0abfc0	0.1354971
62	0x3e731971	0.23740174
63	0xbd5b92bf	-0.053606745
64	0x3e804fb4	0.2506081
65	0xbe9a826d	-0.30177632
66	0xbac46079	-0.0014982364
67	0x3e22d461	0.15901329
68	0x3e146cda	0.14494649
69	0xbcaa4fff	-0.020790098
70	0xbe8ff217	-0.28114387
71	0xbdefbb65	-0.117056645
72	0xbe24a4d9	-0.1607851
73	0x3e2f1fed	0.17102022
74	0x3a4e00c3	0.000785839
75	0x3e99d387	0.30044195
76	0x3e829059	0.25500754
77	0xbea0014e	-0.31250995
78	0xbe8d2766	-0.2756912
79	0x3ebdbb21	0.3705683
80	0x3e3f155d	0.18660493
81	0xbd788def	-0.060682233
82	0x3b274cd7	0.0025527978
83	0xbe2df373	-0.169874
84	0x3ea048ec	0.31305635
85	0xbe1be248	-0.15223038
86	0xbe20619c	-0.15662235
87	0xbe966594	-0.29374373
88	0xbe97ec72	-0.2967258
89	0x3e5f3a77	0.21799646
90	0x3e9a15cf	0.30094764
91	0x3d14821b	0.03625689
92	0x3e510d48	0.20415223
93	0x3de3057b	0.1108503
94	0xbceb7819	-0.02874379
95	0xbe56aebd	-0.20965095
96	0x3ecd7ddc	0.40135086
97	0xbe5520c6	-0.20813283
98	0xbe455758	-0.192716
99	0xbebfc9c0	-0.3745861
100	0xbe7e75f2	-0.2484968
101	0x3dd3d2ef	0.10342967
102	0xbc1bf1cc	-0.009518098
103	0xbcae54e5	-0.021280715
104	0xbe385499	-0.18001021
105	0xbda24e63	-0.07925107
106	0xbc9e3e9b	-0.019316962
107	0x3e501847	0.20321761
108	0x3e26134c	0.16218299
109	0xbeade659	-0.33964804
110	0x3db22af0	0.08699596
111	0xbd22a09a	-0.039703943
112	0x3dde5295	0.10855595
113	0xbe85492c	-0.26032388
114	0xbe099f72	-0.1343973
115	0xbdb9765c	-0.090557784
116	0xbdfcdf36	-0.123472616
117	0xbd76e257	-0.06027445
118	0x3ede09db	0.43366894
119	0x3ca2dd1d	0.019880826
120	0xbe03aba0	-0.12858438
121	0x3e07579f	0.13217019
122	0x3e5ca4d1	0.21547247
123	0xbd35bd6a	-0.044370092
124	0xbe9638ab	-0.2934011
125	0xbe706fd2	-0.23480156
126	0xbe4aab5b	-0.1979193
127	0x3e708dbb	0.23491566
128	0x3cf6f89c	0.030147843
129	0xbeaf7c99	-0.34274748
130	0xbe80ba9a	-0.25142366
131	0xbe04523a	-0.12921992
132	0x3e675506	0.22591028
133	0x3e03ed0f	0.128834
134	0x3f03996f	0.51405996
135	0x3e3db2a2	0.18525174
136	0x3da94284	0.0826464
137	0xbd337741	-0.0438149
138	0xbd7b6924	-0.061379567
139	0x3eb32a31	0.34993127
140	0x3ebe38e0	0.37152767
141	0xbd445bc0	-0.047939062
142	0xbe459ffa	-0.19299307
143	0xbe807c92	-0.2509504
144	0x3c04f9c8	0.008116193
145	0xbd43b521	-0.04778016
146	0xbe18791c	-0.1488995
147	0x3cc68483	0.024233108
148	0xbe364afd	-0.17802043
149	0x3e60a578	0.21938121
150	0x3dedce81	0.11611653
151	0xbb09dba0	-0.0021035448
152	0xbe57163e	-0.21004578
153	0xbe98dc84	-0.2985574
154	0xbd497292	-0.04918153
155	0x3dc173ed	0.09445939
156	0xbe3f2ab6	-0.18668637
157	0x3ed2b739	0.41155413
158	0xbe6bb07c	-0.23016542
159	0x3df79501	0.12088967
160	0xbe46d7cf	-0.19418262
161	0xbed755d9	-0.42057684
162	0xbdae05d5	-0.08497206
163	0xbea1d2d0	-0.3160615
164	0x3c3804d3	0.011231619
165	0xbe31523b	-0.17316525
166	0xbe129292	-0.14313725
167	0x3e2b5ce6	0.16734657
168	0xbcead87a	-0.028667677
169	0x3f041d5f	0.51607317
170	0xbe93d308	-0.28871942
171	0xbe929396	-0.28628224
172	0x3d88a2b4	0.06671658
173	0x3e12d236	0.14338002
174	0x3d8600c2	0.06543113
175	0x3deef123	0.11667087
176	0x3df5441b	0.11975881
177	0xbed6a202	-0.41920477
178	0x3d118624	0.035528317
179	0xbe864e11	-0.26231435
180	0xbda04f30	-0.07827604
181	0xbe842254	-0.2580744
182	0xbe97994e	-0.2960915
183	0x3c9a83e7	0.018861724
184	0x3e9fb261	0.3119078
185	0x3e3976eb	0.1811177
186	0x3d96c131	0.07361067
187	0xbe4f4902	-0.20242694
188	0xbeb83020	-0.35974216
189	0x3e89cddb	0.26914868
190	0x3c8eabc2	0.017415885
191	0xbe5a6e7e	-0.21331212
192	0xbd757006	-0.059921287
193	0x3eb37a4b	0.3505424
194	0x3d639149	0.055558477
195	0xbd063e61	-0.032774333
196	0x3cfb8b82	0.030706171
197	0x3d6b7237	0.05748197
198	0xbdbf33ed	-0.09336076
199	0x3e9fe8d6	0.31232327
200	0xbd798600	-0.060918808
201	0xbe1673d8	-0.14692628
202	0x3dc3eef9	0.09567065
203	0x3dc56b90	0.096396565
204	0x3ec7a45b	0.3899258
205	0xbded2762	-0.11579777
206	0xbe641207	-0.22272502
207	0xbd9f0e39	-0.07766385
208	0x3e1062f7	0.14100252
209	0xbdabdf01	-0.08392144
210	0x3e0a3d60	0.13499975
211	0x3dc55406	0.09635167
212	0xbda058d7	-0.07829445
213	0x3e75e544	0.24013239
214	0xbec0b8fc	-0.37641132
215	0xbdc53d0d	-0.09630785
216	0xbdd711ff	-0.10501479
217	0x3eae16cc	0.34001768
218	0xbe0d3822	-0.13790944
219	0x3e547f23	0.20751624
220	0x3c337aae	0.010954542
221	0x3e188e23	0.14897971
222	0xbddb6d2a	-0.10714181
223	0x3e419602	0.1890488
224	0x3f003bb9	0.5009113
225	0xbe896c9d	-0.26840678
226	0x3d3a32e4	0.04545869
227	0x3e8c355e	0.27384466
228	0x3cf9c944	0.030491479
229	0x3dbdd15b	0.09268447
230	0xbe19d2d8	-0.15021837
231	0x3e3f6e16	0.18694338
232	0xbe319c27	-0.17344724
233	0xbeefc7b0	-0.46832037
234	0xbda6b93d	-0.081408
235	0xbd8becb4	-0.06832257
236	0x3cfbe2d6	0.030747812
237	0x3e41d5e7	0.18929254
238	0x3ef19df7	0.4719083
239	0x3e189e4c	0.14904135
240	0x3cb5e2a7	0.022202803
241	0xbe2251c5	-0.15851505
242	0xbdb7209a	-0.08941765
243	0x3e271c5a	0.16319409
244	0x3ade2216	0.0016947414
245	0x3c1317a8	0.008977808
246	0x3e92ef41	0.2869816
247	0x3e702558	0.23451746
248	0x3c847bd5	0.016172329
249	0xbebd1f0d	-0.36937752
250	0x3eb8836d	0.3603777
251	0x3cba3008	0.022727981
252	0x3ea2ce02	0.31797796
253	0x3d85632f	0.065130584
254	0x3d843d72	0.06457032
255	0xbdf43756	-0.11924617

value_net.module_2.bias f4 [32]
0	0xbc70cbc2	-0.014697017
1	0x3b202a5b	0.0024439308
2	0x3b39625e	0.0028287391
3	0xbbf846ce	-0.0075768
4	0xbba44eff	-0.0050143
5	0x3b51e21e	0.0032025645
6	0x3c218eff	0.009860753
7	0x3bfed0a7	0.007776338
8	0xbc469e89	-0.012122759
9	0x3ae6f572	0.0017620756
10	0x3b68fb64	0.003555023
11	0x3c4c4226	0.012466943
12	0xb9a4c360	-0.00031426083
13	0x3aefc001	0.0018291475
14	0xbbe2a9be	-0.0069172075
15	0xb8c1fd80	-9.250175e-05
16	0xbc833f28	-0.016021326
17	0x3c9c1051	0.019050749
18	0x3ad744aa	0.0016423662
19	0xbbff3028	-0.007787723
20	0x3b52f620	0.003219016
21	0xbb1c9991	-0.0023895244
22	0x3c9ca888	0.01912333
23	0xbb4161e7	-0.0029507817
24	0xbbbb1880	-0.0057097077
25	0xbc914392	-0.017732415
26	0xbcacb1a0	-0.021080792
27	0xbc072fc5	-0.008251135
28	0xbc50d7e0	-0.012746781
29	0xbcc9ec37	-0.024648769
30	0xbb22debd	-0.0024852
31	0xbb53399e	-0.0032230387

value_net.module_2.lin.weight f4 [32, 32]
0	0xbdbc830d	-0.092046835
1	0x3ea8ec68	0.32992864
2	0x3ce6061a	0.028079081
3	0x3e501c6e	0.20323345
4	0xbe8a06fa	-0.26958448
5	0xbe9209fe	-0.28523248
6	0xbeaf8e00	-0.34288025
7	0x3e042858	0.12906015
8	0x3e0c8d98	0.13725889
9	0x3e022a2f	0.12711404
10	0xbdb135fe	-0.08652876
11	0xbf08ec3b	-0.5348546
12	0xba96ca44	-0.0011504372
13	0xbed788af	-0.4209647
14	0xbe977025	-0.29577747
15	0xbe0bbb0e	-0.13645574
16	0x3e39e6a6	0.18154392
17	0x3ea3e535	0.3201081
18	0xbe7317b6	-0.23739514
19	0xbd3942d5	-0.04522975
20	0xbe1f5832	-0.15560988
21	0xbe4ed691	-0.20199038
22	0x3e267e92	0.1625922
23	0x3acb1ca5	0.0015496208
24	0xbe082811	-0.13296534
25	0x3ca8bc59	0.020597624
26	0x3e924776	0.28570145
27	0x3e9d754b	0.3075355
28	0x3e004944	0.12527949
29	0x3ed4e78d	0.4158291
30	0x3e404f08	0.18780148
31	0x3e309b76	0.17246804
32	0x3ec1ad63	0.37827596
33	0xbe3a5462	-0.18196252
34	0xbdb3da28	-0.087818444
35	0xbca2cc4e	-0.01987281
36	0xbddd1f0b	-0.107969366
37	0x3efc7482	0.49307638
38	0xbd98fa9d	-0.07469676
39	0x3f01df73	0.5073158
40	0x3e3233d9	0.17402591
41	0x3e6b2194	0.22962028
42	0xbe079d32	-0.13243559
43	0xbdc9f459	-0.09861059
44	0xbdc331c3	-0.09530976
45	0xbe4ba418	-0.19886816
46	0xbe262ca9	-0.16227974
47	0xbe866ca6	-0.26254767
48	0x3e34fbd2	0.17674187
49	0xbed62da7	-0.41831705
50	0xbcbc5aea	-0.02299257
51	0xbead6d17	-0.3387229
52	0xbe9425ec	-0.28935182
53	0x3cf4506c	0.029823504
54	0x3dacaa75	0.084309496
55	0x3e11794f	0.14206432
56	0x3e8e3e24	0.27781785
57	0x3e446c94	0.19182044
58	0x3d27547a	0.040852048
59	0xbdbb0362	-0.091315046
60	0x3cbbfd76	0.022948008
61	0xbe20b06a	-0.15692297
62	0x3e79e5b8	0.24404037
63	0xbea26a8b	-0.3172191
64	0xbdc59c72	-0.0964898
65	0x3d90bdca	0.070674494
66	0x3ed047ca	0.4067977
67	0xbc7a9861	-0.015295119
68	0xbe2c5b7c	-0.16831774
69	0xbe659750	-0.22421002
70	0x3e1196fe	0.14217755
71	0x3e94b607	0.29045126
72	0x3cca0a35	0.02466307
73	0x3ded9bb9	0.11601967
74	0xbdaa2c63	-0.08309247
75	0xbd7d9d15	-0.061917383
76	0xbe02337c	-0.12714952
77	0x3ed8663d	0.42265502
78	0xbc4f62e1	-0.012657852
79	0xbed8f32a	-0.4237302
80	0x3dda898c	0.10670766
81	0x3e554f9c	0.2083115
82	0x3d1d1696	0.038351618
83	0xbe955254	-0.29164374
84	0xbec4a478	-0.3840673
85	0x3f0bf0cc	0.546643
86	0xbeec0a3a	-0.46101552
87	0x3dc5b9d3	0.09654584
88	0xbebe05ee	-0.371139
89	0xbe119aeb	-0.14219253
90	0x3d98e548	0.07465607
91	0xbe012c7d	-0.12614627
92	0xbe650695	-0.22365792
93	0xbcc81734	-0.024425127
94	0x3e4ebc6f	0.20189069
95	0xbd98fd64	-0.074702054
96	0x3d2ca901	0.042153362
97	0xbec0b2d8	-0.37636447
98	0xbe2cd0a2	-0.16876462
99	0xbe96a56a	-0.29423076
100	0x3e07dc0a	0.13267532
101	0xbc7fdf55	-0.015617211
102	0x3dd1b5fc	0.10239789
103	0x3cbff723	0.023433274
104	0x3ee24ff5	0.44201627
105	0x3ec08afe	0.37606043
106	0xbedf366f	-0.43596217
107	0xbc5cdeb4	-0.013480831
108	0x3d55686c	0.052101538
109	0x3deba263	0.11505582
110	0x3d5a5e68	0.05331269
111	0xbd65fac1	-0.05614734
112	0x3e8cbe85	0.27489105
113	0xbde1c40e	-0.110237226
114	0xbe38eec0	-0.18059826
115	0x3ebfdf9a	0.37475282
116	0xbd2ef5b5	-0.042714793
117	0xbe8229b8	-0.25422454
118	0xbeaafb61	-0.33394912
119	0xbd8cf437	-0.06882518
120	0xbea5555f	-0.32291695
121	0xbebb063d	-0.36528197
122	0x3e2f3ee7	0.17113839
123	0xbdd9ccbd	-0.10634754
124	0x3da576dd	0.08079312
125	0x3ea8db9a	0.32980043
126	0xbea2e130	-0.3181243
127	0x3e2d709e	0.16937491
128	0xbe983cbc	-0.29733837
129	0xbe978d76	-0.29600114
130	0x3e609b72	0.21934298
131	0x3e0fbc09	0.14036573
132	0x3e0b1959	0.13583888
133	0xbef2670d	-0.47344247
134	0xbe19c4ff	-0.15016554
135	0x3e923c87	0.28561804
136	0x3cc0ec7c	0.023550265
137	0x3e01b87d	0.12668033
138	0x3e51400b	0.20434587
139	0x3eba50e9	0.36389855
140	0x3d84a30d	0.06476412
141	0xbf22cd97	-0.63594955
142	0x3e9af0cb	0.30261835
143	0x3e51ff0d	0.2050745
144	0x3e4cfbf7	0.20017992
145	0xbc6597dc	-0.014013257
146	0x3eab2467	0.3342621
147	0xbeb5a0de	-0.35474294
148	0x3eb401d2	0.3515764
149	0xbd899326	-0.067175195
150	0xbd7217b9	-0.059104655
151	0xbdf6f488	-0.120583594
152	0xbe5358d4	-0.20639354
153	0xbe8ebe41	-0.27879527
154	0x3d2bcc2c	0.04194276
155	0xbd777b6b	-0.060420435
156	0xbdb6da64	-0.089283735
157	0xbc951532	-0.018198583
158	0x3d13879e	0.036018007
159	0xbeacb264	-0.3372985
160	0xbe7a86f1	-0.24465539
161	0xbdb7c1f6	-0.08972542
162	0xbeec204e	-0.46118397
163	0xbe6b03ef	-0.2295072
164	0x3e82afbf	0.2552471
165	0xbeb6bd1e	-0.3569116
166	0x3c684030	0.01417546
167	0x3dc14f38	0.09438938
168	0xbe19e01b	-0.15026896
169	0xbe9b6341	-0.30349162
170	0x3e945faa	0.28979236
171	0xbdbba41c	-0.09162161
172	0xbdab062e	-0.08350788
173	0x3e7df646	0.24800977
174	0xbe1ab138	-0.15106666
175	0x3e611a15	0.21982606
176	0x3eb6543e	0.35611147
177	0x3eb25859	0.3483303
178	0xbec99545	-0.39371696
179	0xbcd05068	-0.025428966
180	0xbdf3b707	-0.11900144
181	0xbdac2f54	-0.084074646
182	0xbe762ba6	-0.24040088
183	0xbe8a0164	-0.26954186
184	0x3ebe5c4f	0.371798
185	0x3c8137cf	0.015773682
186	0xbe1aa0e6	-0.1510044
187	0x3e0158bf	0.1263151
188	0xbd6d64c9	-0.057957444
189	0x3c114673	0.008866894
190	0xbdfba757	-0.12287777
191	0xbeef16ed	-0.46697178
192	0x3db0665d	0.08613274
193	0xbeebef07	-0.460808
194	0x3ea310cd	0.31848755
195	0x3f1f3920	0.6219654
196	0xbe1b8096	-0.1518577
197	0xbe6367c0	-0.22207546
198	0xbcd015ec	-0.025401078
199	0x3c3a5c3f	0.011374532
200	0x3e4db8fc	0.20090097
201	0x3e49adfb	0.19695275
202	0xbc98e987	-0.018666042
203	0xbda17a74	-0.07884684
204	0xbe328298	-0.1743263
205	0x3e1f7fdc	0.15576118
206	0xbc9f10a1	-0.019417109
207	0x3e4443fa	0.19166556
208	0xbdddd19d	-0.10830996
209	0xbe84afe6	-0.2591545
210	0xbe167329	-0.14692368
211	0x3ead0499	0.3379257
212	0x3d525e2d	0.051359344
213	0xbd469879	-0.048485253
214	0xbea74bcd	-0.3267502
215	0xbe05c6a4	-0.13064057
216	0x3f0169b0	0.5055189
217	0xbe35cf38	-0.17754829
218	0xbeb71d34	-0.35764468
219	0x3df31852	0.11869873
220	0x3cb95869	0.022625165
221	0x3d30e046	0.043182634
222	0x3ed0c929	0.40778473
223	0x3cf2b1a2	0.029625718
224	0x3eb2a960	0.34894848
225	0xbe4ce096	-0.20007548
226	0x3ebf9847	0.37420866
227	0x3e4ee73d	0.20205398
228	0x3da6ee2e	0.08150898
229	0x3e14d7e2	0.14535478
230	0xbe542067	-0.20715486
231	0xbda25275	-0.07925884
232	0xbe2b553d	-0.16731735
233	0xbdc113ea	-0.094276264
234	0x3ea1a737	0.31572887
235	0xbec46b01	-0.38362888
236	0x3dc4394f	0.09581243
237	0x3da6ce33	0.08144798
238	0x3e07005c	0.13183731
239	0xbdcf659c	-0.10126802
240	0x3dda0abd	0.106465794
241	0xbeb0405d	-0.34424105
242	0xbe4df898	-0.20114362
243	0xbe46b0d2	-0.19403389
244	0xbe6358da	-0.22201863
245	0xbe86841b	-0.26272663
246	0x3c9e7dd8	0.019347116
247	0xbe9215ab	-0.28532156
248	0xbec950a2	-0.3931933
249	0xbbda2e13	-0.0066583245
250	0xbe08502f	-0.13311838
251	0x3eadca0c	0.33943212
252	0x3c69da1f	0.0142731955
253	0xbe812690	-0.25224733
254	0xbf1b5178	-0.60671186
255	0xbe5d99a3	-0.21640639

value_net.module_4.weight f4 [32, 32]
0	0xbe9b170a	-0.30291015
1	0x3d01ae56	0.0316604
2	0x3e5fd0d2	0.21857002
3	0x3f15fdaa	0.58590186
4	0xbe3d7bc4	-0.18504244
5	0x3e4eb832	0.20187452
6	0xbe990c9f	-0.29892442
7	0x3dbf7ad8	0.093496025
8	0xbdebce7b	-0.115139924
9	0x3caf7b06	0.021420967
10	0x3e6b147b	0.22957031
11	0x3e18fce2	0.14940217
12	0xbd16a43c	-0.03677772
13	0x3e7ec0f3	0.24878292
14	0x3d5e3331	0.05424804
15	0xbf11596b	-0.56777066
16	0x3e079380	0.1323986
17	0xbe9c4ba0	-0.30526447
18	0xbe9fe974	-0.31232798
19	0xbe3d7938	-0.18503273
20	0xbc963835	-0.018337348
21	0xbcbb7a35	-0.022885421
22	0x3e7365d5	0.23769315
23	0xbe219827	-0.15780698
24	0xbeb68fb0	-0.356565
25	0xbe11c736	-0.14236149
26	0xbda5025a	-0.08057089
27	0xbdc3498b	-0.095355116
28	0x3d1f6b29	0.038920555
29	0xbdc53b6f	-0.09630477
30	0x3dcd8d8c	0.100367635
31	0xbe8cfb5c	-0.27535522
32	0x3ee01c54	0.43771613
33	0xbe0eaa9b	-0.13932268
34	0xbeed5da7	-0.46360514
35	0xbd889117	-0.06668299
36	0x3e0298a4	0.1275354
37	0xbce07fb9	-0.027404653
38	0x3e408259	0.18799724
39	0x3a8ad1ac	0.0010591052
40	0xbc4cb59f	-0.012494474
41	0xbc430693	-0.011903423
42	0x3dfb45f2	0.122692004
43	0xbde10195	-0.1098663
44	0xbe8bd420	-0.27310276
45	0x3dd505b0	0.104014754
46	0xbeaf974f	-0.34295127
47	0xbec4534c	-0.383448
48	0xbe92187f	-0.28534314
49	0xbe0fceac	-0.14043683
50	0xbe439f3b	-0.1910371
51	0xbf00c453	-0.50299567
52	0x3e72e3ba	0.23719683
53	0xbe1b7dd2	-0.15184715
54	0xbe044cfb	-0.1291999
55	0x3edcf433	0.4315506
56	0x3e8ca5e4	0.27470315
57	0x3e1d8dab	0.15386073
58	0xbda0cdbc	-0.07851741
59	0xbe1d3ac7	-0.15354453
60	0x3d8c6600	0.068553925
61	0x3ccde748	0.025134698
62	0xbea4fc4d	-0.3222374
63	0xbce7a26f	-0.028275697
64	0xbe414256	-0.18872961
65	0x3e71148c	0.23542994
66	0xbea85aea	-0.32881862
67	0x3d8581e1	0.06518913
68	0xbdd3215b	-0.103090964
69	0x3df024fe	0.11725806
70	0x3ae2543a	0.0017267533
71	0xbd414d71	-0.047192995
72	0xbe1e2a93	-0.15445928
73	0xbe737eb7	-0.23778807
74	0x3d562139	0.052277777
75	0x3e982954	0.2971903
76	0x3e63ed1e	0.22258422
77	0xbf062c04	-0.5241091
78	0x3e2593d2	0.1616967
79	0xbcb61e70	-0.02223131
80	0x3ec78885	0.38971344
81	0xbe10efa1	-0.14153911
82	0xbe1d5689	-0.15365042
83	0xbeae7a41	-0.34077647
84	0x3ed9efcc	0.42565763
85	0xbe42d66e	-0.19027111
86	0x3da61f22	0.08111407
87	0x3d58f246	0.052965425
88	0xbd500440	-0.050785303
89	0xbe8e5b11	-0.27803853
90	0x3eadf389	0.33974865
91	0xbd72ba24	-0.05925955
92	0x3efb4b1a	0.49080735
93	0x3e375de4	0.1790691
94	0xbdc12d41	-0.094324596
95	0x3ef74d1a	0.4830101
96	0xbe0197be	-0.12655541
97	0x3e3081bb	0.17236988
98	0x3d6936ef	0.056937154
99	0x3cb283a3	0.021791285
100	0xbe270f93	-0.16314535
101	0x3c731628	0.014836825
102	0x3e81394e	0.25239033
103	0x3eb0965d	0.34489718
104	0x3edda713	0.4329153
105	0x3e2a98a2	0.16659787
106	0xbec2595f	-0.3795881
107	0xbe8f48fe	-0.27985376
108	0xbe819b81	-0.25313953
109	0xbed027ba	-0.4065531
110	0x3df9835a	0.121832564
111	0xbdd97c6b	-0.10619434
112	0xbe81650b	-0.25272402
113	0x3c94bc28	0.018156126
114	0x3e0d99d8	0.13828218
115	0xbe96b0fa	-0.29431897
116	0xbbfd36a2	-0.00772746
117	0xbdef7799	-0.11692733
118	0x3e809229	0.2511151
119	0xbec1c42e	-0.37844986
120	0x3dfc9019	0.12332172
121	0xbeb46db7	-0.35239956
122	0x3e789efe	0.242794
123	0xbddeebb3	-0.108848
124	0xbf15f3f7	-0.58575386
125	0xbbde9951	-0.006793179
126	0xbe71f525	-0.23628671
127	0x3deccf3e	0.11562966
128	0x3e44f6a1	0.19234706
129	0xbd921f4a	-0.07134874
130	0xbe2deebc	-0.16985601
131	0xbe652439	-0.22377099
132	0xbe82be7f	-0.25535962
133	0xbe86ad83	-0.26304254
134	0xbc351cf5	-0.011054267
135	0xbd5cb4d5	-0.053883392
136	0xbeb0a55f	-0.34501168
137	0x3d7a967b	0.061178666
138	0xbc8230ab	-0.015892347
139	0x3d66175f	0.056174632
140	0x3e8853b7	0.2662637
141	0x3f00de80	0.5033951
142	0x3e96092d	0.29303876
143	0x3e2350b2	0.15948752
144	0xbe43df7d	-0.19128223
145	0x3dfd8232	0.123783484
146	0xbeed49eb	-0.46345457
147	0xbc2b2a71	-0.010447131
148	0xbec9cba2	-0.39413172
149	0xbd904a30	-0.070454
150	0x3d3e69b5	0.04648753
151	0xbe9b1a7f	-0.30293652
152	0x3da899c8	0.082324564
153	0xbed40551	-0.41410306
154	0xbd89c20c	-0.06726465
155	0xbdeb49a8	-0.11488658
156	0xbd2ddb16	-0.042445265
157	0x3dbb2dd1	0.09139598
158	0xbe8a19b8	-0.26972747
159	0x3f0d20e2	0.551283
160	0xbf010209	-0.5039373
161	0xbd576e87	-0.05259564
162	0xbe923434	-0.28555453
163	0x3e51e3f5	0.20497115
164	0x3e9103d9	0.28323248
165	0x3d94991a	0.07255764
166	0xbe8bfb18	-0.27340007
167	0xbd5a5973	-0.05330796
168	0x3d86ac0a	0.065757826
169	0xbea0c5b7	-0.31400844
170	0xbd94b964	-0.07261923
171	0xbe9b89ee	-0.3037867
172	0xbd0fa14c	-0.035065934
173	0x3e304e8c	0.17217463
174	0x3c9f516e	0.019448008
175	0x3ecd760e	0.4012913
176	0xbc65b01c	-0.0140190385
177	0x3ca5f1eb	0.020256957
178	0xbd36a500	-0.04459095
179	0xbe0de933	-0.1385849
180	0xbe81685d	-0.25274935
181	0xbe9c761d	-0.30558863
182	0xbde2051b	-0.1103613
183	0xbded6054	-0.11590639
184	0x3d719bc9	0.05898646
185	0x3db89814	0.090133816
186	0x3ce691df	0.028145729
187	0xbf287e4e	-0.65817726
188	0x3ddb0c47	0.10695701
189	0x3e902e36	0.28160256
190	0xbe802b50	-0.25033045
191	0xbe88b26e	-0.2669863
192	0x3d7a0fb0	0.061050117
193	0x3e741863	0.23837428
194	0x3cd739be	0.02627265
195	0x3e3bcf45	0.18340786
196	0xbcb7de97	-0.022445006
197	0xbeb43708	-0.35198236
198	0xbe9c9d2b	-0.3058866
199	0xbcd2c1b4	-0.02572713
200	0xbe39b993	-0.18137197
201	0xbec61863	-0.3869048
202	0x3e09d60e	0.13460562
203	0xbe611016	-0.21978793
204	0x3e4faffc	0.20281976
205	0xbf027b64	-0.5096953
206	0xbe7dc4c8	-0.24782097
207	0xbe905ae2	-0.28194338
208	0xbef22c77	-0.4729955
209	0xbdf4ed8f	-0.11959373
210	0xbed13ada	-0.40865213
211	0x3ecc5650	0.399096
212	0xbddfe463	-0.10932233
213	0x3eeb7d42	0.45994002
214	0x3e005ba5	0.1253496
215	0x3d41f385	0.04735138
216	0x3e4473fe	0.19184873
217	0x3d7677d2	0.060172863
218	0x3e2baff7	0.16766344
219	0xbe6de656	-0.23232397
220	0xbd0d5565	-0.034505267
221	0xbe1159c3	-0.14194398
222	0xbc5cf3f2	-0.0134858955
223	0x3cdc4fc0	0.026893497
224	0x3db5f356	0.08884303
225	0x3ebcd850	0.36883783
226	0xbc3036b2	-0.010755228
227	0x3ecfbbfc	0.40573108
228	0x3efdf14c	0.49598157
229	0xbdf2f4fb	-0.118631326
230	0x3ef85634	0.48503268
231	0xbcc34b17	-0.023839517
232	0xbeea7fc0	-0.4580059
233	0x3e2d7ed1	0.16942908
234	0xbe26c9fd	-0.1628799
235	0x3e0101c1	0.12598325
236	0x3e4e2b7c	0.20133775
237	0xbe4c6262	-0.19959405
238	0xbe85de26	-0.26146048
239	0x3e7adc1f	0.24498032
240	0x3b273df5	0.0025519107
241	0x3db86b57	0.090048485
242	0x3e10652b	0.14101093
243	0xbd4cfcd8	-0.050045818
244	0xbe788094	-0.24267799
245	0xbe3651af	-0.17804597
246	0x3cb010b3	0.021492338
247	0x3e25cff6	0.16192612
248	0xbee78848	-0.45221162
249	0x3e0df523	0.13863043
250	0xbdb78688	-0.08961207
251	0xbe529adc	-0.20566887
252	0xbe8e4c9e	-0.2779283
253	0xbe83d732	-0.25750118
254	0x3e1266b5	0.14296992
255	0x3e6c03bd	0.23048301

value_net.module_4.bias f4 [32]
0	0x3bdfc692	0.0068290913
1	0x3b2121fb	0.0024586904
2	0x3b017c6c	0.0019758
3	0x3b753ddf	0.0037420911
4	0x3c131ed3	0.008979517
5	0xbc206292	-0.009789126
6	0xbbc674ec	-0.0060564186
7	0x3b1e5d21	0.0024164396
8	0x3b837ced	0.004012695
9	0xbbfdf91d	-0.007750644
10	0xbb4a1a71	-0.0030838514
11	0x3c8ee434	0.0174428
12	0xba13b809	-0.00056350284
13	0xbc16c8d1	-0.009203152
14	0x3b357186	0.0027686073
15	0xbbde3084	-0.006780686
16	0x3c1ccbef	0.009570106
17	0x3a487fcc	0.0007648438
18	0x3b163924	0.0022922242
19	0x389ee978	7.577514e-05
20	0x3b5e3505	0.0033906114
21	0xbcd3ab73	-0.02583859
22	0xbc074b66	-0.0082577225
23	0xbb8d7caf	-0.004317842
24	0xbb5db029	-0.0033826923
25	0xbb7a682d	-0.0038209066
26	0x3a7514ef	0.00093491276
27	0xbbaf1535	-0.0053431042
28	0x3bc48345	0.005997094
29	0xbba949a4	-0.0051662493
30	0x39a4e177	0.00031448502
31	0xb9f657ef	-0.00046986292

value_net.module_7.weight f4 [1, 32]
0	0xbe97d92a	-0.2965787
1	0xbe607c5d	-0.21922441
2	0x3caa1907	0.020763887
3	0xbdbda66f	-0.0926026
4	0xbdc231d3	-0.094821595
5	0x3ba2dcad	0.0049701543
6	0x3cd09e6a	0.025466163
7	0xbe17b6f9	-0.14815892
8	0xbdd9a782	-0.10627653
9	0x3dbc63cd	0.09198723
10	0x3cc35b95	0.02384738
11	0xba9bd035	-0.0011887612
12	0xbe5acb65	-0.21366651
13	0x3dc76a86	0.097371146
14	0x3e0d04f2	0.13771418
15	0x3e0f878f	0.14016555
16	0x3cab5c55	0.02091805
17	0x3dc68b41	0.09694529
18	0x3e65c24c	0.224374
19	0xbd75366b	-0.05986635
20	0xbe11b18f	-0.1422789
21	0xbaa6dcef	-0.0012730638
22	0xbb01c86d	-0.00198033
23	0x3e04c95e	0.1296744
24	0xbce77fb6	-0.02825914
25	0x3d45a71c	0.04825507
26	0xbe86e995	-0.26350084
27	0x3e03fa9d	0.1288857
28	0xbcdcccf6	-0.026953202
29	0x3e0a01a5	0.1347719
30	0xbe0f5cee	-0.14000294
31	0xbce400cb	-0.02783241
