MAPPO/2DAction/save/SF_T1/agent_0_MAPPO_r.pt (torch, 29254 bytes, 15 tensors)

policy_net.module_0.bias f4 [32]
00000000: 4317 033d ff93 fc3c 83f4 12bd ed16 05bd
00000010: 6d70 edbc 887c c9bc 79ae f43c 0e6e bb3c
00000020: a9eb cfbc 6d54 dd3b 4ba0 ef3c ad81 abbc
00000030: 1a85 0d3d 492d 0e3d 1519 713c d3fe 133d
00000040: 9052 1b3d c301 05bd affa 0dbd d5d0 143d
00000050: 8bc4 023d aed9 0dbd 3823 013d edf4 9fbc
00000060: 7eb4 bdbc 2344 10bd 3f60 16bd 8cb2 133d
00000070: 2a5b 9d3c 6ff3 ba3c f5f6 b73c 4e29 12bd
0.032004606 0.030832289 -0.035877716 -0.032492567 -0.028984273 -0.024595514 0.029868351 0.022879627
-0.025380926 0.006754449 0.029251238 -0.020935858 0.034550764 0.034711156 0.014715453 0.03613169
0.037920535 -0.032472383 -0.0346629 0.03633197 0.03192572 -0.034631424 0.031527728 -0.01952597
-0.023157354 -0.03522123 -0.03671288 0.036058947 0.01920851 0.022821156 0.022456625 -0.035683922

policy_net.module_0.lin.weight f4 [32, 2]
00000000: 2255 043f 95c8 173d ed46 4fbd e482 a93e
00000010: f134 21bf af4e 133d c2a1 7abe c802 b0be
00000020: 8e84 d13d 06da 05bf 540c af3c 9ea5 b9be
00000030: 7638 833d 40aa 143f 643a 8a3e 733f ae3d
00000040: a2ae 98be 7989 eebe 78e4 0e3d ff87 5d3d
00000050: c6f8 e63e d246 9b3e 2191 1ebd e0de 31bc
00000060: c861 903e e410 813e c493 4f3c 3d9a 803e
00000070: 28f0 703e fe87 7d3e de9e 013e e706 fd3d
00000080: abd5 9a3e fabd 403e 5c59 f9be 44c8 88be
00000090: ec43 19be 1c07 50bd 7fa8 c53e 2bf9 a3be
000000a0: 2c80 bdbd 88e8 313f d9ae c5be f281 8abe
000000b0: ebc4 f9bb e02e f93d 1090 19be 4206 fa3a
000000c0: 1f86 12bf b9f4 993d a10d 4cbe 2c90 c8bd
000000d0: b0df 19be 3ec2 5cbe 477e 823d 16a1 f93c
000000e0: 9b0a 3d3e eeba 833d 9766 ce3e 9195 093e
000000f0: 4f57 8cbd 3e10 c93e 5cf3 d0be 1a2b 0b3e
0.516924 0.037056524 -0.05060475 0.33107674 -0.6297141 0.03596371 -0.24475768 -0.34377122
0.10230361 -0.522858 0.021368183 -0.36259168 0.064072534 0.5807228 0.26997674 0.08508196
-0.29820734 -0.46589258 0.034885854 0.054084774 0.45111674 0.3032747 -0.038712624 -0.01085636
0.281996 0.252082 0.012669507 0.25117674 0.23529112 0.24758908 0.1265826 0.12354832
0.3024114 0.1882247 -0.48700988 -0.2671529 -0.14967316 -0.05078803 0.38605115 -0.32026038
-0.092529625 0.6949544 -0.3860996 -0.27052265 -0.0076223514 0.12167144 -0.14996362 0.0019075351
-0.572359 0.0751738 -0.19927074 -0.097931236 -0.15026736 -0.21558473 0.06371742 0.03047232
0.18461077 0.064321384 0.40312645 0.13435961 -0.0685259 0.39270204 -0.40810668 0.1359066

policy_net.module_2.bias f4 [32]
00000000: ad6a 1b3d 0d7f 0dbd 4363 df3c 61ce 163d
00000010: 3f18 0fbd 233d fdbc 8692 07bd 240c 053d
00000020: 73f1 c8bc 8b4e 103d d529 003d 01e8 0cbd
00000030: 2020 36bc 5bcc d8bc 8a99 0dbd 384d 0c3d
00000040: a5b9 023d f95f 03bd b35a f7bc 135b 57bc
00000050: c840 0e3d 3a2e 203d 4364 c53c 0194 163d
00000060: d03c 713c dcd7 89ba bcaa 0e3d 0dbc 1dbd
00000070: c48a 11bd a9ae f13c f791 fcbc 7736 003d
0.03794353 -0.034544993 0.027269011 0.036817912 -0.034935232 -0.030912941 -0.03309872 0.03248228
-0.024529194 0.035231154 0.031289894 -0.034400944 -0.011116058 -0.026464632 -0.034570254 0.03425333
0.031915326 -0.03207395 -0.030194616 -0.013144272 0.03472975 0.039106585 0.02409566 0.03676224
0.0147239715 -0.0010516602 0.034830794 -0.038509417 -0.035532728 0.02950223 -0.03083132 0.03130194

policy_net.module_2.lin.weight f4 [32, 32]
00000000: 059c 483c 02e2 d1be 9b5d fdbe 24da 2b3e
00000010: 1221 9bbe b77a 8f3e c1f8 fbbe ec54 4e3e
00000020: 1888 a8be d6a6 9b3d ee9a 00be 8a51 50be
00000030: 5649 883e f5c1 233d cd00 7b3e 2c7e 5e3e
00000040: 1a7f 673e 0445 fcbd 4c20 f83d 17a4 e63e
00000050: b304 a43d 43e8 b8be 5893 87be 6b45 9ebe
00000060: 7182 013d 98d4 a6be a4e6 33be 15cc 8cbd
00000070: 2f57 d03e d6b0 7d3b 51f7 303e 78a8 c13c
00000080: b3be 503e d6ff 7a3c ae00 80be 9114 0a3e
00000090: c026 44be 7f26 d13d f8bd d2be 1ddf 403e
000000a0: 67e6 db3e 89d1 0abf 70df 783e c5fd f0bd
000000b0: 2fbe a23d 1006 17be 1246 1a3d 566e c8bd
000000c0: bdac 093d 5307 223d 544d 503c e7e6 80be
000000d0: 04d4 bdbe 7c04 503f e7b0 e83d f2ca fabd
000000e0: 5e81 333d f5f0 f03d 8d40 8c3e c7e6 b23d
000000f0: fda7 2e3e b15c 003e f816 8dbe 0ace a33e
00000100: fa8a 7b3e 94d3 643e c948 2f3e 68c1 eebe
00000110: ed79 25be a3fe 72be e1ee bb3d 43c9 22bd
00000120: 7897 fcbd ec1f 5dbe 11c5 0ebb 5edd a2bd
00000130: 6ec0 5b3e 0e1b 9c3d 5fbf 5c3c c760 a4bd
00000140: 5e60 2f3f a2f0 a43d e01f 263f b216 163d
00000150: 7f02 483e 017c b1bd 7b31 5e3d ef4a 99be
00000160: a8c2 1d3e 07dd b5bd 0711 973e 0182 cfbe
00000170: f3c8 033e 0bad 98be ddd1 a0bd fc3a 93be
00000180: 24e5 29be ff59 b53e 984e ea3d 673c bdbd
00000190: f480 983e 46cd 463a 18a3 babb afa2 953d
000001a0: b33c d33d 6510 45be 5f4f a73e 05c6 c23d
000001b0: 9a5d 943d 800e a03e f4fd 553e 74fc 813e
000001c0: 74df a23e e6aa 7cbd 2db4 1cbe 5787 fc3e
000001d0: 6dd3 1a3f c066 3c3d 9242 4b3e 6923 f8be
000001e0: 368d 61be a90d dabc 1bac fbbe 5ea9 7f3e
000001f0: 5d89 1ebd 3d71 4fbe 00de 223d 7eea da3e
00000200: e7b3 d33c daf5 8abe d17c 0c3e 755d f23d
00000210: 07d9 4dbe bde1 883e 5c08 923d be7e 2b3e
00000220: 2b3e 36be 0cd4 243e 8d78 083f 9d40 683e
00000230: 3631 07bd 38ae 13bc 5aad cebe 0535 82be
00000240: 0e61 17be 0a9e 203d d95d 13be ce5f cc3e
00000250: 787e b6bd 0fc0 0c3e 0f9d 8f3e 05df c33a
00000260: 864e 4cbe f8e6 d1ba a2cc 233f 9613 66be
00000270: a140 1cbe 2ab9 c9be 7b54 c23e 074a 453e
00000280: 07c9 02bf a4cd 44bd 2019 e83e bd26 e4bd
00000290: 1b5b b9be e756 a0be ca58 0dbf a406 7abe
000002a0: 9ce2 4c3e 71d3 efbc 4b17 96be 152f 653d
000002b0: e74b f63e b710 10bd 505c cabe 10fa 3b3e
000002c0: d9c7 c53d f55e 463d 47a7 48be 9d76 17bd
000002d0: 7d3c 3dbe 1259 7d3e 89e5 b8be ba61 6f3e
000002e0: 3f6a 80be 07b0 183e 8ce5 423d 55c6 9abd
000002f0: c80f 93be f3eb 93bd a29d 523e a5cb 233e
00000300: ab70 403c 662d b03c d738 b7bd c906 dbbe
00000310: 2f0c a93e f579 80be f57e 01bf 1ea0 14be
00000320: ada5 7fbe f23d fb3b df8d 9dbe 6072 b83e
00000330: 9a5c 51be 6c1b 80be ba6a 0e3e d696 ffbe
00000340: a55d 6cbe 0c59 d53e c9a9 47be 6712 6f3e
00000350: 2f13 93be 9a45 cb3e cfcc a83d 684e d8bd
00000360: 7094 523d 55de 44be ba6d 03bc 0652 843e
00000370: 74f9 3ebd cb07 8abe 6d92 e63d 4057 80be
00000380: bda5 103d 6f06 b93e e02a e9bc d7ce 43be
00000390: b3a5 b1be f42b 2d3b 3172 563e b08c dcbc
000003a0: b403 89be 423b 8dbe 8c15 703e d044 34bd
000003b0: 7efa ffbd a74a ac3d 55b4 f63e 6a17 0c3f
000003c0: 3313 01be 0d42 d3be 9322 28be 5d23 ce3e
000003d0: 864c 57be 7807 223e 182c 02be fc6a 023f
000003e0: c8b9 553e a9ec 1dbe 5698 06be 28c8 d9bd
000003f0: d343 a13d 2544 cabe b2b8 d2bc 6c07 7ebe
0.012244229 -0.40992743 -0.49485478 0.16782433 -0.30298668 0.28023311 -0.49213222 0.20149583
-0.3291633 0.07600181 -0.12559101 -0.20343605 0.2661845 0.039979894 0.24512024 0.21727818
0.22607079 -0.12317851 0.12115535 0.45047066 0.08008709 -0.36114702 -0.26479602 -0.30912337
0.03161854 -0.3258407 -0.17568451 -0.06874863 0.40691516 0.0038710139 0.17281844 0.023639902
0.20385246 0.015319785 -0.2500052 0.13484408 -0.19155407 0.10212421 -0.4116056 0.18835111
0.4294922 -0.54225975 0.24303985 -0.11767153 0.07946431 -0.14748406 0.03766448 -0.0978667
0.033612 0.039557766 0.012713749 -0.25176165 -0.37075818 0.8125684 0.113618664 -0.1224574
0.043824546 0.11764709 0.27392998 0.087354235 0.1705627 0.12535359 -0.27556586 0.31993133
0.24564734 0.22346336 0.17117609 -0.46631932 -0.16159792 -0.23729949 0.09176422 -0.03974272
-0.12333578 -0.21594208 -0.0021784941 -0.07952379 0.21460125 0.07622348 0.013473361 -0.08026271
0.6850642 0.080537096 0.6489239 0.036642738 0.19532202 -0.0866623 0.054246407 -0.29939982
0.15406287 -0.08880048 0.29505178 -0.40528873 0.12869625 -0.2981952 -0.07852528 -0.2875594
-0.16591316 0.35420224 0.11440772 -0.092400365 0.29785883 0.0007583689 -0.005695712 0.0730642
0.10314312 -0.19244535 0.32677743 0.095104255 0.072444156 0.31261063 0.20897657 0.2538792
0.31811106 -0.06168642 -0.15303107 0.49322006 0.6047886 0.045996428 0.19849613 -0.48464516
-0.22026524 -0.026617842 -0.49154744 0.24966952 -0.03870522 -0.2025804 0.039762497 0.42757028
0.02584262 -0.27140695 0.13719489 0.11834232 -0.2010232 0.26734725 0.07130501 0.16747567
-0.17797153 0.16096514 0.53308946 0.22680898 -0.033005916 -0.009013705 -0.40366632 -0.25431076
-0.14783117 0.039213218 -0.14391269 0.39916843 -0.08910841 0.1374514 0.28049514 0.0014943784
-0.1995183 -0.0016014269 0.6398412 -0.22468409 -0.15259029 -0.3939908 0.37955078 0.1926652
-0.51087993 -0.048047677 0.4533167 -0.11140201 -0.3620232 -0.313163 -0.55213606 -0.24416596
0.2000832 -0.029275628 -0.29314646 0.055953104 0.48104784 -0.03517219 -0.39523554 0.1835711
0.096572585 0.0484304 -0.19595061 -0.036978353 -0.18480106 0.24741009 -0.3611262 0.23377123
-0.2508106 0.14910899 0.047582194 -0.0755736 -0.28722978 -0.07222738 0.20567945 0.15995653
0.011745612 0.021506023 -0.08946388 -0.42778614 0.33017108 -0.25093046 -0.50584346 -0.14514205
-0.24965544 0.0076672966 -0.30772302 0.3602476 -0.20445481 -0.2502092 0.139079 -0.49919766
-0.23082598 0.416695 -0.19498362 0.23346864 -0.28725573 0.3970154 0.08242189 -0.1056183
0.051411092 -0.19225438 -0.008021766 0.2584383 -0.046624616 -0.2695907 0.11258397 -0.25066566
0.03531431 0.3613772 -0.028462827 -0.19121872 -0.3469673 0.0026423903 0.20941998 -0.026922554
-0.26760638 -0.27584273 0.2344572 -0.044010937 -0.124989495 0.08412676 0.48184457 0.5472323
-0.1260498 -0.4126133 -0.16419439 0.40261355 -0.21025285 0.15823162 -0.12712133 0.50944495
0.20871651 -0.1542231 -0.13144049 -0.1063388 0.078742646 -0.39505115 -0.025722835 -0.24807519

policy_net.module_4.weight f4 [32, 32]
00000000: f7cd 97be b2b9 7d3e c67a babe 7617 35bf
00000010: a0a3 e1bd 6cd7 68be cb76 ab3e 493b 7bbd
00000020: d9a6 a7bd 0fee c73e c923 b2be 13fd a23d
00000030: c435 b93d ebe6 66be 3b53 193e d1e1 7ebe
00000040: 7f1a 0abe 3129 333e e740 0a3e cc92 e03e
00000050: f3c3 87be 66f5 b83e be53 4ebc 9ed8 4e3d
00000060: 7793 c4bb e45c 8dbe f560 2cbb 883d 0d3d
00000070: e894 92bc ac25 abbe bfc1 a03d 7fac c43e
00000080: 4643 83be 0ef4 2f3e 867b f3be f9cd 81be
00000090: 99bd 6ebd 2c9a 2c3f cbbd 353d 8e95 3dbc
000000a0: a44c 7bbe edb2 adbe f819 c9be 4a1a 7e3e
000000b0: 4e7c b93e be24 a1be 4a64 31be 1148 a6bd
000000c0: d453 183e cb94 71be 73bf 693d cb48 2c3e
000000d0: 4c44 25be 3bb1 f1be 1f3d 1fbd 556b 5fbc
000000e0: c35d 6e3a e111 87bd 8afc a0be dded 183e
000000f0: bd83 e83e 1280 1f3e ac79 62be 092a 3bbe
00000100: 6fba 9fbb c51d a9bd 1d91 4dbe 8a30 9b3c
00000110: d401 e73e a912 6a3e c2e2 113d 749b 27be
00000120: 2e8d 733e 2131 cbbe 717b 68bd 50b4 4e3e
00000130: b97e febe f593 18be 0259 4d3e 1bee 8e3d
00000140: 6f6d a53e 5c6b 153e 2e39 2a3f a94c 5a3e
00000150: 3a16 44be c89e 86be 8443 f1bd 33fc 3f3d
00000160: 3d6d 763e e346 fdbe f6d1 113e cdac e43d
00000170: b712 8ebe 9a0f a33d 4c8c 4e3e 84b0 7c3e
00000180: ded7 b2be 6106 923e 1db2 0ebe 1f40 55be
00000190: 7a12 6fbe b9a5 bd3d 1bc8 713e 6612 e23c
000001a0: dcf6 003d 0f12 09be 8e9d 6bbd a59e 923d
000001b0: 142e 3c3e 3b76 5f3e 2e6d a3be 66fa fc3e
000001c0: 246d 2b3d 5bf9 0a3f dcf4 053e b3fb 1cbf
000001d0: 4487 0a3e b5dc 02bd 8163 b6bd 234b 78bd
000001e0: ab8a 8cbd cb0e edbe fefe 01be 91a0 4cbe
000001f0: 2a80 1abe 33bf e4bd 93e4 823e 292a 72be
00000200: 6478 4b3e c913 283e 0082 7b3e 8d83 42be
00000210: 1b2f 96bd b80d 313f ce04 11be d81d dc3d
00000220: eeab 9d3e 961f 983d 2904 67be 301e 7d3e
00000230: d580 923e 5bf2 983e 9502 823e cb1c 7a3d
00000240: 1fc1 e0be 135b a2be 50c5 c83e 6c6c d53d
00000250: 63fb 06bd 326e 923d 2239 8a3e 18ae bdbe
00000260: 74e6 fd3d 5b7b ae3b a7a9 9e3d 08f0 23bd
00000270: 252b 7ebe 2710 cdbe cb92 b23d b790 81bd
00000280: d96f 82be d8bd e43e 305a 163e 411e 503d
00000290: 91c6 11be 12d9 bebd 189c 1bbc 59eb 1f3f
000002a0: 117a 42bf edd2 76be 4a83 363e 878c 583e
000002b0: 8b74 07be 7e24 0e3e 4738 ea3d f4d5 57be
000002c0: d42a 46be b98e 0fbd 14a9 4a3e 83b0 b13d
000002d0: 5585 e8be 54ee 53be fa69 63be 1668 34be
000002e0: e7c7 9f3d b00d 50be e9b3 6d3e 79b3 b13e
000002f0: 1aa2 22be 248d c3bd d715 943d 035e 28be
00000300: ff82 6d3e 1181 42bc d1ce 15bd 37a6 5abe
00000310: 53be 70be c961 1abe 7d13 8b3e c88c 4a3d
00000320: 2b1e 96bd 3799 d5be 1303 893d 5cb6 253e
00000330: 7bac 233e fc0d 6f3d 0f16 193f 4733 a5bc
00000340: 4b06 bf3e 2bee d4bc 9269 9fbe c0ed f83d
00000350: bc87 943d 6243 0dbf cb88 e93d 7b86 c8be
00000360: 63ad dabe 3f36 b3bd c024 9d3c bc70 86be
00000370: ee86 1e3d 2f40 82be 901d 5a3e 71d3 a43e
00000380: 2369 b5be 1736 e6be c4e6 17be 236c 5abe
00000390: 6b87 d03d a5b5 60bd 9f17 2fbe b585 f4bd
000003a0: 1c28 9c3b b9e3 f3be e34c 2b3e 68a2 693e
000003b0: afa8 c23e 62f3 8f3e a148 a33e 9a73 b4bd
000003c0: e692 7f3d 42e6 4b3e cb00 d53d 8d18 dbbd
000003d0: af3d adbe 862d f53d a4c8 233e 0536 b53e
000003e0: 7c98 e9bd da1f 3a3e a85d a6be 6cf3 123f
000003f0: c58b 38be e1b3 e6be 3c78 85bd f481 dcbd
-0.29649326 0.24777868 -0.36421794 -0.70738924 -0.11017537 -0.22738427 0.3348907 -0.061335836
-0.081861205 0.39048812 -0.34792927 0.07958426 0.09043458 -0.22549026 0.14973156 -0.2489083
-0.1348667 0.17496182 0.13501321 0.43861997 -0.26516685 0.36124724 -0.012593208 0.05049955
-0.0059990245 -0.27609932 -0.0026302908 0.03448251 -0.01789327 -0.3342718 0.07849454 0.38412854
-0.25637263 0.17182943 -0.47555178 -0.25352457 -0.058286283 0.6742275 0.044370454 -0.011571301
-0.24540955 -0.33925572 -0.39277625 0.24814716 0.3622765 -0.31473345 -0.17323413 -0.08119214
0.14875728 -0.23591916 0.057067346 0.16824643 -0.16139334 -0.4720553 -0.03887665 -0.01363643
0.0009092951 -0.06595207 -0.31442672 0.14934488 0.45413008 0.15576199 -0.22116727 -0.18277754
-0.0048745195 -0.08257631 -0.20074888 0.018944044 0.45118582 0.22858681 0.035616644 -0.16367894
0.23784325 -0.3968592 -0.056758348 0.20185971 -0.49706057 -0.14900191 0.20053485 0.06979009
0.32310054 0.14591736 0.664935 0.21318306 -0.19149104 -0.26293015 -0.11780456 0.046871375
0.24065109 -0.49468145 0.1424025 0.11165772 -0.27748653 0.0796196 0.20170707 0.2467671
-0.3493032 0.28520492 -0.13935132 -0.20825242 -0.23346892 0.09260125 0.2361149 0.027596664
0.031485423 -0.13385795 -0.057523303 0.07159165 0.18376952 0.21822445 -0.31919235 0.4940979
0.04185213 0.54286736 0.13081688 -0.6132156 0.13528162 -0.031948764 -0.089056976 -0.06061853
-0.06862386 -0.4630035 -0.12694928 -0.19983126 -0.15087953 -0.11169281 0.25565013 -0.23648895
0.19870144 0.16413797 0.2456131 -0.18995495 -0.073332034 0.6916156 -0.14161989 0.1074788
0.30795234 0.074278995 -0.2256018 0.24718547 0.28613916 0.29872403 0.25392595 0.061062615
-0.4389734 -0.3171011 0.39213037 0.104210705 -0.032954585 0.07149924 0.26996714 -0.37046885
0.12397471 0.0053247637 0.07747202 -0.040023834 -0.24821146 -0.40051386 0.08719405 -0.0632643
-0.25475958 0.4467609 0.14682841 0.050810102 -0.14235903 -0.093187466 -0.009497665 0.6246849
-0.7596751 -0.241039 0.1782352 0.21147357 -0.13228051 0.13881108 0.11436515 -0.2107771
-0.19352275 -0.03504822 0.1979106 0.08676245 -0.45414224 -0.20696384 -0.22208396 -0.1761783
0.078018 -0.20317721 0.23213162 0.3470724 -0.1588215 -0.09548405 0.07230728 -0.16442113
0.23194502 -0.011871592 -0.03657419 -0.21352468 -0.23510103 -0.15076365 0.27163306 0.049450666
-0.07329973 -0.41718456 0.066900395 0.16182846 0.15983765 0.058362946 0.59799284 -0.020166053
0.3730949 -0.025992474 -0.3113523 0.12154722 0.07252452 -0.55180943 0.11403044 -0.391651
-0.4271041 -0.08750581 0.019182563 -0.26257885 0.038702898 -0.25439593 0.2130034 0.32192567
-0.35431775 -0.44963142 -0.14834124 -0.21330313 0.10182079 -0.05486073 -0.17098854 -0.11939565
0.0047655236 -0.47634676 0.16728549 0.2281586 0.3801932 0.28115374 0.3189135 -0.08811112
0.062395953 0.19912055 0.10400542 -0.10698042 -0.33836123 0.119715735 0.15994507 0.35392776
-0.11406037 0.18176213 -0.3249333 0.5740268 -0.18022068 -0.45059112 -0.065170735 -0.10766974

policy_net.module_4.bias f4 [32]
00000000: 24ad 15bd ae32 1fbd 3da3 1abd 95fc 25bd
00000010: 30d1 22bd e3da 18bd a49f 22bd 6f00 21bd
00000020: 5579 20bd 7164 1abd 609c ffbc de7a 1ebd
00000030: 56a5 18bd eae5 12bd ea17 14bd 3633 24bd
00000040: af52 24bd 6736 26bd 6b11 25bd d162 1bbd
00000050: 1a23 0dbd 7868 24bd d7ef 24bd 3061 23bd
00000060: 509d e8bc aa4c 02bd ad01 1ebd d9a8 1dbd
00000070: 96ed 0ebd a85c 09bd 0777 0cbd de22 10bd
-0.036542073 -0.03886669 -0.037753332 -0.040524084 -0.039750278 -0.03731812 -0.039703026 -0.039307054
-0.03917821 -0.037693445 -0.031202495 -0.038691394 -0.03726705 -0.035863794 -0.03615562 -0.0400879
-0.040117916 -0.040579226 -0.040299814 -0.037936036 -0.034457304 -0.04013869 -0.04026779 -0.039887607
-0.028395325 -0.031811394 -0.038575817 -0.038491104 -0.03489455 -0.03353563 -0.0342932 -0.035189502

policy_net.module_8.weight f4 [24, 24]
00000000: f53e 6f3a 69e1 d13a 67fb 33bb 26a1 9b3a
00000010: 74c8 1dba b857 0fbb 5cd1 b13a 1593 0b3b
00000020: 5e9a 333a e1a7 293b 3d8a 80ba 6aff 0539
00000030: 7636 00bb c5cb 42ba 21aa a03b 471e 04bb
00000040: 2ffc 9539 2f76 24bb aec0 e1ba 1085 dd3a
00000050: 63f8 8ebb 06ae 3bba 6982 75ba 0bed dd3a
00000060: 43ca 393d bc6a 3e3d 0c5e 373d a6e2 433d
00000070: 50b9 893c c960 393d 0171 743c d030 5b3c
00000080: faad 333c c8c4 563c 9181 8f3c 378e 2d3d
00000090: 510f 833c fd1d 803c d93e 8a3c e55c 6f3c
000000a0: a2b8 8a3c e65c 6d3c bb40 6c3c 7a98 943c
000000b0: 37b7 803c 0a47 783c 04d8 643c 4ee5 1e3c
000000c0: 0d4f 40bd 1f53 3ebd a9c9 34bd 78e6 2cbd
000000d0: 9b4d 2cbc a01f 25bd 03a5 89bc b3f7 6dbc
000000e0: 5c63 4bbc 074c 6cbc 275b 58bc 0130 36bd
000000f0: e776 82bc 8aad 6fbc 3973 4fbc 8921 6bbc
00000100: eb86 8abc 8d97 8cbc f7fa 74bc 5907 6abc
00000110: 861b 71bc 9b84 80bc eed5 88bc 3f98 60bc
00000120: 42ed cbbc 3ddb 81bc edeb 06bd 969e 0dbd
00000130: 1c00 f0bc 6ad2 8dbc e4ac 3bbd 51ae 01bd
00000140: fd21 49bc 96d4 5dbc 4ce3 febc 499f 06bd
00000150: 678b 0bbd d63f 80bc f1b6 eabc 098f 43bd
00000160: 1538 f2bc 82c9 e2bc 7195 00bd e89c c6bc
00000170: b8fa cebc 56ed f6bc 8345 f6bc 1d7d cebc
00000180: 07e7 1fbd fe5f f6bc 3f56 89bd 4d12 10bd
00000190: 1ab9 8fbc 5ab6 36bc 5502 29bd 5212 7fbc
000001a0: 175c 47bc 068c 47bc 7162 dcbc b904 7fbd
000001b0: 9663 54bd 0aa2 92bc aa10 31bc 8e17 d7bc
000001c0: d318 28bd 7aaa 34bd 1885 0bbd a4f5 1ebd
000001d0: d95e 32bd 902b f1bc 8dfb 36bc 785b 35bd
000001e0: 5af4 473d 583d d23c 5cdd 883d 2dd5 583d
000001f0: dce3 1b3d 3379 e13c 9e7b 083d e9dc db3c
00000200: 3430 0a3d 6c07 833c 272d b33c d740 693d
00000210: 83d2 2c3d e6af f2bc 3513 0b3c 4237 b5bb
00000220: 197a 3cbb 8ef4 193d 6457 043b 1f99 e63c
00000230: 9af0 673d 644e 673d 6201 e13c 2a99 103d
00000240: 2d40 563b d2a4 a93c cf4a 1d3c 2644 ec3a
00000250: 60ed 60bb 2522 86bb 2455 9b3c 5313 243c
00000260: 1d83 00bd f79b ea3b 702d 733c cbd2 ff3b
00000270: 7efc f73b 4b25 203d db90 443d 011b d63c
00000280: 1467 cb3c 230b e13c 8c57 5d3d 96c9 3e3d
00000290: 76ab c2bc ec50 053d da9e 613d d115 83bc
000002a0: b376 ed38 ca2a c639 8699 5a38 722c 3e39
000002b0: 1e81 2fb9 45e2 87ba 45bc 8fba 495d b33a
000002c0: 7b67 5c3b be28 81bb 73f3 203b fad9 8fba
000002d0: 14cd 5abb 8058 c1ba ea19 10b9 5927 153b
000002e0: 0934 bb3a 42d9 cf3a 222b 90ba e968 70bb
000002f0: ea25 4dbb d323 f2ba c474 bcba de5d 3fbb
00000300: 6e96 53bd 2e2d c6bc 4760 7fbd 3512 55bd
00000310: 357c 2bbd 0933 e8bc 1199 04bd 8497 04bd
00000320: 2955 debc 52f5 97bc e7ac c8bc 8c2a 69bd
00000330: ea54 1cbd ba4c ff3c 6ca3 dabb 855f 993b
00000340: a5be 6d3b 057c 2abd 3e18 56bb 1cf2 dbbc
00000350: 8c16 71bd b4b6 5dbd 610d d1bc 7d6e 1cbd
00000360: 3a81 d93a 3527 64bc 328b 06bd ca71 10bd
00000370: 8afb adbc 450a 35ba 80f7 88bb a019 71ba
00000380: 1a82 1b3c 82a1 4bbc 38ed 7cbc f734 dcbc
00000390: 5980 833b 4e1f c2bc aeef e0bc 605f 1dbc
000003a0: cb39 9ebb 30dd 5c3c f3fe d8bb 4440 d4bc
000003b0: 3a52 69bc d0d2 6dbd bf8e 27bd ee46 1abc
000003c0: 915b a63c 73dd c73b bae2 463d 1402 de3c
000003d0: e095 903c 10de 553b d011 2cbb 5c91 6bbc
000003e0: 7298 0f3c ed05 b2bb a59b 653b 337c 9a3c
000003f0: e16e 46bb 5825 d23a 7cfe c93b 585f 84bb
0.0009126508 0.0016012612 -0.002746308 0.0011873588 -0.00060189446 -0.0021872353 0.0013566422 0.0021297385
0.00068513106 0.0025887417 -0.0009806823 0.00012779018 -0.0019563711 -0.0007430877 0.0049030934 -0.0020159648
0.00028607386 -0.0025094857 -0.0017223561 0.0016900618 -0.004363106 -0.00071594154 -0.0009365441 0.0016931606
0.045358907 0.04648851 0.044767424 0.04782357 0.016811997 0.045258317 0.01491952 0.013378337
0.010966772 0.01310844 0.017517837 0.042371955 0.015998514 0.0156393 0.016875671 0.01460955
0.016933743 0.014487481 0.01441973 0.018139113 0.015712364 0.015153656 0.013967518 0.009698225
-0.04695039 -0.04646599 -0.04413763 -0.04221198 -0.010516549 -0.040313363 -0.016802317 -0.014524388
-0.012413826 -0.014422423 -0.013205326 -0.044479374 -0.015925838 -0.014628777 -0.012661749 -0.014351257
-0.016910037 -0.017162109 -0.014952413 -0.014283978 -0.014716035 -0.015688231 -0.016703572 -0.013708173
-0.024893407 -0.015851611 -0.03293984 -0.034575067 -0.029296927 -0.017312247 -0.04581918 -0.03166038
-0.01227617 -0.013539454 -0.031114243 -0.03286675 -0.03406849 -0.01565544 -0.028651686 -0.04774383
-0.029567758 -0.027683977 -0.03139252 -0.02424474 -0.025266036 -0.030142467 -0.030062443 -0.025206143
-0.039038684 -0.03007507 -0.06705903 -0.035173703 -0.017544318 -0.011151874 -0.04126199 -0.015568333
-0.012167952 -0.01217938 -0.02690241 -0.062260363 -0.051852785 -0.017899532 -0.010807196 -0.026256349
-0.0410393 -0.04410789 -0.034062475 -0.03880848 -0.043547485 -0.029439718 -0.011168373 -0.044276685
0.048817016 0.025664017 0.06682846 0.052937675 0.0380591 0.027523613 0.033321016 0.026838737
0.033737376 0.01599475 0.021872116 0.0569466 0.042192947 -0.02962489 0.008488466 -0.005530269
-0.00287593 0.03758674 0.002019369 0.028149186 0.05662594 0.056471244 0.02746648 0.03530232
0.003269206 0.020708475 0.009600355 0.0018025681 -0.0034321174 -0.004093426 0.018961497 0.010014373
-0.03137504 0.0071597057 0.014842376 0.007807111 0.007567941 0.039098065 0.047989707 0.026135923
0.024829425 0.02747113 0.05403857 0.046578966 -0.0237634 0.032547876 0.055083133 -0.016001614
0.0001132315 0.00037797383 5.211823e-05 0.00018136369 -0.000167374 -0.0010367116 -0.0010966143 0.0013684417
0.0033631015 -0.0039416244 0.002455917 -0.0010974996 -0.0033386396 -0.0014751107 -0.00013742564 0.0022759049
0.0014282475 0.0015857595 -0.0010999183 -0.0036683625 -0.0031303116 -0.0018473811 -0.0014378061 -0.0029200236
-0.051657133 -0.024191465 -0.062347677 -0.052019317 -0.0418665 -0.028344648 -0.032372538 -0.03237106
-0.027140217 -0.018549595 -0.024496509 -0.05692534 -0.038166918 0.031164516 -0.0066723134 0.0046805763
0.0036276963 -0.04162218 -0.0032668258 -0.026848845 -0.058859393 -0.054129317 -0.025519075 -0.038191307
0.0016594299 -0.013925363 -0.03284759 -0.035264768 -0.021238107 -0.00069061323 -0.004179895 -0.0009197239
0.009491468 -0.012428643 -0.015437417 -0.026880724 0.004013103 -0.023696568 -0.027458038 -0.009605259
-0.004828667 0.01348047 -0.006622189 -0.02590955 -0.014240796 -0.058062375 -0.040907618 -0.009416325
0.020307334 0.006099397 0.048556067 0.0271006 0.017649591 0.003263358 -0.0026255734 -0.014377918
0.008764373 -0.0054328353 0.0035035398 0.01885805 -0.0030278491 0.0016032858 0.00616437 -0.004039686

policy_net.module_8.bias f4 [24]
00000000: 0000 0000 b1fa 23bd 570a 243d a948 073d
00000010: 6482 073c 8444 ffbc 71b4 8cbc 0000 0000
00000020: ae59 ff3c 4957 853c 5f61 273c 9a43 07bd
00000030: 7a34 ffbc 4c57 85bc 41ae 2e3d 3b35 68bd
00000040: 6884 0a3d 2b86 cabb 0457 40bd 0000 0000
00000050: 4b77 91bd 1e57 403d ae00 77bd e876 913d
0.0 -0.040034 0.040048923 0.03302828 0.008270834 -0.0311606 -0.017175885 0.0
0.031170692 0.016276972 0.010216086 -0.033023454 -0.031152952 -0.016276978 0.04264665 -0.05669139
0.03381768 -0.006180545 -0.046957985 0.0 -0.071028315 0.04695808 -0.060303383 0.07102758

value_net.module_0.bias f4 [32]
00000000: b063 a23a 20fd 10bb 3270 34bc a408 2ebb
00000010: 4900 cfba c3bf 52bb c918 c73c a1da 1fbb
00000020: 3a94 e7bb 0a85 a8bc da25 54ba e455 a23b
00000030: 9c8f 153a be27 c0ba 0c36 d4bb 18c2 6e3b
00000040: 4577 12bd ddd4 923b 5510 d63a 36b3 3a39
00000050: 7713 973c d2cf 0bbb 99d2 643c d19f 0fbc
00000060: 269a fbbb 0958 b63b 7e00 263c 24fd d3bb
00000070: 0629 9fbb 41c4 5c3b 1bdf 183c 9508 adbb
0.0012389328 -0.002212353 -0.011013078 -0.0026555443 -0.0015792932 -0.0032157756 0.02430381 -0.0024391788
-0.0070672305 -0.02057125 -0.00080927985 0.0049540866 0.00057052984 -0.0014660282 -0.0064761695 0.0036431607
-0.035758276 0.0044809417 0.0016331772 0.00017805104 0.018441899 -0.0021333587 0.013966226 -0.008766131
-0.007678288 0.005564694 0.010131953 -0.0064693857 -0.0048571853 0.0033686312 0.009330536 -0.005280564

value_net.module_0.lin.weight f4 [32, 22]
00000000: 72d9 d93d 6dff a23c a3e2 cdbd 5fca 8fbe
00000010: 7d3e 18bc 0029 29be 9371 5c3e 42a6 623e
00000020: 5d51 c9bd 3022 683e 5e97 82be 8741 4ebe
00000030: 8029 103c 752f b8be 6f12 71be 21a9 8b3e
00000040: 96b5 9e3e 35c1 513e 7025 d43e ac91 33be
00000050: 7110 f2be fe90 803e cd04 4b3e bca4 8abd
00000060: ac6b 093f 1f6d c73d 02c6 883e ebd6 0b3e
00000070: b4e0 813e bd79 143f f789 273e 092b 8cbe
00000080: 0cf6 c1be 89b2 5ebe b14c ecbd 6247 c73e
00000090: 41eb 453d c606 73be 2d79 713e 84bc 38be
000000a0: 1cc1 933e c1db 813c da05 883c 5e32 a2be
000000b0: 20d6 153f 2d52 48be 60df d3be 964d 63be
000000c0: 6c7f a83e b7e8 163e 31f9 d0be e266 783d
000000d0: ae71 3a3e e30f fbbd 537b 043e b03f 29be
000000e0: 45c5 013e d216 293e b65d 15be 313a 9d3e
000000f0: 6370 453e b384 0e3e b258 d03d 0a1b 62be
00000100: 49bc 903e 6c0a 16be 85c1 15be f282 4d3e
00000110: c3bc 44be 9f5a c3bd fc3e 09bd 7c49 7d3e
00000120: db5e 95bd df86 a23e 5d31 d4bd 0a85 303d
00000130: 36a5 ff3d 40dc 97be a8be 793d 17d6 783b
00000140: 2609 4a3e d9c5 c1be c517 89be e831 6fbd
00000150: ad76 96be ed22 d6be 46f6 dfbd c055 2ebe
00000160: 2d90 a2bd d998 8fbd a172 ff3d d62b 47bc
00000170: eb8e 76be 0ea6 e0bd 6c4b 4bbe 6072 ddbe
00000180: a61d 6c3d 4471 99bd ae75 26bf 6303 ec3d
00000190: 1761 113d 4019 193e 20c0 923e 1162 1b3e
000001a0: 4442 9fbd af6d 3b3d e6f2 4c3e c2a5 b53e
000001b0: c995 3abd a4c9 20bd b92f 733d 8804 903d
000001c0: b056 873e a9b8 7cbe 2832 123f ec06 a8be
000001d0: b8f6 3cbe 1b0b f73d 6817 fc3c e47d 0d3f
000001e0: fa3c 9ebc 6d8e fe3e c4ad b8bd bfe2 61be
000001f0: a98a 7d3e 07dc d0be 6ef7 abbc f6a3 ec3d
00000200: 20d9 80be 4db9 44bd b91c 223c 505b 773d
00000210: d271 b83e 9cfa e8be 8d52 833e 41b8 303e
00000220: 0098 9fbe 3b1e ebbd 95d8 50be 6b58 eabd
00000230: 5fd9 463b 01f3 913b a8e3 2c3e 2451 833e
00000240: 06dc cabd 7657 d83e 5dee f4be 829a 02be
00000250: 63b2 b0bd 0549 9e3e e542 46be e930 9dbe
00000260: 79cd 95be feee 80be b185 5d3e 4580 e5bd
00000270: 6e79 bcbe 41e3 bb3e 7618 d93d cf8b b5bb
00000280: 9d04 653e c434 5b3e db48 3cbe f1d6 883e
00000290: 465b 013e 9d25 b03d 0fe9 9ebc 7a76 3a3e
000002a0: 10a4 57be 6fed ddbb 6dd5 2ebe baf0 9fbe
000002b0: f451 65bb ba7d 0a3f fe2f 3f3e bedf 003f
000002c0: 54ad 54be b59c 913e 3485 d73c f2a9 943e
000002d0: 4f26 a4bd 1822 50be 5935 9f3c 574f 283d
000002e0: d41e 153e aa2d dd3d ac9b b93a 8323 36be
000002f0: 88c5 93bd 1226 003f 8665 9d3e a326 ca3d
00000300: eae2 bd3e db7d ed3e bc77 933e d242 cebd
00000310: 79ff 893e 2e14 ab3e 9574 11bd 0f01 873e
00000320: 40bc 28bc 799e 45be 161a 583e 6404 a73e
00000330: 842f 613e 6509 49bd 8b42 19bd 1407 93bd
00000340: cf19 ef3e b515 5b3e acfe 013e d379 513e
00000350: 579c d93d 15f2 bc3d 9b4b a0bd 4dff b53d
00000360: 33b4 f33e bc12 c83d 0d46 d8be 988e 07be
00000370: b638 493d e25f 4b3e 70e6 2e3e 8d00 443e
00000380: 5c30 4bbe b783 a93d 46ce 0bbf 99f2 90be
00000390: 44b7 34be a9e2 f4bd 8a2d b43e 0930 2cbe
000003a0: 1c4e 73bc eed9 973e 7aa2 b73d dc4f 1abe
000003b0: 147f b5bd 882c 76bc 19be 3f3d a041 4a3e
000003c0: 2f21 93be fbea a83e 3ea9 cfbd 7ea9 e93e
000003d0: a55b c0bd f9aa a23e 89af 033e a91c 98be
000003e0: 0345 153d 038b 543d 43a9 453e 56e3 abbe
000003f0: 9ef0 63be 8615 283e 9b1b 543f c890 023e
0.106371775 0.019897187 -0.10052993 -0.28084084 -0.009292242 -0.16519547 0.215277 0.22133735
-0.09829972 0.22669291 -0.2550611 -0.20142184 0.008798957 -0.35973707 -0.23542188 0.27277473
0.30997914 0.20483859 0.41434813 -0.17536038 -0.4727817 0.2511062 0.1982605 -0.06769702
0.5367992 0.0973761 0.26713568 0.13656203 0.25366747 0.5799826 0.16361223 -0.27376583
-0.3788303 -0.21747793 -0.11538065 0.38921648 0.04832006 -0.23733053 0.23581381 -0.18040663
0.28858268 0.015851857 0.016604353 -0.31679052 0.58529854 -0.19562598 -0.4138136 -0.22197565
0.32909715 0.14737211 -0.40815118 0.06064499 0.18207428 -0.122588895 0.1293767 -0.16528201
0.12672909 0.16512612 -0.14586529 0.3070846 0.19281153 0.13917808 0.10173167 -0.22080627
0.2826865 -0.14652413 -0.14624603 0.20069483 -0.19212632 -0.09538769 -0.033507332 0.24735063
-0.07293483 0.31743523 -0.10360978 0.043095626 0.12482683 -0.29660225 0.06097284 0.0037969404
0.19730052 -0.37846258 -0.26775947 -0.058397204 -0.29387417 -0.4182352 -0.10935645 -0.17024899
-0.079376556 -0.07011575 0.124730356 -0.012156447 -0.24077956 -0.109691724 -0.1985299 -0.43251324
0.057645462 -0.07492307 -0.65023315 0.115240835 0.035492983 0.14951038 0.28662205 0.15174128
-0.07776311 0.0457589 0.20014533 0.35478026 -0.045553003 -0.0392548 0.059371684 0.07032114
0.26433325 -0.24679817 0.5710778 -0.3281778 -0.1845349 0.12062665 0.03077288 0.5527022
-0.019316185 0.49718037 -0.09017518 -0.22059153 0.24759926 -0.40792868 -0.020992007 0.115547106
-0.25165653 -0.04802828 0.009894543 0.060389817 0.36024338 -0.455037 0.2564892 0.17257787
-0.31170654 -0.114803754 -0.2039512 -0.11442646 0.0030341966 0.004454017 0.16883719 0.25647843
-0.099052474 0.42254227 -0.47838107 -0.12754253 -0.086277746 0.30915084 -0.19361456 -0.30701378
-0.29258326 -0.25182337 0.2163303 -0.11206106 -0.36811393 0.36696818 0.10600369 -0.005540348
0.22365041 0.21406847 -0.18387167 0.26726487 0.12632474 0.08600924 -0.01939824 0.18209258
-0.21058679 -0.006772689 -0.17073603 -0.31238347 -0.0034991475 0.54098094 0.18670651 0.50341403
-0.20769244 0.2843987 0.026308633 0.29035908 -0.08015119 -0.20325506 0.019434618 0.04109129
0.14562541 0.10799725 0.0014160774 -0.17786984 -0.072154105 0.5005809 0.3074152 0.098706506
0.37087184 0.46385083 0.28802288 -0.10071339 0.26952723 0.33413833 -0.035511572 0.26367995
-0.010298789 -0.19298734 0.21103701 0.32620537 0.21990782 -0.049081225 -0.037416976 -0.071790844
0.46699378 0.21395 0.12694806 0.20456629 0.106255226 0.09225861 -0.078269206 0.088865854
0.4759842 0.09769198 -0.42240945 -0.13237989 0.04912635 0.19860795 0.17080092 0.19140835
-0.19842666 0.08277076 -0.54611623 -0.28310087 -0.17648035 -0.119572945 0.35190994 -0.16815199
-0.014850166 0.29658455 0.08966537 -0.15069526 -0.08862129 -0.0150252655 0.04681215 0.19751596
-0.28736255 0.32991776 -0.10139702 0.45637125 -0.0939248 0.31771067 0.1285993 -0.29709366
0.036442768 0.051890384 0.1930285 -0.3357188 -0.22259757 0.1641446 0.8285462 0.12750542

value_net.module_2.bias f4 [32]
00000000: 257f b3bc 64b3 293a 350e 0c3c c958 ab3a
00000010: effc d239 24c3 b7bb e45c 02bb a0c0 ed39
00000020: ad1d 28bc fa30 043c a156 933a 986f 893c
00000030: ec11 e339 f008 5c3b 37a1 a73a 3679 8d3c
00000040: 2108 86bb c3a0 943c fce2 c23a 7a32 d33c
00000050: 5d72 603b 6649 8cbb 1598 a6b9 5f22 7c3b
00000060: 0776 9e3a 0e4d 663b c7f6 08bd 3c98 6b3a
00000070: cbd9 11ba a260 a6ba 2fb3 4dbb 28ff feb8
-0.021911213 0.00064735697 0.008548309 0.0013072725 0.00040242772 -0.0056079794 -0.0019891793 0.0004534768
-0.0102609815 0.008068318 0.0011241027 0.016776845 0.00043310167 0.0033574663 0.0012789135 0.017269712
-0.0040903245 0.018143063 0.0014868672 0.025780905 0.0034247853 -0.0042812107 -0.00031775297 0.0038472635
0.0012089618 0.0035141143 -0.03343847 0.0008987223 -0.0005563765 -0.0012693594 -0.003138732 -0.000121591904

value_net.module_2.lin.weight f4 [32, 32]
00000000: b622 d83d adf9 8e3d 4245 253e 106d 8abe
00000010: 9c58 b93e 90c8 3e3d 4ad7 ddbe 45ee 63be
00000020: 1766 2d3e 6ba8 3a3e 66c9 b2bd e064 21be
00000030: f252 89be e10b 1e3f 3d6d 823e 1b43 983d
00000040: 7e31 c6bd 71e9 01be c24f 00bf 4a10 14be
00000050: 309d a9bc 4227 253e 7923 2cbe faa2 f53c
00000060: 6e3a b8be 737f d33e eaee 7d3e 47bc aa3d
00000070: 51b7 14bd dfcb 843d 8b35 c43d 1274 a5be
00000080: 9f0d 013e 4197 d1be 914c 813e 73d5 a0bb
00000090: b27b e4be 682e 3a3d b985 0e3e 8ee2 fd3e
000000a0: 0a0c 8bbe 26a2 a33e e330 c73e 6ea2 9ebd
000000b0: 6a8f 8ebd 6ef6 853e 0928 8a3e d6b3 8c3b
000000c0: a8e8 edbd 8a8b efbd 97c9 d1bd 27e8 63be
000000d0: 55ff 78be f9c5 ddbe 909b 873d 6c66 5cbe
000000e0: 4bdd 893d 296d 8ebe 3af6 cd3e cd0a fe3c
000000f0: e1e2 033e b8e7 7a3e 3165 b5bd be74 0fbe
00000100: 3d20 ebbd 026e 74be 6b89 bcbd d741 aabe
00000110: 1087 db3d 4a57 e9bb 40a2 98bd 37e8 923e
00000120: 2829 10be 5221 0bbf c05f 943a 2fbe c73d
00000130: 5e87 6fba 4f90 0bbe 8bed 1f3e cb76 1d3d
00000140: 7a1d 173d ab88 e53d 88ca 9c3e 927d 093e
00000150: 0968 cebb 920b 553e abcc bc3e 0093 253e
00000160: 94b4 5c3d 59e6 fc3e 0fff b03e 5c94 fa3e
00000170: bbfe ad3d 9fff afbb ba97 003f 10a4 63be
00000180: 960b 3b3e b5d9 61be 5594 a4be 7742 c2bc
00000190: cb34 c8be a19e 06bd c8cd 263d 3533 fb3d
000001a0: dfa2 b83b 0941 b7be 1889 e43e 1a6f 423e
000001b0: d465 383e b1d7 af3e 5ea6 d53e 1060 b8bc
000001c0: d2f8 83be 1eaf 003f a961 05bd 91aa 293e
000001d0: d74b 08be e77e 8f3e 727e 8bbe 3b41 d43d
000001e0: c885 16be 02f3 583e f230 f7be 032f fabd
000001f0: 1066 f1bd a78b 4a3e 7959 0ebe 1890 403d
00000200: 595a 713c b8e7 133e e12d d2bc 7912 b6bd
00000210: 9292 1c3d d02e 573e a15d d43e e0e9 a6bd
00000220: 9b55 8bbc b625 25be d254 ab3e ad2f 283f
00000230: 2e80 d6be 6462 94bd 2007 19be e285 38be
00000240: e872 11be 60de 52be 2456 fdbe 8126 a9bc
00000250: fbe4 d03d 6ed0 53be 2e89 cc3c 467b 283e
00000260: 33c7 8ebe 636d a9bd 68f1 d83c e7b9 ae3e
00000270: 1170 abbe d6ee 4cbe aa49 193e 0f31 d13e
00000280: 6b2e 12be f607 3ebd 930c 913e fbb3 943e
00000290: 4f1f f43d 88d4 08bc fcdc b73d 78e5 34be
000002a0: 19c5 43be c570 aabe e390 97be f90f c6bd
000002b0: 96c5 76be 7fca 993d 6000 843e 58d7 a53e
000002c0: 3664 0fbf dd92 433e 4fee 71bd bc3f 3bbe
000002d0: 5264 71bd 5c11 063e 6cd0 c83e 2046 a23d
000002e0: 43e5 6cbe a528 9ebe 9f59 a6be f17e 0abe
000002f0: 8531 163f bfdb 48be 7e69 b83c 3416 5a3e
00000300: 9d93 043e b707 ed3d 99f1 453e f456 733e
00000310: 2a59 013e fbba d03d 1a61 333e a80a 68bc
00000320: ae3a c33e c210 0fbe f477 ea3e 94bf bf3d
00000330: 546b c7be 5c5f ebbe a3a7 633e fff5 17be
00000340: fc1d 3f3d 0ec8 3ebd 305b 37bd 3610 b03c
00000350: bf95 723e 94f5 e43e ce15 7b3d e3a5 42bd
00000360: 86f4 8e3e f543 983d 065d 763e 69ed d7be
00000370: ebc2 ce3d bc68 2dbe 6c5e a5be e7b6 ecbe
00000380: a3d2 063f dbb8 563e 2b57 1c3e 2653 703e
00000390: 637f 8b3e 99f1 8cbe 2bbe eebc c244 90be
000003a0: 181d 90bd b10e 74bd 90d0 8f3e 51ba 0abf
000003b0: 045a 1ebe b1d9 dbbd 4c63 5e3e b15d c5be
000003c0: 6acb cfbc 7867 d03d f228 e7bc 8fec a53e
000003d0: 20f0 2cbd 2cce babc bc4a 06be 5cd2 51be
000003e0: a1da 75bd 0188 17be bc30 68be 2ad0 a03e
000003f0: 9ac3 6ebd 10a4 a33e 8d3b e33e 6e20 4b3d
0.105534956 0.069812156 0.16139701 -0.27036333 0.36200416 0.04657799 -0.43328315 -0.22258861
0.16933475 0.18228309 -0.0872982 -0.15761137 -0.26821095 0.61736876 0.25473967 0.07434674
-0.09677409 -0.12686707 -0.501217 -0.14459339 -0.020704836 0.16128257 -0.16810407 0.02998494
-0.35982078 0.41308174 0.2479817 0.08336692 -0.036307637 0.06484198 0.09580525 -0.32315117
0.12602852 -0.4093571 0.25253728 -0.0049082576 -0.44625622 0.045454413 0.13918199 0.4958691
-0.27157623 0.31959647 0.38904485 -0.07745825 -0.06960948 0.26164573 0.2698367 0.004293899
-0.11616641 -0.11696537 -0.10243528 -0.22256528 -0.24316151 -0.43315104 0.06621468 -0.21523446
0.067316614 -0.27817658 0.40226918 0.03101101 0.12879516 0.24502456 -0.08857191 -0.14009377
-0.11480758 -0.2387009 -0.09205898 -0.33253357 0.107191205 -0.0071210014 -0.07452822 0.2869279
-0.140782 -0.5434772 0.001132004 0.097530715 -0.0009137298 -0.13629268 0.15617959 0.038443368
0.036893345 0.11207708 0.3062327 0.13426808 -0.006299023 0.20805195 0.368749 0.16169357
0.05388315 0.4939449 0.34569594 0.48941314 0.084958516 -0.0053710486 0.50231516 -0.22230554
0.18266138 -0.22055705 -0.32144418 -0.023713334 -0.39102778 -0.032866124 0.040723592 0.12265626
0.00563465 -0.35791805 0.44635844 0.18987694 0.18007594 0.34344247 0.4172849 -0.022506744
-0.25775772 0.5026721 -0.03256384 0.16568972 -0.1331018 0.28026506 -0.27244908 0.10364004
-0.14699471 0.2118645 -0.4827953 -0.12215998 -0.11787045 0.19779836 -0.13901319 0.04701242
0.014731013 0.14443862 -0.025656642 -0.08890242 0.038225718 0.21013951 0.41477683 -0.08150077
-0.017008593 -0.16127667 0.3346315 0.6569775 -0.41894668 -0.07245329 -0.14944124 -0.18019822
-0.1420399 -0.20592642 -0.49479783 -0.020648243 0.101999246 -0.20684978 0.024967756 0.16453275
-0.27886352 -0.08272817 0.026482299 0.34126207 -0.33483937 -0.20012984 0.14969507 0.4085774
-0.1427552 -0.04639431 0.28329906 0.29043564 0.11920034 -0.008351453 0.08977696 -0.1766566
-0.19118156 -0.3328916 -0.29602727 -0.09671015 -0.2409881 0.07509326 0.25781536 0.32390857
-0.56012285 0.19098993 -0.05906516 -0.18286031 -0.058933564 0.1309256 0.39221513 0.079235315
-0.23134331 -0.30890384 -0.3249025 -0.13524987 0.5866931 -0.19615076 0.02251124 0.21297532
0.12946935 0.11573737 0.19330443 0.23763639 0.1263167 0.10191914 0.1751751 -0.014162697
0.38130707 -0.13971236 0.45794642 0.093627125 -0.38949072 -0.4597119 0.22231917 -0.14839934
0.046659455 -0.046577506 -0.044764698 0.021492105 0.23689936 0.4471861 0.06130009 -0.047521483
0.27920932 0.07434837 0.24058923 -0.42173317 0.100957714 -0.16934484 -0.322986 -0.46233293
0.52665156 0.20968954 0.15267627 0.23469219 0.27245626 -0.27528074 -0.029143414 -0.28177458
-0.07036799 -0.059584323 0.28088808 -0.54190546 -0.15464026 -0.10734881 0.21717566 -0.38548043
-0.02536555 0.10175985 -0.028217766 0.32407042 -0.04222119 -0.022803389 -0.13114446 -0.20490402
-0.060022954 -0.14797975 -0.2267484 0.31408817 -0.05829201 0.31961107 0.4438137 0.049591474

value_net.module_4.weight f4 [32, 32]
00000000: 443d e0bd ca28 74bd bb0b bdbd 5a1c 73bb
00000010: 4e2b 0fbe e901 36be 17fa f0bd 79f4 c23e
00000020: 7758 cbbe aad8 6bbe db0e 0bbd 21a4 7e3e
00000030: 7021 c8be 8f41 4ebf 6463 2c3e 8ec0 81bc
00000040: 02b5 03be 0689 5d3c fd46 6dbe 626a cb3e
00000050: 51d2 a6be 58a9 66bd b79a 43be 5bf6 4fbe
00000060: 331d 073e 49ba a93e 575f 37bd ce9e 19be
00000070: 316e 413e 5b34 333d ea9c 053d 9aff aabd
00000080: 5c5f 9abd b77a 613d e28a 203e 6b73 c03e
00000090: 19de 0fbf 539e 2e3e 049e cdbd 655f 85bd
000000a0: c42d a93d dfe0 da3c 2be4 19be eb53 63be
000000b0: ebdb 25bf 646a 9f3e 0ee9 cebc 7e30 95be
000000c0: 5eed cf3d 0e1b 403d a568 fb3d 9e18 9a3e
000000d0: 1d3f 96be e654 7b3e 7cea 0f3d d7a6 99bd
000000e0: 7105 efbe 887e 623c b432 f93d dfd2 463e
000000f0: 890b b5be ddac ebbd b536 81be de01 383e
00000100: 9121 af3e 707f 1cbe 5975 bf3d 6dd4 3abe
00000110: fa77 b0be f3f0 de3e accc cabd d6c9 a93b
00000120: 0696 eabe 0cad 65be 370f e53c 4110 613e
00000130: 741a 773e 0e12 e2bd 68e9 ae3d 42bb f63d
00000140: 232a 643e 2ddd 503e 4851 363e 9117 553e
00000150: 5a13 cf3e d54c 983e 0d9f 453e 88ce 24bd
00000160: 4592 febe 84cd 8abe c9ea 41bd 5d34 bfbe
00000170: 14a8 af3d d669 853e 10b9 5a3e e9b2 453e
00000180: 8c6b 063d 4c9f a0be aae4 6e3e a7ea 823e
00000190: b74c febc a5c5 cebe c8bc 04be ffd6 b23d
000001a0: d8be 023f f37b 94be fb24 a7bd 67fd 383e
000001b0: 0b0e 783e 2d0e e83d a938 c8be 4c91 4b3e
000001c0: 260c 113e 26f4 09bd 4c83 8b3e a8f3 c53e
000001d0: 2da4 8cbe 53c8 e23d 2222 95bd 9f0f 89be
000001e0: fe81 54be 06ef f6bc 5a90 99be ee24 ca3d
000001f0: f0d0 e53e 3fc9 6dbb b04e 353e a660 35be
00000200: edaa f83d 9d64 0d3e a1ea b43e d19c 2fbe
00000210: ef88 efbe 29be 05be 3259 e0be b867 363e
00000220: c82f 34bd 695a 153e e398 373d d935 783e
00000230: 6f8d 8dbd 0661 a33d 5efd 00bf fcef c13e
00000240: 31d2 843e 0a94 93bd 8229 0dbf 8e93 54bc
00000250: c6ab ae3e ba4c d6be bbb8 b43d 1f9c 713e
00000260: 3ee2 11bd ff37 193d 1879 913e 7123 893e
00000270: 38b8 3dbd 6a90 1dbd 5fdb f8bc 349e 5dbe
00000280: cbed e43b 66ad 74bd 3fa0 a63d 668c 07bf
00000290: 8ebc d0bc c78f c7be ddeb 263c 7f9e 2a3e
000002a0: 3113 65bd 2679 183e 37f6 8d3e 8c10 84bd
000002b0: 3b26 6bbd 1d70 953e aa03 4e3e 474e b0be
000002c0: a3bc b33e d24e 503e fd4c f6bc f28b 313d
000002d0: e037 d3be 0759 a9be c4e2 d33e 0f8b 3b3e
000002e0: aaea 23be 2ff0 403d 70ca 36be c4f7 58be
000002f0: 15af 0c3e 1ec9 033f 8f04 b5be 97e8 fbbd
00000300: 45b4 ffbe 6e61 d2be d23d 9f3d 66b4 b93c
00000310: 084b 9bbd e29c 94be 8bad a7bd a09e 423d
00000320: 03e7 80bd 1cb4 f13d 7244 233e b65c d8be
00000330: d5e4 c9bd cc86 5dbe e733 c6be f53b cfbc
00000340: a2e3 43bd 3dbe a3be ee73 803e a73d 09be
00000350: 6edd 3a3e bc9e 76be cf20 603d b29f 853e
00000360: 2f0c fdbd b3b7 16be 37f0 f7bd 539b eabe
00000370: 9e45 ed3c 5dbe 44bd 8a46 893e f0b8 f23e
00000380: 8a9f ef3d 8f02 c9bd 186f 25bd 7995 2f3e
00000390: 7c0a 21be cdba 3e3e 726d 8ebc b2eb 003e
000003a0: f1ff 623b ed49 5b3e f427 bc3e 7841 b4be
000003b0: 2f16 c4bc 53e5 b0bd af03 5b3e 74fa 4cbe
000003c0: 8c60 73be 177c 0cbf 4e55 843d 071d 113e
000003d0: 56e1 a1bc 4aa2 2cbe 204d c73e aeaf babe
000003e0: 2176 853d b653 83bd c2fc fa3e 0890 d23d
000003f0: d884 c23d e2ef 533e 8c14 e53e afa6 a9be
-0.109491855 -0.059609212 -0.09230753 -0.0037095756 -0.13981363 -0.17774166 -0.11766451 0.38077143
-0.3971593 -0.2303187 -0.033949714 0.24867298 -0.3908801 -0.80568784 0.1683479 -0.015838888
-0.12862018 0.013521438 -0.23171611 0.397296 -0.32582334 -0.056313843 -0.19101988 -0.20308821
0.13194732 0.33149937 -0.044768658 -0.15001985 0.18889691 0.043751102 0.032620348 -0.083495334
-0.075377196 0.05504867 0.1567798 0.37588057 -0.5619827 0.17052583 -0.10039905 -0.06512336
0.08260682 0.026718555 -0.15028445 -0.22199981 -0.64788693 0.31135857 -0.025257614 -0.2913856
0.10152696 0.0469008 0.12275819 0.30096906 -0.29345027 0.24544105 0.03513573 -0.07502525
-0.4668384 0.013824113 0.12167874 0.19416378 -0.35360363 -0.115075804 -0.2523705 0.17969462
0.34205297 -0.15282989 0.09348554 -0.18245097 -0.34466535 0.43543205 -0.09902319 0.0051815314
-0.45817584 -0.22429293 0.027961357 0.21978857 0.24131185 -0.110386 0.085406125 0.12047435
0.22281699 0.20396872 0.17804444 0.20809771 0.40444452 0.29746118 0.19298954 -0.040236026
-0.4972097 -0.2710992 -0.04734305 -0.37344638 0.0857698 0.2605731 0.21359658 0.1930653
0.03281741 -0.31371534 0.23329416 0.2556965 -0.03104244 -0.40385166 -0.1296264 0.087324135
0.51072454 -0.29000816 -0.0816135 0.18065415 0.24224107 0.11330829 -0.39105728 0.19879645
0.1416479 -0.033680104 0.2724861 0.38662457 -0.27469006 0.11073365 -0.07281901 -0.2676973
-0.20752713 -0.030143272 -0.29992944 0.09870325 0.4488597 -0.0036283282 0.17705798 -0.1771265
0.121419765 0.13807912 0.35335258 -0.17149664 -0.4678416 -0.13060822 -0.4381805 0.17813003
-0.04399088 0.1458527 0.04482354 0.24239291 -0.06911742 0.0797749 -0.5038661 0.37878406
0.25941613 -0.072059706 -0.5514146 -0.012974633 0.34115428 -0.41855413 0.08824297 0.23594712
-0.035616152 0.037406918 0.284127 0.26784852 -0.046318263 -0.038467802 -0.030378042 -0.21642381
0.006986355 -0.059735678 0.08136033 -0.52948606 -0.025480535 -0.3897688 0.01018807 0.16662024
-0.055926505 0.14889964 0.2772691 -0.064484686 -0.057409506 0.29187098 0.20118585 -0.3443472
0.35104856 0.20342568 -0.030066008 0.043346353 -0.41253567 -0.33075735 0.41383946 0.18314765
-0.16007486 0.047104057 -0.17850661 -0.21188265 0.13738663 0.51478755 -0.3535504 -0.12300222
-0.49942222 -0.41089958 0.07775463 0.022669028 -0.075826705 -0.29025942 -0.081873976 0.047514558
-0.06294062 0.11801931 0.15944079 -0.42258233 -0.09858099 -0.21633452 -0.38711473 -0.025297144
-0.04782451 -0.31981078 0.25088447 -0.13402425 0.18248531 -0.2408399 0.05471879 0.260984
-0.123558395 -0.14718513 -0.12106364 -0.45821628 0.02896386 -0.048033107 0.2681163 0.4740672
0.117003515 -0.09814941 -0.04038915 0.17146863 -0.15726656 0.18625946 -0.017386172 0.1258991
0.0034637416 0.21414919 0.36749232 -0.352062 -0.02393636 -0.0863749 0.21388124 -0.20017415
-0.23767298 -0.54876846 0.06461583 0.1417123 -0.019760769 -0.16858783 0.3892603 -0.36462158
0.06516672 -0.06412451 0.49020964 0.10281378 0.09497994 0.20696977 0.4474224 -0.33134982

value_net.module_4.bias f4 [32]
00000000: 3189 693b b8fc 2f3a 64f8 e53a 7397 00bb
00000010: 7a89 803b 919b 0cb7 c899 093b 66b5 debb
00000020: 8c19 183c e1d6 223b 0b3a b73a 7c2e b1ba
00000030: 572f 29ba 4091 bd3b 956c a13a fbf8 583b
00000040: 49bb 28bb 8e52 42bc ea0e 56ba 40f0 003b
00000050: 5c6e 0bbb 87b5 343b 6e5c c0bb 70fa 47ba
00000060: f45e 273b 8e78 433b be69 09bb cb1d a7bb
00000070: 7783 81b9 f465 4d3b 5fd1 a53b 4c34 503c
0.003563475 0.0006713378 0.001754534 -0.001962152 0.0039226385 -8.380871e-06 0.0020996202 -0.0067965267
0.009283435 0.0024847316 0.001397909 -0.0013517882 -0.00064538926 0.0057851374 0.0012315685 0.0033107388
-0.0025746396 -0.011860503 -0.00081656745 0.001967445 -0.0021275496 0.002757402 -0.0058703935 -0.00076285657
0.0025538774 0.0029826495 -0.0020967568 -0.005099987 -0.00024702746 0.0031341286 0.0050603594 0.012707781

value_net.module_7.weight f4 [1, 32]
00000000: 3398 20be 757e 65bd 1306 f63c 1ddb 8d3d
00000010: 4578 063d f8cf 873d af9a 5abe 112e 223e
00000020: 5ebc cabd 8db2 f4bd a3ed 823e 2b5e 3cbd
00000030: d8c5 f73d f9ed e5bd 320d f7bd 3da4 513e
00000040: b126 8ebe 42ee c9bc 7374 b03d 6745 51be
00000050: f34c 173d 1209 0e3e 058b 13bd be14 2a3e
00000060: c710 963e 9e0b 08be 5b6a 78bd bc69 d63c
00000070: 7437 a33d f842 903c a055 833e a6e2 743c
-0.1568306 -0.056028802 0.030032193 0.06926558 0.03282954 0.06631464 -0.2134807 0.15837885
-0.098992094 -0.11948118 0.25571927 -0.045988243 0.120982826 -0.1122703 -0.12063064 0.20472808
-0.27763894 -0.024649743 0.08615961 -0.20436631 0.03693862 0.13870648 -0.03602125 0.16609475
0.29309675 -0.13285682 -0.060648303 0.026173465 0.07969561 0.017610058 0.25651264 0.014946615
