MAPPO/2DAction/save/SF_T1/agent_12_MAPPO_c.pt (torch, 107226 bytes, 15 tensors)

policy_net.0.weight f4 [32, 30]
0	0x3ea30a84	0.3184396
1	0xbdec443c	-0.11536452
2	0x3c013f9b	0.0078887
3	0x3e6092d5	0.21931012
4	0x3e610fb8	0.21978652
5	0x3e5f12c7	0.21784507
6	0x3e35191b	0.17685358
7	0x3d63a6c0	0.055578947
8	0xbe93897f	-0.2881584
9	0x3ddab195	0.10678402
10	0x3d2254f7	0.03963181
11	0x3eab6eed	0.33483067
12	0xbef16a45	-0.4715139
13	0xbdac653b	-0.08417746
14	0xbe1b3970	-0.1515863
15	0x3d2afeba	0.041746832
16	0x3efe79d8	0.49702334
17	0x3e16baf4	0.14719754
18	0xbd2fb193	-0.042893957
19	0xbdb43a5a	-0.08800192
20	0xbe882535	-0.26590887
21	0x3e58f5e3	0.21187548
22	0x3e4f3b77	0.20237528
23	0xbf1b7f68	-0.6074128
24	0xbe868286	-0.26271456
25	0x3e35b41c	0.17744488
26	0x3e06d1af	0.13165925
27	0xbe2ad47d	-0.1668262
28	0x3ecf052c	0.40433633
29	0x3e51be46	0.2048274
30	0xbe448793	-0.19192342
31	0xbea2913c	-0.3175143
32	0x38b8580e	8.790205e-05
33	0xbd25cbf4	-0.040477708
34	0x3ef64955	0.48102823
35	0xbe94728d	-0.28993645
36	0xbd8e2843	-0.06941273
37	0xbe0d805f	-0.13818501
38	0x3e5146df	0.20437191
39	0xbd928225	-0.07153729
40	0xbe85a66b	-0.2610353
41	0x3e68f588	0.22749913
42	0xbe0a54a4	-0.1350885
43	0xbeaf61d4	-0.34254324
44	0xbe5f8d15	-0.21831162
45	0x3d62721b	0.0552846
46	0xbc712756	-0.014718851
47	0x3eb9f183	0.3631707
48	0xbf163301	-0.58671576
49	0x3d8014f2	0.06253995
50	0xbe9e4394	-0.30910933
51	0x3e2e3c58	0.17015207
52	0x3dfa5839	0.122238584
53	0x3d9c28a8	0.07624942
54	0xbe75a094	-0.23987037
55	0x3e1ac945	0.1511584
56	0xbdcd351d	-0.10019896
57	0xbde4c813	-0.11170974
58	0xbe8c1e04	-0.2736665
59	0xbd278d90	-0.04090649
60	0x3e6dc32e	0.23218986
61	0xbed095d4	-0.4073931
62	0xbe45d469	-0.1931931
63	0xbea3c4f4	-0.319862
64	0x3f2fe411	0.68707377
65	0xbe206d88	-0.15666783
66	0x3c5c85fe	0.013459681
67	0xbe665289	-0.22492422
68	0xbe1a81bd	-0.15088554
69	0x3daf511c	0.08560392
70	0xbdb1b081	-0.086762436
71	0x3daa3e1a	0.08312626
72	0x3e6aad15	0.22917588
73	0x3e74c3d9	0.23902835
74	0xbe8c5b74	-0.27413523
75	0x3e08c01a	0.13354531
76	0xbd5764da	-0.052586414
77	0xbe264594	-0.1623748
78	0x3eb77946	0.35834712
79	0x3e3812ac	0.17975873
80	0x3ea793a5	0.3272983
81	0x3e91d6fb	0.2848433
82	0xbe0d8b91	-0.13822772
83	0xbd56fbc8	-0.05248621
84	0x3e88b05a	0.26697046
85	0x3e3c0cda	0.18364277
86	0xbeeb5f55	-0.4597117
87	0x3e49f3a1	0.19721843
88	0x3ea51ffa	0.3225096
89	0x3e34382f	0.17599557
90	0x3f01b5f7	0.5066828
91	0x3ea30f55	0.31847635
92	0x3d1a5fa4	0.037688866
93	0x3e20a0bf	0.1568632
94	0x3e80043b	0.25003228
95	0x3e2ee988	0.17081273
96	0xbd338959	-0.043832157
97	0x3e8de3c3	0.2771283
98	0xbda7f612	-0.08201231
99	0x3ef828c1	0.48468593
100	0xbe92a3ae	-0.28640503
101	0x3e9bce67	0.3043091
102	0x3e78a4b2	0.24281576
103	0xbddd257f	-0.107981674
104	0x3e29a673	0.16567402
105	0xbd86d0a4	-0.06582764
106	0xbe2406cb	-0.16018216
107	0x3dbf7825	0.093490876
108	0xbddd9b6c	-0.1082066
109	0x3d4f2d0f	0.05058008
110	0xbf04e06e	-0.5190495
111	0xbef874b0	-0.48526525
112	0xbf16c461	-0.588934
113	0xbea8ed11	-0.32993367
114	0xbd37448e	-0.044743113
115	0xbdc5550e	-0.096353635
116	0xbefd1aa6	-0.49434394
117	0xbe7a7b50	-0.24461102
118	0xbdee18f5	-0.11625854
119	0x3ee3be34	0.4448105
120	0xbe8542dc	-0.26027572
121	0x3ee457c3	0.44598207
122	0xbc7a1c91	-0.0152656
123	0x3ec5290b	0.38507876
124	0x3e9a37c0	0.3012066
125	0x3e5531a3	0.20819716
126	0xbe819e87	-0.2531626
127	0x3d816df3	0.06319799
128	0xbc3e4b33	-0.011614609
129	0xbe1f4f19	-0.15557517
130	0xbd86e616	-0.06586854
131	0xbb3b0553	-0.002853711
132	0x3c181d29	0.009284296
133	0x3e8deb5b	0.27718624
134	0x3e11ab16	0.1422542
135	0x3ecd0275	0.40040937
136	0xbe77ea05	-0.24210365
137	0xbe5d6581	-0.21620752
138	0x3eabe985	0.335766
139	0x3ed3b268	0.4134705
140	0x3e7106b2	0.2353771
141	0x3f1db99c	0.6161134
142	0x3dbaf35e	0.0912845
143	0x3e7abb99	0.24485625
144	0xbd683b74	-0.056697324
145	0xbe3f2598	-0.18666685
146	0x3e0bd8eb	0.13656966
147	0xbefcb914	-0.49359953
148	0xbe5e64f4	-0.21718198
149	0xbe83654c	-0.2566322
150	0xbde0a19f	-0.10968327
151	0xbe0a8f26	-0.1353117
152	0x3d69a7ee	0.057044916
153	0x3f0135e9	0.50472885
154	0x3f0c5902	0.54823315
155	0x3c23d1bc	0.009998735
156	0x3e8f9423	0.28042707
157	0xbe0a11e4	-0.13483387
158	0x3d8208b6	0.06349318
159	0x3d91b1e8	0.07114011
160	0x3f077522	0.52913105
161	0x3db3fcaf	0.0878843
162	0x3ec5f0d5	0.38660303
163	0x3edd7a6e	0.4325747
164	0xbe9460cf	-0.2898011
165	0xbf4de6ab	-0.80430096
166	0x3d937bd7	0.07201355
167	0x3e641767	0.22274552
168	0x3e07e355	0.13270314
169	0xbefb9068	-0.4913361
170	0xbe9f6ee1	-0.3113928
171	0xbeb65d7b	-0.35618195
172	0xbed181ba	-0.40919286
173	0xbec3a9ad	-0.3821539
174	0xbe959bc8	-0.29220414
175	0xbba2ac61	-0.004964397
176	0x3ce2096d	0.027592385
177	0xbe79c13a	-0.24390116
178	0x3daf875a	0.08570738
179	0x3da78bd6	0.081809685
180	0xbe660bb8	-0.22465408
181	0x3f070dc8	0.52755404
182	0x3e9d0bbf	0.30673024
183	0xbedf9be8	-0.43673635
184	0xbe5cd018	-0.21563756
185	0xbe5d5e41	-0.21617986
186	0xbf0f30be	-0.5593375
187	0x3c97827b	0.018494835
188	0x3e0c99bb	0.13730519
189	0xbecb6527	-0.3972561
190	0xbed019b6	-0.40644616
191	0xbd032a33	-0.032022666
192	0x3e838c35	0.25692907
193	0xbe061138	-0.13092506
194	0xbe8b16b1	-0.2716575
195	0x3cd4019b	0.025879672
196	0x3eb7533f	0.358057
197	0xbdf9e84e	-0.12202512
198	0x3ee4e00c	0.44702184
199	0xbe3ca383	-0.1842175
200	0x3ecd483e	0.4009418
201	0xbdaaade8	-0.08333951
202	0x3e03af00	0.12859726
203	0xbe4506eb	-0.1924092
204	0xbdeca163	-0.115542196
205	0xbe2e3346	-0.17011747
206	0xbd3e7d71	-0.04650635
207	0xbe558ea1	-0.2085519
208	0x3da6e3b7	0.08148902
209	0x3dd7f120	0.10544038
210	0x3dc47f12	0.09594549
211	0xbde42622	-0.11140086
212	0x3e925e2e	0.28587478
213	0xbe7830fc	-0.24237436
214	0x3ebd3745	0.3695623
215	0x3e53335e	0.20625064
216	0x3ea9357d	0.3304862
217	0xbe282df0	-0.16423774
218	0x3d938f07	0.07205015
219	0x3ec10a17	0.3770301
220	0xbea96723	-0.330865
221	0xbe4c4879	-0.19949521
222	0x3ea94476	0.33060044
223	0x3f12aed2	0.57298005
224	0x3eb1e6d3	0.34746417
225	0xbdc0e40d	-0.09418497
226	0x3e4a1a47	0.19736587
227	0x3e9bb17f	0.30408856
228	0xbe9e4f8b	-0.3092006
229	0x3d640a4e	0.05567389
230	0xbe1be088	-0.1522237
231	0xbed81d1d	-0.42209712
232	0x3e737047	0.23773299
233	0xbedb9205	-0.42884842
234	0xbdeb41bc	-0.11487147
235	0x3e3bdbee	0.18345615
236	0xbe0755c5	-0.13216312
237	0xbdbb9dc9	-0.091609545
238	0xbd67e487	-0.056614425
239	0xbecd455c	-0.4009198
240	0xbecbc25f	-0.3979673
241	0x3deab8c3	0.11461022
242	0xbdc6ec95	-0.09713093
243	0x3e24822e	0.16065285
244	0x3d6f5e3a	0.05843947
245	0x3e611e01	0.21984102
246	0x3f266ba7	0.65008014
247	0xbe2d1e0b	-0.16905992
248	0xbe0d47a5	-0.13796861
249	0x3f00c639	0.50302464
250	0xbeb4c9e0	-0.35310268
251	0xbe546b73	-0.20744114
252	0x3e95f9b3	0.29292068
253	0x3c9048df	0.017612873
254	0xbeb7a0c6	-0.35864848
255	0x3dcfac37	0.10140269

policy_net.0.bias f4 [32]
0	0x3d121da3	0.035672795
1	0xbc5cf7be	-0.013486801
2	0x3bd871a8	0.0066053458
3	0x3d06831a	0.032839872
4	0x3caafc5e	0.020872291
5	0xbce152e5	-0.027505348
6	0xbc54a431	-0.012978599
7	0x3ca5a0ac	0.020218216
8	0x3c8deb85	0.017324219
9	0x3b7fd376	0.0039035953
10	0xbe168ac6	-0.14701375
11	0x3c8762b8	0.016526565
12	0x3d8c74c1	0.068582065
13	0xbd23af19	-0.039961908
14	0x3b0faea1	0.0021924155
15	0xbd96a53c	-0.07355735
16	0xbb930a15	-0.004487286
17	0x3b6afe06	0.0035856976
18	0xbd395c3a	-0.04525397
19	0x3bfb0585	0.00766057
20	0x3d3735ab	0.044728916
21	0xbccac1e7	-0.024750663
22	0xbb20409b	-0.002445257
23	0xbd2992d1	-0.04139978
24	0xbcb3f876	-0.021969061
25	0x3d0814f0	0.033223093
26	0xbd907c79	-0.07054991
27	0xbc53ced9	-0.012927734
28	0x3c36fa96	0.011168143
29	0x3c0fbba4	0.008772764
30	0xbd7d7b15	-0.06188496
31	0xbd3fa834	-0.04679127

policy_net.2.weight f4 [32, 32]
0	0x3e3b6fa9	0.18304314
1	0x3ea2c2ea	0.31789333
2	0x3d711da2	0.05886615
3	0x3ea4c768	0.32183385
4	0x3db23640	0.087017536
5	0xbf003f97	-0.5009703
6	0xbed070de	-0.4071111
7	0x3c11433c	0.008866128
8	0xbe1eb688	-0.15499318
9	0x3d186d70	0.037213743
10	0xbddf65ca	-0.109080866
11	0x3ea9daf0	0.3317485
12	0xbe7f24fd	-0.24916454
13	0x3e77ee0e	0.24211904
14	0x3b3ea4d0	0.0029089935
15	0xbe56ebf3	-0.20988445
16	0xbe4c071a	-0.19924584
17	0x3e358890	0.17727876
18	0xbba83090	-0.005132742
19	0x3e06eafe	0.1317558
20	0x3ef5950f	0.47965285
21	0x3e331361	0.17487861
22	0xbe73beed	-0.23803301
23	0xbf2802c2	-0.6562921
24	0x3e44ee2e	0.19231483
25	0xbf085b1c	-0.5326402
26	0xbf3b2fd2	-0.73119843
27	0x3e4d739e	0.20063636
28	0xbdcca0b9	-0.09991593
29	0xbe228bce	-0.15873644
30	0xbea26001	-0.3171387
31	0x3d755317	0.059893694
32	0x3ea260fc	0.31714618
33	0x3c53991c	0.012914922
34	0xbe11799c	-0.14206547
35	0x3f100889	0.56263024
36	0xbee4c0de	-0.44678396
37	0x3e584bff	0.2112274
38	0xbd0566ce	-0.032568745
39	0x3e130a4f	0.14359401
40	0xbd27e619	-0.040990923
41	0x3f0bb099	0.5456634
42	0x3dd335bf	0.10312986
43	0xbe819d5c	-0.25315368
44	0x3d59a51b	0.053135972
45	0x3e93fd22	0.28904063
46	0x3ea2373a	0.3168276
47	0x3b919ffe	0.0044441214
48	0xbe8417dd	-0.25799456
49	0xbebf132c	-0.37319314
50	0x3d37535a	0.044757225
51	0x3ecb623e	0.3972339
52	0xbcdd93eb	-0.027048072
53	0x3d0d9369	0.03456441
54	0x3e68406c	0.22680825
55	0xbe55da54	-0.20884067
56	0x3f065fae	0.52489746
57	0x3d9edb3e	0.07756661
58	0x3cf25895	0.029583255
59	0xbdb2d0d1	-0.08731235
60	0x3e41e4c4	0.18934923
61	0x3e59ffea	0.2128903
62	0xbea01b2c	-0.3127073
63	0x3ea99833	0.3312393
64	0x3eab9280	0.33510208
65	0xbc4bf6f9	-0.01244902
66	0xbcdc0ebc	-0.026862495
67	0x3f097442	0.5369302
68	0xbed9b246	-0.42518824
69	0x3e70dfa1	0.23522808
70	0xbe91b879	-0.28461054
71	0x3ec7138c	0.388821
72	0xbe2e0b18	-0.1699642
73	0x3e47c3fe	0.19508359
74	0xbebc22fe	-0.36745447
75	0xbebb09c8	-0.365309
76	0x3e58bf10	0.21166635
77	0xbd57777d	-0.052604187
78	0xbd4a1d15	-0.04934414
79	0xbeebc35d	-0.46047488
80	0xbe6f2213	-0.23352842
81	0x3ec03b59	0.3754528
82	0x3d8f24a7	0.06989413
83	0x3d9f5267	0.07779389
84	0xbe4da83b	-0.20083706
85	0xbe88c25b	-0.2671078
86	0xbece91d2	-0.40345627
87	0xbec59923	-0.38593397
88	0xbe9745f3	-0.29545555
89	0xbd11b2eb	-0.03557102
90	0x3ecf81b9	0.40528658
91	0xbdf4b429	-0.11948425
92	0xbeabd350	-0.33559656
93	0xbe98a910	-0.29816484
94	0x3d620ca9	0.055187855
95	0xbea5b500	-0.32364655
96	0xbe836a30	-0.25666952
97	0x3e848d45	0.2588903
98	0xbe896968	-0.2683823
99	0xbd983a41	-0.07432986
100	0xbdb019a8	-0.085986435
101	0xbe46df3c	-0.19421095
102	0x3e82523b	0.25453362
103	0x3dc15aee	0.094411716
104	0x3e95a22b	0.29225287
105	0xbd9c610a	-0.07635696
106	0xbc9524fa	-0.018206108
107	0x3e83ccbb	0.25742134
108	0x3e311ed5	0.17296918
109	0x3edd52bf	0.43227193
110	0xbba52d42	-0.0050407955
111	0x3c6410bb	0.0139200045
112	0x3eca37e3	0.39495763
113	0x3f019ef4	0.5063317
114	0x3d41451f	0.04718506
115	0xbe6d5ec8	-0.23180687
116	0x3d9a19eb	0.07524475
117	0xbee34051	-0.44385007
118	0x3f64cc5c	0.8937433
119	0x3ea0abe0	0.3138113
120	0x3dd57e30	0.10424459
121	0xbe817258	-0.2528255
122	0xbe581164	-0.21100384
123	0x3be8ad75	0.007100756
124	0x3ea6edda	0.3260334
125	0x3d42cde1	0.047559623
126	0x3e80f693	0.2518812
127	0xbebb527a	-0.36586362
128	0x3e068370	0.13136077
129	0x3e8617f3	0.26190147
130	0x3d709dbd	0.05874418
131	0x3e36bc0d	0.17845173
132	0xbdbb2108	-0.091371596
133	0xbf056afc	-0.5211637
134	0x3daa08c8	0.08302456
135	0x3ebc7be4	0.3681327
136	0x3b8b7f18	0.004257094
137	0xbda6ee2f	-0.08150899
138	0x3de5f818	0.11228961
139	0xbecab7aa	-0.3959325
140	0x3e914e64	0.2838012
141	0xbcabca67	-0.020970536
142	0x3e5400d3	0.2070344
143	0xbef023a5	-0.46902195
144	0xbf07be13	-0.53024405
145	0xbf016d54	-0.50557446
146	0x3ec50527	0.38480493
147	0xbe9b8019	-0.30371168
148	0xbed1ddec	-0.40989625
149	0xbea306bd	-0.31841078
150	0x3dbc3cb9	0.091912694
151	0xbe467656	-0.19381079
152	0xbe9ca072	-0.3059116
153	0x3f0d204a	0.55127394
154	0xbcb36f11	-0.021903547
155	0xbdb5f30f	-0.088842504
156	0xbf225c97	-0.6342253
157	0xbe9e7fae	-0.30956787
158	0xbe4648a7	-0.19363652
159	0x3ebc0cf9	0.36728647
160	0xbeb6d012	-0.3570562
161	0x3eac1017	0.33606026
162	0x3f008cbd	0.5021475
163	0x3e158c26	0.14604244
164	0x3e67af16	0.22625384
165	0x3e1663ad	0.14686461
166	0xbe1dcd0f	-0.15410255
167	0xbe976458	-0.29568744
168	0x3e59ae4c	0.21257895
169	0xbe13a941	-0.14420034
170	0x3f5d8422	0.86529744
171	0xbd513b84	-0.05108215
172	0xbe48fef9	-0.19628514
173	0xbc83264a	-0.016009469
174	0x3e05b616	0.13057742
175	0xbb060cb1	-0.0020454342
176	0x3e17dae4	0.14829594
177	0x3ef41499	0.47671965
178	0x3c9390ff	0.018013475
179	0x3e075809	0.13217176
180	0xbe334955	-0.17508443
181	0xbe04440b	-0.12916581
182	0x3e92719f	0.2860231
183	0x3e601ef9	0.21886815
184	0xbead507c	-0.33850467
185	0xbd368d21	-0.044568185
186	0x3f33a539	0.70173985
187	0xbed6df81	-0.41967395
188	0xbe3a14f2	-0.18172053
189	0x3ed047ba	0.40679723
190	0x3dea8184	0.114504844
191	0x3d5b5ad9	0.053553436
192	0xbedbde92	-0.42943245
193	0x3e1bf1e8	0.15228999
194	0x3d157a73	0.03649373
195	0x3e5c82d8	0.21534288
196	0xbd9448b8	-0.072404325
197	0xbccab3e1	-0.024743976
198	0xbe2bd182	-0.1677914
199	0xbca17a00	-0.019711494
200	0x3e861a67	0.26192018
201	0x3dacd896	0.08439748
202	0xbe0c9a48	-0.13730729
203	0x3f232cc8	0.63740206
204	0x3e295895	0.16537698
205	0xbe582fb9	-0.21111955
206	0x3ea2b86c	0.31781328
207	0x3e745a12	0.23862484
208	0x3ea7ce44	0.32774556
209	0x3e24d9d4	0.1609872
210	0x3eecce05	0.4625093
211	0xbe7085d2	-0.23488548
212	0x3eaf558a	0.3424495
213	0x3f257636	0.646335
214	0x3e9f27a4	0.3108493
215	0x3e261092	0.16217259
216	0xbdde3646	-0.108501956
217	0x3ee2fc4d	0.44333115
218	0x3d2bc08e	0.04193168
219	0xbdd65a44	-0.104664356
220	0x3e9b0bd4	0.30282462
221	0x3e258ee2	0.16167787
222	0x3f190a83	0.59781665
223	0xbdb552f8	-0.08853716
224	0x3f12897d	0.5724104
225	0xbe4ba511	-0.19887187
226	0x3e7bdf04	0.24596792
227	0xbe0009be	-0.12503716
228	0xbdcc4291	-0.09973634
229	0xbeb65554	-0.35611975
230	0xbdbacad0	-0.09120715
231	0xbdb1e486	-0.086861655
232	0xbe2aac4d	-0.1666729
233	0xbeed83fc	-0.4638976
234	0x3e36258f	0.17787765
235	0x3f164fc5	0.5871547
236	0xbd9ad11a	-0.07559414
237	0x3d99a4ff	0.07502174
238	0x3ead9d03	0.33908853
239	0x3ebd28c2	0.36945158
240	0x3d0f478e	0.03498035
241	0x3c1aa97a	0.00943982
242	0xbeac2e77	-0.336292
243	0x3e8e1f6a	0.27758342
244	0x3dc83379	0.09775443
245	0xbd4466b0	-0.047949493
246	0x3efd74c4	0.49503148
247	0x3e130c11	0.14360072
248	0xbe9126c1	-0.2834988
249	0x3e5c4ee9	0.21514477
250	0x3e190f11	0.14947154
251	0xbd6c269b	-0.057654005
252	0x3ec9478f	0.39312407
253	0x3dcf8ddf	0.10134482
254	0x3e6a7e64	0.22899777
255	0xbf023768	-0.50865793

policy_net.2.bias f4 [32]
0	0x3e2e3ecd	0.17016144
1	0x3d6eff92	0.0583492
2	0x3d439fdc	0.047759876
3	0xbd2953a6	-0.04133954
4	0x3da94c37	0.0826649
5	0xbe25e67d	-0.16201206
6	0xbd24f601	-0.04027367
7	0xbcf3500b	-0.029701253
8	0x3d31faed	0.043452192
9	0xbc9467a1	-0.01811582
10	0x3e0432a5	0.12909944
11	0xbcc6771d	-0.02422672
12	0xbd8088fe	-0.06276129
13	0x3e2d9f5c	0.16955322
14	0x3cfcc279	0.03085445
15	0x3d08a0aa	0.033356346
16	0x3cda77eb	0.02666851
17	0x3d6a5b2c	0.057215855
18	0xbcc7f8c9	-0.024410622
19	0x3d350f87	0.04420426
20	0xbcc949bd	-0.024571294
21	0xbd45cc14	-0.048290327
22	0x3b28d16b	0.0025759588
23	0x3cc35ea8	0.023848847
24	0xbcf772d0	-0.030206114
25	0xbe4d28c7	-0.20035087
26	0xbdfffe0e	-0.12499629
27	0x3cd8b20a	0.026452083
28	0x3d9745c4	0.073863536
29	0x3ce8bfbf	0.028411744
30	0xbd5a5c6e	-0.053310804
31	0xbc2c8ddc	-0.010531869

policy_net.4.weight f4 [32, 32]
0	0x3eba92aa	0.3644002
1	0x3d09a04b	0.033600133
2	0x3f31e7f4	0.6949456
3	0xbe91453e	-0.2837314
4	0x3f41e9a8	0.75747156
5	0xbe7d65ee	-0.24745914
6	0x3d70762b	0.058706444
7	0xbe257949	-0.16159548
8	0x3e633118	0.22186697
9	0x3ec70350	0.38869715
10	0x3e1f0598	0.15529478
11	0xbe52c007	-0.20581065
12	0xbe2120f7	-0.15735231
13	0x3ebf2a6c	0.37337053
14	0xbadccfdc	-0.0016846615
15	0xbeb37ae2	-0.3505469
16	0xbeadad27	-0.33921167
17	0x3f22b742	0.6356088
18	0xbf2b08e3	-0.66810435
19	0x3e992c5d	0.2991666
20	0x3e16b7e1	0.14718582
21	0x3d8ed57f	0.06974315
22	0x3e7d6e49	0.24749102
23	0x3f35bc1b	0.7099015
24	0xbecffce4	-0.40622628
25	0xbea6593e	-0.3248996
26	0x3e6c9500	0.23103714
27	0xbe5ee959	-0.21768703
28	0x3e521c0e	0.20518515
29	0x3e206790	0.15664506
30	0x3dfc79e5	0.12327937
31	0xbc86318b	-0.016381046
32	0xbf0c368b	-0.54770726
33	0xbeaa30eb	-0.33240446
34	0x3e4699dc	0.1939463
35	0x3dc8077e	0.09767054
36	0x3e9cbe45	0.30613914
37	0x3e3d73cc	0.18501204
38	0x3ee705f5	0.45121732
39	0xbd1bc291	-0.03802735
40	0x3da256c3	0.07926705
41	0x3e88f74c	0.26751173
42	0xbee019e9	-0.43769768
43	0x3e98f073	0.29870948
44	0xbeae3eb6	-0.3403222
45	0x3d66e583	0.056371223
46	0x3e9178d7	0.28412506
47	0xbe7e9289	-0.24860586
48	0xbe942188	-0.28931832
49	0xbee928de	-0.45538992
50	0x3e97b135	0.29627386
51	0xbf1d5371	-0.61455446
52	0x3e98489f	0.29742905
53	0xbd432b50	-0.047648728
54	0x3e8033f0	0.25039625
55	0xbc310211	-0.010803715
56	0xbd6042d7	-0.054751243
57	0x3e02b11f	0.12762879
58	0xbdc56bf8	-0.09639734
59	0xbef86029	-0.48510864
60	0xbf2d7705	-0.67759734
61	0xbede0ee7	-0.43370745
62	0x3dd4aeb7	0.10384887
63	0xbe1fc170	-0.15601134
64	0x3f272e44	0.6530497
65	0x3c4f00c9	0.012634465
66	0xbf0df0b1	-0.5544539
67	0xbed68b29	-0.41903046
68	0x3eb6d0b7	0.35706112
69	0xbf0cd547	-0.55012935
70	0xbeeb48d6	-0.45954007
71	0xbdeed349	-0.11661393
72	0x3e7cf48f	0.24702667
73	0xbde6a7a7	-0.11262446
74	0x3e19fc63	0.15037684
75	0x3d52360e	0.05132108
76	0xbe0c8ff5	-0.1372679
77	0xbb4cda86	-0.003125818
78	0x3ebbac86	0.36655062
79	0x3ea070f3	0.31336173
80	0x3ed294b5	0.4112908
81	0x3e75bea5	0.23998506
82	0x3e9aaf86	0.3021204
83	0xbe0d6bcf	-0.13810657
84	0xbe97272a	-0.29522067
85	0xbec98c51	-0.39364865
86	0xbdbb7caf	-0.09154641
87	0x3ef9bc46	0.48776454
88	0x3e4e93cd	0.20173569
89	0x3ddbdcc1	0.10735465
90	0xbe54db34	-0.20786744
91	0x3e4c00ff	0.19922255
92	0x3e8a26e0	0.26982784
93	0x3abca59e	0.001439262
94	0x3e450338	0.19239509
95	0x3e05b678	0.13057888
96	0xbf230216	-0.6367506
97	0xbed30d3d	-0.41221038
98	0xbef6be3f	-0.4819202
99	0x3eb1afcf	0.34704444
100	0x3d080bab	0.033214252
101	0x3e1721be	0.14758965
102	0x3dc56124	0.09637669
103	0xbe9691c5	-0.29408088
104	0xbcdb31ea	-0.0267572
105	0x3db6fbe8	0.08934766
106	0x3e71fe9b	0.2363228
107	0x3d838779	0.06422324
108	0xbec53ec5	-0.38524452
109	0xbee39ac7	-0.44454023
110	0xbf01cb97	-0.5070128
111	0xbee2586e	-0.44208091
112	0xbdff9d32	-0.124811545
113	0x3de2f588	0.110819876
114	0x3dc01f96	0.093810245
115	0xbd6c1331	-0.05763549
116	0x3e09e9cf	0.13468097
117	0x3e9b461d	0.3032693
118	0x3f188d45	0.5959056
119	0xbe53c410	-0.2068026
120	0xbe63dc4a	-0.22252002
121	0x3e928987	0.2862055
122	0x3ec048ec	0.37555635
123	0x3d97b2ed	0.07407174
124	0xbe82c079	-0.2553747
125	0xbdcb6ef6	-0.099332735
126	0x3e39c557	0.18141685
127	0x3d98c51a	0.07459469
128	0x3f3d6f84	0.73998284
129	0x3ebfe9e3	0.3748313
130	0xbe58f73f	-0.21188067
131	0x3debfb15	0.115224995
132	0xbda7c743	-0.08192303
133	0xbec45de4	-0.38352883
134	0xbee9bfc0	-0.45654106
135	0xbede99c3	-0.43476686
136	0x3e64cf57	0.22344719
137	0xbee1feca	-0.441397
138	0x3d8e4eeb	0.06948646
139	0x3cc6ad92	0.024252687
140	0xbda46137	-0.08026355
141	0x3e2754b0	0.163409
142	0x3d517c55	0.051143963
143	0xbdbcfdfc	-0.09228131
144	0xbe1a93e4	-0.15095478
145	0x3e64247d	0.22279544
146	0xbd80e33c	-0.062933415
147	0x3ebfe484	0.3747903
148	0x3e4ac3c8	0.19801247
149	0xbebd9f1b	-0.3703545
150	0xbe8bf666	-0.27336425
151	0xbe7a6f9f	-0.24456643
152	0x3e0a1106	0.13483056
153	0xbe97cd34	-0.29648745
154	0xbee1ef88	-0.4412806
155	0xbebb00ae	-0.36523956
156	0xbeb4d0e4	-0.3531562
157	0x3f014b50	0.5050554
158	0x3d9b98dc	0.07597515
159	0x3e57b831	0.21066357
160	0xbdba1afe	-0.090871796
161	0x3e16f637	0.14742361
162	0xbde690a1	-0.112580545
163	0x3de6aa5f	0.112629645
164	0x3e954d4c	0.29160535
165	0x3cb2cf3e	0.021827336
166	0x3edc6552	0.4304605
167	0xbd2d4ac4	-0.04230763
168	0x3c965688	0.018351808
169	0x3f15f092	0.58570206
170	0xbede3262	-0.43397814
171	0xbd82771a	-0.06370373
172	0x3f19ee7b	0.6012952
173	0xbecbdeed	-0.39818516
174	0xbe8d13e4	-0.27554238
175	0xbed9b504	-0.42520916
176	0x3cff5d15	0.031172315
177	0xbe5168b6	-0.204501
178	0x3e327d1d	0.1743054
179	0xbe857448	-0.26065278
180	0xbc0fc335	-0.008774568
181	0x3e875a98	0.26436305
182	0x3e928b31	0.2862182
183	0xbe6649f2	-0.22489145
184	0x3e81fb13	0.25386867
185	0xbd5987e4	-0.05310811
186	0x3ef06d63	0.46958455
187	0x3dd9675d	0.10615418
188	0xbf14c041	-0.58105856
189	0xbe37af1e	-0.17937896
190	0xbef27e4e	-0.47361988
191	0xbe4a8c6b	-0.19780128
192	0x3ed10584	0.4082452
193	0xbe0bc654	-0.13649875
194	0xbec88d9b	-0.39170536
195	0x3e6db847	0.23214827
196	0xbef9812e	-0.4873137
197	0xbe58d4be	-0.21174905
198	0x3e4023e4	0.18763691
199	0x3ed1f2c1	0.4100552
200	0xbda52c59	-0.08065099
201	0x3e15d915	0.14633591
202	0xbf0600b3	-0.52344817
203	0x3ed04524	0.4067775
204	0x3d0fb9df	0.03508937
205	0x3d931968	0.0718258
206	0x3e9ba538	0.3039949
207	0x3e7bcba9	0.24589409
208	0xbe03a1eb	-0.12854736
209	0xbeccfbf5	-0.40035978
210	0x3e52e370	0.20594573
211	0xbe6a0922	-0.22855046
212	0x3f0ab9e0	0.5418987
213	0x3e476f3b	0.19476025
214	0x3f14b4b3	0.58088225
215	0xbf4a0c17	-0.789247
216	0xbe039840	-0.12851048
217	0x3ea1d48d	0.31607476
218	0x3e1cd6cb	0.15316312
219	0x3e9981db	0.29981884
220	0x3e610978	0.21976268
221	0xbb156ce9	-0.0022800511
222	0x3e4b9ac7	0.19883262
223	0xbdd4367f	-0.10361957
224	0x3bf60b17	0.007508646
225	0x3eccec80	0.40024185
226	0x3dca99e5	0.09892634
227	0xbdec4031	-0.11535681
228	0x3e25e47a	0.16200438
229	0xbd1ba5e5	-0.038000006
230	0xbea84a58	-0.3286922
231	0x3ec0a3f8	0.37625098
232	0x3ecb55e3	0.39713964
233	0x3a273783	0.00063788163
234	0x3d1d6da8	0.038434654
235	0xbf57eae5	-0.84342796
236	0xbe4760c5	-0.19470508
237	0x3ef2e596	0.47440785
238	0xbd793716	-0.06084355
239	0xbea5a2bd	-0.32350722
240	0xbf1a58d1	-0.60291773
241	0x3e6d3900	0.23166275
242	0x3e11e600	0.14247894
243	0x3ec2f7d9	0.38079718
244	0xbed5f6bc	-0.41789806
245	0x3dc53de2	0.09630944
246	0xbe1d196a	-0.15341726
247	0x3f536664	0.8257811
248	0xbecdb3b3	-0.40176162
249	0x3d44aecd	0.048018266
250	0xbd31c493	-0.04340036
251	0x3e398a4e	0.18119165
252	0xbe8f810e	-0.28028148
253	0x3e9d260e	0.30693096
254	0xbe439919	-0.19101371
255	0x3eae7aac	0.34077966

policy_net.4.bias f4 [32]
0	0x3c81f9cf	0.015866188
1	0xbe5a6105	-0.21326073
2	0x3e54ce79	0.20781888
3	0xbe31139e	-0.1729264
4	0x3e541585	0.20711334
5	0xbe1cfc97	-0.1533073
6	0xbd14e3f0	-0.03635019
7	0x3d0ad90b	0.033898395
8	0xbe2802c7	-0.1640731
9	0xbd7befa9	-0.061507855
10	0xbdfe11cc	-0.12405738
11	0x3e7b3592	0.24532154
12	0xbe8047ec	-0.25054872
13	0x3c940bb2	0.018071983
14	0x3e64f2ac	0.22358197
15	0x3e4b69f4	0.19864637
16	0xbe395e85	-0.18102463
17	0x3d2bf68b	0.04198317
18	0x3c71519c	0.01472893
19	0x3c872548	0.01649727
20	0x3e810f8d	0.25207177
21	0x3adf28da	0.0017025725
22	0x3e3c970b	0.18416993
23	0xbe62eb4b	-0.2216007
24	0xbe70f6cb	-0.23531644
25	0x3d072ec0	0.03300357
26	0xbe576d84	-0.2103787
27	0xbe3ed76d	-0.18636866
28	0xbe3417d0	-0.17587209
29	0xbe4e7ccb	-0.20164792
30	0xbe3c3bbb	-0.1838216
31	0xbe2c6cc8	-0.16838372

policy_net.6.weight f4 [21, 32]
0	0x3ed73b38	0.42037368
1	0xbe8b4876	-0.2720372
2	0x3e7c6333	0.24647216
3	0xbe83077f	-0.25591657
4	0x3e7e5a27	0.24839078
5	0xbe835ed8	-0.25658298
6	0xbf116ece	-0.568097
7	0x3f16269c	0.58652663
8	0xbe8831bf	-0.26600453
9	0xbf11202c	-0.56689715
10	0xbe8da358	-0.27663684
11	0x3e691b78	0.22764385
12	0xbe73674d	-0.23769875
13	0x3f0f5d03	0.560013
14	0x3e6978af	0.22799943
15	0x3e611917	0.21982227
16	0xbe76eefc	-0.24114603
17	0x3f156cb9	0.5836902
18	0x3f0bff57	0.5468649
19	0x3e3a133c	0.181714
20	0x3e731c09	0.23741163
21	0x3ef7762a	0.4833234
22	0x3e66939b	0.22517245
23	0xbe75ea74	-0.24015218
24	0xbe75ec61	-0.24015953
25	0xbf00a0de	-0.50245464
26	0xbe5e1a81	-0.21689798
27	0xbe88f26f	-0.26747462
28	0xbe65fd43	-0.22459893
29	0xbe793171	-0.24335267
30	0xbe7fa7fb	-0.24966423
31	0xbe8af29c	-0.2713822
32	0x3a542cd5	0.00080938387
33	0x3a755b65	0.0009359627
34	0xb95a3d25	-0.00020812878
35	0xbaa7283c	-0.001275308
36	0x3b203e64	0.002445125
37	0x3a6ebf9b	0.0009107531
38	0x3a8d7530	0.0010792371
39	0xbad86c26	-0.0016511723
40	0xba59e68c	-0.0008312247
41	0x3b258e00	0.002526164
42	0xb9622f62	-0.00021570691
43	0x3a2cfc14	0.0006598842
44	0xb9d375d8	-0.00040332857
45	0x3af2ff50	0.0018539224
46	0xbac440d8	-0.0014972938
47	0x3b2a4f77	0.0025987306
48	0xbae14715	-0.0017187322
49	0xbb207f2c	-0.0024489863
50	0xbae88527	-0.0017739878
51	0xbb3be645	-0.0028671187
52	0xb898b181	-7.2809875e-05
53	0xba81caa2	-0.0009902308
54	0xbbc2d42b	-0.0059457025
55	0x3a7bb119	0.000960128
56	0xba05d835	-0.0005105765
57	0x39901b92	0.00027486362
58	0x3a585340	0.00082521513
59	0x3af05698	0.0018336354
60	0xba4b6ae9	-0.00077597663
61	0xb9a4efe7	-0.0003145926
62	0x3a5f48b2	0.00085176073
63	0x3ad1fa47	0.0016020023
64	0x3a8e556d	0.0010859199
65	0x3a8d5f37	0.0010785823
66	0xba6afd2b	-0.00089641166
67	0xb98b1812	-0.0002653008
68	0xb9c55089	-0.0003763477
69	0x3a4b8750	0.00077639986
70	0xbb4305d3	-0.002975811
71	0xb9b349f8	-0.00034196652
72	0x3abc7c58	0.0014380319
73	0xbb007f97	-0.00196073
74	0x3a821980	0.0009925812
75	0xbacd7342	-0.0015674608
76	0xb94f3b50	-0.00019763154
77	0x377cae97	1.506102e-05
78	0x3a032390	0.00050025526
79	0x38ff24f9	0.00012166234
80	0x3a32ff84	0.0006828236
81	0x3a8e80b5	0.0010872098
82	0x3af0c693	0.0018369727
83	0xba0fe5c0	-0.00054892525
84	0x3a4ddb3d	0.00078527984
85	0xb9dd1dbd	-0.00042174562
86	0xb710507f	-8.601811e-06
87	0x3b27ffde	0.0025634686
88	0xbaa8de2b	-0.0012883594
89	0x3b53f0a2	0.0032339473
90	0x3b7c886e	0.0038533467
91	0x3b82bb7d	0.0039896355
92	0xb9862cb6	-0.00025591784
93	0xbb357dcd	-0.0027693391
94	0x3b25ab2b	0.0025279026
95	0xbb35f5eb	-0.0027764987
96	0xb907e1db	-0.00012958741
97	0x3951bd61	0.00020002342
98	0xba8343e0	-0.0010014735
99	0xbb64aee6	-0.0034894287
100	0xb9a48ffb	-0.0003138779
101	0xbb832558	-0.0040022545
102	0xba72321d	-0.0009239035
103	0x3b5f7999	0.0034099577
104	0xba11d062	-0.00055623625
105	0xbae5354c	-0.0017487197
106	0xbad97ee6	-0.0016593605
107	0xbb15ef90	-0.0022878386
108	0xba98ee27	-0.0011667655
109	0x3ab18885	0.0013544714
110	0xba6ba015	-0.00089883927
111	0xba0c01ee	-0.0005340864
112	0xba3e15c4	-0.0007251168
113	0x39eaefb8	0.00044810562
114	0xbb039e30	-0.00200833
115	0x38bae510	8.911837e-05
116	0x3abc7a64	0.0014379737
117	0xba948c1f	-0.0011333263
118	0xba5da7a7	-0.0008455463
119	0x390dec3f	0.00013534816
120	0x3b3efc7e	0.0029142196
121	0xba8ec118	-0.0010891287
122	0x3b41034e	0.0029451433
123	0xbb09d582	-0.0021031802
124	0x3b1d3079	0.002398519
125	0xba3c1987	-0.0007175435
126	0x3acedb73	0.0015781954
127	0x3abf78fb	0.0014608199
128	0x3ce1a9ce	0.02754679
129	0xbdc3b2b7	-0.095555715
130	0x3dbf3489	0.09336192
131	0xbdc30217	-0.09521883
132	0x3db4bdd2	0.08825268
133	0xbdc3f8ae	-0.09568916
134	0xbdf999c1	-0.12187529
135	0x3d7d2f5b	0.06181274
136	0xbd926a32	-0.071491614
137	0xbcd7a922	-0.026325766
138	0xbdde4bdd	-0.108543135
139	0x3db89233	0.0901226
140	0xbdb98375	-0.090582766
141	0x3df499c0	0.11943388
142	0x3dbea879	0.09309477
143	0x3dbf5414	0.093422085
144	0xbdc0fd13	-0.0942327
145	0x3e0bf332	0.1366699
146	0x3e3922fd	0.18079753
147	0x3c1e6358	0.00966724
148	0x3dc14f5f	0.09438967
149	0x3e646189	0.22302832
150	0x3dbe8b4a	0.09303911
151	0xbdbfe1b0	-0.09369218
152	0xbdc79d04	-0.09746745
153	0xbdf58951	-0.11989082
154	0xbdc0515d	-0.09390519
155	0xbdbc4e44	-0.091946155
156	0xbdc06f48	-0.09396225
157	0xbdc2c62d	-0.09510455
158	0xbdca4959	-0.09877271
159	0xbdd2938c	-0.102820486
160	0x3d2462f1	0.04013342
161	0x3ced90e1	0.028999748
162	0xbcea5c22	-0.028608385
163	0x3c748f2e	0.014926715
164	0xbcfad4ef	-0.030619113
165	0x3d17b0b8	0.037033767
166	0xbd83c5ed	-0.06434236
167	0xbc540f4e	-0.012943102
168	0x3cceeb03	0.025258547
169	0xbd3090a5	-0.043106694
170	0xbcd9d91f	-0.02659279
171	0xba0965dc	-0.00052413135
172	0x3cd180e1	0.02557415
173	0xbbd9132d	-0.0066246004
174	0xbd1ba5d0	-0.037999928
175	0xbd1b946c	-0.037983343
176	0x3d20542b	0.03914277
177	0x3a44ce8d	0.0007507585
178	0x3d888c93	0.066674374
179	0x3d0107f9	0.031501744
180	0xbcf34af4	-0.029698826
181	0xbc52dfb4	-0.012870718
182	0xbd214662	-0.039373763
183	0x3d07208c	0.032990023
184	0x3d0c7737	0.03429338
185	0xbc1b7b99	-0.009489917
186	0xbc888566	-0.016665172
187	0x3c0c911c	0.008579519
188	0x3d25b20e	0.04045301
189	0x3d036ce1	0.032086257
190	0x3d237e5e	0.039915435
191	0x3cef2997	0.029194636
192	0xbc46e0f1	-0.012138591
193	0x3cf26a84	0.029591806
194	0xbd1c93e7	-0.03822699
195	0x3d0e45a1	0.034734372
196	0xbd456367	-0.0481905
197	0x3d33e988	0.043923885
198	0x3c3a4e03	0.0113711385
199	0x3db883af	0.09009492
200	0x3d55e4ba	0.052220084
201	0xbcef576a	-0.029216487
202	0x3d16bc65	0.03680076
203	0xbd304440	-0.04303384
204	0x3c4f38b5	0.012647797
205	0x3d506c4e	0.050884537
206	0xbd3afd92	-0.04565198
207	0xbd202725	-0.03909983
208	0x3d2881da	0.04113946
209	0x3cc45d48	0.023970261
210	0xbd1d8bac	-0.03846328
211	0xbaddba4f	-0.0016916486
212	0xbd312979	-0.043252442
213	0x3d015266	0.031572722
214	0xbd1029c9	-0.0351961
215	0x3d5e00a4	0.05419983
216	0x3d5b600a	0.053558387
217	0xbcb30126	-0.021851134
218	0x3ceb32eb	0.028710803
219	0x3d47be90	0.04876572
220	0x3d1ba414	0.037998274
221	0x3d3bd530	0.04585761
222	0x3d0722db	0.032992225
223	0x3d5ca253	0.053865742
224	0xbc0c53f8	-0.008564942
225	0x3d69a413	0.05704124
226	0xbd5a96b6	-0.053366385
227	0x3d3aae34	0.04557629
228	0xbd31fcae	-0.043453865
229	0x3d790f24	0.060805455
230	0xbdfa815a	-0.12231703
231	0x3dad3e7e	0.08459185
232	0x3caea1b1	0.021317335
233	0xbd517ce0	-0.05114448
234	0x3d41119c	0.047135934
235	0xbd3ab61b	-0.045583826
236	0x3d3e3b62	0.04644335
237	0x3daccc9b	0.08437463
238	0xbd7a505e	-0.0611118
239	0xbd63a831	-0.05558032
240	0x3d5e6258	0.054293007
241	0x3da10c48	0.078636706
242	0x3dc46075	0.0958871
243	0xbc54a8e9	-0.012979724
244	0xbd53abd0	-0.051677525
245	0x3d3dbbe5	0.04632177
246	0xbd5feef9	-0.05467126
247	0x3d6a2bcb	0.05717067
248	0x3d469387	0.048480537
249	0xbde74e4d	-0.112942316
250	0x3ca97330	0.020684808
251	0x3cd91473	0.026499009
252	0x3d6892ee	0.056780748
253	0x3d50ab4a	0.050944604
254	0x3d6c1dae	0.057645492
255	0x3d59536e	0.05305808

policy_net.6.bias f4 [21]
0	0x3e65eeaf	0.22454332
1	0x00000000	0.0
2	0x00000000	0.0
3	0x00000000	0.0
4	0x3dc08bdf	0.09401678
5	0xbd271e07	-0.04080012
6	0xbd1ce001	-0.038299564
7	0xbd64bdeb	-0.055845182
8	0xbdc675b2	-0.09690417
9	0xbd9d3f3b	-0.07678076
10	0xbdcde0cf	-0.100526445
11	0xbd6c57a8	-0.057700783
12	0xbd923525	-0.07139043
13	0xbdcc4a68	-0.09975129
14	0xbd6b367c	-0.057425007
15	0x3e5e046d	0.21681376
16	0xbd765262	-0.06013716
17	0xbe0ac424	-0.13551384
18	0xbdb50e8f	-0.088406675
19	0xbe23f263	-0.16010432
20	0xbdf3fa9c	-0.11913034

value_net.0.weight f4 [32, 604]
0	0x3beb747c	0.007185517
1	0x3d0831ba	0.033250548
2	0x3d865e4a	0.06560953
3	0xbc7f93f6	-0.0155992415
4	0xbdb2e434	-0.087349325
5	0xbca2cf99	-0.01987438
6	0x395cdba5	0.00021062659
7	0x3da78a16	0.08180635
8	0xbd0289a5	-0.03186955
9	0x3d455ea3	0.048185956
10	0xbd3051f0	-0.04304689
11	0x3e0a3d75	0.13500006
12	0xbde46fc0	-0.11154127
13	0xbdae7425	-0.085182466
14	0xbc5632be	-0.013073621
15	0x3d2de647	0.042455938
16	0xbdb16808	-0.086624205
17	0xbd67016c	-0.05639784
18	0xbd5852d6	-0.052813374
19	0xbca8c9e8	-0.020604089
20	0xbd053da1	-0.032529477
21	0x3db98186	0.09057908
22	0x3d04d54d	0.032429982
23	0xbd6c1005	-0.057632465
24	0x3cc41ed1	0.023940476
25	0x3c0efcd9	0.008727276
26	0xbd1ec95d	-0.038766254
27	0xbd8a5770	-0.06754959
28	0xbd579d28	-0.05264011
29	0x3d7d9fb9	0.0619199
30	0x3e163e22	0.1467214
31	0x3cfc8337	0.030824287
32	0xbd459534	-0.048237994
33	0xbd0ae69c	-0.033911332
34	0x3d6d616d	0.05795424
35	0x3d74cc5f	0.059765216
36	0xbcc82495	-0.024431506
37	0x3cd91c56	0.02650277
38	0xbcfda45e	-0.030962165
39	0x3ce98ac2	0.028508548
40	0x3be29cac	0.0069156494
41	0x3e14825e	0.14502856
42	0x3e0b5c0e	0.13609335
43	0x3defe25e	0.11713098
44	0x3d2a268c	0.041540667
45	0x3c93765c	0.018000774
46	0xbd842f0b	-0.06454285
47	0xbc85e67e	-0.016345259
48	0x3d744641	0.05963731
49	0xbd0f56f8	-0.03499505
50	0x3cbfa162	0.023392383
51	0x3c9b4876	0.01895545
52	0x3ceddd26	0.029036116
53	0x3da23e1b	0.07922002
54	0x3d909d68	0.07061273
55	0xbda81e19	-0.08208866
56	0xbdaa7105	-0.08322338
57	0xbd269987	-0.04067376
58	0x3da12c90	0.07869828
59	0xbd9dd682	-0.0770693
60	0x3d4011a8	0.04689184
61	0xbb9a2d6d	-0.004705122
62	0xbdb5b31a	-0.088720515
63	0x3c2aaf04	0.010417704
64	0x3ccb8b59	0.02484672
65	0xbdc688c2	-0.09694053
66	0x3c3456fe	0.011007069
67	0x3db0a756	0.08625667
68	0xbce29937	-0.02766095
69	0xbd97b4d2	-0.074075356
70	0xbdd6b54d	-0.10483799
71	0xbced2768	-0.028949454
72	0xba753c94	-0.0009355035
73	0x3d3f6c03	0.046733867
74	0x3d0c9493	0.03432138
75	0x3c36e0c9	0.011161991
76	0xbe081a9f	-0.13291405
77	0xbd369795	-0.044578154
78	0x3d5c1232	0.05372829
79	0x3ceee2b4	0.029160835
80	0x3d80453b	0.06263205
81	0x3d0a60b3	0.033783626
82	0x3d2ccf84	0.04219009
83	0xbd5c7cc1	-0.053829912
84	0xbe15caf8	-0.14628208
85	0x3d23a763	0.039954554
86	0xbde935af	-0.113871925
87	0x3d457e41	0.04821611
88	0x3d7449a6	0.05964055
89	0xbd74e1c9	-0.059785638
90	0x3d02c084	0.03192188
91	0xbd52709a	-0.051376916
92	0x3e0c7b04	0.13718802
93	0xbbdbd5ce	-0.006708837
94	0xbbed1b12	-0.007235893
95	0x3d6732e2	0.05644501
96	0xbd4412e5	-0.04786958
97	0xbd3f6ed5	-0.046736557
98	0x3d8d7f99	0.06909103
99	0xbce325d0	-0.027727991
100	0x3e099a40	0.13437748
101	0x3de207d0	0.11036646
102	0x3e22262b	0.15834872
103	0x3d88923e	0.066685185
104	0xbceda13c	-0.029007547
105	0xbcf17b07	-0.02947761
106	0x3de81325	0.113317765
107	0xbe19066f	-0.1494386
108	0xbbf9876d	-0.007615021
109	0x3c7ee395	0.0155571895
110	0xbc63365a	-0.013867939
111	0x3e00c10f	0.12573646
112	0xbe401f71	-0.18761994
113	0xbd80e5b7	-0.06293815
114	0xbd305240	-0.04304719
115	0x3bf07f1a	0.0073393704
116	0x3cd19924	0.025585718
117	0x3bf5d1d3	0.0075018196
118	0x3d194554	0.037419632
119	0xbd81a0af	-0.06329476
120	0xbdfcc47f	-0.12342166
121	0xbc5652a5	-0.013081227
122	0x3ca237e9	0.01980205
123	0x3d79c447	0.0609782
124	0x3d5b9a25	0.0536138
125	0xbd9ebe38	-0.07751125
126	0x3ce640f2	0.02810714
127	0xbd65792e	-0.05602377
128	0xbc8a545b	-0.016885927
129	0x3d8d2f2c	0.06893763
130	0xbd55bb8c	-0.05218081
131	0x3d321a5a	0.043482162
132	0x3d4b1e6d	0.049589563
133	0xbe64da1c	-0.22348827
134	0x3bbf86ad	0.005844912
135	0x3ad81a92	0.0016487411
136	0xbc18ce9d	-0.009326604
137	0xbe4abec0	-0.19799328
138	0xbc7cd3de	-0.015431372
139	0x3d4514fe	0.048115723
140	0xbd561c1c	-0.0522729
141	0xbd03675b	-0.03208099
142	0xbdeeb084	-0.116547614
143	0xbd1e0269	-0.038576517
144	0xbe37b042	-0.17938331
145	0xbd902b96	-0.07039563
146	0xbd910b6c	-0.07082257
147	0x3c8251c2	0.015908126
148	0x3c4ac596	0.01237621
149	0xbdd2dfd7	-0.102966
150	0xbe02e885	-0.12784012
151	0x3ce9d1f1	0.02854249
152	0x3c81d665	0.015849302
153	0xbcda1026	-0.026619028
154	0xbcb37369	-0.021905618
155	0x3cfa25d5	0.030535618
156	0xbcdad30a	-0.02671196
157	0x3c882e5e	0.016623672
158	0x3e21bc2a	0.15794435
159	0x3d460965	0.048348803
160	0xbc2fb1ec	-0.010723572
161	0x3dc91b8e	0.09819709
162	0xbde67caa	-0.112542465
163	0xbca7663d	-0.020434493
164	0xbdd10d69	-0.10207636
165	0xbcd2f5b2	-0.025751922
166	0x3da78aa4	0.081807405
167	0x3ceba82e	0.028766718
168	0xbd9e95a6	-0.07743387
169	0xbcde77bf	-0.027156709
170	0x3cfd17aa	0.030895073
171	0x3bb8fb1f	0.0056451703
172	0x3d4d5d6d	0.050137926
173	0xbda66265	-0.08124236
174	0x3d27f5e9	0.041006003
175	0x3c8e8d1e	0.017401274
176	0xbde9fcaa	-0.11425145
177	0xbc9ada61	-0.01890296
178	0xbce83875	-0.028347233
179	0xbd5921a3	-0.053010594
180	0x3d1db485	0.038502235
181	0x3d580251	0.052736584
182	0xbd0e0ebf	-0.03468203
183	0x3d7bb9f5	0.06145664
184	0x3db688ad	0.089127876
185	0x3d94795e	0.072497115
186	0xbda9ac56	-0.082848236
187	0x3d9b1ad6	0.07573478
188	0xbe11137b	-0.14167587
189	0x3d1ccb5f	0.038279887
190	0x3d8d345f	0.068947546
191	0xbda8bda1	-0.08239294
192	0xbd5b3b53	-0.053523373
193	0x3e28ba2e	0.16477272
194	0xbdb1bec1	-0.086789615
195	0x3d618b18	0.05506429
196	0xbd92b58e	-0.07163535
197	0x3ddf5cb9	0.10906357
198	0x3d44fc87	0.04809239
199	0x3d35a845	0.044349927
200	0xbca8c18b	-0.020600101
201	0xbd55bdb4	-0.052182868
202	0xbe389f22	-0.18029454
203	0x3d98ff94	0.07470623
204	0xbd52ffd1	-0.051513497
205	0x3d2a34d2	0.04155428
206	0xbda7385b	-0.08165046
207	0xbdb13ed7	-0.08654564
208	0xbd4a651f	-0.049412843
209	0x3d641068	0.05567971
210	0x3ca07712	0.019588027
211	0x3e28abbe	0.16471764
212	0x3c9480ce	0.018127825
213	0xbd78669d	-0.060644735
214	0x3d97ce71	0.074124224
215	0x3b09a6fd	0.0021004074
216	0x3d984b91	0.07436288
217	0xbbde03af	-0.0067753415
218	0x3b0ef4ea	0.002181346
219	0x3c8225d7	0.015887184
220	0xbd6ab691	-0.057303015
221	0xbe07b109	-0.13251127
222	0x3db2ae4a	0.08724649
223	0x3cec3267	0.028832627
224	0xbccc2fea	-0.024925191
225	0x3d2311eb	0.03981201
226	0xbdaf18aa	-0.08549626
227	0xbe05a765	-0.13052137
228	0x3c9200f9	0.01782273
229	0xbdd8aeda	-0.10580225
230	0xbd7fdda6	-0.06246724
231	0xbddaeedb	-0.10690089
232	0xbd58d537	-0.052937713
233	0x3d304a74	0.043039754
234	0x3dce63a3	0.10077598
235	0xbce187c4	-0.027530558
236	0xbd8bf15f	-0.06833147
237	0x3d61e018	0.055145353
238	0x3c2a1fcc	0.0103835575
239	0x3c61d3ba	0.01378339
240	0x3ca90318	0.020631358
241	0xbbfa6e95	-0.007642577
242	0xbd19dd54	-0.03756459
243	0x3d8c973b	0.068647824
244	0xbcceb6d1	-0.025233658
245	0xbd0d3b88	-0.0344806
246	0xbd5d1529	-0.053975258
247	0xbd8449f2	-0.064594164
248	0x3b215ba5	0.0024621275
249	0xbc8cf7cf	-0.017208008
250	0xbd53122a	-0.051530994
251	0x3d84dc9c	0.064873904
252	0x3da5f900	0.081041336
253	0xbddc7912	-0.1076528
254	0x3d2f3a9b	0.0427805
255	0xbc2e34b4	-0.010632683

value_net.0.bias f4 [32]
0	0x3d47f3e5	0.04881658
1	0xbdb21820	-0.08696008
2	0x3cc78af9	0.02435826
3	0x3b1a7e16	0.0023573688
4	0xbd16b5f9	-0.036794636
5	0xbd4abe08	-0.049497634
6	0xbd960c0e	-0.07326518
7	0x3db1d3ef	0.08683001
8	0xbd10a723	-0.035315644
9	0x3ab470b2	0.0013766496
10	0x3d6dbd33	0.058041763
11	0x3c9a4580	0.018831968
12	0x3cb8a5ba	0.022539962
13	0xbd2ed129	-0.04267994
14	0xbd5e387c	-0.054253086
15	0xbd8975e7	-0.06711941
16	0x3ce6fc28	0.02819641
17	0xbcd5ea91	-0.026112827
18	0xbc97371f	-0.018458901
19	0xbca6e830	-0.020374388
20	0xbd74045e	-0.059574477
21	0xbd44ba06	-0.04802897
22	0xbca0fe61	-0.019652547
23	0xbd8e54b2	-0.06949748
24	0x3d280722	0.041022427
25	0x3d570719	0.052497003
26	0x3d84f50e	0.06492053
27	0xbd6c9ffd	-0.057769764
28	0xbd5a724f	-0.05333167
29	0xbd02df9e	-0.03195154
30	0xbd0754a4	-0.033039704
31	0xbd2451cc	-0.04011707

value_net.2.weight f4 [32, 32]
0	0xbd63de65	-0.055632014
1	0x3d826796	0.06367414
2	0x3e22f441	0.15913488
3	0x3ebaa015	0.36450258
4	0xbdbfb0fe	-0.093599305
5	0x3e2f1e06	0.17101297
6	0xbe998885	-0.2998697
7	0x3e5bba2f	0.21457742
8	0x3f1a1779	0.60192066
9	0x3e19189d	0.14950795
10	0xbc8a83d8	-0.016908571
11	0xbe6e3a0b	-0.23264329
12	0xbeb50934	-0.35358584
13	0xbd9f76a7	-0.07786303
14	0xbf003482	-0.5008012
15	0x3dfed8a2	0.12443663
16	0x3e6da223	0.23206381
17	0xbea83bb9	-0.32858065
18	0xbb4d7ea7	-0.0031356008
19	0x3e25095c	0.16116852
20	0xbe51f022	-0.2050176
21	0xbe1e3efa	-0.15453711
22	0xbef34b2d	-0.47518292
23	0x3e6ff137	0.2343186
24	0xbda43ace	-0.080190286
25	0x3d49007d	0.04907273
26	0x3f0e9190	0.5569086
27	0xbea43517	-0.32071754
28	0xbe181d59	-0.14854945
29	0x3d07b127	0.03312793
30	0xbec05b6e	-0.37569755
31	0xbe3bd93e	-0.1834459
32	0x3e7007e1	0.23440506
33	0xbed17158	-0.40906787
34	0xbee8a020	-0.45434666
35	0xbd0e638b	-0.0347629
36	0x3d493353	0.049121212
37	0xbe549cc9	-0.20762934
38	0xbe86dc5f	-0.26340005
39	0x3d4ed22c	0.050493404
40	0xbf0f0ec7	-0.55881923
41	0x3dcc2d1d	0.09969542
42	0x3ea114fb	0.3146132
43	0xbdd8faa0	-0.10594678
44	0xbec28408	-0.37991357
45	0xbd5f44c4	-0.05450894
46	0xbe682243	-0.2266932
47	0xbe11f3b0	-0.14253116
48	0xbdc3ba23	-0.09556987
49	0xbdf0f0da	-0.11764689
50	0xbd822106	-0.06353955
51	0xbebb2dc3	-0.3655835
52	0x3d31ae95	0.043379385
53	0xbe9ee352	-0.31032807
54	0xbee126b0	-0.4397483
55	0x3e23a4e7	0.15980874
56	0x3e6dde5d	0.23229356
57	0xbe441e6f	-0.19152234
58	0x3e15e82e	0.14639351
59	0xbe1fb451	-0.15596129
60	0xbf20c272	-0.627967
61	0x3df648ec	0.120256275
62	0x3e411d34	0.18858796
63	0x3db14d3b	0.08657309
64	0x3e6a87ff	0.22903441
65	0xbef4ec18	-0.47836375
66	0x3f25a63c	0.6470678
67	0x3dd92783	0.106032394
68	0xbe8ded1f	-0.27719972
69	0xbe999031	-0.29992822
70	0x3d01f15f	0.03172433
71	0xbead5c99	-0.3385971
72	0x3cb2abbc	0.021810405
73	0x3e579b3c	0.21055311
74	0x3e6d445b	0.23170607
75	0x3d1af7f5	0.037834127
76	0x3e96f09d	0.29480448
77	0x3d00426d	0.03131335
78	0x3dc43790	0.0958091
79	0x3e8310b2	0.25598675
80	0x3e16d4f4	0.14729673
81	0xbe314086	-0.1730977
82	0x3d8d23be	0.06891583
83	0xbebc9b89	-0.36837414
84	0xbe255cc9	-0.16148676
85	0xbc416463	-0.011803719
86	0x3d598c7b	0.05311249
87	0xbd1c6a18	-0.038187116
88	0x3e921db5	0.2853829
89	0x3e9f9ff3	0.3117672
90	0x3ec569fd	0.38557425
91	0x3e5d1c6a	0.2159287
92	0xbdd530e6	-0.10409717
93	0x3e5a3d25	0.21312387
94	0xbe89a6d8	-0.26885104
95	0x3e54678e	0.20742628
96	0x3dae18c8	0.085008204
97	0xbd5c9955	-0.053857166
98	0x3dc91d12	0.09819998
99	0x3cf559b2	0.029949997
100	0x3e7606a2	0.24025968
101	0x3ea4f6fa	0.32219678
102	0x3da4f935	0.08055345
103	0x3d633d4b	0.055478375
104	0x3e5e6bbf	0.2172079
105	0xbeb1ca45	-0.34724632
106	0x3e8dd564	0.27701867
107	0x3c207add	0.009794918
108	0xbe9cc024	-0.30615342
109	0x3e68f4f0	0.22749686
110	0x3e5a501c	0.21319622
111	0x3ef0ca57	0.47029373
112	0x3de986b0	0.11402643
113	0x3ed15791	0.4088712
114	0xbeb91fc5	-0.3615705
115	0xbeaaf104	-0.33387005
116	0x3ec9520e	0.39320415
117	0xbcc2a91b	-0.023762276
118	0xbecc1965	-0.39863124
119	0x3d8ad943	0.06779721
120	0xbf267bce	-0.6503266
121	0xbd2dfc13	-0.042476725
122	0xbd386b18	-0.045024008
123	0x3e5b3878	0.2140826
124	0x3dc6a0ee	0.09698664
125	0xbd4b03a3	-0.049564015
126	0xbd3caa34	-0.046060756
127	0x3ee32a08	0.44368005
128	0x3eeb24e0	0.4592657
129	0x3e5c3ab0	0.21506763
130	0x3e812882	0.25226218
131	0x3d019531	0.03163642
132	0xbb04d737	-0.002026988
133	0xbeb10d7d	-0.34580603
134	0xbf1a13ee	-0.6018666
135	0x3e97b101	0.2962723
136	0xbcdaedc1	-0.026724698
137	0xbe751c3f	-0.23936556
138	0x3d1bcc00	0.038036346
139	0xbe10c6e8	-0.14138377
140	0xbe4481fa	-0.19190207
141	0x3b0be333	0.0021345138
142	0xbd60fa99	-0.05492649
143	0xbe8c88d5	-0.27448145
144	0xbdca110b	-0.09866532
145	0xbdf6bf79	-0.12048239
146	0x3de764b2	0.11298503
147	0xbf01356f	-0.5047216
148	0xbdc72a20	-0.097248316
149	0x3ea7584d	0.32684556
150	0xbe06115c	-0.1309256
151	0xbf253485	-0.64533263
152	0xbc84c37a	-0.016206492
153	0xbe4dc9dc	-0.20096534
154	0xbe9f09dd	-0.31062213
155	0x3e1c7d37	0.1528214
156	0xbec83b3c	-0.39107692
157	0xbc03d706	-0.008046871
158	0xbe50bd9f	-0.20384835
159	0xbe96ad01	-0.29428867
160	0x3de02d30	0.10946119
161	0xbed73243	-0.42030534
162	0x3eb16bde	0.3465261
163	0x3e217b62	0.15769723
164	0x3e91050b	0.2832416
165	0x3e0fabed	0.14030428
166	0x3e3f6b64	0.1869331
167	0xbe867a39	-0.26265123
168	0x3d3bc55b	0.04584251
169	0x3e9ac4f9	0.30228403
170	0xbd6f2ea1	-0.05839408
171	0x3d71e2f0	0.059054315
172	0x3daeb360	0.08530307
173	0xbed22e35	-0.41050878
174	0xbe6d1535	-0.23152621
175	0x3ed0b7f3	0.40765342
176	0x3d3c744b	0.046009343
177	0x3de279f5	0.11058418
178	0x3c184c95	0.009295602
179	0xbd28e6a0	-0.041235566
180	0xbe55696e	-0.20841
181	0x3d5d1386	0.053973697
182	0xbeea70ee	-0.45789284
183	0xbdcd7e64	-0.10033873
184	0xbd81c631	-0.0633663
185	0xbeaf285a	-0.34210473
186	0xbe8eb195	-0.2786986
187	0xbf2b26b2	-0.6685592
188	0xbd568992	-0.05237729
189	0xbed00f70	-0.40636778
190	0x3e3e2b8f	0.18571304
191	0xbeb3633f	-0.35036656
192	0xbe224347	-0.15845977
193	0x3df7aeeb	0.1209391
194	0xbe001e8b	-0.12511651
195	0x3ea22371	0.31667665
196	0xbe9af6e7	-0.30266497
197	0xbce6dd3e	-0.028181668
198	0xbd0a1c79	-0.03371856
199	0x3e8648b1	0.26227334
200	0x3e2f5e4e	0.17125818
201	0xbe4b67d5	-0.19863828
202	0x3bda1544	0.006655367
203	0xbd8f7eb9	-0.07006592
204	0x3e48c13c	0.19604963
205	0xbebc2ea1	-0.36754325
206	0x3e1599fa	0.14609519
207	0xbdd87c5e	-0.10570596
208	0x3e9e2afa	0.30892164
209	0x3bbfa6a9	0.005848725
210	0xbf22480f	-0.633912
211	0xbebd819d	-0.3701295
212	0x3eaf7148	0.34266114
213	0x3e820c65	0.2540008
214	0xbd754f65	-0.05989017
215	0xbe42512e	-0.1897628
216	0x3eaec350	0.34133387
217	0x3e4be28c	0.1991064
218	0x3cc61530	0.024180025
219	0xbebfc65d	-0.37456027
220	0xbf2762dd	-0.6538523
221	0xbd0a8ec5	-0.033827562
222	0x3ec569bf	0.3855724
223	0x3d1fb65d	0.038992275
224	0x3e28ef89	0.16497625
225	0xbe12466b	-0.14284675
226	0x3d2af3ae	0.041736297
227	0x3e9ad01d	0.30236903
228	0xbd9b18b6	-0.075730726
229	0xbd86321f	-0.065525286
230	0x3d70abc4	0.05875756
231	0x3ef1b4fa	0.47208387
232	0xbe631ea8	-0.22179663
233	0x3e9a3a2e	0.30122513
234	0x3ea0a635	0.31376806
235	0xbcf0e329	-0.029405193
236	0xbe7860e9	-0.24255718
237	0xbe0e4e0f	-0.13896964
238	0xbe28cafd	-0.16483684
239	0x3e27f2de	0.1640124
240	0x3ef176ec	0.47161043
241	0x3e4a6de3	0.19768481
242	0x3e8c0921	0.27350715
243	0x3db1f129	0.08688576
244	0x3db54f62	0.08853032
245	0x3c227c24	0.009917293
246	0x3efe46d4	0.49663413
247	0xbe32b04e	-0.17450067
248	0x3d66123a	0.056169726
249	0x3e80eca9	0.25180557
250	0xbebde51f	-0.37088868
251	0xbe04863c	-0.12941831
252	0x3ebe7cad	0.37204495
253	0x3f030775	0.51183254
254	0x3d53e39f	0.05173075
255	0xbe24d2a3	-0.16095977

value_net.2.bias f4 [32]
0	0x3e0bf07b	0.13665955
1	0x3dcabc46	0.098991916
2	0xbcda67ec	-0.026660882
3	0x3ca4db95	0.020124236
4	0xba8ccf62	-0.0010742957
5	0x3dd0ce7f	0.10195636
6	0x3cca6939	0.024708377
7	0x3c0c7087	0.0085717505
8	0xbd9a3e35	-0.07531396
9	0xbd02dc99	-0.03194866
10	0xbbb46632	-0.0055053467
11	0xbd559e40	-0.052152872
12	0x3b74b863	0.0037341348
13	0xbd4441df	-0.047914382
14	0xbd0f0d1a	-0.034924604
15	0xbc5668aa	-0.013086477
16	0x3df802d5	0.12109915
17	0x39bcb815	0.00035995306
18	0x3d33c378	0.043887585
19	0xbc12caed	-0.008959514
20	0x3c81aa02	0.015828136
21	0xbbe9536a	-0.0071205394
22	0x3d046cdc	0.03233038
23	0x3c5e0046	0.01354987
24	0x3cc01fbc	0.023452632
25	0xbcb0eae7	-0.021596385
26	0x3c2e9b11	0.010657088
27	0xbd0898a7	-0.033348706
28	0xbd635d24	-0.055508748
29	0x3d36130d	0.044451762
30	0xbd0c7a9a	-0.03429661
31	0x3c9aa26c	0.018876277
