MAPPO/2DAction/save/SY_2_T2/agent_19_MAPPO_c.pt (torch, 131174 bytes, 17 tensors)

policy_net.0.weight f4 [32, 26]
00000000: 1f61 01be 4a9d d23d 2ec7 ab3e 158c d23e
00000010: ed02 31bf d4eb 3c3e 768c 18bf 5179 08bd
00000020: a96a 7b3e bd18 33be c309 e63e 9627 ae3e
00000030: b334 c93d d170 89be a84c ce3e 8d95 b53d
00000040: f377 e63d f663 9d3e 1919 69be 0e94 3c3e
00000050: 8035 6d3e 03cb bd3e bfca a5be 4dea b8bd
00000060: 0270 9a3d bec8 e23b 6087 363e 4c69 933e
00000070: bddd 98be bc41 cfbe 3006 543e 4362 6b3e
00000080: 8fdd 21be ca26 c53e 2681 43be 3af9 51bd
00000090: 4afc 06bd b220 93be 2851 11bf ac27 6e3d
000000a0: dd87 69bd 8f5e e03e 37bb a33d a265 39be
000000b0: b26a c23e 1fcb b03e 83a7 463d 75cf 0a3d
000000c0: 1a49 0bbe 32d5 d0be 898a 993e c64a 1d3e
000000d0: 1d1a 1abe 743e 74b9 50ed debe 8104 af3c
000000e0: 5fa3 cebd 63a9 65be d1ae fd3c dec9 043d
000000f0: 957a 15bf 66b8 b6bd 5907 45be 1c1f 27bd
00000100: 72f4 34be ea6d 0c3e 7122 933e 1a92 a53e
00000110: 6525 e5bd 860d bbbd b81f 3e3a b0be 083e
00000120: 8693 50be b4a7 293e 0289 8fbb 4d4e ae3e
00000130: 8a2c 33bf 30fc ebbd d6c4 a43e aca5 243e
00000140: f122 bc3d 9e88 ecbe 07b3 e23d 46be 99bd
00000150: 0ad9 153f cdbb cdbd 6f41 153f 4d58 c2be
00000160: 106c 8ebe 2ddf 36be 5789 67bd b44e ce3e
00000170: 6664 f63d 662d 543e 8a09 103e f558 f7be
00000180: 8505 96be 1505 7ebd 164f 98bd f324 df3d
00000190: ef32 f83d 5908 9f3e 5510 5b3e effd f33d
000001a0: d29c 803e b9ce f2be c707 27be ec4b 3e3d
000001b0: 6aa8 053f 9cfa 8dbe db3c 353e 84a5 e8bd
000001c0: 64bc 773e ca20 40be 9a17 e4be 9d8f aabe
000001d0: e4c5 d2be 8686 ba3e c9fa 2abe 6a94 31be
000001e0: 1957 b0be 57bc 3d3e b586 193e 26e9 b93e
000001f0: e534 06be 35e8 913e c53f 16bf dcab ddbe
00000200: 3dd9 7dbe b3ed 8bbd 7571 81be 62f4 81be
00000210: c657 063e 223e 6a3d 1f2e 8fbe 26a6 903d
00000220: fe34 05bf ea25 ae3e 5a15 263e 3802 933d
00000230: 93d5 493f 887f 583d 35d6 083f b5c1 373e
00000240: d74f 84be 30be 803d ce4d 753d 94d9 2bbe
00000250: 7b1e a2bd ea78 75be 886e 88be beb5 223e
00000260: fdd4 ae3e aeef 76be 94dd 21be 7dd4 3cbe
00000270: 34dc 223e 3f5d eebd d583 523e 09ce 0bbe
00000280: 7d87 233f 750d 51be 5458 7bbe f3d0 29bc
00000290: e2ca a73e be8a 9c3c e32f 82be 72ca 243e
000002a0: c471 c83d 2840 2e3e dd34 f23d 9c51 bd3e
000002b0: e163 a33e c46e 483d f373 373e cc93 ab3e
000002c0: 21db 7f3e 91a4 bf3e 8a1c ee3e 837b a43e
000002d0: 2c47 003d af4a ae3e 2366 f5be ca3d 97bd
000002e0: 673d 87be 76f9 febd 5554 193e 89cf 9ebe
000002f0: 6761 85bd 6dae e8be 5f75 1c3e 8157 8cbe
00000300: 08b3 5b3e ac8a 8dbd b61c 35be de8b 93be
00000310: e1c4 3ebe b0a5 223e 97f0 dabe 2e30 b73d
00000320: 0e4e 6a3e 784c b7be dbbe ed3d 8305 e73e
00000330: cb56 a0be a770 443e b7b6 553e 29ef 0cbd
00000340: 143e 54bb 4e18 b0bd f0b2 5dbe aa72 89be
00000350: b731 a23e e239 dc3e e1b2 fa3d dc12 f9be
00000360: 1ec6 3b3d e113 c0bd e11e 573e 9dee 223d
00000370: 894a 00bf 2bc0 3dbe 71a5 843d f2d9 f9be
00000380: 605f 6d3e a490 8abd 9000 913e 59ab 6dbe
00000390: d980 763d 6fa8 40bd 707b 8bbd ce93 5c3e
000003a0: 55b8 1bbe a9fc 893d b98e ac3e 3e2f 053e
000003b0: f2f3 01bf ce36 053f d86c 85bd 5b7f 1c3e
000003c0: 65db 7cbe e413 053b b9df 653d 500c 9e3e
000003d0: 1a98 883d eede 12be cc7a a6bd 2ab1 89bd
000003e0: 74ef eebe f348 813d 45be 89be 00f0 9d3d
000003f0: fc3d 7c3e 54ac 13bf 878e 4bbd e6b8 aebd
-0.12634705 0.10283907 0.335504 0.411225 -0.6914509 0.18449336 -0.59589326 -0.03331882
0.24552406 -0.17489906 0.44929323 0.34014577 0.09824505 -0.26843885 0.4029286 0.08866415
0.11253347 0.30740327 -0.2276348 0.18415853 0.2316494 0.37068948 -0.32381245 -0.09029064
0.07540895 0.006920903 0.17825079 0.28791273 -0.29856673 -0.4047984 0.20705485 0.22986703
-0.15807174 0.38506156 -0.19092235 -0.05126307 -0.032955445 -0.28735882 -0.5676446 0.058143303
-0.057014335 0.43822142 0.07994693 -0.18105176 0.37972027 0.3452997 0.048499595 0.033889253
-0.13602105 -0.40787655 0.29988506 0.15360555 -0.15049024 -0.00023292919 -0.4354043 0.021364452
-0.10089754 -0.22427897 0.030967148 0.032419078 -0.5839017 -0.0892189 -0.19241084 -0.040801153
-0.17671373 0.13713804 0.28737214 0.3233803 -0.11188773 -0.09133439 0.0007252651 0.13353992
-0.20368776 0.1656788 -0.0043803463 0.34044114 -0.69989836 -0.1152271 0.32181424 0.16078824
0.09186352 -0.4619798 0.11069303 -0.07506995 0.585343 -0.10045586 0.5830297 -0.37957993
-0.2781682 -0.17858572 -0.05652746 0.4029442 0.12030868 0.20720443 0.14066139 -0.48310056
-0.29301086 -0.062016565 -0.074369594 0.108957194 0.1211909 0.31061056 0.21392949 0.11913668
0.25119644 -0.47423342 -0.1631156 0.046459123 0.52210104 -0.27730262 0.17698996 -0.113596946
0.24192959 -0.18762508 -0.44549257 -0.33312693 -0.41166604 0.36430758 -0.1669723 -0.17341772
-0.3444145 0.18528877 0.14992793 0.3631069 -0.13106115 0.28497472 -0.58691055 -0.4329518
-0.24789901 -0.06832447 -0.25281873 -0.25381762 0.1311942 0.05718816 -0.27964875 0.0706294
-0.52033985 0.340133 0.16219082 0.071781576 0.78841513 0.052856 0.53451854 0.17944987
-0.25842163 0.062862754 0.059888653 -0.16782218 -0.0791597 -0.23971906 -0.2664683 0.15889642
0.34146872 -0.24114868 -0.15807182 -0.18440433 0.15904313 -0.11638879 0.20558102 -0.13652815
0.63878614 -0.2041529 -0.24545413 -0.010364759 0.32771975 0.019109126 -0.2542716 0.16092852
0.09787324 0.17016661 0.11826489 0.36976326 0.3191214 0.04893376 0.17915325 0.33511198
0.24985935 0.37430242 0.4650615 0.32125482 0.031317875 0.34041354 -0.47929487 -0.07384832
-0.26414034 -0.12449925 0.14973576 -0.31017712 -0.06512719 -0.45445576 0.15279149 -0.2741051
0.21455014 -0.06911215 -0.17686734 -0.28817648 -0.18629791 0.15883517 -0.4276168 0.089447364
0.22881338 -0.3580053 0.116086684 0.45121393 -0.31316218 0.19183598 0.20870481 -0.03440777
-0.0032385634 -0.08598386 -0.2165029 -0.26845294 0.31678554 0.4301291 0.1224115 -0.486472
0.045843236 -0.093787916 0.21007873 0.03977834 -0.5011373 -0.18530338 0.06476868 -0.48799092
0.23180914 -0.06765869 0.28320742 -0.23209895 0.060181472 -0.04703563 -0.06810653 0.21540758
-0.15207036 0.06737644 0.3370264 0.13006303 -0.50762856 0.5203675 -0.06514901 0.15282957
-0.24693067 0.0020306045 0.05612156 0.3086877 0.06669636 -0.14342853 -0.081288904 -0.067232445
-0.46667063 0.06312742 -0.26902977 0.07711792 0.2463302 -0.57684827 -0.04969647 -0.0853136

policy_net.0.bias f4 [32]
00000000: 2c3b 163c 8f9d 23bd 27cf 0a3d a7c3 073e
00000010: e66f 5f3b 3f52 c1bc 8ae3 763d 8706 86bd
00000020: c78b 8cbd a9aa d6bc eb62 653c b395 24be
00000030: 8185 c0bb c8f3 99bd 95ea 0c3e 4be5 63bd
00000040: 33a2 2cbd 9009 fcbc a978 af3c 6cba 0b3a
00000050: 8f77 0a3d 3af0 b33d 40d1 d0bb 68cf 0dbd
00000060: a069 083d cd4a 563d ba31 76bd 8435 31bd
00000070: a6a6 333e e020 403c 8dee 883d 725f 8bbd
0.009169381 -0.03994518 0.033888962 0.13258229 0.0034093796 -0.023598788 0.060275592 -0.06544214
-0.06862598 -0.026204424 0.014000635 -0.1607273 -0.00587529 -0.07517201 0.13761361 -0.055638593
-0.042146873 -0.030766279 0.02141984 0.0005330208 0.033805426 0.08786054 -0.006372601 -0.034621626
0.033303857 0.05231743 -0.060106017 -0.043263927 0.1754404 0.011726588 0.06686125 -0.06805314

policy_net.2.weight f4 [32, 32]
00000000: b537 40be d588 033f e534 433e e9b5 e83e
00000010: 272d c03e 680b e6be 59bd 103f 1680 cc3e
00000020: 41e7 34be cd18 0b3e 628c 613e 66cc fbbe
00000030: be8f d1bd 374d 633e 0d81 633e c3bf 463c
00000040: f37d 77be 65fb 3fbe 08ee f13c 4715 9c3d
00000050: 1977 05be bd0b 083e a864 26be b680 e93d
00000060: 0301 d8be fa0f 653e bb5b 7e3e 4327 573d
00000070: f567 453e 9343 e13e 98da a2be 70bb de3c
00000080: 7f61 8bbe 7bc1 b03e d421 043e 107e 95bc
00000090: 4f0b 5b3e 9ca2 a2be 210d 93be a40b c1be
000000a0: c099 983b 16f4 fabe 8103 043e 7be4 55bc
000000b0: 2c8e 8b3e f7dc 9dbc 8e77 063f bba9 dabd
000000c0: 441c 85bd 7474 b7be 5bad 3d3e e483 3ebe
000000d0: ac4e 4fbf def6 413e ab2d 6f3d 1af2 7dbe
000000e0: 872a 9a3d f4f3 593e 3402 083f 6e74 83bd
000000f0: c6dd 273f 1e60 0e3f 9f88 093e be0b 3e3b
00000100: cd95 8dbd 58ce 96be a342 aa3d bcba 673e
00000110: a643 0bbf 5ea3 a3be 4c22 633e 102b 09bf
00000120: fc00 c13e f6a4 893e 888c 093f 397b 143e
00000130: 0073 d23d 3a9e 573e a1a7 42bd 810c 5c3e
00000140: 3688 33be 8669 84bd 5884 203f babd 223e
00000150: e610 62bc 396f d63c 18f5 f23c 4a7e 473e
00000160: b3e4 e13d 5225 043e cabf ffbd 6828 90bd
00000170: 103d a3bd 492a 5cbe 5763 663e b057 b4be
00000180: ff82 e5be 4991 ee3e 3e8e 713e d6ad 2a3f
00000190: f649 c93e fb5a 7bbe b0fe 14be 19a3 013e
000001a0: 0330 663e 51e1 cfbe 15d6 58be 3d26 5cbd
000001b0: 9d15 413e 249d d9be ece0 6a3e cd43 923e
000001c0: 8e11 cb3d 3a28 833e a2f5 e73e 7d96 643c
000001d0: 43d5 91be a2f2 c9be 5b46 15bf ea95 993d
000001e0: 0a08 cf3e fcf2 9f3e 2b25 8bbe c495 b6bd
000001f0: e5fa e33d 0c81 72b9 caae 38be 10cd 69bd
00000200: d01e 083f 47c4 a33d 7814 153f 5089 a9be
00000210: ced8 e0be ef2b db3e 60d5 1bbe aaac 9d3e
00000220: 7bcc febe 147b adbc 80e7 0a3f 74fa 14be
00000230: c00c 8c3e c657 08be d87b 04bf 01ba 803d
00000240: b424 3d3e 2de4 fbbd b0c7 a3bc 5542 913d
00000250: 8983 303e 43f4 6a3e 9c59 cbbd afcb 8cbd
00000260: ebba 23bb 943b 0bbe e6b0 acbe e753 8cbe
00000270: 86ce 7ebe 063f 6f3d a921 cf3d 11b8 c8bc
00000280: 0d1a 60be f9bc 9bbd 15bc 063e af6a 3cbe
00000290: e4cc 89be 3645 3c3e e39e 53be cfa2 5c3e
000002a0: 9973 2a3d a2a3 e13c d76a a93d 28d0 c1bd
000002b0: 8f9f 573d 46af 2f3f e154 efbd 03f6 693d
000002c0: 802a a4bd 297e 1abd cfb3 21bf a787 103e
000002d0: 180c 2abe d933 61be 82b3 38bf 69b1 a73e
000002e0: bce2 c33e b799 39be 462f 813e 97ee f8bc
000002f0: 6e0f f1bd bdff cebc 9c3e 57ba 342c 953e
00000300: 35d7 a93e a4b5 38bf ee0c 2e3e 2cb4 6f3e
00000310: 83f7 0cbe 078e f1be 1187 1d3e b1fe 09be
00000320: ad22 9f3e 9d41 29bf ce36 fcbb b203 3bbe
00000330: 4924 94be e1ba 8cbe a626 c1bd abb5 6bbd
00000340: 58f0 843e 98fb d73d c017 a2bd 75f4 253e
00000350: 5406 043c b1c4 35be ee91 8ebe aef5 5fbd
00000360: 8bae a9be b6a2 c93c 2d2b fc3d 65c5 3a3e
00000370: 3a91 cdbd 6f84 1c3e eb2b 4abe 966d 47be
00000380: bace 92bd eae7 5bbd 8bcb 8ebd 8397 35bd
00000390: ec1e c73e 2da9 29be 9b70 983c 8c14 3c3e
000003a0: 2860 b53d 2ef8 da3d 4507 adbe 2292 6fbe
000003b0: 6084 743e 4fe8 69be f33f dd3e ddd6 1e3e
000003c0: 38f9 513e 68de 0ebd 630d bf3e 14e4 70bc
000003d0: d766 663e cfce ff3e 6e50 19bf 2e02 c4bd
000003e0: 81bc 8f3c bfe2 9a3e 641b 193f 3352 bfbe
000003f0: c269 cb3d c316 c03e 607e ef3e f988 ccbd
-0.1877125 0.51380664 0.19063146 0.45451286 0.37534449 -0.44930577 0.5653892 0.39941472
-0.17666341 0.1358368 0.22026208 -0.4917938 -0.10232495 0.22197424 0.22217198 0.0121306805
-0.2416914 -0.18748243 0.029532447 0.07621246 -0.13033713 0.13285728 -0.16249335 0.11401503
-0.42188272 0.22369376 0.2483968 0.052527677 0.19277938 0.43996868 -0.318074 0.027188987
-0.2722282 0.34522614 0.1290353 -0.018248588 0.21391033 -0.31764686 -0.28720954 -0.37704194
0.0046570003 -0.49014348 0.12891962 -0.013054962 0.27256906 -0.019270403 0.52526176 -0.10676905
-0.06499532 -0.35831034 0.18523161 -0.18605 -0.8097942 0.18941829 0.05839316 -0.24799386
0.07527643 0.21284467 0.5312836 -0.064186916 0.65572774 0.55615413 0.13431023 0.0028998698
-0.06913338 -0.29454303 0.08313491 0.22629827 -0.544001 -0.31960577 0.22181052 -0.53581333
0.37696064 0.26883668 0.5373006 0.1450013 0.10275841 0.21056452 -0.047523145 0.21489145
-0.17532429 -0.064654395 0.6270194 0.15892687 -0.013797974 0.026176082 0.029657885 0.19481769
0.11029949 0.12904862 -0.12487753 -0.07038957 -0.07970631 -0.21500506 0.22498833 -0.3522315
-0.44826505 0.4659522 0.23589417 0.666715 0.3931424 -0.24546425 -0.1455028 0.12659873
0.22479253 -0.4060159 -0.21175416 -0.053747404 0.18855901 -0.425027 0.22937363 0.28567353
0.09915458 0.25616628 0.4530459 0.013951895 -0.28483018 -0.39442927 -0.5831048 0.07499297
0.4043582 0.3124007 -0.27176794 -0.08915284 0.11131839 -0.00023126992 -0.18035427 -0.05708033
0.53172016 0.07996421 0.5823436 -0.33112574 -0.4391541 0.42806956 -0.15218115 0.30795795
-0.4976538 -0.021176852 0.5425949 -0.14548665 0.27353477 -0.13314733 -0.5175147 0.062854774
0.18471032 -0.122993805 -0.01999268 0.0709273 0.17237677 0.22944741 -0.09929201 -0.06874787
-0.0024983238 -0.13596946 -0.33728713 -0.27407762 -0.2488347 0.058409713 0.10113842 -0.024501832
-0.21884938 -0.07604403 0.13157685 -0.18400072 -0.26914132 0.18385777 -0.20666079 0.21546482
0.04161415 0.027543847 0.08272331 -0.09463531 0.0526424 0.6862682 -0.11686111 0.05711938
-0.08015919 -0.037717972 -0.6316499 0.14114247 -0.16606176 -0.21992435 -0.7214891 0.3275254
0.38258922 -0.18125044 0.2523138 -0.030387206 -0.11770521 -0.02526843 -0.00082109286 0.29135287
0.33172002 -0.7215216 0.1699712 0.23408574 -0.13766293 -0.4717867 0.15383555 -0.13476063
0.31081143 -0.6611574 -0.007696963 -0.18263128 -0.28933933 -0.27486327 -0.094312 -0.0575463
0.25964618 0.105460346 -0.07914686 0.16206534 0.008058149 -0.17750813 -0.2784571 -0.054677658
-0.33140978 0.02461372 0.123129226 0.18239363 -0.100374654 0.15284894 -0.19743316 -0.19475397
-0.07168336 -0.053687967 -0.069724165 -0.044333946 0.3889078 -0.16568442 0.018608382 0.18367213
0.08856231 0.10691868 -0.3379461 -0.23395589 0.23878622 -0.22842525 0.43212852 0.15511651
0.20505226 -0.034880072 0.373149 -0.014702816 0.22500168 0.4996247 -0.5988835 -0.09570728
0.01754594 0.3025112 0.5980742 -0.373674 0.09932281 0.37517366 0.46776104 -0.09987063

policy_net.2.bias f4 [32]
00000000: cdb8 b5bb d520 1c3d c409 993d f07f a23d
00000010: 849b bfbd 6020 aebd d0e2 ce3d 2826 df3c
00000020: a26a 02be a7d8 47bd dff5 0a3d 96c6 e83d
00000030: bcab d3bd 34e3 06be b71f 093e 4c42 98bd
00000040: 76aa 1abd 3948 edbc 485d a83d 2e2e b4bd
00000050: 6c61 213d 062b 08bd 7bbe 1d3d 99c3 e1bc
00000060: 219f ff3d cf3a 083e 5437 45bc b435 e63d
00000070: a249 48bd cfbe 1e3c 045f eb3c 6a98 ebbd
-0.0055457116 0.03811725 0.07472566 0.079345584 -0.09355834 -0.08502269 0.10101855 0.027239874
-0.1273599 -0.0487906 0.033925887 0.11366002 -0.1033549 -0.13172609 0.13391005 -0.0743452
-0.03776022 -0.028965103 0.08220917 -0.087978706 0.03939955 -0.033244155 0.038511734 -0.027559089
0.12481523 0.13303684 -0.012037117 0.11240712 -0.048898347 0.009689047 0.02873183 -0.1150368

policy_net.4.weight f4 [32, 32]
00000000: ec62 0c3f 7176 073e 1b76 6cbe eaac ac3e
00000010: 0228 473d ac71 4d3e a67b 94be 82dc 6cbe
00000020: fdb4 5f3e c4e9 22bf 50b3 8ebe ae70 9b3d
00000030: 29e9 d13e 7c0f 3d3e f3fb 213e b17b b6be
00000040: eff7 413b 88c9 3f3e 3a8b a0be e56c ba3d
00000050: 81c0 8abd eed4 41be 95f7 b8be e0cf b43e
00000060: 9cee e1be 8dfa 8abe b34b e43c 8d9a 54be
00000070: 62d0 23be fa5d ee3d 9c01 8bbe c7d3 a33e
00000080: fd86 973e fb05 5a3f a4c6 20be 39cf 253e
00000090: f809 bf3d a388 f8bd 7d99 61be 5b39 e03e
000000a0: 77bc 883d 8f1b 13bf 5379 3c3d c257 673e
000000b0: 7f8b 653e ad28 003e 6252 b13e a03a 0cbe
000000c0: 104d 183f 128c d1be 4367 273f 3e53 a5bd
000000d0: be4b 433e 1022 05bf d950 4a3f 07e8 40be
000000e0: fcb8 0d3d ebcb 073e 0b21 3dbd 0816 903d
000000f0: ca49 02be 9468 93bd beb5 f73d bdc5 a63e
00000100: 9b24 023f 5174 8d3e 5a75 96bb cf9d da3e
00000110: cdcf e7be 7b6f 30bf 89f8 d7bc b9d6 d03e
00000120: 0cfc 90be 63eb cfbd 3f6b 003e 29da 86bd
00000130: e668 cebe bbda 04bf 6228 d13e 4df5 fcbe
00000140: e311 e13b 6776 70be e69e 1e3f f169 19bf
00000150: 0962 35be a1aa b9be b30e 4fbd 20e9 61bf
00000160: add1 a8bd fc9d 3c3e 3a5c 80be e6b2 4a3b
00000170: 5d99 91be 1b2c 36be bf5b afbe 485d c73e
00000180: 4c4f e4bd 1bb2 533e 28a9 fe3e 14bf 34be
00000190: d512 c2be 62b4 74be ac90 da3e 0e48 0ebe
000001a0: 957e 083f 33dc b03d 18ed 6bbe 231a fc3e
000001b0: 4640 63be 7591 bfbe 648a 053f 304d 0a3d
000001c0: 8e89 aa3d 4621 d93e ddf6 893e a416 d5be
000001d0: 45bd 623e 4032 aa3e 0d56 d9bc cc7d 48be
000001e0: 6367 18bc bee2 3c3d 4a7b 24bf 3f04 c13e
000001f0: 7b4a 63be 539b 8e3e 4dbb 6c3e 7543 efbd
00000200: 3a76 543e 70c3 0bbd e664 a2be 9aa5 0bbf
00000210: d486 bf3d 8211 aabe 31d2 99bd c18f f4be
00000220: 71d6 2f3e 66b9 103f fa3d a3be 64fb e23d
00000230: b9cf 82bb 1449 b3bd 89fa ebbe 7a5c 893d
00000240: 3d43 a9be 4a5b a9bd f138 46bf ddb9 b7bd
00000250: ca25 4dbe 01f0 b53d 3388 8a3d 4d07 0e3f
00000260: 1e27 4d3d cf1c 60bd 3387 b63d c1f0 533e
00000270: eb82 d9bd 095e 6abe 6cb9 1ebe 750f 46bd
00000280: f66a 47bc e963 923e 6b7e 51be a6ce a93e
00000290: 5671 893e 7a2c e43e f22a 7ebe aa34 9abe
000002a0: 1554 33be b07b 3c3d 8f80 83bd e5b4 c4be
000002b0: e67f 003e 998c 173e bd9b f6be 9744 083d
000002c0: 2c17 273e ad41 6f3d 3d73 693e 196c 843e
000002d0: f64c ca3e ea33 dbbe e554 0fbf 7353 833d
000002e0: 3e21 703e cb08 9abe 4d75 27be 74d3 713e
000002f0: 7dbe 303d 41aa 213e ec29 0dbe ff22 5d3f
00000300: 05ea f03e de91 873e 38de 1ebd 76ad 9abe
00000310: d4f8 37be a568 123f 0d48 593d 643b 363e
00000320: 91a5 a13b 315e b63d b991 bdbd 69f8 0a3d
00000330: b0a0 0abe 3445 3d3e 05e7 e73d 5961 ca3e
00000340: a71b 92be dbc2 dabd 1e35 8b3d 6242 223e
00000350: c912 863e 7ce1 15bf 9950 32bd 6c57 d03c
00000360: d32a 813e 85cd 81be 88c2 b13e 0ffd aabe
00000370: ea96 00bf 16d2 6dbd f602 2bbe 2a96 383e
00000380: 6ec4 5e3e 86c2 a03e 278c 26bf 2baf 49bd
00000390: 735b bbbd e217 7e3e 0f0a e2bd ea4d 6b3e
000003a0: c78a b63e 322d 833e 3637 babd eb26 32bf
000003b0: b12f 473f 4682 a53e d7ac 36be 93e5 573e
000003c0: 47dd 603e 836a f63d c005 023f 7ae0 4bbd
000003d0: 6b61 a7be d44f adbc 4593 c0be c99f 913e
000003e0: 13f8 08bd e569 7fbd ecf1 123e d558 71be
000003f0: 62d6 e0bd b901 403e a572 70be eea6 7b3d
0.5483844 0.13228776 -0.23091929 0.33725673 0.04862214 0.20062894 -0.29000586 -0.23130992
0.21846385 -0.6363795 -0.2787118 0.07589851 0.409982 0.18462938 0.15818767 -0.35641244
0.0029597243 0.18729222 -0.3135622 0.09102801 -0.067749985 -0.18928882 -0.3612639 0.35314846
-0.44127357 -0.2714428 0.027868127 -0.20762081 -0.1599746 0.11639018 -0.27149665 0.3199751
0.29595175 0.85165375 -0.15700775 0.1619233 0.09328073 -0.121354364 -0.22031207 0.4379376
0.06676572 -0.57463926 0.04601414 0.2259207 0.22416495 0.12515517 0.34633166 -0.13694239
0.5949259 -0.40927178 0.6539194 -0.08072518 0.19071862 -0.520051 0.79029614 -0.18838511
0.034600243 0.13261382 -0.04617409 0.07035452 -0.12723461 -0.07197681 0.120952114 0.32572737
0.50837106 0.27627805 -0.004591626 0.42698523 -0.45275727 -0.68920106 -0.026363628 0.4078882
-0.28317297 -0.10152318 0.12540911 -0.065845795 -0.40314406 -0.51896256 0.40851122 -0.494059
0.0068685873 -0.23482667 0.6196121 -0.5992728 -0.17713179 -0.36262992 -0.050551128 -0.88246346
-0.082431175 0.18419641 -0.25070363 0.0030929386 -0.2843732 -0.17790262 -0.34249684 0.38938355
-0.11147937 0.2067341 0.4973843 -0.17651016 -0.37904993 -0.23896936 0.426885 -0.13894674
0.5331815 0.0863575 -0.23039663 0.4923869 -0.22192487 -0.37415662 0.5216429 0.033765018
0.08327018 0.42408198 0.26946154 -0.41618836 0.22142513 0.33241463 -0.02653029 -0.19579238
-0.009301993 0.046114676 -0.64250624 0.37698552 -0.22196381 0.27852878 0.23118325 -0.11682788
0.20748225 -0.03412193 -0.31717604 -0.5454956 0.09351888 -0.33216482 -0.07510794 -0.47765926
0.17171647 0.56532896 -0.31883222 0.11083105 -0.0039920476 -0.08754173 -0.4608958 0.06707092
-0.3305911 -0.08269365 -0.77430636 -0.089709975 -0.20033947 0.08883668 0.06764259 0.5547989
0.050086133 -0.054714974 0.08912506 0.20697309 -0.10620674 -0.22887434 -0.1550042 -0.048354585
-0.012171498 0.2859185 -0.20458381 0.33165473 0.2684428 0.44565183 -0.2482107 -0.30118304
-0.17512543 0.046016395 -0.06421005 -0.38419262 0.1254879 0.14799727 -0.48165694 0.033268537
0.16317433 0.058412243 0.22797866 0.25863722 0.39511842 -0.42813045 -0.55988914 0.06412401
0.23450181 -0.30084834 -0.1635334 0.23615819 0.043150414 0.15787603 -0.13785523 0.86381525
0.47053543 0.26478475 -0.038786143 -0.30210465 -0.17966014 0.57190925 0.05304723 0.17796093
0.004933067 0.08904684 -0.0925631 0.03392831 -0.1353786 0.1848343 0.1132336 0.39527395
-0.28536722 -0.10681697 0.06797241 0.15845636 0.26186207 -0.58547187 -0.043533895 0.025432311
0.25227985 -0.2535211 0.34718728 -0.33396193 -0.50230277 -0.05806168 -0.16700348 0.18026033
0.2175462 0.3139841 -0.65057606 -0.04923932 -0.09148302 0.24813798 -0.11037075 0.2297894
0.35652754 0.2562042 -0.09092562 -0.69590634 0.77807146 0.32325953 -0.1783937 0.2108367
0.2195941 0.12032034 0.50790024 -0.049774624 -0.32691512 -0.02115623 -0.37612358 0.2844222
-0.033439707 -0.06235685 0.14350098 -0.23569043 -0.1097839 0.18750657 -0.23481233 0.061438493

policy_net.4.bias f4 [32]
00000000: 287c f8bd 3b73 b4bb 414e 013e db17 2e3e
00000010: 51b0 5abd ebaa 5abe adb8 a3bd 6709 4abe
00000020: afdb bdbc fe2a ebbd 586b 303e 6fca 99bd
00000030: 9c12 3bbd 7ac8 49be 6325 4f3e c8b1 0f3e
00000040: f469 e8bd 1426 363e fe33 0d3e 1149 c63c
00000050: 90ba 6abe 9e11 5ebe 465b cc3c 59ba 34bc
00000060: df14 3f3e 5e04 7d3c 49f6 09be faa0 173e
00000070: d917 bdbd 3951 2fbe 3770 0d3e cdf3 633d
-0.12133056 -0.0055069006 0.12627508 0.17001288 -0.053390805 -0.21354263 -0.079942085 -0.19730149
-0.023176042 -0.114828095 0.17228448 -0.07509314 -0.045672044 -0.19705382 0.20229106 0.14032662
-0.11348334 0.17787963 0.13789365 0.024204763 -0.2292273 -0.21686408 0.024945866 -0.011030757
0.18660305 0.015442936 -0.13472857 0.14807501 -0.09233064 -0.17120828 0.13812338 0.05565243

value_net.0.weight f4 [32, 770]
00000000: 0a66 e63c 2d9e 233c 6eed e9bd 653e abbd
00000010: af78 aebc 38ad 37bd ee55 89bd 2939 a7bd
00000020: 4648 793d 9ba3 f5bc 0458 18bc 777c 7ebc
00000030: b354 8a3d 3777 9dbc fa53 9b3c 5abb 053b
00000040: 62b6 c0bb aaa5 f2bc dda1 693d c34e 85bd
00000050: de64 88bd d227 503d 0189 d2bc 1e82 a13b
00000060: 30f5 af3c a0cf a1bd df38 b6bd 1eab 1cbe
00000070: a8ed f43c 558f d2bb c764 973d 3b56 7fbd
00000080: 8a2d 103d 0d0f f3bb 5979 2abe b714 cabd
00000090: 7f11 fa3d 3f20 5cbd dc65 563c 8894 ecbc
000000a0: 88ea 463d 7a88 1b3d 8a0a 903c e398 9b3c
000000b0: 8cd1 37ba 286a b0bd 6997 adbd d256 873c
000000c0: 9972 91bc 467e bfbc 4122 0abe ead9 b9ba
000000d0: 2d6c c83b 8f90 e9ba 7f50 313d 0a78 ec3c
000000e0: bd85 493d ea6f 8cbb bd04 48ba ef72 8a3c
000000f0: c710 673d 346f a8bc 732f 10be b124 fbbc
00000100: 5857 2fbd d72f 343d 3faa ffbc 14ab b13c
00000110: ee33 c53b 18e7 d93d 59de af3d e8a1 6bbc
00000120: 99cb 93bd b0eb cfbb b696 023d 7863 2abd
00000130: 85df dabc a6d8 e0bc 7e4b e73d ca59 4c3c
00000140: 4115 93bc 2b50 263c 3ed8 743d 8732 a23d
00000150: 6f12 84bd 6809 a0bd 4dde a4bc 87b9 82bd
00000160: a77b d9ba 2ab9 95bd 4645 fbbc a63a 7bbd
00000170: 67ac 3fbd 21cc 83bd 02e3 2f3d 0ed1 423d
00000180: 3642 fb3c f405 b5bc a515 78bd 98a9 10bc
00000190: 5bbc 8e3d 96ba c33c 8bf7 563d 969b 433d
000001a0: 046c 353d 26ac 2a3c 2a9d 95bd b39d a1bc
000001b0: bcc1 1dbb 8c73 fd3c 09e0 97bd 8fea bd3c
000001c0: eaec acbb d46e d93d 51a4 efbd 4f1a 6fbd
000001d0: 2e06 623c bfda aabc 76cc 4bbc 46fd 31bd
000001e0: f689 e2bd 10a5 bc3c 7cb9 a2bc ca3f 973d
000001f0: c80a a63d e251 a6bd 0688 043d c026 633d
00000200: cab4 75bd 976a 493d 564c 99ba 1ace 51bd
00000210: 4595 e2bc 8505 8a3d 8aad 93bd 49c3 fc3c
00000220: 42f2 4ebd 7559 c93b e0df 913d e1c5 9c3d
00000230: 74e7 833d d78f 94bd 8032 3b3d c49d 1bbd
00000240: 1c6d c23d ec60 913c 5d77 1ebd a137 5ebd
00000250: f855 42bd b6bc 863d 6145 a1bc 9be2 393d
00000260: ae1c 463d 07f9 bcbc e926 ef3d dcfa 53bc
00000270: 74d9 2b3d 97c1 eaba aa46 86bc 8063 72bd
00000280: 189c b6bd 2f65 3fbd d9aa c9bd 06dd 5c3d
00000290: 4878 713d c6a1 6dbc fbb8 0ebe 1703 4c3d
000002a0: f760 79bd 70e4 05bd 5c3f dcbb e620 a93d
000002b0: 76d5 4f3d 4bfa 323d 84be 043e d950 3f3c
000002c0: dad9 a6bd d6d6 22bd 843d 0a3d 48a2 143c
000002d0: d9d1 bb3c 3445 9dbd 57b8 b83c 3858 0a3c
000002e0: 5a65 3a3d d3d9 00bd 21f9 4a3c 1305 a5bd
000002f0: 42d8 263c 7234 16bd 9657 14bd 73d8 dfbc
00000300: c2dd 973c e439 8d3c 59bf 17bc a7a2 46b9
00000310: 34be bb3c f98d 3abd f245 39bd d6f0 2bbd
00000320: bcb5 78bd bdcf ab3b d761 bfbc 9331 063b
00000330: c34c 083d ddb7 10bc 12e6 f73c a350 413c
00000340: 56a9 663d e680 8bbd 4b94 2dbd a37d 13bd
00000350: 3b33 083d e955 01bd a3af 93bd 43c5 b13d
00000360: 3fbd 2bbc ba72 5ebc a6f4 00bc fa77 48bd
00000370: c29f b3bd 3912 0d3d 1bed d3bc a7b9 f5bc
00000380: 02fd 353d b780 c43a 0429 88bb 74bb d63b
00000390: 0d60 edbc c649 6e3c c60a 7a3d 4860 60bd
000003a0: 81c4 71bd 340f dcbc 967f a1bd 6101 d53c
000003b0: 7a38 9abd 1acf a8bd e4ef 683c b98f 89bc
000003c0: 3f8c dabd 5a7e f0bd 5f6c dcbd b6c7 69bd
000003d0: ea70 253d 9028 2a3e caf4 903d 4e0e e63c
000003e0: 85e2 7ebc 4ac2 733d bad1 97bc 5849 6bbc
000003f0: 887b fd3c 237d 3c3e a5c7 bc3d 22ab 9e3d
0.028124828 0.0099864425 -0.11422239 -0.0836151 -0.02129778 -0.04484293 -0.06705843 -0.08165199
0.06085994 -0.02998524 -0.009298328 -0.015532604 0.06754436 -0.019221885 0.018960942 0.002040586
-0.0058811167 -0.02962001 0.05703913 -0.06509163 -0.06659864 0.050819226 -0.025700094 0.0049288413
0.02147922 -0.079009295 -0.08897566 -0.15299651 0.02989848 -0.006425778 0.07392269 -0.062338095
0.03519968 -0.0074175657 -0.16647853 -0.09867232 0.12210368 -0.05374169 0.013085809 -0.028879419
0.04856351 0.03797195 0.01758315 0.0189938 -0.0007012121 -0.08613998 -0.08476145 0.016520891
-0.01775484 -0.023375642 -0.1348963 -0.0014179323 0.006116411 -0.0017819571 0.043289658 0.028865833
0.04919981 -0.004285802 -0.00076301006 0.016900508 0.056412484 -0.020560838 -0.140806 -0.030657144
-0.042807907 0.043990936 -0.03120911 0.021688022 0.0060181534 0.10639781 0.08587331 -0.014381863
-0.072165675 -0.006345235 0.03188201 -0.041598767 -0.02671791 -0.027447056 0.11293696 0.012472579
-0.01795447 0.0101509495 0.059776537 0.079197936 -0.064488284 -0.07814294 -0.020125533 -0.06383043
-0.0016592637 -0.07310708 -0.03067268 -0.06133523 -0.046795275 -0.06435419 0.0429411 0.04756265
0.03067122 -0.022097565 -0.060567517 -0.008829497 0.0696952 0.023892682 0.05248217 0.0477558
0.044292465 0.01041702 -0.07305367 -0.019728517 -0.0024071774 0.030938886 -0.07415778 0.023183135
-0.005277266 0.10616842 -0.11701263 -0.0583747 0.013795419 -0.02085626 -0.012438884 -0.04345443
-0.1106147 0.023027927 -0.019863836 0.07385214 0.08107525 -0.08121087 0.032356285 0.055456877
-0.059986867 0.049173918 -0.0011695724 -0.051221944 -0.027659068 0.06739334 -0.07210834 0.030854838
-0.050524004 0.0061446973 0.07122779 0.0765493 0.064406306 -0.07253998 0.045702457 -0.037992254
0.09493467 0.017746411 -0.038688052 -0.05425227 -0.047445267 0.065789625 -0.019686403 0.045382123
0.048367195 -0.023067964 0.116773434 -0.0129382275 0.041955426 -0.0017910477 -0.016391117 -0.05917692
-0.08916491 -0.046727356 -0.0984704 0.053921722 0.0589526 -0.014503902 -0.13937752 0.049807634
-0.06088349 -0.032688558 -0.00672142 0.08258228 0.05074068 0.04369573 0.12963301 0.01167699
-0.08147021 -0.039755665 0.033750072 0.009071894 0.022927212 -0.07679215 0.022548838 0.008443885
0.045506813 -0.031457733 0.0123884985 -0.080576085 0.010183396 -0.03667111 -0.03621634 -0.02732489
0.01853836 0.017239518 -0.009261929 -0.00018943344 0.022917844 -0.045545552 -0.04523272 -0.041977726
-0.06072019 0.00524327 -0.023362083 0.0020476326 0.03327633 -0.008832899 0.030261073 0.01179901
0.056313835 -0.06811695 -0.04237775 -0.03600849 0.033251982 -0.03157607 -0.072112344 0.08680203
-0.0104821315 -0.013577158 -0.007870829 -0.048942544 -0.08770706 0.034441207 -0.025869897 -0.029995752
0.04443074 0.0014991973 -0.00415528 0.006553108 -0.028976465 0.014543956 0.06104543 -0.05477932
-0.05902529 -0.026862718 -0.07885663 0.026001634 -0.07530303 -0.082426265 0.014217351 -0.016792165
-0.10671281 -0.1174285 -0.10762858 -0.057075225 0.040390886 0.16617036 0.0707794 0.028082993
-0.015556936 0.05951146 -0.018532623 -0.014360748 0.030942693 0.18407111 0.09217767 0.07747485

value_net.0.bias f4 [32]
00000000: 904b 35bd bc53 4c3d c7c1 5bbc b2e5 5d3d
00000010: c1b8 a6bb 1f71 c23b 3a8b 4f3c 7c7f 553d
00000020: 2bbd 853c 92f3 123c 2384 333d 8fea b63c
00000030: a57a 3c3d 1e95 43bd 2b08 9ebc 0acc 47bd
00000040: 4180 9539 063b 76bd 0bc4 3fbc 9bc5 a8bc
00000050: a777 893c c9c4 d0bb 9b7c 073c 41bb 2dbd
00000060: caff 163b 19ef ebbb 0ee0 25ba 54b6 923c
00000070: 525f 3dbc 4df0 1cbd e8cd 1d3b bd14 2bbd
-0.044261515 0.049884543 -0.013412899 0.054174133 -0.0050879424 0.0059338952 0.012667472 0.05212353
0.016325554 0.0089692045 0.043827187 0.022328643 0.0460154 -0.04774963 -0.019291004 -0.04877857
0.0002851505 -0.060114883 -0.011704455 -0.020602038 0.016780687 -0.006371115 0.008269454 -0.042414907
0.0023040646 -0.0072001335 -0.0006327637 0.017909206 -0.011558371 -0.038315106 0.0024079029 -0.041767824

value_net.2.weight f4 [32, 32]
00000000: 1410 d2be 230c 443e 39ec e53d 3445 d7bd
00000010: 47c8 933e 514c 3a3d 7059 38be 8dd5 0f3e
00000020: fff7 033f 182f 80be e02c 863e a45c bf3d
00000030: 5f73 a63d c20c 00bf 5b5e 57be f33f c1be
00000040: e795 dc3e 9d5b f8bd 3e9b 783e c5c9 93be
00000050: a4fe bbbe e693 6a3d ea1b 23be 2c86 483e
00000060: d71b ebbe 8b19 0cbe dd39 753d b224 a5be
00000070: e77c 3cbd fe96 69be 14ab 7f3e bc94 c4bd
00000080: d004 b2be c325 62be 7ea4 653d 0f2a 84be
00000090: f21f a7be f096 8bbe 70be 21be f912 c33c
000000a0: d374 e0be 184c 523d 415f 16be e25b 9a3e
000000b0: 479f 88be 3934 6fbe 4148 913e a496 233f
000000c0: 3187 15be 6c41 1c3e 1d04 8e3e a912 763e
000000d0: 232f 813c 2b9e ad3e 4cef 8dbe a9c7 943a
000000e0: b171 d3be 07c2 23be 2a33 8dbd 34ef 293c
000000f0: 8077 0cbe 9bd3 4a3e 08dd cabe 9e9f 8a3e
00000100: 136d 17be c486 9abe 4bc4 573e dd0d e13c
00000110: d727 b63d 8eb8 f0bd 3671 d03e 7407 243e
00000120: 495c 1c3e 7b17 803d 1e37 eb3d a7f0 1c3e
00000130: faf5 00bf 13cf 643e 92ca 8cbd dfe5 a8be
00000140: a187 80be 2d2d e03d c0a4 fe3d 3ed9 07bf
00000150: 479b ff3e aa35 733e 63f0 823e e472 0abf
00000160: bb46 92be c9ef 50be d7dd 283c 35c7 b63d
00000170: d0d3 df3d d74d 22bc c9dc 6f3d 6e25 273e
00000180: 5c73 25be 3659 56bc 72d2 22be 30fa d6bd
00000190: df3e b23d 3b49 af3e a107 6d3e d851 96be
000001a0: 2615 bbbd e671 99bd ecb6 d83d 4fd4 263e
000001b0: 2264 d1bd 47de 143e 4f5d 07bd 89bf 623e
000001c0: 96de 0fbf 2f7d bdbe e6a6 3abd b3d8 083e
000001d0: ea5f 373f a679 12be eab7 5ebe c481 7b3d
000001e0: bd03 f2be b83e 8d3e 6622 8f3c 1385 a9be
000001f0: 4c2c 78be aa1c e5bc 1d91 453e bb4a 80be
00000200: 391c a23b 1115 a43e ed28 6bbe 1b95 3b3a
00000210: 33dd f63d 1a78 20be cc96 89be 1d6c f93e
00000220: 85d5 95be 7f8e 63be 964b c03e b7dc 8cbe
00000230: 3b3f 12bc e21b ea3e 44ca 02bf 31e4 ac3e
00000240: 8ce6 893e 0dfa 473e a9ff 8e3e 1c8d e93c
00000250: 5c14 373e 62f6 8a3d fd05 4ebe e01a 85be
00000260: 2d4f f4bc 057b 0c3e b73c 25be 2679 e13c
00000270: c8c6 f43d 54d1 a33e aad3 ac3e a588 32be
00000280: 1cc6 9dbe f813 6fbe 4908 a3be 8dd7 cb3d
00000290: 5406 90bd 010d 08bf 3b3d 9a3d 271e 76be
000002a0: 09bc d93d 0908 9d3e 94a7 6a3c 4dba c13e
000002b0: 97ce 44bd f246 353e 1e90 1cbf 3a50 043e
000002c0: f9b6 27be e56d e63e cc87 48bd 5da7 e63c
000002d0: a738 74be fad0 073e 1326 393e 9839 1b3f
000002e0: 38b7 af3d 2195 853e aca5 12bd 2420 f7bc
000002f0: 01f6 093e 93ba 4c3d 3be5 b13e 89f2 eebc
00000300: 0ba3 d63e 4e94 8ebc 6fbe 003e 8e24 13ba
00000310: 8d49 9abe 9e9f d6be 1fd6 593c b3fd 1e3f
00000320: d151 063e 40e7 60be cb6f c4be f148 bd3e
00000330: 7f26 563e 6586 4fbe 5a6c 63bb 1c42 073b
00000340: 59a6 5dbe a8dc 803e a11f 023d fbaa cfbd
00000350: c28b 43bb bc10 cdbe 8406 813d 1835 453e
00000360: 1493 aebe f176 b03e 26dd e93e a1f5 2bbe
00000370: 43be 2b3e 9eee 003f fd01 b03d 8b1f 23be
00000380: 4123 a53e c0c0 5f3e b828 a53e 132f 6d3e
00000390: 9ebb 77be 8fdd ea3e 5260 ce3e 61cd 823e
000003a0: bfe0 ce3d c1e2 843e 9321 6c3d 96b4 5b3e
000003b0: 531a 293e 2027 d0bb 4ac0 b5be 9c30 64be
000003c0: 5ea5 c73d 26f2 883c 966b 29be f4a3 75be
000003d0: 2529 a7be 6dcb e43e 669d 57bf 5d23 1fbe
000003e0: d7d7 d0bc 74a4 c73c bef3 5cbe b8bc 183e
000003f0: 80d8 61bd e963 073d c948 5abc 5075 f7bd
-0.41027892 0.19145255 0.112266965 -0.10511246 0.28863737 0.045482937 -0.18002868 0.14046307
0.51550287 -0.2503593 0.26206112 0.09343842 0.08127474 -0.50019467 -0.21032088 -0.37744102
0.43083116 -0.12126849 0.2427797 -0.28864875 -0.36717713 0.057269953 -0.15928617 0.19582433
-0.45919678 -0.13681619 0.059869636 -0.3225456 -0.046017554 -0.22811505 0.24967605 -0.09598681
-0.34769297 -0.22084717 0.056065075 -0.25813338 -0.3264156 -0.27263594 -0.15795302 0.023812758
-0.4383913 0.0513421 -0.14684774 0.30148226 -0.2668402 -0.23359765 0.28375438 0.63901734
-0.14602353 0.15259331 0.27737513 0.24030556 0.015769547 0.33909735 -0.27721632 0.0011351007
-0.41297677 -0.15991984 -0.068945244 0.010371972 -0.1371746 0.19807284 -0.39621758 0.27074903
-0.14787702 -0.30180943 0.21070974 0.02747243 0.088943176 -0.11753951 0.40711373 0.16018468
0.15269579 0.062544785 0.11485122 0.15326177 -0.5037533 0.22344618 -0.06874575 -0.32987878
-0.25103477 0.109461166 0.12433767 -0.5306586 0.49923155 0.2375094 0.25574026 -0.5408156
-0.28569588 -0.20403971 0.010306797 0.089247145 0.10929072 -0.009906254 0.058560167 0.16322872
-0.16157287 -0.013082793 -0.15900591 -0.10496938 0.08703398 0.34235558 0.23147441 -0.29359317
-0.09134893 -0.074924275 0.105817646 0.16291927 -0.10224177 0.14537917 -0.03304797 0.22143377
-0.56199014 -0.3700957 -0.045569323 0.13363914 0.7163073 -0.14304218 -0.21749845 0.06140305
-0.47268477 0.27586913 0.017472457 -0.3310934 -0.24235648 -0.02796777 0.19293638 -0.25057015
0.004947212 0.32047322 -0.2296483 0.00071557023 0.12053909 -0.15670815 -0.2687286 0.48715296
-0.29264465 -0.22222327 0.37557667 -0.27512142 -0.008926208 0.45724398 -0.5108988 0.33767846
0.26933706 0.1952898 0.27929428 0.028509669 0.1787886 0.06785275 -0.20119472 -0.25997066
-0.02982291 0.13718803 -0.16136442 0.027523588 0.11951977 0.31995642 0.33755237 -0.17434938
-0.30815208 -0.23347461 -0.3184226 0.099532224 -0.07032457 -0.5314484 0.0753121 -0.2403494
0.10631568 0.30670193 0.01432218 0.3783745 -0.048048582 0.17702845 -0.61157405 0.12921229
-0.16378392 0.45005718 -0.04895763 0.028155977 -0.23849736 0.13263312 0.1808093 0.60634756
0.08579868 0.2609034 -0.03580253 -0.030166693 0.1347275 0.04998262 0.347452 -0.029168384
0.41921267 -0.017404702 0.12572645 -0.0005613052 -0.3013424 -0.41918653 0.013295679 0.62105864
0.13117148 -0.21963215 -0.3836654 0.36969712 0.20913123 -0.20266111 -0.0034702034 0.002063877
-0.21645488 0.25168347 0.031768445 -0.10140034 -0.002983794 -0.4005183 0.06300071 0.19258535
-0.34096587 0.34465745 0.45676535 -0.16792919 0.16771798 0.503641 0.08594129 -0.15930001
0.3225346 0.21850872 0.32257628 0.23162489 -0.24192664 0.4587216 0.40307862 0.25547317
0.10101461 0.2595425 0.057649206 0.21455607 0.16513948 -0.0063523203 -0.35498267 -0.22284168
0.09748338 0.016717028 -0.16544947 -0.23988324 -0.32648578 0.44686452 -0.84224546 -0.15540834
-0.025493545 0.02437041 -0.21577355 0.1491574 -0.05513811 0.033054266 -0.013323017 -0.120829225

value_net.2.bias f4 [32]
00000000: abb2 b73d 235a babd 5f4e 863c feaf 50bd
00000010: 1b32 a0ba 92a5 cf3c 4d7e cd3c d66d c53d
00000020: a038 c23d 6c17 3c3d 8a45 81bc c61d b53d
00000030: 6ade 90bd 008a 1f3d 9f7a 4c3c d457 23bd
00000040: 4465 09bd d664 ecbd 1235 bdbd 7e6e 253b
00000050: 0716 25bd 4bc4 5a3b 1fad 89bd 28e7 3a3d
00000060: e1b3 213d eb4f debc a974 6c3d cdf4 e7bc
00000070: 5cdd 1c3e 8ca8 b93d a3ae 84bc 2a3c ee3c
0.08969625 -0.090992235 0.016394792 -0.05094909 -0.0012221964 0.025347505 0.025084639 0.0964009
0.094834566 0.045920774 -0.01578023 0.088435695 -0.07073672 0.038949966 0.012480407 -0.03987868
-0.03354384 -0.115426704 -0.09238638 0.002524286 -0.04030421 0.003338116 -0.06722473 0.045630604
0.039478187 -0.027137717 0.057728443 -0.028314972 0.15318817 0.09065351 -0.016196555 0.029081423

value_net.4.weight f4 [32, 32]
00000000: 8163 16bd 7d60 74be 1232 243e 3800 a53d
00000010: 8101 c4bd bfdf 22bd e5e7 98be 3e8e e53c
00000020: f9e3 acbe 8c92 13bf d958 303e 340c 443e
00000030: 4af0 1c3f 8023 19bf 6630 153e f9ac 7b3d
00000040: 58f7 26be 55de 383d 8716 9c3d da21 a2be
00000050: 82e7 123b 3a9b 023f 6a7b 76be 5993 a2bd
00000060: 9180 b63d d3c5 563d cc13 d2bd 6879 f83c
00000070: b2ad d73c db77 31be 9771 dcbe ad10 543e
00000080: 0750 e53d 7e6e 86be 1f03 613e f414 023f
00000090: 00b7 0bbd 17c1 14bf 3a00 09bf 65c1 51be
000000a0: a4ba 44bd 2fb1 4e3a 093a cabd 4cbb 8b3d
000000b0: 6e23 063e e783 eb3d 73a8 fdbd 0cdf 0f3d
000000c0: 0d10 943e 74f1 52be b0fc 7b3d 59d8 033f
000000d0: fe21 15be 2282 9d3d dda0 4f3e 7664 ec3e
000000e0: d44a 383e bdd0 d9be f012 523e 0b25 91be
000000f0: f766 683e 82c9 19be 23ea 7c3e cb89 53be
00000100: 65e0 063f 8f03 86be 492e c23d f4b3 613e
00000110: b303 a33c 9f91 c93d 8a06 c33c b18c 97be
00000120: 8c51 02be 757b 2a3d b620 723e e740 883d
00000130: 1ca2 f7bc 420b a8be 6bf2 0ebf b7c7 073e
00000140: 5fe8 b23e 1aa0 56bd e88a 733d 0ffe 233e
00000150: c8d9 593e 2842 e8be 5493 0cbe d0a1 b1bd
00000160: 1293 24be 5103 103f 35e4 40bc 6ea7 493d
00000170: 3ca0 7f3e 07b0 273f 894e 333e 2706 c33c
00000180: 47b5 9c3e 8882 5bbe 347f 18bd 2e3a 123c
00000190: aa34 dabd 0f9d c63d 7be1 e4bd 034a 80be
000001a0: 6da6 be3e 0619 b03c 1f11 9b3e 3bb6 ef3b
000001b0: 26bf 343e 75a1 f23e 3f80 fbbe 6b91 dabc
000001c0: 456b 08bf e7a2 2f3e 5dd8 15be cce0 a4bd
000001d0: 8b83 0d3e c5d0 7b3e aa02 fabe 603b b7be
000001e0: 2715 583e 79a3 54be e3ad 523e 1189 eabd
000001f0: d480 17be 2186 57be 1f80 3d3b af0c e93d
00000200: a7d5 9ebc a556 a23d 8829 1c3e 733b 6c3d
00000210: 631a 963e 8378 95be 80f5 0c3e 64f3 80be
00000220: f493 b83e 7908 d4bd cd16 c5be 5b14 b1be
00000230: 77ba 583e db96 02be 56cc 9dbe d6c5 9cbe
00000240: a389 223e a162 2abe f4b8 a3be 8449 c5be
00000250: cdd8 f3bd 1df6 2f3e c645 d3bc a231 443d
00000260: 40ee e7bc 64ee c3be 3976 8ebe 007e e33e
00000270: f5bc b3be 79b5 be3e 6edb 12be a9f2 c9bd
00000280: 7035 9a3d 1f6a e2bd 97cd abbe e177 acbe
00000290: bb0a d23e c1a7 1ebe a182 50be 0911 9d3e
000002a0: 2d95 de3d 1688 98be 758d 773e 0801 82bd
000002b0: bd38 a1be eedb 073e 5623 053e b6a5 2d3e
000002c0: f441 77be 85ef 1cbf 2618 a13c e635 163e
000002d0: 8ecc 2d3e 22ec 783e 5e48 ffbd 7b60 30be
000002e0: 8c10 8d3b a47f eebd 2051 bcbd fe9a 473e
000002f0: 093a 113f ee35 f13e 2da7 fbbd f503 8dbe
00000300: 600a 473d cc9e 19bd d700 643e cb15 3bbe
00000310: ab69 74be 550f e6be 84a6 a53e 855f df3d
00000320: f2ea 02be 9717 733d 66b8 36be 27cd d53e
00000330: 5677 d13d b2ff bebe 706f 743c ab6e 54be
00000340: a9fc c9be d378 91bc c4ff 87be 5c21 8f3e
00000350: fd21 ae3e 2e8c 533d bf8f 683e 3823 fcbe
00000360: e042 64bd 3439 64be 5d3c 70be 6286 83be
00000370: 2ea1 1b3e f0eb 033e bdfa 893e 3db7 1cbd
00000380: 6fd1 953d 7a46 52be 6080 72be 2f40 ab3d
00000390: e82f a73e afcb c9be 1429 fabe 5a74 bfbd
000003a0: a4d0 afbd 4b32 e03e f92c 983d 4aaa b13d
000003b0: 32de 83bc ca7c 3cbe a024 abbd 60ca 25be
000003c0: 2e2e 61be 7be9 0b3e a5f4 f6be b957 023e
000003d0: 1e8f b53c 57fd 973d 45ad 093f 2ae0 99bd
000003e0: c9ec 32bf d899 183e 26b1 8d3e 8f91 843e
000003f0: 308f 05be 39e4 7dbe c685 97be aff5 c4be
-0.036715988 -0.23864932 0.16034725 0.08056682 -0.09570599 -0.039764162 -0.2986442 0.028021928
-0.3376768 -0.5764549 0.17221393 0.1914528 0.6130415 -0.59819794 0.14569244 0.061444256
-0.16305292 0.045133907 0.07621484 -0.31666452 0.0022415821 0.51018107 -0.24070516 -0.079382606
0.08911241 0.052434754 -0.10257682 0.030331329 0.026327942 -0.17330877 -0.43055412 0.20709486
0.11196905 -0.26256174 0.21973847 0.5081322 -0.03411007 -0.5810713 -0.5351597 -0.2048393
-0.048029557 0.0007884679 -0.098743506 0.068228334 0.13099453 0.11499768 -0.12385645 0.035124823
0.28918496 -0.2059992 0.06152028 0.51501995 -0.14563748 0.076908365 0.20276208 0.46170396
0.17997295 -0.42542067 0.20515037 -0.28348574 0.22695528 -0.15018275 0.24698691 -0.20658033
0.5268615 -0.2617459 0.094814844 0.22041303 0.019899225 0.09842228 0.023806829 -0.29599527
-0.1272642 0.041621644 0.2364529 0.06653004 -0.030228667 -0.3282109 -0.5583865 0.13259779
0.3494291 -0.05239878 0.059458643 0.16014884 0.21274483 -0.45362973 -0.13728076 -0.086734414
-0.16071728 0.5625506 -0.011773159 0.04923194 0.24963468 0.6550297 0.17510428 0.023806645
0.30607054 -0.21436512 -0.037230685 0.008925004 -0.10654576 0.09697925 -0.111758195 -0.25056466
0.37236348 0.021496307 0.302865 0.0073154247 0.17651042 0.47388807 -0.49121282 -0.026680669
-0.5328868 0.17151986 -0.14633317 -0.08050689 0.13819711 0.24591358 -0.48830158 -0.35787487
0.21101819 -0.20765485 0.20574145 -0.114519246 -0.14795238 -0.2104726 0.0028915477 0.11379372
-0.019388987 0.079266824 0.15250218 0.057673883 0.29317006 -0.29193506 0.13765526 -0.25185692
0.3605038 -0.103531785 -0.38493958 -0.34585842 0.2116488 -0.1275286 -0.30819958 -0.30619687
0.15872817 -0.16639186 -0.31977046 -0.3853265 -0.11906586 0.17183729 -0.025790107 0.047898896
-0.028311849 -0.38267815 -0.27824572 0.44432068 -0.351051 0.37247828 -0.14341518 -0.09860737
0.07529724 -0.11055397 -0.3355529 -0.3368521 0.41023812 -0.1549368 -0.20362331 0.3067706
0.10868297 -0.29791325 0.24175055 -0.06347853 -0.314886 0.1326749 0.13001761 0.16957745
-0.24146253 -0.6130298 0.019664835 0.14668998 0.16972563 0.24308828 -0.12464975 -0.17224304
0.004304951 -0.11645439 -0.09195161 0.19492719 0.5672918 0.47111458 -0.122877456 -0.2754208
0.04859388 -0.037504956 0.22265945 -0.18270032 -0.23868434 -0.44933572 0.32353604 0.10906891
-0.12784937 0.05934867 -0.1784378 0.4175808 0.1022784 -0.37304455 0.014919147 -0.20745341
-0.39450577 -0.017757809 -0.2656232 0.2795514 0.34010306 0.051647358 0.22711085 -0.4924562
-0.05572784 -0.22287446 -0.23460527 -0.25688463 0.15198204 0.12882972 0.2694911 -0.038260687
0.07315337 -0.20534697 -0.23681784 0.083618514 0.32653737 -0.3941321 -0.48859465 -0.09348364
-0.08584717 0.4378837 0.07430453 0.08675058 -0.016097162 -0.18406978 -0.08356595 -0.16190481
-0.21990272 0.13663284 -0.48233524 0.12728776 0.02216297 0.074213676 0.53780013 -0.07513459
-0.69892555 0.14902437 0.27674216 0.25892302 -0.13042903 -0.24794091 -0.2959425 -0.38468692

value_net.4.bias f4 [32]
00000000: e38a 46bd 7fdf 0e3d 8e16 1e3d 045b 333c
00000010: 7973 f4bc c9e0 143d 0bed 0b3d 395a 27bd
00000020: d9d3 853c 7f9b f63d fae4 16bd eea1 8c3d
00000030: 5d29 01bc 54ff 9a3d 6cfc 8cbd 1a3f 03be
00000040: 27ef e0bd 2cd3 72bd 02d9 a93d 3adb d2bc
00000050: 1f67 d53d 1ba6 01bd db2c c63b 5364 e33b
00000060: cb28 833d f0bd 0c3d 4c92 acbb 5559 f4bb
00000070: a130 cd3d 7443 91bd 6551 223b eaeb 093e
-0.048472296 0.03488111 0.03859573 0.010946993 -0.029840218 0.036347184 0.03416161 -0.040857527
0.016336368 0.12041377 -0.036839463 0.06866823 -0.007883397 0.07568231 -0.06884083 -0.1281704
-0.10983115 -0.05928342 0.08293344 -0.025739301 0.104200594 -0.03165255 0.0060478277 0.00693945
0.06404265 0.034360826 -0.0052664634 -0.0074569383 0.10019041 -0.07092944 0.0024767753 0.134689

value_net.6.weight f4 [1, 32]
00000000: 2fa2 603c 41a7 123e 40b7 7abd 5952 0e3c
00000010: aa21 2b38 db47 563e ddc1 7fbb 049e df3d
00000020: 5002 f3bd 08b7 3dbe 946d 6fbe bccc e5bd
00000030: 6fe0 983b 5105 bcbd 5d5a 5c3e d8ba 873d
00000040: 88e2 563e df04 c3bb be89 84be 1b1e 9bb9
00000050: 9a66 30be 3b7f 7a3d 0f83 62bb a6d8 b23b
00000060: c0cf 10bf 3072 043b 39ef 423e 5007 d23d
00000070: 877a 2dbe 7d21 8a3e 3410 f63a 5866 c2be
0.013710543 0.14321615 -0.061209917 0.008686625 4.080093e-05 0.20925848 -0.0039025464 0.10918811
-0.118656754 -0.18526852 -0.23381644 -0.112206906 0.0046654264 -0.091807015 0.21518846 0.066274345
0.20984852 -0.0059515084 -0.2588634 -0.00029586334 -0.1722664 0.061156493 -0.003456298 0.0054579554
-0.56567 0.0020209663 0.19036569 0.10255301 -0.16941272 0.26978675 0.001877314 -0.37968707

charge_net.0.weight f4 [21, 32]
00000000: d9b3 51be 251d d8be 370b 19bf d8df 3b3e
00000010: 083c eb3e a1fc 71be 97f9 1dbe 2cd2 55be
00000020: fe85 dd3e 25e7 143f e36c 563e 6122 1c3f
00000030: 71c3 093f d6b3 55be daae 533e b0ba 553e
00000040: bd29 38be cf1f 593e ca77 16bf a378 aa3e
00000050: 1544 69be 6b3e 59be a76c b23e 0253 bcbe
00000060: baf4 553e 6196 b2be 1751 61be 90a6 4b3e
00000070: 85f8 1b3f c4bc 5abe 30c1 533e 2568 f8be
00000080: 2246 2bbb 09bc a53a b25c 43ba 0c85 6f3a
00000090: d598 daba 4b6c bf39 efc1 46ba 7d57 c53a
000000a0: a299 d0ba 2980 d1ba 2071 113a ca51 e33a
000000b0: 3f88 953a 9dfb 7b3b 946a 8eb9 49a4 c4b9
000000c0: 029d 083b 6c90 163b 6b3e 63bb f7dd 3ebb
000000d0: ed08 8cb7 0a4f c13a e792 f53a 9e58 263a
000000e0: 1552 4aba 5bcb 0cbb 9c52 823a bca3 5cba
000000f0: bd83 e63a 4051 02bb c4f1 0cbb 4e6c 11bb
00000100: 22aa bab9 1237 bcb9 7ea5 efba 35c3 c9ba
00000110: 2452 313a f950 f0ba dd00 0f3a e42a 85b9
00000120: 028e 0bbb 34c9 65ba c268 f7ba 0e1c f439
00000130: 7902 f53a f029 1ebb f4fd 57ba 3cda 243b
00000140: 77c2 e439 46c2 72bb 3d1a 2ab9 f194 903a
00000150: fe4f b1b9 eb32 af3a 6b90 dc3a a2e9 0dbb
00000160: 77ad 7cbb 246b 0ebb 4521 f5b9 5023 88bb
00000170: 266d 823a 4a60 473a 952e 083a eb7e 80ba
00000180: 76f7 8439 ccfe 613b d76f feb9 207d 45bb
00000190: 87c5 e63a eaaa 84ba e79c 8c3a 9e7f dfba
000001a0: 6595 453b 7f8b 82bb e186 1c3a 0f22 e236
000001b0: ee35 e93a 7d3a a03a bdfb dbb9 a5fb 783a
000001c0: 0256 11bb 6757 e73a 5d83 013a 1e76 3e3a
000001d0: 03e7 893b b821 7938 0299 63ba 2b9d 4e39
000001e0: e2f1 5fb9 142c c6ba 25ce 243b beb4 d8b9
000001f0: 659a 92b9 a6e7 bf39 542d 31ba 6ea1 d63a
00000200: 8741 07bb 13d8 d0b7 4e7f 67b9 0f1a 7c39
00000210: 8a2e 643b a9c1 01ba c4fd 45ba 2eb1 19bb
00000220: 90b4 a0bb 7bab 0abb 5747 0abb 725f 403b
00000230: 4bda 9cba 77a8 713a 027f 14b9 39ee e6ba
00000240: ba8b 8f39 ac0c 21bb 2df5 88ba 340f 0739
00000250: 1b1c 0b36 f3f0 8738 4e93 34bb 817e 383a
00000260: 539b 8a3a 0e28 af3a 420f 223b 156e e93a
00000270: 373c f6b9 32d8 09b8 ab5c 903a 61a8 923a
00000280: 91fe cbbc 046e b3bc 88b2 c8bc 0cfb b63c
00000290: afc0 b63c 6268 d8bc ddc6 d6bc 99a4 c1bc
000002a0: 7195 c43c 7cd7 c13c cec0 d63c 3eb8 bb3c
000002b0: e184 cb3c 39f8 dabc a526 d53c 35fa cc3c
000002c0: 9009 b4bc 2557 c33c 03d9 e1bc 9610 db3c
000002d0: c4c9 d7bc 7780 d8bc 2d97 d43c 9fbb d5bc
000002e0: a397 ce3c d509 c0bc aad5 c2bc b283 e63c
000002f0: 6ac7 dd3c 7057 ccbc ffd6 c83c 4151 b0bc
00000300: d0da afbc 19ee a9bc 9bfe 9bbc 93f4 953c
00000310: 2dba a03c 339e 3cbc 0a68 aebc 248e 97bc
00000320: a60e 9f3c eef3 653c 4962 903c 4509 9a3c
00000330: f823 a93c ab77 a0bc b90f 813c 0465 963c
00000340: 7357 96bc 28a9 b73c cc21 91bc 48de 983c
00000350: 91e0 afbc 5311 a3bc 300e 9e3c 1d9f 8fbc
00000360: 638a 883c 6903 9abc 8a34 97bc 2d75 a23c
00000370: 0536 853c f976 86bc 9a03 913c e2b8 79bc
00000380: 98de 32bd 2cc0 42bd baff 28bd 4dcf 463d
00000390: 1c90 393d 8067 d0bd 9995 3ebd 006d 4bbd
000003a0: a243 423d 4de6 553d 22d2 3b3d 3c6f 3b3d
000003b0: 4c96 4d3d dae3 36bd 9699 373d e343 3c3d
000003c0: 663b 2cbd e588 403d 3f1e 39bd 6b85 413d
000003d0: 79e7 4bbd 36be 34bd f4fb 3e3d 6154 36bd
000003e0: 246d 423d df7c 3ebd 3269 33bd ff24 393d
000003f0: 4d27 243d 8115 40bd 2e00 473d 32cb 2dbd
-0.20478763 -0.42209736 -0.5978274 0.18347108 0.45944238 -0.23631527 -0.15427242 -0.20880955
0.4326629 0.581652 0.20939974 0.6098996 0.53813845 -0.20869383 0.2067217 0.20871997
-0.17984672 0.2120354 -0.58776534 0.33295164 -0.22779877 -0.21215217 0.3484852 -0.3678208
0.20894137 -0.34880355 -0.2200359 0.19887757 0.60926086 -0.21361071 0.20679164 -0.48516956
-0.0026134332 0.001264454 -0.00074524723 0.0009136952 -0.0016677628 0.00036511043 -0.0007581999 0.0015055981
-0.0015914927 -0.0015983629 0.0005548168 0.0017343101 0.0011408402 0.0038449534 -0.00027163757 -0.00037506435
0.0020845537 0.0022974266 -0.0034674655 -0.0029124 -1.6693457e-05 0.0014748287 0.0018735797 0.00063456025
-0.00077179197 -0.0021483514 0.0009942832 -0.00084167323 0.0017586868 -0.0019884855 -0.0021506408 -0.0022189799
-0.00035603443 -0.00035899185 -0.0018283573 -0.0015393259 0.0006764254 -0.0018334679 0.0005455146 -0.00025399693
-0.002129436 -0.00087656383 -0.0018875825 0.0004656021 0.0018692754 -0.0024133883 -0.0008239441 0.0025154492
0.00043632436 -0.0037042066 -0.00016222238 0.0011030716 -0.0003381967 0.0013366615 0.0016827708 -0.0021654149
-0.0038555542 -0.0021731341 -0.0004675483 -0.0041546 0.0009950742 0.0007605596 0.00051949295 -0.000980345
0.00025361375 0.0034484146 -0.00048529982 -0.0030134395 0.0017606475 -0.0010121737 0.0010727913 -0.0017051583
0.003014886 -0.0039839144 0.0005971026 6.73929e-06 0.0017792562 0.0012224462 -0.00041958495 0.0009497947
-0.0022176509 0.0017649949 0.0004940534 0.00072655256 0.004208447 5.939763e-05 -0.0008682163 0.0001970424
-0.00021357046 -0.0015119337 0.0025147286 -0.00041333394 -0.00027962323 0.0003660295 -0.00067587686 0.0016375014
-0.0020638423 -2.489615e-05 -0.00022077301 0.000240423 0.0034817779 -0.0004949817 -0.00075527676 -0.0023451555
-0.004904337 -0.002115934 -0.002109965 0.0029353765 -0.0011966912 0.00092185236 -0.00014161694 -0.0017618603
0.0002737919 -0.0024574203 -0.0010449045 0.00012880267 2.0728974e-06 6.482182e-05 -0.002755362 0.00070378935
0.0010574855 0.0013363378 0.0024728333 0.0017809296 -0.0004696564 -3.2864693e-05 0.0011013945 0.0011189097
-0.02490166 -0.021903045 -0.024499193 0.022336505 0.022308676 -0.026416961 -0.026217872 -0.023638057
0.02399704 0.023662321 0.026214983 0.022915002 0.024843635 -0.02672969 0.026019404 0.025021652
-0.021977216 0.023845265 -0.0275693 0.026741307 -0.026341327 -0.026428444 0.025950992 -0.026090441
0.02521879 -0.023442188 -0.023783524 0.02813897 0.027072627 -0.024944037 0.02451658 -0.02152312
-0.021466643 -0.020743417 -0.019042304 0.018305099 0.019620026 -0.011512327 -0.021289844 -0.018500395
0.019416165 0.014035208 0.017624991 0.018803248 0.020647034 -0.019588312 0.015754567 0.018358715
-0.018352246 0.022419527 -0.01771631 0.01866068 -0.021469386 -0.019905722 0.019293875 -0.017531926
0.01666755 -0.018800454 -0.01845767 0.019831264 0.01626111 -0.016414152 0.017701913 -0.015241833
-0.043669313 -0.04754655 -0.041259505 0.04853754 0.04530345 -0.10175991 -0.046529386 -0.049664497
0.04742778 0.052221585 0.045854695 0.04576038 0.050192162 -0.04465089 0.044824205 0.04596318
-0.042048834 0.047005553 -0.04519486 0.047246378 -0.049781296 -0.04412671 0.046627 -0.044514064
0.047467366 -0.046505805 -0.043801494 0.045201298 0.040076543 -0.046895508 0.048584156 -0.04243011

charge_net.0.bias f4 [21]
00000000: 80fb 583e 0000 0000 0000 0000 0000 0000
00000010: 0000 0000 0f93 ca3c c503 973c 5f86 333d
00000020: 9b36 dc3c 34ed c93e bbd3 7c3d 0ccb 703e
00000030: 889a 6d3b 7be4 033d d4c0 88bb 6f4a c6bd
00000040: 2e7e 81bd 9384 c4bd ac05 bcbc 712f 4cbd
00000050: e4e5 8bbd
0.2118969 0.0 0.0 0.0 0.0 0.024728326 0.018434415 0.043829318
0.026881507 0.39438784 0.06172536 0.23514956 0.0036255438 0.032200318 -0.0041733775 -0.09682166
-0.06322895 -0.09595599 -0.022951923 -0.04984993 -0.068309575
