MAPPO/2DAction/save/SY_2_T2/agent_11_MAPPO_c.pt (torch, 131174 bytes, 17 tensors)

policy_net.0.weight f4 [32, 26]
-0.1652379 -0.015301916 0.15484335 -0.15619588 -0.08341593 0.0069580153 -0.35632548 -0.28854686
0.40607262 -0.2348237 -0.019672731 0.37820852 0.3560379 0.39932805 -0.2998557 0.2788629
-0.038226053 0.60349697 0.353802 -0.033968978 -0.07543118 0.44821236 0.15588005 -0.28778222
0.04596381 -0.20159094 0.19788907 0.08152357 -0.17889659 0.35953173 0.5008285 -0.22324045
0.6182422 0.21853341 0.4714412 0.08552121 -0.063822016 0.115047365 -0.16721661 0.5319878
-0.38624567 0.4924495 0.010662121 -0.15101555 -0.06357882 0.31487405 -0.4764237 -0.021604737
0.1136156 -0.51582444 0.12473252 -0.050152425 0.21744207 -0.095270135 0.14491552 0.12581477
-0.3021676 0.11934726 0.088721044 -0.12277926 0.18499173 0.1608194 -0.22343431 0.016159618
0.34046233 -0.45355603 0.15048575 0.14486416 0.27753276 -0.42987412 -0.06480134 -0.085461535
0.12882501 -0.02947139 0.35297838 -0.5038448 0.2706269 0.4421711 -0.12253276 0.2965919
-0.14221358 -0.30271435 -0.07538035 0.093027994 0.029604582 -0.07579193 0.08202903 0.51734746
-0.2934824 0.3982703 -0.0070295855 0.19561292 0.5892623 -0.0016937935 -0.071279876 -0.45409045
-0.005559584 0.06244822 0.33695674 -0.12890574 0.2460847 0.1862436 -0.23367748 0.113211535
0.1947061 0.06404146 -0.17821334 0.16536042 -0.20016332 0.59163535 -0.36749247 -0.33382404
0.4194568 0.40462226 -0.044251453 -0.023774492 0.0017646896 -0.26628777 0.118720755 -0.5032086
-0.17433201 -0.023809306 0.018016534 0.0860985 -0.45708925 0.3681542 -0.3725757 0.023278715
-0.17574021 -0.091748334 -0.09010483 -0.06432332 -0.30520552 0.16790028 -0.0411015 0.24937706
0.40710744 0.21491927 0.22516686 -0.40287128 -0.384299 -0.08092031 -0.25151768 -0.39531964
-0.17417169 0.28280658 -0.27908674 -0.223548 -0.3785114 0.12935506 0.23649745 0.037791654
0.39443904 0.20870501 -0.0028750922 -0.65506154 -0.19020589 -0.26771608 0.10933307 0.14516445
-0.3241565 0.19185637 -0.34306574 -0.15669496 -0.4211375 -0.106998175 0.045300882 0.4282108
0.15038806 0.38552842 0.103461616 -0.0043487772 -0.0034779576 -0.08014427 -0.6630411 -0.13580456
-0.23168987 0.14135276 -0.37234792 -0.28533667 -0.3658948 -0.04176432 0.3093827 0.015888257
0.15761808 0.11764746 0.12629683 0.12882823 0.45046523 -0.37567362 -0.251468 -0.583082
0.008803541 0.066098996 0.061365418 0.10632485 -0.4556828 0.39026147 -0.23436095 -0.1654088
0.27658302 -0.3432684 -0.2638774 -0.11479564 0.3111178 0.049951624 -0.31414863 0.19589803
-0.059772383 -0.23873618 0.120863885 -0.009065814 -0.51523143 -0.18598633 -0.13530026 -0.1841546
-0.015914837 -0.017276568 -0.081513405 0.17350608 -0.20243514 0.2516685 0.8297747 -0.693646
0.25083834 0.44364575 -0.29248843 0.055334873 -0.13177314 0.41332048 0.056670688 -0.092652336
-0.0437431 0.04329212 -0.117052935 0.15850323 -0.18823557 -0.19985783 -0.1512762 0.1274914
0.5321647 0.070729256 -0.18045965 0.05695768 -0.34779662 0.015353964 0.39566317 -0.083957575
-0.7522834 -0.46058536 0.15611911 0.050716855 -0.15124443 -0.061276074 0.36056063 -0.3359232
00000000: 2034 29be e3b4 7abc 418f 1e3e d0f1 1fbe
00000010: f9d5 aabd 1000 e43b 4b70 b6be 6abc 93be
00000020: c0e8 cf3e a075 70be b528 a1bc 8ca4 c13e
00000030: 9a4a b63e ba74 cc3e b086 99be 1ec7 8e3e
00000040: ec92 1cbd c77e 1a3f 8925 b53e 0e23 0bbd
00000050: aa7b 9abd 177c e53e 059f 1f3e 3158 93be
00000060: 8c44 3c3d db6d 4ebe 6fa3 4a3e d4f5 a63d
00000070: ab30 37be 8b14 b83e 4c36 003f 2599 64be
00000080: 1f45 1e3f 39c7 5f3e be60 f13e bf25 af3d
00000090: 1eb5 82bd f49d eb3d d53a 2bbe 5a30 083f
000000a0: fec1 c5be 5722 fc3e 2db0 2e3c d2a3 1abe
000000b0: 9d35 82bd 2c37 a13e cfed f3be 6bfc b0bc
000000c0: 4caf e83d 120d 04bf c373 ff3d a16c 4dbd
000000d0: 22a9 5e3e fd1c c3bd bc64 143e 96d5 003e
000000e0: b6b5 9abe 566c f43d 61b3 b53d b173 fbbd
000000f0: 796e 3d3e d7ad 243e f7cb 64be 2d61 843c
00000100: 1451 ae3e 7f38 e8be f018 1a3e 4557 143e
00000110: c618 8e3e 7618 dcbe 91b6 84bd 7506 afbd
00000120: b4ea 033e fc6d f1bc 95b9 b43e f9fb 00bf
00000130: 9c8f 8a3e 4064 e23e 75f2 fabd e5da 973e
00000140: 70a0 11be 60fd 9abe 0361 9abd 7685 be3d
00000150: 4f85 f23c cd38 9bbd d6fe a73d e270 043f
00000160: 5343 96be 16ea cb3e 7058 e6bb c14e 483e
00000170: e5d9 163f 4702 deba 2ffb 91bd 8b7e e8be
00000180: 2c2d b6bb b4c9 7f3d 9885 ac3e deff 03be
00000190: a1fd 7b3e a4b6 3e3e 2649 6fbe 73db e73d
000001a0: 0961 473e 2b28 833d 8f7d 36be 3e54 293e
000001b0: 9df7 4cbe 6a75 173f f927 bcbe fcea aabe
000001c0: 0bc3 d63e a62a cf3e 0341 35bd b9c2 c2bc
000001d0: 284d e73a df56 88be de23 f33d 47d2 00bf
000001e0: 1784 32be bc0b c3bc 6997 933c 6954 b03d
000001f0: 9a07 eabe b57e bc3e 3ec2 bebe 01b3 be3c
00000200: 3ef5 33be 8de6 bbbd e288 b8bd f2bb 83bd
00000210: e643 9cbe 0dee 2b3e 0c5a 28bd b35c 7f3e
00000220: 6370 d03e cc13 5c3e 2492 663e 2545 cebe
00000230: d7c2 c4be 8cb9 a5bd edc6 80be 5667 cabe
00000240: 105a 32be 06cc 903e 75e4 8ebe c4e9 64be
00000250: 3fcc c1be a775 043e 632c 723e 6ccb 1a3d
00000260: eaf3 c93e c4b6 553e 0b6c 3cbb 1db2 27bf
00000270: 55c5 42be 1512 89be 04ea df3d fda5 143e
00000280: d7f7 a5be ff75 443e 50a6 afbe a574 20be
00000290: 569f d7be dc21 dbbd 6b8d 393d 723e db3e
000002a0: 54ff 193e fb63 c53e afe3 d33d 3080 8ebb
000002b0: 72ee 63bb ae22 a4bd 10bd 29bf 5a10 0bbe
000002c0: 1c40 6dbe c7be 103e 63a4 bebe a617 92be
000002d0: 9056 bbbe 1011 2bbd 6967 9e3e 1728 823c
000002e0: a266 213e 27f1 f03d f553 013e 8ceb 033e
000002f0: 61a3 e63e 4b58 c0be 6ac0 80be dd44 15bf
00000300: ba3c 103c e95e 873d 4e5a 7b3d d8c0 d93d
00000310: 424f e9be 5ad0 c73e 51fc 6fbe ed60 29be
00000320: 4a9c 8d3e e0c0 afbe f01a 87be fa19 ebbd
00000330: d54a 9f3e 139a 4c3d 17d8 a0be 7e99 483e
00000340: e3d3 74bd 4277 74be 7c87 f73d c888 14bc
00000350: 35e6 03bf 3373 3ebe 278c 0abe 0693 3cbe
00000360: d55f 82bc 9787 8dbc 80f0 a6bd 94ab 313e
00000370: 284b 4fbe b2da 803e 1d6c 543f c992 31bf
00000380: e26d 803e 8925 e33e 0bc1 95be d2a6 623d
00000390: 8aef 06be be9e d33e 861f 683d 82c0 bdbd
000003a0: f72b 33bd 1453 313d 73b9 efbd ac4e 223e
000003b0: d3c0 40be 88a7 4cbe 26e8 1abe 1b8d 023e
000003c0: f23b 083f 80da 903d 6aca 38be 754c 693d
000003d0: 6612 b2be 318f 7b3c 5d94 ca3e f3f1 abbd
000003e0: a595 40bf d8d1 ebbe b0dd 1f3e 7abc 4f3d
000003f0: d2df 1abe 9ffc 7abd 679b b83e 20fe abbe

policy_net.0.bias f4 [32]
0.06798987 0.043465205 -0.026381264 0.015854368 0.02554808 0.0060845516 0.0069555645 0.031581737
-0.0037251452 -0.017446237 -0.04416242 -0.09622013 0.0118129775 0.0019436514 -0.018779444 0.04432151
-0.038221553 0.034442022 -0.015235106 0.019269343 0.009918104 0.034669366 0.04840365 -0.017848514
-0.010253743 -0.010070196 -0.036865227 -0.07041105 0.039966762 -0.11370044 -0.008066696 0.08566861
00000000: 463e 8b3d 9208 323d 851d d8bc 05e1 813c
00000010: 354a d13c eb60 c73b 81eb e33b da5b 013d
00000020: 9121 74bb 69eb 8ebc a7e3 34bd 0f0f c5bd
00000030: 388b 413c 1ec2 fe3a 59d7 99bc 798a 353d
00000040: 348e 1cbd 1413 0d3d ab9c 79bc beda 9d3c
00000050: 8b7f 223c 7701 0e3d e842 463d 0c37 92bc
00000060: 51ff 27bc 77fd 24bc feff 16bd ab33 90bd
00000070: 30b4 233d c7db e8bd 2d2a 04bc 0673 af3d

policy_net.2.weight f4 [32, 32]
0.33549067 -0.11471088 0.23068373 0.097379506 -0.3785325 0.33941472 -0.17598672 -0.12889647
0.19169542 -0.4039083 -0.15524405 -0.013484891 -0.22743104 -0.1643594 -0.19931246 0.32164642
0.422576 -0.25193444 -0.8969292 -0.422715 0.088028006 -0.213679 0.038849827 0.070054
0.036515888 -0.08989792 0.05297668 -0.05017741 -0.10035481 0.046722874 -0.1826924 -0.20239018
0.0007558715 -0.047192764 -0.57266456 0.089976095 -0.094497755 0.114946656 -0.16161872 0.14826801
-0.55428725 0.21803509 -0.039729487 -0.48179436 0.071331754 -0.13166352 0.016948525 0.42449853
0.08221221 -0.2530087 0.21594507 0.14264421 0.07811235 -0.084315956 -0.32700405 -0.26638103
0.037466962 -0.19965304 0.3240015 -0.10640858 -0.76078963 -0.021540876 -0.13116562 -0.81118625
-0.059442174 -0.21968514 -0.059360147 0.18993184 0.42929444 -0.2711092 -0.27626407 -0.2675938
0.11973577 -0.039170336 0.8808976 0.015361951 -0.19672221 0.1364712 0.16962796 -0.46180132
0.31503516 -0.077968806 -0.3003203 0.07116643 -0.13346466 0.20283528 0.18686137 0.44574663
-0.14197458 -0.24016209 -0.5599778 0.22663505 0.0657798 -0.16325544 -0.08922343 0.17864412
0.12850964 -0.30925524 -0.033900756 0.28705233 0.1876365 -0.4333731 0.18051104 0.051171947
0.3246889 -0.44052804 -0.55848926 0.1973474 -0.4170854 -0.20593342 -0.28035435 -0.048117775
0.27206665 -0.03162541 -0.0041592782 0.071106195 -0.22002706 0.21203248 -0.63446033 0.44264436
-0.10433612 0.189866 -0.25226527 -0.13245377 -0.2809943 -0.28466678 0.17360176 0.24065916
0.22141705 0.075944096 -0.33380082 -0.34530398 -0.19822049 -0.45990622 -0.022366866 0.25153098
0.060131717 0.10646483 -0.34995425 0.052703835 -0.4087426 -0.0051420853 0.4352632 -0.0025929501
0.004731026 0.47585616 -0.50520116 -0.10927902 0.014646442 0.04201925 0.08768245 -0.2631992
-0.37603918 -0.40160507 -0.14927986 -0.045749806 0.016726626 -0.16652611 0.23910062 0.0007615355
-0.28678012 -0.15153278 -0.05364099 0.37151793 -0.29262057 0.15269865 0.067020826 -0.42478904
0.006742254 0.58156455 -0.25423175 0.09083791 -0.21617195 0.3077441 0.48926592 0.54094326
0.13497525 -0.26882672 0.51995635 0.02024781 0.28120655 0.2834649 0.4337335 -0.027292328
0.02707199 -0.22872952 0.15146457 0.1837349 0.079114735 -0.08708234 -0.037972983 0.10840236
-0.28520682 0.15721372 -0.11415456 0.42103943 -0.3410828 -0.09363316 -0.18186867 0.36589667
-0.078768186 -0.19989312 -0.19523008 -0.44827977 0.3861527 0.3271746 0.20480008 0.35264564
-0.3670733 -0.42354167 -0.3670275 0.03168523 -0.110029876 0.10690864 -0.046078306 -0.49993905
0.1769434 0.15208973 -0.105818324 -0.30063626 -0.41197795 -0.035599366 0.47375348 0.11549141
0.15100692 -0.34488994 -0.13710679 0.07682932 0.15960811 0.0682906 0.4002388 -0.29876137
0.17317405 0.29637188 0.004738202 -0.15180223 0.5467715 -0.024212582 0.3229687 -0.36286986
0.4371218 0.44176853 -0.46017528 0.22405209 -0.21650724 0.15545857 -0.375828 0.38574848
-0.063918 0.30102172 0.012439177 0.34272802 0.6615754 -0.047918003 -0.09902629 0.14140832
00000000: 6fc5 ab3e 8aed eabd 5b38 6c3e e86e c73d
00000010: 03cf c1be c4c7 ad3e dd35 34be 70fd 03be
00000020: ce4b 443e 12cd cebe 4cf8 1ebe bbef 5cbc
00000030: afe3 68be d54d 28be 9118 4cbe d7ae a43e
00000040: e25b d83e 8dfd 80be 279d 65bf 1a6e d8be
00000050: 0748 b43d abce 5abe ff20 1f3d 7978 8f3d
00000060: af91 153d 671c b8bd 13fe 583d d486 4dbd
00000070: d386 cdbd 7c60 3f3d b713 3bbe 5f3f 4fbe
00000080: ad25 463a 334d 41bd 259a 12bf 6345 b83d
00000090: 0a88 c1bd 2769 eb3d 617f 25be 92d3 173e
000000a0: c5e5 0dbf 9744 5f3e 63bb 22bd c0ad f6be
000000b0: 6216 923d cdd2 06be a2d7 8a3c df57 d93e
000000c0: e05e a83d 5b8a 81be b420 5d3e 5311 123e
000000d0: 5ef9 9f3d d8ad acbd 136d a7be 1863 88be
000000e0: f576 193d d971 4cbe 86e3 a53e beec d9bd
000000f0: 1cc3 42bf 7e76 b0bc 4850 06be e7a9 4fbf
00000100: a379 73bd 24f5 60be a023 73bd 7e7d 423e
00000110: 7bcc db3e d3ce 8abe 7c72 8dbe 0e02 89be
00000120: 0738 f53d 1371 20bd 8182 613f b1b0 7b3c
00000130: 8c71 49be 1bbf 0b3e f4b2 2d3e 3971 ecbe
00000140: 4a4c a13e 1cae 9fbd 95c3 99be b5bf 913d
00000150: f6aa 08be 0db4 4f3e 9658 3f3e e738 e43e
00000160: c961 11be 0ded 75be b55a 0fbf 0513 683e
00000170: 8fb7 863d 6f2c 27be c6ba b6bd 7cee 363e
00000180: 0898 033e b456 9ebe 85db 0abd 86f8 923e
00000190: c823 403e 14e3 ddbe e3d7 383e ad99 513d
000001a0: a03d a63e e48c e1be 27f9 0ebf 7015 4a3e
000001b0: 388c d5be 36e0 52be 9b8a 8fbe 2517 45bd
000001c0: 524c 8b3e a589 01bd 8e4a 88bb 20a0 913d
000001d0: c64e 61be 0b1f 593e fe6b 22bf 48a2 e23e
000001e0: 2dae d5bd 3c6c 423e ea28 81be f6a1 07be
000001f0: 7cde 8fbe d8bf 91be a9c4 313e 5b6f 763e
00000200: 27bb 623e 9488 9b3d f1e7 aabe afcb b0be
00000210: 50fa 4abe d478 ebbe b83a b7bc abc8 803e
00000220: ad4c 763d 3c0a da3d 342d b3be fadf 573d
00000230: b646 d1be f07e a8bb d1da de3e 7cee 29bb
00000240: b906 9b3b 6ba3 f33e dd54 01bf aecd dfbd
00000250: a1f7 6f3c 611c 2c3d db92 b33d 0cc2 86be
00000260: 3588 c0be 2e9f cdbe d2dc 18be 2664 3bbd
00000270: 4706 893c d285 2abe cbd6 743e c8a1 473a
00000280: d8d4 92be 692b 1bbe a8b6 5bbd 9937 be3e
00000290: 5dd2 95be 095d 1c3e 3742 893d f37d d9be
000002a0: 20ee dc3b 6ae1 143f aa2a 82be 3a09 ba3d
000002b0: 2e5c 5dbe a290 9d3e 1081 fa3e 427b 0a3f
000002c0: f436 0a3e a8a3 89be dc1b 053f bcde a53c
000002d0: 4efa 8f3e 5022 913e 5112 de3e 2994 dfbc
000002e0: 14c6 dd3c 1238 6abe 8719 1b3e 0025 3c3e
000002f0: e806 a23d 3a58 b2bd 8f89 1bbd 0e02 de3d
00000300: a106 92be a2fc 203e dec9 e9bd 7b92 d73e
00000310: 68a2 aebe bec2 bfbd c83b 3abe cf56 bb3e
00000320: 3751 a1bd c8b0 4cbe 65ea 47be ed84 e5be
00000330: cfb5 c53e 6e83 a73e 1db7 513e f88d b43e
00000340: 08f1 bbbe 74da d8be 07eb bbbe 5fc8 013d
00000350: 5857 e1bd ebf2 da3d 9bbc 3cbd 03f8 ffbe
00000360: a730 353e 69bd 1b3e 47b7 d8bd ffec 99be
00000370: c6ee d2be a4d0 11bd d18f f23e c386 ec3d
00000380: 8fa1 1a3e 6a95 b0be b965 0cbe b158 9d3d
00000390: 4f70 233e f1db 8b3d 1aec cc3e 40f7 98be
000003a0: 8a54 313e 0ebe 973e eb42 9b3b 0b72 1bbe
000003b0: 38f9 0b3f 7759 c6bc 275c a53e 14ca b9be
000003c0: 6ece df3e 7c2f e23e 189c ebbe e96d 653e
000003d0: 13b4 5dbe 8830 1f3e 876c c0be d380 c53e
000003e0: 71e7 82bd 851f 9a3e b1cd 4b3c 0c7a af3e
000003f0: 015d 293f ab45 44bd 4cce cabd 58cd 103e

policy_net.2.bias f4 [32]
0.039829772 0.0077893487 -0.04928121 0.036258508 0.06746408 -0.0014746218 0.056653325 -0.11088549
-0.10357316 -0.0031761315 -0.19604667 0.06769283 0.02782542 0.06693363 -0.07422903 -0.0043281545
0.04817475 -0.021737866 -0.122479185 0.029191155 0.026886623 0.028945236 0.0033732879 0.102457434
-0.09326868 -0.04352775 0.10000382 -0.110431075 0.010974239 0.013247818 -0.013442502 0.06352067
00000000: 8b24 233d cb3d ff3b 18db 49bd cd83 143d
00000010: 9c2a 8a3d 1948 c1ba 510d 683d ef17 e3bd
00000020: 2a1e d4bd a526 50bb 75c0 48be 8aa2 8a3d
00000030: 23f2 e33c 8014 893d 6405 98bd 31d3 8dbb
00000040: e352 453d 9c13 b2bc 5ed6 fabd 4a22 ef3c
00000050: 5641 dc3c 8f1e ed3c 6112 5d3b 34d5 d13d
00000060: a603 bfbd 274a 32bd cece cc3d b029 e2bd
00000070: 4bcd 333c 600d 593c f13d 5cbc 2017 823d

policy_net.4.weight f4 [32, 32]
0.0065330407 -0.049846474 -0.15388368 -0.60829663 -0.46675315 0.503338 -0.104328685 0.118987635
-0.45157814 0.40416214 -0.26978606 0.004482279 0.028816687 -0.10990389 0.6247692 -0.09332311
-0.34105572 -0.15724869 -0.02109928 0.39237466 -0.39384508 0.13087854 0.21902543 0.36197478
0.5828599 -0.17396423 -0.21310742 -0.21494159 -0.7133556 -0.3502428 -0.6415459 0.1420213
0.06128417 -0.03711358 -0.30708995 0.030879749 0.1124281 0.045568194 0.3017724 0.17299786
-0.013855028 -0.374552 -0.15356876 0.33224785 0.17626384 0.6448864 -0.1143366 -0.41791233
0.011388289 0.13577798 -0.32490492 -0.2033521 0.08094805 -0.33784437 -0.06400906 -0.35025686
0.21210578 -0.74412477 0.27184683 -0.09234493 0.326411 0.022459734 0.12763624 0.7625253
-0.104884684 0.80716395 -0.23784336 0.19511944 0.30799913 0.07518115 0.00015526982 -0.051376805
-0.45420048 0.34772068 0.26581138 -0.18707865 0.7544135 0.017287558 0.2632975 -0.5732816
-0.28197297 -0.7596768 -0.38638267 0.6735408 0.033402238 -0.11548777 -0.19848442 0.16942191
0.1474855 0.26740134 -0.0069779195 0.051443037 0.22359335 -0.8064051 -0.16140342 0.36812767
-0.3529883 -0.13152543 0.30592743 -0.20224684 0.03732469 -0.31047642 -1.0390791 0.006867214
0.53060067 0.15432222 0.23070635 -0.21457207 -0.12613523 -0.3229812 0.15389892 0.46388626
-0.56451684 -0.06867956 0.3303645 0.039182633 -0.25823316 -0.2241 0.037663173 0.083726354
-0.0010329766 -0.12291935 -0.12728341 0.0002405809 -0.13389947 -0.23604253 -0.09529324 0.1792498
0.086269215 0.13670233 -0.43362957 -0.1337839 -0.17470062 0.24878019 -0.0045087836 0.12827925
0.16121471 0.50835216 -0.18158084 0.06665105 0.56678355 -0.025478123 -0.2105709 -0.35512978
0.18563993 -1.0726426 0.26550362 0.12650599 0.55293894 -0.38734996 0.25362208 0.35519952
0.40580744 0.14513108 0.18925104 -0.2315801 0.017476635 -0.9608251 0.12673126 0.03751813
-0.38635677 -0.23186092 0.046801116 -0.2686492 0.15264463 0.48281845 -0.16054773 0.2660192
-0.08293204 0.27935916 0.37753704 -0.53911006 -0.17566001 -0.15451169 0.23219328 0.072581306
-0.09101549 0.12830736 0.45227996 -0.30200467 -0.09342326 -0.09188409 -0.64720935 0.014011533
-0.20770206 -0.1560198 0.017973807 0.5123106 -0.3300429 -0.39024353 -0.15655504 -0.41329306
0.40739575 -0.29633132 -0.35157198 0.07145919 0.2691413 -0.60690475 -0.13017875 -0.05511261
0.13838017 -0.39741552 0.14954372 0.25301036 -0.6464277 -0.025113052 0.001639232 -0.5113324
0.22159891 -0.14769658 -0.12849471 -0.36221746 0.011357453 0.5106343 -0.178883 -0.5505733
-0.0327659 0.068648785 0.2637079 -0.18709946 0.19125506 0.13792191 -0.035910346 -0.22024752
-0.12959674 -0.012604633 -0.31863257 -0.014544494 0.25895932 -0.18125416 -0.12030916 -0.49150813
0.03962063 -0.14882785 -0.4837557 0.014832573 0.1979634 0.5059847 0.23710348 -0.27818143
0.4534139 -0.16589889 -0.25200567 -0.020504367 -0.25249594 -0.064928316 -0.16683803 0.07679034
-0.16254422 0.03166303 0.3892952 -0.16394705 -0.21432965 0.037614226 0.73889893 -0.04641677
00000000: 1e13 d63b d12b 4cbd af93 1dbe 54b9 1bbf
00000010: 45fa eebe c2da 003f 47aa d5bd caaf f33d
00000020: 4035 e7be 57ee ce3e 6621 8abe 15e0 923b
00000030: f910 ec3c 4a15 e1bd e0f0 1f3f 3020 bfbd
00000040: db9e aebe cd05 21be 66d8 acbc 55e5 c83e
00000050: 10a6 c9be 0605 063e 3448 603e c254 b93e
00000060: 4e36 153f ae23 32be d538 5abe a619 5cbe
00000070: 799e 36bf 0653 b3be 5a3c 24bf 086e 113e
00000080: 1c05 7b3d 6904 18bd e53a 9dbe 87f7 fc3c
00000090: b440 e63d b7a5 3a3d e981 9a3e 5a26 313e
000000a0: 3300 63bc 48c5 bfbe 2141 1dbe 641c aa3e
000000b0: 827e 343e 4617 253f 4f29 eabd 9bf8 d5be
000000c0: f295 3a3c 6209 0b3e f059 a6be 883b 50be
000000d0: 17c8 a53d f0f9 acbe 2f17 83bd de54 b3be
000000e0: 4232 593e f67e 3ebf 822f 8b3e 571f bdbd
000000f0: 581f a73e 7afd b73c 13b3 023e dc34 433f
00000100: c8cd d6bd 4ca2 4e3f 368d 73be 64cd 473e
00000110: 10b2 9d3e 93f8 993d edcf 2239 7c70 52bd
00000120: f78c e8be 7208 b23e 6e18 883e 8c91 3fbe
00000130: 3e21 413f a39e 8d3c eece 863e 95c2 12bf
00000140: c35e 90be 2e7a 42bf f3d3 c5be 2b6d 2c3f
00000150: c9d0 083d da84 ecbd 803f 4bbe f07c 2d3e
00000160: 7006 173e d4e8 883e 08a7 e4bb efb5 523d
00000170: a8f5 643e 9170 4ebf f046 25be 3b7b bc3e
00000180: e2ba b4be 9aae 06be 85a2 9c3e cc19 4fbe
00000190: c6e1 183d c4f6 9ebe 8b00 85bf 5e06 e13b
000001a0: 72d5 073f a506 1e3e 493e 6c3e c8b8 5bbe
000001b0: 9829 01be cb5d a5be ae97 1d3e 8082 ed3e
000001c0: 2d84 10bf dfa7 8cbd 8925 a93e f87d 203d
000001d0: 2337 84be 787a 65be b344 1a3d b978 ab3d
000001e0: f164 87ba 24bd fbbd 9556 02be 7244 7c39
000001f0: f11c 09be 22b5 71be 1a29 c3bd 428d 373e
00000200: eaad b03d b2fb 0b3e b204 debe a6fe 08be
00000210: b8e4 32be 3cc0 7e3e 6bbe 93bb a35b 033e
00000220: 7815 253e 5e23 023f 54f0 39be 5880 883d
00000230: ba18 113f 7fb7 d0bc e69f 57be 92d3 b5be
00000240: 6518 3e3e 5a4c 89bf 17f0 873e c98a 013e
00000250: 688d 0d3f bc52 c6be c1da 813e b6dc b53e
00000260: fec5 cf3e 3e9d 143e 06cb 413e 5523 6dbe
00000270: 292b 8f3c a2f8 75bf d7c5 013e 9cac 193d
00000280: 8ed0 c5be f36c 6dbe 87b2 3f3d 638c 89be
00000290: e04e 1c3e fb33 f73e a066 24be ab33 883e
000002a0: 46d8 a9bd 2a08 8f3e 894c c13e 1e03 0abf
000002b0: 38e0 33be 5038 1ebe 13c4 6d3e 82a5 943d
000002c0: 5466 babd 0163 033e 3d91 e73e 5ba0 9abe
000002d0: b254 bfbd ba2d bcbd 83af 25bf a190 653c
000002e0: d9af 54be a8c3 1fbe ce3d 933c ca26 033f
000002f0: 62fb a8be 00ce c7be f74f 20be 269b d3be
00000300: 2d96 d03e bdb8 97be 3e01 b4be 3259 923d
00000310: e3cc 893e 1c5e 1bbf 944d 05be c3bd 61bd
00000320: 88b3 0d3e 0c7a cbbe fd21 193e 938a 813e
00000330: 497c 25bf e3b9 cdbc 80db d63a aee6 02bf
00000340: d3ea 623e c63d 17be 1e94 03be 9174 b9be
00000350: 9c14 3a3c eeb8 023f 1b2d 37be 5ff2 0cbf
00000360: 8935 06bd bc97 8c3d b904 873e 0097 3fbe
00000370: 5ed8 433e 673b 0d3e ba16 13bd 9188 61be
00000380: 02b5 04be aa83 4ebc cf23 a3be 084c 6ebc
00000390: 5196 843e b19a 39be a664 f6bd f4a6 fbbe
000003a0: 3e49 223d 5466 18be d4ae f7be 5204 733c
000003b0: ebb6 4a3e 3788 013f 41cb 723e cc6d 8ebe
000003c0: de25 e83e 66e1 29be e306 81be c6f8 a7bc
000003d0: 2647 81be 23f9 84bd 97d7 2abe 4144 9d3d
000003e0: fe71 26be 18b1 013d b351 c73e bce1 27be
000003f0: 3b79 5bbe 6011 1a3d 7b28 3d3f 831f 3ebd

policy_net.4.bias f4 [32]
-0.068786345 0.17230159 0.026537115 -0.21594867 0.019074174 -0.15839462 0.025605798 0.092302546
-0.14406683 0.04855289 0.2379544 -0.271406 -0.03934228 -0.022690002 0.23179181 0.039933015
0.11623074 -0.0075317216 0.034993634 -0.24334536 0.19368888 -0.023312133 -0.20090173 0.07230759
-0.08905155 -0.04555512 0.14848119 0.01716494 0.05310048 -0.18428658 0.008076362 0.18253522
00000000: dbdf 8cbd d46f 303e 5d64 d93c a621 5dbe
00000010: 7141 9c3c 3332 22be 40c3 d13c 1e09 bd3d
00000020: 4186 13be 65df 463d 51aa 733e baf5 8abe
00000030: 5f25 21bd 62e0 b9bc d55a 6d3e cd90 233d
00000040: 620a ee3d a9cc f6bb 7c55 0f3d 872f 79be
00000050: 6156 463e 16f9 bebc 2fb9 4dbe 0016 943d
00000060: a960 b6bd 0198 3abd 740b 183e 7d9d 8c3c
00000070: e47f 593d 9fb5 3cbe b852 043c 83ea 3a3e

value_net.0.weight f4 [32, 770]
-0.056698162 0.055054862 -0.09368383 0.07028287 0.072916925 0.01714778 -0.06928048 0.017492084
0.022201806 0.099780545 -0.068780504 0.010642722 -0.05417129 -0.009550013 0.07997006 0.03611609
0.079855844 -0.010603452 0.062465806 0.0013168956 -0.047723204 0.09932538 -0.014291482 0.0095669795
0.11926737 0.020444423 -0.003977351 -0.01700215 -0.071731 -0.015799774 0.028117394 -0.0221056
-0.024516264 0.01146397 0.17013927 -0.048935145 -0.13310076 -0.14674284 -0.010245659 0.047298018
-0.0819464 0.004078354 0.04542108 -0.012430701 -0.06621164 0.08530274 -0.0720573 -0.035364687
-0.05129592 0.08729863 0.10877929 0.07715342 0.068634614 0.0020258029 0.084475055 0.035557102
0.017949525 0.019844046 0.053533137 0.09694893 -0.038460407 -0.020465814 0.19108835 0.08400287
-0.007895992 -0.063937634 -0.066818364 0.0062047294 0.007922983 -0.081161045 -0.008106535 -0.11945683
-0.049064763 0.0353272 0.12926714 0.08105334 0.035238113 -0.034714937 -0.08989078 -0.015599677
0.009636846 -0.087185845 -0.14630921 -0.007886813 0.068201505 -0.061931986 -0.0838067 -0.14361854
0.011145948 0.11896465 -0.085406415 0.0015649061 -0.054127235 -0.02960019 -0.12537308 -0.011731969
-0.039135702 -0.006588899 0.04161025 0.025539786 0.02798979 0.014093984 -0.030714592 0.019803867
-0.1072621 -0.017017877 -0.017178074 0.11366276 0.16903849 0.02886954 0.010003064 -0.061572056
-0.047589198 -0.027036138 0.12072782 -0.0885096 -0.19738601 -0.06308414 0.09736156 -0.110277995
0.07391584 0.057216927 0.013869217 0.01708264 -0.07149065 -0.0023537222 -0.047877047 -0.060064986
0.036471155 0.03582464 0.019373445 0.08776156 0.08458449 0.14695959 0.12120829 -0.05317259
0.018635506 0.16104116 0.06751482 -0.12178867 -0.036119107 0.03745991 0.13823701 0.00078329083
0.018985381 -0.05678796 0.01797058 -0.08551633 0.005479048 0.022077268 0.013684049 0.044467676
-0.032988563 0.06189012 -0.18814401 0.033905376 0.015372101 -0.10362704 -0.040652044 -0.11224393
-0.051263466 0.057589244 0.1020556 -0.005339465 -0.06696925 0.019674003 -0.016089622 -0.09158626
0.05708653 0.08952176 0.20962688 -0.14172329 0.081416406 0.039137274 -0.056373622 -0.0494416
0.03807117 -0.096483946 -0.00052571716 -0.028317856 -0.09805774 0.054674137 -0.012320295 -0.008724603
0.112601854 -0.11140932 -0.01657169 0.040864423 -0.01525756 0.03434986 -0.023425309 0.02577633
-0.002489331 -0.017803198 -0.056302622 0.03206943 0.020534448 -0.012012131 -0.09973641 0.14543642
-0.046696357 0.06251693 -0.1248081 -0.043106094 -0.08918093 0.021853419 0.023682646 0.08414022
0.020147268 0.036026314 -0.053656396 0.05003689 0.033753842 0.13203587 -0.15562612 -0.004823524
-0.24157546 0.08972071 -0.019050792 0.05747349 0.10308502 0.054300904 0.019340932 -0.022597367
-0.13390256 -0.026463898 -0.029588636 0.038868926 0.1278727 0.11401937 -0.10379375 -0.016319107
0.030815626 -0.06932747 0.052767925 -0.07255216 0.08416626 0.047221836 0.0645636 0.01226741
0.011161734 -0.12586986 0.042279474 0.038694754 -0.08544506 -0.03459828 0.050845996 -0.024398943
-0.13397588 -0.031190876 0.051736183 0.06062893 -0.08154938 -0.039682962 -0.13912341 -0.07522198
00000000: 553c 68bd 3581 613d 4fdd bfbd 77f0 8f3d
00000010: 7855 953d 8079 8c3c ede2 8dbd 8f4b 8f3c
00000020: 90e0 b53c be59 cc3d cbdc 8cbd d05e 2e3c
00000030: b7e2 5dbd a877 1cbc 58c7 a33d 77ee 133d
00000040: 768b a33d 1aba 2dbc 25dc 7f3d af9b ac3a
00000050: 6879 43bd 1b6b cb3d d226 6abc d2be 1c3c
00000060: 7342 f43d 107b a73c 7054 82bb 1848 8bbc
00000070: b4e7 92bd 876e 81bc 7356 e63c ce16 b5bc
00000080: 55d6 c8bc 60d3 3b3c fd38 2e3e 3870 48bd
00000090: 914b 08be c143 16be 69dd 27bc 91bb 413d
000000a0: 84d3 a7bd b7a3 853b 740b 3a3d 24aa 4bbc
000000b0: f899 87bd 34b3 ae3d c792 93bd 90da 10bd
000000c0: ac1b 52bd a0c9 b23d adc7 de3d 9d02 9e3d
000000d0: 4e90 8c3d 55c3 043b 4201 ad3d 53a4 113d
000000e0: e20a 933c fb8f a23c 9045 5b3d 298d c63d
000000f0: a988 1dbd eca7 a7bc aaac 433e b209 ac3d
00000100: 315e 01bc bcf1 82bd 11d8 88bd 0b51 cb3b
00000110: 66cf 013c c337 a6bd 46d1 04bc c8a5 f4bd
00000120: 22f8 48bd 41b3 103d 9b5e 043e 4bff a53d
00000130: d755 103d 4031 0ebd a818 b8bd ca95 7fbc
00000140: dde3 1d3c 7e8e b2bd 15d2 15be b137 01bc
00000150: 3bad 8b3d 65ac 7dbd d9a2 abbd bd10 13be
00000160: 7f9d 363c bda3 f33d 8fe9 aebd 891d cd3a
00000170: 85b4 5dbd 197c f2bc cd61 00be 7237 40bc
00000180: c24c 20bd b1e7 d7bb 826f 2a3d d038 d13c
00000190: d84a e53c 74ea 663c 2b9d fbbc b83b a23c
000001a0: 3bac dbbd 1369 8bbc 08b9 8cbc 05c8 e83d
000001b0: 6d18 2d3e d07f ec3c e4e3 233c fb32 7cbd
000001c0: e4ec 42bd e47a ddbc 2640 f73d 8544 b5bd
000001d0: 8f1f 4abe 4232 81bd 7f65 c73d 6ed9 e1bd
000001e0: 3061 973d 4c5c 6a3d b63b 633c e5f0 8b3c
000001f0: b169 92bd e840 1abb b91a 44bd b406 76bd
00000200: c762 153d dcbc 123d 0fb5 9e3c 55bc b33d
00000210: a23a ad3d 937c 163e 0d3c f83d 80cb 59bd
00000220: 7da9 983c f9e7 243e 3645 8a3d 576c f9bd
00000230: a1f1 13bd 906f 193d 018e 0d3e c255 4d3a
00000240: 3b87 9b3c 7e9a 68bd 0a37 933c 3023 afbd
00000250: 9689 b33b 63db b43c 1033 603c bd23 363d
00000260: 041f 07bd 7f80 7d3d d3a8 40be 5de0 0a3d
00000270: 44db 7b3c 6a3a d4bd c282 26bd 25e0 e5bd
00000280: a4f9 51bd b3e2 6b3d 8702 d13d aef6 aebb
00000290: 2d27 89bd 602b a13c 62ce 83bc 9491 bbbd
000002a0: 91d3 693d 2f57 b73d 6ea8 563e e91f 11be
000002b0: a5bd a63d 684e 203d 07e8 66bd 4683 4abd
000002c0: 84f0 1b3d 6099 c5bd 48d0 09ba d9fa e7bc
000002d0: 7fd2 c8bd fdf1 5f3d 10db 49bc a3f1 0ebc
000002e0: cd9b e63d 922a e4bd 5ac1 87bc 7461 273d
000002f0: d8fa 79bc 70b2 0c3d 6fe6 bfbc e228 d33c
00000300: 0b24 23bb 03d8 91bc 949d 66bd 3c5b 033d
00000310: dc37 a83c 87ce 44bc 9a42 ccbd 49ed 143e
00000320: ae44 3fbd e008 803d 649b ffbd 0490 30bd
00000330: 7ea4 b6bd f105 b33c 1c02 c23c b551 ac3d
00000340: e20b a53c 5490 133d cfc6 5bbd 7bf3 4c3d
00000350: 7841 0a3d 6934 073e 745c 1fbe a70e 9ebb
00000360: 8f5f 77be 7ebf b73d 6810 9cbc 5269 6b3d
00000370: 3d1e d33d a06a 5e3d e070 9e3c 1d1e b9bc
00000380: c11d 09be d1ca d8bc de63 f2bc 0635 1f3d
00000390: 10f1 023e fd82 e93d d191 d4bd a6af 85bc
000003a0: 0d71 fc3c 90fb 8dbd 2e23 583d 3a96 94bd
000003b0: 5c5f ac3d af6b 413d ec39 843d 3ffd 483c
000003c0: b5df 363c 07e4 00be 3e2d 2d3d 647e 1e3d
000003d0: d2fd aebd edb6 0dbd e443 503d 4be0 c7bc
000003e0: f930 09be 0284 ffbc 52e9 533d 0a56 783d
000003f0: 5d03 a7bd 9a8a 22bd 5e76 0ebe fb0d 9abd

value_net.0.bias f4 [32]
0.0012051513 0.015295514 0.0378087 0.048911374 0.04138279 0.0009270194 -0.053963114 -0.050470706
-0.040507343 0.025093665 -0.046093825 -0.046268098 0.02822246 -0.026137501 0.053409886 -0.005579589
-0.021959865 -0.00010222631 0.02173598 0.05788929 0.047262847 -0.0077255224 0.0066487864 -0.043002184
-0.05237918 0.001602974 0.016114026 -0.03411311 0.014862531 0.02174693 0.01753885 0.022958761
00000000: 2bf6 9d3a 099a 7a3c 4cdd 1a3d 4b57 483d
00000010: 0081 293d 3803 733a 6d08 5dbd 5fba 4ebd
00000020: 07eb 25bd 3b91 cd3c e1cc 3cbd 9e83 3dbd
00000030: ca32 e73c 501e d6bc 53c4 5a3d fcd4 b6bb
00000040: 2de5 b3bc 5562 d6b8 a70f b23c 521d 6d3d
00000050: b096 413d 6126 fdbb 10de d93b 0f23 30bd
00000060: 8d8b 56bd e21a d23a 9001 843c 30ba 0bbd
00000070: f981 733c 9e26 b23c a2ad 8f3c 0314 bc3c

value_net.2.weight f4 [32, 32]
-0.3821323 -0.15828837 0.23312932 0.6805684 0.3641263 0.2557316 -0.21987748 0.03094216
-0.14315051 -0.111345865 -0.2197464 -0.28058162 -0.18036911 -0.018512331 0.46715754 0.34799534
0.09340198 -0.14127997 -0.4330669 -0.20824866 0.507946 -0.06732439 -0.15067185 -0.053831145
0.34626907 0.032873485 0.37194717 0.23595463 0.030917056 -0.19037502 0.23358203 -0.086851865
-0.34490454 -0.35170233 -0.26811704 0.05816444 0.18437317 0.09465631 0.2859247 0.039010733
0.3846593 0.06402451 0.113268204 0.16876812 0.52313155 -0.0656449 -0.06457991 -0.12164846
0.344969 -0.047478035 0.30106512 -0.12649325 0.1538796 0.08680229 -0.011933454 0.06453695
0.31478035 0.3061182 -0.05214862 -0.6602227 -0.24618751 -0.23049855 0.121523105 -0.32120657
0.3970268 0.333935 0.2882616 0.0037929965 -0.13622269 -0.22976503 -0.007577592 -0.16446128
0.009551625 -0.3026874 -0.258783 -0.5298671 0.27987564 -0.18234193 0.42424586 -0.108776994
0.3109987 0.24022035 0.32772383 -0.18244936 0.07509762 0.43924013 -0.041398946 -0.1419279
0.4553331 -0.36771518 0.041965064 0.07356912 0.16186821 -0.23787847 -0.22988005 0.5318536
0.2417361 0.14719999 -0.32409725 0.04844963 0.20743112 0.37215623 0.00607008 0.21740966
0.42563543 -0.15198433 -0.33391854 0.15559006 -0.07095349 -0.5391464 -0.13768688 -0.0009871031
-0.08997068 0.20597984 -0.3028367 0.22689924 -0.023939077 0.2261627 0.2516061 0.61901706
-0.31162652 -0.17238712 -0.14794527 -0.07020498 -0.15476051 0.10267015 -0.33580482 -0.40234113
0.12033508 -0.030877361 -0.29126784 0.3123076 -0.46111324 0.33237118 0.34168226 -0.33481893
0.006230998 -0.38903037 0.16483848 0.11246214 0.015733415 -0.29806447 0.07403679 -0.11864486
-0.27204973 0.06338905 0.059818253 0.50677973 0.16201067 0.05669691 0.06595953 -0.25081936
-0.06403075 0.4045665 0.5573192 -0.06392847 -0.15804254 0.15913136 0.22490995 0.20303647
0.094620205 0.09566757 0.31228545 0.45588848 -0.12466946 -0.11040333 -0.010526996 0.12816517
0.017867824 -0.042019125 0.05627453 0.4131185 0.08024707 0.33954453 -0.62139016 0.29511276
-0.05041462 0.309669 -0.36588874 0.29524213 -0.03616429 0.30937487 0.10274823 -0.5202256
0.11239632 -0.13088402 -0.033331104 -0.39519858 -0.02130958 -0.46571028 -0.0077095535 -0.032080185
0.22822121 -0.07511533 0.19642948 -0.24018909 0.14502831 -0.15430306 0.17783977 -0.08036592
0.29337963 0.016396156 -0.08997917 -0.40198207 -0.23458545 -0.15876766 -0.17432679 0.13487473
0.16714735 -0.23920481 -0.28899774 -0.3516671 -0.40847245 0.21389934 0.28292325 -0.4302137
-0.24545884 0.2956309 0.27771765 -0.25824675 0.10471017 0.06193062 0.21871889 -0.54538316
-0.61106575 0.27506575 0.046292152 0.2701759 -0.22066996 0.2918443 0.37391207 -0.18766485
-0.05296692 0.4463321 -0.8238934 0.19835815 -0.025610404 -0.0712654 0.061286613 0.14244738
0.15335377 -0.2880945 0.16654779 0.025111128 -0.15467438 0.055008363 0.36650455 -0.24948783
-0.38544983 -0.060803227 -0.22356308 0.0125843305 -0.23016289 0.08620023 0.04179732 0.29054502
00000000: d8a6 c3be 5916 22be 74b9 6e3e bb39 2e3f
00000010: c36e ba3e 41ef 823e 9027 61be 6a7a fd3c
00000020: 0c96 12be 4d09 e4bd 3305 61be 65a8 8fbe
00000030: aeb2 38be 2ca7 97bc 462f ef3e 722c b23e
00000040: 8a49 bf3d b2ab 10be f2ba ddbe 233f 55be
00000050: c008 023f 5fe1 89bd b949 1abe 0c7e 5cbd
00000060: 2e4a b13e 59a6 063d dc6f be3e 179e 713e
00000070: c445 fd3c abf1 42be 2130 6f3e 64df b1bd
00000080: 5497 b0be 5412 b4be a346 89be d63d 6e3d
00000090: 52cc 3c3e 2bdb c13d b964 923e b8c9 1f3d
000000a0: 10f2 c43e 481f 833d 29f9 e73d 8dd1 2c3e
000000b0: f3eb 053f d570 86bd 7942 84bd d422 f9bd
000000c0: c79f b03e 5478 42bd 3525 9a3e 7287 01be
000000d0: 9d92 1d3e 66c5 b13d 8984 43bc f32b 843d
000000e0: e42a a13e 86bb 9c3e cb99 55bd 5b04 29bf
000000f0: 9418 7cbe d007 6cbe 1be1 f83d 3075 a4be
00000100: 1947 cb3e 87f9 aa3e 0697 933e ec93 783b
00000110: f67d 0bbe 8647 6bbe 734d f8bb 8a68 28be
00000120: 6b7e 1c3c d8f9 9abe 357f 84be 5fa5 07bf
00000130: dc4b 8f3e d8b7 3abe c136 d93e 79c6 debd
00000140: 393b 9f3e 53fc 753e 6bcb a73e 01d4 3abe
00000150: c8cc 993d 15e4 e03e f191 29bd 8c55 11be
00000160: 6c21 e93e 2a45 bcbe 8fe3 2b3d 68ab 963d
00000170: c8c0 253e 6a96 73be ad65 6bbe 8f27 083f
00000180: ab89 773e 98bb 163e 13f0 a5be 1f73 463d
00000190: d368 543e 438b be3e 86e7 c63b a3a0 5e3e
000001a0: e3ec d93e c8a1 1bbe 5ff7 aabe 0053 1f3e
000001b0: 1050 91bd 8005 0abf cafd 0cbe af61 81ba
000001c0: 8c42 b8bd 61ec 523e 690d 9bbe 4658 683e
000001d0: e21b c4bc 3297 673e 84d2 803e e777 1e3f
000001e0: 838d 9fbe 4086 30be f77e 17be a1c7 8fbd
000001f0: 8a79 1ebe ba44 d23d 9cee abbe a8ff cdbe
00000200: 3d72 f63d 85f2 fcbc 0f21 95be c8e6 9f3e
00000210: 0917 ecbe 8e2c aa3e faf0 ae3e 636d abbe
00000220: 662d cc3b fd2e c7be 6bcb 283e 8d52 e63d
00000230: 5de3 803c e89b 98be 9aa0 973d 14fc f2bd
00000240: 1a4a 8bbe 1ed2 813d fc03 753d 51bc 013f
00000250: 20e6 253e 053b 683d ca15 873d 656b 80be
00000260: 8e22 83bd 5723 cf3e 79ac 0e3f eeec 82bd
00000270: e7d5 21be 55f3 223e cb4e 663e cbe8 4f3e
00000280: 3dc8 c13d 5ced c33d e1e3 9f3e 376a e93e
00000290: b452 ffbd 241b e2bd 6c79 2cbc bb3d 033e
000002a0: 8b5f 923c 3f1c 2cbd 1f80 663d 4584 d33e
000002b0: 9358 a43d c8d8 ad3e 6d13 1fbf 0519 973e
000002c0: 907f 4ebd ef8c 9e3e c555 bbbe fa29 973e
000002d0: 0221 14bd 6266 9e3e aa6d d23d 812d 05bf
000002e0: 0b30 e63d 7606 06be 3286 08bd 7857 cabe
000002f0: 6e91 aebc 9471 eebe 6ca0 fcbb 8366 03bd
00000300: d2b2 693e 11d6 99bd cf24 493e 21f4 75be
00000310: 4d82 143e 9f01 1ebe a11b 363e e396 a4bd
00000320: db35 963e 3b51 863c 0047 b8bd 98d0 cdbe
00000330: 2b37 70be fd93 22be b982 32be 9a1c 0a3e
00000340: ad28 2b3e 1bf2 74be 83f7 93be b60d b4be
00000350: 4d23 d1be 6e08 5b3e 51db 903e f844 dcbe
00000360: 9059 7bbe ef5c 973e 0231 8e3e eb38 84be
00000370: 4972 d63d f6aa 7d3d d8f7 5f3e 3b9e 0bbf
00000380: ce6e 1cbf 6bd5 8c3e d79c 3d3d 7f54 8a3e
00000390: 4ef7 61be 9e6c 953e 6771 bf3e 372b 40be
000003a0: d7f3 58bd a485 e43e aeea 52bf 661e 4b3e
000003b0: e9cc d1bc 98f3 91bd ac07 7b3d badd 113e
000003c0: c508 1d3e 1f81 93be 818b 2a3e dab5 cd3c
000003d0: f662 1ebe 7350 613d 7ca6 bb3e bd79 7fbe
000003e0: ae59 c5be ce0c 79bd b8ed 64be 822e 4e3c
000003f0: d2af 6bbe bf89 b03d ab33 2b3d 51c2 943e

value_net.2.bias f4 [32]
0.091457665 -0.031997122 0.06455209 -0.071879804 -0.024283247 -0.034624457 -0.030114047 0.008262925
0.06297056 0.05219401 -0.047695514 -0.12270362 0.13639747 0.005371775 0.036612537 -0.10325117
-0.005687343 0.09238137 -0.018975139 0.05176125 -0.064541645 -0.014178722 0.029059654 -0.004165819
-0.100128755 0.0047080186 0.025426926 0.048747268 -0.008864612 -0.059366994 0.04441628 -0.032889586
00000000: 284e bb3d 6a0f 03bd e333 843d b835 93bd
00000010: a9ed c6bc 60d2 0dbd bcb1 f6bc 3861 073c
00000020: b5f6 803d 63c9 553d 5f5c 43bd 094c fbbd
00000030: c7ab 0b3e b705 b03b 07f7 153d 5975 d3bd
00000040: e45c babb 7232 bd3d c071 9bbc 9b03 543d
00000050: 692e 84bd df4d 68bc 830e ee3c 6c81 88bb
00000060: 4e10 cdbd b945 9a3b 214c d03c 37ab 473d
00000070: e13c 11bc ce2a 73bd d8ed 353d 3bb7 06bd

value_net.4.weight f4 [32, 32]
-0.15019603 0.16907927 0.24087754 -0.08174266 -0.6428715 0.40520248 0.16869916 0.15066406
0.31546557 -0.57419926 0.104619615 -0.48102328 -0.03124138 0.44335887 0.075300924 -0.04267573
0.13504978 0.42760396 0.08664144 0.27485293 0.024556225 -0.27702847 -0.119768575 -0.032004863
-0.089266315 0.02288274 0.10781039 -0.049071506 0.05512396 0.29709917 -0.1316112 -0.34149384
0.115167886 0.3769403 -0.1237857 0.03440177 0.02242138 0.088841625 0.11860272 -0.09331103
0.0361009 0.53921646 -0.13070069 -0.21468142 0.1664345 -0.09017534 -0.063882045 0.07977339
0.42405412 -0.053591512 0.26518345 0.34794244 -0.40113968 0.050774053 -0.30689397 0.4931091
0.4507657 0.5896849 -0.17344822 -0.34098533 -0.12197222 0.29395625 0.24839045 0.0049364544
-0.34356314 0.259257 0.07897801 0.007782702 0.5174317 -0.0004105444 0.11602035 0.016837554
-0.06642884 -0.5657703 -0.06254576 0.2921144 0.009655769 0.046708744 -0.19732787 0.51142895
0.19526449 -0.38797426 0.23274566 0.117063046 0.13628046 -0.40314928 0.122852705 0.2555667
0.08606673 -0.17975728 0.4054434 -0.23582403 -0.070245825 0.3583233 0.018277962 0.36513457
0.12698546 0.46096426 -0.12502728 -0.2831964 -0.22082387 0.110090464 -0.05254009 -0.016810387
0.33476666 -0.33167893 -0.22785187 0.02559058 -0.13644738 -0.18476279 -0.37629694 -0.108311035
0.051500034 -0.2936125 0.041357588 0.09110911 0.029075861 0.16015656 -0.6182729 -0.11922132
0.03361204 -0.11155789 0.25953832 -0.07638679 -0.29549146 -0.4435509 -0.30421415 0.2330046
0.30427545 0.16556667 0.29290134 0.09185926 -0.3319897 -0.5714088 0.23338851 0.3253533
0.05364866 -0.32720876 0.18283597 0.29941306 -0.22041507 0.09817769 0.10300855 -0.13000628
-0.079920866 -0.2811443 0.12740429 -0.175471 0.29923588 -0.03897139 0.33769223 0.084544145
0.43096858 0.11104904 0.33284327 -0.34941903 0.17378569 -0.38368508 -0.27186564 -0.6231775
0.4333427 -0.026423672 0.12962231 -0.29659075 -0.20130394 0.5681916 -0.24988487 -0.029784275
-0.26992744 -0.11393431 -0.2164274 0.31329286 -0.27527392 0.40619177 -0.2546867 0.16620779
-0.31367582 0.18804486 0.621005 0.21577816 -0.29964435 0.17949355 0.08638385 -0.048257668
-0.16027427 0.20824394 -0.029678663 -0.124312475 0.56581914 -0.26517266 0.24106254 0.06318797
-0.5089473 0.2267453 -0.66448075 0.11089641 -0.24654055 -0.015902739 -0.4236036 0.051031716
0.055461943 -0.06400396 0.055417057 -0.019320093 -0.08351158 -0.06639284 -0.021501949 -0.1265665
-0.05630965 0.4039545 0.2114518 -0.25546822 0.17058972 -0.14132172 0.58504045 0.15097408
0.43361163 -0.006481339 0.20349334 -0.11639968 -0.09225729 -0.21098532 0.006431755 0.28576505
0.4751351 -0.27919352 0.17588115 -0.029911624 0.18090177 0.414674 0.3473556 -0.22426395
0.26265827 -0.16651447 0.12859043 -0.5695839 0.3521343 -0.18714346 0.46437138 -0.1601131
-0.2848039 0.15426515 -0.106234 0.012068119 -0.022249965 0.14749633 -0.08673917 -0.0827614
0.34861562 0.049622953 0.005116978 -0.2569434 0.1746182 -0.39090276 0.27572554 0.37322187
00000000: fdcc 19be 1e23 2d3e 9aa8 763e b268 a7bd
00000010: 3a93 24bf b376 cf3e 79bf 2c3e ae47 1a3e
00000020: b484 a13e b9fe 12bf cf42 d63d af48 f6be
00000030: eced ffbc efff e23e 5f37 9a3d bfcc 2ebd
00000040: 7d4a 0a3e e8ee da3e 1171 b13d 86b9 8c3e
00000050: 232a c93c add6 8dbe 3a49 f5bd 8817 03bd
00000060: 42d1 b6bd 9574 bb3c b2cb dc3d 34ff 48bd
00000070: a9c9 613d 621d 983e 16c5 06be 48d8 aebe
00000080: 24dd eb3d 52fe c03e 5b83 fdbd dfe8 0c3d
00000090: 0bad b73c 99f2 b53d fce5 f23d da19 bfbd
000000a0: 8ade 133d 170a 0a3f 67d6 05be 72d5 5bbe
000000b0: ce6d 2a3e d9ad b8bd 97d4 82bd 3b60 a33d
000000c0: 9f1d d93e c682 5bbd 20c6 873e 8325 b23e
000000d0: 2e62 cdbe 74f8 4f3d 3521 9dbe cc78 fc3e
000000e0: c3ca e63e 97f5 163f 699c 31be a195 aebe
000000f0: 92cc f9bd 6f81 963e 115a 7e3e fbc1 a13b
00000100: 82e7 afbe 55bd 843e 39bf a13d 0906 ff3b
00000110: 6776 043f 563e d7b9 149c ed3d e9ee 893c
00000120: d80b 88bd 53d6 10bf fe17 80bd 0590 953e
00000130: 3b33 1e3c ab51 3f3d 5110 4abe 02ed 023f
00000140: 6af3 473e 90a4 c6be e154 6e3e c0be ef3d
00000150: 1b8d 0b3e 9569 cebe 339a fb3d a3d9 823e
00000160: c143 b03d 4b12 38be 4796 cf3e db7b 71be
00000170: 0bdd 8fbd 2776 b73e aabb 953c ebf2 ba3e
00000180: 7a08 023e 8203 ec3e 2707 00be 1eff 90be
00000190: a71f 62be 1c77 e13d 4734 57bd f0b5 89bc
000001a0: 8966 ab3e d2d1 a9be 0052 69be 56a3 d13c
000001b0: ddb8 0bbe 7532 3dbe fea9 c0be 2dd2 ddbd
000001c0: b3f1 523d 6154 96be 9366 293d 6a97 ba3d
000001d0: 8030 ee3c 1500 243e 2247 1ebf 4f2a f4bd
000001e0: c7ac 093d 7778 e4bd 35e2 843e ad70 9cbd
000001f0: a84a 97be 1b19 e3be f5c1 9bbe c298 6e3e
00000200: fec9 9b3e 4f8a 293e 2af7 953e b520 bc3d
00000210: 8efa a9be d947 12bf 66fd 6e3e b594 a63e
00000220: b3be 5b3d e887 a7be 5a39 3b3e ab4c 993e
00000230: 7db4 61be 6211 c93d 26f6 d23d 5e20 05be
00000240: 8dad a3bd 25f2 8fbe 4576 023e abae 33be
00000250: 7235 993e 77a0 1fbd ffe5 ac3e 7b25 ad3d
00000260: eaa7 dc3e ae6d e33d 6f6a aa3e 0de7 b2be
00000270: e0f4 313e 5f72 c4be f931 8bbe 9088 1fbf
00000280: 18df dd3e 7576 d8bc b6bb 043e beda 97be
00000290: 9f22 4ebe 0175 113f d2e1 7fbe 27fe f3bc
000002a0: ee33 8abe 6456 e9bd 259f 5dbe ec67 a03e
000002b0: b4f0 8cbe 5ef8 cf3e 4c66 82be 6032 2a3e
000002c0: 1e9a a0be d58e 403e 2ffa 1e3f f3f4 5c3e
000002d0: fc6a 99be 28cd 373e 04ea b03d d5a9 45bd
000002e0: f01e 24be e63d 553e ab20 f3bc 8a97 febd
000002f0: 86d9 103f b6c4 87be 19d9 763e b268 813d
00000300: 5f4a 02bf ec2f 683e 691b 2abf a81d e33d
00000310: 2075 7cbe 7646 82bc 92e2 d8be a206 513d
00000320: 102c 633d 8214 83bd fffc 623d 2c45 9ebc
00000330: 1f08 abbd f8f8 87bd db24 b0bc a69a 01be
00000340: f3a4 66bd 20d3 ce3e d286 583e bbcc 82be
00000350: 12af 2e3e a4b6 10be 36c5 153f f398 1a3e
00000360: 5802 de3e 6a61 d4bb 8f60 503e f562 eebd
00000370: 64f1 bcbd 890c 58be 79c1 d23b cc4f 923e
00000380: e844 f33e 74f2 8ebe 301a 343e 3909 f5bc
00000390: 503e 393e 2750 d43e 98d8 b13e 73a5 65be
000003a0: 257b 863e c582 2abe 36ad 033e 40d0 11bf
000003b0: f24a b43e 89a2 3fbe 16c2 ed3e b0f4 23be
000003c0: d1d1 91be aff7 1d3e 3691 d9bd 5cb9 453c
000003d0: 8f45 b6bc 4709 173e 4ea4 b1bd cf7e a9bd
000003e0: bf7d b23e 7041 4b3d 53ac a73b 168e 83be
000003f0: 1dcf 323e 6824 c8be e62b 8d3e f016 bf3e

value_net.4.bias f4 [32]
0.019989349 0.0028172492 -0.10059709 -0.02979305 -0.021711929 0.016501913 -0.075908475 0.108623765
0.041693635 0.06660059 -0.114234515 -0.047888584 -0.002012835 -0.0073011806 0.075327754 -0.028106598
0.108219095 0.019618373 0.024546921 -0.11926852 0.020447878 -0.0656334 -0.03189496 0.002072666
-0.022465112 0.07293258 0.07264232 -0.023806155 -0.014028056 0.14602605 -0.03708783 0.060033258
00000000: b4c0 a33c 99a1 383b d905 cebd 8e10 f4bc
00000010: 37dd b1bc 052f 873c e775 9bbd 2376 de3d
00000020: f2c6 2a3d e465 883d c9f3 e9bd d226 44bd
00000030: c4e9 03bb be3e efbb 7045 9a3d cf3f e6bc
00000040: f9a1 dd3d b6b6 a03c a016 c93c 0e43 f4bd
00000050: 4f82 a73c ce6a 86bd 4aa4 02bd 91d5 073b
00000060: c108 b8bc ad5d 953d 7fc5 943d 2005 c3bc
00000070: eed5 65bc da87 153e 69e9 17bd 6fe5 753d

value_net.6.weight f4 [1, 32]
-0.11466869 -0.09427662 0.2031002 -0.00059767195 0.07950115 0.32923332 0.09223247 -0.1634407
0.00012597714 -0.12953006 0.3232933 0.029385138 0.104737006 0.011304957 0.29907927 0.14364359
-0.2972373 0.0051249014 0.0034319311 0.17455319 -0.052855484 0.21697617 0.0006580261 0.0030837066
-0.005958288 -0.18098816 -0.13426968 0.0049187504 0.1981116 -0.20005044 -0.2770345 -0.16716284
00000000: 6bd7 eabd 1a14 c1bd 80f9 4f3e 16ad 1cba
00000010: 80d1 a23d 4591 a83e 61e4 bc3d 005d 27be
00000020: bb18 0439 87a3 04be b386 a53e 1ab9 f03c
00000030: 5b80 d63d 6d38 393c eb20 993e 4e17 133e
00000040: 7d2f 98be caee a73b 40ea 603b 12be 323e
00000050: fe7e 58bd 002f 5e3e 627f 2c3a 0318 4a3b
00000060: be3d c3bb f654 39be fe7d 09be 782d a13b
00000070: c4dd 4a3e 06da 4cbe 77d7 8dbe bc2c 2bbe

charge_net.0.weight f4 [21, 32]
-0.34245548 0.33407196 -0.5179126 -0.35662848 -0.57289 -0.36093614 0.3291352 0.32888338
-0.31874698 0.33602312 0.35658503 -0.35793173 -0.45309365 -0.024974097 0.3569434 0.3398835
0.30689517 0.49066377 0.36247212 -0.36311805 0.29843897 -0.33859417 -0.35638624 0.092316784
-0.21166933 -0.069629595 0.35415632 0.3363311 -0.51820064 -0.35766286 0.3421371 0.35814628
-6.463184e-05 0.00017592244 0.0005633042 0.0011850987 0.0013371926 0.0024405415 -0.000895343 0.0014733635
-0.0003783483 0.00022830704 0.001186365 -0.0013152834 -0.00048063963 0.0015467216 -8.578775e-05 -0.0036213058
2.3292174e-05 -0.0024599368 0.003630162 0.00044668492 0.0011146268 -0.00345955 -0.000114007904 -0.0028501481
-0.0012102897 0.0011544815 -0.0036097576 -0.0019562342 -0.00012565317 -0.0017498271 0.0017058919 0.0014247173
-0.0022624447 0.0006940419 -0.001586161 -0.00048063594 -0.0012967677 -0.0025189635 0.003084146 -0.00022107865
0.00033524472 0.0028710577 -0.00029613829 -0.00035720266 0.0033059304 -0.0013283661 -0.0027563905 -0.0011974506
-0.000964767 -0.0010141868 -0.0009264015 0.00072906417 -0.0011676202 0.00016123103 0.00034988 -0.0011739659
0.0032194443 -0.00080226 -0.0013186535 0.0015781528 0.000349393 -0.0031498175 0.003253644 0.0012894215
-0.0013763249 0.0010339266 0.001401186 0.0010439456 0.000325084 0.0017322834 -0.0024618653 -0.000677214
0.000899736 0.001296258 0.0010627095 0.003684456 -0.00062792905 -0.0035173567 -6.214569e-05 0.0024131662
0.0012736901 0.0010954064 -0.0014230259 4.7296257e-05 -0.0007823976 -0.0001756581 -0.0018174195 -0.0020438284
0.0012068334 0.0008222472 -0.0006063798 -0.0028097057 -0.0034991722 -0.0032307038 0.00020709125 -0.0015741992
-0.0033355777 -0.00025317597 0.0012626548 -0.0020973287 -0.0024782503 0.0027658811 0.0025665476 0.0005416527
-0.0005850912 -0.0015784827 0.0005782293 6.0327227e-05 -0.0019149871 0.0005010878 0.0040364796 0.00020755318
-0.0018100123 0.0028269992 0.0005563179 0.0022987898 -0.0013193507 -0.0014545686 -0.000835773 -0.0019349497
0.00084489334 0.00010374156 0.0006918248 0.0020126998 0.0019866307 -0.0009821537 0.0009008255 -0.001606203
-0.07050727 0.06891055 -0.058994427 -0.0725554 -0.055278428 -0.06879949 0.066353045 0.066922374
-0.066492364 0.06672601 0.06707194 -0.06697047 -0.062395878 -0.06452827 0.06869077 0.06902093
0.07012055 0.056333113 0.06826531 -0.06786778 0.071391515 -0.06804821 -0.068441875 0.067628965
-0.069287285 -0.06729103 0.06671238 0.07049924 -0.06034124 -0.06906088 0.06936524 0.06749878
0.011684284 -0.007549313 -0.038388897 0.00993871 -0.043732356 0.01060162 -0.009610778 -0.013257775
0.0101151 -0.012143748 -0.008270248 0.011345787 -0.011152022 0.010244431 -0.0110495435 -0.013284357
-0.006967802 0.04370692 -0.014388789 0.010403676 -0.014623252 0.010833109 0.011921357 -0.011574757
0.009470496 0.009969612 -0.01165795 -0.012658571 -0.035911977 0.010194186 -0.011293851 -0.009525561
-0.03394293 0.034103148 -0.10361251 -0.032648157 -0.11361265 -0.032139134 0.032579545 0.036672227
-0.03129576 0.033836935 0.034133848 -0.032264948 -0.0833674 -0.024092034 0.03189661 0.033611316
0.03651212 0.10284384 0.037258122 -0.03829063 0.044388894 -0.03343568 -0.030232793 0.024144655
-0.02605271 -0.02819943 0.031702887 0.034826927 -0.10763242 -0.033143673 0.033311054 0.031177843
00000000: 5356 afbe 7b0b ab3e ec95 04bf 0298 b6be
00000010: eba8 12bf 9fcc b8be 6984 a83e 6763 a83e
00000020: ce32 a3be 390b ac3e 5092 b63e d442 b7be
00000030: e4fb e7be 7a96 ccbc 49c1 b63e 3605 ae3e
00000040: 5d21 9d3e 4838 fb3e f295 b93e 9cea b9be
00000050: fecc 983e 375c adbe 4278 b6be 9510 bd3d
00000060: d8bf 58be f699 8ebd fa53 b53e 9733 ac3e
00000070: cca8 04bf 961f b7be 982c af3e f35e b73e
00000080: f48a 87b8 d277 3839 b4aa 133a 5055 9b3a
00000090: bd44 af3a 7ef1 1f3b 74b5 6aba e01d c13a
000000a0: 0d5d c6b9 b465 6f39 ce7f 9b3a 9665 acba
000000b0: 5cfe fbb9 5dbb ca3a f3e8 b3b8 6e53 6dbb
000000c0: 9063 c337 e436 21bb 03e8 6d3b 0931 ea39
000000d0: ab18 923a 9eb9 62bb 8717 efb8 8dc9 3abb
000000e0: 95a2 9eba f951 973a af91 6cbb 2a34 00bb
000000f0: c4c1 03b9 745a e5ba 3c98 df3a 94bd ba3a
00000100: 8645 14bb 5df0 353a bbe6 cfba ddfd fbb9
00000110: 4ef8 a9ba 3215 25bb 621f 4a3b 59d1 67b9
00000120: c9c3 af39 5b28 3c3b 0243 9bb9 ee46 bbb9
00000130: 4fa8 583b 921c aeba 8fa4 34bb c6f3 9cba
00000140: 6be8 7cba 76ee 84ba c1d9 72ba ab1e 3f3a
00000150: d50a 99ba 2010 2939 1970 b739 c2df 99ba
00000160: 50fd 523b c24e 52ba abd6 acba 05da ce3a
00000170: bc2e b739 2b6d 4ebb 173b 553b ce01 a93a
00000180: cd65 b4ba d284 873a 00a8 b73a 00d5 883a
00000190: 0970 aa39 c90d e33a 3f57 21bb 1087 31ba
000001a0: 43dc 6b3a 33e7 a93a 9d4a 8b3a ea76 713b
000001b0: 9b9b 24ba 7483 66bb 3754 82b8 3626 1e3b
000001c0: f3f1 a63a bd93 8f3a d384 baba f85f 4638
000001d0: d019 4dba dd30 38b9 7b36 eeba c0f1 05bb
000001e0: 9c2e 9e3a 138c 573a 76f5 1eba 0a23 38bb
000001f0: 5e52 65bb 37ba 53bb a226 5939 5c55 ceba
00000200: b599 5abb b4bc 84b9 aa7f a53a 5673 09bb
00000210: 246a 22bb c943 353b 8633 283b b3fd 0d3a
00000220: ce60 19ba 17e5 ceba 5094 173a de07 7d38
00000230: 4e00 fbba 6f5b 033a 7244 843b a2a2 5939
00000240: ef3d edba 2d45 393b ddd5 113a 4ba7 163b
00000250: 10ee acba 39a7 beba c717 5bba 239e fdba
00000260: d57b 5d3a d38f d938 945b 353a 80e7 033b
00000270: 2232 023b 9cbb 80ba 6025 6c3a 3b87 d2ba
00000280: 1e66 90bd f920 8d3d 24a4 71bd ed97 94bd
00000290: a26b 62bd bfe6 8cbd 1be4 873d 990e 893d
000002a0: 262d 88bd a5a7 883d 035d 893d d027 89bd
000002b0: d292 7fbd 6627 84bd bfad 8c3d d85a 8d3d
000002c0: 5d9b 8f3d 8dbd 663d afce 8b3d 43fe 8abd
000002d0: b735 923d dc5c 8bbd 412b 8cbd 0e81 8a3d
000002e0: 7ee6 8dbd e1cf 89bd 80a0 883d e861 903d
000002f0: 6028 77bd ca6f 8dbd 5d0f 8e3d cd3c 8a3d
00000300: 706f 3f3c 3a60 f7bb ad3d 1dbd f9d5 223c
00000310: b320 33bd 6bb2 2d3c 8676 1dbc 2437 59bc
00000320: ceb9 253c 92f6 46bc ef7f 07bc aee3 393c
00000330: f8b6 36bc 42d8 273c 2509 35bc a2a6 59bc
00000340: 2952 e4bb 0706 333d f5be 6bbc 2e74 2a3c
00000350: 5d96 6fbc 5a7d 313c cc51 433c 0da4 3dbc
00000360: 242a 1b3c 9557 233c fc00 3fbc e565 4fbc
00000370: 7018 13bd 8405 273c d809 39bc 1911 1cbc
00000380: be07 0bbd beaf 0b3d cc32 d4bd 13ba 05bd
00000390: c0ad e8bd 53a4 03bd 2172 053d 9e35 163d
000003a0: fc2f 00bd 9998 0a3d efcf 0b3d 4028 04bd
000003b0: 87bc aabd a85c c5bc 05a6 023d 05ac 093d
000003c0: bc8d 153d cb9f d23d f99b 183d a3d6 1cbd
000003d0: 21d1 353d daf3 08bd c3aa f7bc 03cb c53c
000003e0: 7e6c d5bc 7e02 e7bc e3da 013d aea6 0e3d
000003f0: 636e dcbd a9c1 07bd 2c71 083d ad68 ff3c

charge_net.0.bias f4 [21]
0.35164255 0.0 0.0 0.0 0.0 0.06804889 -0.011077652 0.032220867
-0.040496722 0.31252164 0.06440628 -0.024942346 0.0060728295 0.028182741 -0.048533242 0.06584639
-0.026577244 -0.12353526 -0.011985333 -0.06416197 -0.05951223
00000000: 7e0a b43e 0000 0000 0000 0000 0000 0000
00000010: 0000 0000 375d 8b3d 0a7f 35bc 07fa 033d
00000020: e4df 25bd d602 a03e 71e7 833d e453 ccbc
00000030: 96fe c63b 7edf e63c cbca 46bd 79da 863d
00000040: 85b8 d9bc 0e00 fdbd 215e 44bc 5a67 83bd
00000050: 19c3 73bd
