MAPPO/Graph_H/save/SY_2_T2/agent_23_MAPPO_r.pt (torch, 29850 bytes, 15 tensors)

policy_net.module_0.bias f4 [32]
000000 b5 70 26 3d f2 cb 5f 3b 6d 85 66 3c f1 7a 31 3d
       0.04063483 0.003414866 0.014069897 0.043330137
000010 cb b9 7a bc 44 24 b5 3c 49 79 24 3c c7 6b 48 ba
       -0.015303086 0.02211202 0.010038682 -0.00076454546
000020 7b 6e e2 bb f7 5d 03 3d c8 21 76 bc ab 70 09 3d
       -0.006910143 0.032072034 -0.0150227025 0.033554714
000030 83 51 18 bc ef 46 6b bc c6 0d 3e 3a 49 77 ef 3c
       -0.009296778 -0.014360174 0.0007249977 0.029231684
000040 8a 59 e3 bc 82 e5 a7 3b 1c 3e 93 3c f0 15 d8 bc
       -0.027752656 0.005123795 0.017973952 -0.026377648
000050 bd 5d b5 3c 19 43 c8 ba e6 8f 80 3c f8 f6 94 ba
       0.022139424 -0.0015278786 0.015693616 -0.0011365106
000060 6f 14 e2 bc ce be 00 3d da fe 3f bc 38 02 88 bd
       -0.027597634 0.031431966 -0.011718476 -0.06641048
000070 36 05 19 bb c8 df 2e bd c2 61 92 bc f8 37 d9 bc
       -0.0023349053 -0.042693883 -0.01786888 -0.026515946

policy_net.module_0.lin.weight f4 [32, 2]
000000 45 73 47 be f5 cb 7f be cd 4e 12 be a2 d5 dc bc
       -0.19477566 -0.24980147 -0.14287873 -0.026957337
000010 37 25 a2 be 05 14 e7 bd b5 68 4f be 1a a9 aa be
       -0.31669018 -0.11283115 -0.20254786 -0.3333214
000020 8f ba c1 be 6e bb 15 3e 27 26 0c 3e a1 b8 11 be
       -0.37837645 0.1462228 0.13686429 -0.14230587
000030 ef 63 ae 3d b5 c1 36 be 35 42 d8 be db be 6b be
       0.085151546 -0.17847331 -0.42238012 -0.23022024
000040 53 23 d7 3d 95 3f d4 3e 66 7e 68 be ec a9 e4 be
       0.105047844 0.4145476 -0.22704467 -0.4466089
000050 df c9 57 be 6b 8d 0b 3e ac 1d ac be 2e d8 a3 be
       -0.21073101 0.13628165 -0.33616388 -0.3200087
000060 f9 8d 68 3e d6 16 29 3e 35 c0 2c 3e 4c 0d 9f 3d
       0.22710408 0.16512617 0.16870196 0.07766208
000070 2f 33 9d bc e4 4e 09 3f 5d ca 02 bd ca 31 13 be
       -0.019189445 0.53636 -0.03193127 -0.14374462
000080 55 6a e2 3e 39 6e 91 3e 25 1e fb 3e 9e ae dc be
       0.4422175 0.28404406 0.49046436 -0.43101972
000090 59 95 d7 be f9 50 c3 be 41 e0 a1 be 3a 78 8d 3e
       -0.4210613 -0.38147715 -0.31616405 0.27630788
0000a0 c4 0f 33 be 1c 08 17 be 56 87 54 bd eb 8c 65 3e
       -0.17486483 -0.14749187 -0.05188688 0.22417037
0000b0 2c 33 1d be 90 54 9d be 34 38 09 3f b6 a8 cb 3e
       -0.15351552 -0.3072858 0.53601384 0.39777154
0000c0 db df 38 bd f1 78 fc 3e a2 93 53 3e 0b 39 fc be
       -0.04513536 0.4931102 0.20661786 -0.4926227
0000d0 8a 49 76 3e c6 5c be 3e ca de d6 3c a8 76 00 3f
       0.2405149 0.37180156 0.026229281 0.50181055
0000e0 7b d0 86 bc b5 0f 94 3e f5 e2 8f bc 48 91 17 3f
       -0.016456833 0.28918234 -0.017564276 0.59206057
0000f0 de ef 07 3e 88 9f 57 3e 9d 03 a7 be 4f 55 a1 3e
       0.13275096 0.2105695 -0.32619944 0.31510398

policy_net.module_2.bias f4 [32]
000000 58 ac 3b 3c 1b c8 5f bc 22 f0 e1 3b ba 96 89 3c
       0.011454664 -0.013658549 0.006895081 0.016795505
000010 83 9d 11 bb fd 07 13 3c 1c 0b bc 3b d6 db 76 3c
       -0.0022219128 0.0089740725 0.005738629 0.015067061
000020 75 b5 fb b7 f7 2f e5 3b 18 aa f5 3b 64 f5 3a bc
       -3.000603e-05 0.0069942432 0.0074970834 -0.011411045
000030 70 00 0c bd 4c 65 0a bc b9 27 04 bc 9b 14 a8 3b
       -0.034180105 -0.008447003 -0.008066111 0.0051294095
000040 c7 b6 5e 3b b2 9a 11 bd 4f a0 f3 3b 14 11 14 3c
       0.0033983456 -0.03554792 0.0074348818 0.009037275
000050 89 73 39 3c f2 1b 3d bc df 6b bb 3b 66 e5 f1 bb
       0.01131905 -0.011542307 0.0057196463 -0.0073820828
000060 ee 6f 08 bc 54 c5 21 3c 2a 85 1a bc 01 f6 f7 bb
       -0.008327467 0.009873707 -0.009431163 -0.0075671677
000070 ff 77 e5 bb 0c 0b 0d 3b d6 54 59 bc 53 60 e7 bc
       -0.00700283 0.0021521477 -0.013264855 -0.028244173

policy_net.module_2.lin.weight f4 [32, 32]
000000 77 8c 1e 3e 53 28 e4 be eb 6e bc 3e a1 e1 35 3e
       0.1548327 -0.44562015 0.36803374 0.17761852
000010 00 bc fc be 35 73 cf 3c c3 a1 56 be 6f 98 69 be
       -0.49362183 0.02532349 -0.20960145 -0.22812055
000020 af f0 c8 bd 0c 6e f7 be 3b c1 1a 3e 54 13 aa 3e
       -0.09811532 -0.48326147 0.15112774 0.3321787
000030 b7 a9 35 bd c5 13 2f be 8c ed 18 3f 1a 87 b2 3d
       -0.044351306 -0.17097385 0.5973747 0.08717175
000040 1f 53 b7 3e d6 75 8a be 82 11 ec bb 3b ef 5d be
       0.35805604 -0.27043027 -0.0072042355 -0.2167329
000050 d7 0b 35 be a5 d0 ce 3d 97 0f ba 3b 02 98 32 3e
       -0.17680298 0.100983895 0.005678128 0.17440799
000060 c0 86 aa 3e 3a 83 00 be 33 56 b9 3e 55 d8 5f 3e
       0.3330593 -0.12550059 0.36198577 0.21859868
000070 d0 32 33 3e cf 9d 8b 3e 13 2a 98 be 71 e9 0f 3e
       0.17499852 0.27268836 -0.297196 0.14053895
000080 13 e4 2c be 7e 77 2c be fd e8 85 3e 69 29 3a 3e
       -0.16883878 -0.16842458 0.26154318 0.18179859
000090 d5 e3 7d 3e 79 3d 59 be 35 2f a1 be 4b c3 ef 3d
       0.24793942 -0.21214856 -0.3148133 0.11707171
0000a0 26 ef 07 3e 32 9c 80 3e 15 8e 61 be 0e 80 7e 3e
       0.13274822 0.25119168 -0.22026856 0.24853536
0000b0 91 91 9f 3e a4 5c 15 be e4 5e 98 be 3c 56 6a 3e
       0.31165746 -0.14586121 -0.29759896 0.22884458
0000c0 63 96 ab bd 34 03 7a 3c ac 70 1f be 0b 2f a6 3e
       -0.08378293 0.015259553 -0.15570325 0.32457766
0000d0 b9 4f dc bd a0 85 03 be 43 c4 c3 3e 51 ba 2e bf
       -0.107573934 -0.12843943 0.38235673 -0.68253046
0000e0 80 7e 30 3b ec e2 66 bd 20 e9 06 be b7 55 8d 3e
       0.0026930869 -0.056368753 -0.13174868 0.27604458
0000f0 21 f7 7b be 21 cf 37 be 73 e0 19 bf c1 23 7d be
       -0.24605991 -0.17950107 -0.6010811 -0.2472067
000100 60 66 18 3e 5f 2a a1 3e 29 88 37 3e 35 5c 47 be
       0.14882803 0.3147764 0.17923035 -0.19468768
000110 80 c7 96 be 56 9a af bd c0 52 df be d2 7f b6 be
       -0.2944908 -0.08574359 -0.4361782 -0.35644394
000120 b2 45 b3 be 11 34 49 3d 43 4a 09 bf c4 f1 5b bc
       -0.3501411 0.04912192 -0.5362894 -0.013424341
000130 5c 18 27 bd 57 a8 b7 3d 76 ca 99 be 5c 4b 31 be
       -0.040794715 0.08967655 -0.30037278 -0.17313904
000140 72 26 ea 3d d9 dd a6 3e 93 2f 21 3f 29 c0 eb 3c
       0.11433114 0.3259113 0.6296322 0.028778153
000150 fe a0 7e be bb 7a 94 be d4 87 b3 3e b4 16 18 be
       -0.24866101 -0.28999886 0.35064566 -0.1485241
000160 c2 e6 28 3e f4 ec 85 3e c7 9d a6 be 62 d6 01 3e
       0.16494277 0.26157343 -0.3254225 0.12679437
000170 6d f0 c7 bd 86 f3 9e be bd 5e 4a 3e 49 6e c5 bc
       -0.097626545 -0.3104517 0.19762702 -0.02410044
000180 39 92 b8 be 8f 91 1c 3f 35 60 83 be 65 69 cc 3c
       -0.3604906 0.61159605 -0.25659338 0.0249526
000190 4c 90 2b 3e fb 13 1d be e9 b0 da bc 15 36 9e be
       0.16754264 -0.15339653 -0.026695685 -0.30900636
0001a0 68 58 d9 3c eb ca 02 be 35 cf 47 3c 40 54 98 be
       0.026531413 -0.1277272 0.012195398 -0.29751778
0001b0 f8 fc a1 3e 1b 44 a7 be 04 bb 24 3f f9 76 01 3f
       0.31638312 -0.32669148 0.64347863 0.5057216
0001c0 e2 7f 75 3e 38 01 2e be eb 06 c5 3d 71 68 4e 3e
       0.23974565 -0.16992652 0.0962046 0.20157029
0001d0 35 87 1c be c1 2b d1 3e 14 c0 37 3b ef 06 f8 3d
       -0.15285952 0.40853694 0.0028038071 0.121106975
0001e0 42 ab 58 3e 88 dc 5d be b3 de 2b 3e 6f 36 82 be
       0.2115908 -0.21666157 0.16784172 -0.25432155
0001f0 19 30 14 bd 04 33 1a bd fd 13 27 bd 12 df aa 3d
       -0.036178682 -0.03764631 -0.040790547 0.083433285
000200 9f 22 e4 3a 59 13 3e bd d8 fa 01 3f 28 7f 30 3e
       0.0017405337 -0.04640517 0.5077338 0.17236006
000210 7f 91 9c 3b 6b b7 b1 be 64 54 2c 3e 1a f5 ff 3c
       0.0047780867 -0.3471025 0.16829067 0.031244803
000220 80 d7 9a 3e 0d 0e 03 3d c1 ce 9d 3e bb a6 34 3e
       0.30242538 0.03199582 0.30821803 0.17641728
000230 3d fd 87 3e 58 7e ac 3d 1a 6f f3 bd 06 db 00 3e
       0.26560393 0.08422536 -0.11886425 0.12583551
000240 24 ba b5 3e ac be 19 bd 4c 49 87 3e 62 8e 68 be
       0.35493577 -0.037535354 0.2642311 -0.22710565
000250 48 ca 52 3e 26 fe 44 be 5b ea 92 3e b7 19 e4 bd
       0.20584977 -0.19237575 0.28694424 -0.11137717
000260 73 e1 4a bd 26 c0 d2 bd 47 74 e8 bd ab 1b 85 be
       -0.04953141 -0.10290556 -0.11350303 -0.2599767
000270 0c f5 c8 be 3b a4 fa bd 35 3a 36 3f f3 cc 83 be
       -0.39249456 -0.12238356 0.71182567 -0.257423
000280 9c 25 f7 3d 5b bb 4a be 7b b4 da be 7e 45 8b 3e
       0.1206772 -0.19798033 -0.4271582 0.27201456
000290 71 96 ec 3d 9b e1 3f be bd 18 8f be 25 e8 13 bc
       0.11552132 -0.18738405 -0.2794856 -0.009027516
0002a0 41 2d 02 3e 55 d0 aa be 18 8f 11 3e 38 3d 9b be
       0.12712575 -0.3336207 0.14214742 -0.30320144
0002b0 2b ed 38 3e 38 20 88 be 13 be de 3d fe 31 8c be
       0.18059222 -0.2658708 0.108760975 -0.2738189
0002c0 f7 c9 d0 be e8 e9 0f bf 85 38 57 bc c1 85 87 be
       -0.40779087 -0.5621629 -0.013136034 -0.26469234
0002d0 be e2 f1 3c ca 79 ab 3e 4a ad 8a 3e 5b 25 97 3b
       0.029527064 0.33491355 0.27085334 0.0046126074
0002e0 2a e5 1a 3e a0 97 f2 bd 5a ce 70 3d 8b 08 ec 3e
       0.15126482 -0.118453264 0.058790542 0.46100268
0002f0 8d 0b 6e 3e 9e 23 ad be 8c 9b cf 3e ad 0f 0a 3e
       0.23246594 -0.33816236 0.4054836 0.13482542
000300 77 a4 e8 bd 8f 09 5f 3d 6c 76 79 bc 7e 52 a1 bc
       -0.11359494 0.054452475 -0.015225988 -0.019692656
000310 29 8d 34 3e 53 30 74 bd 63 d1 31 bf 20 0c 13 3d
       0.17631973 -0.059616398 -0.69460124 0.035900235
000320 86 5d 28 3e c8 be 47 bc 29 e7 ae bd b0 76 34 3e
       0.16441926 -0.012191482 -0.08540184 0.176234
000330 43 5a ce be c1 5e a0 3d 66 01 6b 3e d7 c8 af be
       -0.4030324 0.07830573 0.22949752 -0.34332916
000340 16 ac 1a 3c 51 90 d9 be 8d 2e 85 3c 5b a4 00 3f
       0.009440443 -0.42492917 0.016257549 0.50250787
000350 21 ee e2 3e 1c e5 80 3e cc 09 3b be f1 72 d6 3e
       0.44322303 0.25174797 -0.18265456 0.41884568
000360 9f 3b 32 3e c7 47 3d be 0b 61 57 3e f1 51 2c bc
       0.17405556 -0.18484412 0.21033113 -0.010517583
000370 7d 95 e2 be ee c5 a2 3e 9d 4f 05 3e 6a 3a 91 3d
       -0.44254676 0.31791633 0.13018651 0.0709122
000380 ec 10 95 be ac e0 32 3e 17 61 87 bd ea 23 3a be
       -0.29114473 0.17468518 -0.06610315 -0.18177763
000390 84 9e 1a bd aa a1 b2 be e8 7a 94 be e0 ad 8a be
       -0.03774883 -0.34888965 -0.2900002 -0.2708578
0003a0 b1 e0 af 3e 48 b8 c8 be f2 30 2c 3e 21 0f 27 3e
       0.34351113 -0.39203095 0.16815546 0.16314365
0003b0 6f 13 27 bd 58 81 b9 3e 93 da 67 3e 1a 08 aa be
       -0.040790018 0.36231494 0.22641973 -0.33209306
0003c0 2c d3 a3 3e 52 96 43 3e ed d9 15 bf f9 25 2e be
       0.3199705 0.19100311 -0.58535653 -0.17006673
0003d0 e1 96 94 3d 24 76 dc 3e 28 6d dd be 70 3f 97 bd
       0.0725534 0.43058884 -0.43247342 -0.073851466
0003e0 15 79 de 3d 18 a2 5b 3e ef 05 f5 3d 13 c0 87 3d
       0.10862938 0.21448553 0.11964022 0.06628432
0003f0 09 0e 8c 3e 22 ff d1 be f4 ae e6 bb 4b f7 6a be
       0.27354458 -0.41014963 -0.007039899 -0.22945897

policy_net.module_4.weight f4 [32, 32]
000000 9a bd 85 3d 30 00 3a bd 16 23 4b bf 81 8c 07 3d
       0.06530304 -0.045410335 -0.7935041 0.03309298
000010 18 94 39 3e 04 76 b0 3d 52 88 98 3c 2c 68 9a 3e
       0.181229 0.0861626 0.01861969 0.30157602
000020 9b 4e 39 be 85 4a 78 3c 13 ab 6d 3d 83 44 d2 be
       -0.18096392 0.015154486 0.058024477 -0.41067895
000030 30 76 51 3e e1 e1 77 be fa 80 f8 be a9 5a 33 be
       0.20455241 -0.2420726 -0.485359 -0.17515053
000040 27 bb 73 3e dd 9a 8e 3d ef 27 d2 3e e5 c9 cd 3e
       0.23801862 0.069631316 0.41046092 0.40193096
000050 9d fd 87 3e 8d 74 14 be 78 8c f0 3d 7f 52 7e 3d
       0.2656068 -0.14497586 0.11745542 0.062090393
000060 28 26 e4 3d 09 d7 dd 3e 82 75 3a 3e 54 78 86 be
       0.1114009 0.4332812 0.18208888 -0.26263678
000070 e8 d3 ec 3d 7b ce 45 bd 5b c0 8b be 91 88 67 3e
       0.115638554 -0.04829262 -0.27295193 0.2261069
000080 67 34 e5 3e 42 e4 b3 3b 25 89 94 3e cc 3e ff 3e
       0.44766542 0.005489857 0.29010883 0.49852598
000090 ba 96 cb 3c 3f fc bd 3e de 81 0f 3d a0 73 3f 3e
       0.024852145 0.3710651 0.03503596 0.18696451
0000a0 ab 7a 7a 3c 35 9a 07 bf f8 42 47 be fe a3 40 bd
       0.015288035 -0.52969676 -0.1945914 -0.047031395
0000b0 3a 16 8d be b7 ac ae bd 1d f6 37 be ef b9 1a bf
       -0.2755602 -0.085290365 -0.17964979 -0.6043996
0000c0 2e 45 3a 3e a6 a4 05 3c a2 32 03 3e 38 73 95 be
       0.18190452 0.008156931 0.12812284 -0.29189467
0000d0 b3 84 7b 3e b0 f5 b6 be 79 27 4e 3e d9 da a4 bd
       0.2456234 -0.3573432 0.20132245 -0.080495544
0000e0 1a 05 21 be 0e 89 f6 3c 1c 07 ce bd f4 08 6a 3e
       -0.15724602 0.03009465 -0.1005995 0.22854978
0000f0 96 0a 3c bd 94 bd 2c be b4 07 43 be 6d be 8a 3e
       -0.045908533 -0.16869193 -0.19045907 0.27098408
000100 fb 4b 92 bc de 3c 1e 3e 33 b2 90 be 0e 8c 5b 3e
       -0.017858496 0.15452906 -0.28260955 0.21440145
000110 52 8f 88 be 85 d4 b3 be ad b3 5c 3e 95 53 1a 3d
       -0.26671845 -0.35123077 0.21552916 0.037677366
000120 45 bb 95 bd b1 54 57 3e 56 60 ac 3b fa 83 d6 be
       -0.073111095 0.21028401 0.0052605076 -0.41897565
000130 4c 5a a5 be 9d ae 0d 3b 3a 6d 83 be b6 66 93 be
       -0.32295454 0.002161897 -0.2566927 -0.287893
000140 e9 32 9e 3e 85 35 8d 3c 54 6e 11 be 3c 96 d4 be
       0.30898216 0.017237434 -0.14202243 -0.4152087
000150 f4 5e 76 be 24 75 b1 be fd 9d ca be 2b 55 3c 3e
       -0.24059659 -0.34659684 -0.3957366 0.18391864
000160 17 d8 c1 be 68 ed dd bd 75 9e 0f 3d 03 52 e2 be
       -0.37860176 -0.10836297 0.035063226 -0.44203195
000170 25 49 8e be 07 24 44 3e 4e 58 e9 bd 11 ce a2 be
       -0.2779018 0.19154368 -0.11393796 -0.3179784
000180 97 28 2c be 86 50 d9 bd e6 b0 35 be dd 24 6b bd
       -0.16812359 -0.10611062 -0.17743263 -0.057408202
000190 ec 38 d1 bd ec 58 ca 3e 63 ed c8 3e cb 28 8b be
       -0.10215935 0.39520967 0.39243612 -0.2717956
0001a0 21 d1 aa be 93 d8 a8 3e ac 00 31 be e5 2c 70 bd
       -0.33362678 0.32977733 -0.17285413 -0.058636565
0001b0 c5 7c 93 be cd ae 97 be 42 63 ba 3d cc 1d de bd
       -0.2880613 -0.2962555 0.09100963 -0.10845527
0001c0 e4 f3 c7 be ab 52 38 bd 51 74 9d bc 8b 53 a6 be
       -0.3905326 -0.045000713 -0.019220503 -0.32485613
0001d0 98 c6 9a 3d 46 4b f2 bd 44 86 57 3d 09 82 3d 3e
       0.0755741 -0.118307635 0.05261828 0.18506636
0001e0 5c fd 75 3d d9 cc e8 3e 3b 66 14 3f c0 14 4b 3e
       0.060056075 0.45468786 0.5796849 0.19832134
0001f0 03 4c ee be e1 1f c4 be 88 7d 1c be f1 7a a5 3d
       -0.46542367 -0.38305572 -0.15282261 0.0808009
000200 3e e8 48 3e fc a1 af 3e 8d 79 2f be 04 84 db 3e
       0.19619843 0.34303272 -0.17136212 0.42874157
000210 b8 dc f1 be 1c 71 54 3e 6a 0b af be 18 e7 d6 3e
       -0.47238708 0.20746273 -0.34188396 0.41973186
000220 42 9a da 3c 72 9d 84 3e 63 c3 b9 3d c2 8f a7 be
       0.026684884 0.2590137 0.0907047 -0.32726866
000230 66 11 63 bd 3f 62 dd bb d6 f4 cb 3e 6f d1 21 bc
       -0.055436514 -0.0067560966 0.39835232 -0.009876593
000240 62 e0 73 be dc 52 3c 3f 34 82 01 3e b9 ed 65 3d
       -0.23816064 0.73563933 0.12647325 0.056134913
000250 73 30 bc be 13 8d 94 3d 0d 19 7f 3d 93 ba 1c 3d
       -0.36755714 0.0725347 0.06227975 0.03826387
000260 60 22 e8 3d f6 d3 b0 3c 52 eb eb 3d 70 a6 15 bc
       0.113346815 0.021585446 0.11519493 -0.00913392
000270 d0 f9 10 be 50 7c f3 bd 23 75 24 be 50 1f 89 3e
       -0.14157796 -0.11888945 -0.16060309 0.26781702
000280 5c ce 56 3e 02 9b 5d be fe 41 7c be 12 89 fa 3e
       0.20977157 -0.21641162 -0.24634549 0.489327
000290 91 a1 b6 39 e1 ce 16 3e d2 df 88 3d c0 41 84 bc
       0.00034834121 0.14727356 0.06683315 -0.016144633
0002a0 81 e1 74 3e ba 94 02 3f 24 c7 4d 3d 7e d8 3f 3e
       0.23914148 0.5100819 0.050238743 0.18734929
0002b0 7e f9 57 3e ad 06 a0 be cd 39 d1 3d 36 1f a4 3e
       0.21091267 -0.31255093 0.10216103 0.32055062
0002c0 bc 16 95 3e 69 ca 72 3d 73 44 49 be d6 f5 7f 3d
       0.29118907 0.059275065 -0.19655018 0.062490307
0002d0 5e c6 cc 3e ad f1 24 bf a4 85 4d 3c a5 b4 8d 3e
       0.39995092 -0.6443127 0.012544069 0.27676883
0002e0 72 a1 6f 3d 0e 44 cd be a5 0d 80 3b a3 13 fe bd
       0.058503576 -0.40090984 0.0039078766 -0.12406089
0002f0 e8 ac 2b be 82 a8 c6 be e1 34 dc 3d c5 12 4c 3e
       -0.16765177 -0.38800436 0.10752273 0.19929035
000300 b1 67 fd 3e 14 35 90 be 8a d5 e0 be e4 7e 9c be
       0.49493173 -0.28165495 -0.43912917 -0.3056556
000310 ba 7b 69 be 8f 4e a5 3d 9d 6e 14 be f5 f9 d8 3e
       -0.22801104 0.080716245 -0.1449532 0.42378202
000320 e6 0c 5e 3e ad 0a 2f 3e b0 30 3e be 71 81 53 3d
       0.21684608 0.17093916 -0.1857326 0.051637117
000330 4d 52 2d 3d 27 0b 9b 3d 52 e5 3e 3d 08 37 a6 3c
       0.042314816 0.075704865 0.046605416 0.020289913
000340 cc 85 98 be 6b 3f 4f bd 59 7b a6 3e 4d 49 09 bf
       -0.2978958 -0.05059759 0.32515982 -0.53627473
000350 63 e4 de 3e 1b 1e 23 bc 4a de 84 3e fa 7e 9e 3e
       0.4353362 -0.009955908 0.25950843 0.3095625
000360 a1 9e 1d 3d 60 61 5d bd de 01 bc bd 2e 6a 59 3d
       0.03848136 -0.054047942 -0.09180044 0.053079776
000370 82 d4 92 be bc 45 d9 3e db de 79 bd 03 81 60 be
       -0.28677756 0.42436016 -0.061003547 -0.21924214
000380 fb 85 f2 3e bb 25 23 bf 8b fc 12 be d8 ae 70 3e
       0.47367844 -0.6372945 -0.1435415 0.23504198
000390 1e 2d 03 be a0 d0 8e be a5 f5 8c 3e e2 39 af bd
       -0.1281018 -0.27893543 0.27531162 -0.08555962
0003a0 ad 22 ba 3e 27 d7 0a be 7f b7 13 3e d5 5a 5f be
       0.3635458 -0.13558637 0.14425467 -0.21811993
0003b0 8f a1 b8 3e dc 18 87 be c9 da d5 bd c1 57 90 be
       0.3606076 -0.26386154 -0.104421206 -0.2819195
0003c0 a1 d9 1d bf bb 42 82 3d 78 ee df 3c 79 0c bb bd
       -0.616602 0.06360384 0.02733539 -0.09133238
0003d0 1b 20 15 be 63 d6 25 3e a1 1d bb be af 33 1b 3e
       -0.14563029 0.16195063 -0.36546043 0.15156434
0003e0 4b ff 0d be 79 19 7f bd 2c c0 b9 3d 5c 5b 42 be
       -0.13866918 -0.062280152 0.09069857 -0.18980163
0003f0 ce 12 fa 3b ab 69 a4 be a6 7e 96 be 12 18 8b 3e
       0.007631636 -0.32111868 -0.293935 0.27166802

policy_net.module_4.bias f4 [32]
000000 1f 69 c9 3c 90 1c 0f 3d a1 d1 04 3d 8c 96 e2 3c
       0.024586258 0.03493935 0.03242648 0.027659677
000010 a6 ed 04 3d 31 47 fe 3c d6 e3 10 3d 53 ae d8 3c
       0.0324532 0.031039806 0.03537353 0.026450312
000020 6c 2f ef 3c 62 de ff 3c b9 aa 0d 3d bb ed eb 3c
       0.029197417 0.03123397 0.034586642 0.028799882
000030 eb f2 10 3d cc 5d d0 3c af 9e 06 3d b0 98 fa 3c
       0.035387915 0.02543535 0.032866176 0.030590385
000040 45 0c d0 3c 25 17 07 3d 5b 8a 0a 3d ba 43 0e 3d
       0.025396476 0.032981057 0.033823352 0.034732558
000050 59 af 13 3d 35 5b 11 3d 78 23 c8 3c 98 3e d0 3c
       0.036055896 0.035487372 0.024430975 0.025420472
000060 b1 34 16 3d 4c b7 04 3d 5d 8b 0a 3d b6 0a 04 3d
       0.036671344 0.032401368 0.033824313 0.032236777
000070 4e 78 0c 3d 72 83 15 3d e8 b5 0d 3d 4b 9f 15 3d
       0.03429442 0.03650231 0.034597307 0.036528867

policy_net.module_8.weight f4 [20, 20]
000000 00 5a 10 ba 0e 09 0c ba 77 be ca ba c0 ef 86 39
       -0.0005506575 -0.00053419254 -0.001546814 0.000257371
000010 3b b0 b0 ba 34 79 7e bb fb 22 62 3b e6 09 0c 3b
       -0.0013480255 -0.0038829567 0.0034505713 0.0021368205
000020 a6 1b 58 ba 42 3e 69 bb 1b 86 85 b7 07 17 92 bb
       -0.0008243866 -0.0035590087 -1.5917283e-05 -0.0044583115
000030 85 29 cd 39 b7 3d e8 b6 29 29 14 bb a0 ac ab 3a
       0.0003913158 -6.9213233e-06 -0.0022607541 0.0013097711
000040 8e 9f 4d 3a 43 4a 98 bb c6 32 df b9 99 36 82 3a
       0.0007843905 -0.0046475246 -0.00042571704 0.0009934484
000050 38 77 89 3b 08 76 9a 3b c9 2c b2 3a ca 36 ec bc
       0.00419512 0.0047137775 0.0013593669 -0.02883472
000060 31 2e d6 bc 5d 79 d2 38 a8 60 ab 3b fe df f2 bc
       -0.026145073 0.00010036186 0.005230028 -0.029647823
000070 51 49 e5 bc e3 e2 d6 bc 1c 51 95 3b 24 11 d8 ba
       -0.027989062 -0.026231235 0.004556788 -0.00164846
000080 4c 74 0f bd 4f 1e cf bc 86 f4 00 bd 86 81 e9 bc
       -0.03502302 -0.025283007 -0.031483196 -0.028504144
000090 05 3a de bc f8 34 99 bb 77 ba f8 bc e6 57 ca bc
       -0.027127275 -0.004675504 -0.03036235 -0.024700116
0000a0 7c 6d a7 b9 42 f9 b9 3a 61 29 c9 3b a1 f1 0c bb
       -0.00031934294 0.0014188664 0.006138966 -0.0021506327
0000b0 85 78 1b 3a 39 ec 70 3a c7 e3 d5 ba 39 3e c2 39
       0.00059307396 0.00091904734 -0.0016318493 0.00037048923
0000c0 4f dc 05 bb a4 09 9b 3a 0d 9a 2e bb 44 10 14 bb
       -0.0020425504 0.0011828435 -0.0026642114 -0.0022592703
0000d0 41 f6 47 bb bd 68 69 3b 9c c8 10 bb d6 be 28 ba
       -0.003051177 0.0035615407 -0.0022092229 -0.0006437128
0000e0 7c b6 28 39 27 fa c6 ba 63 34 99 b9 24 a9 04 3b
       0.00016089709 -0.0015180752 -0.00029221465 0.0020242417
0000f0 86 3e 62 b8 f2 61 da 3a 4b 81 a7 3a 32 42 22 ba
       -5.394083e-05 0.001666127 0.0012779621 -0.00061896734
000100 14 fc 8b 3a 80 c3 21 bb 93 58 92 bb 7d 57 6a 3b
       0.0010679984 -0.0024683177 -0.0044661253 0.0035757713
000110 d7 ba 7b 3b 1f 51 93 bb dd 88 ba 3a c6 a0 13 3b
       0.0038410926 -0.0044957544 0.0014231462 0.0022526248
000120 9e 52 62 ba 62 b1 15 ba 4a fe c5 b9 e0 40 25 bb
       -0.0008633527 -0.0005710331 -0.00037764228 -0.002521567
000130 05 40 05 bb d9 a3 86 ba bd 29 14 3a ad a0 9f b9
       -0.0020332348 -0.0010272219 0.00056519714 -0.00030446556
000140 9b f6 20 bd 02 ad ff bc 33 d5 10 bd da fd f2 bc
       -0.03929768 -0.031210426 -0.035359573 -0.029662061
000150 6f 54 19 be ae 6b 0c bd 6b 37 13 bd 3f 48 11 be
       -0.14973615 -0.03428238 -0.035941523 -0.14187716
000160 48 6f 24 be a3 79 1e be e9 96 3f bd d8 43 5f bd
       -0.16058075 -0.15476088 -0.04677478 -0.05450806
000170 82 da 4a bd d9 ba 1c bd 47 8c 1b bd c8 ce 70 bd
       -0.04952479 -0.03826413 -0.037975576 -0.058790952
000180 85 67 10 be d0 33 49 bd 9b 58 52 bd 88 ba 0f be
       -0.1410199 -0.049121678 -0.051354032 -0.14036
000190 a1 e6 26 3c 1d 1e 8b 3b 8f d2 f7 3b d3 3c b8 ba
       0.010186822 0.004245533 0.0075629423 -0.0014056213
0001a0 24 2b 58 3a 72 17 45 3c 86 7b da 3b 50 07 8c bb
       0.00082461745 0.012029516 0.006667557 -0.0042733327
0001b0 2c 91 12 bb 9c ab 95 bb db 30 23 3c ea b5 2e 3c
       -0.0022364361 -0.0045675766 0.0099603785 0.010663489
0001c0 94 4c 74 3b 75 dc bb ba cd 6d 9c 3b 8e 40 77 bb
       0.003727709 -0.0014332669 0.0047738315 -0.0037727687
0001d0 29 bb ab 3a 10 5c 14 3c 02 f8 d5 3b 93 6b 39 bb
       0.0013102043 0.009055153 0.006529809 -0.002829288
0001e0 52 c7 79 3a 41 2f 47 bb b7 fb 32 3b 5b 85 04 ba
       0.0009528297 -0.0030393156 0.0027310678 -0.0005055272
0001f0 23 38 e9 3a 2e 70 3a bb 79 62 40 39 0f f6 c8 3a
       0.0017793219 -0.0028448212 0.00018347231 0.001533212
000200 8b bb fd ba 16 88 0d 3b f5 d2 bb 3a 97 1c 24 3b
       -0.001935826 0.0021596006 0.0014329838 0.0025041455
000210 be 51 96 3b 12 ea f6 3a 62 81 3d 3b d0 f7 f5 ba
       0.004587381 0.0018838069 0.002891623 -0.001876587
000220 a7 e9 02 3b e5 ca 44 bb b7 13 a2 ba 7b ef 62 ba
       0.0019975693 -0.003002816 -0.0012365495 -0.0008656901
000230 ae 97 55 bc 67 ea bc bc 55 d4 eb bc ac 78 1c bc
       -0.013036652 -0.02306099 -0.028787771 -0.009550255
000240 15 83 d4 bb bf b0 5c bc 86 d5 13 bc e4 9d e9 b9
       -0.0064853528 -0.013469874 -0.009023076 -0.0004455886
000250 01 a4 16 bc 7e bf 58 bc f3 1d 5c bc db bb 48 bc
       -0.009194375 -0.013229249 -0.013434875 -0.0122518195
000260 dd 20 16 bc be 63 85 bb e3 0b 27 ba a7 a7 de bb
       -0.009163109 -0.004070728 -0.00063723157 -0.006794888
000270 57 a7 2c ba e3 30 95 bc 8f 0e 9e bc 63 7f ce bb
       -0.0006586215 -0.018211788 -0.019294051 -0.006301807
000280 36 38 2f 3d 19 de 1c 3d 0e 65 12 3d ed 5f 04 3d
       0.042778216 0.038297746 0.035740905 0.032318044
000290 db 1e 1b 3e 43 24 0f 3d 99 fb 19 3d 44 1d 11 3e
       0.15148489 0.03494669 0.037593458 0.1417132
0002a0 82 51 22 3e 40 30 1a 3e e8 ec 40 3d 5e b0 51 3d
       0.15851405 0.15057468 0.04710093 0.051193587
0002b0 56 ec 54 3d 82 d6 25 3d db 81 2c 3d 8f 50 61 3d
       0.0519832 0.040487774 0.042116027 0.055008467
0002c0 05 5b 15 3e 4a 3b 56 3d 4f 4a 61 3d 4d 4d 10 3e
       0.14585502 0.052302636 0.055002507 0.14091988
0002d0 bc ca fc ba 9d 51 84 ba 84 6e d3 b9 2a 79 62 3a
       -0.0019286494 -0.0010095123 -0.00040327397 0.00086392707
0002e0 c4 93 a9 bb 0b 80 fe 37 2d 47 35 bb c4 40 43 bb
       -0.0051750857 3.0338784e-05 -0.0027660832 -0.0029793242
0002f0 af 77 0b 3a 34 ff 82 ba e4 18 8d 3a 49 e3 65 39
       0.00053202634 -0.0009994269 0.0010764864 0.00021923812
000300 4f b1 77 3b 20 8e 19 3b 0f e9 03 bb ca 0a 11 bb
       0.0037794893 0.002343066 -0.0020127927 -0.0022131675
000310 27 e7 4a 3a 3e bc 4a 3a 73 48 29 b9 29 58 8d 3b
       0.0007740133 0.0007733739 -0.00016144085 0.004313488
000320 31 fc 83 3d 74 1c 81 3d 3e 9d 8a 3d 11 42 97 3d
       0.06444586 0.06304255 0.06768273 0.07385648
000330 d8 1e 93 3d 55 60 7c 3d 38 78 80 3d 0c 9c 94 3d
       0.07183617 0.061615307 0.0627293 0.07256326
000340 12 f5 97 3d e1 ef 96 3d 22 6d 88 3d 92 af 7a 3d
       0.0741979 0.07369972 0.066614404 0.061202593
000350 5a 1c 8a 3d 82 11 8c 3d 80 24 8a 3d c9 f4 98 3d
       0.06743689 0.06839277 0.06745243 0.07468564
000360 49 3b a0 3d 36 87 84 3d c7 8d 8b 3d 5c d4 94 3d
       0.07823808 0.06471102 0.06814151 0.07267067
000370 e9 58 de bb 09 df e6 bb ee 33 01 bc 15 84 14 bb
       -0.0067855013 -0.007045631 -0.007885916 -0.0022661735
000380 b0 49 4e 3a 7a 5e 05 bc a0 db f8 bb dc 76 18 bc
       0.00078692567 -0.008140201 -0.0075945407 -0.009305682
000390 1c da 08 3b 97 bc 47 bb eb ae 0e 3d 8e 99 0b 3d
       0.0020881956 -0.0030477399 0.034834784 0.034081988
0003a0 50 37 eb 3c ce 29 e2 b9 5c bd f2 3c a4 bd 8c bb
       0.028712898 -0.00043137226 0.02963131 -0.004295068
0003b0 c1 ed 39 bb 61 73 26 3d a4 33 02 3d c0 c1 c5 bb
       -0.0028370472 0.040637378 0.03178753 -0.0060350597
0003c0 60 67 13 3d 24 62 0d 3d 0b 1a 02 3d da b9 eb 3c
       0.035987258 0.034517422 0.031763118 0.028775144
0003d0 50 4f 96 3c 0e 51 0c 3d e3 b4 03 3d 17 ef 1d bd
       0.018348366 0.034256987 0.03215493 -0.038558092
0003e0 dd d4 06 3c d0 49 ac 3c 3f 4b 2e 3d f4 f9 2a bd
       0.0082294615 0.02103129 0.04255223 -0.04174228
0003f0 20 23 59 bd ca 3c 41 3d 5a 55 26 bd eb c6 bc bc
       -0.053012013 0.047177114 -0.04060874 -0.02304407

policy_net.module_8.bias f4 [20]
000000 00 00 00 00 cf d3 33 bd 00 00 00 00 00 00 00 00
       0.0 -0.04390317 0.0 0.0
000010 c7 ac ce bd 76 04 05 bd 00 00 00 00 4c d9 29 3c
       -0.100915484 -0.032474957 0.0 0.010366749
000020 89 a4 ce 3d 00 00 00 00 0c b9 c6 3d 0f 28 92 3d
       0.10089976 0.0 0.09703264 0.07136547
000030 23 e9 a3 bd 3c d9 29 bc bf e9 a3 3d 00 00 00 00
       -0.08003452 -0.010366734 0.08003568 0.0
000040 00 00 00 00 d5 1c 92 bd 00 00 00 00 00 00 00 00
       0.0 -0.071344055 0.0 0.0

value_net.module_0.bias f4 [32]
000000 78 a0 8e bc 28 0a d1 bc 14 f4 4b bc 75 78 8e bb
       -0.017410502 -0.025517538 -0.0124483295 -0.0043478557
000010 d5 ce b7 3c 08 2f 52 bb 20 38 87 bc 9e cf 2d bb
       0.022437492 -0.003207149 -0.016506255 -0.0026521455
000020 90 9c 8b bc c8 ae da 3b c1 64 fc 3c a0 15 10 3c
       -0.017042428 0.0066736676 0.030809762 0.008794218
000030 92 27 07 3d 02 97 b3 bc 22 79 a9 3c e7 a7 8d bb
       0.03299672 -0.021922592 0.020687643 -0.004322994
000040 1a 3d 08 3d 59 d5 b5 bb a9 09 62 3c 5a 32 fe bc
       0.033261396 -0.0055491147 0.0137962485 -0.031029869
000050 25 16 07 bd ba de 44 3c 9f 27 fc bc 8b 46 e8 bb
       -0.032980103 0.012015993 -0.030780612 -0.0070884875
000060 96 a3 c5 3c 09 7a 2a bd 0a 1b 49 3b d2 24 0b bc
       0.024125855 -0.041620288 0.0030686283 -0.008492665
000070 7f d9 73 bc 5a b7 0e 3c bf 3e dc 3b 93 af 22 3c
       -0.014883398 0.008710707 0.006721347 0.0099295555

value_net.module_0.lin.weight f4 [32, 32]
000000 ea a3 df bd 04 74 a8 3d 9f a4 e2 be 11 96 31 be
       -0.10919936 0.08225253 -0.4426622 -0.17342402
000010 91 27 3c 3e c4 76 37 bd f7 d9 86 be 16 57 f0 bd
       0.18374468 -0.044790998 -0.2633817 -0.1173536
000020 c1 21 ba bd 58 b0 81 be 30 8f d3 bb 5e e5 9b bd
       -0.09088469 -0.25329852 -0.0064562783 -0.07612108
000030 ba be 08 3f d9 6a d0 3e c1 f1 2e 3e 13 6d fb bc
       0.53416026 0.40706518 0.1708441 -0.03069166
000040 27 e7 b9 bd c1 9b a9 be 27 4a 9a bd 4c a1 df 3e
       -0.09077292 -0.33126643 -0.07533675 0.43677747
000050 b0 d8 c6 be df fd e9 3d c6 34 80 3e 65 99 9d bd
       -0.38837194 0.11425375 0.25040263 -0.07695273
000060 f8 48 c1 bd a6 09 58 3c f4 99 b5 bd e6 cf c4 bd
       -0.09437746 0.013185894 -0.08867255 -0.09609966
000070 ac 9e 9e be 93 21 10 3e 62 25 15 3f 3e ff fe bc
       -0.30980432 0.14075308 0.58260167 -0.031127568
000080 64 46 90 3c 4b 8c a1 bd d1 31 b7 be 0d 03 3d 3d
       0.01761169 -0.07888087 -0.35780194 0.046145488
000090 93 75 93 3e 61 d9 fa be 42 00 1e bf cb 70 b1 3d
       0.2880064 -0.48993972 -0.61719143 0.08664092
0000a0 7c 84 3e 3e 59 47 c7 3d ca 98 70 3e 57 14 cc 3d
       0.18605226 0.09730405 0.23495784 0.09964817
0000b0 ea 16 82 be 44 47 98 3e d8 79 96 3e 9e 4c 8e 3d
       -0.25408107 0.2974187 0.29389834 0.06948207
0000c0 3c bb 45 3e b6 d0 a3 3e 2f 1a 2c 3d 5a 5d af be
       0.19309705 0.3199517 0.042017158 -0.3425091
0000d0 78 95 01 bd 06 c1 02 3d 83 97 68 3e 1f dc 26 3d
       -0.031636685 0.031922363 0.22714047 0.040737268
0000e0 b6 35 bc bc 87 ec 80 3e 6f 00 74 be f3 8f 30 3d
       -0.02297483 0.25180456 -0.2382829 0.04310603
0000f0 48 d6 09 3f dc 11 5b bd 76 c4 8c bc ec ab 01 be
       0.5384259 -0.05348383 -0.017183524 -0.12663239
000100 7c ff 6e 3e 95 70 8e 3e 6f 4e 9d be b5 e1 9d 3d
       0.23339647 0.27820268 -0.30723903 0.07709066
000110 60 7d 80 be d1 c3 67 3d 29 1c 07 be 5d ec f9 3c
       -0.25095654 0.05658323 -0.13194336 0.030508215
000120 30 4e 41 3e 31 de cb 3d 99 26 af be 6f bc 4a 3d
       0.18877482 0.09954489 -0.34209135 0.04949611
000130 1c de 22 3d 46 4a 43 3e e6 af 8e bc 1e 52 29 3e
       0.0397626 0.19071302 -0.01741786 0.16535231
000140 85 d8 4c be 40 06 5e 3e e7 e2 e5 3c 4a e3 72 be
       -0.2000447 0.21682072 0.028062297 -0.23719516
000150 48 46 b7 be 82 b4 93 be 9c 58 05 bf 0f c5 a4 3c
       -0.35795808 -0.28848654 -0.5208833 0.020113496
000160 be a7 cc 3e 3e a3 6e bd 55 4c 75 3e bd 91 3d 3f
       0.39971727 -0.05826115 0.239549 0.74050504
000170 69 7a 96 3d 11 3f 1b 3d 92 36 93 3e a5 30 18 3c
       0.07347567 0.03790194 0.2875257 0.0092889415
000180 08 31 aa 3e 11 f8 61 bd b3 ec a4 be a4 78 69 bd
       0.33240533 -0.055168215 -0.32211837 -0.056999817
000190 50 38 cd 3e ca f3 02 3e 20 e1 2a 3d e5 3d aa bc
       0.40082026 0.1278831 0.041718602 -0.020781467
0001a0 f7 d9 76 3e c3 c9 bb 3d 1e 91 09 3e fa d2 ab be
       0.24106584 0.09169342 0.13434264 -0.335594
0001b0 aa ee f5 3d 00 1a 7c be 8b ca e5 bd c9 c0 9d 3e
       0.12008412 -0.24619293 -0.11220273 0.30811146
0001c0 dc 9b 53 3e f4 7b 77 be b2 08 4c 3e bc 72 4a 3e
       0.20664924 -0.24168378 0.19925192 0.1977033
0001d0 c7 85 26 bd 0a bc fc bc cc be f5 bb 57 11 9b 3e
       -0.040654924 -0.030851383 -0.0074995514 0.30286667
0001e0 a6 22 b1 be 55 25 b4 be 12 23 9a be 17 6d 07 3e
       -0.34596747 -0.35184732 -0.30104882 0.13225208
0001f0 b1 b2 98 3e 3b d5 1b 3e dc c6 24 be 4d 3c a8 3e
       0.2982383 0.1521806 -0.16091484 0.32858506
000200 e6 4b 5f be ae b6 10 be fd 4a 94 bd fb 1f 88 be
       -0.21806297 -0.14132187 -0.072408654 -0.265869
000210 02 d8 41 3d 7d 74 5a be 20 3c d7 3d 02 ae d3 be
       0.04732514 -0.21333499 0.10509515 -0.41343695
000220 69 98 b2 be 45 a1 36 be 4b 89 8e 3d 60 40 29 3e
       -0.34881905 -0.17834957 0.0695978 0.16528463
000230 c6 ce 88 3e 46 62 55 3e 7b 28 40 be 64 71 20 be
       0.26720256 0.2083827 -0.18765442 -0.15668255
000240 98 fa 37 3f 57 b1 1b 3e a8 77 7f be b0 93 3b bd
       0.7186675 0.15204369 -0.24947989 -0.045795143
000250 2e 51 00 3e c6 bf 8e bd 71 56 09 bf 2f 3c 36 be
       0.12530968 -0.06970172 -0.53647524 -0.17796396
000260 9a 42 30 3c c5 9c d8 bd 59 f3 88 bd 52 aa 5f 3e
       0.010758067 -0.105767764 -0.0668704 0.21842316
000270 6e b5 98 3c 91 d9 48 3e 95 74 16 bd 6d 53 45 3d
       0.0186412 0.19614245 -0.036732275 0.048175264
000280 f0 88 ba be 4e fd 33 bc bc 07 a6 3d 06 03 3a be
       -0.364326 -0.0109856855 0.08106944 -0.18165216
000290 7d 69 39 3e 19 16 b1 bd 90 7b 4f 3e dc d2 02 3e
       0.18106647 -0.08646793 0.20261979 0.12775749
0002a0 88 07 83 3d c8 08 83 be c9 3c ad 3e d8 74 85 be
       0.06397921 -0.25592637 0.33835438 -0.26065707
0002b0 65 68 c5 3e 42 cd 47 3e 2e f3 e5 3e a6 9c 0d 3e
       0.3855621 0.19511893 0.44912094 0.13829288
0002c0 3f fc d7 be ca cd 80 3e 3a 73 59 be a8 25 45 be
       -0.42184636 0.25157005 -0.21235362 -0.19252646
0002d0 f0 f7 7c 3e 24 61 cc bd 84 e4 58 3d be 53 b1 3d
       0.24703956 -0.099794656 0.052952304 0.08658551
0002e0 25 a3 70 be 51 21 c9 be 15 a0 a1 3e a9 de ec 3d
       -0.23499735 -0.3928323 0.31567445 0.115659066
0002f0 32 6f 1c 3e 2e 85 88 be ef 06 fb bd f7 39 33 bd
       0.15276793 -0.26664108 -0.12257182 -0.04375645
000300 b0 95 4e 3e fd 66 0a bc 8f 59 92 3a fd 8b f0 be
       0.20174289 -0.008447406 0.0011165607 -0.46981803
000310 f6 7e 41 be 86 2a 17 be 3a 66 fb bb 34 ca 81 bd
       -0.18896088 -0.14762315 -0.0076720985 -0.06337395
000320 52 4f 0f 3f 3b a4 ec 3e 6d d1 c9 3e 28 9a 96 3e
       0.5598041 0.46219048 0.39417592 0.29414487
000330 e5 31 d2 3d 40 5d 19 3d dd 0b b2 3e 1b 47 89 3e
       0.10263423 0.037442446 0.34774676 0.26812062
000340 a2 92 96 3e 90 7b 13 3e b7 78 f3 3d f9 ec 69 3e
       0.29408747 0.14402604 0.11888259 0.22844304
000350 f4 52 6c bd f2 c5 a7 bd c7 2f 8a 3c a1 9e 38 be
       -0.057696298 -0.08192052 0.016868485 -0.18029262
000360 78 ca be be 6f fd ab be ac 90 08 3f c7 b9 65 be
       -0.37263846 -0.33591792 0.5334575 -0.2243415
000370 4a 78 97 be 4a 79 3d bc b1 12 4a bd 10 cf 85 bd
       -0.2958396 -0.011564562 -0.04933423 -0.06533635
000380 e0 9e fa bd 32 10 6b 3d 7e dd ab bd d2 ca 5f bf
       -0.12237334 0.057388492 -0.08391856 -0.87418854
000390 e1 11 8a be ad 4d 9f be bb 99 5a 3d 78 69 07 bc
       -0.26966766 -0.3111395 0.053369265 -0.008264892
0003a0 7a 4e b6 bc 85 25 a6 3c 7e 4c 0d be 72 dc 86 be
       -0.022254217 0.020281563 -0.1379871 -0.2634006
0003b0 e0 7a ed bd d3 be fa bd ec 1b 0f bc 4e 68 d7 bd
       -0.11595702 -0.12243428 -0.008734684 -0.105179414
0003c0 23 46 cc be 65 bd 6f bc cb 19 93 3d ae fe ae be
       -0.3989726 -0.0146325575 0.07182654 -0.3417868
0003d0 74 5b e3 bd 3d 7e 3b 3e 9a 73 9e 3d f6 40 69 be
       -0.11101428 0.18309875 0.07736893 -0.22778687
0003e0 b5 b8 7b 3e c6 3b 93 3b 55 dc 15 3d 32 31 96 3e
       0.24582179 0.0044932095 0.036587078 0.29334408
0003f0 0c 49 27 3d d4 04 f7 3e e0 31 82 bd f3 b0 24 3f
       0.040841147 0.4824587 -0.06357169 0.64332503

value_net.module_2.bias f4 [32]
000000 e3 00 9f ba 63 61 49 3c 60 24 c6 3b 40 c5 5b bb
       -0.0012131002 0.012291285 0.0060468167 -0.0033534318
000010 8c ea 06 3c 6a 54 ca 3c 7a 7a 24 3b b2 37 ba 3c
       0.008234631 0.024698455 0.0025097416 0.022731636
000020 25 bc 1c bb 37 ee 00 3c d6 32 d2 3c f1 3c a5 bc
       -0.0023915854 0.007869295 0.025659006 -0.02017066
000030 d1 a6 6e 3c 3d 82 80 bb d8 46 89 3c 34 3a 4b bb
       0.014566139 -0.0039217756 0.016757414 -0.0031010034
000040 4f 47 55 3b 19 6e 82 bb 95 61 32 bb 37 61 c9 3a
       0.0032543724 -0.00398041 -0.0027218808 0.0015364055
000050 98 f7 f0 bc 33 07 50 bd 80 65 07 bb 37 ef 1d 3c
       -0.029414937 -0.050788116 -0.0020659864 0.009639553
000060 81 b0 3f bb 00 ff 79 3b af 87 72 3c be 0f 7a bc
       -0.0029249492 0.0038146377 0.014802857 -0.015262542
000070 7e e9 1e bd c6 44 34 3c 7c af 94 3a 90 92 04 bc
       -0.038796894 0.011002725 0.0011343802 -0.008091584

value_net.module_2.lin.weight f4 [32, 32]
000000 98 87 51 3e 97 36 c9 bd cb 2f e8 be cc 85 75 3d
       0.20461881 -0.09824865 -0.45348963 0.05994205
000010 5e c9 85 3e fe a0 4a 3e 99 a5 3f 3e e8 c3 70 be
       0.26130193 0.19787976 0.18715514 -0.23512232
000020 af 09 9b 3d 3e 55 95 3e 05 4d 5b bd 37 b5 79 be
       0.075702064 0.29166597 -0.05354025 -0.24385534
000030 84 82 21 bf f0 bf 2f 3e 5d d2 c0 3e 86 37 8e 3e
       -0.63089776 0.17163062 0.37660494 0.27776736
000040 14 c2 3b 3e f0 c2 0f bf 85 f9 7e be 28 6a 28 be
       0.18335754 -0.56156826 -0.24899872 -0.16446745
000050 de f4 19 3e 3c 4b 36 be 95 63 1a be ad 3f 95 be
       0.15034816 -0.17802137 -0.1507705 -0.29150143
000060 4e e2 a5 be c7 23 43 3e fd c2 ce 3d 5b 1a 65 be
       -0.3239922 0.19056617 0.10095785 -0.22373335
000070 37 08 6b bd 5e 0d 50 be 75 e9 c1 be 5b e5 a2 be
       -0.05738088 -0.20317599 -0.37873426 -0.3181561
000080 e6 6c 6e 3d 08 57 3d 3e aa 66 20 3e b8 7a 88 bb
       0.058209322 0.18490231 0.15664163 -0.00416502
000090 4e 40 50 be 21 da e7 3e 0c ee 60 be 2c 26 13 be
       -0.2033703 0.45283607 -0.21965808 -0.1437003
0000a0 5c 16 d6 bc 61 35 4f bd 05 5e e7 3e 33 07 04 be
       -0.026133709 -0.050588015 0.4518892 -0.12893371
0000b0 2f 17 3a 3d d3 23 35 be c3 07 04 be ff af 5f 3b
       0.045432266 -0.17689447 -0.12893586 0.0034132001
0000c0 4c 27 5b 3e d2 6d 67 3e be 05 42 3e b2 39 0d 3f
       0.2140171 0.22600487 0.18947503 0.5516616
0000d0 78 06 e4 bd 58 66 45 3d e5 d7 7f be a9 8c 2a be
       -0.11134046 0.048193306 -0.24984701 -0.1665522
0000e0 59 ff 26 3e 6c 14 34 3c c2 56 a6 3e 50 99 f9 be
       0.16308345 0.010991197 0.32488066 -0.4874978
0000f0 42 de 5f bd 2c 73 e0 bd e1 da 46 be 1f fd b4 be
       -0.05465532 -0.10959467 -0.19419433 -0.35349366
000100 80 9e 99 bd a3 86 91 3b f9 8c 25 bc 5a 64 03 3e
       -0.075009346 0.004441099 -0.010104411 0.1283125
000110 b8 fa d9 3d 62 a1 b2 bd 76 7e a7 3d 0c 23 ea 3e
       0.10643524 -0.087221876 0.081784174 0.45729864
000120 8d d6 0b be 68 53 1e 3e c4 e3 5c be 25 5a dd 3d
       -0.13656063 0.15461504 -0.2157126 0.10808209
000130 3b 6e b0 be c8 b3 af bd 0e 8b 92 3e 52 01 eb be
       -0.344591 -0.085792124 0.28621715 -0.45899445
000140 74 71 81 be 13 cf 91 3e a9 5c f9 be 10 5e df 3e
       -0.2528187 0.28478298 -0.48703507 0.43626451
000150 dc e9 7b 3c 93 26 0b 3f d9 20 84 be e2 9d 6d 3b
       0.015375581 0.54355735 -0.2580631 0.0036257436
000160 97 62 87 3e 3b b9 f8 be 61 ac 1c 3d 68 ec f9 3c
       0.26442406 -0.4857882 0.03825033 0.030508235
000170 87 ea df 3c 23 f2 e3 3e a4 1f 28 be 92 55 35 3f
       0.027333511 0.44520673 -0.1641832 0.70833695
000180 c7 5d f7 be ba d6 76 3e d4 20 de be 40 d0 5b 3d
       -0.48313734 0.24105349 -0.4338442 0.0536654
000190 40 e6 bd be 6b fd 06 3e dc a3 46 3e 6d 10 db be
       -0.3708973 0.13182609 0.19398445 -0.4278597
0001a0 97 e9 74 3e 35 c6 12 bd a8 34 a7 ba f2 67 72 be
       0.23917232 -0.035833556 -0.0012756782 -0.23672464
0001b0 21 87 89 3e 48 12 3c 3f 30 d9 2b bd 8c 4a 8f 3e
       0.26860908 0.73465395 -0.041955173 0.27986562
0001c0 cd b5 7e 3e 3e 4b 01 3e 3b dd a4 bd e4 20 c3 bc
       0.24874039 0.12626359 -0.08050009 -0.023819394
0001d0 4b 88 47 3c 81 8c 50 3d d3 eb 49 be a4 ef 07 be
       0.012178491 0.050915245 -0.19718866 -0.1327501
0001e0 b9 8f 5b be de 45 25 3e dc 88 36 3c d8 b2 d9 be
       -0.21441545 0.16139933 0.011141028 -0.4251926
0001f0 a9 45 1b be fa d8 11 bf 63 44 e2 3d aa b9 34 3d
       -0.15163292 -0.56971705 0.110482 0.044122376
000200 d2 08 0a 3d 25 40 6e be 6b ee ea 3e a3 49 bc bd
       0.033699818 -0.23266657 0.45885023 -0.091937326
000210 6d 3d ba 3e b2 1c 81 3e 00 0c 8d be f0 e8 1e bd
       0.3637499 0.25217205 -0.27548218 -0.038796365
000220 99 71 30 bd fb 45 52 3e 16 52 03 bf fb dd 18 be
       -0.043077085 0.20534508 -0.5129713 -0.14928429
000230 1b a8 b7 bc 73 a5 dd 3d c8 77 84 3e dc 55 0b bf
       -0.022419026 0.108225726 0.25872636 -0.54427886
000240 cd b4 4f 3e 4f b1 47 3e 57 b9 88 be 5e 0b a5 3e
       0.20283814 0.19501232 -0.26703903 0.32235235
000250 19 4d 47 3e 43 50 05 3e 01 33 dc 3d 1f 09 9b 3e
       0.19463004 0.13018899 0.10751916 0.30280396
000260 ab be b3 3e b1 2c f2 3d 54 64 1e 3e d1 b3 cf 3e
       0.35106406 0.118249305 0.1546796 0.40566877
000270 cf dc 89 be d8 37 25 3e c0 fb 92 3e 87 e7 3c 3e
       -0.26926276 0.16134584 0.28707695 0.18447696
000280 b5 38 f6 be b6 ae bd be c4 81 37 3e 58 41 3f be
       -0.4809014 -0.37047356 0.17920595 -0.1867727
000290 1d 9a a9 be 4f 82 8a 3d 00 6b 14 3e 15 28 64 3d
       -0.33125392 0.06763136 0.14493942 0.055702288
0002a0 5b be a5 be cb 12 06 3d b4 8c 9c 3e 2c 8c fb 3d
       -0.32371792 0.032732766 0.30576098 0.12282595
0002b0 0d 7b 96 3d 01 6f 94 3e bd 85 af 3c 19 0d 45 bd
       0.07347689 0.2899094 0.021426076 -0.048108194
0002c0 6d 85 12 3e 4d 9a 02 bf 72 3b a5 3e cd f9 11 bc
       0.1430871 -0.51016694 0.32271916 -0.008909655
0002d0 e4 3c 8f bd 9e ab 3a 3e ef e0 aa 3e ab 3a dc bd
       -0.06994036 0.1822953 0.33374736 -0.107533775
0002e0 88 96 b5 3d 32 b8 9b bd ff 56 3f 3e ac 24 a4 3e
       0.08866602 -0.07603492 0.1868553 0.32059228
0002f0 83 d2 0a be 60 a9 97 3e 03 3f d7 be a4 bd 20 be
       -0.13556866 0.2962141 -0.42040262 -0.15697342
000300 b8 af 02 3e 30 11 1e be 99 9e 8d be 05 87 02 3f
       0.12762344 -0.15436244 -0.27660063 0.50987273
000310 e9 e4 13 3d 65 28 98 bd 06 03 b5 bd 5d a3 3b bd
       0.036106978 -0.0742958 -0.08838467 -0.045810092
000320 61 cd f7 3d f0 95 a8 3c 9f a9 9b 3e 1c ce b1 be
       0.1209972 0.020579308 0.30402848 -0.3472756
000330 42 5e 8e bd 4e ac 2a 3e a3 1b 41 be 60 0a 0e be
       -0.06951572 0.16667292 -0.18858199 -0.13871145
000340 70 70 bc be e1 11 f4 3e 37 74 c9 bb 28 bc 0b be
       -0.36804533 0.4766989 -0.006147887 -0.13645995
000350 8c 29 49 be 2b 47 4e 3e 79 87 65 3e d3 08 38 3e
       -0.19644755 0.20144336 0.2241496 0.17972116
000360 e2 e7 ee 3d 8f 7e f3 3d ae b1 d3 3e 3a 70 c7 3e
       0.11665322 0.118893735 0.41346496 0.3895281
000370 d6 38 61 3e bb cf d6 bd 28 2e 1e 3e fe 2a 0f be
       0.21994337 -0.1048884 0.15447295 -0.13981244
000380 11 34 c4 bd 80 73 0f bd 78 a8 4f be 09 34 cb bd
       -0.095802434 -0.03502226 -0.2027911 -0.09922034
000390 a1 6a 8b be b7 0c 65 3e 61 2e ae 3c cf 90 01 3f
       -0.2722979 0.22368132 0.02126235 0.50611585
0003a0 04 22 b5 bd ba 7c 55 3d 90 7f af be a1 30 c6 be
       -0.088443786 0.0521209 -0.3427701 -0.38708976
0003b0 22 d3 25 3d d4 63 9d 3d d4 c4 6c bd 25 ef 08 3b
       0.040484555 0.07685056 -0.057804897 0.0020894494
0003c0 8f a7 f3 3d 92 8b 58 3e ee 61 0d 3e be f0 64 be
       0.11897194 0.21146992 0.13806888 -0.22357461
0003d0 9c c5 1a 3e ab d9 e6 be 0d 67 42 be e8 55 2b be
       0.15114444 -0.45087942 -0.18984623 -0.1673199
0003e0 61 97 2f 3e 48 60 26 3e 63 58 45 be ee 55 12 3d
       0.1714759 0.16247666 -0.19271998 0.03572648
0003f0 4e 93 29 3e 5f ac ba 3e c8 08 94 3e 32 89 c5 3d
       0.16560099 0.36459634 0.2891295 0.096453086

value_net.module_4.weight f4 [32, 32]
000000 b9 38 0a be f5 78 05 be 59 e5 9c be fc fa 22 3e
       -0.134982 -0.13034423 -0.30643728 0.15916055
000010 fe f6 4b be 88 45 ad bc 6a 66 64 be 5d a8 b4 be
       -0.19918439 -0.02115132 -0.22304693 -0.352847
000020 6e 68 86 bd f7 a9 9c 3e c2 56 9f be 72 39 15 3d
       -0.06562887 0.30598423 -0.31120878 0.036431737
000030 0a e0 9d be e6 55 00 3e bf 3d 8c be 34 79 ce be
       -0.3083499 0.12532768 -0.2739086 -0.40326846
000040 06 17 f7 bd 6b ae 6a 3e 46 95 af bd 98 f0 cc bd
       -0.12064938 0.22918098 -0.085733935 -0.10006827
000050 2b 83 e1 bc 22 93 fd 3e 7c 99 46 3c 14 75 64 3e
       -0.027528366 0.49526316 0.012121554 0.22310287
000060 63 c4 74 be 60 be 71 3e 96 12 3a be fc 24 81 3e
       -0.2390304 0.23607779 -0.18171152 0.2522353
000070 e5 41 1e be 7a 98 f4 bd c0 79 55 3e aa f8 b7 3d
       -0.15454824 -0.11943145 0.20847225 0.08982976
000080 b2 dc 84 3d 85 dd 46 3e f2 90 fb 3e 0f 72 90 be
       0.06487407 0.1942044 0.49134022 -0.2821202
000090 74 f0 27 3f 0d 87 08 3e e3 02 bd bd b0 d5 7b bd
       0.6560128 0.13332768 -0.09229066 -0.061483085
0000a0 c5 e3 11 3e 26 91 dd be b7 29 e1 bc c0 f2 e6 be
       0.14247043 -0.43274802 -0.027485712 -0.4510708
0000b0 3c 59 58 3e 5d 95 9b bd 6d 19 ce bd 82 d3 f8 bd
       0.2112779 -0.07596848 -0.10063443 -0.12149717
0000c0 f0 05 93 bd 41 59 a8 be bc 5a 0b 3e ba 30 3c bd
       -0.07178867 -0.32880595 0.13608831 -0.045944907
0000d0 8c a2 68 be 18 4f 58 3e 9a 3d 7b bd bb cd 87 bd
       -0.22718257 0.21123922 -0.061338045 -0.06631037
0000e0 7c aa 32 be f0 4a 80 be 49 71 eb 3d 39 d6 2d 3d
       -0.17447847 -0.25057173 0.11496217 0.042440627
0000f0 f6 26 c3 bd e1 b7 f2 3c f7 6c 8b 3e 2a 2f af 3e
       -0.095289156 0.029628696 0.2723157 0.3421567
000100 6a a3 9e b9 e4 fc f7 bd 00 63 1a 3f 03 b4 0c 3f
       -0.0003025786 -0.12108782 0.6030731 0.54962176
000110 a3 3a 02 3e c3 ff bb 3e f5 11 51 bd ac b8 a5 bd
       0.1271768 0.36718568 -0.051042516 -0.08091864
000120 10 94 9b bd 8e 65 f9 3d 30 f1 32 3b b0 d9 d6 3d
       -0.075966 0.12177573 0.0027304403 0.10490739
000130 68 fd 8e be ff cb 60 be d6 7d a3 be 2f bb 52 bd
       -0.2792771 -0.21952818 -0.31931943 -0.051448043
000140 db e3 69 be a7 0e 8f 3d 2d 09 63 3d 27 a9 88 bd
       -0.22840826 0.069852166 0.055428673 -0.06672888
000150 26 83 75 3e 1c e4 0d 3e 66 57 78 3c 3d 48 8d 3d
       0.2397581 0.13856548 0.015157556 0.06898544
000160 5c 0c 80 3e 25 eb 71 be 4b f6 5b bd b7 4f da 3d
       0.2500943 -0.23624857 -0.05370168 0.10659736
000170 b4 56 87 3c 13 5f 94 3e 3b 48 9a be 81 75 cd be
       0.016520835 0.28978786 -0.30133232 -0.4012871
000180 0c 3e e1 3e 84 ce 87 bd 1a 95 13 be af f4 e0 bc
       0.4399265 -0.066311866 -0.14412346 -0.027460424
000190 a0 1c 41 be be 39 e4 3e c8 89 52 3e 55 5b bb 3c
       -0.18858576 0.44575304 0.20560372 0.022870699
0001a0 6b aa 60 3e ef 41 74 3b fb a3 ca bc c1 a5 33 3c
       0.2194001 0.0037270745 -0.024736395 0.010964812
0001b0 8e d2 90 be ef 73 bf 3d 23 3c 37 be 54 69 b1 3e
       -0.2828564 0.093482845 -0.17894034 0.3465067
0001c0 87 49 10 3e ed cd 1a 3e 6c 22 c6 3c e9 14 11 bf
       0.14090548 0.15117617 0.024186336 -0.5667253
0001d0 5d 0b dd 3d 4b da de be 56 13 04 3e 2a cb 06 3c
       0.10793183 -0.4352592 0.12898001 0.008227149
0001e0 9a 38 cc be 7c 76 59 3c 01 2d 51 3e fd 64 8b 3e
       -0.39886934 0.013272878 0.20427324 0.27225485
0001f0 cb 2b 89 bd c6 73 27 3e 82 ee 7b 3e e2 26 fb 3d
       -0.06697806 0.16352758 0.24602702 0.12263276
000200 75 ad fe bd 72 b0 9d 3e 3a 3f 40 3e 60 23 07 3e
       -0.12435428 0.3079868 0.18774119 0.13197088
000210 d9 2f 38 be 6c 0c 06 3e 26 aa 3a 3d 2f 4a bf be
       -0.17987002 0.13090676 0.045572422 -0.37361285
000220 bc b0 47 be 0a 43 4e be b5 33 c4 3d 93 76 4f be
       -0.19501013 -0.20142761 0.09580175 -0.20260076
000230 5b ca c4 bd 62 37 06 3f e4 60 2a 3f 61 fb b4 bd
       -0.09608909 0.5242826 0.66554093 -0.08837009
000240 42 8e a1 bd 4a 78 8a 3e 83 a5 59 3e 18 e5 89 be
       -0.07888462 0.27044898 0.21254544 -0.26932597
000250 26 ae 4e be 7c e6 a0 bd 0a 20 55 be de a5 6f 3b
       -0.2018362 -0.078564614 -0.20813003 0.003656737
000260 c6 f4 05 bd 2f 75 dc 3d 48 24 95 bd fd c6 69 be
       -0.032704137 0.107645385 -0.07282311 -0.22829814
000270 43 01 d2 3e 15 88 54 bd 38 ec cf 3d 8a 37 33 3e
       0.41016588 -0.05188759 0.10152477 0.17501655
000280 e1 c0 03 be 53 65 11 3e c1 d1 24 bd d4 c6 01 3d
       -0.12866546 0.14198808 -0.0402391 0.031683758
000290 ce d2 01 3f 8c b0 87 be fc 8a 9e 3e 32 d7 db 3e
       0.5071229 -0.26501882 0.30965412 0.42937618
0002a0 a3 e1 f0 3c 3c d3 9d ba 5a 5b cf bd 73 8a 50 be
       0.029404467 -0.0012041102 -0.10124846 -0.20365314
0002b0 0e d4 a7 bd fe 01 64 be 90 de ee 3e b8 01 16 bd
       -0.08194743 -0.22266385 0.46654177 -0.036622733
0002c0 a7 9f 62 bd 90 d7 45 3e a1 59 cc 3e 51 c2 85 be
       -0.055328038 0.19320512 0.3991213 -0.26124814
0002d0 49 60 36 3e 75 4d 51 3d da 02 a5 3e 5e 51 39 be
       0.17810167 0.05109926 0.32228738 -0.18097445
0002e0 15 f4 e9 bd ca a1 00 3f 44 a8 a6 bd 0c 02 71 3e
       -0.11423508 0.5024687 -0.08137563 0.23535937
0002f0 b1 84 2c 3e 61 a3 de 3e af 63 4a be 1c a9 f9 3d
       0.16847493 0.43484023 -0.19764589 0.12190458
000300 e9 48 96 3e 32 c4 59 be c5 8b cd bd 8b 33 49 3d
       0.293525 -0.21266249 -0.100364245 0.04912142
000310 56 b0 51 3e 7e 37 fd 3d b1 f7 d7 bc e1 88 bd 3e
       0.20477423 0.123641 -0.026363226 0.37018493
000320 f3 fa c8 be a6 1d 47 be fa 8c 99 be 29 a7 1d 3e
       -0.3925396 -0.19444904 -0.2999037 0.15395798
000330 42 61 0f 3e 1f f0 57 be 28 3e ab 3e 0f f6 b4 3c
       0.14001945 -0.21087693 0.3344586 0.022089986
000340 e0 b2 80 bd f7 3e 27 be 52 26 34 be d3 01 d2 be
       -0.06284118 -0.16332613 -0.17592743 -0.41017017
000350 31 99 1c be eb a2 51 3b 16 d4 e0 be 56 b1 a5 be
       -0.15292813 0.0031987976 -0.4391181 -0.3236186
000360 cd 43 91 3e 3a ca e2 bc 73 10 c7 be 6b b7 a4 bd
       0.2837204 -0.02768432 -0.38879737 -0.08042797
000370 6c 38 62 3e 1e c9 3b 3e 18 87 30 3f cc aa 08 be
       0.22091836 0.18338439 0.68956137 -0.13346404
000380 f0 93 4b 3e 07 33 04 3f 18 12 7a be 1c aa 62 3e
       0.19880652 0.5164036 -0.24420965 0.22135204
000390 e1 d3 9f be 87 81 4c 3e a4 f6 51 be c5 03 a6 3e
       -0.31216338 0.19971286 -0.20504242 0.3242475
0003a0 b2 7c 0a bd 8b f9 85 3e d7 6b 12 3e 34 84 e8 bd
       -0.033810325 0.2616695 0.1429895 -0.11353341
0003b0 20 37 80 bd 60 83 20 3d 3a 35 cc be 39 25 13 be
       -0.06260514 0.03918779 -0.3988436 -0.14369668
0003c0 70 79 c6 be 09 b9 ec be bc e3 c2 3d 62 ab 74 3e
       -0.38764524 -0.4623492 0.09516093 0.23893502
0003d0 b0 11 5b 3e 85 86 99 be 21 77 9e be c6 b0 c9 bb
       0.21393466 -0.29985443 -0.30950263 -0.0061551062
0003e0 17 56 49 bd 3b 07 2b 3e 79 b0 c9 bd cc ab d2 3c
       -0.049154367 0.16701977 -0.098481126 0.025716685
0003f0 13 ba b9 3e 88 60 1d 3e a4 cf be bd bc e8 f7 3e
       0.36274776 0.15368855 -0.09316948 0.4841975

value_net.module_4.bias f4 [32]
000000 b1 59 50 bd 86 db 35 bd 76 80 1f bb 45 7a f5 bc
       -0.050866786 -0.044398807 -0.0024338043 -0.02996553
000010 38 65 8c 3a 0c 81 2d bd 58 c6 1e bd 25 b1 13 bd
       0.0010711318 -0.042359397 -0.038763374 -0.03605761
000020 25 d4 c2 bc d8 88 38 bd 21 e8 ce bd ac af 32 3d
       -0.023782799 -0.04505238 -0.10102869 0.043624565
000030 7e f4 13 3b f5 2c 3a bd 55 a4 4c 3d 4a e8 40 bd
       0.0022576149 -0.04545303 0.049961407 -0.047096528
000040 69 9a 7c 3d ba 7c 45 3c 08 e9 5a bd 1e 0d c7 bc
       0.061670695 0.012053663 -0.053444892 -0.024298247
000050 a7 eb 35 bd 7a 2e ba 3c b8 9e 36 3d fb 5f 47 bd
       -0.04441419 0.02272724 0.04458496 -0.04867552
000060 4b 3f 71 3d 25 e8 6e 3d 27 67 50 3d b8 8d 7c bd
       0.05889825 0.05832686 0.050879624 -0.06165859
000070 d4 13 21 bd 30 73 6d bd 79 e7 41 bd 7f c2 3f bd
       -0.03932555 -0.05797118 -0.04733989 -0.046816345
