MAPPO/Graph_H/save/SY_2_T2/agent_12_MAPPO_c.pt (torch, 127962 bytes, 15 tensors)

policy_net.0.weight f4 [32, 26]
00000000: 402f 163d 8aa9 573e 623e f73c 0efe 23bf
00000010: 6e43 793e b0ca 9f3e d692 a2be 16db 8a3e
00000020: 0239 fa3e e841 64be a3a9 1dbe 3631 49be
00000030: eee7 193e 8bce 72bd cccd 353e c80b a53b
00000040: 89c6 20be 0792 ba3d 776e 2abe 38e5 9fbe
00000050: 89c5 943d 9719 3ebd 8ee6 6e3e 0c5a 993e
00000060: 4c74 f43e ecb4 193f 87d2 abbc 30f8 153d
00000070: 881e 1f3e 5c2d c13e 23d9 e03c 2823 3cbe
00000080: 14a9 f93d a5ea 3f3d ea96 e0bd 0602 ab3d
00000090: 4d50 9bbe 2734 7cbe f69d 10bf 8a1f 96bd
000000a0: 5aa1 21bd 2fe7 2cbe 0d72 cdbd cee7 643e
000000b0: e0cb 9d3e 4359 cd3b 5ffb 923e a205 963d
000000c0: dd48 88bd 433c 7e3c a232 09bf 8680 223f
000000d0: b699 2abd cf98 91be 7d01 4d3c 89d2 8b3e
000000e0: 5d4e 47be 4d99 9c3c babd 923e da3f 23bf
000000f0: 7910 ea3e 8794 b53c ff4d 36bf 1095 613e
00000100: 1dde b93e 3ba9 62be 454a 06bf d5cb e5bd
00000110: aa20 583c 40d2 9dbd 4156 ed3e d7b2 91be
00000120: c1a5 f03c 2805 3fbe acec 0d3e c817 94be
00000130: c1d7 72bc 2fed 6d3d 2d3b 153f 7795 0a3e
00000140: 5298 153e 3f32 b93e 0a02 633e d810 8cbc
00000150: 71ce 25be 184b 62bb 5318 c1be 2304 00bf
00000160: 370f debe ff34 703e b15d 033f ad9d 843d
00000170: b800 c5be e44b b3be 427b f2be c225 233e
00000180: 02ea 633e e8b6 983e 7c5b 013f ec1a 39bf
00000190: 856a 0bbf 49a2 72bd af42 cfbd 59ff 5cbe
000001a0: 1162 a33e a1fe a13e 02d6 92be bcda efbe
000001b0: 0933 d03d 15a4 b0be df78 93be 2d11 73bd
000001c0: e506 05bf a9c0 833d b183 75be d530 433e
000001d0: 2257 193e d335 673d 6b4c 39bd 81d1 bbbe
000001e0: 87b8 943e 65c0 003f 4038 2e3e f3fc e1bc
000001f0: 0ae1 5b3e bcd9 243c 0658 53be 06ef 58be
00000200: 0608 86be d82e 8b3b fc8f 46be 50e3 353d
00000210: 49de a6bd 0682 45be 5706 893b 8152 573e
00000220: 6a91 2bbe 6e14 3bbf dcad 0e3e 2e5c bdbe
00000230: 37b5 4dbd d9d2 103e 910f 73be a9e3 e43e
00000240: 03ac debd bd26 64be fefa 61be 3288 223f
00000250: f41a 753e 1b13 853e fb90 e63c 95e8 40bf
00000260: 6980 e9be 7155 2dbd 924e 8cbe 32b8 9dbd
00000270: 4128 dd3e 80e5 09be e730 9e3d 2dd4 a63d
00000280: 4ed2 793d da2e 963d 4c42 b13e 8d5c 223e
00000290: 61d1 6f3e fb79 9e3e da15 2f3f c38a 693c
000002a0: 601d 6c3e 0915 093f a44d f03b 9d60 383d
000002b0: 827a 1bbd 0408 50bd a54f db3a 3512 b1be
000002c0: 688a 633e fddc 7b3e 1362 c63d cf64 03be
000002d0: cb31 dbbd 2e62 b1bd 9629 873d 6389 d33d
000002e0: 8210 55bd 3e55 3d3e 2d03 a93d 3750 fdbe
000002f0: af41 dbbd 7dc5 a7be 8e3d dd3e b3de 75bd
00000300: 6f40 0a3f 052f 28bf 1391 47bd dc07 c4bd
00000310: 035c 143f dca5 dbbc 9d6e b6bd 60a8 0fbe
00000320: 121c 9dbe b48c 88be 53c2 aabe ff2e fc3e
00000330: 4205 3f3e 83af 2d3e 4077 683d 6af2 08be
00000340: e4aa 0d3f 88b8 ad3d 22d1 f6bd 9b9c f53c
00000350: 15cb bebe fff6 ae3c 0164 ca3c 5cec e9bd
00000360: 4601 923e c7c8 38be 41d9 7ebe db01 69be
00000370: 5137 18be 979d 10be 132a 4cbf f228 733e
00000380: 7bf3 493e 1468 613e 162c 21be f60f 0dbd
00000390: dc22 9c3e c2cd bfbe 3dc9 0dbf 50bc 8f3e
000003a0: f7bf ddbe 6483 17be 9243 d03e c750 753d
000003b0: 2445 ab3e 2301 7abe e76f ba3e 3202 67be
000003c0: 789f 10be 0750 11be c3e5 283e 614c eabd
000003d0: f2f2 4cbd bf14 b6bd f219 f43d c154 333c
000003e0: c245 07bf d545 5b3b e613 103f 4119 7e3e
000003f0: dc60 883e 908a cb3e 3d30 f13e 7c8c 03bf
0.036666155 0.21060768 0.030181114 -0.6405953 0.24342129 0.31209326 -0.31752652 0.27120274
0.48871619 -0.22290766 -0.15396743 -0.19647679 0.1502988 -0.059279006 0.17754287 0.005036805
-0.15700735 0.09109884 -0.16643701 -0.31229568 0.07264239 -0.046411123 0.23330137 0.29951513
0.47744977 0.6004169 -0.02097441 0.036613643 0.1553899 0.3772992 0.027447289 -0.18372786
0.12190452 0.046854634 -0.109662846 0.08349995 -0.30334702 -0.2462927 -0.5649103 -0.07330234
-0.039460517 -0.16885065 -0.10031519 0.22354051 0.30819607 0.0062667443 0.28707406 0.07325293
-0.066545226 0.015517297 -0.53592885 0.6347736 -0.041650496 -0.28436896 0.012512562 0.27309063
-0.19463487 0.019116068 0.28660375 -0.63769305 0.45715693 0.02216555 -0.7121276 0.22029519
0.3630227 -0.22134869 -0.52457076 -0.112205185 0.0131913815 -0.07706118 0.4635487 -0.28456756
0.029375913 -0.1865431 0.13859814 -0.28924394 -0.014821948 0.058087524 0.5829342 0.13533579
0.14608887 0.36171147 0.22168747 -0.017097875 -0.16192032 -0.0034529623 -0.3771387 -0.5000631
-0.43370983 0.23457716 0.51314837 0.06475387 -0.3847711 -0.35018837 -0.47359663 0.15932372
0.22257236 0.29827046 0.5053022 -0.72306705 -0.5445941 -0.0592368 -0.10120141 -0.21581782
0.31910756 0.3163958 -0.286789 -0.4684657 0.10165984 -0.34500185 -0.28803155 -0.059342552
-0.51963645 0.064332314 -0.23976018 0.19061597 0.14974645 0.056447815 -0.045238893 -0.36683276
0.29047033 0.5029357 0.17013645 -0.027586436 0.21472564 0.010061678 -0.20639047 -0.2118493
-0.26177996 0.0042475276 -0.19390863 0.044406235 -0.08147866 -0.19287881 0.004181664 0.21027566
-0.1675469 -0.7307805 0.1393351 -0.3698439 -0.050221648 0.14142932 -0.23736407 0.4470494
-0.108726524 -0.22280402 -0.22068402 0.6348907 0.23936063 0.2599114 0.028145304 -0.7535489
-0.45605782 -0.04231781 -0.27403694 -0.07701148 0.43194774 -0.13466454 0.07724171 0.08145938
0.060991578 0.07333155 0.34620893 0.15855618 0.23419715 0.3095244 0.6839272 0.014254275
0.2305808 0.5354772 0.0073334742 0.045014013 -0.03795863 -0.050788894 0.001673211 -0.34584203
0.22220767 0.24596019 0.09686675 -0.12831424 -0.10702857 -0.086613044 0.06599729 0.10328939
-0.052017696 0.18489549 0.08252559 -0.49475262 -0.107058875 -0.3276786 0.43211025 -0.060026836
0.5400457 -0.65696746 -0.048722338 -0.095718116 0.579529 -0.026812486 -0.089078166 -0.14029074
-0.30685478 -0.26669848 -0.33351383 0.49254605 0.1865435 0.16961484 0.05675435 -0.13373724
0.55338883 0.08482462 -0.12051608 0.029981902 -0.37264314 0.021358011 0.024705889 -0.11422035
0.28516597 -0.1804534 -0.24887563 -0.22754614 -0.14864852 -0.14122616 -0.797517 0.23746088
0.19721787 0.22012359 -0.15739474 -0.03443905 0.30495346 -0.37461668 -0.5538519 0.2807336
-0.4331052 -0.14796215 0.40676552 0.05989149 0.33451188 -0.24414496 0.364135 -0.22559431
-0.14123333 -0.14190684 0.16493897 -0.11440349 -0.05003638 -0.08890676 0.11919011 0.0109455
-0.52840817 0.0033458371 0.5628036 0.24814321 0.26636398 0.39754152 0.47107115 -0.5138624

policy_net.0.bias f4 [32]
00000000: e1d2 3d3d d762 b63c 2571 1fbe 4e2f bdbd
00000010: a71d 163d 44a9 3cbd 6b4e 353d 0659 97bc
00000020: 0542 60bd 518c 5bbc 957f 38bd 28cd a03c
00000030: e0f5 38bc b305 9b3d 79a4 22bd eb76 8b3c
00000040: 4a9a a13d 9ed3 d7bc 4d3b c9bd bcd6 f33b
00000050: 96e4 15bd d3fc 063d 0a00 8dbd 1c2e 19be
00000060: a0ea 343c b64c 40bb 5754 e13c 2e82 81bd
00000070: 73ab 463d 81ac c23d 5cb8 9dbd aa40 4f3c
0.046343688 0.022263927 -0.15570505 -0.09237538 0.036649372 -0.04605986 0.04426424 -0.018475067
-0.05475046 -0.013400153 -0.045043547 0.019629076 -0.01128909 0.075694464 -0.039707635 0.017024478
0.078907564 -0.026346024 -0.09825764 0.00744137 -0.03659495 0.032955956 -0.06884773 -0.14958996
0.011042267 -0.0029342598 0.027506037 -0.06323658 0.04850335 0.09505559 -0.077011794 0.012649694

policy_net.2.weight f4 [32, 32]
00000000: eb4d a2be 7ff9 333e 4e2c 453e dd08 8f3e
00000010: 5305 9fbd a7ad 203e a477 713e f27c abbe
00000020: 53cc b73d 5821 6bbd e578 cc3e f1e5 0d3d
00000030: 8202 703e 6dff b03d abf7 0dbe 4266 26bf
00000040: 1103 643d 46e2 0cbe 2b84 ce3d 72ca 7c3e
00000050: e8ae 11bf 66bc 7b3e d580 1abe 049d d23c
00000060: a701 0f3c a196 b13e ccbd c23e bff8 88bd
00000070: 5e76 df3c 02fa 34be a042 03bf 9a9f 803f
00000080: 4ae8 0f3e 9c25 103e c349 30be 0dcf b03e
00000090: 1999 f93d 81c9 6dbe 9838 11be 661a f83d
000000a0: cb56 2fbe 268b 553c 9437 73be 359e ec3d
000000b0: 75cd adbc 2487 fabe 024f a1be 1d4a 963e
000000c0: 6440 c0bc 3e96 3b3e 24cc f93d e418 d0bd
000000d0: 8564 963d f00a 193d 4133 de3e 02fa a83d
000000e0: 3710 273e 7857 0cbf 294f ff3e d763 c0be
000000f0: eedf 13bf bc15 85bd aeef 2cbf 1149 8f3e
00000100: 9a6a 99be 4d16 803e 8be1 913d c84b 9c3e
00000110: be5d dd3d 7ddb 69bd afe9 363f c156 643b
00000120: 2cd3 853e c597 6f3e a47d fd3d bec9 70be
00000130: 1bc8 063d fc35 0cbe 9ad4 babd f1d4 6d3e
00000140: 446a 19be 4353 acbe 8956 3bbd 2d98 6dbd
00000150: eaee 50be 132d 7fbe da37 833d 5d3c 73be
00000160: 566e eb3d 3723 fcbd 81c7 a13e 484a 80be
00000170: 2eb4 4e3e d5f4 333f 2c85 16bf 7d41 82be
00000180: c58c 6d3d f2d9 0f3e 058a b53e 9811 8d3e
00000190: 8367 b23d b8ab 5f3e 0c8f 06be 2efa 3ebf
000001a0: ca21 083f 2abe aa3c 884a 65bd 77b5 503e
000001b0: d1cb 9cbe 4180 5d3e 57ca e1bd 00be 5dbf
000001c0: bc7a 093f de60 42bf 95f4 acbe 9a33 d03d
000001d0: 4f19 95be 7408 58be 08d5 f13d bd33 323e
000001e0: 3c65 af3e abd2 c9bc cfbc 6a3e 6039 90be
000001f0: 1523 acbe e9f5 a53e 2be7 92bd cb68 bc3e
00000200: 9e9d c3bd 13ed 6ebd b964 713e bbf3 ba3d
00000210: b620 ee3e 274b 313e a49b 93be 26e4 003b
00000220: 1654 b63e dcae 0d3e f8c5 bfbb b5e5 09bf
00000230: e02c debe 93cc f63d 9b7c 02bf f3fc d4be
00000240: 0e3d 363e be9e 31bd c1d2 6e3e 7ade a33e
00000250: ac85 a0be acc7 32be 2e2d c93d 2b7c 7d3e
00000260: 3362 523e f275 9ebe 97a7 e63e b496 68be
00000270: 5855 0a3f 5589 e8bc 3077 093e 51b3 0b3f
00000280: 7170 8d3c 4543 0fbf a0f9 9c3e 0a77 f0be
00000290: d20f 7cbe 2d6d e4be 9aa7 ef3e 1878 da3c
000002a0: 9931 5bbe f1d6 aabe af56 83be 5bf6 8e3e
000002b0: fbcf 88bd 0cbf 2ebe a257 54bd bee0 bebd
000002c0: cb78 03bf d037 f8bd d32c 9e3e 97a6 593e
000002d0: 4ad3 7a3e d0b2 1b3d 62ca a8bd 73af f53e
000002e0: 1cad 073d 9e55 84be ec35 f3ba cd3a 0a3e
000002f0: 5695 af3d 2815 0c3e 2ec8 02be 5f92 fa3c
00000300: ac4b 0bbd 4835 7d3e d6ff 4fbd d5eb 8e3e
00000310: b1fa 00bf ffa7 eebe 755d 02be 7332 753e
00000320: 5e1a 2dbe bdc8 98be 1be8 d03a b4a5 c9bd
00000330: e4cf 9a3e 466e c0be 9f2a c0bc 5da5 653e
00000340: adfd bfbe c844 f4bd 2c05 3b3e 581b 1c3f
00000350: 2534 f43e 8024 bebd 01a8 033e b001 843d
00000360: 1bb6 013f 02ed 983d 2095 95be 6d36 723d
00000370: 730f 9e3e 79cb bcbe be6d 7b3d e54c 23bf
00000380: 9ef6 96be 5abb d9bd 06a4 24be b8ff 2c3f
00000390: 63e1 e43d b345 a13d 29f3 bcbc 631e 3cbd
000003a0: e6ea 093e e2ea 853e 516c b13d f952 b5bd
000003b0: 876f a7be 1722 363e efa7 d93e 1b63 9ebe
000003c0: 5baa 053f c4e4 babe e670 ad3d 5a40 d13b
000003d0: e1b5 92be 696b f0be c5b8 b9be b01a 97bd
000003e0: 6346 0dbe 682b 2cbf 9025 a6bd 9e07 06bc
000003f0: c64e db3d 6f14 273d 47d2 64be e4f7 6f3f
-0.31700072 0.17575644 0.19255182 0.2793645 -0.077646874 0.15691243 0.23580796 -0.33493763
0.089745186 -0.057404846 0.39935985 0.034643117 0.23438457 0.086424686 -0.13864009 -0.64999783
0.055666987 -0.13758191 0.10083803 0.24686602 -0.5690751 0.24583587 -0.15088208 0.025709637
0.008728421 0.34685233 0.3803543 -0.066880696 0.027278122 -0.17673495 -0.51273537 1.0048707
0.14053455 0.14076847 -0.17215638 0.34532967 0.12187404 -0.23221399 -0.14181745 0.1211441
-0.17122953 0.013033664 -0.2375167 0.11553613 -0.021216134 -0.4893123 -0.3150559 0.2935342
-0.023468204 0.18319032 0.1219714 -0.101609975 0.07343391 0.037363946 0.4339848 0.0825081
0.16314779 -0.54820967 0.49865082 -0.37576172 -0.57763565 -0.06498286 -0.6755322 0.27985433
-0.29964143 0.25017014 0.07123097 0.30526567 0.108088955 -0.057094086 0.7145032 0.0034841748
0.26137674 0.23397739 0.1237748 -0.23514459 0.03290568 -0.13692468 -0.09122582 0.23225762
-0.14981943 -0.33657274 -0.045736823 -0.058006454 -0.20403638 -0.24919538 0.06407137 -0.23753496
0.11495654 -0.12311404 0.31597522 -0.25056672 0.2018592 0.7029546 -0.58796954 -0.2544059
0.057995576 0.14047983 0.35456863 0.27552485 0.087111495 0.21842849 -0.13140506 -0.74600494
0.5317656 0.02084263 -0.05597928 0.20381723 -0.3062425 0.21630956 -0.110249214 -0.8661804
0.537029 -0.7592906 -0.3378035 0.10166092 -0.2912087 -0.21096975 0.118082106 0.17402549
0.34256923 -0.024636587 0.22923587 -0.28168774 -0.33620515 0.32414177 -0.07172998 0.367987
-0.095515475 -0.05833156 0.23573579 0.09128519 0.4650933 0.17313825 -0.28829682 0.0019667237
0.35611027 0.13836235 -0.005852457 -0.5386613 -0.43393612 0.12050738 -0.5097138 -0.41599235
0.17796728 -0.04336428 0.23322584 0.32005674 -0.31351984 -0.17458981 0.098230705 0.24754398
0.20545273 -0.3094936 0.45049736 -0.22713739 0.54036474 -0.028385798 0.13424373 0.5457049
0.01726553 -0.5596202 0.306592 -0.4696582 -0.2461541 -0.44614545 0.46807557 0.026668593
-0.21405639 -0.33367112 -0.25652072 0.2792233 -0.06680294 -0.17065066 -0.051841386 -0.0932021
-0.5135619 -0.121200204 0.30893573 0.21254955 0.24494663 0.038012326 -0.082417265 0.4798542
0.033124074 -0.2584657 -0.0018555499 0.13498993 0.085734054 0.13679945 -0.12771675 0.030587373
-0.034007713 0.24727356 -0.050781094 0.279143 -0.50382525 -0.46612546 -0.12730964 0.23945026
-0.1690459 -0.2984065 0.0015938313 -0.098460585 0.30236733 -0.37584132 -0.023457823 0.22426362
-0.37498227 -0.119271815 0.18263692 0.60979223 0.47696033 -0.092843056 0.12857057 0.06445634
0.50668496 0.07467081 -0.29215336 0.059133936 0.30871162 -0.36873987 0.061383955 -0.63789207
-0.2948503 -0.106314376 -0.16078195 0.67577696 0.111758016 0.07874622 -0.023065167 -0.045927417
0.13468513 0.26155764 0.08663238 -0.088537164 -0.32702276 0.17786442 0.42510936 -0.30934986
0.52213067 -0.3650266 0.08468799 0.006385845 -0.28654388 -0.46956947 -0.3627378 -0.07378137
-0.13796382 -0.6725373 -0.08112633 -0.008180527 0.10708384 0.04079097 -0.2234584 0.93737626

policy_net.2.bias f4 [32]
00000000: f177 283d 1ec7 053e af92 983d d3dd 373d
00000010: 2d9b 26bb 88d0 5ebc 4a93 db3c 9254 673d
00000020: 4d95 683d 2544 d43c d799 37bc 6796 223d
00000030: 0e21 c1bd 3ea4 cabc fb15 a83c 2935 0d3e
00000040: c8e1 823d 46f1 e23d dad7 ca3c 6e4c d93d
00000050: 7d43 2abe 8a3c 9ebd e3be a9bd eae3 033d
00000060: c5e8 bcbc af50 dfbd 04f8 413d 6073 113d
00000070: 5afe a53d 93f2 b1bd f4d7 a4bc f65f 8b3d
0.04113001 0.13064238 0.07449853 0.044889282 -0.0025422082 -0.013599522 0.026803631 0.056477137
0.05678301 0.0259114 -0.011206112 0.039694216 -0.09430133 -0.02473652 0.020518294 0.1378981
0.063907206 0.110811755 0.02476113 0.10610281 -0.16627307 -0.07726391 -0.08288362 0.032199778
-0.023060212 -0.10904061 0.047355667 0.03551042 0.08105154 -0.086888455 -0.020122506 0.068054125

policy_net.4.weight f4 [32, 32]
00000000: 7242 94be cddc c43e abe6 253f 97e3 833d
00000010: adb6 a63e e41a f4bc ced8 c23e 54ed 84be
00000020: f244 34bc 78c4 163f 8cf1 e0bd fc5a d53d
00000030: bfc4 5ebe a7c8 403d 9881 ec3d ac75 823e
00000040: 22ce aebe 6a1f b23e c60c 813b 57d4 103f
00000050: b407 1e3e 0ab5 21bf ba1a dbbd 2eee 873e
00000060: 376e 2c3d b8d4 ddbe 33b8 27be ade2 6bbe
00000070: b222 dc3e 5149 87be 2525 c63d af93 863e
00000080: e17e 16bf b1cd 013e 524a b63d 9c74 16bf
00000090: 8470 f3be a71b b63d 217b c13e 6176 f0be
000000a0: 6d65 26be 8bb0 fe3e 8bda e33e e70a 373e
000000b0: 5f69 563e 0929 ddbe 6122 0ebe 367c 0c3f
000000c0: ad2b b0be c6d7 9a3b 2619 a4be 0078 88be
000000d0: b024 8b3d b361 743e f008 9ebd de8b 9b3e
000000e0: ab43 29bf b354 de3c e494 1abd 9894 13bf
000000f0: 3360 d4be efd7 da3d e441 ebbe 829f 83be
00000100: 1b9c c93e 4540 bb3e d22f 153e b7dd 8d3e
00000110: fddb 62be e684 8cbd 9183 dc3d 64e8 7e3e
00000120: 8984 d73c 537f a23e e560 0fbc c0ba a3bd
00000130: 74aa 4fbe 6803 b5bd 87fe c73e f23b 933e
00000140: 39c5 dcbd cc10 b53d 65a3 b43e 558e 963e
00000150: 28ce e7be 48f7 f7be 4e05 00bf 1939 443f
00000160: c147 4e3e 245d d8bd 55b3 b73e 1107 b8be
00000170: 2e2d 47be dcae adbc c0b8 b5be c996 da3e
00000180: c67f 7cbc 9c9e 963e 9842 523f c2f0 4dbe
00000190: cf57 ee3d 84bf 7b3d 2b5a 1fbf 3809 08be
000001a0: 2de0 bf3e bd28 493e 8ef3 c33d bb67 66be
000001b0: e2b5 703e 4258 76be 2ecf 0fbe b547 cb3e
000001c0: 57b9 31bd e0ca 113e 086a be3e 7dfd 453c
000001d0: 5223 a5be b6c5 1e3c 57b3 afbe ccc1 713e
000001e0: f820 053c b8ea f6bd 2ee8 a73e e785 b2bd
000001f0: f9eb 7b3e 6dbf b2be bec0 863e ec35 283f
00000200: df95 d43d 3807 903e 480b 23bf e49b cd3b
00000210: 69f7 013e 45bf fbbe ae86 bb3d b3d7 b5bd
00000220: 62cb 0bbe 55ff 8a3e 6b97 56be 0fe1 d73d
00000230: 3e69 973e ba2e 623e 77b6 71be a2a9 c1be
00000240: fca3 f13c 6eaa 23bf 3254 44be cdb8 cfbe
00000250: cc26 093e bbb9 223f c215 5dbb 4c51 f7bc
00000260: 6cd8 8f3e 5590 f53e f228 bdbe c9ba 53be
00000270: 4074 463d 0d0a 963e a912 f13e d029 99be
00000280: b43f b4bb f254 cabe 1d79 febd 738f 44bf
00000290: 2795 9abe aa61 7cbd dcd0 4e3e 5455 b7be
000002a0: 0c03 f1be c045 fe3c ed74 26be 60c6 e2bc
000002b0: 186d a93e 01cd 10bf fd70 353f 85ba fd3e
000002c0: 5174 3b3e a250 b8be 2035 d7bc 4b38 0dbe
000002d0: a3b6 03be baf4 9abd 0b99 ce3d 93b0 4bbe
000002e0: 8dad 6a3c f4fb a1be dd3b 53bf c4f4 6dbe
000002f0: 863b abbe 8159 103f 9acf 9a3e 2aaf 29be
00000300: 92a3 03be 4b8a d2be 70f3 a1bc 69b3 60be
00000310: c1de 3b3e 4cef 9ebe 00e8 77be 6d63 91be
00000320: 2b8e 54be 7f11 2b3e 678e eb3c 46d7 dbbe
00000330: 15e6 1dbc 303f 2b3e a4e6 8a3d 4dab 1fbf
00000340: 21a4 48bd 3ae6 9cbe e057 14be f4d9 0bbf
00000350: 0146 803d 92a9 7ebe bcf9 a73e 05ec 87bd
00000360: 8938 873e 76b1 d23e b9c9 963d b888 933e
00000370: 14ac 04bf cad1 a43e 387f c33d 13cd 52bf
00000380: f739 3ebd 867d 3fbe d491 1e3e 490e 9b3e
00000390: e52a 303e 6b7d 36be 5b77 d0be ab96 1f3e
000003a0: 06bb 4cbd 68ca ee3e 7921 8f3d 9fa4 853e
000003b0: 5317 4dbc a893 bebd 293d 27bd 344a a63e
000003c0: 317f 1a3f c71f 003f 4882 f03e f8f3 8e3e
000003d0: 77ad 213e dc09 53be 5b65 f3be b237 0e3f
000003e0: 1465 f5be c520 32bf 4d2a 953d 021c 22be
000003f0: 2a51 9b3e 3815 45be 9e26 8cbe 412f 1e3e
-0.28956944 0.38449708 0.64805096 0.06439894 0.32561246 -0.029797979 0.38056034 -0.25962317
-0.011002766 0.5889354 -0.109835714 0.104177445 -0.2175474 0.047066357 0.115481555 0.25480402
-0.34141642 0.34789592 0.0039382903 0.56574005 0.15432626 -0.6316687 -0.10698457 0.26548904
0.042097297 -0.43326354 -0.1637886 -0.23035689 0.4299522 -0.26423123 0.096750535 0.2628455
-0.5878735 0.12676121 0.08900894 -0.5877168 -0.4754678 0.08891993 0.37789252 -0.46965316
-0.16249628 0.49744067 0.44502673 0.17875253 0.20938633 -0.4319537 -0.13880302 0.5487703
-0.34408322 0.004725429 -0.32050437 -0.26654053 0.06794107 0.23865394 -0.077165484 0.30380148
-0.6611888 0.027139997 -0.03773965 -0.5764861 -0.41479644 0.10685717 -0.45948708 -0.25707632
0.39376912 0.3657247 0.14569023 0.27708218 -0.22154231 -0.06861286 0.10767282 0.24893337
0.026308315 0.31737766 -0.008751129 -0.07994604 -0.20279866 -0.0883854 0.39061376 0.28756672
-0.10779805 0.088410944 0.3528091 0.29405466 -0.45274472 -0.48430848 -0.50008094 0.76649624
0.2014456 -0.1056464 0.35879007 -0.3594289 -0.19450828 -0.021201544 -0.35492516 0.42693165
-0.015411323 0.29417884 0.82132864 -0.20111373 0.11637842 0.06146194 -0.6224696 -0.13284767
0.3747572 0.19644447 0.09567939 -0.22500508 0.23506883 -0.24057105 -0.14043877 0.39703146
-0.043389644 0.14237547 0.3719027 0.012084362 -0.3225351 0.009690693 -0.34316513 0.23609084
0.008125536 -0.12056488 0.32794327 -0.08716946 0.24601735 -0.3491167 0.26318926 0.6570728
0.10380148 0.28130507 -0.6368909 0.006274687 0.12692036 -0.49169365 0.091565475 -0.08879032
-0.13651803 0.27147928 -0.20956199 0.105409734 0.2957248 0.22088137 -0.23604761 -0.37824732
0.02949714 -0.6393193 -0.19172743 -0.4057068 0.13393706 0.6356465 -0.0033734892 -0.030190133
0.28094804 0.4796168 -0.369453 -0.20676722 0.04845071 0.29304543 0.4708455 -0.29914713
-0.005500758 -0.39517933 -0.12425444 -0.76781386 -0.3019192 -0.061616577 0.20196861 -0.35807288
-0.47072637 0.031039119 -0.16255541 -0.027682483 0.33091044 -0.5656281 0.7087553 0.49556366
0.1830609 -0.35999018 -0.02627045 -0.13791005 -0.12862639 -0.07566209 0.100877844 -0.19891576
0.014323604 -0.31637537 -0.8251322 -0.23237902 -0.3344385 0.5638657 0.30236512 -0.16570726
-0.12855366 -0.41121134 -0.0197694 -0.2194344 0.18346693 -0.31041944 -0.24209595 -0.28396168
-0.20757358 0.16705893 0.028754426 -0.42937678 -0.009637375 0.16723323 0.067822725 -0.6237076
-0.04898465 -0.306444 -0.14486647 -0.54629445 0.06263352 -0.24869373 0.3280772 -0.06636814
0.2641032 0.41151017 0.07362694 0.28815246 -0.5182507 0.32191306 0.095457494 -0.8234417
-0.046442 -0.18700227 0.15485317 0.30284336 0.17203863 -0.1782128 -0.4071606 0.15584819
-0.049983047 0.466388 0.06988806 0.26102158 -0.012517768 -0.09305507 -0.04082981 0.32478487
0.6035033 0.5004849 0.46974397 0.27920508 0.15788828 -0.2060923 -0.47538266 0.55553734
-0.4792868 -0.6958125 0.07283459 -0.15830997 0.3033536 -0.19246376 -0.27373213 0.15447713

policy_net.4.bias f4 [32]
00000000: d19a 4c3e 9cd8 cbbb ab5e 623e 319f 433e
00000010: 7321 62be d1f3 9ebc 6501 62be 4810 543e
00000020: 3e64 17bd e8f7 25be e421 31be b328 fa3d
00000030: 5d46 3abd 104e 7abb b3e4 643e d7e3 d6bd
00000040: 7d95 343e d189 ae3c 6d47 873e 091a 4dbe
00000050: fb76 8b3d 1837 efbd 0dcf 7b3e 05b8 2abe
00000060: d661 123e 5e98 6dbe af28 74be c22b 39be
00000070: f5c2 62be fd6d 2ebe 1173 44be 75ff 53be
0.19980933 -0.00622089 0.22106425 0.19103695 -0.22083072 -0.01940337 -0.22070844 0.20709336
-0.036960833 -0.1620785 -0.17298084 0.12214794 -0.04547726 -0.0038193502 0.22352867 -0.10492676
0.1763515 0.02130595 0.2642168 -0.20029463 0.06809803 -0.1168043 0.24590702 -0.1667176
0.14295134 -0.23202655 -0.23843645 -0.18083099 -0.22144683 -0.17034145 -0.1918452 -0.20702918

policy_net.6.weight f4 [21, 32]
00000000: 12a3 b63e 47cc cabe 3b9f bb3e f299 b73e
00000010: 2887 b9be 1648 11bf 6934 bcbe 3e9a b93e
00000020: 80ec 1ebf 5c38 c3be e2e5 c2be ca3b bc3e
00000030: 59f5 eabe b76e 09bf 45f4 c13e 30e4 8ebf
00000040: de0d bb3e a3be 19bf b77f af3e 3715 b9be
00000050: 5a61 2e3f 645e bebe 9ad6 b53e 7d21 babe
00000060: 0581 bc3e d6fe adbe d602 b9be bb90 babe
00000070: 113c b5be 7475 c0be 84c5 b6be cf97 c1be
00000080: b95b ac3a 1ea1 b2ba 38f7 f5b9 553e b4ba
00000090: 6735 52bb 92a8 233b 93c6 4a3a c53d 633a
000000a0: dd19 fc3a 4120 8dbb 1636 8539 3ebe d33a
000000b0: 996a efba 0204 1f3b 415c 35b9 a1a8 06bb
000000c0: b45c f8ba 5268 1039 dd7a e23a c5d8 133a
000000d0: a50b 56ba b8dd e0ba b7ce 333b fb88 fcba
000000e0: 6bfa 643a b921 25bb a55d 8cba dbb3 12bb
000000f0: ddd5 4f39 7eb3 993a 3265 a3ba 3910 33b9
00000100: 6add a93a 8567 ac39 ce37 67b9 4481 2139
00000110: d81b 29ba 92dd 5db9 69b4 74ba 20fe 24bb
00000120: 4f14 c03a d98d 2639 3cca 0839 7bd1 953a
00000130: 2622 1fba e01f 4839 e252 a9ba 2a2b 20bb
00000140: 717d 833b e54f 66ba 7bac 70ba 9254 0c3b
00000150: abaf df3a aa7d bfb9 4817 99b9 b816 a5bb
00000160: 5953 153a b3cc 3c3b 0deb 3439 9079 7339
00000170: fe6d 153a e965 88bb 5db2 aaba 8ee8 7639
00000180: cfa1 2cbb 802f 85ba c187 0e3a 4dec 27ba
00000190: e626 77ba aef4 fcba 5e5d 463a 6c01 77b9
000001a0: 00ff 9db9 bc26 d5ba 55bd 433a 9043 6dba
000001b0: fb08 53bb 3799 29bb b236 27ba d3ad 2e3b
000001c0: 6220 73bb 97dd 2d3b 358d d239 655b 2e3a
000001d0: 9e90 433b e52d 2339 cdf2 053b ca6b b2ba
000001e0: 2715 13bb 8727 8f3a 6d48 063a cb47 d23a
000001f0: c9f6 0e3b 99b4 0fbb c958 18ba b3f9 bb3a
00000200: 8838 17bb 16b7 923a 94b6 8bba ddf0 60ba
00000210: 9e48 59ba ec3c 8139 302c 49ba 308c f63a
00000220: 6e79 33bb bb2b d839 c523 9bbb 877b 1dba
00000230: 5629 a63a 9b53 1839 1044 00b8 f57d 3c39
00000240: 0429 833a be0f 4539 67a1 9b3a 93de afba
00000250: dd99 403a 5df1 683b 3eda 3f3b dc2d 3cbb
00000260: 15eb 013a 30a2 f7b9 43e1 8039 b8bb 43bb
00000270: a2dc 1b3a 3a52 86ba 4b15 323b f4be bdba
00000280: cf17 2938 071e a1ba 26e1 8d39 8b12 9539
00000290: a7d3 eaba f801 733b 74e7 3f3a fc88 563b
000002a0: 5193 903a 68b4 073b ab3b d63a 658c 8bba
000002b0: 4b58 2a3a b2ad 32ba 6f7b d0ba 692f 4b3b
000002c0: adfd 3b3b bbee 31ba 74eb 54bb 9027 1c3a
000002d0: c9c1 a6ba f79d e8ba 998f 2e3b 7d75 ff39
000002e0: 9002 45bb e7ca 66ba 66f8 a93a 323d 83ba
000002f0: 368f a239 7c8f ddba dae2 083a bcac 1d3a
00000300: 585d bd3c 34d0 b63c 8feb c23c c13f cc3c
00000310: 74e7 bcbc 2dba b4bc 721c b9bc f7ce d03c
00000320: eef1 a13c 768a c0bc c5fb b2bc ff4f a53c
00000330: 49a2 bebc dd62 7f3c aa0f ae3c 9b9a 853c
00000340: 8bb7 bf3c 04f4 c3bc c97a d73c 55c3 a2bc
00000350: b9a7 8abc da1b b4bc 43c0 ae3c 7d6a b1bc
00000360: abaa ad3c f0f7 b5bc f0f7 c8bc b1f6 bdbc
00000370: b54c d0bc 08a3 b9bc 23f6 acbc b162 a9bc
00000380: d8cd 57bc 8964 1cbc 04b2 82bc c39e 5cbc
00000390: aebc 4d3c 9335 84bc e2a2 943c d81e 5abc
000003a0: b137 7abc e121 c53c cfe7 6e3c f30e 46bc
000003b0: bb8b e0bb 81a0 12bc ed21 84bc 3934 aabd
000003c0: 5b22 53bc 87c5 18bd 6204 6ebc 8d78 1c3c
000003d0: 872c c73b a6cf 493c 5c6c 4fbc 2404 723c
000003e0: 5d5f 53bc 7030 963c cefa 583c e1de 653c
000003f0: cdb7 6e3c b8c4 7f3c 1744 833c 45d3 5d3c
0.35671288 -0.39608976 0.3664492 0.35859638 -0.3623593 -0.5675062 -0.36758736 0.3625049
-0.6207962 -0.38128936 -0.38066012 0.36764365 -0.4589031 -0.5368456 0.37881675 -1.1163387
0.36534017 -0.60056514 0.34277126 -0.36148998 0.68117297 -0.3718139 0.3551529 -0.36353675
0.36817184 -0.33983487 -0.36134976 -0.36438546 -0.3539739 -0.3758961 -0.35697567 -0.37811133
0.0013149894 -0.0013628339 -0.00046914234 -0.0013751487 -0.0032075287 0.0024972302 0.00077352783 0.0008668567
0.0019233782 -0.0043068235 0.00025408034 0.0016154719 -0.0018266022 0.0024263863 -0.00017295872 -0.0020547288
-0.0018948526 0.00013771773 0.0017279048 0.0005639906 -0.00081651873 -0.0017155921 0.0027436444 -0.0019266898
0.0008734825 -0.0025197102 -0.0010709061 -0.0022385034 0.00019820729 0.0011726466 -0.0012466072 -0.00017076814
0.0012959663 0.00032883525 -0.00022050666 0.00015402312 -0.00064509874 -0.00021158744 -0.00093347445 -0.0025175884
0.001465449 0.00015883836 0.00013045309 0.0011430228 -0.0006070457 0.0001908536 -0.0012918378 -0.002443979
0.0040127565 -0.0008785709 -0.0009180975 0.0021412713 0.0017065903 -0.00036523986 -0.0002919978 -0.0050381087
0.00056963187 0.0028808534 0.00017253701 0.00023219571 0.0005700289 -0.0041625393 -0.0013023127 0.00023547022
-0.0026341563 -0.0010161251 0.0005437099 -0.0006405756 -0.00094280986 -0.0019298994 0.00075670134 -0.00023556285
-0.00030135363 -0.0016262154 0.00074668723 -0.00090509 -0.0032201398 -0.0025878677 -0.00063786947 0.00266539
-0.003709816 0.0026529783 0.0004015953 0.0006651192 0.0029840837 0.00015561988 0.002043891 -0.0013612446
-0.0022443028 0.0010921814 0.00051224866 0.0016043124 0.0021814576 -0.0021927713 -0.000581157 0.0014341384
-0.0023074467 0.001119348 -0.0010659271 -0.00085808133 -0.0008288714 0.00024650188 -0.0007674126 0.001881009
-0.002738561 0.00041231312 -0.0047344887 -0.0006007482 0.0012677114 0.00014526995 -3.0580966e-05 0.00017976
0.001000673 0.00018793248 0.0011873663 -0.0013417773 0.0007347146 0.0035544254 0.002927437 -0.0028713858
0.00049559894 -0.0004723235 0.00024581896 -0.0029866528 0.00059456576 -0.0010247894 0.0027173336 -0.0014476464
4.0314913e-05 -0.0012292274 0.00027061364 0.0002843331 -0.001791586 0.003708003 0.0007320561 0.0032735458
0.0011030232 0.0020706896 0.0016344687 -0.0010646699 0.0006498142 -0.0006816044 -0.0015905927 0.00310036
0.0028685138 -0.0006787588 -0.0032488974 0.0005956823 -0.0012722547 -0.0017747273 0.0026635884 0.00048724926
-0.0030061342 -0.00088040385 0.0012967705 -0.0010012744 0.00031005748 -0.0016903724 0.0005221792 0.0006014814
0.023115799 0.022316076 0.023793964 0.024932744 -0.023059584 -0.022061432 -0.022596572 0.025489314
0.019768681 -0.023503523 -0.021848569 0.020179747 -0.023270743 0.015587536 0.021247704 0.016309073
0.02340295 -0.023920067 0.026303666 -0.019868532 -0.01692568 -0.021985937 0.021331912 -0.021657223
0.021199545 -0.022212952 -0.024532288 -0.02318892 -0.025427202 -0.022660747 -0.02111346 -0.020676943
-0.013171636 -0.009545454 -0.015954025 -0.013465586 0.012557192 -0.016138827 0.018144075 -0.013313018
-0.015272067 0.024064006 0.014581635 -0.012088525 -0.0068525947 -0.0089494 -0.016129458 -0.08310742
-0.012886609 -0.03729775 -0.014527412 0.009550226 0.006078306 0.012317574 -0.012660112 0.014771495
-0.012901154 0.018333644 0.01324339 0.014030189 0.014570189 0.015610866 0.016023679 0.01353914

policy_net.6.bias f4 [21]
00000000: 976a b73e 0000 0000 0000 0000 0000 0000
00000010: 0000 0000 0000 0000 86fb b73c 3e80 62bc
00000020: 0f52 d63c 22ba 6e3e 93d6 843e 237c 703e
00000030: 4861 863e dfa9 a83d 79e1 c13e f114 973e
00000040: 23d2 123d 5016 8c3d 0203 cc3d 3058 1c3b
00000050: 4c4a 8abb
0.3582351 0.0 0.0 0.0 0.0 0.0 0.022458803 -0.013824521
0.026162175 0.23313192 0.25944957 0.23484854 0.26246095 0.08235525 0.37867334 0.29508165
0.035844933 0.06840193 0.09961511 0.0023856275 -0.0042202827

value_net.0.weight f4 [32, 770]
00000000: 4de4 24bd f22e c13c 9b88 38bd a096 c33c
00000010: e761 433d c6b2 6a3d 53de 6cbd c2e6 4abd
00000020: b224 6e3d f351 3fbe ac00 af3b 12a4 8bbd
00000030: d810 293c 0f1b ac3c c773 793d ad39 ba3c
00000040: 850b 913e e7b4 43be 450d e83c 77cb cc3d
00000050: a80a 27bd 582f ccbc 0dda ed3b de58 c63b
00000060: 416f 5abd 043f 1a3c 0a7c a13c 4a1b 9cbd
00000070: 1bd3 023d bd0a a83b 3ac4 19bc 33bc a2bb
00000080: b549 70bd 840e 893d ff9d 113c 0d3e f03b
00000090: 9df4 263b c946 283b e8fb 41bb ec7a 4fbd
000000a0: 5fb9 f63c 4b1d ad3d 1b59 d7bb 284f a33c
000000b0: e38a e4bd bde6 96bd 8c2c 04be e99e 493b
000000c0: 7b9c cbbc e581 0e3c de50 8bbd ae15 07bc
000000d0: cb7d 8bbd b7c5 53bd 4d9b 903d ecbe 913d
000000e0: 8430 893d f86a 80b8 eab5 873c cd95 2dbd
000000f0: 9867 acbc c2bd 87bc b3b4 2c3e 45dd 5e3c
00000100: 1d69 133d 330c 90bb 9bab f23d 0f14 0cbd
00000110: 20a1 d33b 86cd 2dbe da97 bbbd 49f3 88bc
00000120: 8d03 6f3d 3d09 febd 9789 d63c d503 623c
00000130: 4231 40bd 265b 02bd ecf4 dabc a669 883d
00000140: 8700 a6bc afda a9bd 7637 fabc 2f96 d33c
00000150: 0a7c 7a3a 547d 91bd 2c06 283e 9f83 a7bc
00000160: a4d7 553d f5dc d6bc b451 243c 6f80 533e
00000170: 6df7 05bd cf37 96bd 8f0f a2bb 0b14 cdbd
00000180: dd42 4fbe 78ef 83bc 99d3 a73d 09af 1d3d
00000190: fbd0 ffbc e73d a0bd cfd8 1f3c 9afa de3a
000001a0: 0613 f93c 2c75 ce3c 3ab4 93bd 716d fd3c
000001b0: 0d46 9ebc 00d4 24bd 6f92 4cbd b88b 20bd
000001c0: 54e7 d0bd 7507 d5bc 1083 5ebd 868a 1abc
000001d0: 2a36 d73d 0a40 023d f76e e9bc ee9c 01bd
000001e0: 108e 8ebd df4b 83bd 9e92 d6bd 7ff7 123d
000001f0: 2b62 413d 03c5 893d 8b03 b03c b126 793d
00000200: a944 46bc 3ec4 3e3e 0860 c2bc 86b7 96bd
00000210: c1fe abbc 6551 23bd d4c2 d03d 26c6 d13a
00000220: c966 c3bd 7bb9 52bd 6e18 d13c ac57 203b
00000230: 70d2 aa3d cca8 c83d b541 563d 4281 11bd
00000240: 6caf 89bd 8e14 c5bd 2d8c d1bd 7b1d 9fbd
00000250: d76d 88bc c07f 863d cac6 6bbd 1924 9e3c
00000260: e2d2 813d ffc2 5f3d 03f3 223e 98ba 383c
00000270: 2f88 7c3b ab27 973c f198 20bd 49d4 1b3c
00000280: cebd 9e3c d268 aabd 7587 92bd e2bc 8bbd
00000290: e368 27be 7874 1bbd 2475 dc3d 62c1 47bc
000002a0: 6342 cebc 3223 c7bc 5344 a1bc c36c a13d
000002b0: a1c4 c63c 875a 1f3b 628e 583e ee29 9bbd
000002c0: e49d d3bc cbb6 98bd 8ea7 8a3d 96cc 583d
000002d0: 8bf3 14bd 9045 8dbd 629f 9bbc 7bec 00bd
000002e0: 94b5 b1bd 2c13 04bd e768 9a3d 07d7 88bd
000002f0: f3e5 d5bd 5fe2 56bd 949e c13d 9100 193c
00000300: 9c72 acbb 6cb5 d63c d00d a93d ac46 adbc
00000310: c886 c63c c552 16bd 023c 0dbc 9295 993d
00000320: b31f 9abd 6564 d83c 2c94 21bd 34f9 c2bc
00000330: a6c3 b13d 2e68 0c3d a925 4f3d 45ac e3bb
00000340: 5955 02bd 8635 e7bd 8837 7dbd fdef d73b
00000350: 8090 1fbe a01f 83bc c988 8ebc 0118 a23d
00000360: 1581 003e 4f0f afbb 0610 a3bd 08c3 07bd
00000370: 7f10 5a3c c798 93bd d05e a93d 5fb2 283d
00000380: 1385 f93d 1245 16bc 59fb aeba 6c16 62bc
00000390: d16a 3c3c 4a75 d1bb 9961 10bb bb56 6bbd
000003a0: c84b c9bd 30c4 11bc a3ba 89bd ce9d 813d
000003b0: 413d a23d 6f7d 723c f156 02be d755 17bd
000003c0: 0d3a cbbc 90c6 083e 392d 59bd 9768 eebc
000003d0: aa5a 993d 89e6 91bd 3db5 f93c bc37 51bd
000003e0: 1bcd b83d 00d7 6b3d 1ec2 f7bc 75c7 72bd
000003f0: 0885 2fbd 1bfa 7cbd 5825 f33d 2418 8d3d
-0.040256787 0.023581956 -0.045052152 0.023875535 0.04770079 0.057299398 -0.057829212 -0.049536474
0.058140464 -0.18683605 0.0053406563 -0.06818403 0.010318957 0.021008996 0.06090143 0.02273258
0.283291 -0.19111978 0.02832664 0.09999745 -0.040781647 -0.024924919 0.0072586597 0.0060530743
-0.053328756 0.009414438 0.019712467 -0.076223925 0.031939607 0.005128233 -0.009385163 -0.0049662828
-0.058664043 0.06692222 0.008887767 0.007331616 0.002547539 0.0025676957 -0.002959961 -0.050654337
0.030117689 0.08452853 -0.0065719015 0.019935206 -0.11159303 -0.073682286 -0.12907618 0.0030764884
-0.02485489 0.008697961 -0.068025336 -0.008244915 -0.068111025 -0.051702227 0.07060871 0.071164936
0.06698707 -6.12344e-05 0.016566236 -0.04237919 -0.021045491 -0.016569976 0.16865806 0.013602559
0.035988916 -0.0043959855 0.118491374 -0.034198817 0.0064584166 -0.16972932 -0.09159823 -0.01671757
0.058352996 -0.12404106 0.026188655 0.013794859 -0.046921976 -0.031825207 -0.026728116 0.06660776
-0.020263923 -0.08293664 -0.030544024 0.025828449 0.00095552264 -0.071039826 0.16408604 -0.020448504
0.052207604 -0.026228407 0.010029245 0.20654462 -0.032706667 -0.073348634 -0.0049457024 -0.100135885
-0.2024035 -0.016105399 0.08194656 0.038497005 -0.03122758 -0.07824307 0.009756281 0.0017011941
0.030404579 0.025202356 -0.0721211 0.030935975 -0.019320512 -0.04024124 -0.049944337 -0.039195746
-0.10200372 -0.026004532 -0.05432421 -0.009432441 0.10508378 0.031799354 -0.028495295 -0.0316438
-0.0696069 -0.06410956 -0.10477184 0.035880562 0.04721276 0.0672703 0.021486064 0.060827915
-0.012101331 0.18629548 -0.023727432 -0.07359223 -0.0209955 -0.039872546 0.101934105 0.0016004487
-0.09541089 -0.05144642 0.025524344 0.002446632 0.08340919 0.097978204 0.052308757 -0.03552366
-0.06722912 -0.09623061 -0.102318145 -0.07769295 -0.016653938 0.06567335 -0.057562627 0.019304322
0.06339051 0.054629322 0.15913014 0.011274956 0.003853332 0.018451532 -0.039208356 0.009511062
0.019377615 -0.08320774 -0.07154743 -0.06823136 -0.16348605 -0.03795287 0.1076453 -0.012192102
-0.02517814 -0.024308775 -0.0196859 0.07882073 0.024263682 0.0024315433 0.21148065 -0.07576357
-0.025832124 -0.0745674 0.0677024 0.052929483 -0.036365073 -0.068980336 -0.018996898 -0.031475525
-0.086772114 -0.032244846 0.0753954 -0.06681638 -0.1044425 -0.052461978 0.094540745 0.009338514
-0.005262686 0.026209556 0.08254588 -0.021151863 0.02423419 -0.03670003 -0.008620264 0.074992314
-0.075255774 0.02641506 -0.03944795 -0.02380047 0.08679895 0.03427904 0.050573025 -0.0069480264
-0.031819675 -0.11289506 -0.061820537 0.006589888 -0.15582466 -0.01600629 -0.017399209 0.07914735
0.12549241 -0.005342401 -0.079620406 -0.03314498 0.013309597 -0.07206874 0.08270037 0.041185733
0.12183585 -0.009171741 -0.0013350054 -0.013799291 0.011500076 -0.006392156 -0.002203083 -0.05745576
-0.09828907 -0.008896872 -0.06725051 0.06328927 0.079218395 0.0148004135 -0.12728478 -0.036947098
-0.024807954 0.13356996 -0.053021643 -0.029102607 0.07487996 -0.07124049 0.030481929 -0.051078543
0.09023496 0.057578087 -0.03024393 -0.05927225 -0.042851478 -0.061761957 0.11872357 0.0688937

value_net.0.bias f4 [32]
00000000: 7a1c 21bc 2844 193d eb03 3cbd b560 463d
00000010: c8a4 973d 4db9 99bb 3f0f b73b 3bbe 873d
00000020: 2147 26bd 419d 153d 9480 603d 2bb4 a6bd
00000030: 3655 163d 8d40 643d 8fb1 c8bb e875 37bd
00000040: 1d8f b43c c6cd 623b 7cac 223d 5a86 b63b
00000050: f756 263d a7a6 0ebd 4213 c239 52b8 0fbd
00000060: 8c34 29bd e9e4 ac3d a5e4 10bd c960 58bd
00000070: 68a3 0b3d 0b56 6f3c 71a0 ccbc 6196 a8bc
-0.0098334495 0.037418514 -0.045902174 0.04843207 0.074044764 -0.004691279 0.0055865343 0.066280805
-0.040595178 0.036526922 0.05481012 -0.08139833 0.036702357 0.055725623 -0.0061246823 -0.04479018
0.022040898 0.0034607514 0.039715275 0.005570215 0.04061028 -0.0348269 0.00037016912 -0.03508789
-0.04130988 0.08442099 -0.035374302 -0.052826677 0.034091383 0.014607917 -0.024978848 -0.020579519

value_net.2.weight f4 [32, 32]
00000000: 9b6f 15bf 8b61 af3c 0de1 343e 824e 7cbe
00000010: 6da0 c4be 0d8c 203f 519b 443e d073 593e
00000020: a5ad 01be 3081 4ebe 88cb 993e ea75 543e
00000030: 7e78 9a3c bb0e e93d c873 63ba 4936 c23e
00000040: 0612 5a3d ff14 d23c f43c 22be 12e9 e53e
00000050: 9a5b 9c3c dd6d 963d c371 45bd fbf3 6b3e
00000060: 86cf 223e 656c 6d3d 31fc 483f 81aa ef3e
00000070: 6cf7 6bbd a9ab 9b3e 9b16 c1bd 1b70 be3e
00000080: dc11 c73d e6c6 adbe dc77 b43e 31b7 9cbe
00000090: b668 5a3e 0723 df3c 212f 3cbe 5067 b53b
000000a0: d68e a93e 4b07 4dbc dc0b 103e 6c91 ffbe
000000b0: a8e7 38be 6f1b 53be f578 a4bd d302 10be
000000c0: 11c3 c2be e4dd ddbe f07b 9fbd 6764 05bc
000000d0: 49f2 1e3f 6737 4dbe ffd7 883e 549c 0c3e
000000e0: dad7 5e3e 09d3 bb3c 0669 30be 4882 13bd
000000f0: d82f ed3e 10d2 143f f5ef 7fbe eb7e c1be
00000100: 2ada 5f3f 3e66 06be 74ea 4b3d 8f39 923e
00000110: 53ce e2be b676 7c3e 3b85 a23e 1662 983e
00000120: 1150 bdbc 971e 143e 99db dabe 523c 743e
00000130: e893 08be 8c2a 86be 8e41 823e 4ac0 bebd
00000140: 933a 203f 5037 573c 4b31 c43d 8071 503e
00000150: eb11 6fbe b1e9 053c 1f8c 7d3e 7707 973e
00000160: 4da6 5bbe 1af1 55bd 1dfc 5cbd 79d2 403c
00000170: 6edf 213d 33aa 543e 3917 6bbe e0a2 0e3e
00000180: 996b a3be 89f2 e33e 85ed e3bd 200f c1be
00000190: f28e d13d af4e c93e 21a6 afbd 9ea3 de3e
000001a0: 961e b33e bb4f 85be e345 e53e e0d9 0bbf
000001b0: 4387 7c3d 1454 0a3f d624 9d3e 0e50 dfbe
000001c0: 152c 433e d530 e73e 2337 da3d afd2 8d3e
000001d0: 1c8e 1d3e 5fa5 9cbc 4597 f7bc 158b e2bd
000001e0: bcd0 643c 1280 acbe fd0f 40be 9d47 f5bc
000001f0: 6167 86be 2c32 96bd 33fb 1d3d eda8 533d
00000200: de6e a2be 70c1 fb3d 17d0 ebbe e518 9ebe
00000210: cf51 293f 36f9 d93c 1a24 2f3e 988e a0bd
00000220: aa1a 1f3e 0c6d 0bbd 21a9 923d 4e8b 8c3c
00000230: 1e1c 6e3d 148c 0fbe 0665 c83e 29cc 75be
00000240: 0e2d 3dbe 72ff cabe 7c5c db3e 7831 753e
00000250: ae30 f23d 6051 1e3e 2ae6 18bd fdc6 06bf
00000260: 4f54 e23e 151f 703e 9d76 8d3d 9f7b aebe
00000270: a3ae 81be 4c04 843e e4bf abbe e1bf 07be
00000280: 1f36 623e 160b c23c 641d ec3e 7444 723e
00000290: 8d95 963d 543c 33be fd5f a93e be67 c8be
000002a0: 185b 113e 392b 0c3e ae7a b2bd d0b7 c83d
000002b0: 3249 053f c9ea 95be a738 373e 608b 86be
000002c0: 41f5 143e fd67 4cbe 38d0 aebe a6e6 b93e
000002d0: b748 623e 9566 aa3d 713d 81be 9223 d73e
000002e0: b45b c8bc 7e7a a63d 7aca 51bc 55d2 133f
000002f0: faaa f6bc faca c7be 0316 adbe de84 8e3e
00000300: c88d c9be 7308 8abe 3fe3 2fbf 48ab 54be
00000310: 8506 fc3e 8579 f0be b1f5 bebd 7eb6 f73d
00000320: ae08 6ebe 984c a63e 45cb ed3e 86e2 e1bd
00000330: 5235 943c e9e1 fdbd d57d d23d dc75 07bd
00000340: 214c f23e b7e5 863e 9536 103e b218 4abe
00000350: c5a1 b33e a2f2 213e 09a1 e73d 8498 f53d
00000360: 1d0b 523e 7ed2 56be 4d32 c7be d894 61be
00000370: 0596 803b c681 653c e466 5d3d 8cfe 403e
00000380: 0cf6 a5bc 158a a93e 0445 01bd 17a5 493d
00000390: 0865 a03e b35b acbe 49ac b53e 9395 d03b
000003a0: 640b 38bc 367c b33e 7cea 623e 59d0 cbbe
000003b0: 39ae 833d 4a46 9c3d 1d8b cebe 60b6 9d3e
000003c0: 3141 ec3d 2643 a73e ce0d cf3d a4d0 b03d
000003d0: f769 8c3c b74b 0ebf fbb6 f9be 8c80 9cbe
000003e0: f099 583e 7690 01be b060 8ebd fdb6 26bf
000003f0: be5e 49bc 2bb2 a13e b74b b2be dd81 4bbd
-0.5837342 0.021408817 0.17663975 -0.24639323 -0.38403645 0.627137 0.19199874 0.21235585
-0.12663896 -0.20166469 0.30038095 0.20748106 0.018856283 0.11379763 -0.00086766155 0.3793204
0.053239845 0.025644777 -0.15843564 0.4490438 0.019086648 0.073451735 -0.048204195 0.2304229
0.15899476 0.0579647 0.78509814 0.46809772 -0.057609007 0.30404404 -0.0942814 0.37194905
0.09720203 -0.3394081 0.35247695 -0.30608514 0.21329007 0.027238382 -0.18377353 0.0055359975
0.33116788 -0.012513946 0.14067024 -0.49915636 -0.1805712 -0.20615934 -0.08030883 -0.14063577
-0.3803945 -0.43333352 -0.07787311 -0.008141614 0.6208845 -0.20040666 0.26727292 0.1373151
0.21762028 0.022927778 -0.17227563 -0.036012918 0.46325564 0.5813303 -0.2499388 -0.37792143
0.87442267 -0.1312494 0.04978414 0.2855954 -0.44298038 0.2465466 0.31742272 0.29762334
-0.023109468 0.14464794 -0.42745665 0.23851135 -0.13337672 -0.26204336 0.2544064 -0.0931402
0.6258938 0.013135746 0.095797144 0.20355797 -0.23346679 0.008173392 0.24760483 0.29497883
-0.21450157 -0.052231885 -0.05395137 0.011768931 0.03951972 0.20768051 -0.22958077 0.1392932
-0.31918028 0.44520977 -0.11129288 -0.37706852 0.10232343 0.39317843 -0.085766084 0.43484205
0.34984273 -0.26037392 0.44779882 -0.54629326 0.061652433 0.54034543 0.30692166 -0.43615764
0.19059785 0.45154443 0.10655048 0.276998 0.15386242 -0.019121824 -0.030223498 -0.11061684
0.013965782 -0.3369146 -0.18756099 -0.029941374 -0.26250747 -0.07333788 0.03856964 0.051674772
-0.3172521 0.12292755 -0.46057197 -0.30878368 0.66140455 0.02660809 0.17103615 -0.078396976
0.15537515 -0.034039542 0.07161165 0.01715627 0.058132283 -0.1401828 0.39139575 -0.24003662
-0.18474218 -0.39648014 0.42843997 0.23944652 0.11825691 0.1546073 -0.037328877 -0.5264738
0.44204947 0.23449357 0.06907389 -0.3407869 -0.2532855 0.25784528 -0.33544838 -0.1325679
0.22090958 0.023686927 0.46116173 0.23658925 0.07352743 -0.17503482 0.33081046 -0.3914165
0.14194906 0.13688363 -0.087148055 0.098006845 0.5206481 -0.2928069 0.17892705 -0.2627821
0.14546682 -0.19961543 -0.34143233 0.36308783 0.22098051 0.08320347 -0.2524219 0.42019325
-0.02445779 0.08128832 -0.012804622 0.57742816 -0.030110825 -0.39022046 -0.33805856 0.27835745
-0.39365983 -0.2695957 -0.68706125 -0.20768464 0.49223724 -0.46967712 -0.09324206 0.120953545
-0.23245499 0.3248031 0.46444145 -0.11029534 0.018091831 -0.123966046 0.10277907 -0.033071384
0.47323707 0.26347134 0.14083321 -0.19735983 0.35084358 0.15815213 0.11310012 0.11991981
0.20512052 -0.20978734 -0.38905564 -0.22029436 0.0039241337 0.014007991 0.054053202 0.18847102
-0.020258926 0.3311316 -0.03155996 0.049229708 0.3132708 -0.3366371 0.35483006 0.006365487
-0.0112331845 0.35055703 0.22159761 -0.39807394 0.06429715 0.07630594 -0.4034051 0.30803204
0.11535872 0.32668418 0.10110055 0.08633545 0.017140372 -0.5558428 -0.48772416 -0.30566823
0.21152472 -0.12652764 -0.069520354 -0.6512297 -0.012290655 0.31581244 -0.3482339 -0.049684394

value_net.2.bias f4 [32]
00000000: 953d 2b3d fb8c 8e3d a92d c9bd bcc1 ce3c
00000010: 22cc 513d 497a 753c 0950 f3bc 7137 673d
00000020: c186 0abe 6a0d 623d 2fee 9cbc ca53 0abd
00000030: 37c9 13bd 5337 fa3d 1441 183d 48e2 98bd
00000040: 6354 203d 2b11 be3c 4511 fa3d 1008 1f3e
00000050: dc44 02be 2eb3 c7bd c566 94bd d4b3 1dbd
00000060: 92e6 603d 5630 d2bd 5074 863d 0681 0f3e
00000070: 79c1 2abd 8a59 a9bd 0bf5 f9bb fc34 35bb
0.041806776 0.06960484 -0.09823162 0.025238864 0.051220067 0.014982768 -0.02970125 0.056449357
-0.13527967 0.055188574 -0.019156544 -0.033771314 -0.036080565 0.122175835 0.03717144 -0.07465035
0.039142977 0.023201546 0.12210325 0.1553042 -0.1272158 -0.09750973 -0.07246164 -0.038501576
0.05490739 -0.102631256 0.065651536 0.14014062 -0.041688416 -0.08269031 -0.0076280884 -0.002764999

value_net.4.weight f4 [32, 32]
00000000: 08d4 7fbe 0f53 433e 2a28 5cbe 50d0 ac3d
00000010: 8a58 86bd f9ac 653c 8a74 f43d 7df3 f1be
00000020: 2beb e6be 21f8 d33e 55b0 fd3d ac43 813d
00000030: b686 9dbd f4ce 66be 691c 013e 68f1 5cbe
00000040: a4aa 2dbe 04f2 bd3d 1525 113e 7398 223e
00000050: a67c 193e e8fd b23d a760 36bd 6a03 4b3e
00000060: e03a 423e 78bb 26be cae2 a7be b85a adbe
00000070: 9c6e 17bf 4730 0c3e b924 f73d d394 d83e
00000080: 367f a33e 7b17 8dbe 23fa 9f3e 70d4 16bf
00000090: a1c1 9fbe 2ab7 c63d 0491 a1bc 95d1 b03e
000000a0: da82 8d3d 7fe8 c73e 8f73 b4be 0cfa 0ebe
000000b0: fd59 873e 2a87 953d 92da 423d a522 b6be
000000c0: 92eb 97be 8161 a3bd a022 353d 9a28 bc3c
000000d0: b0c4 1e3e d65d fcbd 11a5 82be 30b2 0f3e
000000e0: e139 003f db3c b2bd f9d5 0a3e e1fd b93d
000000f0: e034 0fbf f483 663e ac25 70be 0790 53be
00000100: 9136 83be ac94 093e c0ca 06bb 3e68 923d
00000110: f285 8cbe 9057 a4bc 1f6b bb3e 2555 ecbe
00000120: 50b9 10be e183 37be bf24 e2bd 6caf f9be
00000130: d7b5 de3d 58b7 4a3c b87e 5fbe 0fd8 42bc
00000140: 830a 92be 3559 1abd afe5 933e 6264 073e
00000150: 8728 e5bd da7c c5be c736 303d e591 29bf
00000160: 4bc6 cd3d 06fa 61be 95a9 66be 1b69 603e
00000170: a5a0 d03e a4f0 2f3f b2bf 3fbe 9f2a 9e3e
00000180: 6f52 983e b5b7 37be 4c71 ec3e f01d 433e
00000190: 4839 27be 0263 833e 36eb 18bf 2134 1abe
000001a0: def3 673e afa6 0e3f e887 8c3e 7d6d a7bc
000001b0: 257c f83d e0cb a5be ecb8 aabe 322f a03e
000001c0: af44 2d3e 2799 8d3d 80e9 0e3d 51a2 ae3d
000001d0: e607 4bbe 9848 8dbe f199 83be 478d a93e
000001e0: aabb 04bd 2a07 043e 676b ba3d 35d0 f23d
000001f0: 055d f0bc 8da9 b83e 6626 d9be 9db0 89bd
00000200: 8fcf adbd 6e19 ccbd 35ce 303e f185 203f
00000210: b5ef 2d3e 1a6c 103e 4b11 46bc 1d46 f3bd
00000220: d272 8cbe ad47 043c 8fa8 99be 9fb6 bfbe
00000230: c730 0abf eecb e23e e985 853d 26a9 b23e
00000240: a97b bcbe 9a6c 8bbd 135f e8bc d677 083f
00000250: b587 f4be f2f7 29be 5e85 b23b d766 e9be
00000260: 23c0 a53e d759 813d 3387 0a3e 8368 693e
00000270: 8598 d3be 67c3 b53e 430c e03e 01f0 84bd
00000280: 19a7 0bbe 5fb9 803e ffee f13d 9706 54be
00000290: 8c63 5fbe 070d 423f afcf 503e 33d4 3d3e
000002a0: 9d84 2fbc d9ea be3c 0a6e c23e 07bd adbe
000002b0: ce82 ec3d dc3a 2a3e 4052 603c 2b1d 50be
000002c0: 05ff aa3e 2b91 c13e a1d6 e3be 91cc 803e
000002d0: f403 6dbd 92c1 1cbe 9ee3 3d3e b22d 513e
000002e0: 83fc 09be a4de 243e 02af 12bc f55b 103e
000002f0: bebe 8a3d f264 99be 3d5a 583e 9347 50bd
00000300: 73d4 983e 28e2 c33d 3335 a4bd fc5f 82be
00000310: 62ae 33bd 1309 19bd fdf4 67be c20e bbbb
00000320: 226e 4dbe b709 4e3d 1b8f ff3d a442 f9be
00000330: b57a 1b3d bad6 babd b112 12bf 5bcf 263a
00000340: 61c4 bebe 5b08 19bf c646 02be 5e2b a4be
00000350: cde0 80be 58fd 08bd 72ac 3f3e e069 70be
00000360: 8d7b 57be 897c 8ebd 8ec3 73be 5338 97bd
00000370: fcf5 f3bd 4f2f 6d3e 3193 d13e 3161 ef3c
00000380: d90f 43bf 2cf6 df3d e362 9e3e 47a5 8b3d
00000390: 6134 3dbd 3bbe 51be 49cd 46be 23aa 9b3e
000003a0: 9a58 cebb cb1b a7be 45d7 ca3d 62db 32be
000003b0: 5807 acbd aff9 693e c527 213e 5583 243e
000003c0: d9fc 963d db4e bfbc b8e4 ca3e a2bd 08be
000003d0: 6534 053e dc7d 423e 54ca e73e 76f4 943e
000003e0: 16d2 27be c023 27bf 1352 4b3e 12d2 473e
000003f0: 2af0 66be 80da 8d3e 13bb e23e f07f 593e
-0.24983227 0.19074653 -0.21499696 0.0843817 -0.06559856 0.014018291 0.119362906 -0.4725608
-0.45101294 0.41400245 0.12387148 0.063117355 -0.0769171 -0.22539884 0.12608494 -0.21576464
-0.16959625 0.092746764 0.14174302 0.15878467 0.14988956 0.08739835 -0.04452577 0.19825521
0.18967772 -0.16282451 -0.32790214 -0.33858275 -0.5915315 0.13690291 0.12067551 0.42301044
0.31932992 -0.27556977 0.31245527 -0.58917904 -0.31202415 0.097029045 -0.01972247 0.34534898
0.069097236 0.39044568 -0.35244414 -0.13962573 0.26435843 0.07301171 0.047571726 -0.35573307
-0.29671913 -0.07977582 0.044222474 0.02296858 0.15504718 -0.12322585 -0.2551656 0.14032817
0.50088316 -0.087030135 0.13558187 0.09081627 -0.55940056 0.22511274 -0.2345187 -0.20660411
-0.25627568 0.1343562 -0.0020567626 0.07148789 -0.27445942 -0.020061284 0.36605164 -0.4615871
-0.14133191 -0.17921402 -0.11042165 -0.4876665 0.10874527 0.012372814 -0.21825683 -0.011892333
-0.28523645 -0.03768273 0.28886172 0.13221887 -0.111893706 -0.38571817 0.04302099 -0.6623824
0.10047587 -0.22068033 -0.22525628 0.21915095 0.40747562 0.68726563 -0.1872547 0.30891892
0.29750392 -0.17941172 0.4618019 0.19054389 -0.16330445 0.25661474 -0.59733903 -0.15058948
0.22651622 0.5572309 0.27447438 -0.02043795 0.12133054 -0.32382107 -0.3334421 0.31286007
0.16920732 0.06913977 0.03489065 0.08527053 -0.19827232 -0.27594447 -0.25703385 0.331156
-0.032405533 0.12893358 0.091025166 0.118561186 -0.02934123 0.36066857 -0.42412108 -0.067231394
-0.08486854 -0.09965788 0.17266162 0.6270438 0.16985972 0.14103737 -0.012089084 -0.118786074
-0.2743135 0.008073729 -0.30011413 -0.37444016 -0.5398068 0.4429621 0.06519682 0.34894675
-0.36813095 -0.068078235 -0.028365647 0.53307855 -0.47759786 -0.1659849 0.0054480275 -0.45586273
0.3237315 0.06315964 0.13528137 0.22793774 -0.413273 0.35500643 0.43759355 -0.064910896
-0.13637961 0.25141427 0.11813163 -0.20705639 -0.21815318 0.7580113 0.20391725 0.18537979
-0.01071277 0.023305343 0.37974578 -0.3393328 0.115483865 0.16624016 0.013691485 -0.20323627
0.3339769 0.37806067 -0.44499686 0.25156072 -0.057865098 -0.15308216 0.1854386 0.20427588
-0.13475232 0.16100556 -0.008952858 0.14097579 0.067746624 -0.29959828 0.21128173 -0.05084951
0.29849586 0.0956462 -0.080179594 -0.25463855 -0.043867476 -0.03736217 -0.2265205 -0.0057085464
-0.20061544 0.050302234 0.12478467 -0.48683655 0.03795882 -0.09122987 -0.5705977 0.0006363296
-0.372592 -0.59778374 -0.1272231 -0.32064337 -0.2517151 -0.033444732 0.18718126 -0.23477888
-0.21043225 -0.06957347 -0.23805067 -0.0738379 -0.11912152 0.23162578 0.4093261 0.02922115
-0.76196057 0.109356254 0.3093482 0.068186335 -0.04619253 -0.20482723 -0.19414248 0.30403242
-0.006297183 -0.32638392 0.09904341 -0.174665 -0.08399838 0.22849153 0.15737827 0.16065724
0.073724456 -0.02335303 0.39627624 -0.13353589 0.13008268 0.18993324 0.45271552 0.2909276
-0.16388735 -0.65288925 0.19855528 0.19513729 -0.22552553 0.27705765 0.4428335 0.2124021

value_net.4.bias f4 [32]
00000000: 750d a63d 4ce0 01bd 799e 1c3e 1d80 40bd
00000010: c4a4 963e 0e23 d4bd 590b 1c3d 8cbd ebbc
00000020: 6144 b3bb 10b9 55be 8e1b 3c3e 1b0a c6bd
00000030: 0120 8ebd 1778 093c 1c92 38bc 3eda 26be
00000040: f8d7 d6bc 3901 ff3c 3f08 9b3c 5930 90bb
00000050: b38a 733e 4d22 b63d b533 7ebe 2773 b53c
00000060: 05c9 413e 5b12 b2bc 4e4c 02bd 8b17 57bd
00000070: a8ac 993d 5ea6 39be 9c3a 3abe c685 3e3e
0.081080355 -0.031708047 0.15294828 -0.04699718 0.2942258 -0.10358249 0.03809676 -0.028776906
-0.005470798 -0.20871377 0.18369886 -0.09669896 -0.06939698 0.008390448 -0.011265304 -0.1629419
-0.026226029 0.031128513 0.01892483 -0.0044002947 0.23783378 0.08893261 -0.24824412 0.022149635
0.18924339 -0.021737268 -0.03181105 -0.052512687 0.07503635 -0.1812987 -0.1818642 0.18605718

value_net.6.weight f4 [1, 32]
00000000: c8fd cebb d02f 2ebd 6c0a b8bd cc3f 7abd
00000010: 816e 03be 423f 353b 46ec ccbb dbbd 5b3d
00000020: 5906 043d 261e 1e3e e0e7 edbd 3b20 ad3d
00000030: 2871 e23d 1577 6d3e 7183 0bbe dfac ab3e
00000040: b643 62be 8f05 f7bc 3ca3 57be dcf2 d93b
00000050: 6078 c8be 99ff e2be edd9 f53d 74b2 8abe
00000060: bfd0 65be 4be9 843e 934b c9bd ee38 fd3b
00000070: 95ac 0fbe 147d d63d ccad ad3d 35eb 1abe
-0.006316874 -0.042526066 -0.08986363 -0.061095998 -0.12835123 0.0027656113 -0.006253752 0.053647857
0.032232616 0.15441188 -0.11616492 0.08453413 0.11056739 0.23189957 -0.1362436 0.33530328
-0.22096142 -0.030154018 -0.21058363 0.0066512655 -0.3915434 -0.4433563 0.12004457 -0.27089274
-0.22442912 0.25959238 -0.09828868 0.007727734 -0.14030679 0.104730755 0.08480415 -0.15128787
