MAPPO/Only_R/save/SY_3_T1/agent_10_OR_c.pt (torch, 127774 bytes, 15 tensors)

policy_net.0.weight f4 [32, 26]
00000000: 5337 c0bd 11b7 503e 29cb 5d3e 9ddc a53e
00000010: 0a60 35be c0ce 2b3d 5977 c53e 37b0 083f
00000020: c147 b53d e2cd 153d 2cdd d1bc 3137 b83d
00000030: 2151 fbbb b0ba b73e 694e 6d3e 297c 843e
00000040: 9ada 823d 4b08 78be 8531 27be cbbc 9e3c
00000050: a7cd fcbd d75d 2e3e f6f0 d23e b2f5 e7be
00000060: 2009 90be 6150 8cbd f3bc ecbe 19bf edbe
00000070: 84d2 4b3e 1813 f6be 2836 533e 9bed 62be
00000080: e8c5 90be ce17 fd3d 2df9 97bd eec4 b83e
00000090: 143e a43e 9ff5 7a3e e6d6 3e3e fd47 4f3e
000000a0: 7851 283e abb7 203e 623d 63be d324 48bc
000000b0: cd6a 9dbd b757 043f 12fa c23e ea85 ce3d
000000c0: 7a37 55be 774b 02bf 61e0 d03d aaf8 e23d
000000d0: c06b 6d3d 066a 343e 1442 80be f638 05be
000000e0: fd6f e33c 74b8 e73d 16b4 e43e 7852 a4be
000000f0: a6de 57bd 5906 b8bd 5ab3 b6be 21a4 2ebe
00000100: 4051 f8bd 28bc db3c 809d 013e 4cbe 833d
00000110: e762 ad3e f92d 17bd d51f 353e 64f0 b93c
00000120: f9ba 2a3f 6d62 1cbe 6c1d 19be 294c 97be
00000130: a7e6 d9be 5f64 b53c c2e1 35bd a1ee f8be
00000140: ad13 67be 32fe 683e f90c 05be f2ec 493f
00000150: 37be 2d3d b5d4 9e3e 9397 963c 34ec 9bbb
00000160: 3a3f 393b 3f7c 243d 3b20 213e ec29 473e
00000170: b129 113e 9c8b 01be 1845 10be 881a 78bd
00000180: 7b5c 9ebc 4bbe 533d 1233 0dbd 1323 103e
00000190: 492b 8dbd d011 263e 83d3 03bc f971 9dbe
000001a0: 6ee7 083f 55d3 623e 6f30 df3d 9d5e 06be
000001b0: 4c26 3e3e 9227 3a3e d58c de3e ac31 7d3e
000001c0: d97d 9a3e ed89 90bc 8966 113e a0c2 af3e
000001d0: c4af 0bbd 4ef7 60bf 338f ac3e e6f4 a0be
000001e0: 4694 163e 46a3 c33d 540c 873d 5a8b 43bd
000001f0: ae8a b8bd 7847 aebd d2a8 7fbe 4a6a edbe
00000200: ec42 2ebd 7b8f 04be 3584 0b3d 2da1 a13e
00000210: 9ed0 0a3e 76db 833e 738a 80be 3973 88be
00000220: 704a 7f3e 67a1 073f 2f49 2e3e 84be 333e
00000230: 0e19 1f3e 6275 6ebe cc3b cc3e 4b8f 87bd
00000240: 640b edbe 4d83 91bd 616e af3e d4c0 1a3f
00000250: a085 b2be 5d00 6fbc a1fb 463e ad07 efbd
00000260: 973d 9c3d 2053 043d 65d0 fbbd db27 5cbd
00000270: b4b5 08bf 5912 61be 9d95 9fbe 84e5 59bc
00000280: c37e a2bd a5b8 0ebf 59cd 5ebe 3a20 573e
00000290: 192e 91be 1db6 f43d e783 72be 8985 0f3d
000002a0: ba06 e4be 013b 7f3d 3c8a 833e 9b11 abbd
000002b0: 7631 f23d 060b 223e 52ad fe3d 6d46 9dbe
000002c0: 502a e5be ffcd 4e3d bc06 37bc 3aa2 9abe
000002d0: 79d5 84be ff5b 903d cc55 8bbe ee5c 4b3e
000002e0: cb7d 9cbe 6acf 46bc 4931 2e3e 0b36 2f3e
000002f0: 9b06 e4bd ab14 af3e 61da 4cbe 6348 eebc
00000300: 4b63 ee3e 7935 93be 107c 85be 92fa d2be
00000310: c3c9 753e c049 283e be21 043e f448 febe
00000320: 2576 c63d 088b e73e 4496 823c ce7b db3d
00000330: f4ef b93e d3b9 a53e 9265 133d 4822 a13e
00000340: 86a9 cd3e 24cf 2b3b 8781 0e3f d52f 93bd
00000350: f13f a13c 2c69 acbc 8b21 8a3e 1ecb ce3d
00000360: fdae 02be a091 b63e 31e5 1e3e 7d8d 18be
00000370: 24c1 87bc b9fe fd3d 2169 85be 7425 473e
00000380: 357f a9be f51c a7bd d2e9 0b3c 5546 8bbe
00000390: 34a3 443e 0e57 17be 4aad 8e3e a708 2ebd
000003a0: 6b73 2fbc b528 d83e a221 d2be 3dd3 cabd
000003b0: d931 99bd f72a 06be 86f6 9f3e af84 d63e
000003c0: fd8a cbbd f9ee b13b 6bcc acbe afe9 a43e
000003d0: b575 03bd d7b8 01be 5c2f 65be e7de 873c
000003e0: 3e74 2bbd 4d9f 253d 0858 f6bd 616b 013f
000003f0: 081e 763e 46c3 68bc 9e03 f63d 5625 133d
-0.09385552 0.20382334 0.2165953 0.32394877 -0.17712417 0.04194522 0.38567618 0.5339388
0.088515766 0.0365733 -0.025618158 0.08994902 -0.0076695834 0.3588462 0.23174442 0.25875977
0.06389351 -0.24221914 -0.16327484 0.019377133 -0.123439126 0.17027985 0.41199464 -0.45304638
-0.28131962 -0.068512686 -0.46237907 -0.46434858 0.19904524 -0.48061442 0.20626128 -0.22160952
-0.2827599 0.12358056 -0.074205734 0.36087745 0.32078612 0.2450776 0.18636665 0.20242305
0.16437328 0.15695064 -0.22191384 -0.012215811 -0.07686386 0.5169634 0.38081414 0.10084136
-0.20821944 -0.508964 0.10199047 0.11082585 0.057964087 0.1761857 -0.25050414 -0.1301001
0.027763361 0.113144785 0.44668645 -0.3209417 -0.05270257 -0.08985586 -0.3568371 -0.17054798
-0.12124872 0.026823118 0.12657738 0.064327806 0.3386452 -0.036909077 0.17687924 0.022697635
0.6669155 -0.15271921 -0.1495263 -0.29550293 -0.42558786 0.022142587 -0.044404753 -0.4861956
-0.225661 0.22753218 -0.1299323 0.78877175 0.04241773 0.31021658 0.018382823 -0.004758382
0.0028266446 0.040157553 0.15734951 0.19449586 0.1417606 -0.12650913 -0.14088857 -0.060572177
-0.019331207 0.05169515 -0.034472533 0.1407588 -0.068930216 0.16217732 -0.008046034 -0.30751017
0.53478134 0.2215093 0.1089791 -0.1312203 0.18569297 0.18179157 0.4346682 0.2472598
0.3017414 -0.017643893 0.1419927 0.34328175 -0.03410317 -0.87877357 0.33703002 -0.31436843
0.14705 0.09552626 0.06594148 -0.047740318 -0.09010826 -0.08509725 -0.24966744 -0.46370155
-0.04254429 -0.12945358 0.03406163 0.3156828 0.13556144 0.25753373 -0.25105628 -0.26650408
0.2493074 0.52980655 0.17020105 0.17553145 0.15536901 -0.23286965 0.3988937 -0.06619128
-0.46297753 -0.07105122 0.342639 0.6045048 -0.34867573 -0.014587489 0.19431926 -0.11671386
0.07628935 0.032305837 -0.122956075 -0.053748947 -0.53402257 -0.21979655 -0.31168833 -0.01329935
-0.07934334 -0.55750495 -0.21758021 0.21008387 -0.28355482 0.11948798 -0.23683129 0.03503946
-0.44536382 0.06231213 0.25691402 -0.08352967 0.1182584 0.15824518 0.12435402 -0.30717793
-0.44758844 0.050489422 -0.011171039 -0.30201894 -0.25944117 0.07048797 -0.27213895 0.19859669
-0.30564722 -0.012134412 0.17010988 0.1711046 -0.111340724 0.34195456 -0.2000518 -0.029087251
0.4656013 -0.28751734 -0.26071215 -0.41206795 0.24002747 0.16434383 0.12903497 -0.49665034
0.09690503 0.4522326 0.015940793 0.10716973 0.36315882 0.32368335 0.035985537 0.31471467
0.401684 0.0026215995 0.55666393 -0.071868576 0.01968381 -0.021046244 0.26978716 0.10097335
-0.12762065 0.35657978 0.15517117 -0.14897723 -0.016571589 0.124021 -0.2605677 0.19447881
-0.33104864 -0.0815982 0.008539634 -0.27202097 0.19202882 -0.14779302 0.27866584 -0.04248872
-0.01070867 0.42218557 -0.41041285 -0.09903572 -0.07480211 -0.13102327 0.3124277 0.41898105
-0.09938619 0.005430099 -0.3374971 0.32209536 -0.032094676 -0.12668167 -0.22381347 0.01658578
-0.041858904 0.040435124 -0.120285094 0.5055447 0.24034894 -0.014206713 0.12012409 0.03592428

policy_net.0.bias f4 [32]
00000000: 75e1 b13d 5d15 06be 2481 b63c 0940 c8bd
00000010: 8041 e33d 06fa 043e a777 e1bd 07a2 aebd
00000020: ccc7 5e3c 831e c6bd ac40 f4bc d6d2 683b
00000030: bb3c 70bc 408e 56bd 6a19 cbbd 469e 283c
00000040: f071 4fbd 5aac cdbd bf21 c1bc c17b eb3d
00000050: 5fa5 fabd 8c84 a63c 9c4e 96bd b6a1 e93d
00000060: cf11 123e d609 443a 97cd 2abd 2355 b83d
00000070: ac90 c13d 8825 253d f069 543d fcaf ff3d
0.08685581 -0.13094087 0.022278376 -0.09777839 0.110964775 0.12986001 -0.1100915 -0.08526998
0.01359744 -0.096737884 -0.029815994 0.0035526059 -0.014662917 -0.052381754 -0.09916957 0.010291642
-0.05064577 -0.10042639 -0.023575662 0.114982136 -0.12238573 0.020326875 -0.07339212 0.11407797
0.14264606 0.00074782723 -0.041699972 0.090006135 0.09451422 0.040318996 0.051858842 0.12484738

policy_net.2.weight f4 [32, 32]
00000000: 90bd bebd 370d 7fbe 53e7 8a3e 9d22 02be
00000010: 16f8 343e 12fd 0a3f e4c2 c0bd 0b8a f2be
00000020: ff74 9dbe 679f b53c e1c0 6f3c 110a b23e
00000030: 3910 b0be f573 523e 4666 8f3d a16d 6fbe
00000040: 2d80 2ebe 2f4f 06bf 9d58 a73e 371c 87be
00000050: fb8c 183e 0718 7cbd 934a d7be 196d cf3e
00000060: 7934 cb3c d978 abbe bca0 efbe 60c2 3d3d
00000070: cc14 e1bd 4ad4 c33d 69f2 6c3e e7b0 7d3e
00000080: 7e17 aa3d f223 95be e069 623e 2796 34bc
00000090: 0220 aa3d 9c81 88bc 5bfc 1cbe bc37 483e
000000a0: eca9 ed3d ca25 fcbe e9da b6bd d38a 31bd
000000b0: 27d3 36be 51db 483e 0e42 abbe 9b18 29be
000000c0: d3c3 ba3c c42a 04be f0da 29bf ad72 27bf
000000d0: 9768 c3be a889 89be 659f 0c3e 6ddf 7abe
000000e0: 5002 1e3e a067 c1be 8e8a 4dbe 2f30 ed3d
000000f0: a880 a8be 54ec bebe 9128 04bd 1791 a33d
00000100: 9e73 69be 28ee b7be 86ff b8bd 460e 2dbd
00000110: 2374 643e c735 043e e3e7 68bc 9850 233e
00000120: c82f b73e b729 0f3c 4ca7 debe c23d dcbd
00000130: 37ed 48be ac85 c4be 0a83 b2bd 7bd0 3c3e
00000140: 2f68 b1bd fd5e 86be 31a9 3e3e 0b6b c53d
00000150: 2991 84be 46d2 1bbf 9872 c83d 8ab1 223e
00000160: a625 0e3d 8e12 873d 1af0 1cbf b022 873d
00000170: 82ae 0a3f 9371 e53e 8eaf dbbd 1d93 49bd
00000180: e551 8dbd cb3b 3e3e e533 5fbe 69e9 a0be
00000190: 9360 17bf e9ad e6be 1c39 a43e d318 4ebd
000001a0: 6893 b9be 7461 33be 02b7 cbbe cdb1 563e
000001b0: 29ce 453e d98e 473e 2059 e7bd 6689 3b3f
000001c0: 319b c93e 8a2d 54bd 4dd6 eb3e 2f3b 5abe
000001d0: ccc0 a03d eae2 d1bd 9c16 d93d cb77 87bd
000001e0: 295d d6bd 9a20 5abe 7d55 a73e 385d 883d
000001f0: 6698 b4bd d5a1 043b f258 d7bd 23dc 8ebe
00000200: c517 ff3c ced0 53be f849 45be daa7 e0be
00000210: 1deb fabd f42e e23e ff01 2ebd 2e57 8abe
00000220: 1c9c fd3e 99cd 673e e4b0 303e 8c07 ca3a
00000230: 96e2 123d 624c 6bbd 1212 0a3e 93a1 d6bd
00000240: 979f 963e 4f59 763e 02a5 b23d 0f20 0f3e
00000250: 967a debe 88da e2be a134 a5be 6446 c4bd
00000260: 0432 333e d26f ba3d 872a ac3d c958 b43e
00000270: fab1 22bf a80a c7be 5ea0 48be 7988 80bc
00000280: a697 143f abeb a4bc 1693 163f 9308 acbd
00000290: 4fb7 213e 6fc2 bc3e f6c0 45be 426e 83be
000002a0: d586 0fbe 7548 5ebc a4b9 243e 5993 07bf
000002b0: 4f44 213e 101a e13d 1472 eebd 7ddf 103f
000002c0: 8ba8 d43d a168 02bc f12b a3be 3787 3f3e
000002d0: ddd6 28bb c710 f9be ad58 86bd 5b01 993d
000002e0: ffd0 42be fb91 083e 565e c23d 7d6c 063e
000002f0: d1ff 8bbe 73eb 6c3e 263e 2d3e 569e 8e3e
00000300: 490e 07be 5405 f73d ab72 90be 25fe 3fbd
00000310: e9c8 9abd eda0 b1bd 83f5 4fbe 57fc e53d
00000320: f19e c5be 37f5 313e e819 613e fc27 b03e
00000330: 7118 613e 5de4 bfbe 2753 96bd bfa5 44be
00000340: 3bb4 f43d e6b6 e03c bd10 953d ba79 08be
00000350: 1043 0c3e 9c92 30be 2e6b e33e e1a5 42bf
00000360: 180c 0dbe 5457 e4bd 0793 8ebd 450a 793e
00000370: 6346 aabe 536c c83e a278 2e3e 8c7d d33e
00000380: fada 6dbd 9af7 f83e 90df 3fbe cbe3 b2be
00000390: e7e4 1e3f 2b44 02be 05e9 a3bc 0219 f83e
000003a0: 174c b5bd 128a b9bb 5b83 57be f9fa c3bd
000003b0: 55b5 8bbc f775 393e fec5 113f ccdb 59bd
000003c0: edef 963e a3c4 c5be 9c38 57be eb41 21be
000003d0: 8de5 723e c598 b4bd 0ab6 8fbd ec3b 87be
000003e0: 2fe1 153e b51a 713d 5d1f 0e3e eb0b 4abd
000003f0: 16e2 efbe 4ea9 673e acfa 99bc 3ad6 c0be
-0.093135 -0.24907385 0.2712961 -0.12708516 0.17672762 0.54292405 -0.094121724 -0.47370943
-0.30753323 0.022170736 0.014633388 0.34773305 -0.34387377 0.20552047 0.07001929 -0.23381664
-0.17041083 -0.52464575 0.32684794 -0.26388714 0.1489753 -0.06154635 -0.42049083 0.40512922
0.024805294 -0.33490637 -0.46802318 0.04632795 -0.10990295 0.09561975 0.23139347 0.24774514
0.08305262 -0.29128987 0.221107 -0.011022127 0.08306886 -0.016663365 -0.15330641 0.19552511
0.11604676 -0.4924758 -0.089284725 -0.043345284 -0.17853986 0.19614913 -0.33448833 -0.16513292
0.022798454 -0.12906939 -0.663497 -0.65409356 -0.38165733 -0.26862836 0.13732679 -0.24499293
0.1543057 -0.37774372 -0.20072386 0.11581456 -0.32910657 -0.3728968 -0.03226525 0.07986658
-0.2279801 -0.35923886 -0.09033112 -0.04224994 0.22309928 0.1291114 -0.014215442 0.15948713
0.35778642 0.008737973 -0.43487012 -0.10753967 -0.1962174 -0.38383234 -0.087164 0.18438904
-0.086624496 -0.26244345 0.18619229 0.096395575 -0.25891998 -0.60867727 0.09787482 0.15888038
0.034703873 0.06595336 -0.61303866 0.06598413 0.5417253 0.44813213 -0.10726844 -0.049212564
-0.06900386 0.18577497 -0.2179714 -0.31428078 -0.59131736 -0.45054558 0.3207482 -0.050316643
-0.36245275 -0.17517644 -0.3978806 0.20966263 0.19316925 0.19488086 -0.11296296 0.7325653
0.39376214 -0.051801242 0.46061936 -0.21311639 0.07849273 -0.102483585 0.106000155 -0.066146456
-0.10466988 -0.21301499 0.3268241 0.06658405 -0.0881813 0.002023806 -0.10515012 -0.27902326
0.031139264 -0.20685121 -0.19266498 -0.4387806 -0.122518755 0.44176447 -0.042482372 -0.27019638
0.49533165 0.22637023 0.17254978 0.0015413626 0.03586062 -0.05744589 0.13483456 -0.104800366
0.29418632 0.24057506 0.08722879 0.13977073 -0.434529 -0.4430735 -0.32266715 -0.095837384
0.17499548 0.09103359 0.08406549 0.35223988 -0.6355282 -0.38875318 -0.19592425 -0.015690075
0.580439 -0.020131906 0.58818185 -0.08400073 0.15792583 0.3686709 -0.1931189 -0.25670058
-0.14016278 -0.01356708 0.16086441 -0.5295921 0.15748714 0.10991299 -0.116428524 0.56591016
0.103837095 -0.007959516 -0.31869462 0.18703924 -0.0025762834 -0.48645613 -0.06559882 0.07470962
-0.19025038 0.13336937 0.094906494 0.13127322 -0.2734361 0.23136692 0.16918239 0.27855176
-0.13189043 0.12061563 -0.28212485 -0.04687323 -0.07557852 -0.08673272 -0.20308499 0.11229771
-0.38597825 0.17378698 0.21982539 0.34405506 0.2198198 -0.37478915 -0.07340079 -0.19203852
0.11948439 0.027430963 0.07278583 -0.13327685 0.13697457 -0.17243427 0.4441771 -0.7603436
-0.13774145 -0.11149469 -0.06961637 0.24320324 -0.33256826 0.39145145 0.17038205 0.41306722
-0.05807016 0.48626405 -0.18737626 -0.34939417 0.6206803 -0.12721317 -0.020008573 0.4845658
-0.088524036 -0.005662211 -0.21046202 -0.095693536 -0.01705424 0.18111406 0.5694274 -0.05318813
0.29479924 -0.38626584 -0.21017689 -0.15747802 0.23720379 -0.08818201 -0.07017143 -0.26412904
0.14636682 0.05886336 0.13879152 -0.049327772 -0.46852177 0.22623178 -0.018796287 -0.37663442

policy_net.2.bias f4 [32]
00000000: 5f08 d53d 09c1 473d 1a7f ac3d 12c4 01be
00000010: b235 2d3d c464 c53d ea4f 72bd e79b d9bd
00000020: 9062 b03d 302d 08be b4cb 1ebc 7b0f 953b
00000030: 0db8 cfbc bedf ba3b fd21 0abe 6986 35bd
00000040: 02aa 26bd 7b0f 0c3e a367 5c3d aa75 e53d
00000050: 23b7 81bd f671 da3d 8953 48bd 9d5e 083e
00000060: 1327 0b3e f2f8 c93d a781 0a39 c407 fb3c
00000070: b292 ea3c 3377 023e 82d9 88bd 862f 3c3d
0.10401987 0.048768077 0.0842268 -0.12672451 0.042287536 0.0963836 -0.059158243 -0.10625439
0.08612549 -0.13298488 -0.009692121 0.0045489646 -0.025356317 0.0057029417 -0.13489528 -0.044317637
-0.040689476 0.1367778 0.053809773 0.11204083 -0.06333759 0.106662676 -0.04890779 0.13317342
0.13589124 0.09861936 0.00013209005 0.030643351 0.028634403 0.12740783 -0.06682111 0.04594376

policy_net.4.weight f4 [32, 32]
00000000: 724e 053e 3c9c b83e aa86 523e 7ec8 99be
00000010: 0b72 37bd 61b3 e23e 1da6 31be df62 3a3e
00000020: 49c9 0c3e 04fa bc3d b3cd 0ebe df9f 4ebe
00000030: 1f1a 0dbe 77c1 ba3e 526a 9a3e 3772 80bd
00000040: aee2 b13c 686e 8c3e cf0e 173e 33a6 2a3f
00000050: 2e5e f0bd efb4 47bc b09f 0fbe d569 e23e
00000060: 4d04 94be 2293 f73e a74f abbe 4da1 08be
00000070: 17e3 a9bd 6700 a23e d934 37bf 3b80 6ebe
00000080: 900d 953d c219 833e c728 44be 4e21 5cbe
00000090: 20d5 143e e7ca 9e3a 4722 38be 8c2a c9be
000000a0: d5f6 3a3e c57e fbbd 9cb4 2b3e f1b2 e63e
000000b0: 56ca 6a3e d814 1d3e 86d3 5f3e 597c be3e
000000c0: 9f4a a73c 19b2 483f 3684 4e3e dab4 a53e
000000d0: 7b1f e8be 7910 0d3e 6405 66be 7877 933e
000000e0: ee4d 9c3e 81e9 debd 9da6 a1be abaa b43e
000000f0: c271 4fbe 633b c83e e073 05be 9ad3 e53e
00000100: 25ce 983e 751d b43e b41e 313f d7b5 9cbe
00000110: 1115 37be cc35 903e cd1b 26be 221e d0be
00000120: e5c5 4bbd 0e17 073f 8eb9 7dbe 1a11 673e
00000130: 03df 0cbf 578e a4be 61fa 07be f5ca 70be
00000140: 3942 a3be a086 e33c d4cd b73e 10a3 8bbd
00000150: 1702 aabe 7116 7abe 326c 96bd 3f79 ad3d
00000160: f94c 1f3d 9694 b8bc 8e68 833e 1996 d43e
00000170: 491c 943e b4d6 5abe fe73 273e fb55 8b3e
00000180: 067b 823d 87e4 5f3e 675e 063e 7832 06be
00000190: 7313 a93e 7847 6fbc a630 31bb d102 92be
000001a0: 08a4 483e c419 0ebf 15b1 bfbe a85d 053e
000001b0: 8ff5 a53c 458a ef3e 3ef6 58be d6b0 ebbd
000001c0: c677 a6be 4da1 223e 10f6 65bd 959d a73e
000001d0: 2c9a 99be 1007 d73e ff29 1c3e edae 093f
000001e0: 8504 9d3e e361 f1bd f096 a7be 5ccb b13e
000001f0: 5ae6 b23e 6377 86bd 031d fcbd cc4d 21bf
00000200: 78f8 30bf dbbc c7be db65 bcbe c672 9a3e
00000210: 01ad b53d 15fa 84bd 7f19 7cbe 0a18 b1bd
00000220: da89 94bc 289f e93e fbef 1dbe 3509 14be
00000230: 9935 8abd 8dfe d0bd 2a59 c9bd 77f3 a73b
00000240: 564c 60be 91a7 3dbd b97a 193e 63a6 49bf
00000250: 76fb 873e 46b7 9dbe adc0 e83d 7195 ca3e
00000260: 7c32 b2be 2d4b 3fbe f7d4 71be 7f84 e53c
00000270: 3595 58be 1c46 abbe 7ef0 0cbe 355b 76bc
00000280: eb70 963e d9fc a03e fbdb 87be 874a 8b3e
00000290: 8515 db3d b8a9 963d c73d 313f 6a35 533e
000002a0: 84a6 e93e ca2c cc3e ec23 d13e 3b11 393e
000002b0: 5ae7 f93e 2fc0 00be 3ae1 a4be 60b3 763a
000002c0: 735b e33d 7dfa 0a3e 3800 edbd cf97 4fbd
000002d0: 2cf4 4dbe 92d1 7a3e bd7a 333e 9af9 5abd
000002e0: 22a4 83be a391 b4be d88c d33d cd1c 4cbe
000002f0: 78c2 ddbe 9a4e 8dbe fa15 bbbe b57d f6be
00000300: 1a9f 8e3c 7794 853e cd48 453d a330 74bd
00000310: 4967 24be 9ede fbbe 12b6 113f dd6d a43d
00000320: f856 f3be c770 c03d 64f8 88be a90c 8fbc
00000330: e193 20be d56a cd3d 5137 993e bc8a e53e
00000340: c6ff 1ebe 5468 06bf 9d0b 40be 467b 0bbf
00000350: b7a4 023e df85 2ebe e6f7 b63e 6687 9cbd
00000360: f6ce 3fbe 7569 a7be 94ac 0abe e6a8 99be
00000370: d0a0 903c ec9c 82be b125 68be 1865 f13e
00000380: 2a74 163c fc57 1e3e 2dad 96bd ee57 33be
00000390: c458 eebc 462c db3e a9c5 76bd 0bf2 a93d
000003a0: fb4f 573e 9e12 47be 65f6 d6be b9f4 2c3e
000003b0: ed4c 35be f1b5 6c3e 59df f8be 922b 50be
000003c0: 0d8a 103f 379c b0bd d94c a73e bfb5 3f3e
000003d0: cae4 12bf 9b17 313f cc46 e2bc 9e5d fb3d
000003e0: d57d f4bd 2fad e53d 3ad8 13bf ca00 023d
000003f0: ab70 f9bd 90b1 d13e 6db1 783e 548f 5d3e
0.13018206 0.36056697 0.20559183 -0.30035776 -0.044786494 0.4427748 -0.17348523 0.18201779
0.13748659 0.09227374 -0.13945656 -0.20178173 -0.13779496 0.36475727 0.3015924 -0.06271785
0.021714535 0.27427983 0.14751743 0.6665985 -0.11736713 -0.012189134 -0.1402576 0.44221368
-0.2890953 0.4835444 -0.33459207 -0.13342781 -0.08295267 0.31640932 -0.71565014 -0.23291104
0.072779775 0.2560559 -0.1915618 -0.2149708 0.14534426 0.0012114913 -0.17981826 -0.39290273
0.18258221 -0.12280039 0.16768116 0.45058396 0.22928748 0.15339983 0.21858034 0.37204245
0.020421324 0.78396755 0.20167622 0.3236454 -0.45336518 0.13775815 -0.22462994 0.28802085
0.30528206 -0.10884381 -0.31572428 0.3528646 -0.20258239 0.39107808 -0.13032484 0.44888002
0.29844776 0.35178724 0.69187474 -0.30607483 -0.1787913 0.28166044 -0.16221543 -0.4064799
-0.049749274 0.52769554 -0.24777815 0.22565117 -0.5502779 -0.32139847 -0.13279106 -0.23514922
-0.3188646 0.027774155 0.35899222 -0.06818211 -0.3320472 -0.24422623 -0.07344855 0.084703915
0.038891766 -0.022531789 0.25665706 0.41520765 0.2892783 -0.21370965 0.16352841 0.27214035
0.06371121 0.2186452 0.13121949 -0.1310519 0.3302265 -0.014604442 -0.0027037053 -0.28517774
0.19593823 -0.55508065 -0.3743979 0.13024008 0.020258693 0.4678518 -0.21187684 -0.11508338
-0.32513255 0.15881844 -0.056142867 0.32737413 -0.30000436 0.41997576 0.15250395 0.5378254
0.3066751 -0.117862485 -0.32732344 0.34725463 0.3494137 -0.0656574 -0.12310221 -0.63009334
-0.69129133 -0.39011273 -0.3679646 0.3016569 0.088708885 -0.06493012 -0.24619101 -0.08647163
-0.018132139 0.4562924 -0.15423577 -0.14456637 -0.06748504 -0.10204802 -0.0983146 0.005125459
-0.2190412 -0.046302382 0.14988221 -0.7876951 0.26559037 -0.3080389 0.11364875 0.3956714
-0.34804142 -0.18681021 -0.23616396 0.02801728 -0.21150668 -0.33451927 -0.13763615 -0.015036394
0.29383025 0.31442907 -0.2653502 0.27205297 0.10697464 0.0735659 0.6923489 0.20625845
0.45634854 0.3987792 0.4084772 0.18072979 0.4880932 -0.12573312 -0.32203084 0.0009410884
0.11101427 0.13572116 -0.11572307 -0.050681885 -0.20112675 0.24494007 0.1752729 -0.053460695
-0.2571116 -0.35267362 0.10329598 -0.19932862 -0.4331243 -0.2759903 -0.36540204 -0.48142782
0.01740985 0.26089832 0.04816513 -0.059616696 -0.16055025 -0.4919328 0.5691844 0.08028767
-0.4752729 0.093965106 -0.26752007 -0.017462092 -0.15681411 0.10030142 0.29925016 0.44832408
-0.15527257 -0.5250294 -0.1875443 -0.54484975 0.12758146 -0.17043255 0.35736006 -0.07643013
-0.18731293 -0.32697645 -0.13542396 -0.30011672 0.017654806 -0.25510347 -0.22670628 0.4714744
0.009182969 0.15463251 -0.073572494 -0.17514011 -0.029095061 0.42807215 -0.060247097 0.08298119
0.21026604 -0.19440696 -0.4198486 0.1689023 -0.17705126 0.2311628 -0.486079 -0.20329121
0.5646065 -0.086235456 0.32675818 0.18721674 -0.57380354 0.69176644 -0.02762165 0.122737154
-0.11938063 0.11214673 -0.5775181 0.031739034 -0.12179693 0.40955782 0.24286433 0.21636707

policy_net.4.bias f4 [32]
00000000: 3b3c 0f3e 8e63 233e 8560 0a3d b259 213e
00000010: 1774 1bbe 21f8 1cbd 920a 1ebe 8724 293e
00000020: 17e9 f6bd e866 0cbe 4059 87bd 8258 043e
00000030: 8fad 22be 144e e6bd dd7a 2e3e fcc4 25be
00000040: 5e63 103e 850c d3bd 714f 99bb 1564 26be
00000050: b285 253e 6426 223e 3c50 2cbe e653 193e
00000060: 1dd7 4fbc c97a 27be 15e8 21be 291c bfbc
00000070: 8342 41bd 921d 803c 6dbf 32be a616 f5bd
0.1398782 0.15955946 0.033783454 0.15756872 -0.15181004 -0.03832257 -0.1543372 0.1651784
-0.12056177 -0.1371113 -0.0660882 0.12924388 -0.1588652 -0.11245361 0.17039056 -0.16188425
0.14100406 -0.10305122 -0.0046786596 -0.16249116 0.16164282 0.15834957 -0.16827482 0.14973411
-0.012685564 -0.16355433 -0.15811189 -0.023328857 -0.04718257 0.0156391 -0.17455836 -0.119672105

policy_net.6.weight f4 [20, 32]
00000000: 336b a5ba a20a 64bb 983b 6eba d0e1 7fba
00000010: 7833 c53a 6780 b439 7d8c 0cb9 25a3 9539
00000020: 503d e13a 2bb6 59ba b4a1 783b 4e7a 3ebb
00000030: c94e abb9 26bd 3eba a200 0eba a1cf 8839
00000040: 8785 91ba 9db2 893a 00a7 553b b61c 873a
00000050: ccf6 d33a 8faf 8939 7d0f eab9 96f2 19bb
00000060: 7837 f939 821e 413b f977 873a b29c d9ba
00000070: 2e1c 8f39 58ce a9ba 9b2d b23a 7f3a 82bb
00000080: 3ba9 87bd 5fb5 86bd ed0b 84bd 8150 82bd
00000090: b342 0f3d 8bf0 883d 6a89 5d3d 80b3 8abd
000000a0: 346e 263a 73d2 893d 8380 883d 5738 7cbd
000000b0: 2fe8 843d 41de 823d 90fa 90bd cf5d 863d
000000c0: 3e9f 56bb e3b5 833d a4d0 863d 03d9 853d
000000d0: c046 85bd 4ccc 73bd 3d77 8b3d 957c 87bd
000000e0: fdbe 7e3d 1fe6 813d 899e 753d 7be0 87bd
000000f0: a657 833d b96f 893d 0acc 883d 46fb 863d
00000100: 9226 8739 9504 b7ba f923 01bb 7590 8aba
00000110: 6507 dcba b7be aeba 145d bbba c93c 37b9
00000120: 4e09 4aba 45f1 333b b71c b3b8 d863 3939
00000130: 34c3 1fba a717 de3a 5e36 b33a 685c 8bbb
00000140: 420c 3eba 4cc3 f5b9 1367 40bb 72e5 3d3a
00000150: a1f6 2b3b c288 bfba 9dea 58ba 17f9 f03a
00000160: f8b4 02bb 6f2b 083a d588 a1ba af3a 9bba
00000170: b404 47bb 371b f9ba e6d7 583b 1537 84ba
00000180: 34d2 02bb e03d 6239 669c d4ba 6105 7fb9
00000190: 0ad9 88ba 2b04 2b39 523e 6bba 514a 8e3a
000001a0: 7087 b93a 20b1 b6ba 5ef2 d2ba a5ac d2ba
000001b0: 9b3f 063b a4ae 643a b13e 13bb d79a 783a
000001c0: 1b09 d43a 8c9b d73a cbcc 36ba 78bd aaba
000001d0: 735c ef39 2589 2fba bb56 abba 06f1 65bb
000001e0: 9913 35ba b788 3aba 2953 8dbb 96c8 913b
000001f0: 4177 a339 9bc7 d0ba 76df 1d3b 981d cf39
00000200: 783d 2ebe 4cf0 2ebe e579 173e 697d 36be
00000210: b060 073d 163d 623d 6eea 253e 6226 34be
00000220: 5f36 363e 30d4 323e ca61 d93d 39b5 35be
00000230: 11ac 313e 100f 343e 5a12 2dbe 54b6 a3bc
00000240: dc0d 3dbe 4250 fc3c 8c9a 3cbe 9d76 383e
00000250: adf7 35be 0bb7 36be 5034 353e eed4 33be
00000260: 5dff 3dbe e343 363e 54a9 353e 8969 3e3e
00000270: 2efd 323c 0e15 48be 9166 363e bfbe 02be
00000280: 7e73 043e 87e9 093e c0a0 0a3e cbdd 103e
00000290: e418 00be a44e 0dbe bccf 0bbe 21ab 0b3e
000002a0: 3b6c 83bd cd4b 0dbe b784 0cbe 5974 093e
000002b0: 7289 10be 3358 09be cd00 073e b5e6 07be
000002c0: c93b 933d afac 03be 6e42 02be 7fec 0dbe
000002d0: b1c6 0d3e 2f7b 0f3e 9005 12be 352b 0a3e
000002e0: d40b 0fbe a1f1 0abe 796b 10be 12e4 0a3e
000002f0: 022a 04be be52 04be b3a8 0abe fd92 08be
00000300: 20f4 d339 0d89 333a 2d80 07ba 72db ab3a
00000310: 5496 b53a f146 85bb b58e 1ebb 95f1 333b
00000320: 97fc a339 8b65 b639 846d e2ba 42d4 f7b9
00000330: 59e4 7b3a 86e1 a33a 4744 39ba 5c71 48ba
00000340: 10d2 e93a b219 e339 29f9 45ba 99a6 3f3a
00000350: b709 ecba 4237 ceba 3487 823a 3074 06ba
00000360: 0205 2e3b ab50 81ba 87b4 0dbb f259 8abb
00000370: 4fc0 113b 6d18 16ba 05c2 deba 01dd 3dbb
00000380: a66b 20be 8ba9 22be 2a19 253e 6c03 23be
00000390: 619d 0c3e 2a2b 25be e29d 253e 89ea 1fbe
000003a0: cd05 263e f8fb 1c3e d9c1 09be 5b68 1ebe
000003b0: 409e 283e 8ac2 203e 7133 26be 4d27 1c3e
000003c0: 927f 20be dddb 1d3e e05f 25be bdb1 1f3e
000003d0: ace7 1fbe 10cc 29be 5aa5 223e 74bd 1fbe
000003e0: cc1a 26be ed5d 223e e0d5 1f3e b1ce 253e
000003f0: 158f 2bbe 098f 25be d385 1b3e 0db5 903d
-0.0012620449 -0.0034796377 -0.00090878597 -0.0009761127 0.0015045246 0.00034427943 -0.00013403776 0.00028541047
0.001718441 -0.0008305038 0.003793818 -0.0029064598 -0.0003267436 -0.000727611 -0.00054169644 0.00026094637
-0.0011102416 0.0010505501 0.003260076 0.0010308239 0.0016171574 0.00026261478 -0.00044643498 -0.002349054
0.00047534308 0.0029467647 0.0010335437 -0.0016602485 0.0002729608 -0.0012955172 0.0013593914 -0.0039742584
-0.06624075 -0.065775625 -0.06447587 -0.06363011 0.03497572 0.06686505 0.054086126 -0.06772518
0.0006348819 0.06729593 0.06665137 -0.061577167 0.06489598 0.06390048 -0.07079041 0.06560861
-0.0032748724 0.064311765 0.06582764 0.06535532 -0.06507635 -0.059521005 0.06809852 -0.06615559
0.06219386 0.0634272 0.059965644 -0.06634613 0.06413202 0.067107625 0.06679542 0.06590895
0.00025777944 -0.0013963158 -0.001970528 -0.0010571616 -0.0016786872 -0.0013331984 -0.0014294707 -0.00017474884
-0.0007707075 0.002745704 -8.540734e-05 0.0001768017 -0.0006094456 0.0016944305 0.0013672819 -0.004252959
-0.00072497514 -0.0004687555 -0.0029358312 0.0007243968 0.0026239532 -0.00146129 -0.0008274706 0.0018384781
-0.0019944292 0.00051944604 -0.0012324104 -0.0011843051 -0.0030367794 -0.0019005303 0.003308767 -0.0010087217
-0.0019961717 0.0002157609 -0.0016220927 -0.00024320699 -0.0010440659 0.00016309383 -0.0008973825 0.0010855888
0.0014154743 -0.0013938285 -0.001609396 -0.0016073181 0.002048469 0.0008723533 -0.0022467787 0.0009483522
0.001617703 0.0016449555 -0.00069732656 -0.0013026437 0.00045654512 -0.00066961563 -0.0013072112 -0.0035086288
-0.00069075223 -0.0007115709 -0.004312892 0.0044489605 0.00031178634 -0.0015928628 0.0024089492 0.00039504166
-0.17015636 -0.17083853 0.14792593 -0.17821278 0.033051193 0.055234037 0.16202709 -0.17592767
0.17794178 0.17463756 0.10614355 -0.17744912 0.17350794 0.17583871 -0.16901532 -0.019984402
-0.18462318 0.030799989 -0.1841833 0.18013997 -0.17770262 -0.17843263 0.17695737 -0.17561695
-0.18554445 0.17799334 0.17740375 0.18594946 0.010924621 -0.19539282 0.17812563 -0.12768076
0.12934682 0.1346799 0.13537884 0.14147107 -0.12509495 -0.1379953 -0.13653463 0.13639499
-0.06417128 -0.13798447 -0.13722502 0.1342329 -0.14114931 -0.13412552 0.13183899 -0.13271601
0.071891375 -0.12858842 -0.12720653 -0.13859747 0.13845326 0.14011835 -0.14259934 0.13493045
-0.13969356 -0.13568737 -0.14103498 0.13563564 -0.1290665 -0.12922189 -0.13540916 -0.13337322
0.00040426943 0.000684873 -0.0005168941 0.0013111664 0.0013854005 -0.0040672948 -0.0024193947 0.0027457227
0.00031277977 0.000347894 -0.001727507 -0.00047269656 0.00096089166 0.0012503124 -0.0007067364 -0.00076462864
0.0017839093 0.00043315958 -0.00075520814 0.0007310897 -0.0018008266 -0.0015733021 0.0009958507 -0.00051290076
0.0026553278 -0.000986596 -0.0021622495 -0.004222148 0.002223987 -0.00057256856 -0.0016995078 -0.002897084
-0.15666065 -0.15884988 0.1612288 -0.15919274 0.1373191 -0.16129747 0.16173509 -0.15616812
0.1621315 0.15330493 -0.13452853 -0.15469496 0.16466618 0.15699211 -0.16230561 0.15249367
-0.15673664 0.15415902 -0.16149855 0.15595146 -0.1561572 -0.1658175 0.15883389 -0.15599614
-0.1622116 0.15856142 0.1560893 0.16192128 -0.167538 -0.16167845 0.15187769 0.07065783

policy_net.6.bias f4 [20]
00000000: 0000 0000 7f93 85bd 0000 0000 0000 0000
00000010: 0380 32be 5248 023e 0000 0000 dcf0 1dbe
00000020: c27f 323e 0000 0000 4ac3 10bd 3f94 dc3d
00000030: 8cb2 f73d 6bd6 1d3e fcb2 f7bd 0000 0000
00000040: 0000 0000 5494 dcbd 0000 0000 0000 0000
0.0 -0.06522273 0.0 0.0 -0.17431645 0.127229 0.0 -0.15423912
0.17431548 0.0 -0.035342492 0.10770463 0.12094602 0.15413825 -0.120946854 0.0
0.0 -0.10770479 0.0 0.0

value_net.0.weight f4 [32, 770]
00000000: 47b6 acbd a325 94bd e1dc b1bd 1fba 82bd
00000010: c606 f0bd cbe1 42bd 6794 4e3d 29ac 58bd
00000020: 84e4 8ebb ab74 653c c187 32bc 7e88 433c
00000030: d601 053d 4252 11bc 847e 643d a233 0ebd
00000040: eb32 913d c968 9cbd 1afd 68bd 2fa2 15bd
00000050: a69c 22be 66bf e6bc ff98 febd 6cdb 133e
00000060: 28ce 943c 532e 03bd a627 133c aa53 f0bc
00000070: 5574 cebc 44c8 8abc 77a5 873c 1b34 07bc
00000080: 84e3 f43c b379 0f3d ff6f efbd df38 73bc
00000090: 1401 ae3d 2dc4 2ebd e16a 4bbd 6c51 ea3d
000000a0: 6f48 24bd 9340 6ebd 09ac 0bbd 8a04 d6bd
000000b0: e5c3 d4bc 6d06 d23d ebe1 613d 4563 09bd
000000c0: abc3 fc3c d79b 8abc 8e42 7ebd d29d 02bd
000000d0: 21e1 7b3d 46a1 7fbd de46 70bc fdf4 ed3d
000000e0: 6275 263d ae04 63bd 7809 2dbd eda2 90bd
000000f0: 48cf 06bd f195 a13d ceac 233b 6636 9bbd
00000100: ec0e bf3c d871 a03c 9625 cbba da99 af3a
00000110: 7708 31be 5187 323c 4f91 653d 3b4f 673d
00000120: a5c8 113c 3910 95bc a81d 07bb 8c99 7c3b
00000130: bd31 96bc ca35 d5bd 9661 993c 2918 acbd
00000140: c1fa 9a3d e724 5fbc ec45 4fbd 9e5b 80bc
00000150: a2e3 11be 8419 6cbd 3749 acbd 2750 b9bd
00000160: ec15 87bd 0760 8c3d 1087 1abe c977 e13d
00000170: 1825 c33c 4985 e1bc 95db 58bd 2700 0bbc
00000180: 178a e33d d8fc 0cbd 513b 503d 23d1 debc
00000190: 2696 08bd fe26 703d 0f9a b6bd 776e ecbc
000001a0: 66fe c8bc 046a 093d eb26 c039 7ea2 70bc
000001b0: 6885 c03d 9ef8 4e3d 2126 50bd 1165 00be
000001c0: 3cb7 93bd d22f 1abd 298e 803d d896 dfbc
000001d0: ff2e 11bd 2e8e b5bd aeba 52bd 9b05 44bd
000001e0: 4ee6 26bd 08f8 b13d 64c8 a9bc 881e 50bc
000001f0: cc26 f1bc ec6e 0e3d 80ce 203d 2860 0d3c
00000200: a81a febc 7f6a 31bc 859b b7bd 593f 2dbd
00000210: f451 83bd 7dab d83c fcb2 b33c 19b2 e4bc
00000220: c54f d6bd daa3 99bc ece9 7ebd d2af 923d
00000230: 3fbe bbbc 8608 4abc e2f3 bfbd bc11 2c3e
00000240: 3a4d b3bd 384c f33d 69ce 20be 29df 7f3d
00000250: e5e5 0bbe ec66 41bc 5487 1e3b 4f8e 3d3d
00000260: 578d 95bd 9c46 0cbd 5ec8 e3bd bb6f 0fbd
00000270: eefe ef3c b845 673c 28f9 8e3d e783 b43d
00000280: eec0 c0bd 7f4d f1bc 8e47 ad3b aa38 6ebb
00000290: 9655 eb3c 2792 97bd c420 2fbc dbc4 b63c
000002a0: 5648 e3bd 2845 2abd dcac 4b3d 0254 b9bd
000002b0: 47ca 07bb c751 e63b acb9 4cbd b72c 26bd
000002c0: 9072 69bc 9fe8 23be a3ca 1b3c 530e 80bc
000002d0: 3eb5 893c 3dbc 57bb d5a2 6a3c 1394 b1bd
000002e0: 6103 503c 6716 c9bd 4d9c 1f3e 84bc 1cbd
000002f0: 0d35 d2bc a16b 41bd 11f7 5abd d5c4 5bbc
00000300: 36c1 453d 1496 dbbd fd8e 90bd 7b42 803c
00000310: 279c b3bd c351 953c 1fac 88bd 4237 e8bb
00000320: c8c8 c5bb a75e df3c 6614 bebd 40e2 04bd
00000330: 2165 4dbd 2a70 cfbc a419 b4bd ffca dc3c
00000340: 9eef 0abe af1e 18bd de60 b2bc 0cee babc
00000350: 55b3 533b 97ad c6bd acf0 efbc 2451 863c
00000360: 4baf 65bd 9a89 023d c171 64be 28be b5bd
00000370: c659 253d 4969 6bbd df93 cf3c 095c 5f3d
00000380: 8ad7 8abc a5cb a33b 17f0 62bc b390 39bd
00000390: eaee 2abd 9072 d8ba 835c 46bd d133 2cbd
000003a0: 4990 893d 0601 3b3c ab3d 9cbd d4d8 223c
000003b0: ce0a 423d 40b9 90bb 2fe2 f33b ed31 8dbd
000003c0: e5eb 5bbc 3b01 abbd d8e9 9bbd a8b3 debc
000003d0: e461 b9bd 82d4 873d 26da c7bd 3827 61bc
000003e0: f58c 30bd 13f8 ff3c d4d8 aabc 7df6 9a3b
000003f0: 6921 00bd f2be 063d 2214 a0bd edd5 82bd
-0.08433204 -0.07233741 -0.086847074 -0.06383156 -0.11720042 -0.047578614 0.050434496 -0.05289856
-0.0043607373 0.014004867 -0.010896624 0.011934398 0.032472454 -0.008869709 0.055784717 -0.03471721
0.0708979 -0.07637174 -0.056882 -0.036531623 -0.15880069 -0.028167438 -0.124315254 0.14439172
0.01816471 -0.0320266 0.008981621 -0.02933677 -0.025201956 -0.016941197 0.016558392 -0.008252169
0.029893644 0.03502817 -0.116912834 -0.014845102 0.084962994 -0.042667557 -0.049662475 0.11441311
-0.04010814 -0.05816705 -0.034099612 -0.104500845 -0.025972316 0.10255132 0.055147093 -0.033541936
0.03085502 -0.016920013 -0.06207519 -0.03188879 0.061493997 -0.06240966 -0.014665334 0.116189934
0.04063929 -0.055424385 -0.04224536 -0.070623256 -0.032912523 0.07889927 0.0024974826 -0.07578735
0.023322545 0.019585535 -0.0015498872 0.0013397292 -0.17288385 0.01089652 0.05604678 0.056472044
0.008897935 -0.018196212 -0.0020617042 0.003854367 -0.018334264 -0.1041065 0.01872329 -0.08403046
0.07567359 -0.013619638 -0.050603792 -0.015668686 -0.14246991 -0.05764152 -0.08412402 -0.09048491
-0.06595978 0.06854253 -0.15090585 0.11009175 0.023821399 -0.027529376 -0.052943785 -0.008483923
0.11110323 -0.034420818 0.05083782 -0.027199334 -0.033346318 0.058630936 -0.08916103 -0.028861267
-0.02453537 0.03354837 0.0003665009 -0.014687179 0.09400445 0.05053007 -0.050817613 -0.12538554
-0.072126836 -0.03764326 0.06277115 -0.027293608 -0.03544521 -0.08865009 -0.051447563 -0.04785691
-0.04074698 0.08689886 -0.020725437 -0.012702592 -0.029437445 0.034773752 0.039259434 0.0086288825
-0.03101857 -0.010828613 -0.0896521 -0.04229674 -0.06412116 0.02644896 0.021935932 -0.027916955
-0.104644336 -0.018754888 -0.062234804 0.07162441 -0.022917865 -0.012331134 -0.09372689 0.1680364
-0.08754964 0.11879772 -0.15703739 0.06246868 -0.13661917 -0.011804324 0.0024189549 0.046278294
-0.07302349 -0.034247026 -0.111222014 -0.035018664 0.029296365 0.014115743 0.069811165 0.08814221
-0.094117984 -0.029455898 0.005288071 -0.0036349692 0.028727334 -0.07400923 -0.010688964 0.022310665
-0.11097781 -0.04156986 0.0497254 -0.09049226 -0.0020719932 0.0070287916 -0.049981758 -0.040569987
-0.014248505 -0.16006707 0.009508762 -0.01563183 0.016810056 -0.0032918595 0.014321049 -0.08670821
0.012696118 -0.09818726 0.15586968 -0.03826572 -0.025660062 -0.047221784 -0.053458277 -0.013413628
0.048279963 -0.107219845 -0.07058523 0.0156567 -0.08770018 0.018227464 -0.066734545 -0.0070866654
-0.006035898 0.027266813 -0.092812344 -0.03244233 -0.050145272 -0.025322039 -0.08793953 0.026952265
-0.13567969 -0.037138637 -0.021774705 -0.022818588 0.0032302935 -0.097010784 -0.029289566 0.016396113
-0.056075376 0.03186951 -0.22309019 -0.0887416 0.040368818 -0.057473455 0.025339065 0.05453113
-0.01694848 0.0049986416 -0.013851187 -0.04530401 -0.041731752 -0.0016513634 -0.04842807 -0.042041603
0.06716973 0.011413818 -0.0762895 0.009939391 0.047373585 -0.004416615 0.0074427347 -0.06894288
-0.013422941 -0.08349844 -0.076129615 -0.027185276 -0.09051874 0.066323295 -0.097584054 -0.013742261
-0.043103177 0.03124622 -0.020855345 0.0047290907 -0.031281862 0.032896943 -0.0781634 -0.06388459

value_net.0.bias f4 [32]
00000000: 4370 56bc 5115 66bc a32e 0c3c 5bd9 f4bb
00000010: 5901 fa3c cc42 473d 582a 583d 4052 053b
00000020: a224 35bd 9aaa 6b3c ae03 0c3d 1447 253b
00000030: 12d6 e33a 09b5 c33c 368c 553a 2b1d 2dbd
00000040: 8844 883c e476 76bd 61e7 fe3c 9319 44bd
00000050: f446 afbc f01d 34bd d87f 143c eb7d 44bd
00000060: aa07 b53c ad8d 723c 18d2 4e3d 99ec 883c
00000070: 3d78 183c bbf9 613d 32f7 91bc ce1f 763b
-0.013088289 -0.014043168 0.008556041 -0.0074722 0.03051822 0.048647687 0.052774757 0.0020343214
-0.04422439 0.014383936 0.034183197 0.0025219368 0.0017382524 0.023890035 0.0008146198 -0.042264145
0.01663424 -0.060171977 0.03111619 -0.047875952 -0.021396138 -0.043973863 0.009063683 -0.047971647
0.022098381 0.014804286 0.05049333 0.016714381 0.009306011 0.055169802 -0.017818067 0.0037555578

value_net.2.weight f4 [32, 32]
00000000: 1f7a 32be dc3a 7ab9 2ea4 e0be a87a e53d
00000010: 4fd2 6fbc cac5 3a3e bd33 a13e 9a64 073d
00000020: 70f4 27be d620 873e 8483 783e b90d 1cbe
00000030: a056 243f 8ec6 ee3d c824 e6be 23a6 9dbe
00000040: a147 143f b6cb 483e 8d4e 9b3e a341 853d
00000050: befa ae3e b4c3 593e 2639 453c 9f1e f4bd
00000060: e643 db3e ed3b 033f 269b f8b9 286b 75bd
00000070: a41e 463e ec0a 6dbe 8838 063f 3c6b bb3d
00000080: f6ba 7e3e 8841 df3e 0a13 ce3d ce46 be3d
00000090: 4376 b4be 3fb0 b93d f517 3f3e 0646 15bd
000000a0: 507e 223d 3f00 8ebe eb59 0f3e f34f 2a3e
000000b0: 3827 88bd a597 613e 8a40 f5be 19d2 1fbf
000000c0: 10a2 fc3d 05dd 4e3e 55e2 763e 729e 0abd
000000d0: ad50 1bbe d186 863d abca f13e 6d3b 03be
000000e0: 1e03 c6be 2cb8 7fbe d6e1 0c3e a10c f9be
000000f0: 5543 513e 9ac8 303f 4913 163d 88e6 293e
00000100: 7cf5 ee3d 9870 223f efa9 30bf 84ae b93d
00000110: f928 29be 66d3 963e 07f2 b1bc 4280 713e
00000120: 439b a83e dfd3 4cbe 6c3f e63d 9af5 633d
00000130: b6ad a9be 40c1 a6be 46d3 d8be be70 bc3e
00000140: baf8 93be 8bdb c4bd e6db 87bd 64cf f23d
00000150: 1c2b ccbe fc47 f4bd 912a 843d 0db4 203e
00000160: 5f38 92bd 99de e73e d2a7 ccbd 9e59 873d
00000170: 3f9e ad3e 1686 89be 42c6 8abe b990 c73d
00000180: 7caf f43e 9c84 c43d 48d2 77be a441 7a3e
00000190: 8fb9 65be d852 79be ffec 823e 66dc f3bd
000001a0: 6193 82bc 9954 bdbe 3ee5 3ebe a1f8 e1be
000001b0: cb02 883e f932 b4be 4730 1e3e 8c1b e23d
000001c0: 66e7 d6bd c8ff d03d d87f 3ebe f047 073d
000001d0: 761e 103d 4228 6abe 196f 14bc d558 4bbe
000001e0: a1d4 1b3c 8ea0 72be 4e8e 25bf 9a83 64be
000001f0: 01df ae3e 3280 bd3d bc6b bb3e 0600 76bf
00000200: 4f71 173e d8cf dc3e 0b97 c0be faf0 1d3f
00000210: 1923 863e c25c 07bd 33d7 513c 7dbe 343f
00000220: 3e14 8ebd 4163 c13d 8913 d6bd 11be 8f3d
00000230: fb2b e8be 6eed af3d d3c7 d33d 046c 0ebe
00000240: bb04 9c3c 7001 7fbe de92 b9be b3f8 2abe
00000250: 0499 09be cf3f 3d3e e9b7 1ebe d197 a2be
00000260: 8179 c1be a203 383e c55a b93d ce3a debe
00000270: d4a7 8ebd 73f7 bdbc aff5 ba3e ece2 4f3d
00000280: 6d55 c83e f3c8 cb3d 30c5 86be 006e 37be
00000290: cb38 77be c0c7 213c dc66 78bd b015 acbd
000002a0: 1e25 96bd 79d6 8d3d c4d7 c2be bfda a2be
000002b0: d92d c9bd bc7c d43d bc37 e1be d61f c3be
000002c0: 0d3e c9be c90d 443d cbec 213e 95b8 843e
000002d0: 9b76 db3d 0344 9b3e 7e40 45bf 1a40 153e
000002e0: c771 13be 0a5f 35bf 32cb cc3c 8328 0dbd
000002f0: 2d02 21be e4b1 d9be 63d9 803e fb5e 12bf
00000300: b30e 1a3e c194 efba 67c1 b53e 36c3 01bf
00000310: c07d 0cbf 7a7f ef3e 970f 323d 27db 223b
00000320: 11fb ac3d 2e4c 31be 357f ab3e 9f45 aabd
00000330: 9cb4 b93e 33b3 66bd 5302 4a3e 5f77 f83c
00000340: ecba 363e 9185 9dbe 9b83 02be a324 dcbe
00000350: 77cb fc3e 2bbd 08bd 7f01 d7bd 0b23 00bf
00000360: 729f 343e f947 8dbe b577 223e fcc3 7dbe
00000370: e822 3b3e cba6 85be 42a6 97bd b791 a4bd
00000380: 393d 12bd 894d c4be a647 e8be 8bbe aabe
00000390: 8dfa ef3e 777f f93e 4ab8 d23e f950 063e
000003a0: 16cb 82be 6434 0ebe 54c7 5a3e a2b8 a93d
000003b0: 35f7 0e3e 91aa 843e 3058 59be bf9e 91be
000003c0: 75b0 93be 5209 03be a291 25be 21d2 1fbd
000003d0: 7e5a 843d 0744 0fbe 601e ce3d a7f8 2bbc
000003e0: 13cd 523e 75fd 273e 6b69 c43c b04d 36bf
000003f0: 801a bf3c 03e6 083f 3297 5fbe 6749 47bd
-0.17429398 -0.00023863785 -0.4387526 0.112050354 -0.014637544 0.18239513 0.31484786 0.033054926
-0.1640184 0.2639224 0.24268919 -0.1523961 0.6419468 0.11658965 -0.44949937 -0.30790815
0.579218 0.1960896 0.30333367 0.0650666 0.34175676 0.21266061 0.012037551 -0.11919903
0.4282524 0.51263314 -0.0004741784 -0.059916645 0.19347626 -0.23148698 0.5243001 0.09151313
0.24876007 0.43604684 0.10062225 0.09290849 -0.35246477 0.090668194 0.18661483 -0.036443733
0.039671242 -0.27734563 0.13999145 0.1663206 -0.066481054 0.22030504 -0.47900802 -0.6242996
0.123355985 0.202015 0.24109776 -0.03384251 -0.15167494 0.06568683 0.47224936 -0.12815638
-0.38674253 -0.249726 0.13758025 -0.48642448 0.20435841 0.69056094 0.036639486 0.16591847
0.11667916 0.63453054 -0.690093 0.09066489 -0.16519536 0.2945816 -0.021721853 0.23584083
0.32930955 -0.20002697 0.112425655 0.055654146 -0.33140343 -0.32569313 -0.4234869 0.36804765
-0.289007 -0.09612187 -0.06633739 0.11855963 -0.3987664 -0.119277924 0.064534314 0.15693684
-0.07139658 0.45287016 -0.09992947 0.0660889 0.33909795 -0.26860112 -0.27104384 0.097444005
0.47790134 0.09595606 -0.2420131 0.24439102 -0.22434066 -0.24348009 0.2557144 -0.11907272
-0.015939416 -0.36978605 -0.18642136 -0.44135 0.2656463 -0.3519514 0.15448104 0.110404104
-0.104933545 0.102050364 -0.18603456 0.03302759 0.0351853 -0.2286692 -0.009059691 -0.19858105
0.009511144 -0.23694059 -0.64670265 -0.22315827 0.34154513 0.09252967 0.36605632 -0.96093786
0.14789318 0.43127322 -0.37615237 0.61695826 0.26198652 -0.033047445 0.012807655 0.7060316
-0.06937455 0.09442759 -0.10452945 0.07018674 -0.45346054 0.08590208 0.10340848 -0.13908392
0.019045224 -0.24902892 -0.36244863 -0.16696434 -0.13437277 0.18481372 -0.15499844 -0.31756452
-0.37788013 0.17970136 0.09050516 -0.4340424 -0.069656044 -0.023189282 0.36515567 0.05075352
0.39127675 0.099504374 -0.26322317 -0.17913055 -0.24142759 0.009874284 -0.06064497 -0.08402574
-0.07331298 0.06925673 -0.3805524 -0.31807515 -0.09823198 0.10375354 -0.43987834 -0.38110226
-0.39305153 0.04786471 0.15812986 0.25922075 0.107159816 0.30325326 -0.7705153 0.14575234
-0.14398871 -0.70848143 0.024999235 -0.034462463 -0.15723486 -0.42518532 0.25165853 -0.5717618
0.1504467 -0.0018278585 0.35499117 -0.50688493 -0.5487938 0.46776944 0.0434719 0.0024849863
0.084463246 -0.17314216 0.3349549 -0.083140604 0.36270607 -0.05632324 0.19727449 0.030330358
0.17844743 -0.30765966 -0.12745516 -0.42996702 0.4937398 -0.03338353 -0.10498332 -0.5005347
0.17638949 -0.27593973 0.15865977 -0.24781793 0.18275034 -0.26103815 -0.07404758 -0.080356054
-0.035702918 -0.38340405 -0.45367163 -0.33348498 0.46870843 0.4873006 0.41156226 0.13116826
-0.25545567 -0.13887173 0.213651 0.08287169 0.1396149 0.25911382 -0.21225047 -0.28441426
-0.28845564 -0.12796524 -0.16168836 -0.039018754 0.064625725 -0.13990794 0.10064387 -0.010496295
0.20586042 0.1640528 0.023976048 -0.7121229 0.023328066 0.5347597 -0.2183502 -0.048653986

value_net.2.bias f4 [32]
00000000: ced1 e13d f73e f63d 61df 39bd f3c7 01bd
00000010: 38b1 55bc d9d1 46bd e567 3c3c 545d 113e
00000020: 7276 3d3c 8a23 a43c 4d26 30be 443f 053d
00000030: 8d6d e13c f849 31bd e925 7ebc 7247 9b3d
00000040: ccde 423d 6916 aa3b 9cb8 03be 411c cfbd
00000050: 0433 9ebd 0d70 79bd 91cb 10bd 4047 283b
00000060: 5120 cfbc 89b6 66bd 9aff b03c 24b8 c6bd
00000070: 8a4d 813d 23eb 23bc 5f34 3fbd a7cf ec3c
0.11026345 0.12023728 -0.045379046 -0.031684827 -0.0130427405 -0.04853997 0.01149938 0.14195758
0.011563884 0.020036478 -0.1720211 0.032531038 0.027518058 -0.043283433 -0.015511968 0.075819865
0.047575757 0.00519066 -0.12863392 -0.10112811 -0.07724574 -0.060897876 -0.035350386 0.0025677234
-0.025283964 -0.056326423 0.021606255 -0.09703091 0.063136175 -0.010004791 -0.046680804 0.02890761

value_net.4.weight f4 [32, 32]
00000000: 2bcb 87be 1b7c 37be deb7 6b3d 07b9 a6bb
00000010: 95d4 4abc 5e67 77bd 8935 0ebf 769f 3b3c
00000020: 04ec bfbe 945a a3bd 587e 343e e40d ecbc
00000030: fd33 103d 2e79 183d 0ac1 e2be 0a41 fbbe
00000040: 299e e3be 5f3c 29be 4934 c3be 066e 983d
00000050: 4f26 673e 4722 f43d c2ba 35bd 9cbc 0bbd
00000060: 1d1d 343f cd0f 0e3e bdae 36bf 374f 033f
00000070: ec10 4bbe a485 2e3e 618a 403d 86f2 e63d
00000080: 8de0 cb3e e21c 073f 2b93 02be 7fbd 08bf
00000090: d55e d43e f5e1 2cbd 3d98 963e f45a 113e
000000a0: 63e5 fabd e064 b3bb 2c39 39be b57b 2b3e
000000b0: 04b5 e0bd cd4a febd 33f8 123e f041 86be
000000c0: 4968 243f 1e46 173c 4cca 3bbd dc88 cebe
000000d0: ad2d b83d b699 86be a226 c23d 1664 f4bc
000000e0: 82b4 de3d fbfe 31bf 939f 99bd 2dfc b5be
000000f0: 4ab4 afbc ab6b 6b3e a233 3bbd 72c8 da3d
00000100: 9887 afbc edd5 0c3f f884 0bbe 1fd8 973e
00000110: 6bf7 b13e f679 a9be d489 ab3e 8b76 393e
00000120: 8634 593d 52da 193e 263c 59be d89b ad3e
00000130: 17dc 033f 9a2c 8abc 4449 c4bd fe36 4a3e
00000140: 1644 203e b1c0 45be c61a 7c3e 05b7 3bbe
00000150: 4efc 9bbe a510 32be 027e b8be 4c23 88be
00000160: 50af 9dbe a708 b6be 2ba7 893d 710b 0bbe
00000170: 3a07 5b3f f543 a73e 2be8 28be 647a c3be
00000180: 2862 bfbe 29fd e3bd bb94 18be debe 18be
00000190: 6e3c bf3e 26c3 8dbd 56c9 c4be 4b20 16bf
000001a0: f691 00be 2d8d 403d 2c22 cb3e 27be 15be
000001b0: 224d 17bd 7d66 c13e 7fe4 81bd 70ee 0ebf
000001c0: 8ebd 27bd de0e f63e fe94 1abe 5ef1 4c3e
000001d0: da10 0fbf c7ff c5bb 83ee 603c a632 393e
000001e0: 9bf3 dabd 1f1f 503e 8e21 123e 20c5 cd3d
000001f0: d7a6 95bd 1ee3 e73d 8f73 8f3d b079 6dbd
00000200: b826 e0be eaf7 753e e4ff 013e 19ff de3d
00000210: 72af 083e e56d e03e 4093 463e d434 923c
00000220: 29d6 153e ef87 be3d 4231 323f f065 1ebf
00000230: 6af3 a33d a048 973e 69b0 77be d85a 6cbe
00000240: 8735 eabe 2f4c 563e ac12 a03e e7f3 043e
00000250: 56f4 a83e 1879 bc3d dd2c 6dbe 8480 1a3d
00000260: e7ac 4c3e c080 fb3c 6782 a4be 54e6 933b
00000270: 1e67 0ebf 0c86 2ebe b648 163e 1d5b a83d
00000280: a732 92be f3f6 eabc bbec c03e 6e11 3a3e
00000290: 8b4f dabe 428f 78be 497c 00bf b8e0 d6bb
000002a0: 87ab 91be 28c0 8b3d 5326 993e 05c0 da3d
000002b0: b4e3 e3be 15ed 873e dbaa e0be 4e66 35be
000002c0: 6767 f13d 8d4c c3be 246f 003f c25f 80be
000002d0: e137 48bd e353 b6be 7aa2 93bd 10f8 813e
000002e0: e6e4 db3e cd0c bb3e 7be2 7c3e e177 83be
000002f0: 2f95 78be a066 9d3d cbd0 2d3e 4525 8c3e
00000300: 67a1 ecbe 7387 8abe ae17 f93c b08c 8ebe
00000310: ea85 75be 87dc efbd af3b 7d3d 4951 1abe
00000320: 0b1f a53e a985 073f 8b2c 54be ec1c b0bd
00000330: 3e84 f43c 8a89 9dbc 52d9 40be c894 30bf
00000340: 142c 7f3d 9470 06bf 0a7d cb3d b654 ba3c
00000350: 071d 463e 0397 2f3f c175 b9be bc41 8c3d
00000360: c316 5abe dc57 b4bd 7a20 b33e feda 893e
00000370: 8c00 58be d685 4ebd b7e5 113e 58e6 ff3d
00000380: 0f2a 8e3d b5f8 8b3e 6df4 debe cbb2 aebe
00000390: 122f a0be ced9 9fbc 7f9f 30be 6403 e23e
000003a0: bb67 623f 5f13 ebbd 98e9 553c f0c9 883e
000003b0: 1ad6 9e3e 10f0 c03e fb80 5abd 93fd 9b3e
000003c0: 9863 3d3e c24b 0dbe 54b8 eabe 1083 05be
000003d0: cc5d fbbd 332a 22be 3825 d63d 1bc1 b1bd
000003e0: 4751 813d 0c52 0c3d 7719 763e edf2 babe
000003f0: 63c0 e3bd 7af1 a63e ddad 5b3e 6d59 31be
-0.26522192 -0.17918436 0.057548396 -0.005087975 -0.012379785 -0.060401313 -0.5555044 0.011451593
-0.37484753 -0.07976261 0.17626321 -0.028815217 0.03520583 0.03722494 -0.44287902 -0.49073058
-0.44456604 -0.16526936 -0.38125828 0.0744286 0.22573207 0.119206004 -0.04436756 -0.03411542
0.70356923 0.13873215 -0.7136038 0.5129275 -0.19830674 0.17043167 0.04700697 0.112767264
0.39819756 0.52778447 -0.12751453 -0.5341415 0.414786 -0.042207677 0.29413024 0.14194852
-0.12250783 -0.0054746717 -0.18088216 0.16746409 -0.10972026 -0.12416611 0.14352493 -0.2622218
0.64221627 0.009233026 -0.045847222 -0.4033879 0.08993087 -0.26289147 0.09480025 -0.029832881
0.10874273 -0.69529694 -0.075011395 -0.35543957 -0.021448273 0.22990291 -0.045703538 0.10682763
-0.02142696 0.55013925 -0.13624942 0.29657075 0.34759077 -0.3310086 0.33503592 0.18111627
0.053028606 0.15024689 -0.21214351 0.33907962 0.51507705 -0.01686697 -0.09584287 0.1974754
0.15650973 -0.19311787 0.24619588 -0.18331535 -0.3046593 -0.17389162 -0.36033636 -0.2658943
-0.30797815 -0.35553476 0.06721338 -0.13578583 0.855579 0.32669035 -0.16494815 -0.38179314
-0.37379575 -0.11132271 -0.14900486 -0.1491656 0.37350792 -0.06921987 -0.38434857 -0.58643025
-0.1255568 0.047009636 0.3967451 -0.14623319 -0.036938794 0.37773505 -0.0634241 -0.55832577
-0.040952258 0.48058218 -0.15095899 0.2001395 -0.5588509 -0.006042454 0.013728741 0.18085727
-0.10690995 0.20324372 0.14270613 0.10047364 -0.07307213 0.11322616 0.07004463 -0.05797738
-0.4377954 0.24020353 0.12695271 0.108885 0.13348177 0.43833843 0.19392109 0.017847456
0.14632477 0.09303271 0.6960641 -0.61874294 0.08005412 0.29547596 -0.24188389 -0.23081529
-0.45743963 0.20927499 0.31264246 0.12983666 0.32998914 0.09202784 -0.23161645 0.03772022
0.19987832 0.030701041 -0.3213074 0.0045135412 -0.55626094 -0.17043322 0.14676175 0.082205035
-0.2855427 -0.028682208 0.3768061 0.18170711 -0.4263881 -0.24273399 -0.50189644 -0.0065575503
-0.28451177 0.0682376 0.29912052 0.10681156 -0.4450966 0.26548067 -0.43880352 -0.17714807
0.117873006 -0.3814434 0.5016959 -0.25073057 -0.048881415 -0.35610875 -0.07208724 0.2538457
0.42948073 0.36533204 0.2469577 -0.25677398 -0.24275659 0.0768559 0.1697418 0.27372184
-0.4621689 -0.27056465 0.0304068 -0.2784171 -0.23976865 -0.11711984 0.061824497 -0.1507007
0.32250246 0.52938324 -0.20720117 -0.085992664 0.029848214 -0.019230623 -0.18832901 -0.6897702
0.062297896 -0.5251553 0.09935959 0.022745471 0.1934701 0.685898 -0.36222652 0.06848475
-0.21297745 -0.0880582 0.34985715 0.2692489 -0.21093959 -0.050420605 0.14247786 0.124951065
0.06941616 0.27338186 -0.43545857 -0.34120783 -0.31285912 -0.019513037 -0.17248343 0.44143212
0.8843953 -0.11478304 0.013056181 0.26716566 0.31022722 0.37683153 -0.05334566 0.304669
0.18495023 -0.1379843 -0.45843756 -0.13038278 -0.1227375 -0.1583641 0.10456318 -0.0867941
0.063143305 0.034257933 0.24033152 -0.36513463 -0.11120679 0.32606107 0.21453042 -0.1731927

value_net.4.bias f4 [32]
00000000: 208a 35be 4f91 0d3e 5a72 503e a78a eebd
00000010: 90a8 0ebe 305c 95bd 2050 88bd 2fec fc3c
00000020: 56fd 1bbe be03 2b3e 65be 27be 49cb ed3d
00000030: 1b84 26bc 1ffd 3abe e5cb ac3c 3e9c 77be
00000040: 05e0 753d e75f cb3c 5045 253d 0e39 353c
00000050: 10dd 0e3e 5bb4 14be 3011 0c3c 7011 5b3e
00000060: b42f b6bb afd3 55bd 4123 3dbd 8f1e 903c
00000070: 9816 c1bd b0df 133b c00a 0bbd 972f 1dbd
-0.17728472 0.13824962 0.20356122 -0.116475396 -0.13931489 -0.07292974 -0.06655908 0.03087434
-0.15233359 0.16700646 -0.16381223 0.11611039 -0.010163332 -0.1826062 0.021093318 -0.24180695
0.060028095 0.024826003 0.040349305 0.011060966 0.13951516 -0.14521925 0.00854902 0.2139337
-0.005559886 -0.05220383 -0.0461762 0.017592696 -0.094281375 0.0022563748 -0.0339458 -0.038375463

value_net.6.weight f4 [1, 32]
00000000: 99c9 303f 910e 0dbf 1f44 eabe 2351 083f
00000010: ab65 4d3f 1a61 d23e 72c3 013f c8a2 59bf
00000020: d4b4 e23e 2e57 1dbf 89ff 2d3f 0b38 1cbf
00000030: d5b5 0cbf 1e84 d03e 57da 0dbf 60c2 f83e
00000040: 32ea 23bf 483c 2bbf c0f8 2f3f 13ed 283f
00000050: 6f3f f4be 2c88 283f dc5b f73e 1f42 e8be
00000060: 25de 1f3f d89f 303f 6803 653f 0c72 1dbf
00000070: 7329 4cbf 5e76 44bf 5bf5 2d3f 41c5 0f3f
0.69057614 -0.5510035 -0.45755097 0.53248805 0.8023326 0.41089708 0.5068885 -0.8501401
0.44278586 -0.6146115 0.6796804 -0.61023015 -0.54964954 0.40725797 -0.55411285 0.48585796
-0.6402923 -0.66888857 0.6873894 0.65986747 -0.47704646 0.6583278 0.4831227 -0.45362946
0.6244834 0.689939 0.8945832 -0.61502147 -0.79750746 -0.76743114 0.6795251 0.5616036
