MAPPO/Only_R/save/SY_3_T1/agent_22_OR_c.pt (torch, 127774 bytes, 15 tensors)

policy_net.0.weight f4 [32, 26]
00000000: 95b4 adbe c1da eabc bc2f b53e 1b2a 5a3e
00000010: 6733 193d c658 0ebd d641 54bf 7f75 3e3e
00000020: 4160 92be 10cd 893d ecf4 3e3d e2eb 7b3e
00000030: 86b1 f7bd add3 46be 8473 9d3d 10db f0be
00000040: 53db 953e 1c03 043e 0048 9f3e 1a06 bcbe
00000050: 43b8 efbd 7e5e 12be 3519 f83d 53df 2a3c
00000060: 8401 85be 7e0d 4cbd d86e ec3b d022 933e
00000070: c746 1d3d 99d7 a73d 69fd 08be 0532 3abd
00000080: 8c80 783d 32cf 30bf 43bc 953e cafb 2c3e
00000090: 2a2b 0bbf 9c38 3cbd 6f6f 85bc b133 adbe
000000a0: e3a1 ee3d 8587 d83d 15b1 0bbf bd62 ddbe
000000b0: 753d 9b3b 1f26 a4bd 57fe d5bd 1dda fdbd
000000c0: c4d0 67be 0d8e 033e df20 273e 9984 853e
000000d0: c23a a4be 8903 043f 889b 01be 48d7 e8bb
000000e0: d42f 3a3e aa2a 15be ab6b 8cbe 052e fabd
000000f0: 396d b0bd cd97 31bd 4565 c1be 2eef a73e
00000100: 9c24 6bb9 4f89 ce3e 09b4 adbe 379d 893e
00000110: 525c 553d fe9a c63e 2790 503e 6317 c5bb
00000120: 9ba0 233e 7cba 3c3e 3c76 67bc 651d e13d
00000130: 7383 a3bd bd82 69bd 1cef 973e a0b8 acbe
00000140: 1b9f 163e ba2f d6be 8631 68be 7d23 90be
00000150: 8903 3b3e ecfd 0f3e 5442 6fbe 8e71 853d
00000160: 9c2e 34be 520c e03e 7103 7b3e 1141 1bbd
00000170: 91cd fcbd 8cff d0bd 237d 1bbe b946 43be
00000180: 6430 07bf ace3 0ebd b0ab 713e ab17 b8bd
00000190: ecaf b63e dc22 1e3f 3987 b63d 2a55 52ba
000001a0: 14d1 393c fe2e 43be 62bc 86be f0c1 953e
000001b0: 520b 8ebe 0f4b 33be d6b7 8a3e 958c f23e
000001c0: d27f 83be 0bf1 ba3e 0d13 16be 1c24 09bf
000001d0: a346 9abe b097 61bd 26e1 8abe c0b8 eabd
000001e0: 6cae 3ebf a5dc 91bd 7e7f 01bd 7569 19be
000001f0: 01a0 c3be b9e3 dd3d a855 b13d 450c eebd
00000200: 3a61 b43d eef3 80be 7999 943e f7f7 a63d
00000210: b8c5 913d 899e 123f af62 8f3e fea4 ccbe
00000220: dba4 f83e e8f9 763e fa41 823e 30f9 06be
00000230: dba1 87be 6027 053f 25cc abbd a89c 37be
00000240: abc9 923e 9839 1f3e 3718 1cbe 5999 25bd
00000250: 9273 1ebe 3871 afbe d72a 47bd 5872 8bbe
00000260: b39a 423e 8072 7dbe 3a7b aebe c257 c43d
00000270: eed4 643e 87eb b33e 6767 f5bc c50c 7c3d
00000280: fd45 783d 9239 b73e e35a 9d3e cfd8 9d3d
00000290: 8026 bfbd bb49 033e 2540 a33e 1351 48bd
000002a0: 18d5 3e3e 78ec b9be 1ebe 073e 7895 f53d
000002b0: 8a95 263e dc33 8d3e e498 95bb 4cd0 0ebc
000002c0: 0cd5 683e 5cce 80be 84b3 573d bd3d 073f
000002d0: 90c9 dabe cc1c f33c 7ded dbbe bb5d 53bd
000002e0: 4570 49bd 98cc 43be cf0d c43e b341 933c
000002f0: 8ff1 b93c ad1c 973e 4507 353d 5f84 fd3e
00000300: 1d16 e1be e166 f43c 61e8 fc3d ac6c dcbd
00000310: c46f 8fbc 4e8e 6ebd d43a 8e3c 0cef ab3e
00000320: 48dd 4ebc f983 563e d1b6 553e 38eb 17bf
00000330: b36a fe3c 5151 0abe aabf ac3e bf0d a3bc
00000340: 652e 33bf c180 133d 2ca5 a3be 6f2b 823e
00000350: 086e a53e f0f6 92be 0e1c c23d bd10 303e
00000360: 3117 d3bd 2ccb a3be e0a7 333e 7d53 03be
00000370: a3be 5d3e ea6f f4be 1458 b63e 6cb5 01bd
00000380: c799 6cbe 82f2 7abe 5118 debe c579 083e
00000390: 0571 0c3e 83d6 083f fa41 523b 61ef a03d
000003a0: 29ba 5d3e 913d 973a d77b 633e 7849 db3e
000003b0: 9f50 dc3d faf2 09bf 005b a3bd f1bc 903d
000003c0: 9f9f 263e 96e6 453c 8edf ea3d e3f5 ba3e
000003d0: 82cb 783e 69a0 743e 4d66 5a3e 6f89 23bf
000003e0: bcdf 3f3e 45fd 303d c960 a03d c287 9d3b
000003f0: 2a09 853d 0f34 99bd 0167 d4be 0635 50bd
-0.33926836 -0.028668763 0.3538798 0.21305124 0.037402537 -0.03475263 -0.8291296 0.18599509
-0.2858906 0.06728566 0.046620294 0.24601701 -0.12094407 -0.19416685 0.076880485 -0.4704213
0.29268894 0.12891811 0.3110962 -0.36723405 -0.11705067 -0.14293858 0.12114183 0.010429221
-0.2597772 -0.049817555 0.007215362 0.28737497 0.038397577 0.08195419 -0.13377918 -0.04545786
0.060669467 -0.69066155 0.29245195 0.16892925 -0.5436274 -0.045952424 -0.016288487 -0.338285
0.11651971 0.10572723 -0.5456708 -0.43239394 0.004737551 -0.080150835 -0.10448902 -0.123951174
-0.22638232 0.12847157 0.16321133 0.26077726 -0.3207608 0.51567894 -0.12656987 -0.0071057416
0.18182307 -0.14567056 -0.27425894 -0.12215809 -0.086145826 -0.04335766 -0.37772575 0.32799667
-0.00022424984 0.40339133 -0.33926418 0.26877758 0.052089997 0.38790125 0.2036749 -0.006014751
0.15979235 0.18430513 -0.01412731 0.10991935 -0.07984056 -0.057009447 0.29674613 -0.33734608
0.14709131 -0.41833287 -0.22675142 -0.28152075 0.18263067 0.14061707 -0.23365146 0.065157995
-0.17595905 0.437594 0.24513032 -0.03790385 -0.12343896 -0.10204992 -0.15184455 -0.19069947
-0.52808213 -0.034885094 0.2360065 -0.08988889 0.35681093 0.6177194 0.089125104 -0.00080235547
0.011341352 -0.19060895 -0.263156 0.29249525 -0.27743012 -0.17509101 0.2709338 0.4737288
-0.25683457 0.36512026 -0.14655705 -0.53570724 -0.30132017 -0.0550763 -0.271249 -0.114610195
-0.74484897 -0.07122163 -0.031615727 -0.14981635 -0.3820801 0.1083445 0.08658916 -0.11623434
0.08807607 -0.25186104 0.2902334 0.08152764 0.0711779 0.57273155 0.28004977 -0.3996963
0.48563275 0.24118769 0.2544096 -0.13180995 -0.26490673 0.52013206 -0.08388547 -0.17930853
0.28669485 0.15549314 -0.15243612 -0.040429447 -0.15473774 -0.34266067 -0.04862484 -0.27235675
0.19004326 -0.2475071 -0.3407839 0.09587051 0.22346851 0.3514063 -0.029956533 0.061535615
0.06061362 0.3578611 0.30733404 0.077073686 -0.09333515 0.12821095 0.31884876 -0.048905443
0.18635976 -0.36313224 0.13256118 0.119913995 0.16267982 0.27578628 -0.004565345 -0.008716654
0.22737521 -0.2515744 0.052661434 0.5282858 -0.42731905 0.029676817 -0.42954627 -0.05160306
-0.049179334 -0.19121015 0.38291785 0.017975664 0.022698192 0.29514065 0.044196386 0.49515054
-0.43962184 0.029834213 0.1234901 -0.10762915 -0.017509349 -0.05824118 0.017362036 0.33580816
-0.012626 0.20948781 0.2087052 -0.5934329 0.031056738 -0.13507582 0.33739978 -0.019904016
-0.6999267 0.03601146 -0.31961954 0.25423762 0.3231051 -0.28704023 0.09478007 0.17193885
-0.10307158 -0.31990945 0.17544508 -0.12824817 0.21654753 -0.47741634 0.35614073 -0.031667158
-0.23105536 -0.24506572 -0.43377927 0.13327701 0.13714989 0.5345232 0.0032082782 0.07858158
0.21653046 0.0011538734 0.2221521 0.4282949 0.10757565 -0.5388638 -0.07976341 0.07067288
0.16271828 0.012078902 0.11468421 0.36515722 0.24296382 0.23889317 0.21328087 -0.6388158
0.18737692 0.043210287 0.0783096 0.0048074434 0.064958885 -0.074806325 -0.41484836 -0.050831817

policy_net.0.bias f4 [32]
00000000: e169 9a3d 76d1 393b 969b babd 4c70 283d
00000010: a5e8 d4bd ea5a 973d a835 f63d 23f8 9abd
00000020: c860 dfbd 2635 fe3d d70f 133e e7cc 70bc
00000030: 6e1d 5b3d ad91 1e3e 5ca9 da3d 1cd7 ff3c
00000040: ad34 e9bd 0e19 d23d d918 5cbd b943 a7bd
00000050: 0364 9bbd 832a 923d 037f 03bd 57ad abbb
00000060: e4f6 eabd 35fd 8e3d 9796 79bd 9d92 993a
00000070: 3588 9c3d 2035 99b9 ca31 9cbd 17b4 c8bd
0.07539726 0.0028353608 -0.09111707 0.04112272 -0.10395936 0.07390387 0.12021953 -0.075668596
-0.109071314 0.12412481 0.14361511 -0.01469729 0.053494863 0.15485258 0.10676834 0.031230502
-0.11387 0.10258685 -0.053734634 -0.08167214 -0.07587435 0.07137015 -0.03210355 -0.0052391696
-0.11472872 0.06981889 -0.06093463 0.0011716668 0.07643167 -0.00029222015 -0.07626684 -0.097999744

policy_net.2.weight f4 [32, 32]
00000000: 022f dd3e dbd7 91be 9c76 00be 91c6 46be
00000010: 94e7 8abe 9ca8 9dbe 815a 52be 7496 cfbe
00000020: fc99 973d e88d 1cbb af60 b6bd 4599 7f3e
00000030: a77f f7bd 2754 63be b195 503d fcd5 93be
00000040: df1b 95be b03e 383d e76c 7c3e ce49 793f
00000050: 2d8a 0ebd 1c06 01be 6fd5 e43e 142b 883e
00000060: b8bf d63d d2f1 593e e931 09be ce7c 023e
00000070: b328 393d 81d7 183e c89e c43d 77a4 c1be
00000080: b670 903e fd73 86be d119 36be 9209 abbe
00000090: 92b1 9f3e 26ac 3cbe 4079 92be b185 afbe
000000a0: c4c6 46bd c196 9bbe e72f af3c 3dd3 c13d
000000b0: a688 013e 9122 c93d 9269 acbd 7083 72be
000000c0: 3386 183f 4dd3 2bbe e52b 9ebd 3a02 15be
000000d0: cc55 c9be 2334 2ebf ac7d 713e 87a5 b33d
000000e0: 78b1 3dbe 3278 bdbe ad1c 40be 9b50 043d
000000f0: 437b 303e 74ba 91be 065b ec3d 99ce 1bbe
00000100: 30f2 0c3f 3844 43be c001 d33e 58c2 053f
00000110: b802 97be ef3b e43e f246 013e c292 a7bd
00000120: d0b9 6ebd 465f b9be 4ae9 973d a16d fc3e
00000130: 96d1 843e 9f17 9c3e 8b2e 9d3d 0b53 aa3d
00000140: 5921 51be f981 583e 27f0 32bd 0715 8c3e
00000150: a95d 44be 444c 7ebe 07c5 1a3f b857 173d
00000160: 8cb8 1d3e 1c80 79be d474 603e fe5c cebe
00000170: 13f4 bc3d 22bc 38be 97ed fc3d f1b6 6dbe
00000180: ea30 443e 9c4e da3d d3d9 443e f759 03be
00000190: e516 e3be 9cac b1be e050 3e3e df59 dbbc
000001a0: dc29 cabd 3a3e 933d 47ec 9b3d 37de c73e
000001b0: cb88 ac3e 51c6 933d a1bc 2c3f d7b0 3dbe
000001c0: a4d7 373e d5f0 a1bc f96a f63e fd8e 053f
000001d0: 520b 8c3d 935f e1be 0e3d 07bd aa25 9abe
000001e0: 83df d1be 2c90 55be 07f2 a33e 3ac5 8ebe
000001f0: f293 8ebc 2465 3d3d d229 71be 18e7 233e
00000200: 3583 d23c 777d 793e 4bce 053f 3ac8 8fbe
00000210: 2d90 283d d295 6dbe 9c18 18be 8815 c13b
00000220: e156 7dbb ee4f 1fbf c788 d5be 5d6f 3ebe
00000230: d08f 21be fe68 08bf da60 8cbe 50df f63d
00000240: deaa 5abd 377d 583c c61d e83e 05ea 14bf
00000250: 769d 33be 0c4d 58be 207c bcbd 322f 703e
00000260: e7eb 3bbd de82 843e efb0 08be 9c77 90be
00000270: dd45 99be 876a 2d3e 7e88 a5be 9152 8bbe
00000280: de1f 55be f7bb 2d3e 2913 a6be 84eb 6bbe
00000290: a853 cc3d d316 e63e 44a8 083f 3ed5 edbd
000002a0: 57e3 bd3e 38c5 793d b730 b2be 841a 54bd
000002b0: 3284 54be e219 1c3e c167 d43e 836c 3c3e
000002c0: dbe9 0fbe d067 dc3e da4e 35bd 85c9 acbe
000002d0: ab27 703e dd25 47be 02fa 8ebe 1ee3 b03e
000002e0: f582 c93c a837 67be e65e 6dbe 99e1 a23e
000002f0: 3583 8abd e7ec 063f f342 933e 2eba a4bd
00000300: a6fa 233e 47fb aabe dac7 fd3d 5b45 babe
00000310: 0f28 f43d 3452 19be 19fc 3b3e e3d7 95bd
00000320: 9299 9abd 29e7 a4be 5c6d 80be 8cd7 083e
00000330: c3d2 b63d cfb2 2d3c 2c70 50be 05be f43e
00000340: e0ab 9abe 8d76 34be 2543 27bd f0eb ac3e
00000350: 5d5c 103e d31a 5dbe 0262 25be 1b2b 623e
00000360: 8734 80bd e984 913d 4255 62be 11be dfbe
00000370: 0d1a 8a3e c8fb 87be 0c93 663d 3698 2e3f
00000380: 3efb 6fbd 4781 4c3e b241 abbe 1e95 aebe
00000390: 76ff 08be 7ccb 25be 48ca 81bd 9959 19bd
000003a0: 5390 073f db44 c03d e2c2 a83e 9a3c 6f3e
000003b0: 3301 033f 2a8f 5dbe f283 edbe 9d01 2abe
000003c0: a808 c5bd 8917 143e f216 173e f35d 543d
000003d0: 7e7c 10bd cc4c 62be 1766 e53e a356 483e
000003e0: 7fd1 9e3e 8a4d 55be 1230 3d3e 705a 35bf
000003f0: b336 8ebe 3302 debd 42ca 08be af30 1b3e
0.43199927 -0.28484997 -0.12545246 -0.19411685 -0.27129805 -0.307927 -0.20542337 -0.40544474
0.07402417 -0.0023888294 -0.0890516 0.24960811 -0.120848946 -0.2220007 0.050924007 -0.28874195
-0.29122826 0.04498166 0.24650918 0.9737824 -0.034799743 -0.12599987 0.44694087 0.26595366
0.10485786 0.21283653 -0.13397945 0.12742922 0.04520483 0.14925958 0.096005976 -0.3782079
0.28210992 -0.26260367 -0.17783286 -0.3340574 0.31190163 -0.18425044 -0.2860813 -0.34281686
-0.0485294 -0.30388454 0.021385146 0.09464119 0.12649783 0.09821046 -0.084185734 -0.23682952
0.5957977 -0.16779824 -0.07723216 -0.1455163 -0.3932327 -0.68048304 0.23583096 0.08771806
-0.1852473 -0.37005764 -0.18760939 0.032303434 0.1723452 -0.28462565 0.11540799 -0.1521553
0.5505705 -0.19068992 0.41212273 0.5224967 -0.29494262 0.44576976 0.1262472 -0.08182289
-0.058282673 -0.362055 0.07417543 0.4930239 0.2594115 0.3048677 0.07674893 0.083166204
-0.20422877 0.2114333 -0.04368606 0.27359793 -0.19176354 -0.2483378 0.6045689 0.03694889
0.1540243 -0.24365276 0.21919566 -0.40305322 0.09226241 -0.18040517 0.12350004 -0.23214318
0.19159284 0.10659525 0.19223718 -0.12827288 -0.44353405 -0.34702003 0.18585539 -0.026776252
-0.09871265 0.07189603 0.07613426 0.39036724 0.33698115 0.0721556 0.67475325 -0.1852449
0.17953354 -0.019768158 0.4812849 0.5217131 0.06838097 -0.4401823 -0.03301721 -0.3010686
-0.40990838 -0.20855778 0.3202059 -0.27884847 -0.01740453 0.046239033 -0.2355111 0.16006124
0.02569733 0.24364267 0.52267903 -0.28082448 0.04115312 -0.23201683 -0.14853138 0.0058924593
-0.003865652 -0.6223134 -0.41705915 -0.18597169 -0.15777516 -0.53285205 -0.27417642 0.12054312
-0.053385608 0.013213447 0.45335215 -0.58169585 -0.17540535 -0.21123141 -0.092033625 0.23455504
-0.04587927 0.25881094 -0.13348745 -0.28216255 -0.29936114 0.16935168 -0.32330698 -0.2721143
-0.20812938 0.16966234 -0.32436493 -0.23039061 0.09976894 0.44939288 0.5338175 -0.11612938
0.3708751 0.060979098 -0.3480279 -0.0517831 -0.20753554 0.15244249 0.41485408 0.18400769
-0.14054053 0.43047953 -0.04426465 -0.33747497 0.23452632 -0.19448037 -0.27925116 0.34548277
0.024598578 -0.22579825 -0.23180732 0.31812742 -0.06763307 0.52705234 0.28762016 -0.080433235
0.16013584 -0.33394834 0.12391634 -0.3638104 0.11921703 -0.14972764 0.18357886 -0.07316568
-0.075488225 -0.3220761 -0.25083435 0.13363475 0.08926918 0.010601713 -0.2035529 0.47801223
-0.30209255 -0.17623349 -0.04083552 0.33773756 0.14097734 -0.21592264 -0.16150668 0.22086756
-0.06260019 0.07105429 -0.22102836 -0.43699697 0.26973 -0.2655928 0.05629258 0.68201005
-0.058589213 0.1997119 -0.3344856 -0.34098142 -0.133787 -0.16190904 -0.0633741 -0.037438963
0.52954596 0.09388133 0.32961184 0.23362961 0.51173705 -0.21636644 -0.4638973 -0.16602178
-0.09620792 0.14462103 0.14754847 0.05184741 -0.035274975 -0.22099608 0.4480445 0.195643
0.31019208 -0.2083036 0.18475369 -0.7084112 -0.27776107 -0.10840263 -0.13358405 0.1515529

policy_net.2.bias f4 [32]
00000000: 0aec c43a 0289 a1bd ad80 143d dc8d af3d
00000010: 7a59 15be d5c7 d93c 83a5 03bd 10e4 2bbd
00000020: 994f 2dbd 334b 0abe 44c9 d43c 3cf1 623d
00000030: ede1 0f3d 8983 06be 8596 fbbd cdfb 083d
00000040: baf6 9cbc 4cf4 fd3d 405d 08be 9b26 01bd
00000050: 70bb 09be 189c 013e 785b ea3d 202c 013e
00000060: c561 b63d 29f6 acbb e0c3 d1ba bc0e 62bc
00000070: d5ba e23d c5ad ca3d d318 cc3d 61cb bc3d
0.0015023958 -0.0788746 0.036255527 0.085719794 -0.14584914 0.026584545 -0.032140266 -0.041965544
-0.04231224 -0.13505249 0.025974877 0.05540584 0.03512757 -0.13136114 -0.12284569 0.03344326
-0.019160617 0.124001116 -0.13316822 -0.031530958 -0.13450408 0.12657201 0.114432275 0.12614489
0.08905367 -0.005278368 -0.001600381 -0.013797458 0.11070792 0.09896425 0.09965672 0.09218479

policy_net.4.weight f4 [32, 32]
00000000: 8ec9 4cbf 0e10 9cbe 91c7 f6be 48a2 babe
00000010: 6e59 4d3e 8fe0 893e 22ea 69bd e5bb c73e
00000020: a81d efbd 3a8b 503e 4794 24bf f7a9 11be
00000030: a7da aabd 94be 4dbe 5a17 54be 5596 a83d
00000040: a6bc ec3e a5c3 fdbe 57c5 b2bd 65c0 35be
00000050: 432d 80be 2faf 233e 8766 d3be 5793 3ebe
00000060: b2a4 c8bd 89a1 6e3e acc4 c53e a351 a2be
00000070: b43c 4e3c 3035 84bd 3fd3 e83e 38bd 093e
00000080: ebe6 adbe e2b7 3bbe b8de 9b3e 6ed3 0a3f
00000090: 9b1c f0be 5674 5e3e cc4c b6be ca77 eebe
000000a0: 80e8 09be 102d abbe 5070 38be 035c bd3e
000000b0: add8 cc3e a9e3 01be 328e d73a 177c 02bd
000000c0: 414a f1bd 38ed 8a3d fac0 4a3e 0952 bc3b
000000d0: 7632 5a3e 7775 de3e 9f20 023f 8a8c cebd
000000e0: 4386 e9bd df8e 7c3d 3054 73bd e4e8 52be
000000f0: db6e cc3e ff8e 733e 66cc 043f 80c3 133f
00000100: 8def 54be 306b 98be 8b75 443e 6de4 08bd
00000110: 9e6a afbe d25b 23bf cd67 78be 1059 c1be
00000120: 4917 0ebe 8550 fcbe f3d5 283e f93c dd3e
00000130: eb18 a6be 3007 c8be 024a 4abe b471 d83e
00000140: 8dad 0c3e ca21 a73c 8707 afbe 1893 d5bc
00000150: 4d66 893d f87b c93e b37c 7c3e db83 943e
00000160: 2943 693e bbbf 7bbe caae 913e 9123 ce3e
00000170: e7e2 ec3d a172 a03e d271 9e3e fc2e 283e
00000180: 4d54 3d3e 4c5e 93be a5ec 333e 4e00 3c3d
00000190: 05ab 20bd 7735 25bd 0676 8e3d 2533 7e3d
000001a0: dbcd 563e 6677 97be ead5 f5be 4f2b 933e
000001b0: db89 6bbd 8d59 37bd 518c bdbc 0065 8d3e
000001c0: 61a5 193d ecf5 4c3d 2b26 2cbe 6a71 19bf
000001d0: da9b fcbe c986 033f 7a5d e73e 3282 2fbc
000001e0: 8df8 293e 7e1c b9be 216f 22bf 9beb 123e
000001f0: 650d b83e 866b 003f e96d 85bb 270c dc3e
00000200: ff1f cbbe f614 b1be 5cce 82be dad2 c4be
00000210: 8002 003f 6a9f c03e 7b68 103f 61ba 05bf
00000220: 3874 d0be bd0a 353d eec9 46be e03b 7bbe
00000230: 7289 0ebd abf0 d9bd ee33 093e 0cf0 edbe
00000240: dbc6 083c 9800 cfbe aecb 4fbd e36f f03c
00000250: 7d0c 0ebe 03a2 f93e a702 02bd 6aac 7dbe
00000260: de5b 483e 97ec 0abf 3ec4 013f 1c9a abbe
00000270: 2f68 9a3e a20d 2abe 224b 6cbe 746b 7dbd
00000280: a163 cd3d bbff 4fbe 7492 8a3e 90c8 00be
00000290: e221 8abe a65e a03e b787 e33e 2f11 36bc
000002a0: de0a 82be a64d a3be 43b4 883e 5be5 333e
000002b0: 0397 5dbe 54f5 03bf 86c6 1bbe 42bb 7d3d
000002c0: 905b 0abd 9884 bd3e df7c 80be 2216 cdbe
000002d0: c466 e6ba db38 35be f507 503e 52fd 4b3d
000002e0: a7e9 123b 6260 673e 4894 4cbe 35d7 52be
000002f0: b9dc 563f c2fd 833e ab6d 2a3f 97da 47bd
00000300: 0180 d93d d385 473e 9dcc 653e 2b5d 163f
00000310: 48bb a2be f2c8 53bd 1d36 113e 8715 053f
00000320: 36d4 d43d 0086 2bbe 04ba 023f 3c53 b43d
00000330: 443f 0e3f 7e64 94be 70f2 86be 56d2 af3e
00000340: b24d d8bd 462d bcbd e592 bd3e cdc5 a83e
00000350: 4d0c 2f3e 23c8 9cbc bc82 a3be 369f 373e
00000360: 9d7d c13e 875e c73d 2358 9ebe bf82 083f
00000370: c46b c13e 920d a83e 13e6 09bf 5619 803b
00000380: 33f7 a0bd 452b cabb 9d51 bf3d 9bd3 60bf
00000390: 316f e13b 4394 073f 6926 efbe 08b6 c13b
000003a0: 2cb6 24bf 9554 9b3e 6786 11bf e7dc 363c
000003b0: a19e 53be 1daf 97bc 8620 443d 1411 6cbe
000003c0: 7921 e43e 18d5 c8be 755d 1bbe 718c 8dba
000003d0: 4d00 1abc 9c7e 94be 6ebb 293e dfe1 f1bc
000003e0: 5c04 f4bd 7376 d0be dd74 bb3e 0c26 433d
000003f0: 6fa9 b83e d6b6 30be b5c2 4cbe 67f2 863e
-0.7999505 -0.30481 -0.48199132 -0.36451936 0.20053646 0.26929137 -0.057108052 0.3901054
-0.11675578 0.2036561 -0.64288753 -0.14224993 -0.08342486 -0.20092231 -0.20712033 0.082317986
0.46237677 -0.49563327 -0.08729046 -0.17749174 -0.25034532 0.15984796 -0.4128916 -0.18610893
-0.09797038 0.23303808 0.3862661 -0.3170291 0.012587715 -0.06455457 0.45473668 0.13451087
-0.3396524 -0.18331864 0.30443358 0.54228866 -0.46896824 0.21724066 -0.35605466 -0.46575767
-0.13467598 -0.33432817 -0.18011594 0.36984262 0.4000906 -0.12684502 0.0016445576 -0.031856623
-0.11781741 0.06783527 0.19800177 0.005747084 0.21308312 0.43448994 0.50831026 -0.100853994
-0.114025615 0.06165969 -0.05940646 -0.20596653 0.39928326 0.23785017 0.5187439 0.57720184
-0.20794506 -0.29769278 0.19185464 -0.03342097 -0.3426103 -0.6381198 -0.24258347 -0.37763262
-0.1387607 -0.49280182 0.16487865 0.4321058 -0.32440886 -0.39067984 -0.19754794 0.4227425
0.1373808 0.020401854 -0.3418543 -0.026071116 0.067089655 0.39352393 0.24656944 0.29006848
0.22779526 -0.24584858 0.28453666 0.4026151 0.11566716 0.31337455 0.30946213 0.16424173
0.1848919 -0.2878288 0.17570741 0.045898728 -0.039225597 -0.04033419 0.06956105 0.062060494
0.20976965 -0.2958328 -0.48014766 0.2874398 -0.057504516 -0.044763137 -0.023138197 0.2761612
0.037511233 0.050039217 -0.16811435 -0.5993868 -0.49337655 0.5137754 0.45188504 -0.010712193
0.16598721 -0.3615455 -0.6345082 0.14347689 0.3594772 0.5016407 -0.00407194 0.42978022
-0.3967285 -0.34586304 -0.25548065 -0.38442117 0.50003815 0.37621623 0.56409425 -0.52237517
-0.40713668 0.044199694 -0.19412968 -0.24534559 -0.034799047 -0.10641607 0.13398716 -0.46472204
0.008348192 -0.4043014 -0.050731353 0.029350227 -0.13871951 0.48756418 -0.03174081 -0.24772802
0.19566295 -0.5426726 0.50690067 -0.33516014 0.3015761 -0.16606763 -0.23075536 -0.061870053
0.10028768 -0.20312397 0.2706486 -0.12576509 -0.26978976 0.3132221 0.4443948 -0.011112495
-0.25398916 -0.3189518 0.2670003 0.17567961 -0.21639638 -0.51546216 -0.1521245 0.06194616
-0.033778727 0.37015224 -0.2509527 -0.40055948 -0.0017578234 -0.1769747 0.20315535 0.049802132
0.00224171 0.22595361 -0.1997844 -0.20589907 0.83930546 0.2577954 0.6657359 -0.048792448
0.10620118 0.19484644 0.22441335 0.58735913 -0.3178351 -0.05170531 0.14180799 0.51985973
0.103920385 -0.16750336 0.5106509 0.08804938 0.55565286 -0.2898292 -0.2635684 0.3434016
-0.10561694 -0.09188323 0.37026134 0.3296341 0.17094536 -0.019138401 -0.3193568 0.17931828
0.37791148 0.097348265 -0.30926618 0.533245 0.3777753 0.32822853 -0.5386669 0.0039092703
-0.078596495 -0.006169709 0.093417384 -0.87822884 0.00687971 0.52960604 -0.46708992 0.0059115924
-0.6434047 0.30337968 -0.56845707 0.011161066 -0.20665981 -0.018516118 0.04788258 -0.2305339
0.44556788 -0.39225078 -0.1517237 -0.0010799301 -0.009399486 -0.29002845 0.16575405 -0.029526649
-0.11914894 -0.4071537 0.36612597 0.047643706 0.36066768 -0.17257246 -0.1999615 0.26356813

policy_net.4.bias f4 [32]
00000000: 1160 59bc c2eb 5e3e 24d2 353e 57d1 383e
00000010: d445 e9bc e9d8 043e 1a13 0e3c 1f05 e7bc
00000020: 135e d33c 914a 3bbe 013c 693c f6d8 383e
00000030: 4689 0bbc f787 13be 94c7 3fbe 36f3 bf3c
00000040: 46b0 293e 59b2 7fbd 2ebb 243e 6958 4fbd
00000050: 83be 123e 145c b6bc 05a9 30be 86f6 283e
00000060: 2fe1 3cbd 2a6c 21be 4c9b 17be 519c 1a3e
00000070: 8a68 153e 3671 37be c99c 05be deac 373e
-0.013267533 0.21769622 0.17755944 0.18048607 -0.02847568 0.1297337 0.008671546 -0.028200684
0.025801694 -0.18290164 0.014235497 0.18051514 -0.008516615 -0.14407335 -0.18728477 0.023431402
0.16571149 -0.062425945 0.16087028 -0.050621424 0.14330487 -0.022260703 -0.17251976 0.16500291
-0.04611319 -0.15763918 -0.14805335 0.15098692 0.1459066 -0.1791428 -0.1304809 0.17937037

policy_net.6.weight f4 [20, 32]
00000000: 1ed5 a138 a6ef 083a 591a ab3a 0a7f ecba
00000010: 9d1a a73a 2f78 0ab9 a40c 603b f2c8 663a
00000020: 87c3 d939 2db9 2a3b 3721 afba 352b 803b
00000030: c788 deba fe66 d8b9 c509 55bb 67fa 28bb
00000040: a74d e5b5 d8db e23a 3e7f 57ba 7c2f 5fb9
00000050: 93b7 e13a 977e 2f39 dec1 293a 0165 6ab9
00000060: ab70 7e3a 7898 79b7 e052 66ba 7574 143b
00000070: 3d45 18bb 476f 7ebb ebe5 d138 b2b6 b1ba
00000080: 7409 81bd f4c9 71bd bdc6 81bd c229 58bd
00000090: b206 6ebd 5dbf 87bd 1153 843d 26d4 79bd
000000a0: 5ae2 7a3d f8b4 873d d0da 8cbd 3062 8fbd
000000b0: 9f0c 6dbd 43f0 6d3d 4024 683d d01a 943d
000000c0: c593 6ebd c518 8cbd 9397 72bd d0fc 67bd
000000d0: 3fee 62bd ae9e 86bd d75a 663d a594 8bbd
000000e0: 8daf 78bd cc25 573d 0c0d 7a3d fdce 5dbd
000000f0: b59c 7dbd 8cb7 8e3d 4eaf 833d d55a 88bd
00000100: 7510 8c3a bb48 b1b9 2f50 0abb e970 1cbb
00000110: 7938 983a 5cd7 0f3a dd97 16ba ff46 113b
00000120: 5718 44bb f2b8 9c37 604e 20ba 7d98 ec39
00000130: 0107 b9ba 7b94 d33a 2792 413a 7333 a43a
00000140: b5a6 5cbb 3bd3 7d3a 92eb 883a 2b9f 063b
00000150: 6ba7 1d3a bdff d3b9 6bb4 fbba 93d4 feba
00000160: 5572 c93a ab50 d4ba 00c6 0bbb b7cf 91bb
00000170: e171 193a c1d0 06bb 02c0 173b fcda 4b3a
00000180: 6541 4f3b 00e8 0d3b 72ac 403a 1dfd 31ba
00000190: d3b0 48bb 07cd f13a 6d81 3f38 54bf a9ba
000001a0: ed30 983a 625a aaba 8122 57bb 049f a339
000001b0: 8eaf 063a 2883 86ba 00eb efb9 5dd2 ee3a
000001c0: 7523 b7b9 d4e4 1b3a ca7c 803b 3958 1239
000001d0: 33b9 16ba fd22 013b b821 b2ba e268 e0ba
000001e0: 0954 a33a ab62 753b cb26 293b 0677 193a
000001f0: 0b00 6539 d336 d1ba 7e6f 863a b4a2 9338
00000200: bcd1 9e3c aa73 adbc b0ef a4bc 5e1b 95bc
00000210: f792 303d 680e 863d a346 a4bc 934c 91bc
00000220: 69f4 49bd 57f6 953c 0144 e9bc b3da 3b3d
00000230: 8024 4e3d 684c 4b3b f9fe 703b c8d6 e8bc
00000240: 9f21 84bc 50ab af3c 3eb1 9c3b c250 633d
00000250: 78ac 8abc 67f9 6f3d e5fe 4e3c 67e6 593c
00000260: 3737 263d b5e6 19bd cbba a7bc 15e0 a4bc
00000270: 54ff 51ba 9288 6d3c a78e 2abd 593f 95bc
00000280: 1d29 69bd d138 60bd 6210 54bd 4210 64bd
00000290: 798b 6fbd fbaa 46bd a378 6c3d ecb5 45bd
000002a0: 6119 5d3d 789b 4e3d f30c 4abd 2568 44bd
000002b0: fdaf 78bd 5d2d 4b3d 8bbf 5c3d bedd 2e3d
000002c0: 2515 5bbd c060 42bd 42f0 4cbd 1079 62bd
000002d0: 98d4 54bd 4fe4 4ebd 828e 633d e841 3dbd
000002e0: b92c 56bd a85c 663d e413 533d 3042 58bd
000002f0: 11f8 66bd 0d6a 4b3d 18eb 6e3d 4f45 3bbd
00000300: e4d0 203a 37bf c8ba d534 f9ba ceb9 2d39
00000310: 97b7 6ebb c563 06bb c914 543a 539a 01bb
00000320: 92d1 b23a 6003 2c3b 10ea bcb8 0c22 f0ba
00000330: 99dd d9ba 1345 2dba a144 f0b9 d36f eab9
00000340: 3b54 bcba 40ab 1c3b b4e1 ad3a 7980 b3b9
00000350: b322 48ba 8bb8 55bb 22cf 30ba 2af6 c1b9
00000360: ce1f 2a3a dd99 25ba 3de5 1abb 3e2e fb3a
00000370: 7850 e13a d75d 033b 0b55 2f3b 4146 51bb
00000380: 6e32 b0bc 7dd4 0fbd c1f2 11be b1d2 1abd
00000390: dcfb 303d fcb7 03be 0e9e e6bc 12c8 5d3d
000003a0: 39e5 1dbd 07a8 153d 33f8 ff3b 55a7 15be
000003b0: f290 4c3d 3cfb 233d 8649 2a3e 8dd7 5cbd
000003c0: 5067 11bd 895b 023d 2ba5 04be 16a6 b13d
000003d0: de4e 21bd 8396 203d 9e88 363d 8879 1bbd
000003e0: 6dc5 e53d 2f3e 1b3e 4686 1f3d 29d9 1cbd
000003f0: 8707 15bd 482b 2b3d 9203 0d3d 0faa 10bd
7.7167744e-05 0.00052236987 0.0013054117 -0.0018043232 0.001274902 -0.00013205477 0.0034187222 0.0008803747
0.00041535145 0.0026050315 -0.0013361339 0.0039114007 -0.0016978019 -0.00041275466 -0.0032507044 -0.0025784017
-1.7084429e-06 0.001730795 -0.00082205597 -0.00021284627 0.0017220847 0.00016736459 0.0006475727 -0.00022353606
0.000970612 -1.4877056e-05 -0.0008786153 0.0022652422 -0.0023234629 -0.003882365 0.00010008722 -0.0013558476
-0.06300631 -0.059030488 -0.063367344 -0.0527742 -0.058111854 -0.066282965 0.06461156 -0.060993336
0.061251022 0.06626314 -0.06877673 -0.0700115 -0.057873365 0.05809046 0.056675196 0.072316766
-0.058246393 -0.06840662 -0.059226584 -0.056637585 -0.05540299 -0.065732345 0.056238975 -0.06815461
-0.060714293 0.05252628 0.0610476 -0.054152478 -0.061917026 0.069686025 0.06429921 -0.0665795
0.0010686057 -0.0003381426 -0.0021104922 -0.002387101 0.001161351 0.0005487108 -0.0005744675 0.002216756
-0.0029921734 1.8682771e-05 -0.00061151944 0.0004512704 -0.0014116467 0.0016142273 0.0007384144 0.001252754
-0.00336687 0.000968266 0.0010446182 0.002054165 0.0006014022 -0.00040435596 -0.0019203549 -0.0019442014
0.0015369157 -0.0016198357 -0.0021327734 -0.0044498104 0.0005853456 -0.0020571204 0.0023155217 0.00077764667
0.0031624672 0.0021653175 0.0007349915 -0.0006789731 -0.0030622974 0.0018447944 4.5658486e-05 -0.0012950697
0.0011611261 -0.0012996907 -0.0032826962 0.0003120826 0.0005137854 -0.0010262476 -0.0004576072 0.0018220652
-0.00034930898 0.0005946879 0.003921126 0.0001395651 -0.0005749643 0.0019704693 -0.0013590371 -0.0017121101
0.0012460958 0.0037442844 0.0025810476 0.00058542227 0.00021839158 -0.0015961773 0.0010256616 7.039812e-05
0.019387119 -0.021173317 -0.020133823 -0.018201526 0.043108907 0.065457165 -0.020053213 -0.017736709
-0.049305353 0.01830594 -0.02847481 0.045862865 0.050327778 0.0031020883 0.003677307 -0.028422728
-0.016129313 0.021443993 0.004781871 0.05549694 -0.016927943 0.058587458 0.012634014 0.013299561
0.04058 -0.037573535 -0.020474812 -0.020126382 -0.0008010764 0.014497893 -0.04163995 -0.018218683
-0.056923974 -0.054741684 -0.051773436 -0.055679567 -0.05848262 -0.048502903 0.057732236 -0.048269197
0.05397928 0.050441235 -0.049328756 -0.047950882 -0.06071471 0.04960381 0.053893607 0.04269194
-0.053486962 -0.04745555 -0.050033815 -0.055291235 -0.051960558 -0.0505107 0.055555828 -0.04620543
-0.052288745 0.056240708 0.05153264 -0.052797496 -0.05638892 0.049661685 0.05832967 -0.045720395
0.0006134643 -0.0015315776 -0.0019012938 0.00016567783 -0.0036425346 -0.0020506245 0.00080902554 -0.0019775822
0.0013642779 0.002624713 -9.008136e-05 -0.0018320694 -0.0016621827 -0.0006609719 -0.000458275 -0.00044715274
-0.0014368364 0.0023905784 0.0013266117 -0.0003423726 -0.0007634565 -0.0032611217 -0.00067447324 -0.00036995235
0.00064897246 -0.0006317178 -0.0023635172 0.0019163562 0.0017190119 0.0020044947 0.002675357 -0.0031932744
-0.021508422 -0.035114754 -0.1425276 -0.037798587 0.04320894 -0.12863153 -0.028151538 0.05414588
-0.038548682 0.036537196 0.00781157 -0.14614613 0.049942918 0.040034518 0.1662961 -0.053916503
-0.035498917 0.031825576 -0.12953632 0.086742565 -0.039381854 0.03920604 0.044563882 -0.037957698
0.112192966 0.1516044 0.038946413 -0.038293038 -0.03638413 0.041789323 0.034427233 -0.03531843

policy_net.6.bias f4 [20]
00000000: 0000 0000 8fc6 58bd 0000 0000 0000 0000
00000010: a1f3 a6bc aee8 5dbd 0000 0000 e6fb 01bd
00000020: 9ff3 a63c 0000 0000 ab83 523e 03b5 043e
00000030: 6f36 e2bd 1efc 013d ad37 e23d 0000 0000
00000040: 0000 0000 3ab7 04be 0000 0000 0000 0000
0.0 -0.052923735 0.0 0.0 -0.020379843 -0.05417698 0.0 -0.03173437
0.02037984 0.0 0.2055804 0.12959675 -0.11045539 0.03173458 0.110457756 0.0
0.0 -0.1296052 0.0 0.0

value_net.0.weight f4 [32, 770]
00000000: c33f dbbc 2d03 803d 91e2 473a 38d3 0bbd
00000010: 1842 61bc cea2 d6bd 2036 803c 59a3 2c3c
00000020: ac42 fabc 506c c33d ec53 7a3d 7bf2 10be
00000030: dc5f a53d 2bf6 98bd bdfc a83d 5e7a c33b
00000040: 29fa 423d 7c3b 43bd 560d 32bd 8b0b 37bd
00000050: 865b be3d c2be a53c a23d c5bd f0ba 73bd
00000060: bae9 93bd 49a9 dcbc bef7 603d 742d b0bb
00000070: 7ad7 063e 8731 8fbd 4277 73bc 41ed 923d
00000080: a867 dc3c 7238 383d 9cc8 af3d 6c71 d0bd
00000090: e748 0ebd e35c 72bd a1b5 84bd fbea 3f3c
000000a0: 7149 43bd 4aee dcbc 1300 c1bc 23bf 6d3d
000000b0: 43e4 ed3d 947a ff3c 5349 363c 116f 3cbc
000000c0: 7903 a03d 0cc9 9dbc ba57 263d 85ea ea3c
000000d0: 4fdd 24bc 754d 4fbc 1703 e3bc a822 0d3c
000000e0: dccb 613c 81a2 dc3d cb5f a03d df2a 493d
000000f0: 9136 69bd 33f5 e03c 9d11 9cbb 0765 423d
00000100: 67ba d1ba 723e acbc 04d5 23bd 18f4 1fbd
00000110: 5058 a33d a194 cd3c a7dd c0bd d1ef d8bc
00000120: 4452 29be ee8e 4fbd 37f9 8bba 6760 093b
00000130: 9551 053d 0f62 98bc 885b 98bd dc0d fcbc
00000140: bac2 a03d c0d8 cfbb b529 9cbc a63c c7bc
00000150: 2aa5 b83c bb17 98bd c180 0dbc 3707 873c
00000160: 3a22 8b3d 4f6f 3c3b de6f b13c 69b9 5abd
00000170: f907 f63c 8ff8 f63d baba cb3c 8c60 513d
00000180: 59cf a73b 185a 453d c89c c6bc 7525 85bd
00000190: 3b1f 04be 4abe ae3d de55 ddbc 769c 44be
000001a0: 62e2 38be b3cb 43bc 63d7 043d a63e 0e3b
000001b0: e839 943d d42c 29bd 4d05 b1bd 8e66 63bd
000001c0: 6507 2a3b a4b0 c53d bfa9 7e3d b7a8 b5bc
000001d0: 63f9 a2bd b685 fa3c e65d 283e a85f d0bd
000001e0: 0ff8 263e 8172 0bbd 244a 1a3c 5ad9 a43d
000001f0: 4ad4 bdbd 3b51 063d 9520 0fbe 802d 883c
00000200: a44e 903d ce19 cdbd 1bd4 823d 4b94 23bd
00000210: 08dc 4cbd 330f 0c3d 29c8 84bd 77dc 1cbe
00000220: cb8d 993d 7a74 ec3b 98f9 a43d f47c 413d
00000230: 62ce 62bc e642 8b3d 7b1e 1b3d 377f d13c
00000240: 8c9b 733d b43f 503d 5a88 a3bd 803a f33c
00000250: f2d2 8a3d 14e4 e8bd 45a9 a6bc 0825 e63c
00000260: 2a45 b73d 0304 023d bd70 12bd 86be eb3d
00000270: 529a 06bd 93b8 5fbd 9832 1d3d 18a1 7cbc
00000280: 7812 d2bd 3783 cb3d b45b 123c 1017 ddbc
00000290: ff81 9e3d 0c62 793b b39e eebb 49df a6bd
000002a0: 973b 4abd 3f72 4bbd 1864 7ebd 7498 b4bc
000002b0: 2e78 5cbb efff 1c3d 69e3 ba3b 293e 943d
000002c0: 1fc4 433b 4ef1 cdbc 32ab 4a3b 9417 053a
000002d0: fd13 033d fc09 13bc 5d9a 56bd 4ce4 163d
000002e0: 0b70 99bc 8c35 3dbd a747 923d 056e 97bc
000002f0: 14f2 e03d 656a ab3d f792 74bc 0b9c ed3c
00000300: 2312 88bc 1f54 da3d 8835 c0bc 778b ccbb
00000310: d88d a5bc c65c dd3d 7e56 dc3d 4122 98bd
00000320: 7e54 ad3c 8054 e5bd 5295 b6bc f6c6 16bd
00000330: 27a9 b4bc 68ed 093d 36a4 52bd 905d 973c
00000340: 69a1 2b3d a2a7 cc3d bef7 85bd 7319 263d
00000350: 9084 a73d 4c13 023d 69aa cf3b 37a5 c13d
00000360: dc67 843d 4457 acbc fe2b 653d 47b0 783c
00000370: 9780 c6bd a594 2dbd 4c4f c23c a46b 193c
00000380: 14d0 36be 18e5 6a3d 7b8f 3bbd 925c bb3d
00000390: 8f6e 533c a4b3 f73b c5c1 3e3b b378 213c
000003a0: 800a 52bd 7165 373d 8a03 d9bc 4aa9 b8bd
000003b0: a564 173e 6844 5b3b 837c 54bd 756a 533d
000003c0: ea52 323c a388 ba3c 3372 943c b4ce 8dbd
000003d0: f39f dc3d 77fd c5bb 0566 88bd 75b8 68bd
000003e0: 60e9 413b 43a2 35bd 60d8 563d 38e8 d03c
000003f0: 7b64 dbbc 83ba 8f3c e506 b6bc 9618 d1bc
-0.026763802 0.06250606 0.00076250086 -0.03413698 -0.013748668 -0.10480271 0.015650809 0.010536992
-0.03054937 0.09542143 0.06111519 -0.14154999 0.08074924 -0.07468828 0.08251331 0.005965515
0.047601853 -0.04766415 -0.04346975 -0.044688743 0.092948005 0.020232562 -0.09630896 -0.05950445
-0.07222314 -0.02693619 0.054923765 -0.005376512 0.13168135 -0.069918685 -0.014859976 0.07174159
0.026904896 0.044975705 0.08583185 -0.101778835 -0.034737494 -0.059170615 -0.064799555 0.011713739
-0.04767746 -0.026969094 -0.023559606 0.05804361 0.11615803 0.03118638 0.01112588 -0.01150109
0.07813162 -0.019260906 0.040611006 0.02867628 -0.01006253 -0.012652745 -0.027711434 0.00861422
0.013781514 0.10773183 0.07830771 0.04911315 -0.056936804 0.02746067 -0.004762842 0.04745963
-0.0016000987 -0.02102587 -0.03999807 -0.039051145 0.07975829 0.025095286 -0.09417277 -0.02648154
-0.16535288 -0.050673418 -0.001067913 0.0020962001 0.032548506 -0.018601445 -0.07439333 -0.030768327
0.07849641 -0.0063429773 -0.019062856 -0.024320912 0.022539694 -0.07426401 -0.008636654 0.016482932
0.067936376 0.0028752869 0.021659788 -0.053399477 0.030033099 0.120591275 0.024869312 0.051117465
0.0051211533 0.048181623 -0.024244681 -0.06501285 -0.12902538 0.085323885 -0.027018484 -0.1920031
-0.18055108 -0.011950421 0.03243197 0.0021704822 0.07237607 -0.041302517 -0.08643589 -0.055517726
0.002594435 0.09652832 0.0621736 -0.022175176 -0.07957723 0.030581336 0.1644207 -0.10174495
0.16305564 -0.034044746 0.009417091 0.08049269 -0.092690066 0.03279231 -0.13977273 0.016623259
0.070462495 -0.100146875 0.06388112 -0.039936345 -0.050014526 0.034194183 -0.0648349 -0.15318476
0.07497748 0.0072160335 0.08055419 0.047238305 -0.013843151 0.06799869 0.037870865 0.025573356
0.059474513 0.050842002 -0.07984991 0.02969098 0.06778516 -0.113716274 -0.020344386 0.02809383
0.08948739 0.031742107 -0.035752047 0.11510949 -0.032862015 -0.054619383 0.038378328 -0.015419267
-0.10257429 0.099371366 0.008932997 -0.026988536 0.077396385 0.0038052825 -0.007282102 -0.08148057
-0.049373236 -0.0496695 -0.062107176 -0.022045352 -0.0033640969 0.038330015 0.005703379 0.072384186
0.0029871536 -0.025139477 0.0030924794 0.0005077061 0.032001484 -0.008974548 -0.052393306 0.036838815
-0.018730184 -0.046193644 0.07142573 -0.018485079 0.10983673 0.083699025 -0.014927617 0.029005071
-0.01661021 0.10660576 -0.023463026 -0.0062422114 -0.020209238 0.10808711 0.107586846 -0.074284084
0.021158453 -0.11197758 -0.022287998 -0.036810838 -0.022053314 0.033673674 -0.051426135 0.018477231
0.04190198 0.09992911 -0.06541394 0.040551614 0.08179581 0.031756684 0.006337453 0.0945534
0.06465122 -0.021037705 0.055950157 0.015178747 -0.09692495 -0.042378087 0.023719452 0.009364042
-0.17852813 0.057347387 -0.04579113 0.09148516 0.012904777 0.0075592566 0.0029107195 0.009855437
-0.051279545 0.044774476 -0.026490945 -0.09016664 0.14784487 0.0033457521 -0.051876556 0.051615197
0.010884026 0.022770232 0.01812086 -0.06924191 0.107726954 -0.0060421783 -0.06660084 -0.056816537
0.0029588565 -0.044344198 0.052452445 0.025501356 -0.026781311 0.01754499 -0.022220084 -0.025524419

value_net.0.bias f4 [32]
00000000: 26bd 8b3b 33ed ce3c 5f6b 4d3c 0233 03bd
00000010: cb88 8e3a 6b1a 0cbc 820f 4dbc f1f1 4d3b
00000020: 85f4 163b 9747 d6bc d3c3 b53b 2d8c 34bc
00000030: 577d 533d 6712 e53b 10bf 9b3c 0641 903c
00000040: df29 84bc d577 6c3d 19a4 ac3b 59d7 a3b9
00000050: e089 2d3c bd92 27bd 63ab 2a3c 005b 183d
00000060: f2c4 c33b c22d 96bb 74f5 853c debf b7bb
00000070: ed75 4abc 9a38 923c d3ae b73b 9ef6 bf3b
0.0042644916 0.02525959 0.012537806 -0.032031067 0.0010874508 -0.00855122 -0.012515904 0.0031424726
0.0023033929 -0.026157184 0.0055470257 -0.011019749 0.051633205 0.006990719 0.019012004 0.01760913
-0.016133247 0.05773147 0.0052685854 -0.0003125023 0.010591954 -0.040911425 0.010416838 0.03719616
0.0059744054 -0.0045830915 0.016352393 -0.005607589 -0.012357217 0.017849255 0.0056055575 0.0058582565

value_net.2.weight f4 [32, 32]
00000000: 2590 a2be e3dd 62be e6d9 52be 99a0 bcbe
00000010: 2202 85bd 421d 2abd 5110 13be 9cf1 813e
00000020: 4e7e c4bd 6d41 45be b7f6 df3e ddb0 dcbe
00000030: 42c0 b93d 9569 64be 1db2 663e 0347 c93d
00000040: 3471 143d d757 7a3e d37e 9a3e 10b8 583e
00000050: 2865 bcbe 7bfe 23be f4a6 6d3e 9ede b13c
00000060: e68b 3a3e a949 13be 1381 47be cfb5 e03d
00000070: d114 11bf ea01 253d 0e1a e33e 96e2 bbbe
00000080: 1fe4 88be 864d ebbe 7882 aa3d 624b 903e
00000090: a211 a33d 886f 90bd 63bd b63e da0c f2be
000000a0: 612d e83c c949 c7bd 9b0f 71bc 9327 7ebc
000000b0: 41c7 7a3e 4986 ed3e 1158 ea3c ccf9 003f
000000c0: 0fb9 e7be f532 093e beec 543e 8169 933d
000000d0: cdf5 f9be 645b a23e a0c1 583d a5d8 953d
000000e0: 3a73 6cbd 593d b93e cecc 7a3e 2a30 a33e
000000f0: 4046 3fbe 6236 873e aa6d 38be 4f6d e3bb
00000100: 93e0 3bbe dff5 09bd 7e9e 173f 2924 84be
00000110: 4afb 79bd c708 7ebe 4123 f9be 2c5f af3d
00000120: 7676 55bd 79eb 973e bf56 90be 0ddc ee3e
00000130: e528 43be f6a1 28bb 918a 83bd e419 5f3c
00000140: 6e89 aebe ff92 b73e c190 7fbe 9d25 18be
00000150: 751e b73d c369 eebe 6229 2e3e 01ff 383e
00000160: 37ef 853c ec7c bfbe d491 673e b707 973e
00000170: c95d 7dbe 3b5e 3fbd cd06 c33d f68f d43e
00000180: 7905 8f3e 1332 063e f2f2 ad3d c4e9 403e
00000190: c0c5 3dbe d5f8 35bf c261 533e e408 8e3d
000001a0: b428 013f bb56 83bd d24a ea3e 14bd f13d
000001b0: 5aaf 673e 75db 89be ac2f 97bd e49d 85bd
000001c0: e83b 5abd e1ab 0e3d 6c69 6d3f fecd 2b3e
000001d0: d245 b9bd c92a 673d bb77 2f3e 41d5 403d
000001e0: fef7 323e af4e 063e b965 5b3e 0d8d 79bd
000001f0: bbdf 553c b261 243a 47e5 2c3d 2a9b 54bd
00000200: 4ffe 5dbe 04dc d53e e26d cfbc eb33 ce3e
00000210: 373d 113f 9d61 9f3d 1b19 e9be b2c8 f43e
00000220: 5fd4 22be aad5 42be c527 1dbf 2bbe 1c3e
00000230: 548a 53be 8dd2 05be a67f e2be f3e2 79be
00000240: 59e2 ea3d 329c c9bd de48 52be 9b02 debe
00000250: 476a d3be 0e41 983d 7366 473e 1ec1 843e
00000260: 1030 8a3e 79c0 063e 4719 b4bb 65b1 66be
00000270: a3ea 04be 9f72 fd3d e009 15be dd07 eb3b
00000280: 69a5 443e 4878 3fbf 8d4f 3f3d c3ed a1bd
00000290: a47d f73e 28d4 88be a603 eabd 2848 283e
000002a0: f58a c13e 08d8 7d3c 3add dcbe f099 1fbe
000002b0: d902 04be 0c84 a03d 43b1 84be c6eb d23d
000002c0: dcee fa3e 4b89 a93d 3eac cbbe 957d 45bf
000002d0: 8ba5 9abd 51cd 81bd 67ee 06bf 9b34 ffbd
000002e0: 4d14 b2bd e83e 39bd 4946 353e 0314 09be
000002f0: 3987 103e c0ac e2bd ae18 25be 3d01 243c
00000300: c92a 7b3e 3306 76be 5541 d6bc 36c5 9c3e
00000310: 50df 95bd 2711 4a3e 54d1 98be 87ae 95bb
00000320: af78 00bf ee91 ee3e 1201 9c3e 5f72 bc3d
00000330: 8595 dabc 770a c2be 4981 bebe 5c31 27be
00000340: a152 abbe 4b24 dd3e cc48 2a3d e9e6 4b3d
00000350: f7c4 333e 1e8e 1c3e 6317 233e 184b 19be
00000360: f5a1 c53e 9dde 6fbe 40f4 85bc 151e 93be
00000370: c464 de3e 2f26 80be 1d90 d43e 51ab 88be
00000380: 4123 15be 21c3 e2bd f25f 9b3d b846 bb3e
00000390: e27e 25bd 6e3c cabd 007f 10bf 6ec9 95be
000003a0: 1340 e43e 7f38 df3c a26a b9bd de20 8abe
000003b0: 824b f3bd 1147 7b3d 4e63 fe3d 87fd c23e
000003c0: 7344 983e a1a0 eebc ae41 9d3d 1acf e63e
000003d0: 8ef4 b33e cb9a b03e 82f6 d23e e102 40be
000003e0: a7fb 1cbe 5983 a9bd 0fa8 8abe 6f75 cabe
000003f0: 5a4e 02be d92d b33c 626f b83d 8a69 1d3e
-0.317506 -0.22154956 -0.20590934 -0.36841276 -0.064945474 -0.04153181 -0.14361693 0.25379646
-0.09594403 -0.19263239 0.43742916 -0.43103686 0.090698734 -0.22305901 0.22528882 0.098279975
0.03624077 0.2444757 0.30174884 0.21163964 -0.36795926 -0.16015045 0.23208219 0.021712597
0.1821743 -0.14383568 -0.19482832 0.10972177 -0.5667239 0.04028503 0.44355816 -0.3669631
-0.26736543 -0.45957583 0.08325666 0.28182513 0.079623476 -0.07052523 0.35691366 -0.4727543
0.02834195 -0.0973087 -0.014713193 -0.015512365 0.24490072 0.46391514 0.028606446 0.5038116
-0.45258376 0.13398345 0.20793435 0.07197858 -0.48820344 0.3171035 0.05291903 0.07316712
-0.057727076 0.36179617 0.2449219 0.31872684 -0.18679142 0.26408678 -0.18010584 -0.006940521
-0.18347387 -0.033681747 0.59226215 -0.25808838 -0.061030664 -0.24808036 -0.4865971 0.085630745
-0.052114926 0.2967184 -0.28191182 0.4665226 -0.19058569 -0.0025731302 -0.06422914 0.013617013
-0.34089226 0.35854337 -0.24957563 -0.14858098 0.08941356 -0.46565065 0.17007974 0.18066026
0.016349418 -0.37399995 0.22614223 0.29498073 -0.24742807 -0.046720725 0.095227815 0.41516083
0.27933863 0.1310504 0.08493604 0.18839175 -0.18532467 -0.7108281 0.2064276 0.069352895
0.50452733 -0.06413027 0.45760208 0.11803642 0.22625485 -0.26925245 -0.073821396 -0.06524256
-0.053279787 0.034831885 0.92738986 0.16777799 -0.0904652 0.056437287 0.17135517 0.047078375
0.17477414 0.13115953 0.21425523 -0.060925532 0.01305383 0.0006270661 0.042210843 -0.05190579
-0.21679042 0.4176942 -0.02532095 0.40273985 0.5673403 0.0778229 -0.45526966 0.47809368
-0.15901326 -0.19026819 -0.6138881 0.15306918 -0.20658237 -0.130686 -0.44238013 -0.2440298
0.11468954 -0.09844245 -0.20535609 -0.43361363 -0.4129202 0.07434283 0.19472675 0.25928587
0.26989794 0.1315936 -0.0054961774 -0.22528608 -0.12980132 0.12375378 -0.14554548 0.0071725682
0.19203724 -0.7479291 0.046706725 -0.079066776 0.48338044 -0.26724362 -0.11426477 0.16433775
0.37801328 0.0154934 -0.43137532 -0.15586066 -0.12891711 0.07837686 -0.2591649 0.102988765
0.4901036 0.0827814 -0.39779848 -0.7714475 -0.07551106 -0.06337989 -0.52707523 -0.124612056
-0.08695278 -0.045226008 0.17702593 -0.1338654 0.14114083 -0.11068106 -0.16122696 0.010010061
0.2452804 -0.24025802 -0.0261542 0.3061921 -0.07317984 0.19733106 -0.29847205 -0.0045679244
-0.5018415 0.4659571 0.30469567 0.09201502 -0.026682625 -0.3789861 -0.37208012 -0.16327423
-0.33461478 0.43191752 0.04157333 0.04978076 0.17555605 0.15288588 0.1592689 -0.14970052
0.38600126 -0.23424764 -0.016351819 -0.28733888 0.43436253 -0.25029132 0.415162 -0.26693204
-0.1456423 -0.11072374 0.075866595 0.36577392 -0.040404208 -0.09874807 -0.56443787 -0.2925524
0.44580135 0.02724862 -0.09053542 -0.269782 -0.11879636 0.06134707 0.124212846 0.3808405
0.29739723 -0.029129328 0.07678543 0.4507988 0.35147518 0.34493098 0.41203696 -0.18751098
-0.15330373 -0.08277006 -0.27081344 -0.3954272 -0.12725201 0.021872448 0.090056196 0.15372291

value_net.2.bias f4 [32]
00000000: ac3c 6b3c b03a 243d 11b1 663d 1ce0 02bd
00000010: 89bc 39bd 03be 4fbd 2fed eb3c 8cfd f9bc
00000020: 7cb5 1ebc a1cf 96bd 6d45 7f3d 4332 ca3d
00000030: 81bb 82bd 7ce6 873d 1ec8 2abe f09e 52bd
00000040: 2a2c a83d 0720 cb3d 55aa 78bd 6d6b 723d
00000050: 421e 323d fa86 643d aff4 19be f544 b03c
00000060: db09 c8bd 8e8a 0b3a bdc4 b03d d052 16bd
00000070: f935 5c3c e5ba 85bd 1f07 49bb 565a 51bd
0.014357727 0.04009503 0.056321207 -0.03195201 -0.045345817 -0.05071832 0.028799621 -0.030516408
-0.009686824 -0.07363821 0.06232207 0.09872868 -0.0638342 0.06635758 -0.16677901 -0.051421106
0.082115486 0.09918218 -0.060709316 0.05918448 0.043485887 0.055792786 -0.15034746 0.021517256
-0.09767505 0.00053230755 0.08631275 -0.03670007 0.013440602 -0.06529788 -0.003067441 -0.05111154

value_net.4.weight f4 [32, 32]
00000000: ce4d bcbc faad e33e 3704 2a3e abc7 90be
00000010: ddbe 29be 2b00 c03d 7bc8 483c c1e6 14bf
00000020: 4fad 693e 1904 243d 704b ccbe 0ab6 f83d
00000030: c49f 823d 2f24 ae3e 82aa 173c fe1e 893d
00000040: 4fcf c5be 5af3 ba3e 91ae 293f 06b4 0d3e
00000050: ced6 373c 7489 5cbe a794 8fbe c643 8dbe
00000060: 1498 003e 8a6c 12be 6685 dfbe f5ee 2fbe
00000070: 7ab4 68be 2010 283e 576f 0cbe a560 c93d
00000080: 5454 473e f780 013f 0498 143e f0e0 84bd
00000090: b29e 813d d3fd 913e 99d2 84be 05e6 10be
000000a0: e7f7 a6bd b6ec 1a3d cdf3 acbd 5ddd 9bbe
000000b0: ab21 b3be e846 99bd f4d8 4a3e 091a ba3c
000000c0: eca7 00be db39 25bf a6d6 d3be 62f5 69be
000000d0: 914a 2c3f 5963 3a3e f0df c7bc 8da8 1c3e
000000e0: fe24 5cbe acd8 7cbd d1d5 c5bc ede0 27be
000000f0: 1eff d9be 40dc 943d d406 223e 8116 823e
00000100: d1ff 493d e1e6 7e3c e816 89bd 3a0b 033e
00000110: eccc c83d 780a 8d3d d06f 97be 1be3 d93e
00000120: feb6 ec3e 221d 71be 52b3 4c3e f91d 903e
00000130: 6d40 8cbd 10df a73e 52be b4be 3232 3fbe
00000140: c362 45be b95c 16be 40c9 24be 223b e53d
00000150: 1d1f d83e 9ffd a73e 611d 753e e071 d0be
00000160: 186a e0be 0151 2d3f be63 d7be e9ab 6a3e
00000170: 82c9 f33e 9245 02bf d891 e8bd 1aed 9a3e
00000180: f513 763e a1b3 cd3d 677f d83d c088 8abe
00000190: 2cf5 8fbd 10a5 aa3e 5d31 353e 4a90 8ebe
000001a0: cc2e a23e 80d3 583d 5edb 113f 8d22 4b3f
000001b0: 69b3 943c 7730 72be b60e 9cbe 64ad 843c
000001c0: 0d30 ac3e 6b12 713e d836 3fbe 5a33 91bd
000001d0: 7a7f 33be 1a29 dd3d 03c0 99be d757 553e
000001e0: 06a1 39be 4405 bc3e e4a3 06be 0530 acbe
000001f0: d0ad 353e 7855 71bc f01d 103e 647c 55bc
00000200: 2980 d13e 87dc e23c 003f 14bf 4f5c 883e
00000210: d995 45be 0556 0bbf cb18 6e3d 095c c3be
00000220: cc14 d7be 0558 0fbf c55a 5e3e 126a 663e
00000230: 578a 55be a459 483e 81fe febd 6e3a e0bd
00000240: 4b90 b93e 61fb 00be fbbb fdbc 7cc9 22bd
00000250: 2f86 893a 19b5 ce3e e79e 4ebe 246f 2fbe
00000260: ab94 773e f744 8f3e d0d4 053e 301a 223e
00000270: 8c91 b8be f1bb 2cbd e790 5fbe 0fe9 12bf
00000280: 87dc f13b ace6 803d 017d e63d 4e23 29bd
00000290: aaba d03e dd50 b3bd c71e 92be 5711 ea3d
000002a0: 3758 e53c afaf 0f3f 159a 87be 9141 8c3e
000002b0: 60ad 6c3e 22b2 5a3b 668c 1dbf e35f 81be
000002c0: 2a9f 27be e035 623e 6950 dabd 3e7c 333e
000002d0: ac76 a23e f26f bb3e 1067 453e 4458 3c3e
000002e0: 39c9 853e 7de0 b03e 7e87 ba3e 7906 333e
000002f0: 2fe8 bcbd b6ce 18be e814 a7bd 9da8 6abe
00000300: 6d92 883e d54a b5be 7319 a7be 5121 7bbd
00000310: 577a 2cbc 347b d2be e45f a33e cc96 99be
00000320: bff4 b8be 2efd d13e e444 c0bb 9bc9 193e
00000330: 2832 4bbc f2b6 b5be 1f93 1f3d 0aa9 e53e
00000340: 4f59 c8be 2e29 09bf c5ab fe3d bf65 9bbe
00000350: ad1e 69be 68ca 733e 9d9d 753e 66f5 79be
00000360: 12d3 96be f5a3 19be 20b6 28bd ec3a 693e
00000370: 929d 3cbe fa4a 43be 381c 75bd 48c3 333f
00000380: 095d cabd 8121 6e3d 62d4 a6be 99f1 833d
00000390: 7ede 93be 5421 f03e feb7 fa3d 2247 b5be
000003a0: abd0 7bbe 9f8a 303e 021b d4bd 2ec8 a4be
000003b0: 6654 803e 32d2 dbbe 1958 993e 3d68 7ebe
000003c0: 0a9e 37bf 88ec 31bd cf01 56be 6fb1 13bd
000003d0: 86fc 9bbc dac9 e4bd f71b 0d3f 64d6 cebd
000003e0: 202f d93e 0039 16be c868 c4be efec f7bd
000003f0: 17fe 2f3e c6c6 cdbd 6516 303e cf8f a8be
-0.022986319 0.4446867 0.1660317 -0.28277335 -0.16576715 0.09375032 0.0122548295 -0.581646
0.22820018 0.04004297 -0.39901304 0.12144096 0.06378129 0.3401198 0.009256961 0.066953644
-0.38634726 0.36513788 0.6628199 0.13838205 0.011220647 -0.21536809 -0.280431 -0.2759077
0.12558013 -0.14299217 -0.43656462 -0.17180999 -0.22725096 0.16412401 -0.13714348 0.098328866
0.19465762 0.5058741 0.14511114 -0.06488216 0.06329097 0.28513965 -0.25941923 -0.14150245
-0.08152752 0.0378234 -0.08444939 -0.30442324 -0.34986624 -0.074842274 0.19809324 0.022717493
-0.12564057 -0.64541405 -0.413747 -0.22847512 0.6730128 0.1820196 -0.024398774 0.15298672
-0.21498486 -0.061730072 -0.024149807 -0.16394396 -0.4257745 0.07268572 0.15822917 0.25407794
0.04931623 0.0155579755 -0.06693822 0.12797251 0.09804711 0.068867624 -0.29577494 0.4255608
0.46233362 -0.2354627 0.1999028 0.28147867 -0.06848226 0.3278737 -0.35301453 -0.18671492
-0.19275956 -0.14683808 -0.16092396 0.11192919 0.42211238 0.32810685 0.23936988 -0.4071188
-0.43830943 0.6770173 -0.42068285 0.22917141 0.47614676 -0.50887406 -0.113559425 0.3025902
0.2403105 0.10044027 0.10571175 -0.27057457 -0.07029185 0.33329058 0.17694612 -0.2784446
0.31676328 0.052936077 0.5697535 0.79349595 0.018151956 -0.236513 -0.30479974 0.01619596
0.3363041 0.23542182 -0.18673265 -0.07089873 -0.17529097 0.10798855 -0.30029306 0.2083429
-0.18127832 0.36722767 -0.13148457 -0.33630386 0.17742085 -0.01472985 0.1407392 -0.013030145
0.4091809 0.027693046 -0.5790863 0.26632926 -0.19295444 -0.5442813 0.058129113 -0.38156155
-0.42008054 -0.5599368 0.21714313 0.225014 -0.20853554 0.19565445 -0.124508865 -0.109486446
0.362429 -0.12595893 -0.030973425 -0.03974293 0.001049226 0.40372542 -0.20177804 -0.1713224
0.24177806 0.27982304 0.13069463 0.15830302 -0.36048543 -0.042171422 -0.2183262 -0.5738687
0.0073810252 0.06293997 0.11254311 -0.041293435 0.40767413 -0.08755658 -0.28539106 0.114290886
0.027996166 0.56127447 -0.26484743 0.27393773 0.23113012 0.0033370336 -0.61542356 -0.25268468
-0.1636931 0.22090864 -0.10659868 0.17527863 0.31731164 0.36608845 0.19277596 0.18393046
0.26130083 0.3454627 0.36431497 0.17482938 -0.09223973 -0.14922604 -0.081582844 -0.22915883
0.26674214 -0.35408655 -0.32636604 -0.06131107 -0.010527215 -0.41109622 0.31909096 -0.2999786
-0.36124226 0.41013473 -0.0058675874 0.15018313 -0.012402095 -0.3549114 0.038958665 0.4485553
-0.39130637 -0.5357846 0.12435106 -0.30351064 -0.22765608 0.2380768 0.23985906 -0.24410018
-0.2945791 -0.15003951 -0.041189313 0.22776383 -0.18419483 -0.1907157 -0.059841365 0.7021985
-0.09881026 0.05813742 -0.3258391 0.064425655 -0.28880686 0.46900427 0.12242125 -0.35405833
-0.2459132 0.1724038 -0.10356714 -0.32183975 0.2506439 -0.42933804 0.29950026 -0.24844451
-0.71725523 -0.043438464 -0.20899127 -0.036057886 -0.019041311 -0.11171313 0.55120796 -0.100994855
0.42418766 -0.14670181 -0.38361192 -0.12105738 0.17186771 -0.10047679 0.17196043 -0.32922217

value_net.4.bias f4 [32]
00000000: 3c10 7e3c 212e 55bd 3c34 c83d 42dc d73d
00000010: b6e3 613d 1d61 783c 415f b2bd 8405 25be
00000020: 90f6 13be 83f5 153e 8d2d 9fbd fc3b 07be
00000030: a7ee b1ba 66e5 44bd 8e65 61bd edc1 113e
00000040: 0724 37bd d0a7 973d 60b6 cebd f618 883d
00000050: aee8 f83d d9b3 78bd efb0 113d fdc6 cfb9
00000060: 1d54 823d 4b66 23be b069 113e 9832 27be
00000070: e268 d73c c94b 92bb 5546 0a3d b9fb 143e
0.0155068 -0.052045945 0.09775588 0.10540058 0.055148803 0.015159872 -0.087095745 -0.16115385
-0.14449525 0.14644437 -0.0777236 -0.13206476 -0.0013575152 -0.048070334 -0.05502849 0.14234133
-0.044712093 0.074050546 -0.10093379 0.06645386 0.12153755 -0.06071839 0.035569128 -0.00039630375
0.063636996 -0.1595699 0.14200473 -0.16327894 0.02629513 -0.0044646007 0.03375848 0.1454915

value_net.6.weight f4 [1, 32]
00000000: b530 22be 4c19 043d 512b a13e a48d 4bbe
00000010: a47e e0be 09d0 123c e8b1 4e3e cdfd b73e
00000020: 17e6 2a3e 9cf4 51bd 555e 83bc 0bb9 3b3e
00000030: 0716 723e f7f4 583c 31b2 e13d a0b2 6cbe
00000040: 5d49 abbe a138 5fbd 8556 be3d 0ace cf3d
00000050: 8ff3 dcbd 7781 463d 122e 8abe fed3 173f
00000060: ef2d eb3d f0fb 053e 17ba 85be d9bb 8c3e
00000070: f521 10bc 9710 b73e 90b4 2cbe d56c a9be
-0.15838893 0.032250687 0.3147836 -0.1987825 -0.4384662 0.008960732 0.20185053 0.35935822
0.16689335 -0.05125867 -0.016036192 0.18332307 0.23641215 0.013241998 0.110203154 -0.23115015
-0.3345441 -0.054497365 0.09293846 0.10146721 -0.107886426 0.04846331 -0.26988274 0.5930785
0.114833705 0.13084388 -0.26118538 0.27487066 -0.0087971585 0.35754845 -0.16865754 -0.33090845
