MAPPO/2DAction/save/HY_T2/agent_17_MAPPO_c.pt (torch, 88870 bytes, 17 tensors)

policy_net.0.weight f4 [32, 16]
0	0xbc2bd1b3	-0.010487008
1	0x3ea54586	0.32279605
2	0xbe7603a4	-0.24024826
3	0xbeec2296	-0.46120137
4	0xbe2f1dad	-0.17101164
5	0xbe74a785	-0.23892029
6	0x3f0e15cf	0.5550203
7	0x3dc258cd	0.09489594
8	0xbea36d07	-0.3191912
9	0x3dd0c032	0.10192908
10	0xbdea3ec4	-0.11437753
11	0xbe5dbea0	-0.21654749
12	0x3e8181ae	0.2529425
13	0xbe6f8875	-0.23391898
14	0xbd980425	-0.074226655
15	0x3d2170ae	0.0394141
16	0xbe96bb19	-0.2943962
17	0xbeddb815	-0.43304506
18	0x3ed276cd	0.41106263
19	0x3bf035c1	0.0073306267
20	0xbdbb8461	-0.09156109
21	0xbe7f9ad1	-0.24961402
22	0xbe624680	-0.22097206
23	0xbe116915	-0.14200242
24	0x3ddcb4f6	0.10776703
25	0x3e5a2ce4	0.21306187
26	0x3e8b10ee	0.27161354
27	0xbeef43ca	-0.46731406
28	0xbec4f9d8	-0.38471866
29	0x3e6acc47	0.22929488
30	0x3e5d45f0	0.2160871
31	0xbc8930bd	-0.016746873
32	0x3e62e53f	0.22157763
33	0xbe377c15	-0.17918427
34	0xbe2f2a97	-0.1710609
35	0xbf0a8fd8	-0.5412574
36	0xbe2c3bd2	-0.16819695
37	0x3e62bb75	0.22141822
38	0x3da1fc55	0.07909457
39	0x3f1b6775	0.6070474
40	0x3e3b0e7c	0.18267244
41	0xbe40c9da	-0.18827
42	0x3f0972ef	0.53691
43	0xbe5d2e61	-0.21599723
44	0x3e5cbd51	0.21556593
45	0x3da09cf6	0.07842438
46	0xbdf5647b	-0.11982056
47	0x3db9885a	0.0905921
48	0x3e9caf88	0.3060267
49	0x3dc873f4	0.09787741
50	0xbe38630d	-0.18006535
51	0x3f02da76	0.51114595
52	0xbead7767	-0.3388016
53	0xbe655b43	-0.22398095
54	0xbe97c26b	-0.29640517
55	0xbd2cfd1d	-0.042233575
56	0xbe4d0bcd	-0.20024033
57	0x3e83e721	0.25762275
58	0xbc1ce1fa	-0.009575361
59	0xbec7b944	-0.39008534
60	0x3e356b48	0.17716706
61	0xbb5118ad	-0.0031905577
62	0xbe3b62ad	-0.1829936
63	0x3dc3ae52	0.09554733
64	0xbddc96b4	-0.10770932
65	0x3ed45779	0.41472986
66	0x3e46f523	0.1942945
67	0xbea838ae	-0.32855743
68	0xbd8413de	-0.06449102
69	0x3de94a0a	0.11391075
70	0x3ed2125f	0.4102964
71	0xbe0ec799	-0.13943328
72	0x3cb7f266	0.022454452
73	0x3f1d3f11	0.61424357
74	0x3e413fe1	0.18872024
75	0xbeea6f12	-0.45787865
76	0xbcf1f9fb	-0.029538145
77	0xbeece25f	-0.46266457
78	0x3e2885aa	0.16457239
79	0x3e6e0a83	0.23246197
80	0x3e20e9c7	0.15714179
81	0x3e1e00b1	0.15429951
82	0x3e20948b	0.15681665
83	0x3ebaaa70	0.36458158
84	0xbd028890	-0.031868517
85	0xbd95d743	-0.073164485
86	0xbebd9dce	-0.37034458
87	0x3e3d3d6d	0.18480463
88	0x3ec73bed	0.38912907
89	0xbd54b1f9	-0.05192754
90	0xbdee5b8b	-0.11638554
91	0xbe2f47e7	-0.17117272
92	0x3f40e59c	0.75350356
93	0xbae80048	-0.0017700279
94	0xbdb1ff05	-0.08691219
95	0x3ea02700	0.31279755
96	0xbe71a8f6	-0.2359961
97	0xbe64a8ff	-0.22330092
98	0xbdeaefbc	-0.11471507
99	0xbeb57d95	-0.35447374
100	0xbd186b5b	-0.037211757
101	0xbe31e232	-0.17371443
102	0xbcb445f8	-0.02200602
103	0x3ea8814e	0.32911152
104	0xbdda2c41	-0.10652972
105	0x3ccc046e	0.024904456
106	0xbf0a9b8a	-0.54143584
107	0x3dcc87c7	0.09986835
108	0x3ed2b2f0	0.41152143
109	0xbe1758d1	-0.14779975
110	0xbefc73a7	-0.49306986
111	0xbf1462cb	-0.57963246
112	0xbee6af22	-0.4505549
113	0xbdbed9cc	-0.09318885
114	0xbf0667ec	-0.5250232
115	0x3e4ff6ed	0.20309038
116	0x3e281f04	0.16418082
117	0xbe47bbd0	-0.19505239
118	0xbd89bffd	-0.06726072
119	0x3f08eea4	0.53489137
120	0xbd8ea6b9	-0.069653936
121	0xbe807674	-0.25090373
122	0xbe056018	-0.13024938
123	0xbed21575	-0.41031995
124	0x3e9f35db	0.31095776
125	0xbe24fe7b	-0.16112702
126	0xbbe3fbfc	-0.006957529
127	0xbd7ef984	-0.062249675
128	0x3e28f564	0.16499859
129	0xbe45b39e	-0.193068
130	0xbe8c99c9	-0.2746108
131	0x3da8d7e6	0.08244304
132	0xbde014a2	-0.109414354
133	0xbeaf338a	-0.3421901
134	0xbe077cc7	-0.13231193
135	0x3eb9b486	0.3627054
136	0x3f22ac6f	0.6354436
137	0x3e8c4295	0.27394548
138	0x3d84cc19	0.06484241
139	0x3e3d4bfc	0.18486017
140	0xbdfb8f07	-0.1228314
141	0xbce8d25e	-0.028420623
142	0xbf331749	-0.69957405
143	0x3e3d6f03	0.18499379
144	0xbe7b21ff	-0.24524687
145	0x3e9973aa	0.29971057
146	0xbedcf378	-0.43154502
147	0xbe2c1c57	-0.16807686
148	0xbde72c4a	-0.11287744
149	0x3f0fa0dd	0.5610483
150	0xbe8f0af2	-0.27938038
151	0x3b6ce2dd	0.0036145963
152	0x3dbcba91	0.09215272
153	0x3e10b323	0.14130835
154	0x3daf73e2	0.08567025
155	0x3ead05da	0.33793527
156	0x3eaa844f	0.33304068
157	0x3edd3dd2	0.43211228
158	0xbe5ab38f	-0.21357559
159	0x3ddeef17	0.108854465
160	0xbc31aa37	-0.010843805
161	0x3e98c3a1	0.29836753
162	0x3eab9d72	0.3351856
163	0xbe480a8e	-0.19535276
164	0xbd7d0e5c	-0.061781272
165	0x3dafe780	0.08589077
166	0xbefced3e	-0.4939975
167	0x3f144f10	0.5793314
168	0xbbfb2f6e	-0.007665566
169	0xbd73dbc8	-0.05953577
170	0x3e056ee2	0.1303058
171	0xbe979530	-0.2960601
172	0x3d3c92ce	0.04603844
173	0x3ef123c6	0.47097605
174	0xbe41a3ef	-0.18910192
175	0xbdced63e	-0.10099457
176	0x3e7a2d88	0.24431431
177	0xbf0ec4ba	-0.5576893
178	0x3c979007	0.018501295
179	0x3df398c6	0.118943736
180	0xbefa9da2	-0.4894839
181	0x3e7c431c	0.24634975
182	0x3d9471f2	0.07248296
183	0xbec15116	-0.37757176
184	0x3e2f6478	0.1712817
185	0x3dade056	0.08490054
186	0x3e60512a	0.21905962
187	0xbe3cd9e1	-0.18442489
188	0x3e2b5ec0	0.16735363
189	0xbee010a7	-0.43762705
190	0x3e109327	0.14118634
191	0x3c3452c6	0.011006063
192	0x3dda7a21	0.106678255
193	0x3e493fad	0.19653197
194	0xbd596bce	-0.053081326
195	0x3e127fb4	0.14306527
196	0xbcc6b948	-0.02425827
197	0xbea5a155	-0.3234965
198	0x3ec0a4ea	0.3762582
199	0xbed31b3f	-0.41231725
200	0xbe8ac0e2	-0.27100283
201	0x3d2df953	0.042474102
202	0x3f016a06	0.50552404
203	0x3d224abb	0.03962205
204	0xbc37a2a7	-0.011208213
205	0x3db7aedd	0.089688994
206	0xbc07f9ae	-0.008299274
207	0x3c2361fb	0.009972091
208	0x3e29ff61	0.16601326
209	0xbd87940e	-0.06620036
210	0x3eee8ff4	0.46594203
211	0x3f0a6ffe	0.54077137
212	0xbd80d088	-0.06289774
213	0x3ea66e5a	0.32506067
214	0xbe23a589	-0.15981115
215	0x3ec978c1	0.3934994
216	0x3c069b05	0.0082156705
217	0xbe8087b2	-0.25103527
218	0x3eb41074	0.35168803
219	0x3ebad010	0.36486864
220	0xbe95d0ac	-0.29260767
221	0xbe746de2	-0.23870042
222	0x3d4552ad	0.04817455
223	0xbebc309c	-0.36755836
224	0xbe7e50c5	-0.24835499
225	0xbdc8f223	-0.09811809
226	0x3d51f8ca	0.051262654
227	0xbb3557dc	-0.0027670776
228	0xbf2bb4df	-0.6707286
229	0x3e70859f	0.23488472
230	0xbe9f7f82	-0.31151968
231	0xbddbd2a7	-0.10733538
232	0x3e093847	0.13400374
233	0x3eb15da5	0.34641758
234	0xbc3d0d8f	-0.011538877
235	0xbebccc92	-0.36874825
236	0xbeafe27a	-0.34352475
237	0x3ec51b99	0.38497618
238	0x3e80a5d5	0.2512652
239	0xbe911cdc	-0.2834233
240	0x3e087111	0.13324381
241	0xbe5bfdea	-0.2148358
242	0x3dab6c8e	0.083703145
243	0xbdf5a819	-0.11994953
244	0x3eeeeda1	0.4666567
245	0xbe16acce	-0.14714357
246	0xbcb020dc	-0.021500044
247	0x3dd8d0c0	0.10586691
248	0x3b564c6a	0.0032699355
249	0xbe176841	-0.14785863
250	0xbdb99096	-0.09060781
251	0xbe18727c	-0.14887422
252	0xbeeaea83	-0.45882043
253	0xbd91cf2c	-0.07119593
254	0xbeda629c	-0.42653358
255	0x3eca2e0b	0.39488253

policy_net.0.bias f4 [32]
0	0xbaab204d	-0.0013055891
1	0xbdcad92e	-0.09904705
2	0x3d5dc173	0.054139566
3	0x3ddc9dce	0.10772286
4	0xbd1981cf	-0.03747731
5	0xbdbc4a38	-0.091938436
6	0x3cd2ad2c	0.02571734
7	0x3d88075c	0.06642029
8	0x3d882aa6	0.066487595
9	0x3e0444be	0.12916848
10	0xbd6c8277	-0.05774161
11	0x3dabb657	0.08384388
12	0xbbfc9d3f	-0.007709175
13	0xbde8ee12	-0.11373533
14	0xbd1141f3	-0.035463285
15	0xbdadc947	-0.08485656
16	0xbc47ef59	-0.012203061
17	0xbd8095a3	-0.06278541
18	0xbda74363	-0.0816715
19	0xbcd22575	-0.025652627
20	0x3c432575	0.011910786
21	0xbd8ded4d	-0.06930027
22	0xbc005462	-0.007832618
23	0xbda3850c	-0.07984361
24	0x3d3c976d	0.04604285
25	0x3de6e90a	0.112749174
26	0xbd42850e	-0.047490172
27	0xbdaeabf0	-0.08528888
28	0x3da444ca	0.08020933
29	0x3ccdfba1	0.0251444
30	0x3d5c2bb3	0.053752612
31	0x3d9a4460	0.07532573

policy_net.2.weight f4 [32, 32]
0	0x3e1f1e16	0.1553882
1	0xbdb42611	-0.08796323
2	0xbe945107	-0.2896807
3	0x3eaf2769	0.34209755
4	0x3ee135ce	0.43986362
5	0xbeacdb2a	-0.3376096
6	0xbd902de5	-0.07040004
7	0xbea827c4	-0.3284284
8	0x3db7ae39	0.08968777
9	0xbec0b9e1	-0.37641814
10	0x3d0ecc34	0.034862712
11	0x3ed1ef30	0.41002798
12	0x3da8ca53	0.08241715
13	0x3ec2062f	0.37895343
14	0x3e2ff6c3	0.17183976
15	0x3ead1e1d	0.33812037
16	0x3dff7ca9	0.12474949
17	0xbed8e291	-0.42360356
18	0x3e2f9f01	0.17150499
19	0x3e2fb2ed	0.17158099
20	0xbdb95d99	-0.090510555
21	0x3e204294	0.15650398
22	0x3e0e2001	0.13879396
23	0x3e3205af	0.1738498
24	0x3ec85165	0.391246
25	0xbe43a824	-0.1910711
26	0x3daca093	0.084290646
27	0x3eaf57e8	0.34246755
28	0x3e76dff2	0.24108866
29	0xbbb23780	-0.005438745
30	0xbe824b45	-0.2544805
31	0xbdd8a33b	-0.10578009
32	0xbdf5464e	-0.119763
33	0x3e2b0c4d	0.16703911
34	0x3eb524e8	0.3537972
35	0xbca0ee04	-0.019644745
36	0xbe9ee965	-0.3103744
37	0x3e8a44fa	0.2700575
38	0x3c3469f7	0.011011592
39	0xbea883c6	-0.32913035
40	0x3eb6cf48	0.35705018
41	0xbe59264b	-0.21206014
42	0x3dc7ab95	0.097495236
43	0xbe86393a	-0.26215535
44	0xbe9978c2	-0.29974943
45	0xbeac788b	-0.33685717
46	0xbf03c46c	-0.5147159
47	0xbe592156	-0.21204123
48	0x3dda15b4	0.10648671
49	0xbe7f7a40	-0.24948978
50	0xbef64729	-0.48101166
51	0xbe27d14d	-0.16388436
52	0xbe04aef9	-0.12957372
53	0xbe5922a9	-0.21204628
54	0x3f00af40	0.5026741
55	0x3f0e78b7	0.55652946
56	0x3eb4131b	0.35170826
57	0xbf00bed8	-0.50291204
58	0x3ea7a8ca	0.32745963
59	0xbd7f6b01	-0.062357906
60	0x3ec8089d	0.3906907
61	0x3db16b84	0.08663085
62	0x3e2c58b4	0.16830713
63	0xbd5ce962	-0.05393351
64	0x3e95efa0	0.29284382
65	0x3e0898d9	0.13339557
66	0x3e1612e0	0.14655638
67	0x3e136a0b	0.14395921
68	0x3e3a7e61	0.18212272
69	0x3e3dbd95	0.18529351
70	0x3c2d9270	0.010593995
71	0xbf2d8633	-0.67782897
72	0x3e92092c	0.28522623
73	0x3e7427a2	0.23843244
74	0x3e7ecf38	0.24883735
75	0x3ec3adfc	0.38218677
76	0x3d94b348	0.07260758
77	0xbec9fac8	-0.39449143
78	0x3f3fefaa	0.74975073
79	0xbf07c62c	-0.5303676
80	0xbf0b2063	-0.54346293
81	0xbe62ac76	-0.22136101
82	0x3e75ba82	0.23996928
83	0xbf2ff6a3	-0.6873571
84	0xbe9a8fa3	-0.3018771
85	0x3da96bda	0.08272524
86	0x3c85ce9e	0.016333874
87	0xbea7bc24	-0.32760727
88	0x3e6552fd	0.22394939
89	0x3ecd5200	0.40101624
90	0xbe5de9b3	-0.2167118
91	0xbe94e4a7	-0.29080698
92	0x3ecb4c50	0.3970666
93	0xbf1c2a78	-0.610023
94	0xbc0dfa86	-0.0086656865
95	0xbe35c7e0	-0.17752028
96	0x3e107253	0.14106111
97	0xbc581b94	-0.013190169
98	0xbe16a6be	-0.14712045
99	0xbe8d7785	-0.2763025
100	0x3e9abca6	0.30222052
101	0xbea78f63	-0.32726583
102	0xbe42e003	-0.19030766
103	0x3e8aa472	0.27078587
104	0xbf3462c9	-0.70463234
105	0xbe914ebe	-0.28380388
106	0xbea54a7a	-0.32283384
107	0x3e70136c	0.23444909
108	0x3e236500	0.15956497
109	0xbf0c7a1f	-0.5487384
110	0xbe4ff33d	-0.20307632
111	0x3e388c4c	0.18022269
112	0x3e2cd6f3	0.16878872
113	0xbed08270	-0.40724516
114	0xbda3049b	-0.07959863
115	0x3b724c52	0.003697176
116	0xbee7e72b	-0.45293555
117	0xbe80fb1e	-0.25191587
118	0xbd7ee2b4	-0.06222792
119	0xbd74ec3c	-0.059795603
120	0xbef71a6b	-0.48262343
121	0x3ec7426a	0.38917857
122	0xbea10071	-0.3144565
123	0x3da5044e	0.08057462
124	0xbe22105f	-0.15826558
125	0xbc995b25	-0.018720219
126	0xbedf2118	-0.43579936
127	0xbeb47ee9	-0.35253075
128	0x3c8ad74d	0.016948367
129	0xbeca9340	-0.39565468
130	0x3f177c79	0.59174305
131	0x3db0c4f6	0.08631317
132	0x3e8f89a2	0.28034693
133	0xbe063d2c	-0.13109273
134	0xbeae39ef	-0.34028575
135	0xbee5fef1	-0.44921067
136	0x3e67c359	0.22633113
137	0x3ed1421a	0.40870744
138	0x3e986b38	0.297693
139	0x3eadcf93	0.3394743
140	0xbe2d5324	-0.16926247
141	0x3d2aad5c	0.041669235
142	0x3f03052d	0.5117977
143	0xbef50a03	-0.478592
144	0xbc981ea9	-0.018569307
145	0xbdb949b4	-0.09047261
146	0x3f1ec633	0.6202118
147	0x3e0840ec	0.13306016
148	0xbe963e1a	-0.29344255
149	0xbe82f5a0	-0.25578022
150	0xbec4cc3a	-0.38437063
151	0x3d9501e1	0.07275749
152	0xbedf8736	-0.43657845
153	0xbdb60084	-0.08886817
154	0x3e5c95de	0.21541545
155	0xbdc01ab7	-0.093800955
156	0x3e8a5ef9	0.27025583
157	0xbebb8427	-0.36624262
158	0x3de45f96	0.11151044
159	0xbf160b17	-0.5861067
160	0x3cb61014	0.022224464
161	0x3e330fcc	0.17486495
162	0x3dc6e225	0.097111024
163	0xbd3b2cb7	-0.04569694
164	0xbd8a3596	-0.06748502
165	0xbe832f89	-0.25622204
166	0x3edfe45a	0.43728906
167	0x3ded2d0f	0.1158086
168	0xbe07fcd1	-0.13280036
169	0x3f2565cb	0.6460845
170	0x3ce8c6a2	0.028415028
171	0xbd99a74f	-0.07502615
172	0x3e8df0b7	0.27722713
173	0xbcfeefad	-0.031120146
174	0xbea45ca2	-0.32101923
175	0xbe5d8de8	-0.21636164
176	0xbf095b8d	-0.5365532
177	0xbe8a5336	-0.2701661
178	0xbc906af5	-0.017629126
179	0xbc5bcfcd	-0.013416243
180	0x3e8a23b1	0.26980355
181	0xbe779582	-0.24178126
182	0x3eca1247	0.3946707
183	0x3e3e793c	0.18600935
184	0x3eab77b5	0.33489767
185	0xbe25c05e	-0.16186664
186	0xbe5c2df8	-0.2150191
187	0x3e986a92	0.29768807
188	0xbea12199	-0.31470945
189	0xbe683302	-0.22675708
190	0x3eba6e17	0.36412117
191	0xbe92467c	-0.285694
192	0xbe5d5d94	-0.21617728
193	0x3d6f4741	0.058417562
194	0x3f098bb8	0.5372882
195	0x3d957380	0.072974205
196	0xbeca14c5	-0.3946897
197	0x3eb2579b	0.34832463
198	0x3d8a5cc0	0.06755972
199	0xbde47939	-0.11155934
200	0x3e16e8a6	0.14737186
201	0x3e3ef02f	0.1864631
202	0x3e71ec82	0.23625377
203	0x3a8b5ec7	0.0010633104
204	0xbd0fa3df	-0.03506839
205	0x3f06ea83	0.52701586
206	0xbec613d6	-0.3868701
207	0x3de870ed	0.11349664
208	0xbe93b462	-0.2884856
209	0x3e8d73f7	0.27627537
210	0xbf251252	-0.6448108
211	0x3e0003f2	0.12501505
212	0xbdcbde16	-0.09954469
213	0x3e01c094	0.12671119
214	0x3ea641fb	0.32472214
215	0x3d94c7b7	0.07264655
216	0x3e939b0d	0.28829232
217	0xbe0f037e	-0.13966176
218	0xbee29598	-0.44254756
219	0xbeb416fe	-0.35173792
220	0x3de21176	0.11038487
221	0x3da6e306	0.0814877
222	0xbebebe29	-0.37254456
223	0xbee70fe1	-0.45129302
224	0xbeb98704	-0.3623582
225	0xbe23edcb	-0.1600868
226	0xbdf90480	-0.121590614
227	0x3cc7624e	0.024338868
228	0x3e071c91	0.13194491
229	0xbe4cbcd1	-0.19993903
230	0x3de9c222	0.11413981
231	0x3e3d85a0	0.18508005
232	0xbcd13ac8	-0.025540724
233	0x3f01791f	0.5057544
234	0xbcdd0018	-0.026977584
235	0x3d2bba9b	0.041926008
236	0xbf44b331	-0.76835924
237	0x3e50a4ac	0.20375317
238	0xbebf9a59	-0.37422445
239	0x3e9a0105	0.30078903
240	0x3cd286e1	0.02569908
241	0x3ea48de6	0.3213951
242	0xbe789059	-0.24273814
243	0xbf059b17	-0.52189773
244	0xbdf95141	-0.12173701
245	0x3e18a17c	0.14905351
246	0x3ea47acc	0.32124937
247	0x3e2b57eb	0.16732757
248	0x3e843657	0.25822708
249	0xbec9a6c2	-0.3938504
250	0x3e2f2924	0.17105538
251	0xbea8adb1	-0.32945016
252	0x3e2db12a	0.16962114
253	0xbea75c6b	-0.32687697
254	0xbe32ffca	-0.17480388
255	0x3dafd3b0	0.08585298

policy_net.2.bias f4 [32]
0	0xbcab245f	-0.020891367
1	0x3c5fd5ab	0.013661782
2	0x3d743e04	0.059629455
3	0x3d0b7ff5	0.034057576
4	0x3cce7491	0.025202068
5	0x3c66a8e1	0.01407835
6	0xbd92554e	-0.07145177
7	0x3cfe70f4	0.03105972
8	0x3d35d220	0.044389844
9	0x3c4fd177	0.012684218
10	0x3d2bd168	0.041947752
11	0x3d9f1a0f	0.07768642
12	0xbdf4e570	-0.11957824
13	0xbda1360f	-0.07871639
14	0xbd2559a7	-0.040368702
15	0xbd325e6b	-0.043547075
16	0x39d0ec51	0.0003984892
17	0x3c83c5e5	0.016085574
18	0xbe053a2c	-0.13010472
19	0xbdb8243d	-0.08991287
20	0x3dd2fc06	0.10301976
21	0xbcbda9ef	-0.02315232
22	0xbb4a2dd7	-0.0030850077
23	0x3d816f3d	0.06320045
24	0x3e2494d8	0.16072404
25	0x3ce93073	0.028465485
26	0x3d52644f	0.051365193
27	0x3d972a06	0.07381062
28	0xbd9c17fb	-0.076217614
29	0xbd932857	-0.071854286
30	0x3d16adfd	0.036787022
31	0x3e652381	0.22376825

policy_net.4.weight f4 [32, 32]
0	0xbeea274b	-0.45733103
1	0x3e7723ee	0.241348
2	0x3ed50de5	0.41612163
3	0x3e933d15	0.2875754
4	0x3ee953a4	0.45571625
5	0x3d9e3f93	0.077269696
6	0x3d303b06	0.04302504
7	0xbe2392b0	-0.15973926
8	0x3eb8daa9	0.36104324
9	0x3f0307b1	0.5118361
10	0x3d760789	0.06006578
11	0xbe297b10	-0.16550851
12	0x3e6a3196	0.22870478
13	0xbf06c3a7	-0.5264229
14	0x3eec1850	0.461123
15	0x3dfe83fe	0.12427519
16	0xbdb2baac	-0.08727011
17	0x3f16d953	0.5892536
18	0x3ed9f64b	0.4257072
19	0x3f4fc12d	0.8115414
20	0x3e4f3882	0.202364
21	0xbe32f58c	-0.17476481
22	0x3e5e3162	0.21698526
23	0x3ebf100c	0.3731693
24	0xbb3d3e7c	-0.0028876355
25	0xbd28c2fd	-0.04120158
26	0x3c4b5676	0.012410751
27	0x3ef4b8e2	0.47797304
28	0x3d8e0703	0.06934931
29	0x3e2d8976	0.16946968
30	0x3ebb2a2c	0.36555612
31	0xbe373867	-0.1789261
32	0xbe895b1c	-0.26827323
33	0x3f0cc8a1	0.54993635
34	0x3cd62161	0.026138963
35	0xbe1c1f74	-0.15246373
36	0xbe9f0be3	-0.31063756
37	0x3e7fcc2d	0.2498023
38	0x3f15c032	0.5849639
39	0x3f3e6331	0.74370104
40	0x3ecc8321	0.39943793
41	0xbe8f281e	-0.27960294
42	0x3c9cc41f	0.019136487
43	0xbea36e53	-0.31920108
44	0xbe3a8575	-0.18214972
45	0x3d44418b	0.04791407
46	0x3ed42fb1	0.41442636
47	0x3dd403e7	0.10352307
48	0x3f34e15d	0.7065638
49	0x3f035c5b	0.513128
50	0xbe47dea2	-0.19518521
51	0xbe16212d	-0.14661093
52	0xbe004234	-0.12525254
53	0x3f2b5218	0.6692214
54	0x3e8b1712	0.2716604
55	0x3ef27118	0.4735191
56	0x3df6f12b	0.12057718
57	0xbeca355c	-0.39493835
58	0xbe1c0196	-0.1523498
59	0x3de57ef5	0.11205856
60	0x3e46746a	0.19380346
61	0x3e98d0c6	0.29846781
62	0xbe441749	-0.19149508
63	0x3e81651b	0.2527245
64	0x3e0bbd88	0.13646519
65	0xbea7d34d	-0.32778397
66	0xbe3f16b6	-0.18661007
67	0xbeb7bcef	-0.35886332
68	0xbea0c0f6	-0.31397218
69	0x3e3b3023	0.18280081
70	0x3d90967b	0.07059952
71	0xbd741bc4	-0.059596792
72	0xbf203cde	-0.62592876
73	0xbf5bc475	-0.85846645
74	0xbec6e822	-0.38848978
75	0x3f3a8c8b	0.728707
76	0xbed167ec	-0.408996
77	0xbe0999ec	-0.13437623
78	0x3dda2932	0.10652389
79	0xbb625438	-0.0034535062
80	0xbe5520d0	-0.20813298
81	0xbe2bfccd	-0.16795655
82	0xbe1cd7f6	-0.15316758
83	0xbf276c18	-0.6539931
84	0x3ee70ace	0.4512543
85	0xbec422ca	-0.38307792
86	0x3d08cec6	0.03340032
87	0xbe90dc68	-0.28293157
88	0x3d791509	0.060811076
89	0x3e75c5a4	0.24001175
90	0xbe537dc6	-0.20653448
91	0x3e0852d3	0.13312845
92	0x3effaa11	0.49934438
93	0x3eb0adc1	0.34507564
94	0xbda7eeca	-0.08199842
95	0xbdeb7575	-0.114970125
96	0xbec14c9d	-0.37753764
97	0x3e0b2740	0.13589191
98	0x3ec70098	0.3886764
99	0x3e76cf05	0.24102409
100	0x3eacb629	0.33732727
101	0x3efb96d8	0.49138522
102	0xbea1b76f	-0.3158526
103	0xbeb2aec1	-0.34898952
104	0x3d7a9318	0.061175436
105	0x3f32ca6f	0.6984014
106	0x3d416111	0.04721171
107	0xbf5e9ff0	-0.86962795
108	0xbe80b6c9	-0.25139454
109	0xbebc2564	-0.36747277
110	0xbd12d706	-0.035849594
111	0xbe7c3476	-0.24629387
112	0x3e5e9975	0.21738227
113	0x3f0288d8	0.50990057
114	0xbe7dd49e	-0.24788138
115	0x3e53e2cd	0.20691986
116	0x3cf135d5	0.029444614
117	0x3f0bb3e9	0.54571396
118	0xbea12fc3	-0.31481752
119	0x3e330160	0.17480993
120	0x3e5c5afa	0.2151908
121	0x3edadc21	0.4274607
122	0xbe271dbe	-0.1631994
123	0x3ea749ee	0.3267359
124	0xbf0224d9	-0.50837475
125	0x3e30375d	0.1720862
126	0x3cedf9c2	0.029049758
127	0xbe040abb	-0.12894718
128	0x3e9b8d9d	0.3038148
129	0xbd0590b0	-0.032608688
130	0xbeaf0624	-0.34184372
131	0xbefed4d7	-0.4977176
132	0xbecaff3f	-0.39647862
133	0xbf0a86bb	-0.5411183
134	0xbe915ffb	-0.2839354
135	0x3e15bd86	0.14623079
136	0xbf0f0819	-0.5587173
137	0xbe75bee1	-0.23998596
138	0x3e666176	0.22498116
139	0x3f2ff966	0.68739927
140	0xbf053117	-0.5202803
141	0x3e5922da	0.21204701
142	0x3edc8660	0.4307127
143	0xbeba0c31	-0.36337426
144	0x3ea41bbc	0.3205241
145	0xbda39d62	-0.07989003
146	0x3e5d8b6e	0.2163522
147	0xbd9e8af3	-0.07741346
148	0xbe52860c	-0.20558947
149	0xbe8b01bc	-0.2714976
150	0xbecba374	-0.39773142
151	0xbe924965	-0.2857162
152	0xbe80158b	-0.25016436
153	0xbe8e46bc	-0.2778834
154	0x3e22ed1e	0.15910766
155	0x3d8509f8	0.06496042
156	0x3d7371ef	0.059434827
157	0x3ec8cd0f	0.39218947
158	0xbde7a47e	-0.11310671
159	0x3e82fce7	0.25583574
160	0xbe8e985b	-0.27850613
161	0x3dd22534	0.10261002
162	0x3bf42aae	0.007451377
163	0x3eae2552	0.34012848
164	0x3ed9ce84	0.4254037
165	0x3eaba557	0.33524582
166	0x3e002e71	0.12517716
167	0x3df0ac78	0.11751646
168	0x3f0e781a	0.5565201
169	0x3ed38413	0.41311702
170	0x3eaa45b8	0.33256316
171	0xbdb7219e	-0.08941959
172	0x3ee96578	0.45585227
173	0xbf37fee3	-0.718733
174	0x3abd23d3	0.0014430232
175	0xbecc8e70	-0.3995242
176	0xbe20bf28	-0.1569792
177	0x3ef617f0	0.48065138
178	0x3eaed1f0	0.34144545
179	0xbe2789f3	-0.16361217
180	0xbc8dc88f	-0.017307548
181	0x3eec1781	0.46111682
182	0xbcd07098	-0.025444314
183	0xbcee7846	-0.029110085
184	0xbe4c4354	-0.19947559
185	0x3ca68259	0.020325826
186	0xbe7832cc	-0.24238127
187	0xbdb44a7e	-0.08803271
188	0xbf37c513	-0.71785086
189	0xbe49048e	-0.19630644
190	0x3eeaa1bc	0.4582652
191	0xbf0b82c6	-0.5449642
192	0x3e751ed0	0.23937535
193	0xbdf694ae	-0.12040077
194	0xbeeb75fa	-0.45988446
195	0xbf11f458	-0.57013464
196	0xbe84e2b3	-0.25954208
197	0x3d152b34	0.036418155
198	0x3e273d3f	0.16331957
199	0xbe71ed3a	-0.23625651
200	0x3d0c791a	0.03429518
201	0xbe796b1e	-0.24357268
202	0xbf113b0b	-0.5673072
203	0x3f048bb8	0.51775694
204	0xbf4ae0f3	-0.79249495
205	0xbe2523b7	-0.16126905
206	0xbe48cf20	-0.19610262
207	0x3e23e7fe	0.16006467
208	0xbe882d30	-0.26596975
209	0xbf0372b1	-0.5134688
210	0xbe157e9b	-0.14599077
211	0xbe4ebd23	-0.20189337
212	0xbf098606	-0.5372013
213	0xbf1ee29a	-0.62064517
214	0x3c9c790a	0.019100685
215	0xbeb315d3	-0.34977588
216	0xbe59b9ea	-0.21262327
217	0xbea7a2ec	-0.32741487
218	0xbe060bfa	-0.13090506
219	0xbeac4765	-0.3364822
220	0x3dbc277c	0.091872185
221	0x3e8424ff	0.25809476
222	0xbf0ded34	-0.5544007
223	0x3ea2b39e	0.31777662
224	0x3d3df5a5	0.046376843
225	0x3f02c344	0.510792
226	0x3df4beb6	0.11950438
227	0xbed75937	-0.42060253
228	0xbe558140	-0.20850086
229	0xbccaa267	-0.024735643
230	0x3edbad0c	0.42905462
231	0x3e45e202	0.19324496
232	0x3e1c215a	0.15247098
233	0x3f0b1da8	0.54342127
234	0xbd9411f8	-0.0722999
235	0x3deb0017	0.114746265
236	0x3ec0acee	0.37631935
237	0x3e770fa5	0.24127062
238	0x3f0f6f1e	0.56028926
239	0xbeae7c23	-0.34079084
240	0x3e083a18	0.13303411
241	0xbe103037	-0.14080893
242	0xbe7c81fc	-0.2465896
243	0x3ca50dfe	0.020148274
244	0x3e8d9f4b	0.27660593
245	0x3e62f850	0.22165036
246	0xbdcd8928	-0.10035926
247	0x3dbb4707	0.09144407
248	0x3e07db6a	0.13267294
249	0xbefde8c3	-0.49591646
250	0xbf02b8d5	-0.5106328
251	0x3c41ad24	0.011821065
252	0x3ec715e7	0.38883898
253	0x3eaf6c24	0.34262192
254	0xbf08dc33	-0.53461
255	0xbed9ae9f	-0.42516038

policy_net.4.bias f4 [32]
0	0xbe2c9db4	-0.16857034
1	0x3cf2044c	0.029543065
2	0x3da6787f	0.081284516
3	0xbdaf832d	-0.08569942
4	0x3de018c3	0.10942223
5	0xbe187c28	-0.14891112
6	0x3d66325e	0.056200378
7	0xbd6bada7	-0.057538655
8	0xbdbe1c8e	-0.0928279
9	0xbcb1800d	-0.021667505
10	0xbce0f668	-0.027461246
11	0xbe072483	-0.13197522
12	0x3daf623d	0.08563659
13	0x3dcfb3f6	0.10141747
14	0x3d26e752	0.040747948
15	0x3d8c0285	0.06836418
16	0x3e0015b4	0.12508279
17	0x3d93e5f0	0.072215915
18	0x3d86119c	0.065463275
19	0xbe032e94	-0.12810737
20	0x3da779fd	0.08177564
21	0x3d223767	0.039603617
22	0x3db65242	0.08902408
23	0x3eac01e5	0.33595195
24	0xbe3e4491	-0.18580844
25	0x3e9aec65	0.3025848
26	0xbdfb7f10	-0.122800946
27	0x3d8b1f0f	0.06793033
28	0xbc985589	-0.018595474
29	0xbd28e9aa	-0.041238464
30	0x3cef09a1	0.029179396
31	0xbe67ee4d	-0.22649498

value_net.0.weight f4 [32, 460]
0	0xbd90038c	-0.070319265
1	0x3db7bbaf	0.08971345
2	0x3dcd96f4	0.10038558
3	0xbbe07a6a	-0.0068505304
4	0x3ccc3566	0.024927806
5	0xbd50e7cb	-0.051002305
6	0xbb3c488c	-0.0028729765
7	0x3d014760	0.03156221
8	0x3d29e61b	0.04147921
9	0x3db21807	0.08695989
10	0x3d8960d3	0.06707921
11	0x3da272d4	0.07932058
12	0xbd8e372f	-0.06944119
13	0xbdecd541	-0.115641125
14	0x3ccd935b	0.025094679
15	0x3db3e808	0.08784491
16	0xbd75aea1	-0.059980992
17	0x3bbabc83	0.005698742
18	0x3d5336c5	0.051565904
19	0x3d64c8a6	0.055855416
20	0x3c1c8870	0.009554014
21	0xbc2385a3	-0.009980592
22	0x3dffe6a6	0.124951646
23	0xbd86e373	-0.06586351
24	0x3baa7cc5	0.005202862
25	0x3df4cd96	0.11953275
26	0x3cfa29b1	0.030537458
27	0xbdc3ac58	-0.09554356
28	0x3e4f3fef	0.20239232
29	0xbcf49765	-0.029857347
30	0xbd2d6e6c	-0.042341635
31	0xbdd5a887	-0.10432535
32	0xbd2b9a71	-0.041895334
33	0x3d99f131	0.07516707
34	0x3d70a19c	0.058747873
35	0x3d9d827d	0.07690904
36	0x3c2d159a	0.010564232
37	0xbc71f47e	-0.014767764
38	0xbba3158b	-0.0049769334
39	0xbd94763b	-0.07249113
40	0xbcbaa395	-0.02278308
41	0x3c87cf0c	0.01657822
42	0x3c03df51	0.008048848
43	0xbd8ca694	-0.0686771
44	0x3d302447	0.043003347
45	0x3d63f4ea	0.05565349
46	0xbd868b06	-0.06569485
47	0x3c63870e	0.01388718
48	0xbd9b01bc	-0.0756869
49	0xbe035805	-0.12826546
50	0xbe27b4b7	-0.16377531
51	0x3c676a8a	0.014124522
52	0x3da435a5	0.080180444
53	0x3cce4dc8	0.025183573
54	0xbe42ebda	-0.19035283
55	0xbdbfe4fb	-0.093698464
56	0xbdaa5863	-0.0831764
57	0xbd9f7cf7	-0.07787507
58	0xbdb32e47	-0.08749061
59	0x3ca5ab16	0.020223182
60	0x3c8224c0	0.015886664
61	0xbc82e737	-0.015979392
62	0x3dcca5d1	0.099925645
63	0x3e109ddf	0.14122723
64	0x3c948c32	0.018133257
65	0xbd0d2261	-0.034456614
66	0xbc3537f9	-0.011060708
67	0x3de003fe	0.109382614
68	0x3c7349a2	0.014849098
69	0xbcacdc8a	-0.021101255
70	0x3de7428b	0.11291989
71	0x3da8bd30	0.0823921
72	0x3d822cb0	0.0635618
73	0x3c6154b6	0.013753107
74	0x3d4ad860	0.049522758
75	0x3cb589de	0.022160467
76	0x3d520c85	0.05128147
77	0xbdc50890	-0.09620774
78	0xbcc393e8	-0.023874238
79	0x3d094246	0.03351047
80	0x3d1726bb	0.03690217
81	0xbccf3e73	-0.025298333
82	0x3d75d54d	0.060017873
83	0x3d69e00e	0.05709844
84	0x3c4269a4	0.011866007
85	0x3e0728c9	0.13199152
86	0x3d806e42	0.0627103
87	0x3d9da8bf	0.076982014
88	0xbcfd36d6	-0.030909937
89	0x3c056758	0.008142315
90	0xbdde0c58	-0.10842198
91	0x3d325531	0.043538276
92	0xbe127bb2	-0.14304999
93	0xbd887b60	-0.06664157
94	0x3c2076a4	0.009793911
95	0x3da6fc3b	0.08153578
96	0x3d1777db	0.036979537
97	0x3d0d6c91	0.034527365
98	0x3c08c918	0.008348726
99	0xbd90ff7b	-0.07079979
100	0x3db55fb1	0.08856142
101	0xbd3c24cf	-0.04593354
102	0x3c939fe7	0.018020583
103	0x3beb9432	0.007189297
104	0x3d6b092b	0.05738179
105	0x3c828e9d	0.015937144
106	0xbcc51c6a	-0.0240614
107	0x3d33bb1f	0.043879624
108	0xbdfce050	-0.12347472
109	0x3d91898c	0.07106313
110	0x3c92caa2	0.017918888
111	0xbc903165	-0.017601678
112	0xbb0aa437	-0.0021155009
113	0x3e1ea1fa	0.15491477
114	0x3dc32f80	0.09530544
115	0x3d81ab1c	0.06331465
116	0x3d75cdc3	0.060010683
117	0xbceb7da6	-0.028746437
118	0xbb5c7bd1	-0.0033643136
119	0x3cf17c57	0.029478235
120	0x3d8818ea	0.06645377
121	0xbdfd86c0	-0.12379217
122	0xbcd21740	-0.025645852
123	0xbdb39ff7	-0.08770745
124	0xbd3c458e	-0.04596477
125	0xbdf019be	-0.1172366
126	0x3d8d2c47	0.06893211
127	0x3ddec26a	0.10876925
128	0xbe970ed1	-0.29503492
129	0xbdbe85ce	-0.09302865
130	0x3bd245a3	0.0064169928
131	0x3ca97fc9	0.020690816
132	0xbc91894a	-0.01776566
133	0xbe265019	-0.16241492
134	0xbbbb9655	-0.005724708
135	0x3cd4ba90	0.025967866
136	0x3d2c471e	0.04206001
137	0xbdd503af	-0.10401093
138	0xbc9590ea	-0.018257577
139	0x3bb85a67	0.005626011
140	0xbda70609	-0.08155448
141	0x3e2fb30a	0.17158142
142	0xbc62743b	-0.013821657
143	0xbd41e603	-0.047338497
144	0x3e1a756b	0.15083854
145	0x3db20731	0.08692778
146	0xbce9eeca	-0.028556246
147	0x3cb5d1d0	0.022194773
148	0xbd02167a	-0.031759717
149	0xbe02c34a	-0.1276981
150	0x3e3357a9	0.17513908
151	0x3dd3541b	0.10318776
152	0xbae3dc4f	-0.0017384383
153	0x3cc9bc50	0.024625927
154	0xbdd22aae	-0.10262047
155	0x3dabdb2e	0.083914146
156	0x3e102760	0.1407752
157	0x3d5515ba	0.052022673
158	0xbdda2106	-0.1065083
159	0xbd8f414d	-0.06994877
160	0xbd804f2b	-0.062651
161	0x3d9e61d3	0.07733502
162	0x3d24618f	0.0401321
163	0x3d799aa1	0.06093848
164	0xbd09ae93	-0.033613753
165	0x3ca3f8e4	0.020016141
166	0x3c931d12	0.017958198
167	0xbd97878b	-0.073989
168	0x3c4a8cfb	0.012362714
169	0x3ba6b92a	0.0050879912
170	0xbd423e44	-0.047422662
171	0xbc4c651e	-0.01247528
172	0xbe0b3666	-0.1359497
173	0x3c1f4528	0.009721078
174	0xbda40298	-0.08008307
175	0x3d784846	0.0606158
176	0x3e7aafc3	0.2448111
177	0x3e269e5e	0.1627135
178	0xbdd2aa32	-0.102863684
179	0x3d14042f	0.036136802
180	0x3d041d25	0.032254357
181	0xbe034dc7	-0.12822638
182	0xbe14e2a4	-0.14539582
183	0xbd2f2c2e	-0.042766742
184	0x3e08cdbc	0.13359731
185	0x3cac3c64	0.02102489
186	0x3d880680	0.06641865
187	0x3df69739	0.12040562
188	0x3e09ca91	0.13456179
189	0xbd1cb7e9	-0.038261328
190	0xbc9ccd3a	-0.019140828
191	0x3d851cc2	0.06499626
192	0x3de305ad	0.11085067
193	0x3bf6bc2f	0.0075297575
194	0xbcdded62	-0.027090732
195	0x3dd074db	0.101785384
196	0xbdb342c8	-0.08752972
197	0x3cef39b0	0.029202312
198	0xbd682705	-0.056677837
199	0xbd92b740	-0.071638584
200	0xbd8d7040	-0.069061756
201	0x3e06942c	0.1314246
202	0x3e17c6f8	0.14821994
203	0xbe1eaf92	-0.15496662
204	0x3d1dc838	0.03852102
205	0xbd63d9d7	-0.05562767
206	0xbcd67e56	-0.026183289
207	0xbe0a45a8	-0.13503134
208	0x3d274e54	0.040846184
209	0xbc320b76	-0.01086699
210	0xbc872941	-0.016499164
211	0x3dc6c8e1	0.09706283
212	0x3ca545b3	0.020174837
213	0x3c2b362e	0.010449929
214	0x3d8b7a57	0.06810444
215	0xbe0d59c0	-0.13803768
216	0x3dcf9d03	0.101373695
217	0x3dcbb2b4	0.09946194
218	0x3e0e9500	0.13924026
219	0xbdd4f488	-0.10398203
220	0xbd26b80d	-0.04070287
221	0x3c9d6dc1	0.019217374
222	0x3d7411c5	0.05958726
223	0xbdca9c36	-0.09893076
224	0xbd03faae	-0.03222149
225	0xbdab6197	-0.08368223
226	0xbba97759	-0.005171698
227	0xbda250cd	-0.07925568
228	0xbe14f48e	-0.14546415
229	0xbdacd8e0	-0.08439803
230	0xbc23d698	-0.009999894
231	0x3d3dd476	0.046345197
232	0x3da4a5a2	0.080394045
233	0xbdc45c13	-0.09587874
234	0x3dbc4e04	0.09194568
235	0x3d835676	0.064129755
236	0xbd905360	-0.070471525
237	0xbd510d33	-0.05103798
238	0x3e1861cd	0.14881058
239	0xbd72392b	-0.05913655
240	0x3d845c36	0.064629
241	0xbc8bd1fe	-0.017067906
242	0x3c8cea76	0.017201643
243	0x3c8a41a0	0.016876996
244	0xbd9266e3	-0.0714853
245	0xbd054a5d	-0.03254162
246	0xbb5c58ff	-0.0033622382
247	0xbdc79b5d	-0.0974643
248	0xbd8601f3	-0.065433405
249	0xbcd11d90	-0.025526792
250	0xbcdef56f	-0.027216641
251	0xbd72fdcd	-0.059324075
252	0x3e0d37d5	0.1379083
253	0xbd87f53e	-0.06638573
254	0x3d6a7b1e	0.05724632
255	0x3d8d4ca2	0.06899382

value_net.0.bias f4 [32]
0	0x3c07698f	0.008264913
1	0xbc928c10	-0.017889053
2	0x3d3b6280	0.045748234
3	0x3b037c80	0.0020063221
4	0xbd36e392	-0.04465062
5	0xbd08c492	-0.03339059
6	0x3d294ea8	0.041334778
7	0x3c9b03a2	0.01892263
8	0xbd432383	-0.04764129
9	0xbd34050c	-0.043950126
10	0xba99d9f1	-0.0011737925
11	0x3d84ace5	0.064782895
12	0xbd13c7c9	-0.0360792
13	0xbc8718f4	-0.01649139
14	0x3d7d8b3d	0.061900366
15	0x3b28200b	0.0025653865
16	0x3d5e858d	0.054326583
17	0x3d3708a9	0.044685993
18	0x3c5f57c8	0.0136317685
19	0x3d1322db	0.035921913
20	0x3d591260	0.05299604
21	0x3c874547	0.016512526
22	0x3c777e23	0.015105757
23	0x3c984295	0.018586436
24	0x3d0416ce	0.03224831
25	0xba354799	-0.0006915271
26	0x3c5741f6	0.013138285
27	0x3d3e7d7a	0.046506383
28	0x3d3b9a9a	0.045801736
29	0xbcb0e07f	-0.021591423
30	0x3d0f01e1	0.0349139
31	0xbd4801e2	-0.04882992

value_net.2.weight f4 [32, 32]
0	0xbe265c6a	-0.1624619
1	0xbc28fdb9	-0.010314398
2	0xbf3c3def	-0.73532003
3	0xbda5981e	-0.08085655
4	0xbea0aff2	-0.31384236
5	0x3e36b525	0.17842539
6	0xbdbba3ba	-0.09162088
7	0x3e8d385a	0.27582055
8	0xbe42fcdb	-0.19041769
9	0xbe011d1f	-0.12608765
10	0x3dfdb242	0.123875156
11	0x3da4e29f	0.08051037
12	0x3e3be76d	0.1835
13	0xbdff9e96	-0.1248142
14	0xbe8df322	-0.27724558
15	0x3e557793	0.20846395
16	0xbdb92878	-0.09040922
17	0xbe56209e	-0.2091088
18	0xbee4caf0	-0.4468608
19	0x3ee167c7	0.44024488
20	0x3dc221b1	0.094790824
21	0x3e798a0f	0.24369071
22	0x3dd7707d	0.10519502
23	0xbbae5ff8	-0.005321499
24	0xbd87a9e9	-0.06624205
25	0xbe843c35	-0.25827184
26	0xbea40983	-0.32038507
27	0x3e7b0235	0.2451256
28	0xbf270381	-0.6523972
29	0xbe59ebf8	-0.21281421
30	0xbe637168	-0.2221123
31	0xbdd9c45c	-0.10633156
32	0xbd5aa6c6	-0.053381704
33	0x3eef6019	0.46753004
34	0x3a97b91a	0.001157555
35	0xbd720a85	-0.059092063
36	0x3ede0c51	0.43368772
37	0xbd065918	-0.03279981
38	0x3e1379bd	0.14401908
39	0x3e22aed6	0.15887007
40	0x3e907d6d	0.28220692
41	0x3da9bc93	0.08287921
42	0x3e98ef6d	0.29870167
43	0xbeb7a8a8	-0.35870862
44	0x3e9b1c6f	0.3029513
45	0x3cdf0457	0.02722375
46	0xbe032b2c	-0.12809438
47	0xbcf0b367	-0.02938242
48	0x3c000bac	0.007815283
49	0x3e3a1e9b	0.18175738
50	0x3f2498e4	0.6429579
51	0x3f4a08e8	0.7891984
52	0xbe59e768	-0.2127968
53	0xbd6e34e9	-0.058155928
54	0x3ed97030	0.42468405
55	0x3c7e2437	0.015511564
56	0xbe44fb8b	-0.19236581
57	0xbe8380b7	-0.2568414
58	0x3da0d338	0.07852787
59	0x3e9f6175	0.3112904
60	0x3d1f0dd1	0.038831536
61	0xbd9c422b	-0.07629808
62	0xbe307858	-0.17233407
63	0xbdd402f7	-0.10352128
64	0xbb8005b3	-0.0039069294
65	0x3ed0978f	0.4074063
66	0x3cfe0cbf	0.031011937
67	0xbea2f9d2	-0.31831223
68	0xbd11b603	-0.03557397
69	0x3ebe645d	0.37185946
70	0x3d3135ab	0.043264072
71	0x3dd3918e	0.10330497
72	0xbe2186b8	-0.15774047
73	0x3dbdb671	0.092633136
74	0x3de8dc47	0.113701396
75	0x3ec8da47	0.39229032
76	0xbce9a1a9	-0.028519468
77	0x3e5a3165	0.21307905
78	0xbd9daf36	-0.076994345
79	0xbd8bc78b	-0.06825169
80	0x3e650652	0.22365692
81	0x3cdf8dc4	0.027289279
82	0xbd3f19c0	-0.046655416
83	0xbef139d2	-0.47114426
84	0x3da28a3a	0.07936521
85	0xbf008f04	-0.50218225
86	0x3e222699	0.15835036
87	0x3d8bd257	0.068272285
88	0x3e816d15	0.25278535
89	0x3db60142	0.08886959
90	0x3e9ba49a	0.3039902
91	0xbe5e4f22	-0.21709874
92	0xbe933aac	-0.287557
93	0xbd96240b	-0.073310934
94	0xbf06885d	-0.52551824
95	0x3f346021	0.7045918
96	0x3e18d9e0	0.14926863
97	0x3f19b727	0.60045093
98	0xbe312f38	-0.17303169
99	0xbdfef65f	-0.12449335
100	0x3e9132c8	0.28359056
101	0x3dac5db0	0.08416307
102	0x3e5e1904	0.2168923
103	0xbe8bd0e8	-0.2730782
104	0xbe828265	-0.25490108
105	0xbe0b0d9f	-0.13579415
106	0xbed85ab7	-0.4225671
107	0xbec1a4c4	-0.3782102
108	0x3ec225fe	0.3791961
109	0xbb8a457d	-0.0042197094
110	0xbdd5e3c9	-0.10443837
111	0xbc24801f	-0.010040312
112	0xbe5f8e62	-0.21831658
113	0x3e39fcd4	0.18162853
114	0xbe2d3b0a	-0.16917053
115	0xbefc2862	-0.4924956
116	0xbcf89c0a	-0.030347843
117	0xbeb8f8c3	-0.3612729
118	0x3def453a	0.11683126
119	0x3ec3365d	0.38127413
120	0xbe66730a	-0.22504821
121	0xbe0b1d1f	-0.13585328
122	0xbefd2f78	-0.49450278
123	0xbe9b28b3	-0.3030449
124	0xbe3f2802	-0.18667606
125	0x3e4531a5	0.19257219
126	0x3e195ceb	0.14976852
127	0x3d871dbe	0.0659747
128	0x3e816b2a	0.25277072
129	0xbe377bce	-0.17918321
130	0xbe2a88c1	-0.1665373
131	0x3b988ae3	0.0046552285
132	0xbeea1fc3	-0.45727357
133	0xbdcffb75	-0.101553835
134	0x3f114fdb	0.56762475
135	0xbeeb94f2	-0.46012074
136	0x3d9b637e	0.07587336
137	0x3ba270c6	0.0049572913
138	0x3e53b0e5	0.20672949
139	0xbe4b5da5	-0.19859941
140	0xbec58a45	-0.38582054
141	0x3f0914bc	0.53547263
142	0xbe9ae47c	-0.30252445
143	0x3e880282	0.26564413
144	0x3ed4fe25	0.41600147
145	0x3e781eae	0.24230453
146	0xbe013132	-0.12616423
147	0xbe2141f1	-0.15747811
148	0x3e37e372	0.17957857
149	0x3ed1bad4	0.4096285
150	0xbd1659ac	-0.03670661
151	0xbe7fbd11	-0.24974467
152	0xbea0462d	-0.3130354
153	0xbd4bb338	-0.049731463
154	0xbe2933df	-0.16523694
155	0x3c5de145	0.013542478
156	0xbda51e90	-0.0806247
157	0x3e68828f	0.22706054
158	0xbe89cd12	-0.2691427
159	0x3e6ac119	0.22925223
160	0x3eb1ef85	0.3475305
161	0xbef8e964	-0.48615563
162	0xbdb06939	-0.0861382
163	0xbe0d6e0e	-0.13811514
164	0x3d9ce180	0.07660198
165	0xbd52b546	-0.051442407
166	0x3ca0f131	0.019646259
167	0x3e6f1762	0.23348764
168	0x3e1d6267	0.15369569
169	0x3f0080f3	0.5019676
170	0xbdef1416	-0.11673753
171	0xbc74203d	-0.014900264
172	0x3ed4bd51	0.41550687
173	0x3ea2bf3e	0.3178653
174	0x3ef2470b	0.47319826
175	0x3f0482ee	0.5176228
176	0x3e9409c9	0.28913715
177	0x3c4ec52a	0.01262025
178	0xbd442032	-0.047882266
179	0xbd88da04	-0.06682208
180	0x3eef3562	0.46720415
181	0xbe0681fb	-0.13135521
182	0xbe71f098	-0.23626935
183	0x3d669750	0.056296647
184	0x3e9e02a6	0.30861396
185	0x3e0a1547	0.13484679
186	0xbef3216f	-0.47486445
187	0x3eb160c8	0.3464415
188	0xbc9236b9	-0.01784836
189	0xbabde01f	-0.0014486349
190	0xbe56aaf5	-0.20963652
191	0xbdee7547	-0.11643463
192	0xbcf06308	-0.029344097
193	0x3e939bc2	0.2882977
194	0xbed48c90	-0.4151349
195	0x3f0b4c9c	0.5441377
196	0x3e4516e1	0.19247009
197	0x3c89bb4a	0.01681294
198	0x3ec1f6ed	0.37883702
199	0x3dadf012	0.084930554
200	0x3e1252c5	0.14289387
201	0xbc31b918	-0.010847352
202	0x3eee44ff	0.46537015
203	0x3eb50ad6	0.3535983
204	0xbea23b52	-0.31685883
205	0x3d24e80e	0.040260367
206	0x3e9dbed9	0.30809668
207	0xbf00a8cb	-0.5025756
208	0xbe7d2033	-0.24719314
209	0xbe86c9fb	-0.26325974
210	0xbe2e02e7	-0.16993295
211	0xbe351492	-0.17683628
212	0xbe55a73a	-0.20864573
213	0xbdc3d6c8	-0.09562451
214	0x3df3266f	0.11872565
215	0x3daec788	0.08534151
216	0xbe824920	-0.25446415
217	0x3e72c8f8	0.23709476
218	0xbe424fd7	-0.18975769
219	0x3f0bc632	0.545993
220	0x3e605f34	0.21911317
221	0x3e3020a6	0.17199954
222	0xbdd9baae	-0.106313094
223	0xbdf9a8cb	-0.12190398
224	0xbe9c1f31	-0.30492547
225	0xbcad9bd9	-0.021192478
226	0x3ba93896	0.0051642163
227	0xbbb10014	-0.0054016206
228	0x3e9f0a63	0.31062612
229	0x3e35118e	0.17682478
230	0xbea104c2	-0.31448942
231	0xbe5eb6e6	-0.21749458
232	0x3e534d9b	0.20635073
233	0x3ddf7e5e	0.109127745
234	0xbe8f5b65	-0.27999416
235	0x3c542b15	0.012949725
236	0xbeab98e2	-0.33515078
237	0xbf0f5f7c	-0.5600507
238	0x3dd4baae	0.10387169
239	0xbece69e8	-0.40315175
240	0x3ee4f92e	0.4472136
241	0x3ef48d97	0.47764274
242	0x3e8c0a8b	0.27351794
243	0xbe368812	-0.17825344
244	0x3bc0ca30	0.0058834776
245	0xbb8e6776	-0.0043458296
246	0xbc7ef6cb	-0.01556177
247	0x3e488c7b	0.19584839
248	0xbe857aaa	-0.26070148
249	0xbd4a63b7	-0.0494115
250	0xbeab7996	-0.334912
251	0x3e89fdd2	0.26951462
252	0xbe8c7570	-0.27433348
253	0xbf044c66	-0.51679075
254	0xbccb562d	-0.024821365
255	0x3da8b3e5	0.08237437

value_net.2.bias f4 [32]
0	0x3c8299b5	0.015942434
1	0xbd53fc12	-0.051754065
2	0xbcf51cfc	-0.029921047
3	0xbd9eb64a	-0.07749613
4	0x3d599ba9	0.053126965
5	0xbc90cfc3	-0.017677194
6	0x3cd29793	0.025707042
7	0xbd30c818	-0.043159574
8	0x3d936efd	0.07198904
9	0xbcaae9d5	-0.020863453
10	0x3cf9b317	0.030480905
11	0xbc03888a	-0.008028159
12	0xbe0cbd2c	-0.13744038
13	0x3d34b07d	0.044113625
14	0x3cf2705c	0.029594593
15	0xbbe59020	-0.0070057064
16	0xbe0ab512	-0.13545635
17	0x3c960d64	0.018316932
18	0xbd1dc2ce	-0.03851586
19	0x3ce7952f	0.028269378
20	0x3cee86e6	0.029117059
21	0x3c14d52a	0.009084025
22	0xbdae38ea	-0.08506949
23	0x3c112952	0.008859949
24	0x3dea6fea	0.11447127
25	0x3dc00d94	0.0937759
26	0xbd1a59e2	-0.037683375
27	0x3d5d71b7	0.054063525
28	0x3d705115	0.058671076
29	0x3caa1bd1	0.020765217
30	0x3de0124c	0.1094099
31	0x3d54a58b	0.051915687

value_net.4.weight f4 [32, 32]
0	0xbe87dfd3	-0.26537952
1	0xbf33a57c	-0.70174384
2	0x3e8a284e	0.26983875
3	0xbdf92051	-0.12164367
4	0xbed580b5	-0.41699758
5	0x3e9e21c0	0.30885124
6	0x3e2f29f5	0.17105849
7	0xbec86b0e	-0.39144176
8	0xbef029ca	-0.46906883
9	0x3e9ddd83	0.30833063
10	0x3dbdc673	0.09266367
11	0xbf2cdf9b	-0.67528695
12	0x3c77dd70	0.015128478
13	0xbe230397	-0.15919338
14	0x3d7caca5	0.061688084
15	0x3e8d3338	0.2757814
16	0x3d91e02c	0.071228355
17	0x3e7ac31e	0.24488494
18	0xbd8fe762	-0.07026555
19	0x3ec40e8a	0.38292342
20	0x3d490912	0.049080916
21	0xbd1b1c33	-0.03786869
22	0xbf05a624	-0.52206635
23	0x3ec08af2	0.37606007
24	0x3dfbea7a	0.12300582
25	0x3bb6c2d7	0.005577426
26	0x3db5f826	0.08885221
27	0x3d62ffad	0.055419613
28	0x3d49ba40	0.049249887
29	0x3e30a87c	0.17251772
30	0xbe31cb8e	-0.17362806
31	0xbdb0b68a	-0.086285666
32	0xbe84c877	-0.25934193
33	0xbbbdbfc7	-0.005790684
34	0xbe8f9ff6	-0.28051728
35	0xbf21b9c4	-0.6317408
36	0xbe2c7483	-0.1684132
37	0x3b217aa8	0.002463976
38	0x3ea8c147	0.3295996
39	0x3e1e3ce8	0.15452921
40	0x3e2714fa	0.16316596
41	0x3dd30bb6	0.10304968
42	0xbebc1789	-0.36736706
43	0x3e6588e9	0.22415508
44	0xbebd8fa4	-0.37023652
45	0x3cbd87db	0.02313607
46	0x3e9b5581	0.30338672
47	0x3db21796	0.08695905
48	0xbe5d3b26	-0.21604595
49	0x3f48ae08	0.7839055
50	0xbe8e1b40	-0.27755165
51	0xbcb5ea75	-0.022206524
52	0xbde27418	-0.110572994
53	0x3e98232c	0.29714334
54	0xbd8413a9	-0.064490624
55	0x3d5f9d5e	0.054593436
56	0xbc8e8566	-0.017397594
57	0xbe9193b6	-0.28433007
58	0xbe9c1bf6	-0.30490083
59	0x3d6e7af1	0.058222715
60	0xbe056409	-0.13026442
61	0xbe1f3faf	-0.15551637
62	0x3e2d2677	0.16909204
63	0x3e8f4477	0.27981922
64	0xbe3c12da	-0.18366566
65	0x3e1fc50a	0.15602508
66	0xbeda29e4	-0.42610085
67	0x3d630d35	0.055432517
68	0xbcb90335	-0.022584537
69	0xbdc94f26	-0.098295495
70	0x3f376876	0.7164377
71	0xbebea915	-0.37238374
72	0xbe9d4b34	-0.30721438
73	0xbd6afe38	-0.05737135
74	0xbc1d5ad0	-0.009604171
75	0xbdee5f94	-0.11639324
76	0xbda5d679	-0.08097548
77	0xbe40d5be	-0.18831536
78	0x3dfe7ef0	0.12426555
79	0xbe41e499	-0.1893486
80	0xbdde055b	-0.10840865
81	0xbe02dce5	-0.12779577
82	0xbe5a075e	-0.21291873
83	0x3ea2c048	0.31787324
84	0xbf09b596	-0.53792703
85	0x3c5e6991	0.013574974
86	0xbdf26f79	-0.11837668
87	0xbf012ee2	-0.5046216
88	0x3edcd65e	0.431323
89	0x3dbee2b5	0.09320585
90	0xbc8242ea	-0.015901048
91	0x3ef030c1	0.46912196
92	0xbdaf4fdb	-0.08560153
93	0xbc9d58dc	-0.01920741
94	0x3e6fdf6b	0.23425071
95	0x3ea36970	0.3191638
96	0xbdd473df	-0.10373663
97	0x3e921398	0.28530574
98	0x3da3bb1b	0.07994672
99	0xbd403bae	-0.046931915
100	0x3e982c39	0.2972124
101	0x3ec0d15a	0.37659723
102	0x3d91b534	0.0711464
103	0xbe12234d	-0.14271279
104	0xbdf427c7	-0.119216494
105	0xbd7dc6d0	-0.06195718
106	0xbe4b4de3	-0.1985393
107	0xbcbf390c	-0.023342632
108	0x3c86e13a	0.016464818
109	0x3eb8a6dc	0.36064804
110	0xbee9992b	-0.4562467
111	0x3c455649	0.012044498
112	0x3d82e913	0.06392112
113	0xbf01a4bd	-0.50641996
114	0x3df829a7	0.121173196
115	0x3b8795c0	0.0041377246
116	0xbe57320b	-0.21015184
117	0x3eff7df8	0.49900794
118	0xbe007817	-0.1254581
119	0x3e7db8c9	0.24777521
120	0xbec4986d	-0.38397542
121	0xbe9518f5	-0.29120603
122	0x3db04dc5	0.08608583
123	0xbf186513	-0.59529227
124	0x3d209bb0	0.039210975
125	0x3e6c7a6d	0.23093577
126	0xbf1c259d	-0.60994893
127	0x3db44ec3	0.08804085
128	0xbe991965	-0.29902187
129	0x3ebf706d	0.37390462
130	0xbdc79a72	-0.09746255
131	0x3df7cb01	0.12099267
132	0xbe1b8344	-0.15186793
133	0x3ddcbeb5	0.10778562
134	0xbec71e7c	-0.38890445
135	0xbe49ab35	-0.19694217
136	0x3ea2acf0	0.31772566
137	0x3c40e934	0.01177435
138	0x3e79d7db	0.24398749
139	0xbd1a954c	-0.037740037
140	0xbdc7917a	-0.09744544
141	0xbdd8dfc5	-0.10589556
142	0x3db1787a	0.08665557
143	0x3ec5e6a7	0.38652536
144	0x3ec6f266	0.3885681
145	0x3cf13df3	0.029448485
146	0x3de68626	0.112560555
147	0x3ef0e644	0.4705068
148	0xbd86a9a1	-0.06575323
149	0x3e83052e	0.2558989
150	0xbd222e08	-0.03959468
151	0x3e0f1488	0.13972676
152	0x3ed56080	0.41675186
153	0xbf2d7699	-0.6775909
154	0x3daaa696	0.08332555
155	0x3e30c046	0.17260846
156	0xbe849eb4	-0.2590233
157	0x3e191ce6	0.1495243
158	0xbca5769e	-0.020198163
159	0xbe764815	-0.24050935
160	0x3c86b093	0.016441619
161	0x3e08a213	0.13343076
162	0xbea50ebe	-0.3223781
163	0x3de75baf	0.11296784
164	0xbe4dcb24	-0.20097023
165	0xbe718511	-0.23585917
166	0x3e37c47b	0.17946045
167	0xbe85483b	-0.2603167
168	0x3e2f5cca	0.1712524
169	0xbe25eb30	-0.16202998
170	0xbdce8607	-0.100841574
171	0xbe09fb3d	-0.13474746
172	0x3c4e3dd1	0.01258798
173	0x3ef61055	0.48059335
174	0x3d1d79a6	0.03844609
175	0xbd48a47f	-0.048985
176	0xbc968ade	-0.018376764
177	0x3e8ee8a5	0.2791187
178	0x3f3f4ccd	0.74726564
179	0x3ec12167	0.37720796
180	0x3eb60fe8	0.3555901
181	0xbec52875	-0.3850743
182	0xbc4a9417	-0.012364409
183	0xbd513c2d	-0.05108278
184	0xbcb6fdfc	-0.022337906
185	0xbd2f65fe	-0.042821877
186	0xbe9c6228	-0.30543637
187	0x3c8ed5ae	0.017435875
188	0x3f1f57da	0.62243426
189	0x3bf536ee	0.007483355
190	0xbe60b1c3	-0.2194281
191	0x3e8a2c37	0.26986858
192	0x3e1eb9af	0.1550052
193	0x3ec647e9	0.38726738
194	0x3dd728f4	0.10505858
195	0x3e7f17e0	0.24911451
196	0xbefb6554	-0.49100745
197	0xbdd5e332	-0.10443725
198	0x3e5e7d85	0.2172757
199	0x3dfd0889	0.123551436
200	0xbd1b37b9	-0.03789494
201	0x3ef78eb3	0.48351058
202	0x3a7d32a6	0.0009658731
203	0x3e39b933	0.18137054
204	0xbf03fd0c	-0.51557994
205	0x3daef9ea	0.08543761
206	0xbf045faf	-0.517085
207	0xbe593a0a	-0.21213546
208	0x3df7cb6f	0.12099349
209	0x3d952a86	0.07283501
210	0xbe40bf8c	-0.1882307
211	0xbec2667a	-0.37968808
212	0x3d254b1f	0.040354844
213	0xbe27fe40	-0.16405582
214	0x3d850424	0.064949304
215	0xbe06284f	-0.13101314
216	0x3e390c43	0.18071084
217	0xbd5326d4	-0.0515507
218	0xbed0674d	-0.40703812
219	0xbea0834b	-0.3135017
220	0x3d83d7ef	0.064376704
221	0x3e51dad0	0.20493627
222	0x3ec16ef4	0.37779963
223	0xbda5a79d	-0.0808861
224	0x3e67c54e	0.2263386
225	0x3eac1db2	0.33616406
226	0xbebc949e	-0.36832136
227	0xbeeb6135	-0.459726
228	0xbce695d7	-0.028147621
229	0xbe871270	-0.26381254
230	0x3d04b728	0.032401234
231	0x3e82c6b6	0.2554223
232	0xbeb96074	-0.362064
233	0xbf134f3e	-0.5754279
234	0x3e436d80	0.1908474
235	0xbe22bcd0	-0.15892339
236	0xbeb67a4d	-0.35640183
237	0xbf02a192	-0.51027787
238	0x3e42c4db	0.19020407
239	0xbd8308b1	-0.06398142
240	0x3dd88ba2	0.10573508
241	0x3e69d0ac	0.22833508
242	0x3e1199f1	0.1421888
243	0xbdc73a1a	-0.09727879
244	0xbe54767f	-0.20748328
245	0xbe03714a	-0.12836185
246	0xbd5cf1e8	-0.053941637
247	0x3e1af6f3	0.15133266
248	0xbc0e4ff5	-0.008686055
249	0xbde5f7f8	-0.11228937
250	0x3eacd0c1	0.33753017
251	0xbec2fd7a	-0.38084012
252	0x3e942a7b	0.2893866
253	0x3e0868f7	0.13321291
254	0x3ee447ad	0.44585934
255	0xbd276b90	-0.040874064

value_net.4.bias f4 [32]
0	0x3cc199c7	0.023632897
1	0x3dd3eb11	0.1034757
2	0x3dda9fe4	0.10675028
3	0xbdebb405	-0.115089454
4	0x3c017843	0.007902208
5	0xba0ff313	-0.0005491238
6	0x3c003c44	0.007826868
7	0x3d48875c	0.048957214
8	0xbbadb6eb	-0.0053013465
9	0xbe09dbf4	-0.13462812
10	0x3e07058b	0.13185708
11	0x3d9eb4a3	0.077492975
12	0x3e0c9c57	0.13731514
13	0xbdbcb3d5	-0.09213988
14	0x3d839fd2	0.06426968
15	0x3d5820bf	0.052765604
16	0x3d5ba59e	0.05362474
17	0xbdef1aa7	-0.116750054
18	0xbc6be752	-0.014398413
19	0x3cade0ed	0.021225417
20	0x3da6c2be	0.08142613
21	0x3d2f9983	0.04287101
22	0xbdcdecab	-0.100549065
23	0x3dd9659f	0.10615086
24	0xbdcc5453	-0.09977021
25	0xbd420438	-0.047367305
26	0x3bad57ed	0.0052900226
27	0xbe1a415a	-0.15063992
28	0xbe1311bd	-0.14362235
29	0xbcda585f	-0.026653467
30	0xbd814ee3	-0.063138746
31	0x3de7193a	0.112841085

value_net.6.weight f4 [1, 32]
0	0x3e54ad35	0.20769198
1	0xbe34a677	-0.17641626
2	0xbe5007b2	-0.20315436
3	0x3e1e973a	0.15487376
4	0x3c09f3f7	0.008419982
5	0x3ab30674	0.0013658539
6	0xbd8becb9	-0.06832261
7	0xbd79e64d	-0.061010648
8	0xbda4319d	-0.080172755
9	0x3e6e20d3	0.23254709
10	0xbdb036dd	-0.08604214
11	0xbd85cfc2	-0.06533767
12	0xbe7503fc	-0.23927301
13	0x3de2125f	0.1103866
14	0xbd645c05	-0.05575182
15	0x3dc7ed31	0.097620375
16	0xbd808f31	-0.062773116
17	0x3d209e91	0.03921372
18	0x3d8cb079	0.06869597
19	0x3c54b581	0.012982727
20	0xbeb943c4	-0.36184514
21	0xbdbab4e4	-0.091165334
22	0x3e23335a	0.15937558
23	0xbc6f9a61	-0.014624209
24	0x3e1d4151	0.15356947
25	0xbdb6cf4a	-0.08926256
26	0x3cc38c1d	0.023870522
27	0x3decef64	0.11569098
28	0x3e6f7864	0.23385769
29	0x3f0d23ed	0.55132943
30	0x3dbf7176	0.09347813
31	0xbe8f9e2e	-0.2805037
