MAPPO/Graph_H/save/HY_T6/agent_0_MAPPO_c.pt (torch, 86982 bytes, 15 tensors)

policy_net.0.weight f4 [32, 16]
-0.68103325 -0.3787355 0.0011323926 0.024237491 -0.5232618 -0.0062820087 0.27604333 -0.5523287
0.3632029 0.18522291 0.07631876 0.3279069 -0.34733313 -0.15557685 0.19364119 -0.17439893
-0.112164475 0.41650027 -0.04086106 -0.5058677 0.039474238 0.6023542 -0.037737224 -0.025033008
-0.19963287 -0.14983943 -0.027961234 0.20237795 -0.041215908 -0.063153744 0.06298023 0.19680251
-0.020505229 -0.44067687 0.47888106 0.13323745 0.21788573 -0.13997568 0.23848465 -0.046171382
-0.4806644 0.21977124 0.1302856 0.44280192 0.07530187 -0.28993192 0.6956666 -0.31311467
0.055124413 0.09803358 0.124182366 -0.12536445 -0.024630476 0.03044666 0.39994803 -0.4674109
0.033777934 -0.5274788 0.27808946 -0.117460884 0.50272715 0.0006774714 -0.1375418 -0.451732
-0.081402384 0.05981449 -0.0685725 -0.4090495 0.34700358 -0.3928205 0.07087383 -0.06976666
0.17378502 -0.47918174 -0.3073382 0.55872065 0.27155405 -0.27964878 -0.32118672 0.13949971
-0.079426154 0.10755277 -0.021156026 0.072367586 -0.1927639 0.010953994 0.3833639 0.0034355768
-0.17937231 0.96361923 -0.051834248 0.5970087 -0.33714637 0.17084126 -0.06936221 0.0006353508
0.6103087 -0.17564243 -0.0078929635 0.06699623 -0.3225169 -0.03736068 -0.037887353 0.017356943
0.16443574 -0.11064798 0.23226339 -0.1147587 0.14768274 0.20151588 -0.63261026 -0.5157574
0.14126164 -0.053598475 0.32652152 0.058432754 0.15569107 0.25782925 0.3214111 0.41870803
-0.12307421 -0.11715377 -0.25182003 0.16277927 -0.21616994 -0.35627097 -0.24362972 -0.059884205
-0.013162416 -0.19831082 0.46583804 -0.38368407 -0.7284754 -0.024955902 0.068601444 0.14919268
-0.27681464 0.17314774 -0.077246346 0.05231467 0.2432642 -0.24173513 0.16206098 0.11745918
0.1179646 -0.06870114 0.23587838 -0.20857196 0.17848162 -0.22661477 -0.5240935 0.0016635803
-0.0010591656 0.3180544 0.32818893 0.28168216 -0.5806783 -0.2777988 0.07045376 -0.13354595
-0.101205036 -0.05886361 0.16033693 -0.07575151 -0.46158072 -0.31404665 0.13513859 0.21252811
-0.39426976 0.24755743 -0.22376458 0.050799213 -0.46282735 0.0003222717 0.37470686 0.109421015
0.014456133 0.7631386 -0.109133005 0.13979235 -0.2803618 -0.22036195 0.09434613 -0.28650004
-0.1945341 -0.5191667 -0.16091906 -0.10797479 -0.10479135 0.32453334 -0.0975741 0.08143345
0.08158581 0.3802454 0.11588894 0.14766268 0.16576874 -0.02285068 0.20817013 0.4682765
0.67500734 -0.12849274 0.009588326 0.020215027 -0.20724267 0.04693882 0.219209 -0.28224447
-0.13407408 0.29439643 0.5459575 -0.09520452 -0.44317147 -0.10562777 -0.49963707 0.22523072
-0.062063336 0.07107675 -0.3832768 0.30561098 0.058306463 0.42845055 -0.019914791 -0.16900396
-0.100324765 0.07771328 0.14037554 -0.036016617 0.1782621 -0.10733023 0.16045529 -0.042151656
-0.2573238 0.77343655 -0.13548976 0.002786004 -0.01738409 0.07332485 0.5494107 0.0732772
0.44442227 0.21928385 -0.19277716 0.02690535 -0.37059554 -0.09604118 0.1525392 -0.02683848
-0.0048465626 0.15583722 0.07370912 0.19217727 0.10157261 -0.35052148 0.36453086 0.12380533
00000000: 3258 2ebf 9fe9 c1be ca6c 943a b48d c63c
00000010: 7cf4 05bf 4fd9 cdbb 8d55 8d3e 6a65 0dbf
00000020: bbf5 b93e 13ab 3d3e 034d 9c3d 6ae3 a73e
00000030: a6d5 b1be 8a4f 1fbe e049 463e a295 32be
00000040: 7db6 e5bd 863f d53e ed5d 27bd 8c80 01bf
00000050: bdaf 213d e333 1a3f 5992 1abd 0612 cdbc
00000060: 8f6c 4cbe 826f 19be f50e e5bc 2a3c 4f3e
00000070: 03d2 28bd c056 81bd c7fb 803d 9986 493e
00000080: 95fa a7bc 66a0 e1be e62f f53e 666f 083e
00000090: 701d 5f3e c955 0fbe 5235 743e 341e 3dbd
000000a0: a519 f6be b60b 613e 9769 053e efb6 e23e
000000b0: de37 9a3d f571 94be 3517 323f 9150 a0be
000000c0: 23ca 613d d4c5 c83d 5353 fe3d 8a5f 00be
000000d0: dac5 c9bc 466b f93c fdc5 cc3e 7b50 efbe
000000e0: bb5a 0a3d da08 07bf be61 8e3e 558f f0bd
000000f0: bab2 003f 5698 313a c2d7 0cbe 6b49 e7be
00000100: 4bb6 a6bd 0a00 753d bd6f 8cbd f06e d1be
00000110: 74aa b13e c51f c9be 4c26 913d d3e1 8ebd
00000120: b3f4 313e 4f57 f5be 6f5b 9dbe 5108 0f3f
00000130: 2209 8b3e 202e 8fbe 9672 a4be 03d9 0e3e
00000140: 2eaa a2bd a044 dc3d 674f adbc 7535 943d
00000150: e663 45be 6178 333c 4648 c43e 6a27 613b
00000160: 60ad 37be c0af 763f 2650 54bd 90d5 183f
00000170: 739e acbe 03f1 2e3e c60d 8ebd ac8d 263a
00000180: 313d 1c3f 9cdb 33be 7d51 01bc 5235 893d
00000190: ef20 a5be 8307 19bd c52f 1bbd 2630 8e3c
000001a0: d861 283e 689b e2bd 74d6 6d3e 9c06 ebbd
000001b0: 253a 173e 2e5a 4e3e bff2 21bf ad08 04bf
000001c0: e4a6 103e 138a 5bbd d42d a73e 2f57 6f3d
000001d0: 7b6d 1f3e 3202 843e ff8f a43e e660 d63e
000001e0: 550e fcbd 51ee efbd 8eee 80be 9caf 263e
000001f0: a75b 5dbe 2669 b6be 127a 79be 2449 75bd
00000200: 2da7 57bc fe11 4bbe 5382 ee3e 3d72 c4be
00000210: 5d7d 3abf 5270 ccbc ea7e 8c3d f7c5 183e
00000220: a6ba 8dbe a44d 313e 5533 9ebd e847 563d
00000230: 401a 793e 6a89 77be 50f3 253e 708e f03d
00000240: 6d97 f13d 2fb3 8cbd 1a8a 713e e393 55be
00000250: e3c3 363e b40d 68be fe2a 06bf 7e0c da3a
00000260: b3d3 8aba 07d8 a23e 6108 a83e a538 903e
00000270: 55a7 14bf a53b 8ebe 104a 903d 45c0 08be
00000280: 9644 cfbd f81a 71bd 5d2f 243e 9c23 9bbd
00000290: 4f54 ecbe b9ca a0be c561 0a3e f8a0 593e
000002a0: badd c9be b27f 7d3e 8b22 65be d612 503d
000002b0: b5f7 ecbe 93f6 a839 94d9 bf3e 2018 e03d
000002c0: 6bd9 6c3c 0d5d 433f 2081 dfbd ba25 0f3e
000002d0: 958b 8fbe 90a6 61be 8b38 c13d 22b0 92be
000002e0: f233 47be 1ce8 04bf f7c7 24be e321 ddbd
000002f0: d99c d6bd 3c29 a63e eed4 c7bd 95c6 a63d
00000300: 7616 a73d 86af c23e 2e57 ed3d e334 173e
00000310: 48bf 293e 5931 bbbc 8d2a 553e f0c1 ef3e
00000320: 48cd 2c3f 9a93 03be 5b18 1d3c fc99 a53c
00000330: 6c37 54be ec42 403d 5378 603e 5982 90be
00000340: b74a 09be 21bb 963e dfc3 0b3f 96fa c2bd
00000350: 5fe7 e2be 5f53 d8bd 6ed0 ffbe e2a2 663e
00000360: 2036 7ebd b090 913d db3c c4be 0b79 9c3e
00000370: c2d2 6e3d df5d db3e 5824 a3bc 600f 2dbe
00000380: 1277 cdbd 2428 9f3d 9bbe 0f3e 2986 13bd
00000390: 578a 363e f4cf dbbd 644e 243e 37a7 2cbd
000003a0: f2bf 83be f0ff 453f d4bd 0abe 6495 363b
000003b0: 1469 8ebc 572b 963d 2ea6 0c3f 5b12 963d
000003c0: 518b e33e f28b 603e 6067 45be 9c68 dc3c
000003d0: b3be bdbe 3db1 c4bd 3c33 1c3e 5fdc dbbc
000003e0: eacf 9ebb cb93 1f3e cff4 963d 1eca 443e
000003f0: 4d05 d03d 8d77 b3be caa3 ba3e a68d fd3d

policy_net.0.bias f4 [32]
-0.07120045 0.03848752 0.061997343 0.013587028 -0.054092105 -0.06615207 -0.09723095 0.06953003
-0.030125132 0.027613226 0.0056258272 0.052717637 0.08128248 0.058604293 -0.016102826 -0.014927568
-0.03199169 0.015106092 0.03463168 0.093983226 -0.09385097 0.05311371 0.021735193 0.051989075
-0.016538724 -0.08063261 -0.06441653 -0.07941188 0.01286092 0.024033407 0.015470743 -0.01253414
00000000: 8bd1 91bd 17a5 1d3d edf0 7d3d 209c 5e3c
00000010: af8f 5dbd bd7a 87bd 0521 c7bd c365 8e3d
00000020: fbc8 f6bc 2235 e23c dc58 b83b 73ee 573d
00000030: 6e77 a63d 0e0b 703d 13ea 83bc c292 74bc
00000040: b809 03bd 8b7f 773c f3d9 0d3d 477a c03d
00000050: f034 c0bd c38d 593d 010e b23c 7ff2 543d
00000060: 387c 87bc b622 a5bd d0ec 83bd b2a2 a2bd
00000070: 9cb6 523c b5e1 c43c 0079 7d3c fe5b 4dbc

policy_net.2.weight f4 [32, 32]
-0.18000747 -0.120806016 0.20954923 -0.016038816 0.08260129 -0.19521767 -0.20347485 0.018364739
-0.4021083 -0.04125603 0.24984759 -0.36067715 -0.24355435 0.34532052 -0.11106699 0.31633767
-0.20679939 -0.12717418 0.6299336 -0.1081298 -0.3174783 0.18222645 0.31483427 0.18532005
-0.124113455 -0.15112531 0.062388435 -0.52208495 -0.44293782 -0.14600961 -0.20235303 -0.2586092
-0.14152192 0.19736032 -0.43211287 0.16930173 0.07625207 -0.64217126 0.2654596 0.09443028
-0.033149853 0.21596664 -0.44772747 -0.2910003 0.31936064 -0.014103027 -0.1833653 -0.44203743
-0.06136932 -0.18055862 0.0013987925 -0.21110512 0.6926492 0.003839033 0.31849137 -0.28875107
-0.08421272 0.06816247 -0.013133338 -0.20780005 -0.38671103 -0.20585188 0.12434319 0.021382444
0.14877029 0.26028088 0.116086334 -0.2561778 0.4275949 0.20054351 -0.23790847 0.0027589628
-0.14388238 0.10829933 -0.25671035 0.3658319 -0.21460387 -0.55723786 -0.12872587 0.34738812
-0.035470903 0.27328506 0.010259956 -0.44839352 0.37009123 0.32235387 -0.10614238 -0.090973035
0.05398833 0.81580997 0.33143413 0.0778429 -0.08751862 -0.13292019 -0.4228892 0.02943805
-0.2925722 0.29051545 0.058691815 0.06218326 0.17214487 0.13087654 -0.16615215 0.42711055
0.071167134 0.12990232 -0.19310856 0.027990926 0.38077083 0.07789828 0.6292797 0.17893533
-0.1800668 0.1669994 0.17705998 0.26226377 -0.22156079 0.5063349 0.04256772 -0.23803414
-0.14514408 -0.95434856 -0.18427104 0.08295462 -0.13312188 -0.29610097 -0.03709218 -0.25268555
-0.15628259 0.44868648 -0.27662444 0.42010668 0.35009435 -0.11499524 0.1849945 -0.29278892
-0.039044756 -0.5930436 -0.063768506 -0.20819822 -0.09704294 -0.45119607 0.0075265476 -0.26354378
-0.26034883 -0.11006726 -0.6088333 -0.22082183 -0.20749865 0.22810234 -0.07148758 -0.05354468
-0.18623301 0.12919101 -0.105248936 -0.42979962 -0.036470424 0.32538435 -0.4103669 0.16172925
-0.37493256 -0.23876601 -0.43436944 0.007740692 -0.19492814 -0.21885204 -0.56922954 -0.22634692
0.13857491 0.034618203 -0.2669803 0.13812312 -0.17102857 0.016095826 -0.47386947 -0.2796654
0.07082553 0.23374651 -0.33181763 0.2520785 0.026574705 0.5311781 -0.37309355 -0.048235405
-0.5479987 -0.07835864 -0.34529117 -0.2561883 -0.26418397 0.004193931 0.19182257 -0.07981964
-0.025264516 0.27276364 -0.2826526 0.10577174 -0.120185114 -0.17083263 0.33469033 -0.40265608
-0.18022472 -0.16198365 -0.3954388 0.5402475 -0.24501052 0.042030197 0.2446069 -0.15393263
0.24755675 0.4411133 -0.005680522 0.5946966 -0.1992921 -0.025545543 0.37234077 -0.11348336
-0.06499737 0.25887007 -0.44902885 -0.3984394 -0.27784184 -0.288727 -0.19639288 0.12495023
0.17746271 0.25844204 0.21539201 0.2011971 0.12534139 0.1489202 -0.039103176 -0.38715905
0.44406006 -0.26133585 -0.3322273 0.0834188 -0.30567548 0.34271666 0.07676455 0.32528245
0.0010411312 -0.47254676 0.079103254 -0.2896972 -0.4623109 0.16202082 -0.08958271 -0.39651382
-0.16677658 0.123984486 0.46236342 0.10042676 -0.13478859 -0.5095446 0.538722 -0.033678807
00000000: e153 38be 2569 f7bd 1394 563e d663 83bc
00000010: dd2a a93d 24e7 47be b65b 50be a671 963c
00000020: 24e1 cdbe 15fc 28bd 0cd8 7f3e adaa b8be
00000030: 5066 79be dacd b03e 1777 e3bd 03f7 a13e
00000040: 38c3 53be f339 02be 5443 213f 2873 ddbd
00000050: 848c a2be 9299 3a3e f531 a13e 8ac4 3d3e
00000060: 322f febd 98c0 1abe 048b 7f3d 5ca7 05bf
00000070: bfc8 e2be 8b83 15be a235 4fbe 6d68 84be
00000080: 1feb 10be d318 4a3e e63d ddbe 6f5d 2d3e
00000090: 0c2a 9c3d 5665 24bf 52ea 873e aa64 c13d
000000a0: 24c8 07bd 5c26 5d3e 893c e5be fefd 94be
000000b0: 3d83 a33e 6210 67bc 1dc4 3bbe bb52 e2be
000000c0: 655e 7bbd 5ce4 38be b057 b73a f12b 58be
000000d0: 7551 313f 4998 7b3b 4d11 a33e 2ed7 93be
000000e0: b877 acbd c498 8b3d 362d 57bc 89c9 54be
000000f0: fdfe c5be d6ca 52be a4a7 fe3d 3c2a af3c
00000100: 3d57 183e 8943 853e acbe ed3d bd29 83be
00000110: b8ed da3e 475b 4d3e 479e 73be b7cf 343b
00000120: e755 13be 0acc dd3d 8a6f 83be 524e bb3e
00000130: 1ec1 5bbe 24a7 0ebf b7d0 03be dbdc b13e
00000140: f049 11bd 05ec 8b3e 6019 283c d693 e5be
00000150: 997c bd3e 910b a53e 2d61 d9bd 1250 babd
00000160: de22 5d3d ecd8 503f bcb1 a93e 196c 9f3d
00000170: f63c b3bd 3b1c 08be ef84 d8be 1128 f13c
00000180: 06cc 95be 71be 943e d466 703d e0b3 7e3d
00000190: bf46 303e 8004 063e ca23 2abe 3cae da3e
000001a0: 13c0 913d 1d05 053e 40be 45be 3a4d e53c
000001b0: 65f4 c23e 2289 9f3d 7918 213f d33a 373e
000001c0: 6e63 38be e401 2b3e 364f 353e 7047 863e
000001d0: d5e0 62be 2a9f 013f 7d5b 2e3d 39bf 73be
000001e0: a6a0 14be 3050 74bf 8cb1 3cbe 1de4 a93d
000001f0: 1a51 08be 8c9a 97be f8ed 17bd 0060 81be
00000200: 8b08 20be 3cba e53e b8a1 8dbe 3918 d73e
00000210: 913f b33e a082 ebbd 336f 3d3e 6ee8 95be
00000220: 65ed 1fbd b5d1 17bf 1099 82bd ea31 55be
00000230: 73be c6bd 2c03 e7be 42a1 f63b 36ef 86be
00000240: 714c 85be f26a e1bd 80dc 1bbf 1e1f 62be
00000250: 877a 54be a993 693e 1568 92bd ab51 5bbd
00000260: deb3 3ebe a64a 043e c18c d7bd b20e dcbe
00000270: 0362 15bd c798 a63e 9c1b d2be 5a9c 253e
00000280: 29f7 bfbe 147f 74be ac65 debe a1a5 fd3b
00000290: 3e9b 47be c01a 60be 07b9 11bf 7dc7 67be
000002a0: 95e6 0d3e d1cb 0d3d a4b1 88be 2670 0d3e
000002b0: 1d22 2fbe 65db 833c 059f f2be 4e30 8fbe
000002c0: fa0c 913d 3f5b 6f3e 00e4 a9be 6f10 813e
000002d0: 32b3 d93c 4afb 073f 1e06 bfbe 7d92 45bd
000002e0: a549 0cbf 7f7a a0bd 01ca b0be 1d2b 83be
000002f0: 1f43 87be 3e6d 893b 236d 443e 7b78 a3bd
00000300: 88f7 cebc ada7 8b3e d7b7 90be db9e d83d
00000310: 9d23 f6bd c0ee 2ebe 885c ab3e f028 cebe
00000320: d48c 38be 0bdf 25be f476 cabe a94d 0a3f
00000330: 0ae4 7abe db27 2c3d 3b7a 7a3e 84a0 1dbe
00000340: 847f 7d3e 9ad9 e13e ac23 babb 093e 183f
00000350: 3a13 4cbe e344 d1bc 73a3 be3e f769 e8bd
00000360: 571d 85bd 9e8a 843e 1ce7 e5be 4000 ccbe
00000370: 4941 8ebe 06d4 93be 371b 49be e8e5 ff3d
00000380: c9b8 353e 8452 843e b98f 5c3e 9d06 4e3e
00000390: 7e59 003e 897e 183e a72a 20bd b639 c6be
000003a0: d75b e33e d0cd 85be b219 aabe 7ad7 aa3d
000003b0: 7f81 9cbe 8f78 af3e bb36 9d3d 6c8b a63e
000003c0: 9176 883a a6f1 f1be e300 a23d 3153 94be
000003d0: 04b4 ecbe c9e8 253e 2477 b7bd dc03 cbbe
000003e0: 7bc7 2abe 94eb fd3d e6ba ec3e 8cac cd3d
000003f0: 0506 0abe 8471 02bf afe9 093f caf2 09bd

policy_net.2.bias f4 [32]
0.08594178 -0.01976055 -0.124942 0.1417256 -0.051800426 0.048248615 0.035167404 0.0135110915
-0.21697013 0.055021394 -0.033308927 -0.07008201 0.079521745 0.10545511 0.021453915 -0.024754824
0.11985337 0.036542643 -0.10740364 -0.049298182 -0.030390842 -0.015186587 -0.15174337 -0.036553197
0.03187083 -0.013471004 -0.17595795 0.13113399 0.040643863 0.05401873 -0.10705121 -0.0508848
00000000: 3e02 b03d e1e0 a1bc 97e1 ffbd 8420 113e
00000010: af2c 54bd 57a0 453d b20b 103d a05d 5d3c
00000020: 6b2d 5ebe 1d5e 613d f16e 08bd 2887 8fbd
00000030: 4cdc a23d d9f8 d73d 1fc0 af3c a1ca cabc
00000040: af75 f53d bdad 153d 71f6 dbbd e4ec 49bd
00000050: 37f6 f8bc 2ad1 78bc 9d62 1bbe ceb8 15bd
00000060: fd8a 023d 7cb5 5cbc 522e 34be fd47 063e
00000070: 2e7a 263d be42 5d3d aa3d dbbd 946c 50bd

policy_net.4.weight f4 [32, 32]
0.32300523 -0.3245335 -0.21167906 0.26387954 0.21618216 0.35741866 0.12941457 0.31300506
-0.41704562 0.22348785 0.5853286 -0.5154447 0.74288934 -0.18526177 0.0757034 0.21758763
-0.13203123 0.053096298 -0.22396863 0.021299724 0.19983737 -0.50048316 -0.4142787 -0.3091526
-0.15335794 -0.04515667 -0.4970905 0.35343006 0.001407294 0.106496766 -0.16648611 0.032431193
0.7312627 -0.3123621 -0.15062332 0.37734464 -0.12360204 -0.21613161 -0.058984816 0.08098144
-0.06861616 0.12188128 -0.15239035 -0.57169545 -0.0036031092 0.25003496 0.15448159 -0.09334584
0.19864193 0.056907218 -0.16267484 0.41710916 -0.14875862 0.19451116 -0.45654678 -0.27841482
0.28116572 0.31296507 0.17829576 0.5460942 0.49788338 -0.101462446 0.20197205 0.0512406
0.44207025 -0.0911441 0.20323476 -0.033695944 -0.08597904 -0.031469237 0.44184533 0.56973374
-0.033788618 0.5106437 -0.26143327 0.33418924 0.5282355 0.5155174 -0.5688258 -0.13851395
0.08929815 0.35142654 -0.3974577 0.096679784 0.4674124 -0.2482073 -0.100014366 -0.22290033
0.20028786 0.4086136 -0.46513233 0.37159565 -0.08867478 0.13272609 0.12342311 0.31355247
0.0041434234 0.14547926 -0.21360143 0.099217124 0.30289093 0.39498916 0.378768 -0.1714946
-0.13113375 0.16151625 -0.21908227 0.61067164 0.038806114 -0.2645995 0.35779426 -0.36227542
0.070634305 -0.3226548 0.27612162 -0.1462392 0.34218347 0.05355703 0.0024412167 -0.3463614
-0.2722453 -0.3063263 -0.047800258 0.26823995 0.6209388 0.55337775 0.3517102 -0.5025645
0.15300699 0.39868876 0.45462424 -0.29814032 0.20146461 0.01831475 0.06454755 -0.31305176
0.12169369 -0.21867043 0.29171908 0.14975919 0.3593103 0.06843522 0.164509 -0.13111661
-0.5144269 -0.18916823 0.31037304 0.06005387 0.11539147 0.33566597 0.6798193 -0.13885039
-0.510209 0.67822444 0.43675926 -0.30615163 -0.13043886 -0.14538558 0.21750371 -0.14279717
0.08530449 -0.36138192 0.7728215 -0.25223508 0.49627447 0.22563261 0.16063684 -0.29162914
0.3347509 0.17039672 0.37392357 -0.0047525833 -0.35663092 0.42801723 0.43136013 -0.105871394
0.12497762 -0.051475864 0.31379685 -0.09452276 0.36112943 0.1870183 0.6514274 0.6461676
-0.18306817 -0.11400272 -0.03981693 -0.34615374 -0.16655865 0.12992369 0.15346189 0.060747065
-0.32040322 -0.20181131 0.50781584 -0.021631466 -0.14601406 -0.058334656 -0.68267035 0.12764937
0.4389087 0.1498632 0.027069613 -0.29938796 0.0029858064 -0.55050814 -0.18207806 0.30090034
-0.04841934 0.37155068 -0.09226897 0.5155305 0.1588 -0.07652868 0.20561293 0.0006396842
0.42477986 0.47858268 -0.43956545 -0.037557844 0.19942674 -0.32660455 0.40869915 0.17187683
-0.36972553 -0.07839595 -0.049557656 -0.15815777 -0.41203418 0.44807923 0.16627663 -0.53008765
-0.14365683 -0.31985068 -0.7912502 -0.17442264 0.16859806 -0.07052168 0.59395355 -0.064276315
0.33623925 0.1151666 0.18149003 -0.41349146 -0.5772715 0.29963925 -0.44738898 -0.25123948
-0.66738987 -0.24252443 -0.022010405 0.04647905 0.2305122 0.2642972 -0.08012245 0.36216083
00000000: f160 a53e 4129 a6be 65c2 58be 381b 873e
00000010: db5e 5d3e 94ff b63e 4185 043e 3342 a03e
00000020: 0187 d5be 00da 643e 18d8 153f 2ff4 03bf
00000030: ff2d 3e3f 43b5 3dbe 620a 9b3d 4bcf 5e3e
00000040: 3233 07be 817b 593d 0858 65be c27c ae3c
00000050: 2ba2 4c3e aa1f 00bf 561c d4be 4049 9ebe
00000060: dd09 1dbe 33f6 38bd a582 febe c9f4 b43e
00000070: f374 b83a fa1a da3d 567b 2abe 92d6 043d
00000080: 0834 3b3f eded 9fbe 003d 1abe 5133 c13e
00000090: 1123 fdbd 9b51 5dbe 109a 71bd 99d9 a53d
000000a0: a186 8cbd e49c f93d 370c 1cbe a25a 12bf
000000b0: 2422 6cbb 9504 803e 6c30 1e3e 1b2c bfbd
000000c0: ca68 4b3e 8b17 693d 3c94 26be 558f d53e
000000d0: 2e54 18be ef2d 473e 80c0 e9be 638c 8ebe
000000e0: f4f4 8f3e f53c a03e 2a93 363e d4cc 0b3f
000000f0: 92ea fe3e 8bcb cfbd c3d1 4e3e aae1 513d
00000100: 0857 e23e c2a9 babd c61c 503e c204 0abd
00000110: c715 b0bd e3e5 00bd 8d39 e23e 12da 113f
00000120: ef65 0abd 8cb9 023f 95da 85be da1a ab3e
00000130: 713a 073f f3f8 033f 919e 11bf 9ad6 0dbe
00000140: f3e1 b63d 2eee b33e 937f cbbe 0d00 c63d
00000150: ae50 ef3e 0e2a 7ebe 55d4 ccbd fc3f 64be
00000160: 4318 4d3e cd35 d13e d325 eebe c941 be3e
00000170: 209b b5bd 59e9 073e 41c5 fc3d f389 a03e
00000180: 8ec5 873b 84f8 143e 55ba 5abe 5932 cb3d
00000190: 8514 9b3e 053c ca3e e1ed c13e 489c 2fbe
000001a0: ed47 06be 8464 253e 1a57 60be fa54 1c3f
000001b0: 29f3 1e3d 9679 87be cf30 b73e 2a7c b9be
000001c0: b8a8 903d 0333 a5be d05f 8d3e bbbf 15be
000001d0: ac32 af3e 9e5e 5b3d d2fc 1f3b 4856 b1be
000001e0: bc63 8bbe cdd6 9cbe 34ca 43bd bf56 893e
000001f0: d8f5 1e3f 2aaa 0d3f 5c13 b43e 11a8 00bf
00000200: ddad 1c3e ef20 cc3e 82c4 e83e d9a5 98be
00000210: bd4c 4e3e d108 963c 8231 843d 5248 a0be
00000220: 8b3a f93d 24eb 5fbe 345c 953e 795a 193e
00000230: 85f7 b73e c427 8c3d 0c75 283e 6f43 06be
00000240: 7bb1 03bf 51b5 41be 37e9 9e3e 0cfb 753d
00000250: 5d52 ec3d 69dc ab3e a308 2e3f cc2e 0ebe
00000260: 0f9d 02bf 1ea0 2d3f e99e df3e e8bf 9cbe
00000270: c491 05be f5df 14be 4bb9 5e3e 6c39 12be
00000280: 1fb4 ae3d 0d07 b9be a1d7 453f f524 81be
00000290: b017 fe3e 3c0c 673e fc7d 243e 6a50 95be
000002a0: 7864 ab3e 7a7c 2e3e e972 bf3e 8fbb 9bbb
000002b0: 5498 b6be 1325 db3e 3cdb dc3e 1ad3 d8bd
000002c0: 44f4 ff3d 5bd8 52bd fba9 a03e 2695 c1bd
000002d0: f5e5 b83e ba81 3f3e f2c3 263f 3d6b 253f
000002e0: 3976 3bbe 427a e9bd 1417 23bd 103b b1be
000002f0: 5a8e 2abe b70a 053e 1d25 1d3e ead1 783d
00000300: e40b a4be a0a7 4ebe 3800 023f 7934 b1bc
00000310: b684 15be 52f0 6ebd 7cc3 2ebf 84b6 023e
00000320: a4b8 e03e bd75 193e 18c1 dd3c 6149 99be
00000330: 85ad 433b 1aee 0cbf ac72 3abe 9c0f 9a3e
00000340: 5c53 46bd e43b be3e 84f7 bcbd cff9 033f
00000350: 789c 223e 12bb 9cbd 328c 523e 7bb0 273a
00000360: bf7c d93e ca08 f53e b90e e1be 41d6 19bd
00000370: 8636 4c3e b638 a7be 0441 d13e 7b00 303e
00000380: aa4c bdbe 0e8e a0bd f8fc 4abd 1cf4 21be
00000390: 25f6 d2be a46a e53e 6c44 2a3e d3b3 07bf
000003a0: c71a 13be 78c3 a3be 608f 4abf d99b 32be
000003b0: f8a4 2c3e ac6d 90bd 570d 183f 4da3 83bd
000003c0: 8d27 ac3e 77dc eb3d 86d8 393e 27b5 d3be
000003d0: 11c8 13bf 516a 993e 2b10 e5be 76a2 80be
000003e0: 10da 2abf 5358 78be 2a4f b4bc d160 3e3d
000003f0: 640b 6c3e f651 873e 3d17 a4bd 256d b93e

policy_net.4.bias f4 [32]
0.1990406 0.09847735 0.13017851 0.051963195 -0.13119462 -0.1662813 -0.10185097 0.014138619
0.12332122 -0.12005862 0.1358628 0.14998709 0.05217891 0.12249605 0.15315805 -0.1684747
0.13884519 -0.19149412 -0.055407137 0.24348192 0.2719701 0.166115 0.067225695 -0.17787458
-0.17863867 0.12921855 -0.047076713 -0.06329795 -0.057481296 0.064226955 0.2590241 -0.10079192
00000000: 4dd1 4b3e 7eae c93d 844d 053e 5cd7 543d
00000010: e257 06be a545 2abe 3e97 d0bd aba5 673c
00000020: d68f fc3d 4be1 f5bd 9e1f 0b3e 3796 193e
00000030: 8db9 553d 36df fa3d 77d5 1c3e a284 2cbe
00000040: 6f2d 0e3e 0917 44be 98f2 62bd 5353 793e
00000050: aa3f 8b3e 0d1a 2a3e a0ad 893d c124 36be
00000060: 0eed 36be de51 043e 83d3 40bd 5ba2 81bd
00000070: 8271 6bbd 6c89 833d cf9e 843e ff6b cebd

policy_net.6.weight f4 [21, 32]
0.33584508 0.25094673 0.27648827 0.21035671 -0.41098833 -0.45200348 -0.31085578 0.39131334
0.42987335 -0.20548026 0.3607403 0.4727712 0.5571034 0.42165133 0.3911957 -0.39092404
0.39192235 -0.30522263 -0.53862804 0.38752276 0.3673594 0.38502476 0.40921175 -0.3679971
-0.3897193 0.30712557 -0.6049889 -0.56303364 -0.43731117 0.49682942 0.37084416 -0.2835726
-0.00045377915 -0.0016758256 0.0020846908 0.0001616886 0.0010156606 2.6700049e-05 -0.0017637981 -0.0024508021
-0.0009964535 0.002782176 0.002389325 -0.004490041 0.00053978333 0.0011828411 -0.0013316232 -2.1656022e-05
-0.0007083677 -0.00094539573 0.0009263142 -0.0006337707 -0.0006227159 0.00045681713 0.0009596692 0.0031874788
0.0030003164 0.00034307543 -0.0016433769 0.00069091667 0.00063317333 -0.0019736288 0.0033411686 0.0015189042
0.0010733242 0.0031613733 -0.002008891 0.0033877515 0.0018933481 -0.0022843555 0.0008130411 0.002798234
0.001515098 0.0010330038 0.0006933211 -0.0020478305 0.0014339511 -0.00031560333 -0.0020636744 -0.0012857501
-0.00021878682 0.0007405853 0.00054391305 0.00083571323 0.0010632292 0.0019956918 0.0011645071 0.0016890542
-0.0025619706 -0.0030674138 0.00063806 -0.0006541831 -0.002264908 -0.00071869005 0.0020553025 -0.0015333402
-0.0004950995 -0.000576593 -0.0012631195 -0.0017807415 -0.00028008362 -0.00014282556 -0.0017328882 0.0033478062
0.0008475972 -0.0017661481 -0.00022817553 0.0008627188 -0.0014449749 -0.00036389026 -0.0026257597 -0.00094247755
-0.00154061 -0.0024135022 -0.00036155595 0.002944424 -1.3975996e-05 9.6029864e-05 -0.0006362438 0.0033251143
0.0023448798 -0.0018900962 -0.0010218489 -0.0016288271 0.0044901306 0.0017203104 -0.0002515562 -0.0011346433
-0.011509399 -0.010425609 -0.012595996 0.009214223 0.007947321 0.015301057 -0.011224325 0.008517817
-0.009674304 0.0097472 -0.012268333 -0.008975951 0.011126673 -0.007046815 -0.010911611 0.009192273
0.012729035 0.008051905 -0.006555998 -0.010857706 -0.010383679 -0.008898373 3.4281908e-05 0.010015131
0.011232541 -0.011543248 -0.007407255 -0.010949103 -0.011769127 0.0033034668 -0.009240722 0.011592485
0.3473131 0.34174022 0.346723 -0.23147854 -0.34594062 -0.34767652 -0.05331997 -0.07554282
0.35025933 -0.34377584 0.34898025 0.35255432 0.24472933 0.35073262 0.34980053 -0.3490445
0.27806905 -0.3474365 -0.3125754 0.34799048 0.3494476 0.34496623 0.29487413 -0.34745142
-0.34516478 0.34010366 -0.028953206 -0.2647981 -0.2509439 0.33646134 0.34904614 -0.34836763
-0.038683865 -0.039919358 -0.035299342 0.039426964 0.031253293 0.030125838 -0.040876366 0.038779765
-0.03276749 0.031524133 -0.04081185 -0.025950765 0.044302873 -0.036233403 -0.046005163 0.03306552
0.04284005 0.033749353 -0.040274646 -0.034512393 -0.040145263 -0.03536674 0.021477075 0.03089778
0.03603752 -0.03315861 -0.041348074 -0.04208903 -0.04150322 0.04098832 -0.041888088 0.034447085
0.07573343 0.07143762 0.077690266 -0.07007919 -0.07537814 -0.07728382 0.06776115 -0.06807619
0.07532389 -0.07664754 0.06891326 0.09013507 -0.07190926 0.07888123 0.06882357 -0.075741954
-0.0693742 -0.07456696 0.07045212 0.076485895 0.07204247 0.07034598 -0.09616459 -0.076779746
-0.07562285 0.0792684 0.07140824 0.065512866 0.07170157 -0.091531865 0.06982388 -0.076006435
00000000: e3f3 ab3e 177c 803e df8f 8d3e c067 573e
00000010: 106d d2be 006d e7be 7d28 9fbe 395a c83e
00000020: 5c18 dc3e 6b69 52be f4b2 b83e 110f f23e
00000030: 549e 0e3f afe2 d73e ce4a c83e 3227 c8be
00000040: 0caa c83e 2446 9cbe 87e3 09bf 6269 c63e
00000050: 8816 bc3e f721 c53e 3484 d13e 1e6a bcbe
00000060: 4a89 c7be 903f 9d3e 8de0 1abf f922 10bf
00000070: 40e7 dfbe 6d60 fe3e 49df bd3e 6e30 91be
00000080: 35e9 edb9 60a7 dbba 4f9f 083b f48a 2939
00000090: ea1f 853a ebf9 df37 3e2f e7ba a39d 20bb
000000a0: 6e9b 82ba 2b55 363b 3996 1c3b 3221 93bb
000000b0: 3f80 0d3a 9009 9b3a dc89 aeba f4a9 b5b7
000000c0: c0b1 39ba 6fd4 77ba e5d3 723a a223 26ba
000000d0: c23d 23ba f580 ef39 4f92 7b3a 05e5 503b
000000e0: f5a0 443b cede b339 9466 d7ba a21e 353a
000000f0: 8bfb 253a ff57 01bb 82f7 5a3b f815 c73a
00000100: c9ae 8c3a 0b2f 4f3b 99a7 03bb 0a05 5e3b
00000110: 382a f83a 20b5 15bb 4422 553a 9462 373b
00000120: 4196 c63a db65 873a febf 353a e534 06bb
00000130: 6af3 bb3a 9077 a5b9 b63e 07bb 9d86 a8ba
00000140: 246a 65b9 d723 423a 6395 0e3a c413 5b3a
00000150: 0d5c 8b3a 27ca 023b 60a2 983a 4163 dd3a
00000160: bce6 27bb aa06 49bb 7b43 273a 7c7d 2bba
00000170: da6e 14bb 7966 3cba 41b2 063b 5cfa c8ba
00000180: 91c9 01ba 8026 17ba 428f a5ba c567 e9ba
00000190: 30d8 92b9 72c3 15b9 1422 e3ba de66 5b3b
000001a0: 4931 5e3a 197e e7ba 6742 6fb9 1428 623a
000001b0: 5065 bdba 86c8 beb9 f014 2cbb 9910 77ba
000001c0: 4bee c9ba d92b 1ebb 388f bdb9 3df7 403b
000001d0: 727a 6ab7 a463 c938 99c9 26ba 29ea 593b
000001e0: 8eac 193b 1bbd f7ba 8fef 85ba 5e7e d5ba
000001f0: f221 933b 0a7c e13a 4de3 83b9 50b8 94ba
00000200: eb91 3cbc 2cd0 2abc 705f 4ebc 41f7 163c
00000210: 7b35 023c 49b1 7a3c 3be6 37bc 508e 0b3c
00000220: f980 1ebc b8b2 1f3c 1e01 49bc de0f 13bc
00000230: a64c 363c f8e8 e6bb 9dc6 32bc 309b 163c
00000240: 718d 503c 23ec 033c b3d3 d6bb 85e4 31bc
00000250: 4e20 2abc 7bca 11bc ebc9 0f38 8116 243c
00000260: b108 383c e41f 3dbc 8fb8 f2bb de63 33bc
00000270: 4cd3 40bc fa7e 583b 6666 17bc 68ee 3d3c
00000280: 06d3 b13e 93f8 ae3e ad85 b13e b608 6dbe
00000290: 211f b1be a802 b2be 0a66 5abd 32b6 9abd
000002a0: 3155 b33e 6303 b0be 8aad b23e 0082 b43e
000002b0: 539a 7a3e 3a93 b33e 0e19 b33e f6b5 b2be
000002c0: 115f 8e3e 32e3 b1be e209 a0be cf2b b23e
000002d0: ccea b23e 6a9f b03e bef9 963e 27e5 b1be
000002e0: 70b9 b0be 1122 ae3e 462f edbc 9e93 87be
000002f0: b87b 80be a944 ac3e 2db6 b23e 3e5d b2be
00000300: f972 1ebd 7b82 23bd 0b96 10bd 2b7e 213d
00000310: 7403 003d 76ca f63c fa6d 27bd 88d7 1e3d
00000320: 3437 06bd 731f 013d 542a 27bd b396 d4bc
00000330: ee76 353d 7a69 14bd e96f 3cbd b66f 073d
00000340: 0c79 2f3d c33c 0a3d 07f7 24bd de5c 0dbd
00000350: 5c6f 24bd b7dc 10bd b1f0 af3c 571d fd3c
00000360: 149c 133d 53d1 07bd 995c 29bd 8c65 2cbd
00000370: 48ff 29bd 5ee3 273d d892 2bbd 6318 0d3d
00000380: 211a 9b3d e34d 923d 131c 9f3d ae85 8fbd
00000390: db5f 9abd fb46 9ebd 5cc6 8a3d 886b 8bbd
000003a0: 6943 9a3d 63f9 9cbd 6522 8d3d bc98 b83d
000003b0: 2945 93bd 7b8c a13d 5ff3 8c3d 991e 9bbd
000003c0: 1014 8ebd 90b6 98bd 3349 903d a3a4 9c3d
000003d0: 018b 933d 8e11 903d f1f1 c4bd b33e 9dbd
000003e0: 27e0 9abd 7957 a23d 7c3e 923d 9c2b 863d
000003f0: 46d8 923d 0f75 bbbd d3ff 8e3d 43a9 9bbd

policy_net.6.bias f4 [21]
0.36111653 0.0 0.0 0.0 -0.011064765 0.3466841 -0.033432215 0.07463747
-0.053075626 0.23837826 0.025848318 0.10630834 0.08736603 0.0076550846 0.24587056 0.042122487
-0.0003512965 0.006945523 0.09631497 -0.09505844 -0.055756666
00000000: 44e4 b83e 0000 0000 0000 0000 0000 0000
00000010: fd48 35bc 9480 b13e 38f0 08bd 88db 983d
00000020: d465 59bd 6e19 743e dabf d33c 30b8 d93d
00000030: f6ec b23d 81d7 fa3b 7ec5 7b3e a188 2c3d
00000040: 382e b8b9 4597 e33b c840 c53d 00ae c2bd
00000050: 1a61 64bd

value_net.0.weight f4 [32, 460]
-0.191415 -0.043230962 -0.06414975 -0.07829802 0.06919513 0.0611791 -0.085907675 0.010178188
0.09882972 -0.09653289 0.29274613 -0.010197853 -0.04475425 -0.3612504 -0.05624238 0.094648525
0.059582546 0.09358251 0.054426175 0.2999926 0.010098966 -0.07190031 -0.0021384757 0.094618395
-0.3137473 0.016480763 0.023153009 -0.0709673 -0.10138552 0.09749234 -0.11641096 0.022995306
-0.043398492 -0.033411928 -0.21583505 -0.006481586 0.011737034 -0.0018911512 0.06862859 -0.01189856
-0.08778053 -0.14601141 0.114092804 -0.1434785 0.011771073 -0.09961058 -0.034274362 -0.097732484
-0.035799067 -0.039993744 -0.00077168056 -0.023444027 0.066721365 -0.029713206 0.09344545 -0.07906831
-0.013474419 -0.006482642 0.010223371 -0.00036232502 -0.065315075 -0.06499455 -0.04131795 0.072307296
0.03594026 -0.0667957 0.059645485 0.015531071 0.0780123 -0.20129348 -0.103297606 -0.044436928
-0.0054227603 -0.19525613 -0.18252374 -0.16307983 -0.14276232 0.035269022 -0.08691616 0.18999629
-0.12562086 0.03367739 0.029225498 -0.16033213 0.037813183 -0.05028581 0.012721216 -0.03775489
0.027630255 0.14372237 -0.11761677 -0.09554167 -0.0071577663 -0.14434923 -0.12041344 -0.02735432
0.01169909 -0.06090496 -0.058918264 -0.04825907 -0.019018395 -0.013089608 -0.02783705 -0.16652644
-0.18310042 -0.08877427 -0.109186575 0.00603049 -0.05676451 0.04626977 -0.05433663 -0.03655794
0.14293186 -0.25621238 0.26472405 -0.056406785 0.08930202 0.09201398 0.019609703 -0.009314576
-0.12141393 -0.026199238 0.011735435 0.0011785072 -0.03633686 -0.10633089 0.014109794 0.0045611532
-0.32476202 0.013760571 -0.11143271 0.04326581 -0.002880935 -0.07713918 -0.07568626 -0.04030177
-0.07265132 0.026443763 0.11333363 -0.13396373 -0.1155045 -0.13049515 -0.25779122 -0.009785121
-0.016557747 -0.019520583 0.052274104 -0.014156295 -0.02289498 -0.080704 -0.002243271 -0.084914714
0.050021477 0.0712081 -0.018767878 -0.059239104 -0.03229773 -0.08878409 0.04909583 -0.023897626
-0.13380693 0.08492518 0.08138745 0.04808692 -0.13089094 -0.16346662 -0.08594936 0.045346227
-0.122512236 -0.06671421 0.054502062 0.0034846968 0.020710677 0.025281904 0.1285537 -0.00913922
0.01267957 -0.21024688 0.12507617 -0.11722011 -0.09718811 -0.04282816 0.0806992 0.07766877
0.004294579 -0.06460524 -0.047327757 0.094828896 -0.06242724 -0.02933567 -0.17542146 -0.02295665
0.0934522 -0.13143414 -0.0073491666 0.024705192 -0.14408591 0.13224566 0.036457803 -0.0060697724
0.10463839 -0.013911986 -0.06381183 0.14074303 -0.14900781 -0.022063931 0.09499126 0.012319857
0.06327223 -0.06178275 -0.050115854 -0.059804298 -0.043979924 0.04550918 -0.11338784 -0.020835644
0.08203645 -0.09038565 -0.1213348 0.086334325 0.0026955747 -0.012961854 0.21026325 -0.18318602
-0.045860782 -0.037587993 -0.03106757 -0.05895739 -0.06628545 -0.015920997 -0.16546133 -0.06726253
-0.07024716 -0.07969664 -0.085763544 -0.11815824 -0.07672318 0.020993246 0.10348482 -0.17870018
-0.18965578 0.042763434 -0.1542449 -0.06734899 0.070800774 -0.18650416 0.16457076 -0.19446048
0.19570272 -0.043224547 0.050748214 -0.072083496 0.030455714 0.049333237 -0.075343736 -0.026250904
00000000: 4b02 44be f312 31bd f260 83bd b65a a0bd
00000010: 2db6 8d3d f096 7a3d 5df0 afbd 6ac2 263c
00000020: 3c67 ca3d 09b3 c5bd d2e2 953e e514 27bc
00000030: 3c50 37bd d0f5 b8be 695e 66bd 16d7 c13d
00000040: d40c 743d 30a8 bf3d fbed 5e3d a198 993e
00000050: 2276 253c 7840 93bd ab25 0cbb 4ac7 c13d
00000060: 7ca3 a0be aa02 873c 61ab bd3c 4e57 91bd
00000070: 36a3 cfbd 10aa c73d df68 eebd a760 bc3c
00000080: 9ec2 31bd f2da 08bd dd03 5dbe 7c63 d4bb
00000090: b04c 403c 81e0 f7ba 258d 8c3d 2ef2 42bc
000000a0: 47c6 b3bd 0484 15be 7da9 e93d 07ec 12be
000000b0: 75db 403c a200 ccbd 4663 0cbd f827 c8bd
000000c0: 0ba2 12bd 7bd0 23bd 9b4a 4aba b00d c0bc
000000d0: 36a5 883d 1c69 f3bc 5460 bf3d 91ee a1bd
000000e0: cfc3 5cbc 586c d4bb ed7f 273c 71f6 bdb9
000000f0: e9c3 85bd dd1b 85bd 033d 29bd d915 943d
00000100: 1836 133d 2fcc 88bd d34e 743d 0976 7e3c
00000110: eac4 9f3d e11f 4ebe b28d d3bd 7f03 36bd
00000120: 69b1 b1bb 39f1 47be 81e7 3abe 66fe 26be
00000130: 4930 12be 4076 103d 1a01 b2bd 638e 423e
00000140: c1a2 00be 4ef1 093d 506a ef3c 1b2e 24be
00000150: ffe1 1a3d 7ef8 4dbd a66c 503c dfa4 1abd
00000160: d858 e23c f52b 133e 10e1 f0bd 5aab c3bd
00000170: b28b eabb 49d0 13be 529b f6bd 2b16 e0bc
00000180: 8aad 3f3c 7b77 79bd 4754 71bd 4dab 45bd
00000190: 77cc 9bbc cc75 56bc 860a e4bc e885 2abe
000001a0: ad7e 3bbe 49cf b5bd 369d dfbd 6b9b c53b
000001b0: e781 68bd 5f85 3d3d 1690 5ebd c7bd 15bd
000001c0: bb5c 123e 452e 83be e989 873e cd0a 67bd
000001d0: fae3 b63d d371 bc3d 87a4 a03c 2a9c 18bc
000001e0: dea7 f8bd c99f d6bc fb45 403c 2478 9a3a
000001f0: f6d5 14bd 02c4 d9bd c42c 673c ba75 953b
00000200: 3547 a6be 0574 613c d536 e4bd 7d37 313d
00000210: 12ce 3cbb 25fb 9dbd 6601 9bbd 7813 25bd
00000220: 37ca 94bd 97a0 d83c 761b e83d ca2d 09be
00000230: a08d ecbd 85a0 05be 36fd 83be c651 20bc
00000240: 1da4 87bc a1e9 9fbc 5f1d 563d ceef 67bc
00000250: 418e bbbc 2448 a5bd d803 13bb c4e7 adbd
00000260: 52e3 4c3d 8dd5 913d 18bf 99bc b4a4 72bd
00000270: a04a 04bd 6fd4 b5bd b618 493d f4c4 c3bc
00000280: af04 09be 41ed ad3d 77ae a63d caf6 443d
00000290: 4608 06be cb63 27be 3806 b0bd f7bc 393d
000002a0: b2e7 fabd 76a1 88bd 8e3d 5f3d 835f 643b
000002b0: 70a9 a93c ff1b cf3c 95a3 033e abbc 15bc
000002c0: f9bd 4f3c f54a 57be f813 003e 1911 f0bd
000002d0: 8f0a c7bd 956c 2fbd 9f45 a53d ce10 9f3d
000002e0: 8ab9 8c3b c14f 84bd c0da 41bd a735 c23d
000002f0: b5b3 7fbd 5c51 f0bc afa1 33be 960f bcbc
00000300: de63 bf3d ac96 06be 47d1 f0bb 8b62 ca3c
00000310: 428b 13be 686b 073e c754 153d f1e4 c6bb
00000320: a74c d63d 19ef 63bc c7af 82bd f11e 103e
00000330: 8195 18be 6bbf b4bc c78a c23d 3ad9 493c
00000340: df94 813d e90f 7dbd 4846 4dbd 5af5 74bd
00000350: 4b24 34bd d567 3a3d e237 e8bd 83af aabc
00000360: ba02 a83d 1d1c b9bd 617e f8bd 0dd0 b03d
00000370: 3da8 303b f55d 54bc 404f 573e 1e95 3bbe
00000380: 84d8 3bbd def5 19bd 6b81 febc 4e7d 71bd
00000390: aac0 87bd c06c 82bc b26e 29be f0c0 89bd
000003a0: bedd 8fbd fe37 a3bd cca4 afbd f3fc f1bd
000003b0: 0b21 9dbd 07fa ab3c d9ef d33d 2efd 36be
000003c0: 2035 42be b628 2f3d 60f2 1dbe 44ee 89bd
000003d0: ffff 903d f2fa 3ebe 3d85 283e a620 47be
000003e0: 4b66 483e 390c 31bd 5cdd 4f3d 83a0 93bd
000003f0: 437e f93c a611 4a3d d14d 9abd 230c d7bc

value_net.0.bias f4 [32]
-0.06389161 -0.02881025 -0.013240019 -0.057712503 -0.04034663 -0.048951536 0.008063667 -0.013792588
0.06948965 0.028633503 0.014400726 -0.05478461 -0.04548215 -0.03314466 0.055333138 0.002353699
-0.0092504 -0.027612261 0.034645658 -0.048566826 -0.01644902 0.04221393 -0.052109975 -0.071407236
-0.023014814 -0.06512463 0.024750374 -0.03661119 0.042179976 0.025227614 0.053936347 0.053831752
00000000: 9bd9 82bd 7903 ecbc aaec 58bc f263 6cbd
00000010: 8242 25bd 6881 48bd 791d 043c 4ffa 61bc
00000020: 9750 8e3d cf90 ea3c 06f1 6b3c d465 60bd
00000030: 7e4b 3abd b2c2 07bd 00a5 623d 8440 1a3b
00000040: fd8e 17bc 1c33 e2bc 9be8 0d3d 02ee 46bd
00000050: 18c0 86bc 84e8 2c3d 4571 55bd f53d 92bd
00000060: 9089 bcbc 1060 85bd 4cc1 ca3c 9df5 15bd
00000070: e9c4 2c3d 24aa ce3c 5cec 5c3d af7e 5c3d

value_net.2.weight f4 [32, 32]
0.11973007 0.5654596 0.048989 -0.10797893 0.08253259 0.27723375 0.17655641 0.08125477
0.19636744 -0.13995352 0.11570903 -0.044614006 -0.30120465 0.38992938 -0.21337722 -0.39883745
-0.012788021 0.9126126 -0.23629531 0.014439733 0.19070378 -0.18445766 0.18855731 0.08623407
-0.09451933 -0.14653629 -0.061039746 0.2943612 0.17503679 -0.39566785 -0.37628964 0.18117107
0.050316475 -0.60659033 0.048126124 -0.35537112 -0.27342296 -0.05989184 0.02533143 -0.03533961
-0.19595666 -0.11031813 -0.29310694 -0.056737695 -0.62232053 0.023661522 -0.6629611 -0.29278377
0.107719205 -0.32757774 -0.03534997 -0.29083133 -0.16150951 -0.13462357 -0.35293007 -0.5580391
-0.105016984 -0.047097605 0.11261762 -0.082327925 -0.08262978 0.09857203 0.2220665 0.05183554
-0.088992566 -0.058244642 0.04599943 0.35580313 0.03640666 -0.0628874 0.09637296 0.5038944
0.10408056 0.19115514 0.08303323 -0.24354799 -3.71372e-05 0.18669906 -0.5164335 0.6422791
-0.064046614 -0.19737838 0.1153513 -0.53302914 -0.10491914 0.22875237 -0.18201634 -0.191339
0.17549756 -0.35846946 -0.18324956 -0.2516266 0.20946313 0.02788356 0.25166118 -0.34847718
-0.15877102 -0.23466827 -0.4935591 -0.14876737 -0.28869382 0.014357508 0.063527614 -0.06595853
0.041091125 0.3219572 0.109839976 0.13625637 -0.23741591 0.00652256 0.034271784 0.00957754
-0.4771002 0.30216664 0.35791883 -0.2952693 -0.47421393 -0.64069915 0.110119365 0.3668072
-0.28536412 -0.0061205532 -0.033764593 -0.43496078 0.040744003 0.30636746 0.35641363 -0.054382864
-0.2793008 -0.27677593 0.61727947 -0.27008256 0.38387755 0.19974646 0.36896166 0.13695826
0.13086344 0.1980208 -0.2687231 0.058471434 -0.042792715 -0.1337894 0.08588523 -0.060541704
-0.29229286 0.071386546 -0.48894897 -0.05424648 0.134215 0.15703075 -0.0051448517 0.1936626
0.4572245 -0.040738247 0.33606493 -0.23557156 -0.5469423 -0.07840914 0.10521736 -0.12504388
0.19394284 -0.42960954 0.16687633 0.27162123 -0.052468672 -0.3304731 0.1619983 -0.53195125
0.07090531 -0.19372262 0.2537256 0.078509346 -0.25013885 0.058473963 -0.09001688 0.3338752
0.48304564 0.18223207 -0.22177514 -0.09299342 -0.17543888 0.08012002 0.399871 0.28880304
0.36367458 0.22309604 -0.014419181 0.29081345 -0.27686456 0.091091216 -0.5013598 -0.31405193
0.413492 0.046217468 -0.07223166 0.02616544 -0.024471024 0.06784434 0.31953266 0.13852209
0.27274388 -0.203862 0.07349867 0.36496517 0.21845359 -0.19068281 -0.52789754 -0.02538104
0.61868834 -0.3720673 -0.11645707 0.073205106 0.19613272 -0.43303677 -0.30677345 0.42544335
0.06054681 -0.16183698 0.15727781 -0.17358269 -0.090738595 0.19679165 -0.4110802 -0.38154298
-0.11776464 0.254531 -0.033591036 -0.27252465 -0.38070372 -0.119212866 0.15676822 0.132012
-0.24343835 0.543239 0.20049089 -0.050416835 0.15063007 -0.29834992 -0.08833168 0.033077255
-0.03671545 -0.17845504 0.082683876 -0.25467303 -0.54459745 -0.16828561 0.02662441 -0.1518703
0.25568914 -0.117138565 0.3854866 0.21401574 0.37037745 0.26142496 -0.07569284 0.8066546
00000000: 0a35 f53d f6c1 103f b1a8 483d 0f24 ddbd
00000010: d906 a93d 95f1 8d3e 34cb 343e e768 a63d
00000020: 8c14 493e fa4f 0fbe dbf8 ec3d 2dbd 36bd
00000030: 7f37 9abe d3a4 c73e 8f7f 5abe 6c34 ccbe
00000040: d984 51bc fba0 693f 66f7 71be a194 6c3c
00000050: da47 433e 78e2 3cbe 2b15 413e 7d9b b03d
00000060: 5a93 c1bd 9c0d 16be d004 7abd 83b6 963e
00000070: d83c 333e fa94 cabe 09a9 c0be e984 393e
00000080: a618 4e3d 8149 1bbf e61f 453d 34f3 b5be
00000090: 18fe 8bbe 2551 75bd dc83 cf3c 44c0 10bd
000000a0: dda8 48be 79ee e1bd 1d12 96be c965 68bd
000000b0: 6650 1fbf cfd5 c13c d2b7 29bf c1e7 95be
000000c0: e39b dc3d 45b8 a7be 21cb 10bd d8e7 94be
000000d0: c062 25be c3da 09be 40b3 b4be a7db 0ebf
000000e0: 2513 d7bd 6be9 40bd 11a4 e63d 8b9b a8bd
000000f0: cd39 a9bd 22e0 c93d 6765 633e 8151 543d
00000100: bc41 b6bd ef91 6ebd e669 3c3d d42b b63e
00000110: 261f 153d 1ccb 80bd 305f c53d 39ff 003f
00000120: 3028 d53d 2cbe 433e 530d aa3d a564 79be
00000130: c4c3 1bb8 0a2e 3f3e fc34 04bf 676c 243f
00000140: df2a 83bd 8f1d 4abe 4d3d ec3d 9974 08bf
00000150: d9df d6bd 103e 6a3e 7e62 3abe 5fee 43be
00000160: a2b5 333e 4f89 b7be c6a5 3bbe 34d5 80be
00000170: 817d 563e 106c e43c bcd9 803e 9a6b b2be
00000180: df94 22be e14c 70be c7b3 fcbe 7956 18be
00000190: adcf 93be c13b 6b3c c41a 823d 4415 87bd
000001a0: 2b4f 283d 93d7 a43e c8f3 e03d ca86 0b3e
000001b0: 281d 73be 33bb d53b 9260 0c3d 1deb 1c3c
000001c0: 7a46 f4be 96b5 9a3e 2341 b73e 8a2d 97be
000001d0: 2bcc f2be dc04 24bf 4386 e13d 27ce bb3e
000001e0: 3f1b 92be ec8e c8bb be4c 0abd 2eb3 debe
000001f0: 2fe3 263d 32dc 9c3e d97b b63e 91c0 5ebd
00000200: 8400 8fbe 93b5 8dbe 0706 1e3f 4348 8abe
00000210: 998b c43e 568a 4c3e 8be8 bc3e c93e 0c3e
00000220: 1101 063e f7c5 4a3e 1396 89be be7f 6f3d
00000230: 6a47 2fbd 1700 09be 98e4 af3d 94fa 77bd
00000240: 69a7 95be 1c33 923d 8557 fabe 8f31 5ebd
00000250: a86f 093e abcc 203e 2596 a8bb 7d4f 463e
00000260: 5419 ea3e 26dd 26bd b410 ac3e ac39 71be
00000270: 6904 0cbf f994 a0bd 337c d73d 810b 00be
00000280: f498 463e c8f5 dbbe a1e1 2a3e f011 8b3e
00000290: 64e9 56bd c533 a9be e2e2 253e f52d 08bf
000002a0: ce36 913d 395f 46be 52e8 813e 82c9 a03d
000002b0: 3312 80be 6582 6f3d c55a b8bd b1f1 aa3e
000002c0: c251 f73e 0b9b 3a3e 0619 63be 5673 bebd
000002d0: 40a6 33be f715 a43d e4bb cc3e fedd 933e
000002e0: 8e33 ba3e 4a73 643e 6e3e 6cbc 80e5 943e
000002f0: 31c1 8dbe 088e ba3d 1e59 00bf 6acb a0be
00000300: 39b5 d33e 874e 3d3d 31ee 93bd e858 d63c
00000310: 7577 c8bc f9f1 8a3d c999 a33e bcd8 0d3e
00000320: 16a5 8b3e 33c1 50be 7886 963d b7dc ba3e
00000330: 4cb2 5f3e 5b42 43be 4b24 07bf e6eb cfbc
00000340: 5c62 1e3f 9b7f bebe 0b81 eebd 8fec 953d
00000350: 04d7 483e ffb6 ddbe 6911 9dbe b6d3 d93e
00000360: efff 773d 98b8 25be 6f0d 213e a9bf 31be
00000370: 28d5 b9bd c083 493e 1b79 d2be 9a59 c3be
00000380: 962e f1bd e351 823e c196 09bd 5a88 8bbe
00000390: 99eb c2be e025 f4bd d987 203e 272e 073e
000003a0: e747 79be b611 0b3f 7c4d 4d3e e281 4ebd
000003b0: c53e 1a3e 52c1 98be 3de7 b4bd 047c 073d
000003c0: f162 16bd ebbc 36be 2a56 a93d 8164 82be
000003d0: bd6a 0bbf 1053 2cbe 6f1b da3c e383 1bbe
000003e0: b0e9 823e 58e6 efbd 805e c53e f126 5b3e
000003f0: 1da2 bd3e 7ed9 853e d904 9bbd ea80 4e3f

value_net.2.bias f4 [32]
-0.07003595 0.08588439 0.05719288 0.14475727 -0.090276696 -0.08325587 -0.050321106 0.13662122
0.056910668 0.052484345 0.06916122 -0.018263366 0.13110943 -0.0052483534 -0.011127915 0.07322764
0.017899306 -0.08115619 -0.031301912 -0.097929075 0.06443567 0.050918624 0.0548982 0.026858727
-0.1736619 -0.06547031 -0.030563438 -0.017486041 0.006031137 0.009254692 -0.07841826 0.06420752
00000000: 026f 8fbd 28e4 af3d 1543 6a3d 403b 143e
00000010: fde2 b8bd 0e82 aabd 811d 4ebd 6fe6 0b3e
00000020: 291b 693d d3f9 563d 66a4 8d3d 0e9d 95bc
00000030: 8d41 063e 61fa abbb dc51 36bc 5ff8 953d
00000040: 91a1 923c 3735 a6bd 6f36 00bd 0a8f c8bd
00000050: d9f6 833d 0c90 503d efdc 603d d506 dc3c
00000060: 6dd4 31be 4c15 86bd 2d60 fabc e33e 8fbc
00000070: d8a0 c53b fea0 173c c199 a0bd 3b7f 833d

value_net.4.weight f4 [32, 32]
-0.31114808 0.07434433 -0.12905194 -0.084763214 -0.18377352 -0.12101615 -0.16026652 0.38959688
-0.23958275 -0.4450472 0.049692266 0.43013638 -0.18693736 -0.002695773 -0.26085785 -0.026180048
-0.12479795 0.19546176 0.26303974 0.030995281 -0.042447176 0.2358476 0.05534866 -0.899055
0.1823938 0.47739467 0.2952119 0.07556737 -0.17425661 -0.2819185 0.23152174 -0.09167288
0.018361883 -0.37877253 -0.29132354 0.3618729 -0.52179515 0.3322794 0.19400813 0.19186121
-0.16704333 0.16407135 -0.04574598 0.08891699 0.06889071 0.25475645 0.10191887 0.30611345
0.2676719 0.29013288 0.29382902 -0.106426634 -0.30500993 -0.27177083 -0.014713342 -0.5353055
0.05127672 0.386199 0.4051535 -0.51535803 0.28962106 -0.1411355 -0.5583281 0.19263999
0.30750844 -0.37294573 -0.4290809 -0.3817778 0.04182036 0.032795805 -0.17934515 -0.3202647
0.2633783 -0.29072073 0.17837429 -0.09414381 -0.50790197 -0.19529139 -0.17827673 0.2720449
0.095473066 -0.3760654 0.0131999925 -0.1736973 -0.32981154 -0.46358946 -0.41982266 -0.011072901
0.103265375 0.06272925 0.2872657 0.32706124 -0.1559059 -0.64213544 0.18306142 0.07203316
0.14515142 -0.21369779 -0.09949231 -0.11830264 0.024849866 -0.14545055 -0.15718214 0.06792281
-0.14000171 0.2783516 0.12443342 -0.34429437 0.07237155 0.3138957 0.28929615 0.52390635
0.38879165 -0.1167416 -0.08998933 0.44289517 0.49756363 0.7026206 -0.2709334 0.3217827
-0.17885819 0.0027288636 -0.23544644 0.57907 0.15410355 0.076486155 0.11902748 0.15896198
0.09076697 -0.16517375 -0.57390493 -0.32165942 0.22700012 0.5479552 0.7540626 -0.0030345034
0.03107724 0.08688386 0.46129894 -0.09052331 0.028939115 0.44223553 0.03252157 -0.64675534
-0.034319006 0.5197374 -0.13754396 -0.13677585 -0.08091088 0.21385215 0.30032963 -0.32906428
0.21023908 -0.18858223 -0.13355868 -0.09434588 -0.11235749 0.047395837 0.07394682 -0.06578442
0.20691057 -0.14769164 -0.1957044 0.2925446 0.5241462 0.1370308 -0.032229654 0.34413004
0.18185543 0.3034048 -0.1375383 0.6618637 0.05290633 0.024920246 -0.52578586 0.1115584
0.14457603 -0.101485685 -0.015645841 0.09603272 -0.15271148 0.24686617 -0.0875202 -0.215824
-0.3432704 -0.21563096 0.13357173 -0.5805609 0.24937849 -0.31628525 0.1875651 -0.24788968
0.49918038 0.3789691 0.17674129 0.30244178 0.07470492 -0.19616325 0.11308787 0.22524454
-0.18489094 -0.0208076 -0.018174406 0.12619437 0.14033237 -0.052391183 0.7943467 0.27141398
-0.06498332 0.111294225 0.14862546 -0.020337163 0.17224135 0.02362553 0.18892668 0.3073796
0.30975303 -0.1961273 -0.36275527 0.11202647 0.17364626 -0.42818022 0.43633848 0.11753168
-0.08624976 0.08792763 -0.26078314 0.12939592 -0.26114824 0.194584 0.075353995 -0.2688229
0.23945165 0.0018474502 0.044972647 0.44942313 -0.41757163 0.12386606 -0.16466853 -0.15150945
-0.33210093 0.016076215 0.37909207 0.30119634 0.24419601 0.002686719 -0.58985263 0.26960406
0.37325528 -0.12490877 -0.5427406 0.16937363 0.07698991 -0.12165451 -0.3453154 -0.18057983
00000000: cd4e 9fbe d741 983d 3126 04be 5698 adbd
00000010: 202f 3cbe 51d7 f7bd e81c 24be 3e79 c73e
00000020: 2e55 75be 3add e3be 1e8a 4b3d d63a dc3e
00000030: 826c 3fbe 91ab 30bb 298f 85be 8a77 d6bc
00000040: 1196 ffbd 2127 483e 25ad 863e d1e9 fd3c
00000050: 17dd 2dbd 0982 713e 47b5 623d 7828 66bf
00000060: 71c5 3a3e 136d f43e 0426 973e 11c3 9a3d
00000070: 5370 32be 9f57 90be 0914 6d3e febe bbbd
00000080: a96b 963c 79ee c1be 5c28 95be 6847 b93e
00000090: 5e94 05bf 8720 aa3e 11aa 463e 4477 443e
000000a0: 680d 2bbe 5202 283e 2360 3bbd 1c1a b63d
000000b0: 9316 8d3d 706f 823e d7ba d03d e7ba 9c3e
000000c0: 4b0c 893e 4c8c 943e c270 963e 35f6 d9bd
000000d0: 432a 9cbe 8c25 8bbe 3b10 71bc c809 09bf
000000e0: 8a07 523d e0bb c53e 4870 cf3e 81ee 03bf
000000f0: 3649 943e d385 10be 97ee 0ebf 6b43 453e
00000100: bf71 9d3e bef2 bebe 7eb0 dbbe 6178 c3be
00000110: d34b 2b3d e554 063d 41a6 37be bcf9 a3be
00000120: 85d9 863e 59d9 94be c0a7 363e 78ce c0bd
00000130: dd05 02bf 77fa 47be 2d8e 36be 7849 8b3e
00000140: 6287 c33d a58b c0be c844 583c b4dd 31be
00000150: 0fdd a8be 995b edbe fff2 d6be 1d6b 35bc
00000160: cc7c d33d 3178 803d 7d14 933e 9274 a73e
00000170: cca5 1fbe fd62 24bf 7474 3b3e 1f86 933d
00000180: 93a2 143e 98d3 5abe a0c2 cbbd a848 f2bd
00000190: f291 cb3c fdf0 14be 5bf4 20be 1d1b 8b3d
000001a0: 9c5c 0fbe 1a84 8e3e f3d6 fe3d 5a47 b0be
000001b0: 8937 943d f0b6 a03e a01e 943e ba1e 063f
000001c0: b30f c73e 3816 efbd 534c b8bd 28c3 e23e
000001d0: a9c0 fe3e f2de 333f c8b7 8abe b4c0 a43e
000001e0: 9a26 37be bcd6 323b df18 71be ee3d 143f
000001f0: 52cd 1d3e c6a4 9c3d aec4 f33d eec6 223e
00000200: 08e4 b93d 4f23 29be 6feb 12bf 8bb0 a4be
00000210: b872 683e cb46 0c3f 3f0a 413f 85de 46bb
00000220: b295 fe3c 2af0 b13d 602f ec3e 4964 b9bd
00000230: b911 ed3c b26c e23e 5635 053d c291 25bf
00000240: 1692 0cbd 830d 053f 53d8 0cbe f80e 0cbe
00000250: 9ab4 a5bd 0ffc 5a3e cec4 993e 1d7b a8be
00000260: ea48 573e b31b 41be 9bc3 08be 6a38 c1bd
00000270: af1b e6bd 2322 423d 6e71 973d fbb9 86bd
00000280: 5de0 533e 7a3c 17be bc66 48be 68c8 953e
00000290: 722e 063f cd51 0c3e 3e03 04bd d031 b03e
000002a0: 4f38 3a3e e057 9b3e d7d6 0cbe e66f 293f
000002b0: 4fb4 583d 8b25 cc3c e799 06bf bb78 e43d
000002c0: bd0b 143e bad7 cfbd b52b 80bc cdac c43d
000002d0: 6660 1cbe 7cca 7c3e ca3d b3bd f700 5dbe
000002e0: 23c1 afbe 5dce 5cbe 07c7 083e a49f 14bf
000002f0: 135d 7f3e 24f0 a1be 1111 403e cbd6 7dbe
00000300: 9294 ff3e 3d08 c23e abfb 343e a6d9 9a3e
00000310: e5fe 983d 05df 48be 9d9a e73d 81a6 663e
00000320: 0d54 3dbe b374 aabc 7ee2 94bc 1939 013e
00000330: 4ab3 0f3e 2398 56bd 4e5a 4b3f c6f6 8a3e
00000340: fa15 85bd 3aee e33d 4631 183e 1f9a a6bc
00000350: 0960 303e 548a c13c ff75 413e dc60 9d3e
00000360: f397 9e3e 98d5 48be 0fbb b9be 226e e53d
00000370: 53d0 313e 703a dbbe c267 df3e 73b4 f03d
00000380: b7a3 b0bd 6713 b43d 5e85 85be 5d80 043e
00000390: 39b5 85be 0741 473e 3253 9a3d 28a3 89be
000003a0: d032 753e 2426 f23a 3d35 383d ca1a e63e
000003b0: f3cb d5be 7dad fd3d de9e 28be 4b25 1bbe
000003c0: 2209 aabe 44b2 833c 5b18 c23e 6836 9a3e
000003d0: 850e 7a3e aa13 303b 9500 17bf 8b09 8a3e
000003e0: 511b bf3e 2bd0 ffbd 0cf1 0abf 4870 2d3e
000003f0: e3ac 9d3d 0026 f9bd 2ecd b0be ebe9 38be

value_net.4.bias f4 [32]
-0.040415797 0.07029503 -0.09328015 -0.06607748 -0.048854675 0.0007418391 -0.016491227 -0.14674884
0.08394121 -0.19871306 0.039238803 0.004516438 0.16503616 -0.015110646 0.00331828 -0.09581982
-0.09237572 0.031523973 0.12956645 0.0014140193 -0.11295691 -0.16725044 -0.065287635 0.06830813
0.048911843 0.059240736 -0.11096306 -0.013302975 0.07038891 0.13567212 0.052100264 0.09412953
00000000: 098b 25bd d7f6 8f3d aa09 bfbd a153 87bd
00000010: d71b 48bd fb77 423a 9c18 87bc 5445 16be
00000020: 5ee9 ab3d 707b 4bbe deb8 203d a1fe 933b
00000030: 3dff 283e a592 77bc 8077 593b 2f3d c4bd
00000040: 7b2f bdbd 481f 013d 11ad 043e 9d56 b93a
00000050: f455 e7bd b343 2bbe 86b5 85bd 22e5 8b3d
00000060: c957 483d 6aa6 723d 9a40 e3bd b9f4 59bc
00000070: 1028 903d a2ed 0a3e 1667 553d fcc6 c03d

value_net.6.weight f4 [1, 32]
-0.047217656 -0.15460183 0.322382 0.14279357 -0.5424782 -0.020201596 0.03287741 0.104735315
-0.06273535 0.18898553 0.334294 -0.0036900651 -0.33467427 0.017149378 0.2747767 0.2717698
0.15194167 -0.18180266 -0.23853643 0.0022462895 0.24704422 0.17897013 0.011464219 -0.0056222323
-0.18249191 -0.22963932 0.12582308 0.0120613575 0.011625983 -0.061509512 -0.40778622 -0.13199784
00000000: 4d67 41bd f14f 1ebe 410f a53e 7a38 123e
00000010: dadf 0abf d17d a5bc 77aa 063d 787f d63d
00000020: 647b 80bd 6c85 413e 9528 ab3e 05d5 71bb
00000030: 6d5a abbe da7c 8c3c 88af 8c3e 6925 8b3e
00000040: 9996 1b3e 7a2a 3abe e542 74be 7c36 133b
00000050: 29f9 7c3e f243 373e 6bd4 3b3c b43a b8bb
00000060: 29df 3abe 9226 6bbe c4d7 003e 009d 453c
00000070: e87a 3e3c 66f1 7bbd 5bc9 d0be 712a 07be
