MAPPO/Graph_H/save/HY_T6/agent_12_MAPPO_r.pt (torch, 28570 bytes, 15 tensors)

policy_net.module_0.bias f4 [32]
00000000: 65b2 3c3d 76fd f3bc c9c6 023d d462 e3bc
00000010: 7b1b 953b 0afb 8fbd c73f fa3c 2faa 203d
00000020: a0d0 21bb a2ab 023d 5ba2 a4bd 6e2a e1bd
00000030: 946d 25ba 177c a6bd e9de fb3b 2258 ce3c
00000040: c192 e53c 6e33 8f3d c924 29bd 0b48 b03c
00000050: 9afe 1d3d 24cb 1b3d 4e07 25bd 5147 25bd
00000060: 7981 2dbd afd6 963d c628 e4bc 70d1 50bc
00000070: 93fc 393c 8962 e6bb 82bb 41bd 232e acbc
0.046068568 -0.029783946 0.031927858 -0.027757086 0.004550395 -0.07030304 0.03054799 0.0392248
-0.0024691 0.031901963 -0.08038779 -0.10994421 -0.0006310579 -0.08129137 0.007686485 0.02518851
0.02802408 0.06992231 -0.041294847 0.021518728 0.038572885 0.038035527 -0.04029017 -0.040351216
-0.042359803 0.073651664 -0.027851474 -0.012745246 0.011351722 -0.0070307893 -0.047297962 -0.021018093

policy_net.module_0.lin.weight f4 [32, 2]
00000000: f5bb 80be e45b 6b3d e21b 7b3e 0650 c03e
00000010: 8073 7dbe 1218 d4be 8d4b c93d 5666 82be
00000020: c594 76bd ca36 e03d b140 123a c418 c53b
00000030: e8da 6cbd 2585 08be 7c21 ff3c 01f9 9dbe
00000040: 0eb6 c4bc 1e9d b23d e5c5 733d f9be 8bbd
00000050: 2daf ac3e 89b4 53be cad6 483f d2e7 9abe
00000060: cf20 3abe 8e83 ae3e 2e0b 143e db63 9ebd
00000070: 83c5 d0bd 668f a53d 6f4a 14be 533c 47be
00000080: 6624 89be 8568 8ebe 0235 b3be b7aa 15be
00000090: 0d97 ce3d 3bf1 75bd 3e09 85bd 44bc 02be
000000a0: 2356 dfbe 61ac d7be c3de 08bf f2fb 97be
000000b0: bc19 083f 2bcc 343f 9f84 4a3e 3d34 713d
000000c0: 96ad fc3d 3d2e 56be 9d8a 81be 342c d6be
000000d0: b853 2cbc 6519 c33e aa00 03be 245a a43e
000000e0: 4e31 18be c00e a33d 6fe0 d43e 3409 93be
000000f0: 0fee b93e d058 c13d 85c5 863d 21e3 503e
-0.251434 0.05746068 0.24522355 0.37561053 -0.24751091 -0.41424614 0.09828863 -0.254687
-0.06020047 0.1094795 0.0005579098 0.006014915 -0.057825953 -0.1333204 0.031143896 -0.30854037
-0.024012592 0.08721374 0.0595149 -0.068235345 0.337274 -0.20674337 0.7845274 -0.3025499
-0.18176578 0.34084743 0.1445739 -0.0773389 -0.10193922 0.08083992 -0.14481519 -0.19456606
-0.26785582 -0.27814117 -0.3500138 -0.14615904 0.100874044 -0.06004451 -0.064959034 -0.1276713
-0.43620405 -0.42123702 -0.5346491 -0.29684407 0.5316427 0.70624036 0.19777153 0.05888771
0.123377964 -0.20916076 -0.25301066 -0.418306 -0.010518007 0.38105312 -0.12793222 0.32100022
-0.14862558 0.07961798 0.4157748 -0.2871796 0.36314437 0.09440768 0.065806426 0.20399143

policy_net.module_2.bias f4 [32]
00000000: bf0c 07bc 7ed0 20bc b943 313c db73 813c
00000010: dae0 a2bd 7fec c03d 5829 b4bc 92e2 0abd
00000020: 30b5 4b3c a61a 2a3b 038b 753b 9b0a 77bd
00000030: b087 84bc 9893 83bc d19c 583c 4b59 91bd
00000040: a4e3 70bd 2123 bd3a b9b3 053c 609f 8c3b
00000050: 09ca bb3c 719f cbbb a4eb 073c 39db dd3b
00000060: 2b29 853d 0dc4 933d fc36 613b 9fc1 07bc
00000070: b2ee ebb9 27b9 57bd c097 3c3d 291d 993c
-0.008242785 -0.009815333 0.010819369 0.015802315 -0.07953043 0.09420108 -0.02199237 -0.03390748
0.012433335 0.0025955825 0.003746689 -0.06031285 -0.016177982 -0.01606159 0.013220982 -0.070971094
-0.058810845 0.0014430025 0.008160525 0.00429146 0.022923486 -0.0062140753 0.008295927 0.006770518
0.06501993 0.07215128 0.0034365049 -0.008285909 -0.00045000535 -0.05266681 0.046043158 0.018690662

policy_net.module_2.lin.weight f4 [32, 32]
00000000: a3bd 3b3d 7619 df3e b258 adbe 6726 ae3e
00000010: 3785 f43d 0c08 6a3e 2d69 48be 976c 783d
00000020: 9f3d 3bbe b574 203e 762d 0b3f 724e 823e
00000030: b30f d4bd 9084 03bf 8923 64bb 36d5 293b
00000040: 817a 8fbe 6d24 73bd f81b 893d e857 5ebe
00000050: c627 afbe 3774 01bf 9977 90bd 5011 c0be
00000060: f3f0 aabd af75 e93c 1283 49be d01e 043f
00000070: f83f 2bbc 17a7 da3d 0dee 413e ce6d 7c3b
00000080: f185 12be 7b62 493e 8bb7 673d b9ce 8fbe
00000090: 8ec2 d53d 7e1e 94bd 5f09 35bc ffee 6abe
000000a0: 4d03 733d 09e2 a2bc 8c08 be3e 75e5 043f
000000b0: 0329 7d3e a970 0bbe efcd 6b3d 8023 a2be
000000c0: 15f0 f3bd 7fdf 49be 0e05 dfbc d5f9 e2bd
000000d0: 0714 91be ff11 75bc b0ea bc3e ed78 90be
000000e0: 8d8c cebe d008 c03d ef0f 393f 90db f5be
000000f0: 3c12 b63d eb42 d0bc 1d43 b53e 031e 95be
00000100: 9222 813d ff58 fa3e a8d1 c23d d89f 473d
00000110: 8f91 47be 1ea9 dd3a cf3c e53e dcb8 52bd
00000120: a4f8 b93d e8f6 b63d 3d23 1b3e c4f1 97bd
00000130: 5d4d 8d3e 4777 0b3e 892b 72be 786b 10bb
00000140: 52bb db3d 215c e43e a622 84be d8f3 ed3a
00000150: 56e0 b33e 5d5a c63e cfe8 20bf bc6f f83d
00000160: 2141 a1bd 5c2c 4f3e 423a ecbe edc3 8cbe
00000170: c6c7 b23d 4405 993e a659 983e c801 8abe
00000180: 99eb 143f 0488 0a3e de51 39bd 0ddc e73d
00000190: a10e 59be aff8 e53c 05b2 8dbc 4c98 e23e
000001a0: 906a c2bc 6bcd a03e d9f9 d03d 6d7b 1dbe
000001b0: 61fe 56bd d2f0 afbe 1369 6f3e 8e7f e8bc
000001c0: cd5c 84be 4ad0 653e 464b 96be 1db3 743d
000001d0: b65d ea3e 2222 053f 7966 653c fdb5 663b
000001e0: 3dd3 23bd 37c6 7abe b089 9c3e 115c d53c
000001f0: 42aa 61bc c932 6dbe 70b0 a9be b5fe 89be
00000200: fb6d f83e b0f1 0dbc 62ab 22bd f3b7 c8be
00000210: cf4e 62be 4d93 0a3d c803 49be 721b 96be
00000220: f151 fd3c bc29 84be 91ce 193e bd5f 1a3e
00000230: 0945 3f3e aaef 8c3d 3790 2e3e cc45 a53e
00000240: ea46 12be b132 9e3d 68e0 a5bb 1099 62bd
00000250: adee 193e f21d b7be 14ca 0f3f e33b 49bd
00000260: 7d8c 02bd ea39 6abe 4e19 e9be 9aee d6bd
00000270: 6a15 c0be 472e 49be a916 d43e 8475 85bd
00000280: a582 283e e80e a1be 1e81 86be 11bd edbe
00000290: f15e 973e 591f 2bbe 0a7f 6a3d 0e68 63be
000002a0: 5dee 7d3e 6518 2e3e bed1 3c3e 8915 94be
000002b0: 0980 abbe be61 15be a1bc aebe be9c f13c
000002c0: 6c82 123d 2e3a 1e3e e656 29be c534 cabc
000002d0: a3ce fe3e dfa2 debd 1b70 413e 19f8 e5bd
000002e0: 1843 acbe 90c5 863e 3c2b f4bd 4f91 043e
000002f0: 3be0 533e eb80 153e 86d3 55bd 18b3 61bd
00000300: 435e c7be af02 443d beff 3ebe 2e14 15be
00000310: 04f2 e13d 6767 9a3e 8b08 54be df5e 873e
00000320: fb9e 723e 2b6a 45be bd87 12bc 5aaa 613e
00000330: fb53 a6be e10d 9fbd 6d78 adbe 4cd4 2a3c
00000340: e928 9dbd 4d23 d43d 4b21 43bf fc15 c5bc
00000350: cf4f 9fbe a558 803e a55f a33e e3fd 2bbe
00000360: 766a 9e3e 884b adbe 3955 8abd 68dc 05be
00000370: 2822 83be 4c95 01be 4395 4d3e 9c60 103e
00000380: 610b 82be 98a1 d53e 4d51 cdbe 493e 28be
00000390: a2e5 a4bd 2ab8 ec3e de95 0a3e 5d73 c3bd
000003a0: 6ecd 673d 746a c2be 2f17 85be c589 983e
000003b0: 0eee 94be c947 263e e5a0 27be 3057 ecbb
000003c0: 49bd b0be f7a5 d4bd e3ce 403e ee08 e8be
000003d0: 1c31 1b3e 0271 bfbe c463 8cbd cb42 ae3c
000003e0: 30e6 0fbf 08fe aebe 4cec 173e d0f8 22be
000003f0: 8e7d 25bd 5cab 33be a8be afbe 5be1 163e
0.04583515 0.43574113 -0.33856732 0.34013674 0.11939471 0.22854632 -0.19571371 0.060650434
-0.18285225 0.1566952 0.5436624 0.25450474 -0.10354557 -0.5137415 -0.003481122 0.0025914437
-0.2802315 -0.05936091 0.06694788 -0.21713221 -0.34210032 -0.50567955 -0.070540614 -0.37513208
-0.08346739 0.028498499 -0.19678906 0.51609516 -0.010452263 0.10676401 0.18938465 0.0038517597
-0.14308907 0.19666474 0.056571525 -0.28087404 0.10437499 -0.072323784 -0.0110495975 -0.22942732
0.05932932 -0.019883173 0.37115896 0.51912624 0.24722676 -0.13617195 0.05756944 -0.3166771
-0.119110264 -0.19714163 -0.02722409 -0.11082808 -0.28335592 -0.014957904 0.36897802 -0.2821726
-0.40341607 0.09376681 0.7228994 -0.48019075 0.08890197 -0.025422534 0.35402766 -0.2912446
0.06305422 0.48896024 0.09512645 0.048736423 -0.1948912 0.0016911363 0.44772956 -0.051445827
0.090806276 0.089338124 0.15150161 -0.0741916 0.27598086 0.1361972 -0.2364942 -0.0022036713
0.10729088 0.4460154 -0.25807685 0.0018154336 0.35132092 0.38740817 -0.6285524 0.12130687
-0.078737505 0.20231766 -0.46138197 -0.2749323 0.0872951 0.2988683 0.29755896 -0.26954484
0.58171993 0.13528448 -0.04524409 0.11321268 -0.21196987 0.028072683 -0.0172968 0.44256818
-0.023732454 0.3140672 0.10203905 -0.15379114 -0.05248869 -0.3436342 0.23379926 -0.028381135
-0.2585205 0.22442737 -0.29354304 0.05974113 0.4577462 0.5200521 0.014001482 0.0035203688
-0.039996374 -0.24489675 0.30573797 0.026044877 -0.013773503 -0.23163904 -0.33142424 -0.2695214
0.48521408 -0.00866358 -0.039714225 -0.39202842 -0.22100376 0.033831883 -0.19630349 -0.29317814
0.030922862 -0.2581309 0.15020205 0.15075584 0.18678679 0.0688165 0.17047201 0.32279813
-0.14284864 0.07724512 -0.0050621517 -0.055321753 0.15032454 -0.35765034 0.5616772 -0.049129378
-0.03187226 -0.22873655 -0.45527118 -0.104947284 -0.37516338 -0.1964656 0.41423538 -0.06516555
0.16456087 -0.31456685 -0.26270384 -0.4643331 0.29564622 -0.16711177 0.05725006 -0.22207662
0.2479796 0.17001493 0.18439385 -0.2892268 -0.3349612 -0.14588067 -0.34128287 0.029493686
0.03576891 0.15451881 -0.16537055 -0.024683366 0.49767026 -0.10870909 0.18890421 -0.112289615
-0.33644938 0.26322603 -0.11922309 0.12946056 0.20691006 0.1459996 -0.052203678 -0.055102438
-0.38939103 0.04785412 -0.18652245 -0.14558479 0.11032489 0.30157015 -0.20706384 0.26439568
0.23693459 -0.19278781 -0.008943495 0.2203764 -0.32485947 -0.07766319 -0.3388094 0.010426592
-0.076738186 0.103582956 -0.76222676 -0.024058335 -0.31115577 0.2506763 0.31908908 -0.16796069
0.30940598 -0.33846688 -0.06754536 -0.1307236 -0.25611997 -0.12654608 0.2007647 0.14099354
-0.25399306 0.4172485 -0.4010109 -0.1643001 -0.080516115 0.46234256 0.13533732 -0.09543488
0.056592397 -0.37971842 -0.2599425 0.2979261 -0.2908787 0.16238321 -0.1636997 -0.007212542
-0.34519413 -0.10383218 0.18828921 -0.45319313 0.15155452 -0.37390906 -0.06854966 0.021272084
-0.56210613 -0.34178185 0.14836234 -0.15915227 -0.04040294 -0.17545837 -0.34325147 0.14734404

policy_net.module_4.weight f4 [32, 32]
00000000: debf 203c e1e0 45bd 9ff1 d63d 35c8 803b
00000010: b2bf ab3e 66af ae3e 00ab c3bd 70a9 8dbe
00000020: 98d8 a63e 4045 97be b410 d0bd 0693 a83d
00000030: 0db4 f7be 68c9 aa3e e388 593e b03a 64be
00000040: a3e9 d13e 4c25 42bd 0605 d73e c81b dd3e
00000050: 6346 30bd 6f4d ff3e 224d db3e 70f3 1d3e
00000060: a178 20be 136c 1bbe 68ef 173d e13c 03be
00000070: 8c4d 86be 4c9b e6bd 7d82 893d a69d db3d
00000080: 9092 2ebe e828 1bbc 3d34 b53e 1cb2 e03e
00000090: 6a96 71be ae9e 4fbe 2995 9f3e d28f b13d
000000a0: 7807 283e 2874 c83d 1484 fe3d aa4e 0c3c
000000b0: a367 b43d 9210 563e 17e6 3d3f ed40 e73e
000000c0: c520 b6bd c06a 28be 8d13 7fbe ca2e 623c
000000d0: 75fe 063d 4f49 323e 1218 9c3e 3b5f e33d
000000e0: 2d3c e7bc 920b 11be e523 0b3e 1f60 ecbe
000000f0: cd4f d83d 6fe7 bfbe 51df 9f3e f285 a63e
00000100: f5b1 1ebe c397 42be a63f b33c 8923 293d
00000110: 76ae 1fbe 3eb0 5bbe 8197 1fbf 67b0 993e
00000120: c41a 5d3f db6b febd 6fe1 a1bd f283 4fbd
00000130: 9c3a 363e 563b dcbd 3fa7 ca3b b039 7b3e
00000140: f454 12be 3764 053e d49c b13e 5fe9 37be
00000150: ebb1 633e a81e f2bd 819d 873e c4c8 58bd
00000160: 47a7 a9be fe4a 0f3e c836 8bbe bb8b 41be
00000170: 306c eebd b753 30be 60c8 39be b937 fd3c
00000180: 42d8 da3b b7b2 a6be e30a 6b3e f20a a0bd
00000190: 18b1 b3be 4fc2 c23c 612b dc3d bac7 443e
000001a0: 0976 82be 9566 c9be 9c77 d33d 18b0 f6bd
000001b0: 64fc cb3d 9d14 263e 4eb3 52be 9f2a 76be
000001c0: 041e 02bf 4d00 42be 8328 e03d 231a b83e
000001d0: 4c6f ccbe f97a 81be c7d7 373f 615a bbbd
000001e0: 5e0d 6b3d 9362 07bc 7e7a 42be d61d 01bf
000001f0: 552b 89be edc3 f13b 31d4 b4bd 5640 a63d
00000200: 595c 52bf 89b3 aebe 2e59 aa3d 23d2 a03d
00000210: 9a30 5ebd 3227 e63d 2d35 083d c1d4 8ebe
00000220: bcf5 8ebd 8a2e 0bbf 976b 01be d761 3b3e
00000230: 5b6c 5bbe 98b2 00bf 2924 263e fda9 3a3e
00000240: 12e8 883e 1586 d73c 1c04 293d da3e 293b
00000250: c10b 37be eb1f 83be 016d 8a3e 8fac debd
00000260: 4717 ca3d f4af 0f3d f012 bebe ddd3 3fbc
00000270: 5de8 da3e d55e 16bd c8d5 293e c262 683d
00000280: e2e7 81be de26 8d3d e2e8 8f3e 15e3 f83d
00000290: f70d 253d fd2a 92bd e8f9 50be b114 4abe
000002a0: ca76 823d b243 7a3d 824a bb3d 0926 09be
000002b0: f617 2bbe 5bc8 ab3e 7a09 063f 86ef 27bd
000002c0: d7e5 4abe 9992 10be 0fd1 ecbd cc37 263f
000002d0: b21b a73e 0f53 e5be f3b3 03be 07d8 0d3e
000002e0: c736 193e 8171 993e 1bf8 0abf c2ea 823d
000002f0: 16e1 8cbd 947e a73e 2e1b 29be 1586 343d
00000300: 313b bcbd 9070 213e 2d93 c73e 2d8e ee3e
00000310: ac8a 393d 3fa4 ccbd 7716 c2be 6f66 46bf
00000320: 77d4 a43d 0005 ac3e 30ed 163e 5ede b1bc
00000330: 349b e7bd e4f1 bebe bcde c6be 5bba e13d
00000340: c45b afbd a8f7 753d f33c 6cbe 8346 853e
00000350: 5463 b6bd 5f02 2e3d 4c95 903e 7e29 48be
00000360: 5966 563d ab47 b63c 8947 ef3d ea49 ecbe
00000370: 1d6f 81bd b7df 0dbe e64d 5cbe e8e3 8abd
00000380: a417 9a3c 8c18 42be e67d ff3e d00e 8c3e
00000390: 5ede 5abe 53a4 da3e 1d34 b3bd b086 d6bd
000003a0: b2fb 41be e526 50be 320b 05bd 8762 28be
000003b0: 2fa2 e7bd 6841 10bc aeb5 cebd 61b6 123f
000003c0: 03d2 ae3a ea16 263e 7c1b 8d3e 7ab4 c0bd
000003d0: 9742 10be efe7 9dbd 6b08 c3be 4b97 173e
000003e0: 5474 b3be 74f2 a9bd 7074 60bd 33b8 73be
000003f0: 6418 afbe 68a3 ec3e 0bcc b23c fc3b 083f
0.00981137 -0.048310164 0.10495304 0.0039301165 0.3354469 0.34118193 -0.095541 -0.27668333
0.32587123 -0.2954502 -0.10159436 0.082311675 -0.48379555 0.33356786 0.21243624 -0.22288013
0.40998563 -0.04739885 0.4199602 0.43185258 -0.043035876 0.49863765 0.42832285 0.15424895
-0.15671016 -0.15177946 0.03709355 -0.12816192 -0.2623104 -0.11260089 0.06714342 0.107234284
-0.17048097 -0.009470202 0.35391417 0.43885887 -0.23592535 -0.20275375 0.31168488 0.0867001
0.16409099 0.0978778 0.12427536 0.008563677 0.0880883 0.20904759 0.74179214 0.45166722
-0.08892969 -0.16446972 -0.24909802 0.013805101 0.032957513 0.17410778 0.30487114 0.11102148
-0.028226936 -0.1416457 0.13587911 -0.46167085 0.10562096 -0.37481257 0.31225064 0.32524067
-0.15497573 -0.19003205 0.021880936 0.041293655 -0.15593895 -0.2145395 -0.6234055 0.30017397
0.86368966 -0.124229155 -0.07904326 -0.050662942 0.17795795 -0.10753505 0.006184488 0.24533725
-0.1429022 0.1302651 0.34689963 -0.17960118 0.22235839 -0.118222535 0.26487353 -0.05292584
-0.33135435 0.13993451 -0.27190232 -0.18900959 -0.11641729 -0.17219435 -0.18142843 0.03091036
0.006678612 -0.32558224 0.22953372 -0.07814588 -0.3509605 0.023774294 0.10750461 0.19216815
-0.2548068 -0.39336076 0.10325548 -0.12045306 0.09960249 0.16218801 -0.20576212 -0.24039696
-0.5082705 -0.18945427 0.10945227 0.3595744 -0.39928663 -0.25289133 0.71813625 -0.09148098
0.057385795 -0.008263248 -0.1899204 -0.5043615 -0.26790872 0.0073780925 -0.08829535 0.0811774
-0.8217216 -0.3412135 0.08317791 0.078525804 -0.05424557 0.11237945 0.033253837 -0.27896693
-0.06980464 -0.5436789 -0.12638699 0.18299042 -0.21428053 -0.5027251 0.16224732 0.18228908
0.26739556 0.026309052 0.041263685 0.0025824816 -0.17875578 -0.2561029 0.27036288 -0.10872757
0.09867721 0.03507991 -0.37123823 -0.011708227 0.42755404 -0.036711533 0.16585457 0.056734808
-0.25372225 0.06892179 0.28107363 0.121526875 0.04029652 -0.071371056 -0.20407832 -0.19734456
0.063703135 0.061099716 0.091450706 -0.13393416 -0.16708359 0.33551297 0.5235821 -0.04099991
-0.1981424 -0.14118423 -0.11563312 0.6492889 0.32638317 -0.4478993 -0.12861614 0.13851939
0.14962302 0.2996941 -0.5428483 0.06392433 -0.06878869 0.3271376 -0.16514274 0.044073183
-0.09190977 0.15765595 0.38979474 0.46592847 0.045298263 -0.09992265 -0.37907764 -0.7750005
0.08048337 0.33597565 0.14738917 -0.021712478 -0.113088995 -0.37293923 -0.38841808 0.110218726
-0.08562425 0.060050637 -0.23070125 0.2603036 -0.08905664 0.04248273 0.28238904 -0.19547078
0.0523437 0.02225097 0.11683566 -0.46150142 -0.06320021 -0.13854872 -0.21514091 -0.06781751
0.0188101 -0.18954676 0.4990074 0.2735505 -0.21373889 0.42703494 -0.08750174 -0.10474908
-0.1894367 -0.20327337 -0.03248138 -0.16443835 -0.11310231 -0.008804657 -0.100932464 0.5730954
0.0013337735 0.16219679 0.2756003 -0.09409423 -0.14087902 -0.077102534 -0.3809236 0.14803807
-0.3504969 -0.082981974 -0.054798543 -0.23800735 -0.34198296 0.4621842 0.02182581 0.5321653

policy_net.module_4.bias f4 [32]
00000000: f35d a4bc fa84 22bc 1ded c6bc 0125 21bc
00000010: f923 5bba 0c77 b5bc 4fd6 4bbc 1371 6ebc
00000020: 740d 793c bbef 6dbc 24c7 c13b 1be5 7fbc
00000030: 8f40 46bc e0d2 97bb a5eb a0bc e608 cebc
00000040: 1f11 d4bc 8ff5 bfbc 02dc 44bc e317 2abc
00000050: 35d7 ae3c 8621 e53b e160 b9bc f1d4 7ebc
00000060: 53f9 1f3b 8608 353c 3814 85bc 878a 9ebc
00000070: d81a acbc f6d7 9dbc a03f 033b a2ed 42bc
-0.02006433 -0.009919399 -0.024282986 -0.009835483 -0.00083595474 -0.022151493 -0.012441232 -0.014553326
0.015200961 -0.014522488 0.005913632 -0.015618588 -0.012100353 -0.0046332926 -0.019643614 -0.025150727
-0.02588707 -0.023432521 -0.012015345 -0.010381672 0.021342853 0.0069925217 -0.022629203 -0.015553699
0.0024410083 0.011049395 -0.016244993 -0.019353164 -0.021008894 -0.019268017 0.0020026937 -0.011897476

policy_net.module_8.weight f4 [10, 10]
00000000: 99cd 8c39 8650 bbba dd74 10ba af78 863b
00000010: 0a2e ce3b b9be 01bb 99fb 413a 8d5f b33a
00000020: 1fc7 023a 13a4 c0bb 2674 b8bb a7b9 a0bb
00000030: 920d febb 288c 01bd 7188 81bd ec75 73bd
00000040: d079 86bb 83fe 5abc c9ba a9bc 60f3 9fbc
00000050: 3657 85bc a765 9b3a d33c b03a c988 edbb
00000060: 71b8 0cbd cec8 09bd c891 88bb b06a cfbc
00000070: 822f fdbc 2ad7 fbbc e556 5d3b 37da 9dba
00000080: b747 02bb 2c7e 1fbb 1285 01b9 cee7 cdba
00000090: 9272 a33b aa07 d5bb 0017 1e3b cfde b0ba
000000a0: 5a63 88bc 9997 19bd ca66 0abd 8c4b 13bc
000000b0: 7d2f 423c afd1 283d 8f01 37bd 0cb2 1abc
000000c0: d46c fb3b 0f6e b53c 4f18 7fbc a958 a6bd
000000d0: e19a b2bd 70a1 88bd 9e7c 843c 2841 2c3d
000000e0: 6c30 14bc beed 00bd d9a9 3fbd fe7b f63c
000000f0: 8845 7cbd b772 88bd f544 8cbd 9fea 30bd
00000100: b747 503d 81ac 4d3d 447c 84bd 95ce 2dbd
00000110: 3b05 bdbc d7be 31bd c123 58bc 5a56 1e3d
00000120: 2203 323d 3d45 553d 97d6 ee3a 3a34 7cbc
00000130: 5729 1dbd 1000 35bd 8656 12bd 952f f1bc
00000140: 5865 31bb c0ea 573b eec4 1dba 5c13 66bb
00000150: 7bf6 0d3b 9b3f c43a 9765 b3bb 3286 4bbb
00000160: 1fce 823b 1df0 28bb 5047 2fbb fd00 263c
00000170: b5c6 1e3d 4522 803d ea5a 5dbd 675b adbd
00000180: db54 503d eb2c a23d 9126 903d 6139 5d3c
0.00026856063 -0.0014290966 -0.0005510578 0.004103742 0.0062921094 -0.0019797517 0.00073998567 0.0013685093
0.0004988778 -0.005878934 -0.0056290803 -0.004904944 -0.0077530826 -0.031627804 -0.06324852 -0.05943863
-0.0041038767 -0.013366344 -0.020718949 -0.01952523 -0.016276937 0.0011855856 0.0013445861 -0.007248972
-0.034355585 -0.033638768 -0.004167769 -0.025319427 -0.030906443 -0.030742247 0.0033773717 -0.0012043183
-0.001987917 -0.002433668 -0.00012351971 -0.0015709342 0.004988023 -0.006501158 0.0024122596 -0.0013494137
-0.016648937 -0.03749809 -0.033789434 -0.00899018 0.011852142 0.041215595 -0.04467922 -0.009441864
0.0076728854 0.022147207 -0.01556976 -0.08122379 -0.08720947 -0.06671417 0.016172703 0.042054325
-0.009044748 -0.03147673 -0.04679284 0.030088421 -0.061589748 -0.06662505 -0.0684909 -0.043192502
0.050849643 0.05021334 -0.06469014 -0.04243334 -0.023073783 -0.04339489 -0.013192118 0.03865657
0.04346002 0.052067984 0.0018221912 -0.015393311 -0.038369503 -0.044189513 -0.035727046 -0.029441634
-0.0027068462 0.0032946318 -0.00060184195 -0.0035106754 0.0021661806 0.0014972569 -0.005474757 -0.0031055328
0.0039918567 -0.0025777884 -0.0026745386 0.010132072 0.03876372 0.062565364 -0.05404178 -0.08464699
0.050862174 0.07918724 0.07038606 0.01350245

policy_net.module_8.bias f4 [10]
00000000: 0000 0000 d6fd d9bb 89c5 95bc 0000 0000
00000010: f344 cfbc a827 89bd e027 683d 63dd 383d
00000020: 0000 0000 c2ca 1b3c
0.0 -0.006652574 -0.018282669 0.0 -0.025301432 -0.06697017 0.056678653 0.045133006
0.0 0.00950879

value_net.module_0.bias f4 [32]
00000000: 96bf 063c e6c3 12bd e953 063e 0d78 87bd
00000010: 0c4c fa3d 26b8 de3c 3a6e eabd 33f6 f23c
00000020: fca2 96bd 583a ffbc 4119 b8bd 5f05 a63c
00000030: c543 0f3d e35e 5f3c ede4 11bb 8f35 c9bc
00000040: 6047 353d 0708 2e3c dd72 19bd 1dfd dd3d
00000050: ce4f 14be b12e 81bd 18f5 6ebd d5e6 efbc
00000060: 20eb 42bd 190e a13c 8dd0 89bc 8ead a6bd
00000070: aa8a e9bc d0d1 b0bd c499 393d 5dac 18bd
0.008224389 -0.035831355 0.13117947 -0.06614695 0.12221536 0.027187418 -0.11446805 0.029658413
-0.073553056 -0.03115575 -0.08989192 0.020266233 0.03497674 0.013633463 -0.0022261695 -0.024561672
0.04425752 0.010622031 -0.037463058 0.10839293 -0.14483568 -0.06307734 -0.05833921 -0.029284874
-0.047587514 0.019660043 -0.016823078 -0.08138572 -0.028508503 -0.086337686 0.045312658 -0.037273753

value_net.module_0.lin.weight f4 [32, 32]
00000000: f9f7 00be 68aa 46bb 00dc 643e bbb1 72be
00000010: 2aca 8dbd d0e5 c4bc b6bc 9dbe 6ce6 72bc
00000020: 2ea4 9a3e afd7 cfbd 6930 13be 8760 4e3d
00000030: ebdd 27be adbe a2bc 758d 16bb b8c4 f7bd
00000040: 7591 0bbf 7cf7 e4bd dbd4 f2be 7be8 443c
00000050: 878e a7be 23aa d7be c605 ccbe da4d 96be
00000060: 7827 55be 5eed da3d 835b 25bf 4eb9 c53c
00000070: 2343 83be ed92 4bbf 3a17 03bf b793 b73d
00000080: 3b56 d7bc 212d 98be f34f 22bd 4da3 95be
00000090: fd8c c8be c4b8 dcbe 9e44 3fbe 25ec 14be
000000a0: 629e 09be 018a f23d 2cad 593e 7711 9b3e
000000b0: d023 1d3e c169 103e d99e 253e db2a ae3e
000000c0: 6d69 933e a2bd 78be 75f5 de3e 84b1 97bc
000000d0: 9ac7 bc3d 557c 82bd fa91 f13d efb6 903e
000000e0: c579 cdbd a15d abbd ebdf 3e3e 6ab2 323f
000000f0: 2010 d4bc 5687 a4bd 07f8 bfbe b682 dc3e
00000100: 83e5 fbbd a8a6 353c 8ae3 1c3e 1938 92be
00000110: b535 a93e a446 b5be feaf 79be 6652 77be
00000120: a479 223e ec5f c83e 7918 b43e e433 4abe
00000130: 3e32 613d 724a b73e e8e0 c63e e6c6 973d
00000140: 6b53 023c a1f4 08bf 4d12 d9bd d7cc 31be
00000150: 3908 c9be 2ba2 fd3c 132c 5cbe 47db 953c
00000160: de35 c4be fc0c 24be 6e35 c3be e5ee 34be
00000170: e42e 7cbe 96c6 e63d 5e58 9d3d 9c66 e6be
00000180: 7c8a d53b be81 c2bd 3227 47bf 6ab0 93be
00000190: 8ddc 5dbe 09fb 1bbd 611d c13d d239 59be
000001a0: 5e08 21bd 0f20 cdbe efc9 7c3e 1214 473e
000001b0: 7621 163d 5003 a4bd 2037 a9bd 3b07 8e3d
000001c0: b92c 553e 70b4 98bd e175 a6be de50 a43e
000001d0: d69f 12bd db84 18be 1a7e 2e3e b5d0 83be
000001e0: 0306 543d 99dd 2c3f 9d95 0c3e 060e dd3e
000001f0: 3a56 2d3e 013a 153f 1443 883d 3e5b f7bd
00000200: dcd0 84be bf8a b0be e4b9 df3e 46fc 7a3e
00000210: 6b23 243e 32ad e23c 6bf3 72be 829e 86bd
00000220: 3a95 fabe 138b 0bbd f111 a8bd ac5b 10be
00000230: c9da bd3e 7a4b 5d3e c4a7 8b3e 114f 5a3e
00000240: 2810 90bd cc4f 803c 64db 84bd 8d2a ca3e
00000250: 9bec ddbd 04ed 0dbf f3b4 783e 6142 c3be
00000260: cb41 353d 1e11 6dbe a0f5 733e 6df9 35be
00000270: 7be0 e3be 0003 a4be 7977 ad3d a032 a6be
00000280: 7012 5fbe 1b71 91be 5202 d3be 104a 0dbe
00000290: 7914 15be 26b2 61be 6f2a 613e 8cb6 843d
000002a0: 45d8 0a3d 03a6 fa3d 1664 16bf 23a9 1a3e
000002b0: 35de 1cbd 06e9 8bbe 28cc 9b3e 13ef c23d
000002c0: 9cfd 7ebe bcf5 553e 9176 91bc 8029 a0be
000002d0: b0bb 65be 8276 94be 61c9 203e 7d02 423e
000002e0: 4282 73be edfc 90be 5666 563e 61ab 233e
000002f0: 2838 fb3e 3547 923e e0d9 863e 1c98 973e
00000300: 54cb 463e 6306 c9be 7e3b 9ebe 91b4 23bd
00000310: 9167 93be c5dd 0abe 2d7d abbe 35b8 b03c
00000320: 0cfc 943e 7902 983d dbbe 023d a883 c0bd
00000330: 4833 873e 3555 8bbd 7b7c 143f df3a 8cbd
00000340: 3dc6 8dbd e8df 1d3e 6216 cebe d8fc 993e
00000350: b4f8 c5bd 2258 e33e f2e3 c2be d823 d0bd
00000360: 65f2 fb3e 5927 b0bd c314 7c3e 80e5 b43d
00000370: a2e9 2dbe 510c 25bd 0213 8b3e 0757 bd3e
00000380: 98a1 e33d fed3 39bd 2704 ce3d c10f d33d
00000390: a35e b53c 5003 d33e 2789 e53d 487c a0be
000003a0: 0e82 0bbe e08a 4bbe 54c9 c0bd 93f6 b23e
000003b0: 79bd 3abd 84aa 1c3e 72bf 42ba b1b4 bdbe
000003c0: 220e 0d3e 7477 10bf 3fcd dbbd c2ac 1c3e
000003d0: 7590 25bf f01a 243d 97ad 9ebe 7730 4d3e
000003e0: 9f55 81be 16c2 d1bd 0368 b83e 5294 50bd
000003f0: 9392 ba3a 2b82 90be c345 debd bcbc 6d3d
-0.12594594 -0.0030313972 0.22349548 -0.23700611 -0.06923325 -0.024035364 -0.30808038 -0.014825445
0.30203384 -0.1014856 -0.14373936 0.050385024 -0.16393249 -0.019866312 -0.0022972499 -0.12098068
-0.54518825 -0.111800164 -0.4742802 0.012018318 -0.32725927 -0.42121992 -0.39848155 -0.2935627
-0.20815837 0.106898054 -0.6459276 0.024136212 -0.2563716 -0.79521066 -0.51207316 0.08963721
-0.026286235 -0.2972193 -0.039627027 -0.2922615 -0.39170066 -0.43109715 -0.18678519 -0.14543207
-0.13439324 0.118427284 0.21257466 0.30286762 0.15345693 0.14102842 0.16173877 0.3401707
0.2879137 -0.24291089 0.43546644 -0.018517263 0.092177585 -0.06371371 0.11795421 0.28264567
-0.10032991 -0.08367468 0.18640105 0.6980349 -0.025886595 -0.08033626 -0.37493917 0.43068475
-0.12299635 0.011087097 0.15321174 -0.28558424 0.33048788 -0.35405457 -0.24383542 -0.24152526
0.15866715 0.39135683 0.3517492 -0.19746357 0.054979555 0.35798985 0.38843465 0.07410984
0.007954459 -0.53498274 -0.10599194 -0.17363296 -0.39264086 0.030961117 -0.21501188 0.018293036
-0.38322347 -0.16020578 -0.381267 -0.17669256 -0.24627262 0.11268346 0.0768287 -0.4500016
0.0065167528 -0.094974026 -0.7779418 -0.2884553 -0.21666165 -0.038081203 0.09429432 -0.21213463
-0.03931462 -0.4006352 0.24686407 0.1944125 0.036653005 -0.08008444 -0.082624674 0.06934973
0.20817842 -0.07456291 -0.3251181 0.32092947 -0.035796963 -0.1489443 0.17040291 -0.25745168
0.051763546 0.6752563 0.13728948 0.43174762 0.16927424 0.5829163 0.06653419 -0.1207795
-0.25940597 -0.34480855 0.4369651 0.24510297 0.16029136 0.027670477 -0.23725669 -0.06573202
-0.48941976 -0.03406818 -0.08206547 -0.1409747 0.37080982 0.21610823 0.27276433 0.21319224
-0.070343316 0.01566305 -0.06487158 0.3948559 -0.108361445 -0.5543978 0.24287777 -0.3813658
0.0442522 -0.23151061 0.23824167 -0.1777093 -0.44507203 -0.3203354 0.08470053 -0.324605
-0.21784377 -0.28406605 -0.41212708 -0.13797784 -0.14558591 -0.22040614 0.21988843 0.064801306
0.033897657 0.122386955 -0.5874647 0.15103583 -0.03829785 -0.2732622 0.30429196 0.09518256
-0.24901432 0.20894521 -0.017756732 -0.31281662 -0.22434878 -0.28996664 0.1570182 0.18946262
-0.23780158 -0.28317967 0.20937476 0.15983345 0.4906628 0.28569952 0.263381 0.29608238
0.19413501 -0.39262685 -0.30904764 -0.039967123 -0.28789952 -0.13561161 -0.3349394 0.021572212
0.29098547 0.074223466 0.031920295 -0.094001114 0.26406312 -0.06803361 0.5800244 -0.06847166
-0.069225766 0.15417445 -0.40251452 0.30075717 -0.09666577 0.44403177 -0.38064533 -0.10163087
0.4920837 -0.08601255 0.24617295 0.08832836 -0.16983655 -0.04029495 0.2716294 0.3698046
0.11114806 -0.045368187 0.10059386 0.10305739 0.022139853 0.41213465 0.112078 -0.3134482
-0.1362383 -0.19877195 -0.094134 0.34953746 -0.04559085 0.15299422 -0.000742904 -0.3705192
0.13774922 -0.5643227 -0.10732507 0.15300277 -0.6467355 0.040064752 -0.30991814 0.20038019
-0.25260636 -0.10242097 0.36016855 -0.0509227 0.0014234356 -0.2822431 -0.1085315 0.05804132

value_net.module_2.bias f4 [32]
00000000: 81af b2bb dee5 fd3a 47eb b5bc 445a 743d
00000010: 5e50 113c 32c4 d4bd b5c3 84bd f063 11bd
00000020: b435 f63c e30b 9abc beae babb bf8c 77bd
00000030: 9dc0 a83c 7c60 71bc 14cc cb3c 9323 bb3d
00000040: 1514 983d 2412 60bb 650b 9cbd 7588 04bd
00000050: 1628 12bd 1cc4 053c 6fa1 243b 53e2 e6bb
00000060: 31ee 903d 7022 c83d 35b9 50bd 145d fbbc
00000070: b612 623d f2ec d6bc 0807 09bd 6443 be3c
-0.0054530506 0.0019370874 -0.022206916 0.059656397 0.008869259 -0.10388984 -0.06482641 -0.0354957
0.030054905 -0.018804496 -0.0056971004 -0.06043696 0.020599658 -0.014732476 0.024877585 0.091376446
0.07425705 -0.00341905 -0.07619361 -0.032356698 -0.03568276 0.008164432 0.0025120636 -0.007046023
0.070766814 0.097721934 -0.050957877 -0.030684032 0.055193625 -0.026236031 -0.03345397 0.023225494

value_net.module_2.lin.weight f4 [32, 32]
00000000: 5da5 9c3e ba0a 37be dada 583e e5ee 353d
00000010: 50a4 d53e ff44 70be 1e90 95be 7a85 28be
00000020: 43d1 753e 9261 d63d 13cc 3fbe b7c7 dfbe
00000030: 7c8e 1dbb ce39 c5bd 69d1 8c3e c437 abbe
00000040: 14eb 3e3d da72 82be 2312 1dbf a83e 34bd
00000050: 33e8 ed3d ceba 20bf c489 c6be 8a65 ba3e
00000060: 2dda 0d3e fa1e 5cbe 3391 933d cc44 21be
00000070: 887f e9bd 4068 b7be c41f ac3e 7b5c bdbe
00000080: f312 1f3e 1633 9ebe 17c2 03bf 102f 2a3d
00000090: 5462 dfbc d917 0c3f 4471 fc3d 04c8 2abe
000000a0: 8417 df3d cf95 84be 7236 e0bc cf25 5cbe
000000b0: 98be 1b3e 9d2b 04be b86c e23d c30b 3a3d
000000c0: 2178 4bbf 9895 c1bc cd60 d93d 7797 733e
000000d0: fcf8 f23d 4b8e 483e 70a1 b6be c2b1 97bd
000000e0: 02ed 56be e627 393e 2102 353e 0296 803e
000000f0: 8c04 353e fef8 143d 4cd8 253e f5bd 05be
00000100: 73b6 00bf 261f f33d 46f3 8cbe c904 b93e
00000110: 45c0 e3be aa83 6bbc a8ca 483e a065 48be
00000120: bd65 f0be d7dd 983d c6e0 f63e 1650 5fbe
00000130: fd89 02bd 1b9f b53d 22bc 3f3e 71a3 023e
00000140: beca 6abd afb9 56be 3f01 77be cf2a bfbe
00000150: e814 913d 4ff5 d5bd 8a44 81be 82b4 edbe
00000160: e35c d1be 49f8 7fbe f82f 2a3e 8132 f03d
00000170: 7fa1 073c 7f3d b0be e952 8cbd 2dd9 c43d
00000180: cfa9 353e 79a9 043e 61e3 d0ba 33cd 8b3d
00000190: bdab 073f dee8 b3be 1a89 173d f40c c33c
000001a0: 02c4 08bf 871b 7cbe 614d bbbe 7280 c13c
000001b0: 0d29 673d bd23 09be 4f1d b2be e695 fe3d
000001c0: d442 8b3e 2aa1 ed3e 9986 20be dabe d63e
000001d0: 7944 0d3e e6c0 5bbe f4cf 79be bf32 97be
000001e0: bc8b a4bd d2e3 593e 76bd 47be e0c6 28bd
000001f0: beae d93d 123e 7bbc 3ce5 4e3e a673 c3be
00000200: dbac a23d cde6 25bb 31e4 7bbe bd1d 833e
00000210: 0a7c 18bf 3699 60be dc13 fa3d 2f86 2abe
00000220: d45e 2d3e 673e e4bd ac80 dbbe e0c1 f0be
00000230: e5cc 03bd cf08 c7bc 937c b2be c5e3 3e3e
00000240: ca15 8a3d fa53 d43d 2dbd 253e 49cc 1a3e
00000250: af1f 93be 4c32 0abe cb3d a43e c92b a03e
00000260: 1b48 c9be db37 2e3d ea9c ce3e b4ab 473e
00000270: a712 5fbe 9a12 95be 8fb4 6abe 0f35 dabd
00000280: 86a7 89bd 1e89 743e e96a ffbd 81c8 ab3d
00000290: d7dc 053e b5e7 4b3c 198c a13e c82a a4bd
000002a0: 43d1 f23e cc78 d1bd 3424 cc3e a05d 113c
000002b0: b11b a7be 0699 95be 4ec7 fbbd 0972 1c3e
000002c0: c1d7 083e 68e5 1bbf 8333 d73d 42b3 253e
000002d0: 115f debd 1b22 36be 3f94 d13d aca8 e1be
000002e0: 5c0a 9c3d f622 f13e 5d99 8a3e e777 7e3e
000002f0: c16c 153d c01b 61bb 6fb0 27be 7095 c03d
00000300: 8ccd 6cbe ce23 fe3e 109e 233d 9511 b73e
00000310: df26 84bc d42e 063e 01f6 1abe 5d16 acbe
00000320: 85c7 da3d ba96 ab3e df26 61be 4209 923e
00000330: 385c 9b3e 51d2 d9bd 80cb 443e cc0c 403d
00000340: 1c8f 5ebe 22d2 8f3b fe0c 363e 6428 0fbe
00000350: b2d4 a03e 5731 7d3e a68b ba3e 3da8 01be
00000360: 647c 02bc a1c9 d63d c3c0 923e 76f7 49bd
00000370: 2ade 08bf 4b05 073e a170 b03e 3115 bcbe
00000380: 58ed 993e c073 a93e 0970 3b3e 71c8 373f
00000390: 91a3 a5be 8224 6ebd ad81 173e 6193 27bd
000003a0: 7838 923e 27a5 6b3d 8c69 d83c feb1 013e
000003b0: 0803 78bd 3a42 3f3e d9b9 4f3e fbaf 3d3e
000003c0: a15c f0be e488 743e b480 bf3d 1986 a5be
000003d0: 80d0 83be 2e52 28be 7f2d 82be 5d21 03bc
000003e0: 9c9e 863e e78f c03e 6bb7 13be eae4 7cbe
000003f0: fcf7 9f3e 84fe 5c3e 6b46 6cbe 15bd 39bd
0.30594912 -0.17875186 0.21177235 0.04441728 0.41726923 -0.2346382 -0.29211515 -0.16457167
0.24005608 0.10467829 -0.18730192 -0.43707058 -0.0024041226 -0.09630166 0.27503517 -0.33440983
0.046610907 -0.2547825 -0.613558 -0.044005066 0.11616554 -0.6278504 -0.38776982 0.36405593
0.13852759 -0.21496192 0.07205429 -0.157489 -0.11401278 -0.35821724 0.33617985 -0.3698462
0.15534572 -0.3089835 -0.5146803 0.04154879 -0.027268566 0.5472389 0.12326291 -0.16677862
0.10893157 -0.25895545 -0.027369712 -0.21498798 0.15209424 -0.12907262 0.11055893 0.045421373
-0.7948018 -0.023630902 0.106141664 0.23788248 0.11863896 0.1958553 -0.35670042 -0.074069515
-0.20988849 0.18081626 0.17676593 0.25114447 0.17677516 0.03637027 0.16195792 -0.13060744
-0.50278395 0.118711755 -0.27529353 0.36136463 -0.44482628 -0.014374653 0.19608557 -0.19570017
-0.4695262 0.074641876 0.48218364 -0.21807894 -0.031869877 0.088682376 0.1872411 0.1275766
-0.057322256 -0.2096927 -0.24121569 -0.37337348 0.07084066 -0.104471795 -0.25247604 -0.4642678
-0.4089118 -0.24997057 0.16619861 0.11728383 0.00827825 -0.34421918 -0.06851751 0.096117355
0.17740558 0.12955274 -0.0015936905 0.06826248 0.52996427 -0.351386 0.036995985 0.023809887
-0.53424084 -0.24619876 -0.36582473 0.023620818 0.056435633 -0.1339254 -0.34787986 0.124309346
0.27199423 0.4641202 -0.15676345 0.41942483 0.13795651 -0.21460304 -0.24395734 -0.29530904
-0.08034465 0.21278313 -0.19505867 -0.041205287 0.106290326 -0.015334623 0.20204633 -0.3817417
0.07943126 -0.002531457 -0.24598767 0.25608626 -0.5956427 -0.21933445 0.12210819 -0.1665275
0.16930705 -0.11144715 -0.42871606 -0.47022915 -0.032177825 -0.024296192 -0.34860668 0.18641575
0.06742437 0.1036758 0.16185446 0.15116991 -0.2873511 -0.13495749 0.32078394 0.31283405
-0.39312825 0.042533737 0.4035409 0.19499093 -0.21784459 -0.29115754 -0.2292044 -0.106546514
-0.06721406 0.23880431 -0.12471563 0.083878525 0.13072525 0.01244538 0.315522 -0.080159724
0.4742528 -0.10228118 0.3987137 0.00887242 -0.32638314 -0.2921831 -0.12293874 0.15277876
0.13363554 -0.6089692 0.10507872 0.16181663 -0.10857976 -0.17786448 0.10233354 -0.44074
0.076191634 0.47096986 0.27070132 0.24850427 0.03648067 -0.0034348816 -0.16375898 0.09403503
-0.23125285 0.49636692 0.039945662 0.35755602 -0.016131816 0.13103801 -0.15132906 -0.33610812
0.106825866 0.33513433 -0.21987484 0.28522688 0.30343795 -0.10635818 0.19218254 0.046887204
-0.2173428 0.0043890635 0.17778394 -0.13980252 0.31412274 0.24725853 0.36434668 -0.12661834
-0.007964227 0.104876764 0.2866269 -0.049308263 -0.53463995 0.13185613 0.3446093 -0.36734918
0.3006389 0.33096123 0.18304457 0.71790224 -0.32351354 -0.058140285 0.14795561 -0.040912036
0.28558707 0.05753055 0.026417516 0.12665555 -0.060549766 0.18677607 0.20285739 0.18524162
-0.4694567 0.23880345 0.0935072 -0.3232887 -0.2574501 -0.16437599 -0.25425336 -0.00800356
0.26292884 0.3760979 -0.14425437 -0.24696699 0.31243885 0.21581465 -0.23073737 -0.04534634

value_net.module_4.weight f4 [32, 32]
00000000: f80f c1be 9868 953d 6b87 06be df72 44bf
00000010: 829f 79bd 1660 e9bd d70a 9dbe a597 edbd
00000020: 345c 97be e8c7 193e a2a7 f93d def5 663d
00000030: cac3 b93d d952 debc ed4c 92be fff0 383e
00000040: 47da a1be 9e46 76be ef90 de3e fb81 b23d
00000050: 8909 243d c2e0 d03e b037 66be 1438 c5bd
00000060: 4416 22be d3d7 a6be b9fa 9bbc c64e 77bc
00000070: 9070 a3be e1ea 6cbe 4ee1 20be 938d 303e
00000080: 3c87 6bbe 6139 f0be 7015 533e bda6 b23e
00000090: 6713 3a3e fda4 3c3e be0a 8cbe 093b 87be
000000a0: fd2d 803d f87f a2bc 5feb afbe a7fe cdbd
000000b0: 8c62 f43e b2d7 353f 5f3d e1bc faeb a43e
000000c0: ceb7 95bd 4147 713e c958 443d 9b39 563d
000000d0: 43fb 27bd edd5 ad3e efee 69bc 99de 56bb
000000e0: 31a9 9e3d e116 c33e 34df a3bd a47b 36be
000000f0: d6ea 953e 4d2a b23d 944d b4be ddf0 0f3e
00000100: 3ad7 52be 46d7 ca3e 9e96 fabb 9412 9a3e
00000110: 269e 5cbe d4b1 2abe 1968 843e 2208 89be
00000120: f010 ee3d db8a 05bf d0f0 0c3e 1f90 05bf
00000130: 97a3 bb3e ed08 3a3c ea92 843e e004 b43c
00000140: 8a77 fc3d b211 76be becc f53d 61c9 63be
00000150: bb79 4cbc 36cc d7bd 7e87 863e dbce a0be
00000160: 6c69 d23b 5dff 133e 5212 9f3d 0a63 f8be
00000170: 922f acbe e604 a23e f05e 463c bfa8 523e
00000180: 1598 673e f47f 423c 34dc b93e 8de0 12bd
00000190: e6b9 9fbe c228 473e 154e 723e e052 3a3d
000001a0: cd3c d63d 3776 a2be d015 643e dfea f33e
000001b0: c866 5cbd 0fba d8bd bfb3 863b 9fb8 ca3e
000001c0: 03b0 19bf bb7e 05be cf8a ed3c 8f12 0a3f
000001d0: 145c d8bd 4ad7 d33d aa92 4d3d 394f cbbe
000001e0: d203 7d3d 3fda a43e b62e fabd 3671 263e
000001f0: d226 35be 7052 c6bc 1fc4 bfbd 7cb1 f9be
00000200: 2b81 ccbe e752 ff3b 21cb 62be bb1c a23d
00000210: 4629 26be b894 d43e c566 1d3e 1c96 90be
00000220: 7eef 27be b396 78bd 468d ae3e 6227 043e
00000230: 05fe 343d 1347 b2bd 312a d0bd 4781 0dbf
00000240: ef14 adbe 1ed4 8f3e 5690 2a3f ab1f 503e
00000250: 402e 18bd f474 6e3e 0d57 d3ba b953 7d3e
00000260: 6692 84bd e7fd 0a3e ed91 963e 78e4 823e
00000270: c566 b1bd 3e3b 7e3e 91fe b83e 0a56 d1ba
00000280: b00a b2be f572 bb3e fc6b 8339 150d efbc
00000290: aaa2 e53e 9da9 9d3e 904b 273e 6a49 e6be
000002a0: 44a9 e73e ce9c 963e cb5a 2fbd 8f49 bbbd
000002b0: 3624 9cbe c4f9 e73d adb7 77bd 9be2 503e
000002c0: 8bae 603e 006d 363d 1ab9 183e eb38 983e
000002d0: c654 59bd dfbb 6fbe 93e3 7b3e 6bfc 2e3e
000002e0: fcf1 43be 0b9c 203d 722c c4bd 7c87 e83e
000002f0: b889 a3be 9d09 5ebe d45e 1ebe 545d 49be
00000300: b846 15bc c658 02be e946 083e 4ad5 a33e
00000310: f260 d43e dc93 093e a7b6 cc3e aaee fb3d
00000320: 49c2 523d 9b29 813e a603 053e a89a eebd
00000330: c40b b4bd 88a6 9dbe 0d97 6c3e 17f8 9c3c
00000340: 6562 bfbd 8500 d43d 4250 823e db13 0d3e
00000350: 9896 d1be 2fb7 e73e aff1 163d f52d cbbe
00000360: 61ad b93d 987d f3be c7ef 7cbe 40a2 60bd
00000370: 3e6f 973e 3390 65be 6a18 8e3e 74cc bc3e
00000380: afdb 89bc c3d2 ebbe 0a7c 04bc 8022 6dbc
00000390: 86f0 a63e 6f42 983e 20cc 28be 8f2d 3d3e
000003a0: cb70 34bd 564e aebb f44a 8a3e dd48 39be
000003b0: 2773 a73e c9b3 293e 7bbd e5bd 6655 c5be
000003c0: 6908 4bbe 61aa e9be 0577 69bd d5ae 743d
000003d0: 2b07 e83d 6499 eebe 24e5 c13d e08e e3be
000003e0: 2dd1 9bbd a7bf babe 776d f53d 2d0a e83e
000003f0: 2a4b 35be 6a5c 7f3e 92cf d23d fa38 2cbe
-0.37707496 0.0729534 -0.13137595 -0.7673778 -0.060943134 -0.1139528 -0.30672333 -0.116011895
-0.29562533 0.15017664 0.121901765 0.05638682 0.09070547 -0.027139114 -0.28574315 0.18060683
-0.31611845 -0.24050376 0.4346995 0.08716198 0.040048156 0.40796477 -0.2248218 -0.09629837
-0.15828806 -0.32586536 -0.019040452 -0.015094465 -0.31921816 -0.23136474 -0.15710947 0.17241506
-0.23000807 -0.46918777 0.20613647 0.34892836 0.18171464 0.18422313 -0.27351946 -0.26412228
0.062587716 -0.01983641 -0.3435926 -0.10058337 0.47731435 0.7103225 -0.027495084 0.32211286
-0.073104486 0.23562337 0.047936235 0.05230103 -0.041011106 0.33952275 -0.014278158 -0.0032786487
0.077471144 0.38103393 -0.08001557 -0.17820603 0.29280728 0.086994745 -0.35215437 0.14056726
-0.20589915 0.39617366 -0.0076473495 0.300923 -0.21544704 -0.16669399 0.2586067 -0.26764017
0.11624324 -0.52165 0.13763738 -0.52173036 0.36648247 0.011354667 0.25893337 0.02197498
0.12327488 -0.24030188 0.12001942 -0.22244789 -0.012480195 -0.10536997 0.26275247 -0.31407818
0.0064212587 0.14452882 0.07767166 -0.4851306 -0.33630043 0.31644362 0.012107596 0.20572184
0.22616608 0.011871327 0.36300814 -0.03585868 -0.31196517 0.19449142 0.23662598 0.045489192
0.104608156 -0.31730816 0.22273946 0.4764013 -0.053808957 -0.10582363 0.004110783 0.3959398
-0.600342 -0.13036625 0.028996853 0.5393457 -0.105644375 0.103437975 0.050188698 -0.3970888
0.06177122 0.3219776 -0.12215941 0.16254124 -0.1769059 -0.024209231 -0.09363579 -0.48768222
-0.39942297 0.007791865 -0.221478 0.07915636 -0.16226682 0.41519713 0.15371235 -0.28239524
-0.16399953 -0.060690593 0.34092158 0.12905648 0.044187564 -0.087049626 -0.10164297 -0.55275387
-0.33805034 0.2809152 0.6662649 0.2032458 -0.037153482 0.23286802 -0.0016123966 0.24738969
-0.06473236 0.13573419 0.29408208 0.25564933 -0.0866218 0.24827287 0.3613172 -0.0015971076
-0.3477378 0.36611143 0.00025066722 -0.029181043 0.44850665 0.30793467 0.16337419 -0.44977885
0.45246327 0.29416507 -0.042811196 -0.091448896 -0.30496377 0.11326936 -0.0604779 0.20398943
0.21941583 0.044537544 0.1491436 0.29730925 -0.053059362 -0.23411511 0.24598531 0.17088477
-0.19135278 0.039211314 -0.0957879 0.45415866 -0.3194101 -0.21683355 -0.15465862 -0.19664508
-0.009111099 -0.12729177 0.133083 0.31998664 0.41480213 0.1343531 0.39983103 0.12301381
0.051454816 0.25227055 0.12989673 -0.11650592 -0.087913066 -0.30791116 0.23104496 0.019161267
-0.09344939 0.103516616 0.25451857 0.13777106 -0.40935206 0.45256945 0.03685158 -0.396835
0.090662725 -0.47556758 -0.24700843 -0.054842234 0.2957706 -0.22418289 0.27753 0.36874735
-0.016828386 -0.46059236 -0.008086214 -0.0144735575 0.3260538 0.29738185 -0.16484118 0.1847441
-0.04405288 -0.005319397 0.2701031 -0.18094201 0.32705042 0.16572489 -0.11217781 -0.38541716
-0.19827427 -0.456378 -0.05699827 0.059737045 0.11329492 -0.46601403 0.09467533 -0.44444942
-0.076082565 -0.36474344 0.119837694 0.45320264 -0.17704454 0.24937597 0.10293497 -0.1681861

value_net.module_4.bias f4 [32]
00000000: 0d26 103d 52e8 0a3d 1d7c 903c 3913 53bc
00000010: cd33 35bc 837d 023d b3a6 3a3d 868d 23bd
00000020: ca42 963c 52c2 fabb a51b 043d 0165 033d
00000030: 0125 043c da9c 183d e24d 49bc 6e35 dbbc
00000040: 8764 febc ee32 0ebd 7710 c63c 2f18 c13c
00000050: 66ca d53c 2a27 4b3c 28ce 8abc 32f9 edbc
00000060: cdbe b8bc 54dc afbb 3d77 e7bc e643 1ebd
00000070: 9711 113c 0ca7 293d 4709 9cbd 8aec aebc
0.035192538 0.033912964 0.017637307 -0.012883001 -0.011059714 0.03185798 0.045569133 -0.03992989
0.018342394 -0.0076525593 0.032252926 0.032078747 0.008065463 0.03725896 -0.012286635 -0.026758876
-0.031053795 -0.03471654 0.024177773 0.023571102 0.026097488 0.012399474 -0.016944006 -0.02904949
-0.022551918 -0.0053668413 -0.0282551 -0.03863897 0.008854291 0.041419074 -0.07618957 -0.021353025

value_net.module_7.weight f4 [1, 32]
00000000: 0d55 93be c0ad a0bd f72c d3bd 0185 52bc
00000010: b630 9c3e 7d07 03be 9b01 48be d8dd c73c
00000020: 61f1 233b 96a8 c537 e025 aabd 2f28 8fbd
00000030: e3d2 b93a 30a6 d6bd 0d75 093e 47c9 5f3d
00000040: 8953 513e 1a8c 323d ddef eabd 3149 9ebd
00000050: 4ab2 62be 05e5 53ba c06c 3a3e 42ab 053a
00000060: f552 853b 9bfa 993a 63af 963d 2609 963d
00000070: df26 b0bd 606b d3be 127e 013a dddf 013e
-0.28775826 -0.0784564 -0.10311311 -0.012849093 0.30505913 -0.12795825 -0.19531862 0.024397776
0.00250157 2.3562734e-05 -0.08308005 -0.06990086 0.0014177229 -0.104809165 0.13423558 0.054635312
0.20442022 0.043590643 -0.114715315 -0.07728804 -0.22138324 -0.0008083138 0.18205547 0.0005099067
0.004068727 0.001174766 0.07357671 0.07325964 -0.08601164 -0.41292858 0.00049397454 0.12683053
