MAPPO/Graph_H/save/HY_T2/agent_15_MAPPO_r.pt (torch, 28570 bytes, 15 tensors)

policy_net.module_0.bias f4 [32]
000000 d5 23 81 3d 01 28 68 3d 08 e0 75 bd d3 de 77 bd
       0.063056625 0.056678776 -0.060028106 -0.060515236
000010 20 af 9d bc a4 f9 b8 bc b1 bb 6a 3d ad 0d 76 3d
       -0.019248545 -0.022579975 0.057307903 0.060071636
000020 77 28 74 3d c3 d2 71 bd e3 7a 8e bc 76 f8 29 3d
       0.059608903 -0.05903889 -0.017392581 0.041496716
000030 56 29 38 3d b6 e4 6d 3d 2b 3e 7f 3d 14 5c 73 3d
       0.044961296 0.058079444 0.062315147 0.059413984
000040 f4 f8 04 bc f9 3d 1f bc 19 c1 7e bd 88 7b 45 bd
       -0.008115996 -0.009719365 -0.06219587 -0.04821351
000050 ce 05 ce bc 9e 26 0c bd c6 62 9c 3c db bf 3d bd
       -0.025149252 -0.034216516 0.019090068 -0.046325546
000060 1e 80 6d 3d d6 3a 0f bd 7f c8 72 bd f5 83 73 3d
       0.05798351 -0.03496822 -0.05927324 0.059452016
000070 96 28 78 bd 6f 72 5d bd e2 0b 79 bd cb 10 6e 3d
       -0.06058558 -0.05406421 -0.060802348 0.058121484

policy_net.module_0.lin.weight f4 [32, 2]
000000 40 94 6e 3e ca 74 ea 3d 0e c2 db be 1e c5 23 be
       0.2329874 0.11448057 -0.4292149 -0.15993163
000010 a9 83 c2 3c 21 e0 d2 bd fa 95 1c 3d 6e bd 99 be
       0.023744421 -0.102966554 0.038228966 -0.30027336
000020 21 d6 5e 3e 57 67 da be 89 2a 03 3d e9 62 95 be
       0.21761371 -0.42656967 0.032022987 -0.29177025
000030 ae 39 dd 3c 5e 43 8e 3e 05 af 33 3d 0c 3a d9 3e
       0.027005043 0.27785772 0.043868084 0.424271
000040 71 b1 68 bd 04 27 12 3f 9e 35 62 bd c9 22 9a bd
       -0.056809846 0.57090783 -0.055226915 -0.07526166
000050 43 02 f3 be b7 67 15 be c6 6e 07 3e de 6d ad 3e
       -0.47462663 -0.14590345 0.1322585 0.33872885
000060 7a 23 d5 3d a0 68 c4 bd e4 fa 51 3d 3f d8 4b 3b
       0.10407157 -0.09590268 0.05126466 0.0031104235
000070 87 2a 21 3e fd 56 bd 3d c1 3f 90 be 62 16 28 3f
       0.15738879 0.09245107 -0.2817364 0.65659153
000080 03 de 00 bf 80 a6 50 be de e7 0e 3f bd 2a 4c be
       -0.50338763 -0.20376015 0.5582255 -0.19938178
000090 96 eb c8 be 1f fa 33 be da e3 bd 3d fb 93 02 3e
       -0.39242238 -0.17575882 0.09271975 0.12751763
0000a0 e2 b6 ba 3e 2a 17 82 3e b7 88 a7 3d 29 61 88 be
       0.36467654 0.25408298 0.08180373 -0.26636627
0000b0 83 b2 46 3c 76 e4 66 be 70 c5 24 be 31 24 b7 be
       0.012127521 -0.22548088 -0.16090941 -0.357698
0000c0 59 dd 0d 3e 7a 34 89 3e f2 36 98 be b7 dc 0b 3c
       0.13853969 0.2679785 -0.2972942 0.008536509
0000d0 a5 da 95 3e 3f 80 07 bf d2 b3 a5 3d 17 c1 fd 3e
       0.29268375 -0.52930063 0.08090939 0.49561378
0000e0 24 5c 66 3e cf f6 1d be 6b d2 70 3e 32 97 46 3a
       0.22496086 -0.15426181 0.23517768 0.00075756304
0000f0 d8 c5 d7 3c cc 11 ed bd 44 3f 0b 3e 3b 47 0e 3d
       0.026339456 -0.1157566 0.13598353 0.0347359

policy_net.module_2.bias f4 [32]
000000 04 47 3d 3d 14 e7 35 bd 36 f8 7b bd 7e a4 03 3d
       0.046210304 -0.044409826 -0.06151601 0.032139294
000010 80 c5 81 bd d1 4e 63 3d c3 a9 74 3d da 19 81 bd
       -0.06336498 0.055495087 0.05973221 -0.06303759
000020 77 02 79 3d 58 7c 76 3d d8 d3 7c 3d 3e bd 74 bd
       0.060793366 0.060177177 0.061725467 -0.059750788
000030 17 00 10 bd 35 6f 7a bd 15 34 5e 3d 29 a3 9b bc
       -0.035156336 -0.06114121 0.054248888 -0.0189987
000040 5d 8a 7e bd 27 60 af 3c 36 e4 7c 3d 60 d7 7c 3d
       -0.062143672 0.021408154 0.061741076 0.061728835
000050 b3 2f 62 3c 58 99 71 bd 81 19 78 bd b5 1c 7b 3d
       0.013805318 -0.05898413 -0.060571197 0.061306674
000060 7a 81 53 bd 21 12 81 bd 9e 25 69 bd 21 01 76 bd
       -0.05163715 -0.06302286 -0.05692064 -0.06005967
000070 1a 77 7b bd 47 77 09 bd ef db 76 3d 0c e7 78 bd
       -0.06139288 -0.033561017 0.06026834 -0.06076722

policy_net.module_2.lin.weight f4 [32, 32]
000000 f6 e5 7f 3e 12 fe 2d be 3f bd 8a bd 93 d9 0e bf
       0.24990067 -0.16991451 -0.06774377 -0.5580074
000010 43 f5 4a 3e a5 69 c0 3d 25 24 a2 be 16 fb 70 bd
       0.19820122 0.0939515 -0.316682 -0.058833204
000020 d7 0f 1b be 14 e0 7c 3d f7 fc e9 bc df 4c ff bd
       -0.15142761 0.061737135 -0.028563006 -0.12465834
000030 5e f9 ae bc b5 01 ed 3e 45 15 43 be 82 66 bb 3e
       -0.021359142 0.46290365 -0.19051082 0.36601645
000040 8a f3 95 be 5b d7 a2 3c c0 7d 29 3c e1 41 91 3e
       -0.29287368 0.01987808 0.010344923 0.28370574
000050 d5 2b 34 3e d7 e4 a0 be ae 7c e5 be 19 48 34 3e
       0.17594846 -0.3142459 -0.44821686 0.17605628
000060 47 9e 50 be 77 d3 f8 bd 6c f0 0a bf b5 f9 67 bc
       -0.20372878 -0.12149709 -0.54273105 -0.014158656
000070 fc 59 23 3d 30 92 df 3d ae 3c 22 3c 77 54 ef 3e
       0.039880738 0.10916555 0.0099021625 0.4674413
000080 35 1c ca bc 8a 8c 53 3d ab a7 11 be ae e7 83 3c
       -0.024671653 0.0516477 -0.14224117 0.016101684
000090 88 3c 78 3e 59 8f 44 be 8e 37 0b be 8d 1b 9b 3e
       0.24241841 -0.19195308 -0.13595411 0.30294457
0000a0 c5 3a cb bd 0d 9d 1e 3e 25 ed d2 bb bd d1 a9 3d
       -0.09923319 0.15489598 -0.0064369612 0.082919575
0000b0 54 73 ca be b3 84 82 3e 55 f8 f6 3e 33 a1 f5 be
       -0.39541113 0.25491866 0.48236337 -0.47974548
0000c0 d4 d7 f9 3d 12 37 e1 be db 7f c5 3c c6 e5 3a 3e
       0.12199369 -0.43987328 0.024108818 0.18251714
0000d0 e3 73 66 3e 39 5f ba be 20 9f a7 bd 0a 09 8a be
       0.22505145 -0.36400774 -0.081846476 -0.2696002
0000e0 24 cf d1 be 1a 3b e9 3d 08 2a ae 3e 80 cd 9c 3e
       -0.40978348 0.11388226 0.34016442 0.30625534
0000f0 83 e8 26 3d d2 8d 18 be 0e 29 75 be 6e b8 14 3e
       0.040749084 -0.1489785 -0.23941442 0.1452348
000100 c0 07 8b 3e f4 17 89 be a7 5a 13 3e d7 13 0f 3e
       0.2715435 -0.26776087 0.1439005 0.13972412
000110 3f d2 95 3e c4 78 61 3e 9d 50 89 be 82 14 06 bf
       0.29261968 0.22018725 -0.26819316 -0.5237504
000120 a9 33 5f 3e b3 f6 9a be f0 2a 15 bd a9 18 8b 3e
       0.2179705 -0.30266342 -0.0364179 0.27167252
000130 25 ef ea bd 78 e0 30 3e 48 02 08 bf 24 2b 20 be
       -0.114713944 0.17273128 -0.5312848 -0.15641457
000140 01 ba bf 3d d6 9d 75 be f4 b7 f3 3e b3 25 bd be
       0.09361649 -0.23985991 0.47601283 -0.36942825
000150 a1 d4 63 3d c8 24 a5 3e fc d7 31 be b7 92 0d be
       0.0556227 0.32254624 -0.17367548 -0.13825499
000160 79 b5 41 be ad 72 13 3e 9c 09 ad 3e bf 14 80 3e
       -0.18916883 0.14399214 0.33796394 0.25015828
000170 0e b6 6d 3e 82 ca b3 3d 4d 9f 20 3e 9d 90 40 be
       0.2321398 0.0877886 0.15685768 -0.18805166
000180 a7 e6 54 3e b3 e0 c7 be 19 f1 50 bd 50 b5 99 3d
       0.20791112 -0.3903862 -0.05101118 0.07505286
000190 72 69 e3 be 81 5e 66 bd 72 38 da bd a7 b9 44 3e
       -0.44416386 -0.05624247 -0.10655297 0.19211446
0001a0 e9 2f 56 3d a7 d6 24 3e c3 b8 83 be 3e 3c 04 3f
       0.052291784 0.16097508 -0.257269 0.5165442
0001b0 d6 9f 0c bd cc 8e a1 be 80 a5 24 3e ed f5 bc 3e
       -0.03433212 -0.31554258 0.16078758 0.36906376
0001c0 f6 4a 12 bd f6 93 42 3e c2 91 00 bf 8f c6 2f be
       -0.03571602 0.19001755 -0.5022241 -0.17165588
0001d0 b5 e1 19 3c e5 a8 30 be 7e f5 de bd 0a ac 57 3e
       0.009392192 -0.17251928 -0.10886668 0.21061721
0001e0 84 42 bc be 32 d9 ce 3d 76 d0 cb 3c 6a 8a b5 3e
       -0.36769497 0.101000205 0.024879675 0.35457164
0001f0 46 9a fc 3d 72 1e 01 3f 15 4a 55 3d d6 58 86 bd
       0.12334113 0.5043708 0.052072603 -0.06559913
000200 16 a0 35 bf 5f f2 d9 bd a2 7a 59 bd 68 c5 94 be
       -0.70947397 -0.10641932 -0.053095467 -0.2905686
000210 85 6c 1d 3e f8 fb 02 be 1f 8d ce 3e 25 3d 1d 3e
       0.15373428 -0.12791431 0.40342042 0.15355356
000220 ea 2d 5b 3d 20 c0 fe 3d 9b e4 b0 3e 0f ce 2c be
       0.053510584 0.12438989 0.34549412 -0.1687548
000230 65 89 28 be 8a d7 08 be 1f 83 da bd a6 1a 01 be
       -0.16458662 -0.13363472 -0.106695406 -0.12607822
000240 3e c2 c4 bd d5 1a a6 bd ee 27 2f 3e b7 cd 33 be
       -0.09607361 -0.081105866 0.17105076 -0.17558943
000250 9f dd 6c be 6c fe 9c 3e 1e 59 3a be c9 47 41 3d
       -0.23131417 0.30662858 -0.18198058 0.0471876
000260 c8 cc 77 be 78 18 4f 3e ef 6e 90 3d b4 86 8b bc
       -0.24199212 0.20224178 0.07052409 -0.017032005
000270 41 44 f0 3e 40 6f 64 3e de 0b 29 3f ed d8 2e 3e
       0.46927074 0.22308064 0.6603373 0.17074938
000280 c9 09 dc bd f5 2d 02 3e 9f 28 aa bc 1e 2e 3c 3d
       -0.10744054 0.12712844 -0.020771323 0.04594242
000290 cd 2e 11 bf 24 96 3d 3e 2d be 16 be c8 db bd 3e
       -0.5671204 0.18514305 -0.14720984 0.37081742
0002a0 5a 85 d8 3e 3e 66 16 bd ff c0 30 3e 92 83 1e 3e
       0.4228924 -0.0367186 0.17261122 0.15479878
0002b0 12 32 5d 3e f5 78 cb bc e4 9b 1b be 16 de f4 bd
       0.21601132 -0.02483795 -0.15196186 -0.11956422
0002c0 4b 7b 44 bf 6c 09 42 be 91 d3 8e 3e d6 08 a5 bc
       -0.7675063 -0.18948907 0.27895787 -0.020145815
0002d0 87 d2 87 be 2c f9 03 be 0e 34 4a be 37 b9 d6 bd
       -0.26527807 -0.1288802 -0.1974642 -0.10484546
0002e0 e0 ef ab 3d a0 de 82 3e 85 c3 a9 bd 97 3c 59 3e
       0.08395362 0.25560474 -0.082892455 0.2121452
0002f0 a6 e4 98 be 58 70 f7 3b 40 4b cc be 9d 0e 93 3e
       -0.29861945 0.007551234 -0.3990116 0.28722087
000300 4a 4d cd be 10 08 24 bd 77 f1 96 3d b0 ce 9e be
       -0.4009803 -0.04004675 0.073702745 -0.31017065
000310 66 c2 9c 3d c1 5b 43 be 9a cc 58 3d cd fc 51 3e
       0.07654266 -0.1907797 0.0529295 0.20506592
000320 07 ce 18 3f d9 fe 23 bf 61 e9 6c be 7c 19 9e 3e
       0.5968937 -0.6406074 -0.23135902 0.30878818
000330 00 ba 87 be 66 fb d7 3e 1d 52 1b bd 8f f8 c7 3e
       -0.26509094 0.4218399 -0.037920106 0.39056823
000340 27 f8 78 3d 3f 7d 71 3e 5f 33 ec be ab ec 59 bd
       0.06078353 0.23582934 -0.46132943 -0.05320422
000350 cc 21 28 be 45 6f 09 be 05 76 22 3d 6e fa 8b be
       -0.16419142 -0.13421352 0.039663333 -0.273395
000360 2b bf 25 3b 8f d7 47 be cd dc 97 3d 83 f1 be bd
       0.0025290947 -0.19515823 0.07415161 -0.093234085
000370 d6 49 9f be 3b c6 34 bd 5e b1 9a be 19 fe 4a 3e
       -0.3111102 -0.04413436 -0.30213445 0.19823493
000380 b9 17 6f be be f2 fa 3d c4 14 79 3e 85 4f 30 bc
       -0.23348893 0.12253331 0.24324328 -0.010761146
000390 9a f3 17 be fb 55 23 3e fd 76 c9 3d a3 67 ad be
       -0.1483902 0.15950768 0.09837148 -0.3386813
0003a0 e7 dc 76 be ef 4d 0c 3e 2e 43 36 3e ae 5d f3 3d
       -0.24107705 0.13701604 0.17799065 0.11883102
0003b0 e4 e3 2a be e9 87 93 be 1b 5a c8 be 02 96 0b 3d
       -0.16688496 -0.2881463 -0.39131245 0.034078605
0003c0 a9 ea c5 bc 82 24 bc 3d 44 f5 a5 3e c2 2c 27 bd
       -0.024159746 0.09186651 0.32413685 -0.04081417
0003d0 55 1d 8e bb 6d 68 33 bf cc 3a 00 3f 3b 4f c3 be
       -0.0043369927 -0.70081216 0.50089717 -0.38146386
0003e0 67 85 05 be 82 34 f9 be 62 ac 03 3d a1 c8 1a 3e
       -0.1303917 -0.48672873 0.03214682 0.15115596
0003f0 c3 7b 8e 3d 69 b3 30 bd 58 49 84 3e 03 bf 72 3d
       0.069571994 -0.04313985 0.25837207 0.059264194

policy_net.module_4.weight f4 [32, 32]
000000 8f cc 85 3e 20 e0 e0 3d d9 d4 93 bd df 72 0a 3e
       0.26132628 0.109802485 -0.07218332 0.13520382
000010 9f 20 96 be e7 ba 04 3f 7b 9f 09 3d 3f 21 9a bd
       -0.29321763 0.5184769 0.033599358 -0.075258724
000020 0d 26 26 be 3b 6f 66 3e 46 c9 ae 3e a5 f0 ea 3d
       -0.16225453 0.22503369 0.34137934 0.114716806
000030 79 a4 83 3e 66 d7 4e be 1b df 5d be 05 6a 83 3e
       0.2571142 -0.20199355 -0.21667139 0.25666824
000040 ff dc c2 be bc 0b d9 3c a0 c7 3c 3e ba 48 1c 3e
       -0.38059232 0.026494853 0.18435526 0.15262118
000050 ea 6a a3 3d 38 2c e9 be 46 ca e0 3d a2 63 58 be
       0.079793766 -0.4554155 0.109760806 -0.21131757
000060 e7 1c d3 3e 19 36 ac be 28 c6 84 be 4a e6 c0 be
       0.41232988 -0.33635023 -0.2593243 -0.37675697
000070 d7 e3 68 3e 9d 2f 01 3f 13 33 95 3e 22 fa ed 3d
       0.22743164 0.5046328 0.2914053 0.11619975
000080 8f 9c b8 bc 17 5d 03 bf 22 a9 a9 bc a7 63 f9 3d
       -0.02253559 -0.5131392 -0.020710532 0.1217721
000090 b3 88 22 3f 35 22 8c 3e 87 db db 3d 78 fe fb bd
       0.63489836 0.27369848 0.10735231 -0.123043954
0000a0 86 6e c2 3c b5 4b 1e 3e 72 ec dc 3c ad 0d 90 be
       0.023734342 0.15458567 0.026968215 -0.28135434
0000b0 89 b8 62 be 72 7a ea be c9 7d 80 bb e0 a4 25 be
       -0.22140707 -0.45796543 -0.0039212448 -0.16176176
0000c0 d2 49 5d 3e 8e ed c7 3d 05 b5 c3 3b 74 98 19 bc
       0.21610191 0.09762107 0.005972507 -0.009374727
0000d0 7b 0e 93 3d c8 57 00 bf 74 ce c5 be cf c1 20 be
       0.07180496 -0.50133944 -0.38634074 -0.15698932
0000e0 85 79 86 3d 58 6f 05 3c 9d e6 63 be 61 63 00 bf
       0.06566147 0.008144222 -0.2225594 -0.5015164
0000f0 9f 51 e0 3d 05 74 ba be ee a8 b2 3e c3 f2 53 be
       0.10953068 -0.3641664 0.34894508 -0.20698075
000100 9f fe 5d be 33 4e 9c be 24 57 be be 51 67 c6 3b
       -0.21679161 -0.3052841 -0.37175858 0.0060547967
000110 ea c3 a0 bd 78 ac f7 3d 0c 45 07 3f c9 42 c6 be
       -0.07849868 0.12093443 0.5283973 -0.38722828
000120 e5 2a 9f 3d c6 cc 06 bf ad a3 0a 3e 7e 82 bd be
       0.07771853 -0.5265621 0.13539 -0.3701362
000130 9e 4c ff 3e 86 08 14 3e 20 fb ce bd cd 75 b3 3e
       0.49863142 0.14456376 -0.10106492 0.35050812
000140 a1 91 74 bd ba 6d 79 bb 7d 04 1a be da b9 74 be
       -0.059709195 -0.0038059787 -0.15040775 -0.23899022
000150 f3 ad 9d 3e 7b 66 91 be 4a 8e b5 bd be f2 08 be
       0.30796775 -0.283985 -0.0886503 -0.13373849
000160 91 c1 19 3e 84 69 8f 3d b9 f5 7d 3d a7 75 75 bc
       0.15015246 0.070025474 0.062001918 -0.014981664
000170 d8 4f f5 be f8 fb 9d 3d fb 49 67 3c c6 e8 36 be
       -0.47912478 0.07714075 0.014116759 -0.17862234
000180 a1 e4 b1 bd 9f 4f f9 3e 87 d4 34 be 95 7e 8c 3e
       -0.08686186 0.4869356 -0.17659198 0.27440324
000190 8f 2a 9f 3d 97 df 19 3d 6a f0 04 3f 08 61 09 be
       0.07771789 0.037566748 0.5192934 -0.1341592
0001a0 b1 0f d3 3c 43 1a ef 3e c4 d1 e5 3e 76 08 21 be
       0.025764318 0.46699724 0.448866 -0.15725884
0001b0 ce d6 3d bd 47 5c a5 3e 69 b7 0a be e5 35 25 be
       -0.04634743 0.32296965 -0.13546528 -0.1613384
0001c0 a6 8e d4 be 46 67 01 be 45 7e 9b be 0e a7 7c 3e
       -0.41515082 -0.12637052 -0.30369774 0.24673101
0001d0 c6 f5 9a 3e 00 50 2b 3c 0d 3b 16 be d8 0f 79 be
       0.30265635 0.010456085 -0.14670964 -0.2432245
0001e0 c9 46 8e bd f2 72 fb 3d b3 cf 59 be 91 02 ee 3c
       -0.06947095 0.122777835 -0.21270637 0.029053958
0001f0 4b 36 49 bc 60 bd 0b bf 2b f5 86 3e 39 bc 1b 3e
       -0.012281011 -0.5458584 0.26358923 0.1520852
000200 43 34 10 3f 54 0f 85 be c8 0b 80 be 63 8f e6 bd
       0.56329745 -0.25988257 -0.25008988 -0.112578176
000210 85 65 54 be a0 7a 3a 3e e4 81 9a 3e 51 45 0e 3e
       -0.20741852 0.1821084 0.30177224 0.1389363
000220 9f cb 8e be 66 69 8e be e0 3f c6 3e 5d aa 7e 3d
       -0.27889726 -0.27814788 0.38720608 0.06217419
000230 5d b4 63 bd fa 51 48 3e e0 68 1d 3e 57 87 bb be
       -0.05559193 0.19562522 0.15372038 -0.36626694
000240 56 54 c0 ba 6e f7 a4 be 48 86 95 3e 94 c4 4a 3e
       -0.0014673572 -0.32220024 0.2920401 0.19801551
000250 d2 7c 0d 3e ff cc 05 3e f1 f6 0f bf 2c 0f 3e be
       0.13817146 0.13066481 -0.5623618 -0.18560475
000260 a0 02 0c bd ea 2a b5 bb 7f cf f0 bd 02 61 ab 3d
       -0.03418219 -0.0055287974 -0.11758327 0.08368112
000270 4c a2 8b 3e 80 34 23 3d bb 03 86 bd 80 10 02 bf
       0.2727226 0.03984499 -0.0654368 -0.50806427
000280 7c 07 89 be 78 5f 68 be c1 11 be bc d7 ac 63 be
       -0.26763523 -0.22692668 -0.023201825 -0.22233902
000290 f6 6f 5d be e5 f7 bd 3e e0 da 6b 3d 32 1f 4c bc
       -0.21624741 0.3710319 0.057581782 -0.012458609
0002a0 2c 25 f9 3d 7e ba 1f 3e 38 ac 70 3e 49 a2 4c be
       0.12165293 0.15598485 0.23503196 -0.19983782
0002b0 da 20 d3 3e a9 1c 02 bf 4c 4e 9f 3b cc d1 99 3e
       0.41236 -0.5082498 0.0048616286 0.30042875
0002c0 97 ff 2a bd 9f 82 c2 be 18 3b 04 3d 89 cd 00 3f
       -0.041747656 -0.3799028 0.03228292 0.5031362
0002d0 b8 75 f0 be a6 03 35 3e f8 7e ef be 10 46 9c bd
       -0.46964812 0.17677173 -0.46776557 -0.07630551
0002e0 7d 25 f3 bd 5e 08 5d be 36 a8 7c be 7a db 98 3e
       -0.11872385 -0.21585223 -0.24673542 0.29854947
0002f0 42 03 5b be b6 02 8f be 15 37 31 3e 85 f2 f7 3d
       -0.21387962 -0.27931756 0.17306168 0.12106804
000300 52 3a 42 be 03 fe f1 bd ef b9 2b 3e 6a 12 8d be
       -0.1896756 -0.11816027 0.16770147 -0.2755311
000310 23 5f e6 be 66 3a 8a 3e 8e f9 92 bd ec f8 86 be
       -0.4499446 0.2699768 -0.07176505 -0.26361787
000320 94 9b 39 be 72 0a ae 3e 10 b3 bc be 86 4f c0 be
       -0.18125755 0.33992344 -0.36855364 -0.37560672
000330 29 1b 97 3c d7 25 da 3c 53 52 59 3e d6 bd 26 3e
       0.018445568 0.026629372 0.2122281 0.16283354
000340 b0 82 c2 be 55 83 f4 bb 43 52 d5 3e b3 2a 02 bd
       -0.37990332 -0.007461945 0.41664323 -0.031779002
000350 67 c3 e1 3e 93 98 9a bd 31 66 16 3e 1b b3 32 3c
       0.44094393 -0.075486325 0.1468742 0.01090696
000360 72 17 69 be 28 35 3e 3d 96 7e e4 be 0a 73 c6 bd
       -0.2276285 0.046437413 -0.44627827 -0.09689911
000370 83 9d cb 3d 60 e4 bb be ef d1 d5 bd b0 83 d6 be
       0.09942152 -0.36697674 -0.10440432 -0.41897345
000380 b4 33 06 3e a4 27 9a 3e 5b 05 10 3e c3 a7 7a be
       0.1310566 0.30108368 0.14064543 -0.24478059
000390 b9 9d e7 bd 10 af e1 bd b1 9b 3d 3e b9 a2 28 bf
       -0.1130938 -0.11019719 0.18516423 -0.65873295
0003a0 9a 7a 75 be 7c ec 31 3d d8 e5 cc 3e 0e 6d 3d 3e
       -0.2397255 0.04343842 0.40019107 0.18498632
0003b0 eb 20 d4 3d 24 0b d3 be 4a 97 52 3e 24 00 05 3e
       0.10357841 -0.41219437 0.20565525 0.12988335
0003c0 a1 62 ba bd 73 1b 1a be fd f6 07 be e7 9d 43 be
       -0.09100843 -0.15049534 -0.13277812 -0.19103204
0003d0 3e e3 09 be ae 27 0b 3e 6b b6 60 be a8 23 57 3e
       -0.13465592 0.13589355 -0.21944587 0.21009696
0003e0 a6 15 2d be 23 b5 25 be 2b 05 96 3e ba 19 30 bf
       -0.1690279 -0.1618238 0.29300818 -0.68789256
0003f0 e7 85 15 bb bf 14 66 be f2 21 02 be 6e f5 02 be
       -0.0022815408 -0.22468852 -0.12708262 -0.12788936

policy_net.module_4.bias f4 [32]
000000 85 20 6e 3d bd fd 64 3d ea 8e 79 3d f1 86 6e 3d
       0.05813648 0.055906046 0.06092731 0.05823416
000010 aa bd 7e 3d b9 aa 70 3d e1 b5 7d 3d 1f fa 83 3d
       0.062192596 0.058756564 0.06194103 0.06444191
000020 75 f6 85 3d a9 46 7a 3d 25 2c 75 3d f0 0f 81 3d
       0.065411486 0.061102543 0.059856553 0.06301868
000030 64 e2 80 3d 5d db 5b 3d 46 b2 7f 3d d0 8d 6f 3d
       0.062931806 0.053675998 0.062425874 0.058484852
000040 4e bb 77 3d 66 50 7f 3d 3b 6a 88 3d f9 54 73 3d
       0.060481362 0.062332533 0.06660887 0.059407208
000050 80 a3 72 3d 93 4f 7f 3d be 60 81 3d bc 90 6c 3d
       0.059237957 0.062331747 0.0631728 0.057755217
000060 3d 1d 82 3d 0a cc 85 3d 19 75 82 3d 06 6f 7a 3d
       0.06353233 0.06533058 0.06369991 0.061141036
000070 b4 24 74 3d 27 ad 7c 3d e9 5d 73 3d 6c 1a 79 3d
       0.059605315 0.06168857 0.05941573 0.060816213

policy_net.module_8.weight f4 [10, 10]
000000 1e 85 64 b8 5c 2e 9a bb e3 06 7f bb ad 8d ab 3b
       -5.448341e-05 -0.0047052335 -0.0038914017 0.005235395
000010 b6 d6 80 3b b9 0e 5b 3b ab 70 49 3a d2 54 39 bb
       0.0039318455 0.0033425523 0.00076843303 -0.0028279317
000020 d2 57 24 b9 9d a8 81 39 65 26 45 bb f6 31 82 ba
       -0.00015672974 0.00024730424 -0.00300827 -0.0009933102
000030 4e 24 0e 3b 21 ff ac ba 83 93 5b bb 58 a9 68 ba
       0.002168912 -0.0013198593 -0.0033504672 -0.0008875332
000040 07 d3 0b 3b 73 60 a1 ba 6d 14 8e 3b 7a 0a 02 bc
       0.00213355 -0.0012312069 0.004335931 -0.007937068
000050 45 56 3e 3d 8d 8d 41 3d 29 f0 59 3d 3f 1f 46 3d
       0.04646899 0.047254134 0.05320755 0.048369642
000060 da 35 4f 3d 8d f2 42 3d b8 cc 30 3d f4 cc 46 3d
       0.050588466 0.047594596 0.043163985 0.048535302
000070 1d d1 33 3d f4 e9 39 3d 78 12 0b bd 75 ec 11 bd
       0.043900598 0.04538913 -0.03395316 -0.035625894
000080 e4 07 12 bd ef 87 0f bd 63 52 14 bd 9b 84 e6 bc
       -0.035652056 -0.035041746 -0.036211383 -0.028139403
000090 9d c5 0e bd 7d b0 07 bd 0b 3d 1f bd 7a 6b f5 bc
       -0.034856427 -0.033127297 -0.038876574 -0.029958475
0000a0 09 dc 1b bb 26 5a a8 38 1f 1d 94 3b 74 38 84 3a
       -0.0023782274 8.027656e-05 0.004520073 0.0010087625
0000b0 6f af f2 ba a0 79 a5 b9 3f da 83 b8 ee b2 ea bb
       -0.0018515418 -0.0003156187 -6.287218e-05 -0.0071624434
0000c0 0f ba e4 3a 6f ea 7d 3b 67 fe 58 bc b0 8b 5c bc
       0.0017450469 0.003874447 -0.013244248 -0.0134610385
0000d0 ef f5 a4 bc 53 ef 50 bd a7 7e 49 bd c7 ab 0a bd
       -0.020136802 -0.051009487 -0.04919305 -0.033855226
0000e0 8e f2 b6 bc ef f4 9f bc e3 36 92 bc fd 76 01 bd
       -0.022332456 -0.019525973 -0.017848438 -0.031607617
0000f0 c6 85 38 bd d5 77 21 bd 2f 45 2b bd 4a c9 13 bd
       -0.04504945 -0.03942092 -0.041814025 -0.036080636
000100 66 61 31 bd 04 7f 0e bd 46 c8 2d bd f0 a1 16 bd
       -0.043305777 -0.0347891 -0.042427324 -0.03677553
000110 bc f5 24 bd e2 7f 1f bd b9 38 38 3b b8 fe c7 3b
       -0.040273413 -0.038940318 0.0028109981 0.006103363
000120 06 13 da ba 4a 1e a4 ba b0 f6 2c 38 19 e5 b6 3b
       -0.001663775 -0.0012521234 4.123774e-05 0.00558151
000130 4e e6 43 38 81 35 74 bb ce 45 39 ba d5 16 12 bb
       4.670611e-05 -0.0037263336 -0.00070675917 -0.002229144
000140 6f 55 24 bd 1a 0b 37 bd f2 fe 1e bd d8 aa 28 bd
       -0.04012054 -0.04468832 -0.038817354 -0.041178554
000150 36 35 2d bd a0 f3 1d bd 60 1f 14 bd 27 b4 2a bd
       -0.042287074 -0.038562417 -0.036162734 -0.041675713
000160 5e 51 3e bd 9e f7 30 bd a7 11 52 3c 35 13 8e 3c
       -0.046464317 -0.043204896 0.012821591 0.017343143
000170 f4 8f 9d 3c 97 c3 6c 3d e8 b1 48 3d da 97 d3 3c
       0.019233681 0.057803717 0.04899779 0.025829244
000180 df ba a2 3c 74 42 84 3c 33 af 61 3c e3 aa cf 3c
       0.019864498 0.016144969 0.013774681 0.02535004

policy_net.module_8.bias f4 [10]
000000 00 00 00 00 0c f9 2b ba ad 5a 3f 3d 3b da d5 bc
       0.0 -0.0006560243 0.046717335 -0.026105037
000010 00 00 00 00 aa 4e 95 bc a2 28 0a bd 00 00 00 00
       0.0 -0.018225987 -0.033730157 0.0
000020 1d 77 07 bd 1a 51 95 3c
       -0.03307258 0.018227149

value_net.module_0.bias f4 [32]
000000 0f 8f 32 bc 98 b7 30 3b bd 81 f8 3c 53 0e 7f 3c
       -0.010898366 0.00269649 0.030335302 0.01556738
000010 a1 28 ac 3d f3 97 b3 3b 5c 8e 53 bc a0 c7 0b 3c
       0.08406187 0.0054807602 -0.012912359 0.008531481
000020 b9 cb 1d bc d1 7e fc 39 3d ee 3d ba e2 fb 79 3c
       -0.009631091 0.0004815967 -0.0007245278 0.015257807
000030 5d bd 0b 3b 29 ca ed bb 7e 6f 54 bc 57 0f 18 bc
       0.0021322586 -0.0072567654 -0.012966035 -0.009281001
000040 a3 83 5b bc ee 5a 2a bb a1 6b 79 bd 82 29 05 bd
       -0.013398084 -0.002599414 -0.06089366 -0.032510288
000050 c8 da 13 bc 93 9f 83 bc 07 d5 f3 bb 33 d7 e4 3b
       -0.0090243295 -0.016067302 -0.0074411663 0.0069836616
000060 93 1c 0e 3c 2e 69 26 bc 99 ed 30 3d 0d 96 8d bb
       0.008673805 -0.010156913 0.04319534 -0.004320866
000070 aa 55 bf bb d6 a3 1c 3c 47 10 27 3a 8d c9 98 3c
       -0.0058390694 0.009560546 0.000637297 0.018650794

value_net.module_0.lin.weight f4 [32, 32]
000000 41 6c 11 3e 7b 75 13 3f 98 ed 8b 3e 34 6c 6d bd
       0.14201452 0.57601136 0.27329707 -0.05796452
000010 85 80 ab 3e cf b7 7d 3e 3c ff 8b 3e 45 c4 08 3d
       0.3349649 0.24777149 0.27343166 0.033390302
000020 15 00 31 3f a8 5a f4 3e ed d6 ac 3e 4f 42 b7 3d
       0.6914075 0.47725415 0.33757725 0.08948194
000030 3e 0b 30 3e 10 f0 4d be 50 f1 99 3e 96 f5 ae 3d
       0.17191789 -0.20111108 0.3006692 0.085429356
000040 2d 5b f3 3a 61 5d 1b be 21 8d 93 3d 8a ea 80 be
       0.0018566601 -0.1517234 0.072046526 -0.2517894
000050 79 ad e4 be e0 4c 2a 3b 03 5b 16 3f fe ff 1c 3e
       -0.446636 0.0025985762 0.5873262 0.15332028
000060 9f c6 5a 3d 6e 6a 06 be b6 8f 1c be 01 8c 23 3e
       0.053412076 -0.13126537 -0.15289196 0.15971376
000070 79 7c 4a 3e 6a 2f 79 be 14 80 7e 3d d5 fc 52 bd
       0.19774045 -0.24334493 0.062133864 -0.05151065
000080 b1 65 7f 3d c6 1b 5e be 74 a7 82 3e 3a 02 36 bd
       0.06235284 -0.21690282 0.25518382 -0.044435717
000090 e8 89 c1 3e d0 92 6c 3e 34 70 12 3e ef f4 be 3c
       0.37800527 0.2310288 0.14300615 0.023310153
0000a0 d0 8a 8d 3e 7f 79 67 be 5b dd 36 3e d3 a7 62 bd
       0.27644968 -0.22604941 0.17857878 -0.05533583
0000b0 a8 5a c4 3d e6 d6 8d 3e c4 f3 65 3e 4b 2c ad be
       0.09587604 0.27703017 0.2245627 -0.33822855
0000c0 3f 10 90 3e a9 5f e2 be 7a 67 6e 3e b9 9c 58 3d
       0.28137395 -0.44213608 0.2328166 0.052883837
0000d0 0a 66 a4 be 35 38 92 3c 1f f8 6f be 9a 34 03 bf
       -0.321091 0.017849067 -0.23434494 -0.5125214
0000e0 b2 94 0b 3e 4d 5f ba be a3 d8 18 3e 65 e3 09 3e
       0.13630942 -0.36400834 0.1492639 0.1346565
0000f0 f7 44 15 bb f3 5b 11 3f af 62 d2 3b 22 54 69 be
       -0.0022776702 0.5678093 0.0064204554 -0.22786
000100 1f 30 e9 3e 77 56 68 3e a9 e0 ca 3e cb 1e 0e 3e
       0.45544526 0.22689234 0.39624527 0.13878934
000110 0b 88 07 3e c7 47 19 3f e2 04 11 3d 3d 33 2a 3f
       0.1323549 0.5987515 0.035405047 0.66484433
000120 b9 d1 90 3e 64 81 ac 3e ce 02 63 bd 49 65 0c 3f
       0.28285006 0.33692467 -0.055422597 0.5484205
000130 66 6f f2 3e b6 96 70 3d 76 4a 83 3e c2 c3 79 be
       0.47350615 0.05873748 0.25642747 -0.24391082
000140 95 06 26 be dd a8 a5 3e 98 69 9a be 40 d4 6d 3e
       -0.16213448 0.32355395 -0.30158687 0.23225498
000150 f3 dd 3f 3d 23 49 a4 3e 50 01 25 bd 7c aa 78 be
       0.046842527 0.3208705 -0.040284455 -0.24283785
000160 03 d3 b1 3e 8e ce 00 be eb b2 8f be 65 be dd be
       0.34731302 -0.12578794 -0.2806619 -0.43309322
000170 28 82 6f 3e 9c aa b4 3c 43 2b aa bd 31 f3 e7 3d
       0.23389494 0.02205401 -0.08309033 0.11325682
000180 e4 8e b0 3b aa d3 3f be 86 01 dd bd 4b 41 e5 bd
       0.0053881276 -0.18733087 -0.10791306 -0.11194094
000190 aa b0 0c 3f b9 ba c8 bd 5c dd cd be ea 89 a1 3d
       0.5495707 -0.098012395 -0.40207946 0.07887633
0001a0 76 3e 6e bd e4 14 24 3c fd 73 18 3f 5c 88 c3 bd
       -0.058165036 0.010014746 0.59551984 -0.09547493
0001b0 45 c4 d6 3d db 65 49 be 32 ae a0 3e 46 8e cc be
       0.10486654 -0.19667761 0.313829 -0.39952296
0001c0 23 d9 8e 3d c0 1f eb 3d 09 02 71 3e da 39 0e 3e
       0.06975009 0.11480665 0.23535933 0.13889256
0001d0 e3 40 2f bc f6 59 33 bd 49 e8 9a bd 53 f6 1c 3e
       -0.010696623 -0.043786965 -0.07563836 0.1532834
0001e0 be bc 7c be d4 fe 2a 3e 8e 95 e4 bd 28 7e d8 be
       -0.24681374 0.16698772 -0.11161338 -0.4228375
0001f0 f7 bb 2e bd 8d ea 90 be 7a 8a 15 bf b7 bf 20 3e
       -0.042659726 -0.28303948 -0.58414423 0.15698133
000200 43 d9 95 be c5 06 bc 3e 8e 04 11 3d 28 09 a2 bd
       -0.2926732 0.36723915 0.035404734 -0.07911903
000210 36 2c 41 3e 7e e8 09 bc e0 2a b8 be c8 bd 8d bd
       0.18864521 -0.008417247 -0.3597021 -0.069209635
000220 80 d0 9d be 5f 9b 3c bd c4 84 29 bd b3 e1 5a be
       -0.30823135 -0.04604661 -0.04138638 -0.2137516
000230 31 ab 9b bc 6b 63 ad 3e 1c 5f da bd 03 65 77 be
       -0.019002529 0.33864912 -0.10662672 -0.24159627
000240 23 36 4d 3d cb 1c bf 3e c9 cc c6 bd dc c7 10 bf
       0.050100457 0.37326655 -0.097070284 -0.5655496
000250 1f 37 a7 3d 6d 87 de be b4 ba 57 bd 36 09 d8 bd
       0.081648104 -0.43462697 -0.05266829 -0.10548632
000260 f6 83 0f be 7e 81 c7 be 51 b9 9f be 4a b4 f1 3d
       -0.14015183 -0.38965982 -0.31196073 0.118019655
000270 99 10 ee 3e de a6 81 3d 47 26 1c 3e 61 0a a6 bb
       0.46497038 0.063306555 0.15248977 -0.005067155
000280 39 e8 8d 3e cd 4a cc 3d 59 e2 f0 3b 3d e7 56 3e
       0.27716234 0.099752046 0.0073512015 0.20986648
000290 08 86 a5 3e d1 3d 94 be 45 47 8c be de 17 80 bd
       0.3232882 -0.28953412 -0.27398124 -0.06254552
0002a0 0b c2 b8 3d 3d 32 ec bd 73 ec ed be 65 11 8b be
       0.09021386 -0.1153302 -0.4646946 -0.27161708
0002b0 72 0b 9a 3e 15 4a 7f be 70 42 59 3e be ca 8c 3e
       0.30086857 -0.24930604 0.2121675 0.2749843
0002c0 d6 ed 04 3f a6 d2 68 3e 0b 3e 68 bd ca 8c e3 be
       0.5192541 0.22736606 -0.056699794 -0.4444335
0002d0 f7 55 47 bd 78 77 11 bd 27 df c3 bd b0 87 3d 3b
       -0.048665967 -0.035514325 -0.09564047 0.0028919987
0002e0 08 b4 16 3f 6d 5b 5c be b5 d9 fc bd a2 68 5f 3c
       0.58868456 -0.21519251 -0.12346212 0.013635786
0002f0 72 87 e8 be 2c 01 ca bd 7e cd 92 bd 02 91 7b 3d
       -0.45415837 -0.09863505 -0.07168101 0.061417587
000300 1c a0 2d be 16 b8 8f 3e b0 94 06 bf 9c 59 58 3e
       -0.16955608 0.28070134 -0.5257063 0.21127933
000310 f4 19 e8 3d 1a 5e 41 3e b5 65 0a be be 97 bf 3e
       0.11333075 0.18883553 -0.1351536 0.37420458
000320 cc bf 05 3f dc 76 09 be ee 49 44 3e 9e 08 9c bd
       0.52245784 -0.13424248 0.19168827 -0.07618831
000330 92 d3 1c 3e 91 c8 ae 3b b1 60 4e bd b6 b9 62 3c
       0.15315083 0.005333968 -0.05038518 0.013838222
000340 5d 2e ae 3d 5c ca 93 bc f8 60 09 3e 9a 4a 86 be
       0.08504937 -0.018040828 0.13415897 -0.2622879
000350 7c 1a 55 3d 49 8e 5b bd 2f 69 5a 3c 13 f7 d9 be
       0.05202721 -0.05360249 0.013330742 -0.42571315
000360 14 ac 64 3b 62 c7 06 3f 99 c0 7e 3e 13 28 ca be
       0.0034892606 0.52647984 0.24878158 -0.394837
000370 10 e0 cd bc 28 97 73 3d 0b bb db 3e 54 50 f9 bd
       -0.025131255 0.059470326 0.4291614 -0.121735245
000380 2e 43 19 3e 30 9e d9 3e 60 07 42 be cc 67 96 3e
       0.14967033 0.425035 -0.18948126 0.29376066
000390 af 2e fc 3c c4 3c e5 3d 43 b0 28 be dd bd bb bc
       0.03078398 0.11193231 -0.16473489 -0.022917682
0003a0 a9 51 fe 3e 8f c4 4d 3d e3 ac 4a 3e 78 8c 20 3f
       0.49671677 0.05023628 0.19792514 0.6271434
0003b0 53 4c 3f be 25 98 b9 3e 80 f6 9a 3e 80 d9 1c bd
       -0.18681459 0.3624889 0.3026619 -0.03829336
0003c0 7b 99 cb 3d 97 c4 84 3e 8e 99 e0 3c 7e 6e 8e bd
       0.099413835 0.25931236 0.02741697 -0.069546685
0003d0 32 ac 81 be e6 e4 a9 3e df 36 0e bf 10 22 c9 3e
       -0.25326687 0.33182448 -0.55552477 0.392838
0003e0 dc 38 91 bd fa c3 38 be e7 2f 14 3e 0c 4c 86 3e
       -0.07090923 -0.18043509 0.14471398 0.26229894
0003f0 c2 a6 1c be ff ed de bd 9e 16 61 bd c0 b3 9e 3c
       -0.15297988 -0.10885238 -0.05495321 0.01937282

value_net.module_2.bias f4 [32]
000000 92 d2 6e 3a a8 27 67 ba 06 f5 0e bc 85 e7 9b bc
       0.0009110357 -0.000881786 -0.00872541 -0.019031296
000010 8c 11 ce bb 4f 91 26 3c cc 61 10 bb dc 45 be 3c
       -0.006288713 0.01016648 -0.0022030948 0.02322667
000020 a5 9b 90 bb b9 93 c7 bc 46 d5 be 3b ba 16 14 bd
       -0.0044130855 -0.024362432 0.005823764 -0.036154486
000030 b9 c4 33 3c 8c ca 30 3c d3 18 3f bb eb 5c 91 3b
       0.010972195 0.010790478 -0.0029159083 0.0044361255
000040 1d ff 8a 3c 56 3c 3f 3c 73 3e c0 3b b7 2a d7 3c
       0.01696735 0.0116721 0.0058668195 0.026265485
000050 b2 38 2e 3c be da a1 bc e3 c9 2e 3b 03 6c e3 3c
       0.010633634 -0.019757625 0.0026670627 0.027761465
000060 15 c1 74 3c df 82 5e ba 4b e1 fd 3c 58 32 82 bc
       0.0149386125 -0.0008488129 0.030991217 -0.015893146
000070 67 c8 f0 3b 3d 08 2d bc dc 35 02 bb 03 a0 87 3c
       0.0073481086 -0.010561046 -0.0019868528 0.016555792

value_net.module_2.lin.weight f4 [32, 32]
000000 75 48 8c bd e5 be a3 3e 6b 2f 60 be 49 1d ef 3d
       -0.068497576 0.31981578 -0.21893089 0.116755076
000010 d4 47 b1 3e e3 45 74 3e 93 43 5f bc d4 eb 56 bd
       0.34625113 0.23854785 -0.013626951 -0.052470997
000020 38 e1 42 3d 8e 5e e3 3d 24 bf 73 be e7 a0 17 3e
       0.047578067 0.11102019 -0.23803383 0.14807473
000030 82 b0 39 3e 89 02 43 be c5 50 c6 3e 74 be 1a be
       0.18133739 -0.19043936 0.38733497 -0.15111715
000040 46 2f a9 be f5 9c d0 be 76 ba 1e be 6a 7e a1 be
       -0.3304388 -0.4074475 -0.15500817 -0.3154176
000050 db cc 53 bd ea 8f b4 3e ef fd 94 be 98 74 01 bf
       -0.051709037 0.35266048 -0.29099986 -0.5056853
000060 8e cc 27 bf 7a a6 d6 bd 23 36 cc 3d 2d 88 48 be
       -0.655465 -0.10480972 0.09971263 -0.19583197
000070 42 06 7a bc 30 54 2a be 06 2a bb bd d4 6d 8c 3b
       -0.015260281 -0.16633677 -0.09138875 0.0042855535
000080 fd 6d 18 3e 16 f3 8e be 70 b7 9a 3e a0 50 06 be
       0.14885707 -0.27919835 0.30218077 -0.13116693
000090 e6 bf 03 3f 5d 21 11 3f 3a ea b0 bd c8 9b e3 bd
       0.5146469 0.56691533 -0.08638425 -0.11113697
0000a0 7d 04 04 3f 3f 35 fe 3d 13 6b 2b bd 0c 15 20 be
       0.5156935 0.124125 -0.04185016 -0.15633029
0000b0 a3 f2 95 bd 1b b5 90 bc 97 59 ac 3e 53 2a b3 bd
       -0.0732167 -0.017664483 0.33662102 -0.08748307
0000c0 e5 3c 62 3e a3 7d 95 3e b6 53 28 be b3 d3 53 3e
       0.22093542 0.29197416 -0.16438183 0.20686226
0000d0 74 a3 69 bd 0e cb 30 bd df 58 99 bd 3e 8b 29 3e
       -0.057040647 -0.043162398 -0.07487654 0.16557023
0000e0 b8 97 5c 3e 5c 46 6a be 4c 2e 46 3d 18 ef 34 3e
       0.21542251 -0.22878402 0.048383996 0.17669332
0000f0 a1 52 37 3e 2e da d9 be c5 ba 18 3e a2 c9 34 3e
       0.17902614 -0.4254927 0.14914997 0.17655042
000100 de 2d 8d 3e 45 38 d7 3e da 77 5e bd 69 48 52 be
       0.27574056 0.42035118 -0.054313518 -0.20535435
000110 d4 df a1 3e 24 e5 d0 bd c9 48 91 3e 35 ae 96 bc
       0.3161608 -0.10199955 0.28375843 -0.018393615
000120 f2 f3 97 3e 85 b7 dc be 2f f2 0f 3d ed 57 2d be
       0.29678303 -0.43108764 0.035143074 -0.16928072
000130 2d 60 e7 3d 6b cd 14 be 74 ac 83 3e 30 41 cb 3d
       0.11297641 -0.14531486 0.2571751 0.09924543
000140 20 08 0c 3e bb f6 c7 3e 00 9f ff 3e d9 17 8b 3e
       0.13674974 0.39055428 0.49925995 0.27166632
000150 c1 d6 ea 3e ce 6e 8c 3e b2 1c 27 3d 93 57 15 3d
       0.4586697 0.27428287 0.04079885 0.03646047
000160 24 95 07 be 32 17 7c be 9d 3b e6 bd 6b 37 a3 be
       -0.13240486 -0.24618223 -0.11241839 -0.31878218
000170 e3 e1 0e bd 97 65 b8 3e 70 94 fe bd 6c d3 ab be
       -0.03488339 0.36015007 -0.12430656 -0.3355974
000180 c8 a8 56 be 44 85 a7 3e c0 54 a1 3d 70 4e 78 bd
       -0.20962822 0.3271886 0.07877493 -0.06062168
000190 65 d2 80 3d 35 e2 a3 be f3 db b5 bd a1 2d 98 3e
       0.062901296 -0.3200852 -0.088798426 0.29722312
0001a0 9f 93 d1 3e aa 99 c4 be 3b 58 eb be 17 74 53 be
       0.40932938 -0.38398486 -0.45965752 -0.20649754
0001b0 46 ac 9d 3e 5c 1d 9f 3e 8a 84 be bd e8 b3 2b 3d
       0.30795497 0.31077087 -0.093026236 0.04191962
0001c0 b7 f4 3c 3e 80 79 b5 3e 2e 48 05 be 31 cf 6f be
       0.18452726 0.3544426 -0.13015816 -0.23418881
0001d0 f6 2f c6 be 57 01 b7 3e 4c 7d 9d 3e 6a a6 cb 3e
       -0.38708466 0.3574321 0.30759656 0.397754
0001e0 ca 20 67 be e3 f2 dd 3e ea 8c 31 3e d5 fc 97 3e
       -0.22571102 0.4334937 0.1733891 0.29685083
0001f0 6e d6 12 3e 2b d7 89 be 4d b8 b5 be d7 fe 8c be
       0.14339611 -0.26921973 -0.35492173 -0.27538177
000200 24 67 36 be ad 8a 87 3c 84 d6 28 be f6 36 6f 3c
       -0.17812783 0.016545618 -0.16488081 0.014600506
000210 cd 83 06 bd db b8 28 3f 2f af f3 bc a9 69 ee 3e
       -0.03284054 0.6590707 -0.02974662 0.46564987
000220 2c 54 76 bd 9d a6 d1 3d e6 db 73 3d b4 24 ff 3e
       -0.060138866 0.10236857 0.059535883 0.4983269
000230 1f b6 38 3d 08 6a 6f bd e5 7f b1 bb 87 66 a5 3e
       0.04509556 -0.05845073 -0.0054168575 0.32304785
000240 59 2f 27 3f 2e 3a 81 be b7 7a 8a 3c 3b e3 18 3d
       0.6530662 -0.252397 0.016904218 0.03732608
000250 46 59 11 3e c2 70 79 3e cd 86 0d 3e 7b 2f 8a bb
       0.14194211 0.2435942 0.13820954 -0.004217086
000260 d2 06 59 be 0c 0f 0e 3e 27 b5 2b 3e ab 06 a8 3e
       -0.21194008 0.13872927 0.16768323 0.32817587
000270 09 b4 8d 3d 69 6d ba 3e 42 66 8d 3e 33 92 2a be
       0.069191046 0.36411598 0.2761708 -0.16657333
000280 dd e1 8b 3e 56 bb 01 3f 09 94 17 3f b8 29 03 3e
       0.27320758 0.50676477 0.5921026 0.12808883
000290 f2 bc 17 3d b9 a1 56 bb c9 b4 8d 3e 0b 21 c5 3e
       0.037045427 -0.0032750203 0.2767699 0.38501772
0002a0 36 27 08 be 1b ca 1d bd 67 b7 0c 3c 5e dd 2e bd
       -0.13296208 -0.03852282 0.008588648 -0.04269158
0002b0 fe 96 a9 be 06 be ba be 3e fa bb 3c 50 0a 53 3e
       -0.3312301 -0.364731 0.022946473 0.20609403
0002c0 75 d6 98 3d 52 b9 d7 3d 3c 62 be be 04 42 93 3e
       0.074627794 0.10533394 -0.37184322 0.28761303
0002d0 f0 20 0d bf dd 5e a0 bd e7 c5 1b 3d 8e d3 fe be
       -0.55128384 -0.07830594 0.03803053 -0.49770778
0002e0 c4 54 c7 3c 93 6e d7 3d 1d ea 14 3e c1 a5 0c 3d
       0.024332412 0.10519137 0.14542432 0.034337763
0002f0 a2 2d 47 be aa c6 87 3e a5 58 66 3e ee 03 fb 3e
       -0.19451001 0.26518756 0.22494753 0.49026436
000300 64 55 07 bf a6 74 ce 3d 66 70 81 be 2a 6e 97 3e
       -0.5286467 0.10080843 -0.25281066 0.29576236
000310 15 c3 41 be f4 4f b3 bd 22 ff ad 3e 7f e2 d2 bc
       -0.18922074 -0.08755484 0.33983713 -0.025742767
000320 d0 18 bc 3e 66 15 37 3d f1 6a 11 3e da da 2c 3d
       0.3673768 0.04469814 0.14200951 0.0422009
000330 88 15 2b bf 96 05 32 be 52 61 6a bd 23 80 f8 3d
       -0.6682973 -0.17384943 -0.057221718 0.12133815
000340 c7 ee 30 3e f6 8b b4 3b 5e 71 65 be 2d 4a 2b 3e
       0.17278586 0.0055098487 -0.22406527 0.16727515
000350 c6 21 1e 3e d1 23 23 3e 69 3f 7a be 3b d3 10 3f
       0.15442571 0.15931632 -0.24438252 0.5657231
000360 30 82 4f bd 9a 34 9d 3e 82 8b c4 bd 61 12 e8 be
       -0.050661266 0.30704194 -0.095969215 -0.45326522
000370 4d 88 9e 3d 57 8c 4e be 08 9f 84 3d 4c 35 53 3e
       0.07740841 -0.20170723 0.06475645 0.206258
000380 00 f9 aa bd 2b 4e e2 3d 05 97 cd bd ec ed f5 be
       -0.08348274 0.110500656 -0.1003857 -0.48033082
000390 d4 fc bb be 86 7a 0f 3e 80 ca 03 be d6 b7 44 be
       -0.3671633 0.14011583 -0.12870216 -0.19210753
0003a0 07 5b 77 3e 69 ac 85 be 15 66 49 3e 43 7c 08 3e
       0.24155818 -0.261081 0.19667847 0.13328652
0003b0 e7 b7 9b be c1 0c 91 3e 4d 64 eb 3d 22 c3 22 3d
       -0.30413744 0.28330043 0.1149374 0.039736874
0003c0 0d 4f 34 be c2 35 60 bd f4 e4 14 bf 26 c3 5c be
       -0.1760828 -0.054738767 -0.58161855 -0.21558818
0003d0 8c 3f a6 3d f2 18 26 3e dd 1d 8e bc de 73 8b 3d
       0.08117589 0.16220453 -0.017348224 0.06809209
0003e0 d0 08 1a 3e a4 bd fe be cc a0 10 3e 21 82 7a 3e
       0.15042424 -0.4975406 0.14123839 0.24463703
0003f0 94 77 ac be 6e 7d 97 3e ad cc 4a be 80 f5 d0 3e
       -0.3368498 0.29587883 -0.1980464 0.40812302

value_net.module_4.weight f4 [32, 32]
000000 2b 1d 96 3d 43 e6 d6 bd d2 b4 76 3e 46 56 1b be
       0.07329782 -0.10493138 0.24092415 -0.1516963
000010 2c 59 41 3e 32 e4 df 3e d0 9d 24 be ad 4d 3d bf
       0.18881673 0.43728787 -0.16075826 -0.7394665
000020 d4 0c 66 3e 27 4c 1c bd a3 8f 8f 3e 57 27 13 3d
       0.22465831 -0.038158562 0.28039274 0.03592619
000030 cb 25 26 3e 55 42 65 bd fe a8 e6 bd 9b fd bf 3e
       0.16225354 -0.055971462 -0.112627015 0.37498173
000040 a9 fa 94 3c 3b 26 6d be 17 01 b8 be f1 cc 03 3d
       0.01818593 -0.23159115 -0.3593833 0.03217787
000050 23 f3 9b 3e d9 a8 37 3e f3 5a 85 3e 5c 5f e4 be
       0.30458936 0.17935504 0.2604595 -0.44604003
000060 2c 78 0f be 25 40 9d 3e 3b bf 22 be 3e 8b ec bc
       -0.14010686 0.30713 -0.15893261 -0.02887499
000070 fc 98 86 3e 68 04 03 3e af e5 91 bd 77 4e 36 be
       0.26288593 0.1279465 -0.07123887 -0.1780337
000080 77 0f 64 bd 63 39 9e bd 3f fa 80 3e 60 a8 ad be
       -0.05567881 -0.077257894 0.25190923 -0.33917522
000090 61 ea 5d 3e f2 f2 7c bd bf 71 9d be 6f cd cd 3e
       0.2167144 -0.06175513 -0.30750844 0.40195796
0000a0 df 48 14 3e 36 85 b6 3e a6 f8 4d 3e 15 96 1f 3e
       0.14480923 0.35648507 0.20114383 0.15584596
0000b0 e4 94 a2 bd 27 a8 4a be ef 8a 93 3c bc 31 e0 3e
       -0.07938555 -0.19790708 0.018010585 0.43787944
0000c0 cd 1a d3 bd 22 b2 43 be 8b 14 08 be 15 75 d1 bd
       -0.10307846 -0.19110921 -0.13289087 -0.1022741
0000d0 f3 41 57 3e d3 95 eb be 0c bf 7e be 6e 27 42 3e
       0.21021251 -0.46012744 -0.24877566 0.18960354
0000e0 36 a1 90 bd e2 83 b8 3e 42 dc 7c 3e 05 fe c1 be
       -0.070619985 0.3603812 0.24693397 -0.37889114
0000f0 95 98 56 be 76 1c 01 bf 75 96 58 3e c8 ca 49 3e
       -0.20956643 -0.5043405 0.21151145 0.19706261
000100 ce a6 96 3e 96 6f 5c be 73 7e f4 bc 8f df 76 be
       0.29424137 -0.21526942 -0.029845452 -0.24108718
000110 b7 cf c8 3d 6f 9f 4e 3e 21 28 4a 3e fe cb 30 3e
       0.098052435 0.20178007 0.1974187 0.17265317
000120 8a 9c 4e 3e ea 39 aa be f4 09 7c bd 15 f1 4a 3d
       0.20176902 -0.3324731 -0.06153293 0.04954632
000130 c5 4e 48 be 46 70 a1 3e 98 ed e2 3d 5a 16 9a 3e
       -0.19561298 0.3153097 0.11080474 0.30095178
000140 77 a8 b4 bd 92 ac 82 be 27 44 5c 3f ee ca 74 3c
       -0.088211946 -0.25522286 0.8604149 0.01494096
000150 62 ed 93 3e 1c e0 8c 3e ba e1 2f 3e 8c f5 3e be
       0.28892046 0.27514732 0.17175952 -0.18648356
000160 53 c8 59 3e 6d d1 26 be 08 64 93 3e e9 27 92 bd
       0.21267824 -0.16290827 0.28787255 -0.071365185
000170 56 65 d0 bd 3a dd aa be f8 c2 99 bc 01 a4 87 bd
       -0.10175578 -0.33371907 -0.018769726 -0.06623078
000180 34 e7 9c 3e 72 c4 8f 3e 9a 83 95 3d dd d0 69 3e
       0.30645144 0.28079563 0.07300492 0.22833581
000190 9d 29 c2 3e 74 b1 e9 be d5 61 a6 3e 16 77 2b 3e
       0.37922373 -0.45643198 0.32496515 0.16744646
0001a0 c4 08 77 ba 5d 28 87 bc 70 60 03 be 21 34 4f 3e
       -0.00094236084 -0.016498739 -0.12829757 0.2023473
0001b0 81 40 8d 3e 46 54 20 bd 0f 51 ec be 30 b1 d7 3e
       0.27588275 -0.03914287 -0.46155593 0.4212737
0001c0 4b 5f 22 3e 8b 03 26 3e 12 9a 79 bd 5c ee 97 be
       0.15856664 0.16212289 -0.06093795 -0.2967404
0001d0 75 e0 ab 3e d4 fc 48 bd 88 2d 4b be 2b ee 7b be
       0.33569685 -0.04906924 -0.19841588 -0.24602573
0001e0 a4 69 92 3d 0b 21 2c be 9d b8 9a 3e bf 27 fe 3e
       0.071490556 -0.1680948 0.30218974 0.496397
0001f0 35 2a 3f be ba cf ac 3d b2 16 80 3c cc 0b 53 be
       -0.18668444 0.08438058 0.015635822 -0.20609969
000200 75 d3 4e 3d e7 20 a5 be 7e 61 ba 3e 0a 89 71 3e
       0.05049463 -0.32251665 0.36402506 0.23587433
000210 81 1d d3 bd d2 6d 50 3e 34 11 c2 be 2d 7f 92 be
       -0.10308362 0.20354393 -0.3790375 -0.28612652
000220 c5 a1 85 be 05 6c 55 3e 9b db 01 be 1b 77 82 be
       -0.26099983 0.20841987 -0.12681429 -0.25481495
000230 05 6d 6d be ab 09 8d be aa dd 1f be da 9a 3c be
       -0.23186119 -0.2754644 -0.15611902 -0.18418446
000240 c9 d3 e3 be a1 be 8d be 32 26 aa 3e 73 58 96 3c
       -0.44497517 -0.276845 0.33232266 0.018352723
000250 ad 74 89 be 76 e2 b0 be 2e b4 60 be 72 0d 73 be
       -0.2684683 -0.34547776 -0.21943733 -0.23735598
000260 cb 56 1c bd 56 06 a1 3c 1e 16 23 3d 02 d5 01 3f
       -0.03816871 0.019656342 0.039816014 0.5071565
000270 ab b6 89 be 86 01 05 3d ee 49 db be 4c 8f 34 be
       -0.26897177 0.032472156 -0.4282984 -0.17632788
000280 c7 17 63 3e 11 b9 4b 3e d6 9a 93 3e 35 5d d3 3d
       0.22177039 0.19894816 0.28829068 0.10320512
000290 cf 73 1e be 42 ac fe 3d 89 2b 0b be 61 ba 54 3e
       -0.15473865 0.12435199 -0.13590826 0.20774223
0002a0 ea 7b fe bc 00 80 80 3b eb 91 34 be da eb 2a be
       -0.031064946 0.003921509 -0.17633788 -0.16691533
0002b0 c1 b3 bf be 2d 22 01 3f 31 1e 22 3e d3 52 81 bc
       -0.3744183 0.50442773 0.1583183 -0.015786564
0002c0 9a 0f 83 be bf 28 5b 3e 54 63 09 bf 5a a1 b0 be
       -0.2559784 0.21402262 -0.5366719 -0.344981
0002d0 43 68 5f be 28 f7 d0 3e 5e 36 58 be e9 ea 8a be
       -0.21817116 0.40813565 -0.2111449 -0.27132347
0002e0 c9 5d 02 bd f5 db 24 3e c1 a2 8f 3e 49 d6 cc 3d
       -0.03182772 0.16099532 0.2805386 0.10001809
0002f0 34 48 9a 3e f8 9a da be a9 a4 62 be 14 0e 00 3d
       0.30133212 -0.42696357 -0.22133125 0.031263426
000300 bc 9f 98 be d3 55 98 bd d5 73 70 be be 8f 8f bc
       -0.29809368 -0.07438245 -0.23481686 -0.017524596
000310 66 60 88 3e 20 9c e8 3d 9d 99 52 3e 01 06 e6 bd
       0.26636046 0.113579035 0.20566411 -0.11231614
000320 87 89 42 be 27 89 7d be b8 4c da bd 55 b7 14 3f
       -0.18997775 -0.2475935 -0.10659164 0.5809224
000330 d6 51 97 be 2c f6 9f 3e fe 0a 84 3d 5e 85 b2 be
       -0.29554623 0.31242502 0.06447409 -0.34867376
000340 8a 08 88 3e a0 da 23 3e 4b 6b f4 bd c6 5f 86 3b
       0.26569015 0.16001368 -0.11934527 0.0041007726
000350 e4 ba 94 3e 55 e6 fa be f9 f4 9f bd fe 85 36 bd
       0.29048836 -0.49003854 -0.07810397 -0.04456138
000360 2e 56 ad 3b 3f 9b a1 3e 46 5e 0d 3e ba 79 ed bc
       0.0052898144 0.31563756 0.13805494 -0.028988708
000370 f5 44 1c be b0 fd 47 be ea 2a cc be fa 9b f7 be
       -0.1526068 -0.19530368 -0.3987649 -0.48361188
000380 b9 25 5f be da c5 d2 be ec 2f f8 3e e5 12 20 3f
       -0.21791734 -0.41166574 0.4847406 0.6252883
000390 2f bb 06 3a cf d4 0e 3e 86 c3 e3 3e 70 a7 95 3c
       0.0005139587 0.13948368 0.4448511 0.018268317
0003a0 10 e4 06 3e 1d f0 b1 bd b4 ac 33 3c 37 df 2a 3d
       0.13172936 -0.08688376 0.010966469 0.04171678
0003b0 0e 84 ce be 2c 81 86 be 7e 88 d6 3e 48 d0 9b bd
       -0.40335125 -0.26270425 0.4190101 -0.07608086
0003c0 fc 14 04 bd ca 16 85 bd 00 23 37 be 8f 31 2b be
       -0.032246575 -0.06498487 -0.17884445 -0.16718124
0003d0 ed 50 fc 3e 20 cb 17 3e 3a b4 60 be 68 51 21 3e
       0.4928049 0.1482358 -0.21943751 0.1575371
0003e0 e7 63 01 3d 0e b9 43 be a3 ff fb bd 50 24 9f 3d
       0.031589415 -0.19113562 -0.12304618 0.07770598
0003f0 23 ba a0 bc 0f 18 16 3e f1 47 4c 3e d7 dd 28 3e
       -0.019620007 0.14657615 0.19949318 0.16490875

value_net.module_4.bias f4 [32]
000000 d8 7c b0 bb 9e ba f1 3b 54 0d 9b 3b 18 d4 97 bb
       -0.0053859763 0.007376983 0.0047318134 -0.004633438
000010 d8 8a c1 bb cf f4 0e 3c d0 79 99 3b 23 6b 5a bc
       -0.005906444 0.008725359 0.0046837106 -0.013331207
000020 c8 4f ca 3a ac 48 65 3c 07 9a ef 3b 90 e8 3f 3b
       0.0015435154 0.013994377 0.0073120627 0.0029282905
000030 2b c0 0b 3c a3 05 96 3b 48 06 00 3b 98 4b 2a 3c
       0.008529703 0.0045783087 0.0019534994 0.0103939995
000040 70 7e 4a 3b 11 7c 43 3c 2a 83 ea ba ca 5b ab ba
       0.0030898117 0.011931435 -0.0017891873 -0.001307362
000050 c7 85 21 ba 37 bf 8e bc cb 3c ad 3a 94 d6 ac b9
       -0.0006161597 -0.017425163 0.001321697 -0.0003296627
000060 ed 60 1b bc a7 af b3 ba b6 6f b0 bb 95 c0 30 bc
       -0.009483558 -0.0013708965 -0.0053844107 -0.010788103
000070 a6 ee a3 bb 33 54 1e 3c 21 61 1b bc d2 16 39 bb
       -0.0050028143 0.009663629 -0.009483607 -0.0028242362

value_net.module_7.weight f4 [1, 32]
000000 6c c6 98 3d d5 15 5b bd 7e 9a 35 bd ea 26 22 3e
       0.07459721 -0.053487618 -0.04433679 0.15835157
000010 f2 49 e4 3e d3 de 01 be 8b b7 85 bd 9c 17 84 3e
       0.44587666 -0.12682657 -0.06529149 0.25799263
000020 e0 b5 f5 bd 7a d0 4f bd 01 37 20 3e 04 65 59 be
       -0.119975805 -0.050735928 0.15645982 -0.2122994
000030 e1 9c 15 3e 13 f6 a3 3e 84 cf 87 bd e0 08 a1 3c
       0.14610626 0.32023677 -0.06631377 0.019657552
000040 2c 64 41 be 62 8b 64 3d 23 87 31 be 71 95 87 3d
       -0.18885869 0.05579699 -0.17336707 0.066203006
000050 4d 06 67 be ef d0 3b 3d cc 39 ac bd 64 e4 d8 bd
       -0.22560997 0.04585355 -0.084094614 -0.10590437
000060 77 04 2c 3e a8 20 4d bd 16 e8 69 bd a8 55 17 3d
       0.16798578 -0.05007997 -0.0571061 0.036946923
000070 73 68 15 3e 1e 8f bc 3e ac fc 54 3d 76 f5 57 3e
       0.14590625 0.3682794 0.05199878 0.2108973
