MAPPO/Graph_H/save/HY_2_T1/agent_9_MAPPO_c.pt (torch, 86982 bytes, 15 tensors)

policy_net.0.weight f4 [32, 16]
000000 44 7d 6b bd 91 cd 30 be 78 4d 4d 3d dd 7f f9 be
       -0.05749251 -0.17265917 0.050122708 -0.48730364
000010 2a 1a a0 be 5d 24 46 bd fb 2a 37 be 9e a5 18 be
       -0.31269962 -0.048374522 -0.1788749 -0.14906928
000020 59 f4 12 3e 54 d7 22 3f 3b 1d 2c be 13 da 25 be
       0.14351024 0.63609815 -0.16808026 -0.1619647
000030 7d 06 8d be 69 d3 6c 3e 83 93 d8 3b 29 b2 a0 3d
       -0.27544013 0.23127522 0.0066093816 0.07846481
000040 1f 1f 29 3d b5 ad 02 be be e3 82 3d 6c 63 94 3e
       0.041289445 -0.12761576 0.063910946 0.28982103
000050 3f 2f f9 be c2 37 04 be f9 53 a6 be 8f 5b fc bd
       -0.48668858 -0.12911895 -0.3248594 -0.12322151
000060 66 31 47 be b7 8e b0 3e 03 ab 8b bd ef 83 2d 3e
       -0.19452438 0.34483883 -0.06819727 0.1694486
000070 d8 f8 62 3e 3a 7d 0c 3e 83 7c b7 3e a9 25 37 3e
       0.22165239 0.13719645 0.35837182 0.1788546
000080 fc a0 8f be fa 76 2f 3e 3d c1 42 3e be 89 2c 3d
       -0.2805251 0.1713523 0.19019027 0.04212355
000090 31 d7 dd 3e 8a 25 b0 3d 09 d4 87 3c cb a3 9a 3e
       0.4332824 0.0860091 0.016580598 0.3020309
0000a0 3a ba 74 3f b2 66 0b 3c cf bf 82 bd 34 28 f5 be
       0.9559666 0.008508371 -0.06384241 -0.47882235
0000b0 1a 4e 08 3f f3 d4 b0 bd df b9 37 be 88 ff 8a 3d
       0.53244174 -0.08634367 -0.17941998 0.0678702
0000c0 b8 a0 0c be aa 08 48 be 69 74 0e 3f 7e 47 ea 3e
       -0.13733184 -0.19534555 0.5564638 0.4575767
0000d0 9b a4 9c 3e 41 9d b0 3e a2 14 9d 3d 87 9e 25 3e
       0.30594334 0.34494975 0.07669951 0.16173755
0000e0 6d 28 06 bd 1d 3a a8 3e 4a 3c 05 be be c2 3e be
       -0.032753397 0.32856837 -0.1301128 -0.18628976
0000f0 fd eb fb 3d d6 f6 00 bd 8a 33 8f 3e 94 2d a8 3e
       0.123008706 -0.0314854 0.2796901 0.32847273
000100 35 39 ac 3d ce 31 b3 3e 6b 72 cb bd 10 71 af 3e
       0.08409349 0.34998935 -0.09933933 0.34265947
000110 c6 b2 cd 3e 8e 26 17 bf dc ac 2d bf 90 33 01 3f
       0.40175456 -0.59043205 -0.6784189 0.50469303
000120 60 6e 93 3e 9c 6c 6a be d4 f8 38 be 1e af 70 be
       0.28795147 -0.22892994 -0.1806367 -0.23504302
000130 6f 96 cd 3c f1 ff d0 bd b8 18 2b be e2 08 7a 3e
       0.025096146 -0.10205067 -0.16708648 0.24417451
000140 be 85 03 be 9f 96 85 bb 13 89 03 3d 3a 61 10 be
       -0.12843987 -0.0040767933 0.032113146 -0.14099589
000150 ab 53 db 3c 64 94 bf bd f2 7d c4 bd f1 45 2d be
       0.026773294 -0.09354475 -0.09594335 -0.16921212
000160 83 31 89 be 1e f7 8f be 85 fb 00 3d ee 8d af be
       -0.26795587 -0.28118223 0.031489868 -0.3428797
000170 9d 1c 87 3e cd 1a 87 3c 2e 73 6b bf e7 b8 35 be
       0.26389018 0.016492272 -0.91972625 -0.17746316
000180 52 33 33 3f c0 91 ef bc bb 58 3e bd 3e 7e 26 be
       0.70000184 -0.029244304 -0.04647134 -0.16259095
000190 38 af f0 bd 18 4d 9f 3e b7 af df 3e 68 5d 9d 3d
       -0.1175217 0.31113505 0.43688747 0.076838315
0001a0 79 29 3b 3e 25 af 76 bd 5d 78 2f be f6 b4 ba bd
       0.1827754 -0.060225625 -0.17135759 -0.09116547
0001b0 c3 56 3e bc 94 e5 df bc 4b bb f5 3c 94 75 b6 3e
       -0.011617365 -0.027331151 0.029996535 0.3563658
0001c0 cc 02 05 bd ca 4f b5 be 99 ae 88 be 58 a8 8a be
       -0.03247337 -0.35412437 -0.26695707 -0.2708156
0001d0 47 88 42 be 3f 89 3c 3d ae 52 0e 3e c2 56 02 3e
       -0.18997298 0.046029326 0.13898727 0.12728408
0001e0 7f 2b d7 3c 77 2f e2 be c7 d9 cd 3d 29 72 95 3d
       0.026265858 -0.44176838 0.10051303 0.07297165
0001f0 77 a2 e0 3e d3 03 fe bd 80 18 98 be 8f 55 7e 3d
       0.4387395 -0.12403073 -0.29706192 0.062093314
000200 53 af 3d bd 70 83 b3 3e 8e 6b fc 3e de 8c 22 3e
       -0.04630978 0.35061216 0.49300808 0.15874049
000210 e6 15 29 be 1a 34 57 bd 23 34 8c bd 5b 58 08 3e
       -0.1651226 -0.052539922 -0.06845882 0.13314955
000220 11 11 26 3d c8 0f 2f 3f ca a9 1f 3f 98 02 c4 3e
       0.04054362 0.68383455 0.6236845 0.3828323
000230 06 90 db be 6b 12 16 3e 53 06 72 be aa 97 bb 3d
       -0.4288332 0.14655463 -0.23635225 0.09159787
000240 2e 0e 73 3e b6 ca 9b 3e 38 da bc be af 0b 4d 3c
       0.23735878 0.30428094 -0.36885238 0.012514993
000250 8a 40 49 be 0e f1 7c 3d e2 70 9c 3d 24 61 ac bd
       -0.19653526 0.061753325 0.07638718 -0.084169656
000260 2e 7d 02 bf 51 64 c8 bd 5a 65 bd 3d 1e 2d a7 bd
       -0.5097226 -0.09784759 0.09247847 -0.08162902
000270 1d 6b d2 3e ba 82 60 be 31 79 ed 3c c8 f2 0d be
       0.41097346 -0.21924868 0.028988453 -0.13862145
000280 a9 6c c7 3d f7 b6 70 bd 71 2e 97 bd 8a 43 c2 bb
       0.09737522 -0.05876824 -0.07381905 -0.0059284614
000290 33 d0 16 bf ba 15 f4 bd 96 b3 2a 3d 52 73 71 be
       -0.58911437 -0.119182065 0.041675173 -0.23579147
0002a0 5b 1e 1c be 61 99 de 3e 0a 93 3a 3d 2e 9f 4d 3f
       -0.15245955 0.43476394 0.045550384 0.80321014
0002b0 15 c1 5f 3e a8 ec 00 bf ed 55 e8 3b 86 e6 53 3c
       0.21850999 -0.5036111 0.0070903213 0.012933379
0002c0 64 93 16 be 46 6f ac bd 9b 22 30 3e 78 2c da 3e
       -0.14704663 -0.08419661 0.17200701 0.42612052
0002d0 06 37 fd ba b5 8a 4a 3c 3b 0d 78 be 6a f6 28 be
       -0.0019318766 0.012362172 -0.24223797 -0.1650025
0002e0 58 7b 11 be dc 50 87 3e 0b 34 1d 3f dd c1 2f 3f
       -0.14207208 0.26428878 0.61407536 0.68655187
0002f0 f9 c2 b1 be 3d 8b 10 be dc 9a cc 3e 6e 53 f8 bb
       -0.34719065 -0.14115615 0.39961898 -0.007578305
000300 a3 59 8e 3e ce d0 6c be fb 00 23 3e b2 95 ab bd
       0.27802762 -0.23126528 0.15918343 -0.083781615
000310 39 85 44 3c e2 92 d2 bd b8 ac 07 bd 13 14 89 3a
       0.011994653 -0.10281922 -0.0331237 0.0010458253
000320 c7 9d 28 3e 57 8f 22 3e 82 e6 8b be f3 f5 3c 3f
       0.16466437 0.15874992 -0.273243 0.7381279
000330 fd f3 36 be be af 95 3e 60 a1 d5 bd 0b b5 2d be
       -0.17866512 0.29235643 -0.104311705 -0.16963594
000340 34 c5 c2 3e 1c d7 84 3e a9 ef b6 3e 39 a8 f6 3e
       0.3804108 0.25945365 0.3572972 0.4817522
000350 84 65 f7 3d 0a 18 a9 3e ef 6e b2 be b4 3a cf 3d
       0.120799094 0.33026153 -0.3485026 0.101186186
000360 e5 6a 84 bd cf fa 42 3e 8b e9 7c 3d 13 30 7d 3d
       -0.06465701 0.19040988 0.06174616 0.061813425
000370 fa d5 c7 3e 6b b4 ad 3e 5a cb b2 3e 31 b0 94 bd
       0.3903044 0.3392671 0.3492077 -0.07260168
000380 08 8a bc 3e 05 29 bf be f5 89 c0 be a4 52 bb 3d
       0.3682406 -0.37335983 -0.37605253 0.09146622
000390 73 89 89 3e 52 ea 83 be 46 f6 1f be 9a e6 31 3d
       0.26862678 -0.2576471 -0.1562129 0.04343281
0003a0 21 f4 31 bd 28 6f 77 3e 75 03 54 3e 66 39 d5 be
       -0.04344571 0.24163496 0.20704444 -0.41645354
0003b0 af 5d 3d 3e 6b 30 7e be 10 ac 8a bc 4f 1c 21 3e
       0.18492769 -0.24823157 -0.016927749 0.15733455
0003c0 77 b0 87 be e0 43 63 be 2f 61 02 3f 94 a1 df be
       -0.2650182 -0.22193861 0.5092954 -0.43677962
0003d0 c4 1c 2f bf 0d e1 fb be 7a 1a 9e 3d d6 db a8 bd
       -0.6840327 -0.49195138 0.07719894 -0.082450554
0003e0 37 47 af be e7 ff 25 be 4d 51 af be 85 b7 25 3e
       -0.3423402 -0.162109 -0.34241715 0.16183288
0003f0 37 a2 88 3d 2c de f7 be b9 d0 bd 3e 3f 93 63 3e
       0.06671565 -0.4841169 0.37073305 0.22224139

policy_net.0.bias f4 [32]
000000 cb 77 be 3b 94 4e 9c bd 03 3a 8e bd 62 f0 20 bc
       0.0058126203 -0.07632175 -0.069446586 -0.009822937
000010 85 74 95 3d 08 f3 47 3a 9e 9d b0 3c 78 32 22 3d
       0.07297615 0.0007627462 0.021559533 0.039598912
000020 2f 31 06 bd dc 2d b0 3c da 8f fa 3c 72 11 b8 3c
       -0.03276175 0.021506242 0.030586172 0.022469256
000030 2a ac 00 bd 7f ac 9b 3d 56 64 5e 3d d9 30 6b bd
       -0.03141419 0.076012604 0.054294907 -0.05741963
000040 ce 0d 50 bd a2 93 1f 3d 9c 6e d8 3c e4 e5 ad 3b
       -0.050794415 0.038959153 0.02641993 0.005306946
000050 1f 68 1e 3d b2 e9 11 bd b5 ef 63 bd a1 a4 35 bd
       0.038673516 -0.03562326 -0.055648524 -0.044346455
000060 f4 0f c8 3c 60 2f 2c 3d 83 27 d9 bb 5d fd a3 bc
       0.02442167 0.042037368 -0.0066270246 -0.020018274
000070 3e 01 35 bd 2a 4c a0 3d b1 8a 85 bd 73 af 0f bd
       -0.044190638 0.07827027 -0.06520594 -0.03507943

policy_net.2.weight f4 [32, 32]
000000 cc 49 b9 3e 1d 94 48 3d 9e ab 8d 3e 21 7a c8 bd
       0.36189115 0.048969377 0.27669996 -0.09788919
000010 fd 4a 2e 3e cb bc 64 3d e9 f9 a0 3e 3e 96 f5 3d
       0.17020793 0.05584411 0.31440666 0.11991547
000020 53 de 6e 3e 5b 21 70 3d d3 4d 25 be aa 48 b9 bd
       0.23326997 0.05862556 -0.16142969 -0.09047063
000030 ba 2f 2a be 48 f7 c6 3e e6 cb 20 3e 0f 53 2f be
       -0.16619769 0.38860536 0.15702781 -0.17121528
000040 6c 26 14 3f 08 c9 44 3d ad 78 de be 5a d7 9f 3e
       0.5787113 0.04804328 -0.43451443 0.31218988
000050 30 97 19 be a1 18 3f 3e a3 f0 9e 3e 67 77 f6 bc
       -0.1499908 0.18661739 0.31042966 -0.030086232
000060 b0 6f 16 3e bd 2d 8f 3e b2 85 97 bd 20 be 77 3e
       0.14691043 0.27964583 -0.07398547 0.2419362
000070 52 c3 a8 3e 5a 97 8e 3d d3 1c 10 be 21 ec 06 3f
       0.32961518 0.06962462 -0.14073496 0.52704054
000080 e2 d6 1f 3d 3c 9a 0f 3e c4 fa a9 bd 3e 4f bd 3d
       0.039023288 0.1402368 -0.08299783 0.0924363
000090 19 b4 1f 3f 13 0f a4 be 05 b3 f0 3d ed 4b 6e bd
       0.6238418 -0.3204275 0.11752895 -0.058177877
0000a0 49 ba 00 3f 1f 88 d5 3c 25 87 96 3e d2 e5 45 be
       0.5028425 0.026065884 0.29399982 -0.1932595
0000b0 84 5b ce 3e 0e 8f c7 bd 5d e5 ed 3d 2b 10 04 bf
       0.40304196 -0.097440824 0.11616013 -0.5158717
0000c0 aa 52 4e 3e 25 12 4a be 18 5c 7d 3e d7 62 8e 3e
       0.20148721 -0.19733484 0.24742162 0.27809784
0000d0 61 da 52 3d 57 81 9b be f8 c2 5a bd d6 63 1f 3f
       0.051477794 -0.30372116 -0.053408593 0.6226171
0000e0 d2 47 eb 3e 82 42 e2 bd 13 90 dc 3e d5 bf 31 be
       0.45953232 -0.110478416 0.4307867 -0.17358334
0000f0 4e bf b3 3e d1 50 49 be 9b b8 d1 3c 9e 1c 98 bd
       0.3510689 -0.19659735 0.025600722 -0.07427333
000100 38 3a f4 be 27 72 0c bf 48 9a a9 3e 92 25 b4 be
       -0.47700667 -0.5486168 0.3312552 -0.35184914
000110 8d c8 13 3d 46 de 3f 3d f9 db 77 bc e2 ca de 3c
       0.036079932 0.046842836 -0.015128129 0.027196351
000120 43 64 43 be 84 0f d7 3a 77 ca 69 be 90 80 8c 3c
       -0.19081216 0.0016407822 -0.2283114 0.017151147
000130 16 c4 9c bd 4f 65 cb be 69 8e ce 3b 22 e1 df be
       -0.07654588 -0.3972573 0.0063035977 -0.4372645
000140 c6 31 e9 3e b1 68 4f 3e 9f 48 75 3e ac 18 ee 3e
       0.45545787 0.2025478 0.23953484 0.46503198
000150 78 b1 04 3e b2 b4 48 3e 7f ed 96 3e ad 35 55 3e
       0.12958324 0.1960018 0.2947807 0.20821257
000160 1e fe 5f bc 5b 06 2c bf 21 eb a2 3d 44 40 fb 3e
       -0.013671426 -0.671972 0.079550035 0.49072468
000170 c4 6d 11 3e 69 7c b1 3d 2b 7c 6f 3e e6 ff b0 3e
       0.14202029 0.086663075 0.2338721 0.34570235
000180 07 37 03 3f 91 5e 88 3e 73 1d 84 3e 13 1f 64 bd
       0.5125584 0.26634648 0.25803718 -0.055693697
000190 69 59 c8 be 31 cc 8f 3e d3 4d 90 3e 44 55 79 bd
       -0.39130715 0.28085473 0.28184375 -0.06087233
0001a0 4f b8 ea bd 8a 90 62 3e ea db e2 3e f6 ce 51 3e
       -0.11460935 0.2212545 0.44308406 0.20489106
0001b0 1a de 20 bd 3a 66 58 be 05 96 09 bb 44 a7 9b 3e
       -0.039274313 -0.21132746 -0.002099396 0.3040105
0001c0 f6 06 bd 3d d5 ec a2 be ae 58 b0 3e b7 4d 10 bf
       0.09229843 -0.31821314 0.34442657 -0.56368583
0001d0 43 6d 20 bf cc 4b 0c bd bc c8 c2 bd 6d ee fb bd
       -0.6266672 -0.034251973 -0.09510943 -0.123013355
0001e0 d5 12 a2 3c 2d 07 e7 bd fd 60 61 3e 4d fb d1 3e
       0.01978437 -0.112806655 0.22009654 0.4101204
0001f0 b9 82 cb be 72 4b 9d be 63 be aa be c2 84 1c bf
       -0.3974817 -0.30721623 -0.3334838 -0.6114007
000200 e2 ff ff bd bb 8b 17 be 61 ce 19 3e 63 0b 30 be
       -0.12499978 -0.14799397 0.15020134 -0.17191844
000210 df 72 5b ba cb 60 0e bc 0a aa d5 3d 6e 8c c5 be
       -0.0008371304 -0.008690069 0.10432823 -0.38583702
000220 63 78 0a be 65 37 1c be 2c f8 05 bf 48 63 db be
       -0.13522486 -0.15255506 -0.52331805 -0.42849183
000230 82 ea b3 bd 8b 88 1a be 3e f8 44 3e 74 7d 5b be
       -0.08784963 -0.1509115 0.19235322 -0.21434575
000240 59 a9 d7 3e 7a 48 82 3e 0f 4e f5 be a3 4c 0b be
       0.4212139 0.2544592 -0.47911116 -0.13603453
000250 72 c2 b7 3e c5 8c 56 3e 85 9f 9f 3c 52 c6 10 3f
       0.35890538 0.20952137 0.019485245 0.5655261
000260 89 16 6b 3e 06 fd 83 be 73 e0 99 3e 3e bb 00 bf
       0.22957815 -0.2577898 0.30054054 -0.5028571
000270 53 ee 5f 3e c8 90 dc be bd 2e 59 3f dd 43 79 3e
       0.21868257 -0.4307921 0.8483694 0.24342294
000280 c1 b0 16 3e ee 9d ad 3d 31 e8 11 bf 7b 0d 28 3d
       0.14715864 0.08477388 -0.5699492 0.04102848
000290 c0 14 01 bf 2c 5b eb 3d 51 7e ba be b3 98 3b 3c
       -0.50422287 0.11491999 -0.36424497 0.011449981
0002a0 fe 6d 56 be 1f 86 b6 3e 57 cf b5 3d 99 b3 9b 3e
       -0.20940396 0.356492 0.088774376 0.3041046
0002b0 24 81 a8 be 9c 49 c9 3c c4 7b 01 3f 78 23 c2 3e
       -0.32911026 0.024571232 0.50579476 0.37917686
0002c0 0a 14 84 be e5 01 ae 3c a2 12 29 3e 2e 1c 37 3e
       -0.2579654 0.021241138 0.16511014 0.17881843
0002d0 a0 f8 36 bf 7f e4 01 3f c0 51 be 3e 9d 23 b4 bd
       -0.7147312 0.5073928 0.37171745 -0.08795855
0002e0 90 33 ba 3e 60 6b 3c bc f0 36 87 bd c2 d7 56 bc
       0.36367464 -0.01150021 -0.06602275 -0.013112964
0002f0 f0 92 c0 bd 2c a5 aa bd 2b d9 1c bf 50 4f 35 3d
       -0.09403026 -0.08332285 -0.6126887 0.04426509
000300 5f 65 ed 3d 80 78 24 bf 4a 83 81 bd e9 f3 0e 3e
       0.115916006 -0.6424637 -0.063238695 0.13960232
000310 8b b4 1f 3f 24 f0 9f 3e 7f 7e 8f be 27 e1 99 bd
       0.6238486 0.312379 -0.28026196 -0.075136475
000320 7b a6 10 3d 91 f6 d0 be 2d 89 91 be 8c c8 98 be
       0.03531502 -0.40813115 -0.2842497 -0.29840505
000330 80 cc 92 be 58 65 03 bf 6f eb a9 be 7a c2 5d be
       -0.28671646 -0.51326513 -0.33187434 -0.21656218
000340 79 32 aa 3d 1a 58 41 3e 17 4c 49 be 16 0a d2 bd
       0.08310408 0.18881264 -0.19657932 -0.1025583
000350 b1 31 ce bd 46 ef 0b 3f 9d 6e 12 3f 29 38 ec 3d
       -0.10068072 0.5466198 0.5720003 0.11534149
000360 0b 2a 55 3d 69 eb 09 be 7c 65 86 be 1c ff bb bd
       0.05204205 -0.13468708 -0.262493 -0.091795176
000370 ae dd 8d 3e bb 98 8e bc 56 db ac 3e 7d 8d 5c be
       0.2770819 -0.017406812 0.3376109 -0.21538348
000380 80 2b 58 3d c7 11 99 be ab ea 0a bd 7a 46 0b be
       0.05277586 -0.29896376 -0.033915203 -0.13601103
000390 3a 51 2e bf ed 76 05 3e 07 1e be 3d 4e af 14 3e
       -0.6809269 0.13033648 0.09283071 0.14519998
0003a0 23 f4 99 3e e4 80 df 3e e8 64 da 3d e2 91 86 3e
       0.30069074 0.43653023 0.106637776 0.26283175
0003b0 ad 13 ca be d1 eb 2b be b0 d7 d2 bd 33 2b 78 3e
       -0.39468136 -0.16789176 -0.102950454 0.24235229
0003c0 1a 40 d5 bc 4f dc 72 3c c5 40 c0 3e 41 e3 c4 be
       -0.026031543 0.0148230335 0.37549415 -0.3845463
0003d0 41 11 95 bd 92 f0 12 3e f5 13 f6 be 1b 45 88 bd
       -0.072786815 0.14349583 -0.480621 -0.06653806
0003e0 46 70 e6 3d f2 8f a6 3d a6 f5 1e bf 1e e8 af be
       0.11251883 0.08132924 -0.6209358 -0.3435678
0003f0 2b 15 a5 3e 37 87 ea 3c 1f 1c ea be a4 7b cb bd
       0.32242712 0.028628929 -0.4572458 -0.09935692

policy_net.2.bias f4 [32]
000000 4f 43 94 3c ed 14 02 3e 94 3e c7 3b 4d aa a4 bd
       0.018098501 0.12703295 0.006080458 -0.08040295
000010 8c 3b 2d bd 04 4c c9 3c b7 1f 9d bc 5e 29 92 bd
       -0.042293116 0.02457238 -0.019180162 -0.071367964
000020 61 94 77 3d 0c ca 58 3d ed 3d 5c 3e a6 52 0a bd
       0.06044424 0.052927062 0.21507998 -0.033770226
000030 1d ca a0 3d e9 d8 6a bc ca d4 c9 3c 97 c1 98 bc
       0.0785105 -0.014333942 0.024637599 -0.018646998
000040 04 a2 96 3d 31 2d 76 bc 4b 42 1d bd fa ad 42 3e
       0.07355121 -0.015025423 -0.0383933 0.1901168
000050 52 42 47 3d e5 bc 0f be ac 54 12 be e4 04 93 3d
       0.048647232 -0.14036901 -0.14290112 0.07178667
000060 b5 0b 0c 3e 0f dc 86 3d a9 da 1c 3d ef 7a b7 bc
       0.13676341 0.065849416 0.038294468 -0.022397486
000070 30 90 1d bd 04 46 c8 bc 33 7d a7 bd e0 a7 08 3d
       -0.038467586 -0.024447449 -0.08178177 0.033363223

policy_net.4.weight f4 [32, 32]
000000 b9 e6 ae 3e d9 fe 09 3f 3a 83 8d 3c cb 97 79 3e
       0.34160402 0.5390449 0.017274488 0.2437431
000010 ad c4 a0 3e cf 42 01 bf 2e 93 48 3e aa 02 fc bd
       0.31400052 -0.50492567 0.19587395 -0.12305196
000020 23 98 91 3e e9 60 3b 3e a7 ff 9c 3e 79 4f cb bd
       0.28436384 0.18298687 0.30663797 -0.099272676
000030 d6 2f e7 be ec e4 24 3e a6 1b 39 3e 6c a1 be bc
       -0.45153683 0.16102952 0.18076953 -0.023270331
000040 ed 0d ee 3d 7a 92 e6 3c 70 36 16 be b4 9b 97 3e
       0.1162375 0.028146017 -0.14669204 0.2961098
000050 0e 57 99 3e 52 b1 5d bf b9 2e 17 be 4c ff 3a 3f
       0.2994923 -0.86598694 -0.14763917 0.730458
000060 d3 bf 0a 3f 2d 68 b7 3e 22 ae 32 3e f8 9f cd 3e
       0.5419895 0.35821667 0.17449239 0.4016111
000070 da e0 a0 3e d1 4d 1e be 7d bc ae be 52 cd 41 3e
       0.31421548 -0.15459372 -0.3412818 0.1892598
000080 68 d8 c2 3e 2c d3 fd 3e bf 73 b2 3e d6 b8 60 bd
       0.3805573 0.49575174 0.34853932 -0.054863773
000090 26 07 41 3e 8c a9 89 bd 96 97 ad be 6b 67 0a be
       0.18850383 -0.067217916 -0.33904713 -0.13516013
0000a0 73 ef 05 3e 29 7f 00 bf 7d 9a eb 3e 99 24 8c 3d
       0.13079624 -0.5019403 0.46016303 0.06842918
0000b0 6e 87 16 3d 19 f9 b3 be 49 3c ca 3e ad a7 1f bf
       0.03675025 -0.35150984 0.3949912 -0.6236523
0000c0 b3 00 0c 3f 72 10 55 3e 69 ce 9e 3d 5f 24 90 3e
       0.54688567 0.20807055 0.07754213 0.2815275
0000d0 3e 30 7e 3e 68 8f c2 be 29 77 50 be 0d 31 17 3e
       0.2482309 -0.38000035 -0.20357956 0.14764805
0000e0 f4 f6 03 3f aa 91 83 3e 0c 4b e4 3e f0 ca 7a 3e
       0.51548696 0.2569707 0.44588506 0.24491477
0000f0 d8 b5 e4 3c 2e 47 25 3f 6c 0a 36 bd 32 e1 cb 3e
       0.027918741 0.64561737 -0.044443533 0.39820248
000100 07 21 91 bc 23 b2 53 3d d3 d4 e5 be 50 a2 11 3f
       -0.017715944 0.051683556 -0.44888934 0.56888294
000110 af 58 a6 be ab 48 bd bd f7 24 47 bd 6b 1b 5e 3e
       -0.32489535 -0.09242376 -0.048619237 0.21690147
000120 44 6f 64 bf d9 ab 7b 3e cd a9 98 be 24 71 12 3f
       -0.8923228 0.24577273 -0.29817048 0.5720389
000130 47 47 07 be 9c ed d7 bd fd 8a d6 be c2 25 39 bd
       -0.13210784 -0.10543367 -0.41902915 -0.045202024
000140 4c 5f c6 bd 96 1c fb 3e 15 8f 43 3e 7d c6 8c be
       -0.09686145 0.49045247 0.1909755 -0.27495185
000150 66 3f 29 3d bc f6 a2 bb 0c 6e 02 be 3e 43 df be
       0.041320227 -0.0049732607 -0.12737292 -0.4360599
000160 b3 0a 11 3f 29 7a 00 be 50 98 d8 be 58 37 f5 bc
       0.5665695 -0.125466 -0.42303705 -0.029933617
000170 b1 93 f7 3e c6 b8 ad 3e d4 f8 b6 3e 97 7e 96 bf
       0.48354867 0.33930033 0.35736716 -1.1757382
000180 33 71 bc be c1 ae 34 be ca f7 0b 3e 60 de 27 3e
       -0.36805114 -0.17644788 0.13668743 0.16393423
000190 39 17 c6 be b3 43 92 3e bf e0 d8 3c 7e 72 dc 3d
       -0.38689592 0.28567275 0.026474355 0.10764025
0001a0 85 e9 c4 be f1 99 89 be 56 e4 db 3d 21 0c fa 3e
       -0.3845941 -0.2687526 0.10736911 0.4883738
0001b0 06 ba 00 bf 09 5a 50 be 66 d1 8f be 79 dc f6 3e
       -0.5028385 -0.20346846 -0.28089446 0.48215082
0001c0 e5 d9 1e 3c 6d 1d cb be 91 f5 88 3e a2 ad b4 be
       0.009695505 -0.39670888 0.26749852 -0.3528872
0001d0 2f b2 ed 3d d5 ec 17 be 44 7d 25 3f 41 52 47 be
       0.116062514 -0.14836438 0.64644265 -0.19464971
0001e0 9d 42 c2 3d 95 e1 60 be ef 0a 29 bd 0a 41 88 3e
       0.09485362 -0.21961053 -0.041270193 0.2661212
0001f0 36 51 a5 bd d5 b6 02 be 65 16 15 3f 72 04 0b bf
       -0.080721304 -0.12765057 0.58237296 -0.5430366
000200 b3 26 de 3e c7 5d 49 bd d0 33 63 be 4c c8 18 be
       0.433889 -0.0491617 -0.22187734 -0.14920157
000210 ba 9d 1b bc c2 ac 0e bf f2 3a 1d 3e 3f 2b e0 be
       -0.009498054 -0.5573236 0.15354517 -0.43782994
000220 ab 1f 30 bd 99 03 e1 be b4 b8 28 3f b8 3b e2 be
       -0.04299895 -0.43948057 0.65906835 -0.44186187
000230 aa 9c 8b 3b c7 97 be 3d 38 73 3c be cc 93 12 bf
       0.004260619 0.09306293 -0.18403327 -0.5725677
000240 09 a0 23 3e a0 98 18 be 20 d2 01 bf b2 48 42 3e
       0.15979017 -0.14901972 -0.5071125 0.18973044
000250 03 fe 15 3f 34 ca 07 bf 34 c6 1a bf 53 02 a2 3e
       0.58590716 -0.5304291 -0.60458684 0.31642398
000260 3d 02 57 3e ce 86 8a 3e 9b 5e ab 3e 33 e9 8e 3e
       0.20996948 0.27055973 0.33470616 0.27912292
000270 38 59 73 be 11 4f bc 3d 65 00 ee 3d aa ba 54 be
       -0.23764503 0.09194768 0.11621169 -0.20774332
000280 e0 17 96 bc 4c f6 c7 be e6 1d 28 be f9 c9 a4 bd
       -0.018321931 -0.39055097 -0.16417655 -0.08046336
000290 a8 69 f8 3d b1 33 27 3f 58 56 0c 3e 34 1b 09 3f
       0.12129527 0.6531325 0.13704813 0.53557134
0002a0 2b 2b 81 3e ff 37 1f 3e 23 f8 30 3e 97 cd 25 bc
       0.25228247 0.15548705 0.17282157 -0.010119817
0002b0 38 b1 70 be 94 13 ad be 95 26 1a 3e 19 22 c3 bc
       -0.23505104 -0.33804 0.1505378 -0.02381997
0002c0 49 c6 29 bf 43 15 bd bd 01 f5 48 3e 11 bd 74 be
       -0.66318184 -0.09232571 0.19624712 -0.23900248
0002d0 3a c3 f7 be a8 0e 9f 3c 21 31 2f 3e 82 6f 7d be
       -0.48391134 0.019416168 0.17108585 -0.24749568
0002e0 85 ce b1 be 3f a4 b2 be d1 e0 6d bf 7e f5 eb be
       -0.34727874 -0.34890935 -0.9292117 -0.46085733
0002f0 b9 22 40 be c1 22 68 be 9b c3 d1 3e 28 ba ce bd
       -0.18763246 -0.22669508 0.40969548 -0.100941
000300 c2 83 94 be ce 31 d2 3e e3 89 5f 3e 50 b9 8c bd
       -0.29006773 0.41053623 0.21829943 -0.06871283
000310 28 0d ef 3e b9 dd 65 bf 59 be be be 9e 71 13 be
       0.46689725 -0.89791447 -0.372546 -0.1439881
000320 f3 75 82 3d 7e 01 37 3d 5a 1b c3 3e 1a ca 08 bf
       0.06370153 0.044679157 0.38106805 -0.5343338
000330 00 00 9a 3e 56 7d 93 3e 65 15 8a 3b 73 d1 bd bd
       0.30078125 0.2880656 0.004213976 -0.09268465
000340 18 a0 98 3d 47 be 21 bf 0d a0 f6 bd 26 e5 29 3e
       0.074524105 -0.63180965 -0.12042246 0.1659132
000350 89 18 44 3e 3e 01 91 be a1 b5 9f bd a0 a1 1f 3e
       0.19149984 -0.2832126 -0.07798315 0.15588999
000360 f2 75 eb 3e e1 f3 74 be d5 e7 85 3c 84 15 bb be
       0.45988423 -0.23921157 0.016345898 -0.36539853
000370 e5 de 87 bd 86 54 96 3e 6b 15 c0 bd 0b f6 c2 3e
       -0.06634311 0.2936136 -0.09379085 0.3807834
000380 34 17 56 bc 4a bd e1 3e f1 94 4e 3e 1b 68 8b 3e
       -0.0130670555 0.4408973 0.20174004 0.27227864
000390 b9 cc b4 3e 37 7a 38 bd 64 c7 10 3f 21 cf a0 be
       0.3531244 -0.04503843 0.56554246 -0.31408027
0003a0 68 23 23 3f bc be 25 bf fb ca 06 bf 5e d1 df be
       0.637259 -0.6474416 -0.52653474 -0.43714422
0003b0 c8 46 78 3e 1e 67 0b 3e 95 92 30 3e 2a a3 04 3e
       0.24245751 0.13613555 0.17243417 0.12952867
0003c0 52 58 d6 3b 91 c2 86 bd bc c0 7b be ec 9c e2 bd
       0.0065412903 -0.06580079 -0.24585241 -0.11065087
0003d0 73 73 c0 be 36 f4 6e 3e e8 4b da 3d 19 d0 88 3b
       -0.3758808 0.23335347 0.10659009 0.004175198
0003e0 83 fe 39 be 8d 37 e2 be 93 e0 b2 be 79 18 13 3e
       -0.18163495 -0.44183007 -0.34936962 0.14364804
0003f0 8a 44 0e bf ab e2 6f be 07 af e4 3e be aa 7b 3e
       -0.5557333 -0.2342631 0.44664785 0.24576852

policy_net.4.bias f4 [32]
000000 8a 36 52 3e bb df 8c 3e 2e 56 c9 bd 85 cf d6 bd
       0.20528618 0.27514443 -0.098308906 -0.104888
000010 ef ad 6c 3e 3b 63 8a be fb e5 ce 3d e2 b9 8f bc
       0.23113225 -0.27028832 0.10102459 -0.01754469
000020 3e 4a 78 be 52 c1 93 3c c3 da b0 bb 5a 88 97 3e
       -0.24247071 0.018036518 -0.005397172 0.29596215
000030 e5 7f 4a 3e a4 ed 67 be d1 5b 7f 3e f3 25 72 be
       0.1977535 -0.22649246 0.24937369 -0.23647289
000040 b0 2f 8b 3e 54 fa 50 be d5 a8 c8 bd 3e e9 72 be
       0.2718482 -0.20407993 -0.09797827 -0.23721787
000050 97 0c 5b be 05 de 8b 3e 2f 0a 84 3e 22 24 c2 3c
       -0.21391521 0.27317825 0.2578902 0.02369887
000060 9a a0 35 3e ab 96 77 3e d0 4f 5f 3e 10 32 b5 3d
       0.17737046 0.24178569 0.2180779 0.08847439
000070 11 e1 58 3b 78 d1 83 be e4 ec 8b be 20 8d 88 3b
       0.0033093134 -0.2574575 -0.2732917 0.004167214

policy_net.6.weight f4 [21, 32]
000000 b9 81 eb 3e ac e3 e6 3e 18 0c 38 bf e4 fe 12 bf
       0.45997408 0.45095575 -0.71893454 -0.5742018
000010 42 e2 eb 3e 30 04 e6 be 1e ba 12 3f ec 48 12 3f
       0.4607106 -0.4492507 0.5731524 0.5714252
000020 bd 6a d9 be ca e2 42 3f e5 4e 96 be 47 1d f1 3e
       -0.42464247 0.761273 -0.29357067 0.4709265
000030 41 73 f1 3e 51 50 f3 be d2 db e1 3e 9e 97 ea be
       0.47158244 -0.47522214 0.44113022 -0.458188
000040 91 ab e6 3e eb 63 e1 be f9 50 0f bf ff f3 e2 be
       0.4505277 -0.44021544 -0.5598293 -0.4432678
000050 6e 29 f1 be ed 05 dd 3e 76 f2 f3 3e 6b 70 f2 be
       -0.4710192 0.43168584 0.4764592 -0.47351393
000060 93 ae 18 3f aa 7d d9 3e 41 ab e0 3e 4e 3d 3a 3f
       0.5964138 0.42478687 0.43880656 0.72749794
000070 a4 7d 87 3e 2c 05 d9 be c3 88 e2 be 40 e7 07 3f
       0.26463044 -0.42386758 -0.44244966 0.53087234
000080 bb ea a4 3a 45 61 c8 ba 5f 1a 12 3b b5 d8 1b bb
       0.0012582162 -0.0015287778 0.002229355 -0.002378029
000090 a2 7b 70 39 a4 f3 d6 39 0a 1e a7 3a 64 3d 3b 39
       0.0002293424 0.00040998787 0.0012750041 0.0001785658
0000a0 b2 df 99 3a 75 df c2 b9 f0 3b 93 bb f2 46 82 3a
       0.001173964 -0.00037169052 -0.004493229 0.0009939356
0000b0 0a f9 c8 3a 70 8f 44 bb 41 e1 45 ba 81 e7 ab 3a
       0.0015333008 -0.0029992722 -0.0007548519 0.0013115258
0000c0 90 5e ab b8 24 a0 b0 b9 f3 cd c2 ba 41 bc e3 ba
       -8.171529e-05 -0.0003368865 -0.0014862403 -0.001737483
0000d0 fb 02 a0 ba 2f d0 2c ba 63 9d fe b9 bb ca b0 ba
       -0.001220792 -0.0006592301 -0.00048563918 -0.0013488153
0000e0 90 24 11 b9 af f2 91 3b 35 96 b4 b9 c5 ae e6 3a
       -0.00013841898 0.004453979 -0.00034444188 0.0017599693
0000f0 cb ae d4 38 2d f9 c3 3a f3 34 a2 3a 9c 07 5a bb
       0.000101415055 0.001495158 0.0012375399 -0.0033268696
000100 61 ea 25 ba 2f e9 ab 3a 9f 0a 92 33 f5 c2 57 38
       -0.00063291757 0.0013115759 6.800587e-08 5.1441562e-05
000110 dd 8c 88 b9 92 3d 2d bb 3a 58 1f 3b 5b c1 30 39
       -0.00026044893 -0.0026434404 0.0024314062 0.00016856698
000120 7d e4 05 bb d4 46 17 ba f7 5e 12 bb 18 e5 92 ba
       -0.002043038 -0.0005770747 -0.0022334435 -0.0011207191
000130 58 77 24 3b a0 82 68 36 07 ce bd ba a1 af 6f 3b
       0.0025095548 3.4646728e-06 -0.0014480957 0.003657319
000140 bb fa 7e 3a f3 75 cd b9 9c b3 06 3a 27 24 e2 3a
       0.0009726693 -0.00039188526 0.0005138458 0.0017253206
000150 3f a1 8a 3b 42 34 14 bb 5c 13 ae ba 49 fd 5e ba
       0.004230648 -0.0022614156 -0.0013280916 -0.00085063704
000160 ac 85 60 ba 4a 1a 24 ba 8d 9c 15 3b bc 4e 38 bb
       -0.00085648405 -0.0006260021 0.0022828907 -0.0028123101
000170 81 12 2f 3b 01 43 d9 39 1c 3a de 39 f5 31 68 3a
       0.002671391 0.00041439387 0.00042386435 0.0008857542
000180 3c bc 32 bb 67 01 3f b9 d0 39 75 3a c2 47 b7 38
       -0.002727284 -0.00018215702 0.0009354623 8.739486e-05
000190 f5 bb 6f bb 31 12 97 ba 87 f0 7d b9 09 65 d9 ba
       -0.0036580537 -0.0011525807 -0.00024217564 -0.0016585897
0001a0 7d b7 ab 3a 9d f9 2b b9 42 00 a8 3a 1b 84 6c 38
       0.0013100948 -0.00016400819 0.001281746 5.6389817e-05
0001b0 7e 3c b9 3a 97 42 ce 3a 81 bc 2c ba 0a 48 7e bb
       0.0014132408 0.0015736398 -0.00065893686 -0.0038800263
0001c0 ef 77 d6 3a a9 85 0c ba 8f 66 8f 3a 74 60 dd ba
       0.0016362647 -0.0005360493 0.0010940599 -0.0016889707
0001d0 b0 79 10 bb df 28 0c bb 80 99 94 ba cd 58 40 bb
       -0.0022045188 -0.0021386666 -0.001133725 -0.0029349804
0001e0 3c bf 96 b9 d0 a0 32 3a 0b 2b e3 3a 62 4e 11 3a
       -0.0002875271 0.0006814124 0.0017331553 0.0005542991
0001f0 77 85 48 3b 24 9a 97 ba 17 00 4c 3b 9d 8d de 39
       0.003059713 -0.0011566323 0.0031127983 0.0004244865
000200 85 ef a1 bd a1 f6 a7 bd 43 16 a4 bd 19 17 8d 3d
       -0.07907013 -0.082013376 -0.080120586 0.06889171
000210 89 ff a7 bd 50 3f aa 3d 85 0a 9a bd 65 29 ab 3d
       -0.08203036 0.08312857 -0.07521538 0.08357505
000220 fa aa a6 3d 4f 16 78 bb 71 8d a5 bd 7a 73 9c bd
       0.0813808 -0.0037855094 -0.080836184 -0.07639213
000230 7c 14 aa bd 22 be a3 3d 00 cd a6 bd 6d ae 9c 3d
       -0.08304688 0.07995249 -0.081445694 0.076504566
000240 ec 6c a7 bd 83 72 ae 3d 61 b9 9c 3d e7 73 a5 3d
       -0.08175072 0.08517935 0.07652546 0.08078747
000250 30 c8 a9 3d 44 b9 a6 bd 98 07 b0 bd 72 15 9f bd
       0.08290136 -0.08140805 -0.085951984 -0.07767762
000260 e1 09 a5 bd 49 34 a1 bd 15 51 a2 bd b0 a1 a3 3d
       -0.08058525 -0.07871301 -0.079256214 0.07989824
000270 af 4e 9f 3d 7f 13 a5 3d 95 9c a7 3d b2 04 a8 3d
       0.077786796 0.08060359 0.081841625 0.082040206
000280 05 68 a3 bd d3 23 a3 bd 0b 0d d5 bd ba ff 72 3d
       -0.079788245 -0.07965817 -0.104028784 0.05932591
000290 d5 fd ae bd ba bd ad 3d 70 b0 5f bd 85 78 bd 3d
       -0.08544508 0.08483453 -0.054611623 0.09251503
0002a0 b1 ee a5 3d 90 a4 83 3d 1b 66 b8 bd 34 3d a0 bd
       0.081021674 0.06427872 -0.0900385 -0.078241736
0002b0 ea d8 aa bd 0e dd a6 3d c5 40 a9 bd b7 45 a8 3d
       -0.08342154 0.081476316 -0.08264307 0.08216422
0002c0 bd be a8 bd 75 64 ab 3d 41 32 8a 3d 54 aa ab 3d
       -0.082395054 0.0836877 0.067478664 0.08382097
0002d0 7c 48 a6 3d ce 5c a8 bd 04 36 ac bd 73 0e b0 bd
       0.08119294 -0.08220826 -0.0840874 -0.08596506
0002e0 94 d9 94 bd f5 2b a8 bd 0a 62 ae bd eb d4 db 3d
       -0.07268062 -0.08211509 -0.08514793 0.1073397
0002f0 d1 67 a4 3d 1f 9a a6 3d 76 c8 ad 3d 0d 63 bd 3d
       0.08027614 0.08134865 0.084855005 0.09247408
000300 c1 40 a4 bd 62 dc 81 bd 82 a2 6f bd fa 85 3e 3d
       -0.08020163 -0.06340863 -0.05850459 0.04651449
000310 43 b2 84 bd 46 aa 7e 3d 95 d1 80 bd a1 2f 72 3d
       -0.06479313 0.062174104 -0.062899746 0.059127454
000320 64 7e 58 3d 03 ca 1d bd b4 ea 70 bd b8 45 66 bd
       0.05285491 -0.03852273 -0.05881758 -0.056218833
000330 ed 26 6c bd da 7f 61 3d 5f 8e 55 bd 64 b4 38 3d
       -0.05765431 0.05505357 -0.05213773 0.04509391
000340 23 5e 85 bd 30 bf 51 3d 5b bf 93 3d 7b 05 67 3d
       -0.06512096 0.05120772 0.072142325 0.05640171
000350 c1 04 66 3d eb 6d 74 bd 44 35 8e bd e6 ee 54 bd
       0.056156877 -0.05967514 -0.06943753 -0.051985644
000360 88 89 87 bd 8b 2d 51 bd d8 e9 52 bd 80 bd 20 3d
       -0.06618029 -0.051068824 -0.051492542 0.03924322
000370 3d af 8c 3d b6 dd 76 3d 2f 29 6b 3d 09 0f 68 3d
       0.068693615 0.060270034 0.057412323 0.056654964
000380 fe 34 51 3e 1b 86 57 3e 40 a6 7f 3d d9 b8 de 3d
       0.20430371 0.21047251 0.062414408 0.10875101
000390 6d 34 56 3e e7 2a 62 be 1f 86 98 bd 98 3f 4f be
       0.20918436 -0.22086678 -0.074474566 -0.20239103
0003a0 0d 50 58 be 26 8d 1c be 91 de 45 3e 84 96 5b 3e
       -0.21124287 -0.15288219 0.19323184 0.21444136
0003b0 fa 05 5f 3e 0e c5 5a be 79 e0 5e 3e f0 16 52 be
       0.21779624 -0.21364233 0.21765317 -0.20516562
0003c0 8e 17 59 3e 0d 27 60 be cc b6 26 3e 79 dd 5d be
       0.21200392 -0.21889897 0.16280669 -0.21666516
0003d0 eb a5 5c be 4e ca 5a 3e 0a 5d 52 3e ab 8d 59 3e
       -0.21547668 0.21366236 0.20543304 0.21245448
0003e0 97 a9 b0 bd 35 72 5e 3e db 18 5d 3e e3 61 84 bd
       -0.08626097 0.21723254 0.21591513 -0.06463983
0003f0 11 db 55 be 40 60 4f be c5 1e 5b be eb 78 4a be
       -0.20884348 -0.2025156 -0.21398456 -0.19772689

policy_net.6.bias f4 [21]
000000 0b 6e de 3e 00 00 00 00 00 00 00 00 00 00 00 00
       0.4344333 0.0 0.0 0.0
000010 6f dd a9 bd f0 8f ad bd 91 2f 4e bd 96 27 5e 3e
       -0.08294188 -0.084747195 -0.05033833 0.21694788
000020 bf 5f 43 3e fb 9a 9c 3e 41 e0 dd 3c a2 a3 4c 3e
       0.19079493 0.3058699 0.027084472 0.19984296
000030 6a fb 82 3e a1 09 35 3e c5 fa c6 3e ca e3 d4 3c
       0.2558244 0.17679454 0.38863197 0.025987525
000040 fe e8 bd bc d8 df 34 3e 3b 60 57 3e 7b 35 ab 3e
       -0.023182388 0.17663515 0.21032803 0.3343924
000050 db 20 83 3e
       0.25611004

value_net.0.weight f4 [32, 460]
000000 ac 42 73 bd 63 8e 8c bd 27 e4 80 3c d0 4f e1 bd
       -0.059389755 -0.068630956 0.015733792 -0.11001551
000010 23 9b 6b bd ab 8f af bc 7e 5a 1c bd 6d 8e c3 bc
       -0.057520997 -0.02143081 -0.038172238 -0.023871625
000020 6b 95 70 bd a4 9d 00 be 46 88 95 3d 75 3d 4c bd
       -0.058736246 -0.12560135 0.07301383 -0.049863297
000030 4d db 97 bd d9 c2 43 bb f1 4c cc 3d 25 8c 34 3c
       -0.07414875 -0.0029870777 0.09975613 0.011019741
000040 89 09 07 be de a4 81 3d 42 91 aa bd c6 ee 30 3c
       -0.13187231 0.06330274 -0.08328487 0.0107991155
000050 dc 83 89 bd 02 29 be bc 55 c6 c6 bd 88 08 05 bd
       -0.06714603 -0.023212913 -0.097057976 -0.03247884
000060 fb b9 ad bd a7 fe fa bd 25 9c 03 bd b6 54 07 3c
       -0.084827386 -0.12255602 -0.032131333 0.008259943
000070 a9 3f 8d bd 18 f2 89 bd 4f 7e 13 be 1f 4a 54 bd
       -0.06896908 -0.06735629 -0.14403652 -0.0518285
000080 7a e6 63 bd 7c e1 11 bd be 81 18 3d d9 2b e9 bd
       -0.05563972 -0.03561543 0.037233107 -0.113853164
000090 10 16 81 3c f5 4d cc 3b ae 40 f8 bd 45 bc 0e bd
       0.01575759 0.006234879 -0.12121712 -0.034847517
0000a0 87 eb 95 bd c1 27 2a be 54 0a 25 3b 50 fc bd bd
       -0.07320314 -0.16616727 0.0025183158 -0.092766404
0000b0 7b 38 b9 bd 6a 3c 33 be 9a b3 74 bd f4 86 1d 3d
       -0.09043976 -0.17503515 -0.059741594 0.03845878
0000c0 9b 17 32 bc d9 52 65 3d 16 fb e8 3c 18 6a 9a 3d
       -0.010869886 0.055987213 0.02844004 0.07539767
0000d0 29 dd 8c bd 9d b6 ac 3d 08 10 5d 3b 46 47 13 bd
       -0.068781205 0.08433268 0.003373148 -0.035956644
0000e0 38 b9 4a 3d bb 4e b2 3c d7 ae 00 be 01 8f fc 3c
       0.049493045 0.021766057 -0.12566696 0.030829908
0000f0 8c 94 00 bd b7 6e 11 bd db cf c8 bd b3 49 28 bc
       -0.031391665 -0.035505977 -0.0980527 -0.0102714775
000100 02 8b 2b 3e ca 37 cf bb 2c 18 64 bd 93 f4 8c bc
       0.16752246 -0.0063237892 -0.055687115 -0.017206466
000110 8e 2a fe bc 84 3a 1a be 22 21 00 bc 0d 3c 62 3c
       -0.031026151 -0.15061384 -0.0078203995 0.013808263
000120 89 c0 1a 3d b7 88 db 3c 91 49 cf 3d d1 c3 11 be
       0.037781272 0.02679859 0.101214536 -0.14234854
000130 f6 0c 85 bd 2b 7b 53 bd e3 ff d7 bc 52 0c 56 3c
       -0.06496613 -0.051631134 -0.026367133 0.013064461
000140 b3 a9 af bd a1 6d 68 be 41 69 0d bd 3e bb 00 bd
       -0.085772894 -0.2269807 -0.034524206 -0.031428568
000150 f0 c5 ba bc a3 f1 9e 3d 03 dc 1a bd fd 7d cb bd
       -0.022799462 0.07760932 -0.037807476 -0.0993614
000160 22 e0 ce bc 1e e4 2d bd 84 c8 2b bd 4e fa 28 3c
       -0.02525336 -0.042453878 -0.041939273 0.010313584
000170 c2 d9 16 3d 73 74 1c bd cd 5a 97 3d 75 17 11 bd
       0.036828764 -0.038196992 0.07390366 -0.03542276
000180 22 65 20 bd bb 38 c8 bd 20 f7 e4 3d b0 c7 c5 bd
       -0.039158948 -0.097764455 0.11179948 -0.09657228
000190 47 84 3b bc 9c 61 f8 bc 20 52 a9 bc 6a cc 94 bd
       -0.011445112 -0.030319981 -0.020669043 -0.072655514
0001a0 1b d7 9e 3b 1c 89 ff bd 53 37 c1 bc 4d e5 8f 3d
       0.00484742 -0.124773234 -0.023585951 0.070261575
0001b0 3c 60 f6 3c 99 b9 94 bd ad d5 d9 3d cb aa 80 3c
       0.030075185 -0.072619624 0.106364585 0.01570644
0001c0 cd a7 49 bd 80 04 81 bd e2 5e ff 3d 68 78 34 3c
       -0.049232293 -0.062996864 0.12469269 0.011015035
0001d0 8d 8d d3 bc 74 51 a2 bb 5d be a5 bd 37 f5 57 3d
       -0.025824333 -0.0049535576 -0.080929495 0.05272409
0001e0 97 79 9b bc e0 72 9e bd 36 a5 c1 bd 2f f2 c5 bd
       -0.018978877 -0.077367544 -0.094553396 -0.096653335
0001f0 f0 ad 9d bd 74 d6 37 ba 7b d9 21 bd c9 26 0a be
       -0.076991916 -0.0007012852 -0.039514046 -0.13491358
000200 1b f7 f7 bd 66 da 3a bd 5e 70 d4 bc 4f 7c 29 bc
       -0.121076785 -0.045618437 -0.025932487 -0.010344579
000210 3b 08 83 ba a0 a5 9e 3d ff a5 93 3d 7a 9a 01 3e
       -0.000999696 0.07746434 0.072093956 0.12656584
000220 17 a9 a2 bd 1c 8b 82 3b bd b0 43 3d 75 53 75 bd
       -0.079424076 0.0039838683 0.047775973 -0.059894044
000230 b6 1b 96 bd 41 5d 10 3d 5b 5c d7 bd 0c 78 87 bd
       -0.07329504 0.035245184 -0.10515662 -0.06614694
000240 e9 c7 53 3e 39 e2 d1 3d 3d 0f 66 3c bf 5e 6b 3c
       0.20681728 0.10248227 0.014041719 0.014365851
000250 08 87 ca bc 7c cf c9 bb 47 b9 8f 3d dc a6 01 bc
       -0.024722591 -0.0061587673 0.07017761 -0.0079133175
000260 e4 b6 d4 bc 9b 2d 84 bd 5a e5 0b 3d a4 26 46 bc
       -0.025966115 -0.06454011 0.034154274 -0.012094174
000270 0e da d6 3d 03 ee cd 3c c2 5b 82 3d d8 7e 0d 3d
       0.104908094 0.025137907 0.06365158 0.034544796
000280 14 7e f4 3c 3d 79 22 bc 53 27 57 bd fe 32 b2 3d
       0.029845275 -0.009916601 -0.052527737 0.08701132
000290 3e 91 62 bd 08 42 f7 bd ce 03 74 bd 52 3c 99 3b
       -0.055314295 -0.12073141 -0.05957394 0.00467638
0002a0 88 57 a4 3d 78 56 9d 3d 40 69 fb 3d 63 45 95 ba
       0.08024508 0.07682508 0.12275934 -0.0011388477
0002b0 e0 5c 49 bd 64 cf 52 bb 07 67 97 3b 99 3a cf bc
       -0.049160838 -0.0032167071 0.004620436 -0.025296496
0002c0 f7 dc 34 bd 99 c1 9d bd 12 0b 15 3e e7 d5 31 3d
       -0.04415604 -0.077029414 0.14555004 0.043416884
0002d0 7f de d2 3c ad 90 bc bd 8e 91 4b 3d 7e c0 a7 bb
       0.02574086 -0.09207282 0.04969936 -0.0051193824
0002e0 39 25 18 3d d5 f3 ff bc a6 99 cd 3d 5c 60 3c 3d
       0.037144873 -0.031244198 0.10039072 0.045990333
0002f0 6d 39 e8 3d 68 7c ae bd 4f fc 09 bd 0c 86 94 bb
       0.11339078 -0.08519822 -0.033687886 -0.004532581
000300 16 cd c4 3d cc 4c e8 bd 16 20 21 3d 21 83 de 3c
       0.096094295 -0.11342773 0.03933724 0.027162137
000310 6e 9c 3f bc 9a 5e 0e 3e 15 08 8c bd 1c f5 9c 3c
       -0.011695011 0.13903275 -0.06837479 0.019159846
000320 b2 f2 11 3d 8d 80 fc bd 42 e2 8f bd 12 1f dd 3d
       0.035631843 -0.123292066 -0.07025577 0.10796942
000330 1b 8a aa 3c 73 41 ff 3d 18 c9 fa bd 15 02 38 3d
       0.020817807 0.12463655 -0.12245387 0.04492386
000340 c0 d5 c6 bd 84 63 d1 bc a7 1a 24 3d c9 76 b3 3b
       -0.09708738 -0.025560148 0.04006448 0.005476807
000350 93 5c 8b bd 77 51 c7 bc cb f3 31 bd 4e 3f 13 3e
       -0.068047665 -0.024330838 -0.04344539 0.14379618
000360 e2 ac 42 3b 00 87 18 3b 6e a0 da 3c 2b 3e 0f bd
       0.0029705097 0.0023273826 0.026687827 -0.034971397
000370 4b b7 0a 3e 2d 68 af bd 73 3e 2a 3d 63 63 0a 3e
       0.13546483 -0.08564792 0.041563462 0.13514476
000380 35 bb 8b bc 9a 78 0a bd 0d 3d 83 bd 23 04 0d bd
       -0.01705704 -0.03380642 -0.06408129 -0.034427773
000390 ae 13 d1 bd af 63 5b 3d d3 30 d1 3c 68 4a 45 ba
       -0.10208832 0.053561863 0.025535977 -0.0007526041
0003a0 74 6a b6 bd 17 e8 51 39 6f 1a 01 be d6 3c af 3d
       -0.08907023 0.00020018253 -0.1260774 0.085565254
0003b0 5f cb 97 bd e5 08 41 bd 7e b9 cf 3c 72 87 17 3d
       -0.07411837 -0.047127623 0.025357004 0.036994405
0003c0 55 ff 1d bc f2 98 aa bd ac fa d5 bb 1d 93 6c 3d
       -0.009643395 -0.08329953 -0.0065301266 0.057757486
0003d0 2c 28 28 3c 69 38 b4 bc d5 a0 1c be 6f 03 28 3d
       0.010263484 -0.021999555 -0.15295728 0.0410189
0003e0 e4 48 04 be be cc b9 bc e5 62 53 3c 49 85 0b 3d
       -0.1291843 -0.022680636 0.012901996 0.034062658
0003f0 29 0c 80 bc 22 3d ab bd b1 ab 0b 3c 8b 60 ad bd
       -0.015630798 -0.083612695 0.008524821 -0.0846568

value_net.0.bias f4 [32]
000000 bc dd 7c bd a6 7c 0c bd 55 5e cb 3c 5e 52 05 bd
       -0.0617349 -0.03429856 0.024825254 -0.032549255
000010 e2 a1 34 bd 09 48 81 bd 4a 62 88 bd 04 54 9b bc
       -0.044099696 -0.06312568 -0.06659372 -0.01896096
000020 93 1b 6d 3d e4 da bb 3d 22 7a 18 bd 98 81 ba 3c
       0.057887625 0.091726094 -0.03722585 0.022766873
000030 00 96 8d 3c 94 10 57 bd 70 95 5b 3d 68 c0 0a bd
       0.01728344 -0.052506045 0.05360931 -0.0338749
000040 d5 ed b0 bc a3 54 bb 3c bd 29 66 3d b6 19 a7 3b
       -0.021597782 0.022867506 0.05619215 0.0050995005
000050 1a 6c 21 3d 7f 3a 6e 3d fa 6b 92 bc 24 dd 5f 3d
       0.039409734 0.058161255 -0.017873753 0.054654256
000060 ba cc 83 3d 94 d1 3c 3d 63 18 a2 3b d8 af 4f 3d
       0.06435533 0.046098307 0.004946755 0.050704807
000070 30 bc 9c bd 4f cd 80 bc 0e cb 26 bd 9f 44 1c bd
       -0.076530814 -0.015722899 -0.04072099 -0.03815138

value_net.2.weight f4 [32, 32]
000000 53 05 bb 3e b3 7b c2 3d a3 10 98 3d 0f 35 9c 3d
       0.365275 0.0949625 0.07425048 0.076273076
000010 42 0d 1b 3d 4b 51 40 bd 52 38 0a be fa 17 04 3e
       0.03785444 -0.046952527 -0.13498047 0.12899771
000020 81 af 05 be 9f 8b 8d 3d a7 5c 97 be 29 72 51 3e
       -0.1305523 0.06911396 -0.29562876 0.20453705
000030 32 ef c8 3e b2 59 13 bf e6 88 bb 3e ea e8 a1 be
       0.39244992 -0.5755874 0.36627883 -0.31623012
000040 7c e1 33 bf ef 4c 98 bd 41 e1 bf 3d b6 90 14 3e
       -0.70265937 -0.07436549 0.09369136 0.14508328
000050 c9 e7 47 bd 38 14 60 3e 3e c6 00 3f 30 ad 17 3e
       -0.048805032 0.21882713 0.50302494 0.1481216
000060 a2 d6 0b 3f e7 67 6c 3e 5e c5 c6 bd 40 16 05 bd
       0.5462438 0.2308651 -0.097056136 -0.032491922
000070 6d 92 fa be 43 7c e9 3e 1e dd 56 3d 3b 36 4b be
       -0.4893984 0.45602617 0.052456968 -0.19844906
000080 4d f4 db 3e 09 e3 93 3e d1 9b 42 3e df 85 39 be
       0.42959824 0.28884152 0.19004752 -0.18117474
000090 1f 2e 7a be 6f 2a c7 3e a0 9b 98 be 26 92 79 be
       -0.24431656 0.38899562 -0.29806232 -0.24372157
0000a0 c2 6c 19 be 14 d2 34 3b 70 19 df 3e 40 f7 fe 3d
       -0.14982894 0.0027591037 0.43574095 0.12449503
0000b0 08 67 ab be 1f 58 be be 32 bc 2d 3e d4 95 41 3d
       -0.33477044 -0.37176606 0.16966322 0.047262028
0000c0 25 04 78 3e 54 78 8d 3e 2f 17 a9 bd 39 4e 48 3e
       0.24220331 0.27630866 -0.08256375 0.1956109
0000d0 52 94 0a 3e 99 f5 df 3e 08 8d 1c bf 6c bc b6 3e
       0.13533142 0.43742064 -0.61152697 0.3569063
0000e0 f8 f4 d3 3e 49 f1 44 3e 88 c6 93 3d ce 49 1d 3e
       0.41397834 0.19232668 0.07215601 0.15360186
0000f0 b0 bf b3 be 26 c9 61 3e 2d 61 17 3e d7 95 e4 3d
       -0.35107183 0.22049388 0.14783163 0.11161392
000100 77 f6 92 be aa 90 8c bd 58 56 a5 3c 08 51 a7 be
       -0.28703663 -0.0686353 0.020182773 -0.3267901
000110 5b 68 9a 3d 26 60 25 be 57 b9 af 3d a3 20 14 be
       0.075394355 -0.16149959 0.08580273 -0.14465575
000120 0a ad 3d be ef 24 8a 3e 8c 3d 3b 3f b7 8a c8 3e
       -0.1852304 0.26981303 0.7314079 0.3916833
000130 24 a5 7b 3e 2d 5e 24 3e 46 53 06 bf 85 48 f3 bb
       0.24574715 0.1605155 -0.52470815 -0.0074244165
000140 a1 38 f0 3d ab 46 64 bd 5d 7f e1 be ed d2 6b 3e
       0.11729551 -0.055731457 -0.44042483 0.2302968
000150 93 13 ca bd 92 7f 3e bf cc 9f 38 3d 92 c4 55 ba
       -0.09867015 -0.74413407 0.04507427 -0.00081545964
000160 17 d5 0d 3e ff 3c c4 be 60 fa 19 3d fa 1d 37 be
       0.13850819 -0.38327786 0.03759229 -0.17882529
000170 1a 69 0b 3e 58 f6 40 3e f7 87 f3 3d ad 34 a9 3b
       0.13614312 0.18843973 0.118911676 0.00516375
000180 ba 55 fe 3d 06 ef b9 bc 0e dd 12 be 53 b1 08 be
       0.12418695 -0.022696983 -0.14342138 -0.13348894
000190 21 ed 22 bd 98 ed 23 be b7 0f 27 3f b8 ca e7 bb
       -0.039776925 -0.16008604 0.65258354 -0.0070737265
0001a0 0b 1f 4a 3f 84 0f 6d 3d 23 8d 8e 3e 7f 1d 6d bb
       0.7895362 0.057876125 0.27842054 -0.003618091
0001b0 e8 07 15 be 33 97 a1 3d d2 c7 c5 be 9f d6 92 3d
       -0.14553797 0.07890167 -0.38629013 0.07169842
0001c0 76 69 97 3d 2a b7 8d be c9 e9 c3 be d3 7f 09 bf
       0.07393162 -0.27678806 -0.382643 -0.5371067
0001d0 bf 7c f5 be 60 a0 3d 3e c6 32 a3 3e 15 f4 03 3f
       -0.47946736 0.1851821 0.31874675 0.51544315
0001e0 9c cb ec bc 01 73 d7 3d 91 7d 5a be 3a 87 a2 bc
       -0.028905682 0.10519982 -0.21336962 -0.019839872
0001f0 ea 3e 9b 3d 52 32 e9 bc 3f 13 1f be 9a a3 af bd
       0.07580359 -0.028466377 -0.15534686 -0.085761264
000200 3a 30 98 3c 5e 80 48 be 89 47 88 bd 83 b9 47 be
       0.018577684 -0.19580218 -0.06654269 -0.19504361
000210 69 44 80 be f6 dd aa 3e fd 28 3a bc 3e 3d 20 bf
       -0.25052193 0.33372468 -0.011362311 -0.6259345
000220 4f 02 1d be 38 9e 6c be 92 7e 12 be c7 5f ae be
       -0.15332912 -0.2310723 -0.14306095 -0.34057447
000230 b6 df 02 3d 63 be f0 3e 2f 19 e5 be c1 1d c9 bd
       0.03195163 0.47020254 -0.44745776 -0.09820128
000240 1b 44 8d be 8a c0 3a 3e 66 ef 4f be af 74 12 3c
       -0.27591023 0.1823751 -0.20306167 0.008938952
000250 a1 5f 8f 3e 3b b4 3b bc 13 71 56 3e 3c 86 4a 3e
       0.28002647 -0.0114565445 0.20941572 0.19777769
000260 80 ef 99 be 6e b0 0c bd eb 4f 4f 3e 56 c2 1a 3e
       -0.30065536 -0.034347944 0.2024533 0.15113196
000270 2e 0d ec 3d 1b 74 09 3e fd d3 df be 4e 30 e4 be
       0.11525951 0.13423197 -0.43716422 -0.44568104
000280 e8 b4 3b bd 5d b8 38 3e 56 de c7 bd a0 67 4a 3e
       -0.045826823 0.18039079 -0.09759204 0.19766092
000290 21 56 42 3e 67 32 72 be 4a d1 55 bd 85 40 05 bf
       0.18978168 -0.2365204 -0.052201547 -0.52051574
0002a0 1f 4f a4 3d 7c 1d da bd d1 0f 6e 3c db 29 47 be
       0.08022904 -0.10650155 0.014530138 -0.1944956
0002b0 73 f5 9a be a1 43 25 bf 8f c3 52 be 35 2b 74 3e
       -0.30265388 -0.6455632 -0.20582412 0.23844607
0002c0 f2 c2 e5 3d aa 9a c4 bd d4 a5 10 3f 64 84 d7 3d
       0.112188235 -0.09599812 0.56503034 0.105232984
0002d0 85 99 a1 bb 52 e3 22 be 0a d7 ca 3e 0d 05 b1 bd
       -0.004931631 -0.15907028 0.39617187 -0.086435415
0002e0 a7 cd 42 3e c9 eb d9 3e e0 e8 8d be 09 1c c8 3e
       0.19023763 0.42562702 -0.27716732 0.3908389
0002f0 73 a7 71 be a7 28 8e 3e b2 df 3c 3e f8 63 56 be
       -0.23599033 0.2776539 0.18444708 -0.20936573
000300 a5 1a 11 3e 37 12 62 3f c3 e9 22 be ab 35 ac 3c
       0.1417032 0.88309044 -0.15909486 0.021021685
000310 eb 11 64 3e c1 d2 84 3d 24 3a cf 3e b5 0a 82 be
       0.2227246 0.064855106 0.40474045 -0.25398794
000320 23 aa 7f 3d 99 d9 9e 3d 8f ca c3 be 5a 76 94 3e
       0.062418114 0.07756347 -0.38240477 0.28996545
000330 e5 3a 29 3c 12 97 9c 3d ec 8c 37 be 3e 0b 17 3e
       0.010328983 0.07646002 -0.17924851 0.14750382
000340 c3 20 7b bd b5 b2 d2 be 05 26 0a be d2 60 4c 3e
       -0.06131054 -0.41151968 -0.13491066 0.19958809
000350 af d7 86 be a0 61 69 3d 85 85 d6 be 5f 52 90 be
       -0.2633643 0.056977868 -0.41898742 -0.28187844
000360 13 23 91 be 26 f3 1a be 23 2d d2 bd bb 69 c0 3e
       -0.28347072 -0.15131816 -0.102625154 0.37580666
000370 49 3b d1 3d af b7 f4 3b 7c 50 94 3c cc 23 db be
       0.10216386 0.007468186 0.018104784 -0.42800748
000380 11 6a 17 3e da 71 4b 3d c4 32 5b bd 9f cf ae be
       0.14786555 0.049669124 -0.05351521 -0.34142777
000390 22 e2 c6 be 4a 4f 0b be 38 fe a2 3e 7b eb 1b 3f
       -0.388444 -0.13604465 0.3183458 0.6090619
0003a0 b7 f1 4b 3e 0e c0 d4 3c 47 b4 48 be 42 f6 9a be
       0.19916426 0.025970485 -0.1960002 -0.30266005
0003b0 8c 5e b0 bd b7 18 0d be 54 43 ae be 42 9a ba be
       -0.086117834 -0.13778959 -0.34035742 -0.36445814
0003c0 7a 6e f9 bd 0a 52 26 3f 5c 95 71 3e 11 fc 10 bb
       -0.12179275 0.6496893 0.23592132 -0.00221229
0003d0 39 14 af be 81 27 ae bc f2 6c fd bd ea f7 03 bf
       -0.34195116 -0.021259071 -0.12374295 -0.5155016
0003e0 5f 04 41 3e 8d 6d 38 3d f8 53 61 be 61 f9 1c bc
       0.18849324 0.04502635 -0.22004688 -0.009580941
0003f0 6d 62 45 bd f8 28 f4 3d f5 6c 7c 3d 5e a0 c8 be
       -0.04818957 0.11921877 0.061627347 -0.3918485

value_net.2.bias f4 [32]
000000 9d ed cc 3c 86 3c db bc 94 77 4a 3d ee f3 6d bd
       0.025015647 -0.026762258 0.049430445 -0.058093958
000010 73 50 be bc 49 32 06 bd 7d c1 c3 bd 54 ba 86 bc
       -0.02323172 -0.0327628 -0.09558389 -0.01644627
000020 a6 f7 3c bd 63 01 21 be 31 c2 4b 3c b4 96 01 bc
       -0.046134613 -0.15723185 0.012436436 -0.007909466
000030 28 aa 7e 3c f7 aa e8 bc 5f 75 91 3d ba f3 34 3e
       0.015543498 -0.028401835 0.07102465 0.176711
000040 d3 da 66 3d e9 77 f0 bc d4 fb 6f be fd bf 5d 3d
       0.05636103 -0.029354053 -0.23435909 0.054138172
000050 05 9f c2 3d 35 21 21 bd a4 38 c3 3d dc ba d8 3d
       0.09502987 -0.03933831 0.09532288 0.105825156
000060 12 32 a6 3d 5b 80 d4 3d e3 63 07 be ca af ae bd
       0.08115019 0.10376044 -0.13221698 -0.08529623
000070 fb 2a f6 3d 94 7f ae 3d ac 28 54 3d 6b 19 08 bc
       0.120199166 0.08520427 0.0517966 -0.008306841
