MAPPO/Only_R/save/SY_2_T1/agent_16_OR_c.pt (torch, 127774 bytes, 15 tensors)

policy_net.0.weight f4 [32, 26]
000000 5f f8 14 bf 15 e5 33 be 44 ae f7 bd e8 df 92 3d
       -0.58191484 -0.17567857 -0.120937854 0.07171613
000010 3a f4 46 3f 4b 96 a6 3d a3 27 ba bd 3d bc d9 3c
       0.7771641 0.08134135 -0.09089591 0.026579017
000020 ef f7 58 3e 35 3b a6 3e 3f 7b b1 3d 2c 08 cd 3e
       0.21188329 0.32467046 0.086660855 0.40045297
000030 49 76 28 3e 0f 58 36 bc ea 02 bc 3d 33 6e 40 be
       0.16451372 -0.011129393 0.09180243 -0.18792038
000040 41 fd 88 be 40 a9 31 3e f2 df a2 3e 6c 93 29 3e
       -0.26755717 0.1734972 0.31811482 0.16560143
000050 1e 46 93 be be 70 dc bc 2a f2 97 3e 2f 17 8a 3d
       -0.28764433 -0.026909228 0.29676944 0.06742703
000060 26 6c 88 3d fa bb 79 3e b0 4f 2a 3e 1b 6e 9a be
       0.06661253 0.24388114 0.16631961 -0.3016213
000070 db 58 6e 3e 62 7b f1 be 94 c8 a7 bc 86 53 51 3e
       0.23276083 -0.47164446 -0.020481385 0.20442018
000080 36 40 a2 be e7 e5 24 be 21 78 12 3f 15 85 9e 3e
       -0.31689614 -0.16103326 0.5721455 0.3096091
000090 4c 45 4d 3c d1 3b 86 3e 4d 3e 16 be 66 f4 83 bc
       0.012528729 0.2621751 -0.14672203 -0.01610775
0000a0 a8 2e 23 3c 20 5a d5 be b3 bd bc 3e 70 71 13 be
       0.009959854 -0.41670322 0.3686348 -0.14398742
0000b0 8f eb 35 3e c6 19 33 3e 95 8d 2c bb bb 8b 4f 3e
       0.1776564 0.174903 -0.0026329507 0.20268147
0000c0 3f 27 cb bc 24 0c 96 be 0e 3c 31 be 37 0c d1 3b
       -0.024798987 -0.29306138 -0.17308065 0.00637963
0000d0 4b 57 a9 bd be 19 ea bd ad 1b 30 be 7c 94 ec be
       -0.08268603 -0.11430691 -0.17198057 -0.46207035
0000e0 72 67 fe 3e d2 96 d7 bb 7e ba f1 3e ac b6 98 bc
       0.49688298 -0.0065792585 0.47212595 -0.018641792
0000f0 dc a4 6f bd 3e a3 a0 bd 47 9b 9b 3d e9 38 19 bd
       -0.05850683 -0.07843636 0.07597976 -0.03740779
000100 cf 1f 2c bc 32 25 c2 be f8 7d d7 3d 90 ea cf 3e
       -0.010505631 -0.37919003 0.105220735 0.40608644
000110 94 5e 05 be 49 39 df be 43 77 c4 3d da 81 5e bd
       -0.1302436 -0.43598393 0.0959306 -0.054323055
000120 b6 92 a9 3e f3 97 45 be 8e a9 e8 be 00 c7 3b 3e
       0.33119744 -0.19296245 -0.4544186 0.18337631
000130 4a 3a 8e be 41 72 c8 be 57 ed a4 3c 40 a8 22 3e
       -0.27778846 -0.3914967 0.020132704 0.15884495
000140 2f 6c 8e 3e 4d e3 6c be ed f1 bd 3e 54 ec 10 bd
       0.27816913 -0.23133583 0.37098637 -0.03538163
000150 66 c5 a1 be 03 be 6d be 4f 27 d8 bd 5b 50 eb bd
       -0.31595916 -0.23217015 -0.105543725 -0.11489936
000160 77 9f a1 3e f3 65 23 be 8c 9f 38 bf 31 b5 1b 3e
       0.31566975 -0.1595686 -0.7211845 0.15205838
000170 2e a4 35 be 5c 1f a0 be 47 f0 c7 3e bd c3 79 3e
       -0.17738411 -0.31273925 0.39050505 0.24391074
000180 f0 ac 9f bb 62 f6 39 be 8b 9b bb 3d 32 59 09 3e
       -0.0048729107 -0.18160394 0.09160527 0.13412932
000190 a7 74 44 3e 84 1c 34 3f 90 06 4d be 5c 45 b8 bb
       0.19185124 0.7035601 -0.20022035 -0.0056235027
0001a0 50 74 b4 3e 42 57 fd 3d 3e 92 19 bf 76 5a ae bc
       0.3524499 0.12370159 -0.5998877 -0.02128337
0001b0 7c 22 69 be bd 5d 2f 3d b9 a5 93 3e 59 57 f3 be
       -0.22767061 0.042814005 0.28837374 -0.47527578
0001c0 c1 e5 46 be ea 80 45 bd f8 3a e7 bd 13 2b 13 3e
       -0.19423582 -0.048218645 -0.11290544 0.143719
0001d0 8e fa 0c 3d 08 b4 cf 3d a2 03 52 be 79 c6 cd bd
       0.034418635 0.1014176 -0.20509198 -0.10047621
0001e0 66 51 9c bd 40 98 ab be 8c 1e a1 3e f0 8e 9c 3c
       -0.07632713 -0.33514595 0.31468618 0.019111127
0001f0 02 c5 61 be 54 7a dd bd 09 5c 7d 3d c2 4f 97 3e
       -0.22047809 -0.10814348 0.06185535 0.29553038
000200 b5 a2 82 3e 07 bc 9f be c5 25 55 3c 5e fe a7 be
       0.2551476 -0.3119814 0.013009493 -0.32811254
000210 cd 4e af be 04 7d 0e 3f 25 06 90 3c 7a 05 86 be
       -0.34239808 0.5565951 0.017581055 -0.26176053
000220 05 e8 45 3e 25 1e da 3e 20 d8 88 3d ac 3e 95 3e
       0.1932679 0.42601123 0.066818476 0.29149377
000230 1b 23 4b 3e 86 1a 53 3c d3 32 8b be ff aa b1 bc
       0.1983761 0.012884742 -0.27187213 -0.021687983
000240 e1 7f 0a be 39 9f 43 bd f3 96 ab 3d f9 bf 86 be
       -0.13525344 -0.04775927 0.08378401 -0.2631834
000250 e9 61 70 3e 05 9e 9f be ae fe 8d bd 1f cc 73 be
       0.2347485 -0.31175247 -0.06933342 -0.23808335
000260 de c9 86 be 9c 96 67 bd 21 a6 1d bf fd c8 2e be
       -0.26325887 -0.056540117 -0.6158162 -0.17068858
000270 62 cf 9e 3e e5 fa b2 3e fc d3 a3 3e 87 38 9a 3d
       0.31017596 0.34957042 0.3199767 0.07530313
000280 cb 64 d9 bd bc 7a b0 bb b8 3e 41 3e 18 25 f3 3d
       -0.10614928 -0.005385725 0.18871582 0.118723094
000290 4d 41 37 3e bc 57 bf be e6 3f b5 3d af 3d 10 3f
       0.17896004 -0.37371624 0.08850078 0.5634412
0002a0 1d b0 90 be 37 34 f7 bd b6 c9 ab 3e ec fc ed 3c
       -0.28259364 -0.12070506 0.3355233 0.029051267
0002b0 6c d0 4e be 35 0e ac 3d ad 1f 0b 3e d0 14 08 3e
       -0.20196694 0.08401147 0.13586302 0.1328919
0002c0 82 46 03 be 03 a7 50 3e c9 1d 96 bd 8e 97 04 3d
       -0.12819865 0.2037621 -0.073299 0.032371096
0002d0 9a 00 13 3e 46 c3 25 bf 3f 5b 00 3e 9f b0 e9 3d
       0.14355698 -0.6475109 0.12534808 0.11410641
0002e0 9e 25 3d 3e 3a 4e 94 be 15 28 9f 3c 6a e5 68 3e
       0.18471381 -0.28965932 0.019428292 0.22743765
0002f0 dd 87 1b bf 63 cf c8 3e 57 90 43 3e 87 88 e1 3e
       -0.60754186 0.39220724 0.1909803 0.44049475
000300 40 81 91 be 84 b3 d5 be 3a ff bc be f6 f0 ce be
       -0.28418922 -0.41738522 -0.36913472 -0.40418214
000310 60 62 d8 bd 75 42 bd 3d 1e 33 4a 3b f2 67 1a 3d
       -0.105656385 0.09241191 0.0030853222 0.037696786
000320 bd 72 82 be ca 68 38 3d 42 0e 0f bf 6c 53 e2 bd
       -0.25478163 0.04502181 -0.5588113 -0.11051068
000330 41 09 39 be 15 f9 c6 3d e9 49 a1 3e 47 81 e0 bd
       -0.18069936 0.097154774 0.315017 -0.10962158
000340 83 6a 3b bd 01 d2 d1 3e 62 8c e6 bd 6f bf bc 3c
       -0.045755874 0.40980533 -0.11257245 0.023040501
000350 38 9a 95 3d 2c 37 7b be e2 37 48 be 09 11 82 be
       0.073048055 -0.24532765 -0.19552568 -0.25403622
000360 58 45 82 3e 53 5a 58 3e c5 20 4c 3e 11 1d 3d be
       0.2544353 0.21128206 0.19934376 -0.18468119
000370 35 11 59 3e 39 b5 94 3e 84 d0 23 bd f5 94 f2 bd
       0.2119797 0.29044512 -0.039993778 -0.118448175
000380 ee 02 cc 3e df 3a 95 3d b6 eb 75 be f9 4c c6 3d
       0.39845985 0.072866194 -0.24015698 0.0968265
000390 3c a7 a5 3e 23 2e 82 bd a2 66 27 bf 89 d2 93 bd
       0.32354152 -0.06356456 -0.6539098 -0.07217891
0003a0 85 71 2c 3e 50 89 26 3e 87 c4 15 3f 97 50 0b 3e
       0.1684018 0.16263318 0.58503 0.13604961
0003b0 9a 84 04 3f b0 87 49 be 68 77 38 3e c9 06 b5 be
       0.51764834 -0.19680667 0.180143 -0.3535674
0003c0 25 9a d1 bc d4 f7 96 be 93 20 40 bd 57 a9 56 3e
       -0.025586197 -0.29485953 -0.046906065 0.20963036
0003d0 50 65 d3 be e3 8b 88 be 39 a7 c7 3e bf d9 81 3e
       -0.41288233 -0.26669225 0.38994768 0.2536144
0003e0 90 5b 35 3d ad d2 3a 3d 42 37 bd be ab 66 1b be
       0.044276774 0.045611072 -0.3695622 -0.15175883
0003f0 c0 4e b6 3e 9c d4 03 3e e3 d9 6d bd 13 54 ba 3d
       0.35606956 0.12874073 -0.05806912 0.09098067

policy_net.0.bias f4 [32]
000000 92 a5 b8 bd 40 4e 42 bd 34 68 a1 3d fa 7a 92 bd
       -0.09015955 -0.047437906 0.07881203 -0.07152362
000010 1b 86 2b 3d a2 64 d0 bb 0b 09 27 3e 8c c0 55 bd
       0.04187594 -0.0063596526 0.16312043 -0.05218558
000020 3c b4 00 3d 54 76 f6 3d a6 9d b1 bd 19 79 a3 bd
       0.031421885 0.12034288 -0.08672647 -0.07982082
000030 3c 77 b3 bd 5f 6d 9e bb 5c 97 ed 3d e3 e5 8b bd
       -0.087629765 -0.0048348154 0.11601135 -0.06830957
000040 eb de 0b bd a9 f3 18 3d 68 10 f4 3d b6 b7 06 bb
       -0.034148138 0.037341747 0.11917192 -0.0020556278
000050 8f ff 88 3d 5c 4a c9 3d 9c e4 a5 bc b3 18 c6 3c
       0.06689369 0.09828636 -0.020250611 0.0241817
000060 14 58 9e bd 74 35 4f 3d 44 5d f6 bd ea 7d cf 3d
       -0.07731643 0.050588086 -0.12029508 0.10131438
000070 71 05 20 3e 98 b7 0d 3e 68 f0 9d bc 65 7b 6c 3c
       0.15627076 0.13839567 -0.019279674 0.014433716

policy_net.2.weight f4 [32, 32]
000000 2d 19 5d 3e 40 95 86 be 9e ed e0 3d 3a 20 f6 be
       0.21591635 -0.26285744 0.10982822 -0.48071462
000010 40 87 8f bd da 67 09 3e 4b b2 04 bf c9 dd de 3d
       -0.07008219 0.13418522 -0.51834553 0.10882146
000020 28 d5 b0 be 80 b4 06 3e 4a c1 a5 bd 23 db 9f 3e
       -0.34537625 0.13154793 -0.080935076 0.31221876
000030 80 70 1d 3c 8e 78 37 3c 3b 62 d1 bd 71 56 07 3c
       0.009609342 0.011198176 -0.10223814 0.008260355
000040 e2 04 36 3f 17 74 07 be 49 bc 94 be a3 57 97 3e
       0.711012 -0.13227879 -0.290499 0.2955905
000050 69 cd 9f be b5 45 a0 bb c4 ee c5 bd 52 59 dc be
       -0.31211403 -0.004891122 -0.096646816 -0.43036896
000060 71 d1 e2 3d 76 dc a4 be 14 04 b6 3e 90 d2 59 be
       0.11075104 -0.32199448 0.35549986 -0.2127173
000070 cd 74 b6 3d 2c d4 b1 3d 61 65 bd be 71 1d b0 3e
       0.08908997 0.08683047 -0.36991408 0.34397462
000080 60 94 d2 3e e8 ba 16 3f d7 f8 18 3e 0c 0c 31 3e
       0.41128826 0.58878946 0.14938675 0.17289752
000090 02 27 eb 3d a1 98 c5 3e c8 57 bf 3c 38 16 48 be
       0.114820495 0.3859301 0.023357287 -0.19539726
0000a0 e9 17 dd 3c c7 f9 f2 be 22 26 30 3e 18 91 b3 be
       0.02698894 -0.4745619 0.17202047 -0.35071635
0000b0 c3 5b 28 3e ec 04 d8 3d 7f b5 44 3c 9d 92 69 3e
       0.16441254 0.10547814 0.012006163 0.22809835
0000c0 6e d1 68 3e e0 23 f3 3d e9 d2 eb be 73 d9 86 3d
       0.22736141 0.11872077 -0.4605935 0.06584444
0000d0 1f aa c8 bd 18 fa ff bd 91 b5 bc be 8e eb 68 be
       -0.09798073 -0.124988735 -0.36857274 -0.22746107
0000e0 4a d3 b6 3e d1 8b 3c bf 4f b1 9b 3d 5e 5b cd be
       0.35708076 -0.7365084 0.07602178 -0.4010877
0000f0 96 52 b4 bd d1 a6 20 be 79 f7 bd bd 1a ba de bc
       -0.088048145 -0.15688635 -0.09275717 -0.02718835
000100 4f 22 b0 bd ee 3b 3e be 77 20 69 3e 22 b4 09 be
       -0.08600294 -0.18577549 0.2276629 -0.13447621
000110 45 a6 e9 be 37 90 b4 3e 0c 6a 90 be c9 11 3e bb
       -0.45634666 0.35266277 -0.28205907 -0.00290023
000120 28 af 82 3e fa e5 0e bf 7b 46 03 3e 7b 0d 87 3e
       0.2552426 -0.55819666 0.12819855 0.26377472
000130 7b 11 63 3e 7d 1a 88 3e dd 9b e7 3d 93 89 0a 3f
       0.22174637 0.2658271 0.113090254 0.5411617
000140 73 2e 11 be 7a 65 c2 be 80 f7 c3 be 27 71 30 3e
       -0.14177875 -0.37968045 -0.38274765 0.17230664
000150 7c 89 60 be 98 d4 0e be b7 26 bf 3e e1 b1 0c bf
       -0.21927446 -0.13948286 0.37334225 -0.5495892
000160 4e 89 2c 3e b4 5a d4 bc 2c 18 3f 3e 54 91 7a bd
       0.16849253 -0.025922157 0.18661565 -0.061173752
000170 8b 24 9b be b7 6d ec 3c a0 f8 ce bd dc 53 e7 be
       -0.30301318 0.02886091 -0.10106015 -0.45181167
000180 39 9d e2 be 0d 8c 48 bd 20 4f aa 3d fc 78 a6 be
       -0.44260576 -0.048961688 0.08315873 -0.3251418
000190 e0 03 a4 3e 38 3c c0 be dd 19 29 bd fe e9 6a be
       0.32034206 -0.37545943 -0.04128443 -0.22940823
0001a0 0a 5d 1a be 1f f4 45 3e bb 41 1b be 50 c9 ce bd
       -0.15074554 0.19331406 -0.15161793 -0.10096991
0001b0 bf 0b b1 3c 5d f3 a6 3d 2f 0d 23 3f 85 16 53 3e
       0.021612046 0.081518866 0.6369199 0.2061406
0001c0 d9 7e 3b bd e9 09 45 be df 99 b5 3d 60 aa c9 3e
       -0.04577527 -0.19242062 0.08867239 0.39387798
0001d0 d1 aa 79 3e 83 e3 bc be 2e cb 4f be 39 9c c1 3e
       0.24381568 -0.36892328 -0.2029235 0.378145
0001e0 5b 77 8a 3d a4 26 ab be 0b 01 c1 3e 08 16 07 be
       0.067610465 -0.33427918 0.37696108 -0.13191998
0001f0 11 18 00 be e5 58 f4 3e 34 ea 10 3d 99 b8 29 be
       -0.1250918 0.4772407 0.035379604 -0.16574325
000200 d7 09 34 be c4 65 1d 3f 6a 7a dc bc 19 94 b5 3d
       -0.17581879 0.6148341 -0.02691384 0.08866138
000210 2a 08 80 be c2 f0 d7 be 8a 74 1b 3e 3d 99 11 3e
       -0.2500623 -0.4217587 0.15181175 0.14218612
000220 6e b4 ce be 0a e5 17 be 03 57 e7 3d cc e2 3f 3f
       -0.40372032 -0.14833465 0.11295893 0.7495544
000230 cd 19 49 3e 8d 41 be bc 5e 25 ef bd da 92 49 3e
       0.19638748 -0.023224616 -0.11677049 0.19684926
000240 90 5f 23 3e 83 74 ef 3d 21 d8 5d bd 1b 76 50 be
       0.15954423 0.11692145 -0.054161195 -0.20357554
000250 d5 f4 b8 be 01 da 63 be a1 6d 6c be 66 99 d4 bd
       -0.36124292 -0.2225113 -0.23088695 -0.10380821
000260 db e1 09 3c ae 54 7c 3e f7 21 3a 3d 68 1d 01 bf
       0.008415665 0.24641678 0.045442548 -0.50435495
000270 05 5d 0d 3e b2 e3 9b 3d 3a 70 49 3d 29 e4 37 be
       0.13805015 0.07611789 0.049179293 -0.1795813
000280 43 9e 0b bd 2f f6 a7 bd 8b 27 ec 3d a4 2a be bd
       -0.034086477 -0.08201253 0.1153098 -0.09285477
000290 9b 79 f4 3e 25 29 60 3e 53 6c 10 3e d2 ae 9e 3e
       0.47749028 0.21890695 0.14103822 0.30992752
0002a0 11 ea 36 be 41 c9 58 bd ff 88 96 3e cc 1d 82 be
       -0.17862727 -0.052926306 0.29401395 -0.25413358
0002b0 24 63 e7 bd b5 68 6b bd 46 57 22 bd 7f ef 3c be
       -0.112982064 -0.057472903 -0.03963401 -0.18450736
0002c0 fb 14 df 3d 73 b2 29 bf b3 e5 50 3e f0 34 80 3d
       0.108926736 -0.66287917 0.20400123 0.06260097
0002d0 c5 be 2f bf 44 1f 52 be b2 de da 3d 2c 44 93 be
       -0.68650466 -0.2051974 0.10687007 -0.2876295
0002e0 84 0e 4b 3e d2 0f f8 bd 99 b9 d1 bd bd 0e c1 be
       0.19829756 -0.121123925 -0.10240478 -0.37706557
0002f0 1f 70 1b bf ca ea 1d bd e7 61 38 3e af f3 db bd
       -0.6071796 -0.03855399 0.18006097 -0.10739838
000300 1d de ba bd 84 d2 cc be d4 95 ea 3d 8c 20 03 3f
       -0.09124396 -0.4000436 0.11454359 0.5122154
000310 b8 ac e1 3e 96 ea 82 3d 6c 67 85 be 40 02 e6 bd
       0.44077086 0.063924 -0.26055467 -0.11230898
000320 ff 6d 87 3c d3 ba 05 3e b0 bd 4c 3e 38 0b 3b 3e
       0.016531942 0.13059549 0.19994235 0.18265998
000330 8c 92 63 be 0b 24 93 3d ae 1b 57 be e4 05 17 3f
       -0.22223872 0.07184609 -0.21006653 0.58993363
000340 4a 36 a6 3d fb 24 91 3d 45 e9 24 be 82 e4 87 bd
       0.081158236 0.070871316 -0.1610461 -0.06635381
000350 f9 71 e1 be cc f2 b7 3d 9b 82 ae 3e d6 4e 63 3e
       -0.44032267 0.08981857 0.3408402 0.22198042
000360 3e 78 cc 3d 88 9d e3 be 7a e1 ce 3e a4 6d 28 be
       0.09983872 -0.44456124 0.404064 -0.16448075
000370 4f 4b 05 3e c8 4e c2 bd bc 12 ea 3e c9 6c a0 3c
       0.13017009 -0.094876826 0.45717418 0.019583123
000380 76 dd 92 3d 61 61 31 3e ea 92 20 3e ef 40 b9 3e
       0.071711466 0.17322303 0.15681043 0.36182353
000390 99 97 2b bd 35 ba 07 3e 90 e1 02 bf 4f 88 34 be
       -0.04189262 0.13254626 -0.5112543 -0.17630123
0003a0 3d c6 15 3d d3 53 cc 3e a4 4e 98 be e1 ee 95 3e
       0.036566008 0.39907703 -0.29747498 0.29283813
0003b0 3a 99 8a be e7 a8 15 be bf 3f 8e 3e 62 ac 40 be
       -0.27070028 -0.14615212 0.2778301 -0.18815759
0003c0 e8 3d b3 3d b1 ba 99 3d f4 2f 0e be 60 49 85 3e
       0.08752042 0.07506312 -0.1388548 0.26032543
0003d0 0a df 88 be 8c aa 3c be 41 1f 47 be 4d cc 08 be
       -0.26732665 -0.18424433 -0.19445516 -0.13359185
0003e0 45 85 a3 be 85 8e 62 be 17 5f cf be 7d 36 73 3e
       -0.31937614 -0.2212468 -0.40502235 0.23751254
0003f0 80 39 bf be 03 10 61 be fc b5 55 3e 66 81 bf be
       -0.37348557 -0.21978764 0.20870203 -0.3740341

policy_net.2.bias f4 [32]
000000 dc 14 de bd 51 6e 17 be 68 9b 33 be bc 43 43 3d
       -0.10843822 -0.14788176 -0.17539752 0.04767202
000010 ad cf aa bd da f8 d4 bd 22 d3 9a bd 5d c1 d7 bc
       -0.08340392 -0.10399027 -0.07559802 -0.02633732
000020 98 4d 2c 3c 44 81 36 3d b9 e3 b7 bd be cb 00 bd
       0.010516547 0.04455687 -0.089789815 -0.031444304
000030 16 8f 3e bd e1 ca 02 3e 58 71 d2 3d 51 97 db 3c
       -0.046523176 0.12772705 0.10275525 0.026805552
000040 05 4e a0 3c 53 2e 02 be 3d 94 f1 bd 0a b3 bb 3d
       0.019568453 -0.12712984 -0.11795852 0.09165008
000050 45 d2 e9 3d e8 ec bc 3d 92 12 db bc 9f 71 b5 3d
       0.11417059 0.09224874 -0.026742253 0.08859562
000060 37 c5 bf bd 9f 23 de 3d f7 e3 9c bd f5 f4 c9 bd
       -0.093637876 0.10846638 -0.07660668 -0.09861175
000070 f9 9d 1d be 89 00 9b bd 63 e0 30 bd de c3 47 bc
       -0.15392293 -0.075684614 -0.04318274 -0.0121926945

policy_net.4.weight f4 [32, 32]
000000 4d fa 45 3e 2a 15 26 3f 68 11 16 3e 1a 86 7a be
       0.19333763 0.64876044 0.14655077 -0.24465218
000010 c9 4a a2 3d 76 e9 0b be 63 da 7c be 5c d6 01 3e
       0.079244204 -0.13663277 -0.24692683 0.12679428
000020 ab 7f bc 3e 9e 7c 66 3e 74 9e bd bc 8f ea 88 bd
       0.36816153 0.22508475 -0.023146845 -0.066853635
000030 68 eb dc 3e e7 b0 10 be d9 1d 65 3d c5 8f 44 3e
       0.4314835 -0.14129983 0.055936668 0.19195469
000040 35 9f 8e be 3a 9b 87 3d 50 69 cf 3e 80 3f 06 3d
       -0.2785584 0.06621404 0.40510035 0.032775402
000050 6c 86 58 be 29 59 a2 be 27 51 9d be 6f 73 02 be
       -0.21145028 -0.3170865 -0.30725977 -0.12739347
000060 f4 64 55 bb b5 81 99 3b f5 52 3c be fb de 0f be
       -0.0032561393 0.0046846517 -0.1839102 -0.14049904
000070 04 a5 2a 3f f5 8e 04 3e da 9f fc 3e 1b 7f 84 bb
       0.66658044 0.12945159 0.49340707 -0.0040434725
000080 64 8e 92 be 92 78 6b be d2 16 4e 3b da 4d 5e bc
       -0.2862426 -0.22995213 0.0031446707 -0.013568366
000090 1a 02 8c 3e 67 37 b0 be bb 01 c9 bd ab 93 65 be
       0.27345353 -0.3441727 -0.09814783 -0.22419612
0000a0 2a 30 b7 3e 82 3a 7a be 0f 83 3b be 9e bd 0c 3e
       0.35778934 -0.24436381 -0.18311714 0.13744208
0000b0 a8 6b 8f be ea e6 cb 3e 60 f8 cd 3a c5 39 9b 3e
       -0.28011823 0.3982461 0.001571428 0.30317512
0000c0 36 be c6 be 60 2c 35 3d 80 e7 b6 be f8 8d c7 3e
       -0.38816994 0.044231772 -0.35723495 0.389755
0000d0 9e 2b 1c 3d cf 1b be 3e ba 9d 96 3e 7b 47 bb 3e
       0.038127534 0.3713059 0.2941721 0.36577973
0000e0 57 94 0a 3e 9f 58 04 3f 82 fc 03 3d d2 6f a9 be
       0.1353315 0.51697725 0.032223232 -0.33093125
0000f0 b0 0d 92 3e fc 7f 1f bf 28 95 d8 bd 18 42 79 3e
       0.28526068 -0.62304664 -0.10575324 0.24341619
000100 e4 cc 81 3e c0 34 ca bd 16 b0 15 be 08 72 62 3e
       0.25351632 -0.098733425 -0.14617953 0.22113812
000110 49 84 09 be ab 1a e0 3e bf 47 85 3d d5 07 e9 be
       -0.13429369 0.43770346 0.06507825 -0.45513788
000120 78 dd 20 3f 6b f7 b2 bd 1b 68 bc 3e 2d 54 07 bb
       0.62837934 -0.087385975 0.36798176 -0.0020649538
000130 80 e8 85 bd c5 07 30 3e a0 a9 ec 3d a5 a5 5f 3f
       -0.065384865 0.17190464 0.11555791 0.8736213
000140 31 e9 00 3f 7c d1 13 3e 5e b6 01 be 2f f6 83 be
       0.5035582 0.1443538 -0.12667224 -0.2577376
000150 7b 23 4b 3e 96 73 67 be a9 57 7a be 6f 40 5c be
       0.19837753 -0.22602686 -0.24447502 -0.21508954
000160 3a f6 b7 bd d8 2b 37 3e 07 31 a6 3a 3f aa a6 3e
       -0.08982511 0.17887819 0.0012679406 0.32551762
000170 03 37 a7 be 89 55 a0 be da 68 3a 3e f3 d5 e0 be
       -0.32659158 -0.31315258 0.1820406 -0.4391323
000180 df 22 2d be bb 85 88 be 58 fc b5 be eb 43 34 be
       -0.16907834 -0.26664528 -0.35544086 -0.17604034
000190 9f d0 b4 be 4f 42 3b be 37 5d 64 be ee bb 8c 3e
       -0.35315415 -0.18287013 -0.22301184 0.2748713
0001a0 8a c9 39 3e d8 21 b1 3d f1 e7 87 3e a8 9e 3e 3e
       0.18143287 0.08649033 0.26544145 0.1861521
0001b0 82 2f bf 3e b7 4f cc bd e3 36 b4 3e b0 60 2e bd
       0.37340933 -0.09976142 0.35198125 -0.042572677
0001c0 e6 d6 3b 3e 2a fd 77 bd c5 f2 87 be f2 cc fb 3e
       0.18343696 -0.06054417 -0.26552406 0.49179798
0001d0 75 b6 95 3e 67 24 22 3f 5b 83 bd 3e 1c 62 9f 3e
       0.29240766 0.63336796 0.3701428 0.3112954
0001e0 e2 48 d4 3e d8 bb 9f 3e 66 26 ae be c6 35 35 be
       0.41461855 0.31198 -0.3401367 -0.17696294
0001f0 52 1f 9e be 42 d7 a2 3d 6f bc f9 3d d2 95 9b 3d
       -0.3088327 0.079512134 0.12194144 0.07596935
000200 a5 20 8b be 7d 26 0c 3c ba 53 3b 3d 44 54 a2 3e
       -0.27173343 0.008554098 0.045734145 0.31704915
000210 20 3c cd 3e d0 7f 16 3d a0 da 09 bf 5d d2 94 be
       0.40084934 0.036742985 -0.5384922 -0.29066744
000220 34 9f f8 bd ea c8 a0 3c ab 79 3f bd 84 58 45 3d
       -0.121397406 0.019627053 -0.04674689 0.04818012
000230 a4 69 63 bd 01 4d d6 3e 08 4b b3 bc 60 e5 8c 3c
       -0.05552067 0.41855624 -0.021886364 0.017199218
000240 fe 7b 0e be c7 c9 26 bd 2c d0 68 be 8a b8 58 3f
       -0.13914487 -0.040719774 -0.22735661 0.84656584
000250 00 e6 82 3e d7 b2 01 bd b3 52 a1 bd bb 13 48 3e
       0.255661 -0.031664696 -0.07877102 0.19538777
000260 ba fe da bc 88 1f c6 3d 9e 86 d1 be 18 f6 ba be
       -0.026732791 0.09673983 -0.40923017 -0.3651588
000270 41 a8 15 bf 42 dd ad 3e 74 2c 6b 3c d7 93 90 be
       -0.5845986 0.3395787 0.01435386 -0.28237793
000280 86 7e e8 3c f6 d1 ba 3e f5 cf dd 3e 27 aa bf 3d
       0.028380644 0.36488312 0.4332272 0.09358626
000290 61 86 55 3e a3 b6 f0 3e 6c 86 12 3f 2c 63 0e 3e
       0.20852043 0.4701434 0.5723636 0.13905019
0002a0 12 f4 02 be 45 58 31 3d 7e 6e 8e 3e a5 8c 20 3f
       -0.12788418 0.04329707 0.27818674 0.62714607
0002b0 ae 06 c8 3e 0d 2b 28 3e 5d c4 5c bc 48 c2 31 3e
       0.39067596 0.16422673 -0.013474551 0.17359269
0002c0 f2 53 12 be 81 e6 6f be 09 85 de 3c 59 da cb be
       -0.14289835 -0.23427774 0.027163045 -0.39815024
0002d0 e2 00 a9 3e a3 17 26 3d 14 4c 30 be 91 a4 cf bd
       0.33008486 0.040549885 -0.17216522 -0.101388104
0002e0 bd 1e e9 3b 34 3c 30 bd 37 e4 65 3e f6 c1 af 3e
       0.00711426 -0.043026164 0.22450338 0.34327668
0002f0 4c fe 01 3f dd b3 e6 3e 1b 76 97 be bf 0a db bd
       0.5077865 0.450591 -0.29582295 -0.10695409
000300 6e 7c e0 be 19 0f 80 be d3 52 8c 3d ad 28 db 3d
       -0.43844932 -0.2501152 0.06851735 0.10701118
000310 6b e5 86 3d de 68 9f be ba 84 d0 be 8f 85 e3 3d
       0.06586727 -0.31134695 -0.40726262 0.11109459
000320 f4 cc b0 3d 96 d0 fb 3d ff 47 98 bd a6 c7 f1 3c
       0.08632842 0.12295644 -0.07435607 0.029514145
000330 f9 b2 c4 bd 55 3d 81 3d f9 e0 b2 3d ec 33 d0 be
       -0.09604449 0.06310526 0.087343164 -0.40664613
000340 20 a6 91 3d f0 e2 50 be 35 50 d1 be d1 8f eb be
       0.07111764 -0.2039907 -0.40881506 -0.4600816
000350 6b 9a eb 3d 28 20 61 3d ac cc 27 3e 56 79 02 3f
       0.11504062 0.054962307 0.1638667 0.50966394
000360 97 ee af 3d 5e 5c c2 3e 03 3f 81 be 1a 37 f2 be
       0.08590429 0.37961096 -0.25243387 -0.47307664
000370 93 e4 c4 bd 04 db 95 be 4f 97 78 3e ab 62 46 bf
       -0.096139096 -0.29268658 0.2427647 -0.77494305
000380 04 01 5d bd f1 2c 4f 3e d3 7f 9e be 78 c9 37 be
       -0.053956047 0.20231988 -0.30956897 -0.17947948
000390 79 d3 4e 3c 12 35 37 be 73 72 e9 bc 25 d3 b0 be
       0.012623661 -0.17891338 -0.028496956 -0.3453609
0003a0 fd 05 00 bf 24 e1 7f 3d 84 61 f1 be 83 e1 b3 3e
       -0.5000914 0.06247057 -0.4714471 0.3513299
0003b0 d5 2b 86 3e 28 65 7e be d0 bb fa be 8e 98 02 be
       0.26205316 -0.24843276 -0.48971415 -0.12753507
0003c0 17 46 1c bf d0 b3 aa 3e 75 ad d0 bd e0 99 8a be
       -0.6104445 0.3334031 -0.10189334 -0.27070522
0003d0 26 7a e3 bd 78 2f bf 3e 71 2e 10 3e 65 63 d2 3e
       -0.11107282 0.37340903 0.14080216 0.41091457
0003e0 48 5b d0 3d 5b 2f 01 be f3 27 2e bf 96 de b4 3e
       0.101736605 -0.12615721 -0.6802971 0.3532607
0003f0 f8 fc a3 bd 09 72 b6 3b 69 12 8f 3e c8 69 3f 3e
       -0.08007234 0.0055677933 0.27943733 0.18692696

policy_net.4.bias f4 [32]
000000 9f 31 b5 bd 2b fd 34 3e 06 d1 91 bc 73 25 1b 3e
       -0.08847355 0.17674701 -0.017799865 0.15151004
000010 57 25 26 3e 80 22 35 be 61 48 2b 3e eb 11 bf 3b
       0.16225182 -0.17688942 0.16726829 0.0058309934
000020 3c 80 0a 3e 72 27 26 be 34 b9 28 be d3 23 0e be
       0.1352548 -0.16225985 -0.164769 -0.13880853
000030 33 09 f3 bd 8b f8 c1 3d 98 80 27 3e 51 27 0f be
       -0.11866989 0.09471234 0.16357648 -0.13979842
000040 48 1e bf bd c1 1b df bd 4d 0b 19 3e 05 d5 72 bb
       -0.093319476 -0.108939655 0.14945717 -0.003705324
000050 52 f9 0c 3e 41 b9 cb 3d 59 a2 1e 3e b4 07 4c bc
       0.13766983 0.09947444 0.15491618 -0.012453008
000060 b7 ba c8 3d f1 02 7d bc 0c 6a f2 bd 9e ee ea 3d
       0.09801238 -0.015442596 -0.11836633 0.11471294
000070 f8 fe 2d 3e f7 4a 1c 3e df c8 89 3c 39 d5 56 bc
       0.16991794 0.15262972 0.016819416 -0.01311236

policy_net.6.weight f4 [20, 32]
000000 7b 52 73 ba 87 fe 80 ba a9 3b bd ba b6 82 27 bb
       -0.0009282005 -0.000984148 -0.0014437336 -0.0025560088
000010 ec 3a f4 ba a0 08 51 bb f9 d1 95 b9 cf d8 48 bb
       -0.0018633283 -0.003189601 -0.00028575936 -0.0030646806
000020 3b 9d 07 bb c6 88 08 ba 33 d0 bc 39 1b 93 2a ba
       -0.0020693082 -0.0005208369 0.00036013275 -0.0006506906
000030 69 96 e8 ba 38 12 1b 3a b4 67 41 39 21 31 a9 3a
       -0.0017745021 0.00059154956 0.00018444547 0.0012908318
000040 2a 53 df ba ac 9b e3 3a 87 1e a8 3a b5 2b 01 bb
       -0.0017038335 0.001736512 0.0012826481 -0.001970989
000050 6f e6 22 bb 68 73 85 3b 0d 39 81 b9 d9 09 18 3b
       -0.0024856587 0.0040725954 -0.00024647304 0.002319923
000060 bb 81 f3 ba 61 8b 88 ba ce c9 c9 3a 73 ed d2 39
       -0.0018578091 -0.0010417515 0.0015395225 0.00040231235
000070 7d 2d 0a 3b fb 68 9e 38 2b 21 c0 3a 01 72 db ba
       0.0021084242 7.553581e-05 0.0014658322 -0.001674235
000080 92 c9 83 3d 7c e0 91 bd c9 78 6a bd c3 49 92 bd
       0.06434931 -0.07122895 -0.057244096 -0.07142975
000090 db 7d 8a bd 98 a9 88 3d df a2 84 bd 32 32 6a 3d
       -0.06762286 0.066729724 -0.06476378 0.057176776
0000a0 0b ea 8f bd d6 7f 83 3d 77 fb 87 3d 9c e4 8d 3d
       -0.07027062 0.06420867 0.0663976 0.069283694
0000b0 41 e9 86 3d 4a 9d 89 bd 69 13 87 bd 12 de 8c 3d
       0.065874584 -0.06719454 -0.06595499 0.06878294
0000c0 cf e7 80 3d 7b 88 83 3d db 55 8f bd 8e bd 53 bd
       0.06294214 0.06422516 -0.069987975 -0.051694445
0000d0 3d 08 8c bd 3b c6 8a bd 4c e6 81 bd cb 56 63 bd
       -0.06837509 -0.06776091 -0.06342754 -0.055502694
0000e0 7e e5 5b bd 6b 33 6c bd 70 c1 90 3d 2e 23 84 bd
       -0.053685658 -0.057666223 0.07068145 -0.064520225
0000f0 c1 c7 87 bd 54 81 89 bd a8 a7 7f 3d ac 93 6c 3d
       -0.06629897 -0.067141205 0.06241575 0.05775802
000100 ed 15 c2 3a cf 8e 13 3b d8 f9 b1 3a d0 06 da 3a
       0.001480756 0.002251554 0.0013578488 0.001663411
000110 ce f4 3c 3b 13 91 31 bb 26 6e 2b 39 ef db b8 3a
       0.0028832438 -0.0027094528 0.00016348864 0.0014103631
000120 0c ae 0d bb 1b d6 71 b9 50 76 a6 b9 bd 2e a4 ba
       -0.0021618633 -0.00023063312 -0.00031750137 -0.0012526136
000130 43 b0 f6 ba ea 2b 46 bb d0 b0 db 3a 17 82 2b 3b
       -0.0018820841 -0.0030238577 0.0016761068 0.002617007
000140 32 9a 24 bb ec 1f 1d 3a d2 02 2f ba fe 0a 19 ba
       -0.0025116322 0.00059938314 -0.00066761405 -0.0005838125
000150 4a c1 ba ba 44 e0 c9 ba 20 7f 98 3a 91 67 0f 3b
       -0.0014248278 -0.0015401919 0.0011634566 0.0021881799
000160 d4 34 ae ba 4b 2b d0 3a 33 f3 d2 ba 05 92 87 ba
       -0.001329089 0.0015882043 -0.0016094208 -0.00103432
000170 15 59 a3 b9 0e eb 3c 3b 7e 67 34 b9 72 77 31 3b
       -0.00031156154 0.0028826627 -0.00017204692 0.0027079252
000180 22 eb 53 3a 87 9f eb 3a e3 30 1d 3b 79 4b 4c 3a
       0.0008084049 0.001797662 0.0023985438 0.0007793229
000190 aa 1b 37 ba de f1 02 bb b5 f2 c1 39 64 7e c9 ba
       -0.0006985018 -0.001998059 0.0003699266 -0.001537275
0001a0 d2 49 f5 ba d9 e5 53 bb 64 7a 5c ba 26 d0 aa 3a
       -0.0018714017 -0.0032333045 -0.00084105716 0.0013032004
0001b0 ec 39 a3 ba 52 58 1c bb 34 f4 73 bb 21 e8 46 bb
       -0.0012453175 -0.0023856354 -0.0037224414 -0.0030350762
0001c0 94 28 0e 3b 1b 8f 00 3a b2 19 ca ba e2 0d 90 39
       0.0021691667 0.0004904137 -0.0015419035 0.00027476164
0001d0 c7 10 42 bb 12 ff da ba 86 b5 f4 ba bd 78 62 ba
       -0.002961205 -0.0016708097 -0.0018669821 -0.0008639207
0001e0 70 7e e9 39 38 a1 96 ba d2 89 d2 ba de cc 55 ba
       0.00044535426 -0.0011492139 -0.0016062802 -0.0008155833
0001f0 a2 b0 c1 3a 59 bb 09 bb d2 db 1f ba d1 05 8e ba
       0.0014777372 -0.002101621 -0.00060981244 -0.0010835474
000200 b3 7d 20 3d e8 44 0e bd e4 7b 0e 3d 64 48 00 bd
       0.039182376 -0.034733683 0.03478612 -0.031319037
000210 be 63 90 bc f0 e3 d9 3c bf f4 15 bd 7e 20 76 3c
       -0.017625686 0.026597947 -0.03661036 0.015022395
000220 0f 14 0f bd 03 0d fe 3c bf 65 14 3d 0c 81 0a 3d
       -0.03493124 0.031012064 0.036229845 0.033814475
000230 35 b7 8a 3c 31 e9 e5 bc 8d 2e 09 bd a1 e0 17 3d
       0.016933063 -0.028065296 -0.03349166 0.037079457
000240 8f 9f 29 bd b4 3e 2d bd 35 0f 13 bd f5 7b ed 3c
       -0.041411933 -0.042296126 -0.035903174 0.028989771
000250 1f 70 de bc 83 e4 1f bd bb e5 03 bd ef 5e 0b bb
       -0.027153073 -0.039036285 -0.03220151 -0.0021266302
000260 1a 3e 35 3d b0 79 12 3d 96 94 18 bd ef 57 0d 3d
       0.044248678 0.03576058 -0.037251078 0.034507688
000270 1f 7a 0c bd 9a 7d 0a bd 86 87 0d bd eb 67 43 bc
       -0.03429615 -0.03381119 -0.034553073 -0.011926631
000280 97 f3 a3 3d cf e4 a5 bd fa 96 84 bd 5f d7 98 bd
       0.080054455 -0.081002824 -0.06474109 -0.07462954
000290 b2 43 9e bd b3 8a a4 3d 5b 70 9c bd f5 32 73 3d
       -0.077277556 0.08034267 -0.076386176 0.05937477
0002a0 0f 17 a0 bd 5c 46 93 3d 02 46 9f 3d 5c f5 9f 3d
       -0.07816898 0.07191154 0.07777025 0.078104705
0002b0 81 7c 98 3d 31 fc a0 bd 10 9f a1 bd 37 15 a3 3d
       0.07445622 -0.07860602 -0.07891667 0.07963031
0002c0 64 2f 90 3d f4 10 95 3d 55 a6 99 bd 69 c5 68 bd
       0.07040289 0.07278624 -0.075024284 -0.05682889
0002d0 c2 55 9f bd ac 9d a0 bd 20 2c 99 bd 61 8b 6d bd
       -0.07780029 -0.078425735 -0.07479119 -0.05799425
0002e0 7b b0 83 bd 35 a6 8b bd 6d 9e 9a 3d 7f b5 9c bd
       -0.06430145 -0.06818811 0.075497486 -0.07651805
0002f0 f9 0a 9d bd 2b dc a3 bd ba 70 9b 3d 02 3e 91 3d
       -0.076681085 -0.08000978 0.0758986 0.07091905
000300 d7 51 6b 3b cf 5d 29 3a 6d 81 91 ba 4c 0b ea ba
       0.0035906935 0.0006460817 -0.0011101194 -0.001785615
000310 ef bf d4 3a 93 4c 6f ba 4a d9 d0 ba b6 47 07 bb
       0.0016231517 -0.0009128537 -0.0015933898 -0.0020642108
000320 a9 e1 07 3b 99 9d 18 3b 14 04 90 b8 82 36 df b9
       0.002073387 0.0023287295 -6.867215e-05 -0.00042574486
000330 0e dd 6d 3b 0a 17 37 bb 26 c1 d6 b9 6b 77 d8 39
       0.003629509 -0.0027937316 -0.00040961168 0.00041287704
000340 bb d2 10 bb ef 63 15 bb 14 ca 30 3a 5e c0 b9 ba
       -0.0022098261 -0.002279516 0.0006743979 -0.001417171
000350 62 49 06 ba c7 90 81 3a b1 42 04 38 fd 4a 9c b9
       -0.0005122629 0.0009885066 3.1533364e-05 -0.0002981051
000360 7c 33 b1 b9 5b 5e 98 b9 cf 54 09 bb d4 4b 0a bb
       -0.0003379843 -0.00029062 -0.002095509 -0.0021102326
000370 8f c5 07 ba 3f 38 89 bb c0 6e cc 38 61 c2 64 b9
       -0.000517928 -0.0041876133 9.748107e-05 -0.00021816186
000380 3b ec a8 3c ee 00 19 bd e6 75 5b 3c 0d f1 0f bd
       0.020620456 -0.037354402 0.013394808 -0.035141993
000390 e0 e9 e9 bc 51 2d 09 3d 18 c7 1d bd c6 f5 0c bc
       -0.028553903 0.033490483 -0.03851995 -0.008603519
0003a0 04 55 15 bd 59 3f 99 3c ca a2 1b 3d da d3 26 3d
       -0.03645803 0.018706964 0.037997045 0.04072938
0003b0 4b 01 1f 3c a0 8b ee bb 4c 10 13 bd 2e 62 1b 3d
       0.009704898 -0.007279828 -0.035904214 0.03793543
0003c0 88 68 f1 3c 21 68 1a 3d 87 b5 eb bc 1a c2 27 3d
       0.02946879 0.03769696 -0.028773082 0.040956594
0003d0 02 fc fc bc 1d f0 01 bd 00 da ae bc 25 80 89 3c
       -0.030881885 -0.03172313 -0.021344185 0.016784737
0003e0 d0 dc 2f bd e4 7a e1 3c 2b 4c 3b 3d 03 e7 04 bd
       -0.042935193 0.02752442 0.045726936 -0.032446872
0003f0 8d 65 d7 bc ee 19 13 bc c6 30 c0 bc 59 43 a4 bc
       -0.02629354 -0.00897835 -0.023460757 -0.020051645

policy_net.6.bias f4 [20]
000000 00 00 00 00 9b bb 7d bd 00 00 00 00 00 00 00 00
       0.0 -0.061946493 0.0 0.0
000010 d9 fc 1a bd bb aa 9b bd 00 00 00 00 8c f3 1c bd
       -0.03783879 -0.07600924 0.0 -0.038318202
000020 d9 fc 1a 3d 00 00 00 00 53 52 31 3e a0 de af bd
       0.03783879 0.0 0.1731656 -0.08587384
000030 c5 c6 47 be 8e f3 1c 3d e0 c2 47 3e 00 00 00 00
       -0.19509418 0.03831821 0.19507933 0.0
000040 00 00 00 00 e1 dd af 3d 00 00 00 00 00 00 00 00
       0.0 0.08587242 0.0 0.0

value_net.0.weight f4 [32, 770]
000000 1b 71 4e bd 41 5b 0b be 1c 74 ca bc 37 8a af bc
       -0.050400835 -0.1360903 -0.024713568 -0.02142821
000010 50 9f d6 bd e1 57 4e 3d 35 50 b8 bc e1 61 40 3c
       -0.10479605 0.050376777 -0.022499183 0.011742086
000020 18 27 8e bb 5c c4 33 bd 2e 2f 1c be 71 ae a5 3c
       -0.0043381564 -0.043888435 -0.15252373 0.020224782
000030 c1 5e 47 3d 0b 13 23 bc 37 30 84 3b a1 c6 4d 3c
       0.04867435 -0.009953271 0.004034068 0.012559564
000040 26 bb 70 bc 62 00 9c bd 38 ce 93 bc 0a b7 fc bc
       -0.014693057 -0.076172605 -0.018042669 -0.030848999
000050 e7 e2 8d 3b 0f cf 70 3d ed 23 10 3d c7 1a bd bb
       0.0043300274 0.058791216 0.03519051 -0.0057710144
000060 8a c8 56 bd e1 5a da bd 52 ef 5d bd fd 9d 27 bd
       -0.052437343 -0.10661865 -0.05418331 -0.040922154
000070 6f 2e 39 bd f6 87 2f bd 9d 7e 1a 3d 9f fd 55 bd
       -0.0452103 -0.04285427 0.037718404 -0.052243825
000080 25 64 5a bd 20 e1 93 bb fb 4d 4b 3d 3c fd 17 be
       -0.05331816 -0.004512921 0.049634915 -0.14842695
000090 b2 85 1d 3d a8 99 bd 3c eb c9 35 bd 5e fe 85 bd
       0.03845758 0.023144558 -0.044382017 -0.06542657
0000a0 23 89 3e bd 52 2e 53 bd 83 d1 70 bd fe 4b 1d 3c
       -0.046517503 -0.051557846 -0.058793556 0.0096006375
0000b0 f1 90 53 bd 08 47 ca bd 3d 9f 4a bc a7 a5 a5 bd
       -0.0516519 -0.098768294 -0.012367067 -0.08088236
0000c0 4c 85 64 bd b1 e4 7e bc 97 5e 52 bc ab 00 c8 bd
       -0.055791184 -0.015557454 -0.012839935 -0.097657524
0000d0 8e 27 c2 bc 49 de 38 bd 82 52 73 bc 5d 1f 57 3c
       -0.023700502 -0.045133863 -0.014851214 0.013130036
0000e0 47 12 9a 3d 26 f9 03 3d 95 b5 34 3d d3 29 9c bd
       0.075230174 0.03222003 0.044118483 -0.07625165
0000f0 3c 7c e2 bc 34 14 28 3d 27 0e 20 bd 34 86 a3 bc
       -0.02764713 0.041034892 -0.039075997 -0.019961454
000100 cb b8 59 bd 9e c1 09 be 2d 87 b2 3c 44 b7 26 bd
       -0.053154748 -0.13452765 0.021792972 -0.04070212
000110 d0 d5 87 bd af d5 2e 3d 41 31 12 bc 78 5f 68 bb
       -0.066325784 0.042684253 -0.008922876 -0.0035457294
000120 3c c6 d6 3d 2d 81 f4 3d f6 27 95 bd 31 5d d1 3b
       0.10487029 0.11938701 -0.072830126 0.006389283
000130 25 63 1c bd 15 94 ab bc b2 f0 a2 bc f9 2a f1 bd
       -0.03818049 -0.020944634 -0.019890163 -0.117757745
000140 42 85 ca 3b 7b 73 97 bc de a9 ec bd c9 0d 91 3b
       0.0061804364 -0.018487683 -0.11555837 0.004426692
000150 eb bd 6f bd 3b 4a f5 bd 72 15 0e 3d 92 51 c6 bc
       -0.05853073 -0.11977049 0.03468842 -0.024208818
000160 9e 98 ef bd 1f 1c 99 3d 07 da 40 bd 9f 9f a2 3d
       -0.11699031 0.07476067 -0.047082927 0.079406016
000170 d2 64 99 bd 8c f7 c2 bd 5e ce a6 3d 6b bb 2b 3d
       -0.07489933 -0.09519872 0.0814483 0.041926783
000180 7a fc 9d bc 0a d8 d6 3d 00 ec 91 3d e9 5e 80 bc
       -0.01928543 0.10490425 0.071250916 -0.015670257
000190 58 ce 8c bd 71 57 04 be 15 90 29 bc 2d 59 2a bd
       -0.068752944 -0.12923981 -0.010349293 -0.04158895
0001a0 8e 06 b2 bd 03 b2 42 bd 03 db fb 3d 59 2d 88 3c
       -0.086926565 -0.047533046 0.122976325 0.016623186
0001b0 3d b4 66 3d 61 5c 0a bd f4 23 42 3c 06 48 ec 3d
       0.056324232 -0.033779506 0.011849392 0.11537175
0001c0 ba 26 33 3c 98 42 82 3d f5 27 a0 3d b5 e1 14 3d
       0.010934526 0.06360358 0.07820121 0.036348063
0001d0 f0 3f 22 3d 69 4d 0a 3d 39 ab 88 be 4e d1 d3 bc
       0.039611757 0.03376523 -0.26693133 -0.02585664
0001e0 65 fd 5b be d1 0c 7f 3d be 11 f0 3c 25 4c bd 3d
       -0.21483381 0.062268082 0.029305335 0.09243039
0001f0 e2 a0 d2 bc 30 6a aa 3d e7 25 00 be 19 5a e2 bd
       -0.02571148 0.08321035 -0.12514459 -0.11052341
000200 e6 87 2f 3d 3a 73 82 bc b0 3f 8b bb 2b 57 dc 3d
       0.042854212 -0.015924085 -0.0042495355 0.107588135
000210 11 10 40 bc 41 f0 8c 3b 84 f0 8d bd 78 68 b5 bc
       -0.0117225805 0.0043011014 -0.0693064 -0.022144541
000220 9a 31 d1 bc 3d e0 6a bc c8 34 33 bc f0 46 8e bd
       -0.025536347 -0.014335689 -0.010937877 -0.06947124
000230 6e 79 13 3d 87 a7 a1 bc 9c 07 92 3b f8 3c 0c 3e
       0.036004476 -0.019733204 0.0044564735 0.13695133
000240 df cb 29 be db d0 ba bd 33 75 ac bd 60 92 aa bc
       -0.16581677 -0.09121867 -0.084207915 -0.02082175
000250 0c 7e ae bc b0 0a 87 3b 47 29 b6 bc 9f 4c 46 bd
       -0.021300338 0.004121147 -0.02223648 -0.048412915
000260 09 15 dd bc 00 bf a1 bd 42 f8 af bd 85 d6 03 3e
       -0.02698757 -0.078977585 -0.08592273 0.12874801
000270 b4 b9 73 3d 72 27 aa bd 96 8a eb bc 06 04 f7 bc
       0.059503272 -0.08308305 -0.028752606 -0.030153286
000280 dd 1f 18 be b2 07 55 3d 8b 26 65 3d 15 83 dc bc
       -0.14855905 0.052009292 0.05594496 -0.026917974
000290 e5 97 a6 bd 27 e7 ff bd 09 26 4d 3c 46 d1 85 bd
       -0.0813444 -0.12495261 0.012521275 -0.06534056
0002a0 0d bd cc 3d eb b7 e7 bd 69 3a b9 3c b6 a4 ec bd
       0.09996996 -0.113143764 0.02261086 -0.115548536
0002b0 a5 2b 15 3d 47 46 92 bd 78 63 da 3c 79 de 0e 3b
       0.036418576 -0.071423106 0.026658759 0.0021800085
0002c0 94 ed 0b be 3b d4 c9 bd 36 12 1d bd 29 3a a4 3b
       -0.13664848 -0.09854933 -0.038347445 0.005011816
0002d0 ae d1 8b bd e6 72 84 bd 7c 59 23 bd d6 f0 32 bd
       -0.068271026 -0.06467228 -0.03988026 -0.04368671
0002e0 f1 bf 67 3c 9b 83 49 bd 7b 8a 81 3d 10 8c 3e 3d
       0.0141448835 -0.049197774 0.06325241 0.046520293
0002f0 4a 7b 68 3d d5 24 55 3c 1e 96 13 bd e1 db 8a bd
       0.056758203 0.01300927 -0.036031835 -0.0678022
000300 5b bf e1 bd 8f a0 9d 3d 6f 45 1b be 94 aa c0 bc
       -0.11022826 0.0769664 -0.15163206 -0.023518838
000310 b4 23 3c be 1c 32 fd 3c ee 09 62 bd 5c df 26 3e
       -0.18372995 0.030907683 -0.05518525 0.16296142
000320 27 ed 7f bd 6f fc 95 bd 4a 81 13 bd a3 34 36 3d
       -0.062482025 -0.073235385 -0.03601197 0.044483792
000330 de c9 4d 3d 1f 9d 60 bd 0c 56 82 3d f2 ee 91 3c
       0.050241344 -0.054837342 0.063640684 0.017814133
000340 3a e7 4a bc e6 5d 9a bd 9e 54 fe bd 5c 28 cb 3d
       -0.01238423 -0.07537441 -0.12418483 0.09919807
000350 59 c2 31 3d 54 58 c6 bc 3d ae 45 3c 6c d2 98 bd
       0.043398235 -0.02421204 0.012065467 -0.0746201
000360 da 5f 3c bd 28 ab 43 bc 3a 00 99 3d 27 99 81 be
       -0.04598985 -0.011942662 0.07470746 -0.25312158
000370 6f a1 71 3d 35 a8 4e be b7 0b 69 3d 33 35 bd bc
       0.058991846 -0.20181353 0.056895938 -0.023096656
000380 81 cb 9b bd a5 42 9a bd 27 51 3f 3d 18 12 e6 3c
       -0.07607175 -0.07532243 0.046708252 0.0280848
000390 d5 8f 8e 3d 11 72 fb 3d 05 80 4a bc 2f aa bb bc
       0.069610275 0.12277616 -0.012359624 -0.022908298
0003a0 2d 31 1a be ae 34 16 3c 2d 6a 3a bd 90 43 aa bd
       -0.15057822 0.009167833 -0.045511413 -0.08313668
0003b0 a3 97 af 3c e7 92 87 3d 06 30 ea bc cf f4 33 bd
       0.02143461 0.06619816 -0.028587352 -0.04393464
0003c0 52 92 21 3d cc 33 8f bd 59 5e f6 3c 77 de b9 3d
       0.039446183 -0.06992301 0.030074285 0.09075635
0003d0 d0 5b 2f be c5 9d 89 bc 9d 38 00 be c7 33 8d bc
       -0.17124867 -0.016798863 -0.12521596 -0.017236603
0003e0 24 67 a8 3d 80 62 12 3d 2e 18 90 3c 5d db 5e bd
       0.082227975 0.03573847 0.017589655 -0.05440842
0003f0 aa d8 e8 bc 3c 4a 9c 3d f8 ed af 3d 45 a9 83 bd
       -0.028423626 0.076313466 0.08590311 -0.0642877

value_net.0.bias f4 [32]
000000 1d f9 40 bd 69 02 62 3b ef 2d 72 bc 11 ae 23 3b
       -0.047112573 0.00344863 -0.014781459 0.0024975578
000010 46 2a 09 bd 8d 6e 97 3c 0c c0 63 3d 6f eb bd ba
       -0.03348758 0.018485332 0.055603072 -0.001448972
000020 fd ab dd 3a 29 00 39 bb 46 08 b6 bc aa f0 ce bb
       0.0016912218 -0.0028228855 -0.022220742 -0.0063153105
000030 d2 58 34 bc c9 b2 da 3c 31 d2 83 3d 7d 92 87 3b
       -0.011007505 0.02669658 0.06436575 0.004137336
000040 4b 46 70 bd 4f 70 17 bb 9e e3 8a 3a 71 be ec bc
       -0.058660787 -0.0023107713 0.00105964 -0.028899403
000050 45 3d 0f bb 00 3b dd bc bf 54 50 3d 73 17 99 bc
       -0.0021856588 -0.027005672 0.05086207 -0.01868794
000060 f0 ec 03 3d ba b5 bb 3c 2b d5 ac 3c 70 cc 4b 3c
       0.032208383 0.022913802 0.02109774 0.012438878
000070 7b 08 4b bc 59 d2 ae 3c f5 dc 0d 3c b2 1f dc bb
       -0.012392159 0.021340536 0.008658637 -0.0067176456

value_net.2.weight f4 [32, 32]
000000 a9 0f 1f 3f 2b 79 de 3e 81 00 9f bd ed fc 97 be
       0.6213327 0.4345182 -0.07763768 -0.29685155
000010 5e 13 48 3e e9 65 b7 bc 1c ff 1e be 99 32 e5 bb
       0.19538638 -0.022387462 -0.15527004 -0.006994557
000020 45 d1 81 be e0 42 00 3e b7 ef 6d 3e 4e 17 d1 be
       -0.25354972 0.12525511 0.23235975 -0.40838093
000030 cf 81 79 3c c3 b0 97 3e c5 35 e3 bd 85 5e 7b be
       0.015228703 0.29627046 -0.1109424 -0.24547775
000040 02 49 86 3d 8c 01 04 3f 5c f6 47 bf eb 2c 8d be
       0.06556894 0.5156486 -0.7811029 -0.27573332
000050 31 c3 8e bd 9d ac b1 be 2a 7d 26 3e 09 6e d2 be
       -0.069708236 -0.34702006 0.16258684 -0.41099575
000060 e4 a9 61 be e5 43 8f 3e d9 12 ca 3e e3 04 6a 3d
       -0.22037464 0.27981487 0.39467505 0.057133567
000070 d9 35 80 be 0e 73 8b 3d e2 f4 67 be 26 57 0a bf
       -0.25041083 0.06809054 -0.22652009 -0.5403923
000080 77 1a a2 3e c3 85 ca 3e 92 ce 8f be 79 8c 34 3e
       0.31660816 0.39555177 -0.28087288 0.17631711
000090 5f 0c 58 3f 4e 2d 27 3e 6c 41 71 be 07 07 03 bf
       0.84393877 0.16325876 -0.23560113 -0.511826
0000a0 9c 12 b2 be c5 bd 99 bd db 3f a8 3e 78 c7 1e bb
       -0.34779823 -0.07506899 0.32861218 -0.002422778
0000b0 78 a3 08 bf f5 b9 a1 bd 98 70 3d 3e a4 0d 0a 3e
       -0.53374434 -0.078967966 0.18499982 0.13481766
0000c0 2a a8 36 be 91 88 98 3e 5c 66 47 3d e5 48 d0 3d
       -0.17837587 0.29791692 0.048681602 0.101701535
0000d0 37 9c 4e be 95 cd a8 3e 2a 3e 43 be fa b5 4f bd
       -0.20176779 0.32969347 -0.19066682 -0.050710656
0000e0 a4 06 5b 3c 02 2c 43 be 33 24 cd be 68 22 86 be
       0.0133682825 -0.19059756 -0.4006668 -0.26198125
0000f0 97 45 cd 3e e4 30 0e be 46 f9 19 be db ed 5d 3e
       0.40092155 -0.13885838 -0.15036497 0.21672766
000100 58 ea bb 3e f1 18 12 be 76 f9 34 be b4 9a 19 be
       0.36702228 -0.14267327 -0.17673287 -0.15000421
000110 d2 16 14 bf 26 61 c9 3e 1a 18 6d 3e 31 fc ae 3e
       -0.5784732 0.3933193 0.23153725 0.34176782
000120 96 a7 6b 3e 50 fe 11 3f 41 4a 0b bf 7c 60 4a 3e
       0.23013148 0.57028675 -0.5441018 0.19763368
000130 29 3e b7 3e 59 9a 03 3b 89 0c be 3d 59 2c f9 3c
       0.35789612 0.0020081012 0.09279735 0.030416654
000140 43 de bb be 7f 1b 02 3d 98 2c 20 3e cf 6b 1f 3d
       -0.3669301 0.031764504 0.15642011 0.038921174
000150 c5 59 20 be 40 71 75 be 84 cc 58 be 77 ea 71 be
       -0.15659244 -0.23968983 -0.21171767 -0.23624597
000160 55 fd 14 3f e5 10 ac be 83 07 99 3e ec bb d1 bd
       0.58199054 -0.3360664 0.29888543 -0.102409214
000170 b2 b0 50 3e a1 f0 71 bc 4e 1d 4d 3d f3 85 a0 bd
       0.20379904 -0.014766843 0.050076775 -0.07838049
000180 4d e4 e6 3b 7c 1e 8c 3e fc 69 03 3f d2 f7 01 3e
       0.0070462585 0.27367008 0.51333594 0.12692192
000190 1c bb 11 bf 2e 50 80 3e 98 db be 3e 89 6c b1 3d
       -0.5692613 0.25061172 0.37276912 0.086632796
0001a0 90 74 ba bd f8 7d 0a 3e 91 17 02 bf 85 5d 67 bd
       -0.09104264 0.13524616 -0.5081721 -0.05648567
0001b0 a0 5a 1b bd 7a ec 53 bd f1 33 19 3e c9 44 a4 3e
       -0.037928224 -0.051739193 0.1496122 0.3208373
0001c0 87 ca 75 3e d8 5d 32 bc 7a 03 aa be d0 a7 81 bd
       0.2400304 -0.010886632 -0.33205777 -0.06330836
0001d0 d5 b2 99 bd f9 8c 54 be 2f 93 33 3e dc 93 a7 3d
       -0.07504813 -0.20756902 0.17536615 0.08182499
0001e0 d5 26 2b 3e 68 98 ce 3e 0d 7c 28 be 63 69 64 be
       0.16714032 0.40350652 -0.16453572 -0.22305827
0001f0 07 a0 df 3d a7 61 0a 3e 03 c9 19 bf a9 39 72 3e
       0.10919195 0.13513814 -0.60072345 0.23654808
000200 8f 81 b5 3e 44 af d7 3c 04 ae e2 bd 10 77 a8 be
       0.35450408 0.02632869 -0.11068347 -0.32903337
000210 d3 19 05 3d 86 7c 10 bf bd fa 99 be c2 92 80 3e
       0.03249533 -0.5644001 -0.3007411 0.25111967
000220 4e 16 3e 3e c9 08 2c be 05 ee 8e 3e a8 a1 85 bd
       0.18563196 -0.16800226 0.2791597 -0.06524974
000230 42 c7 1b 3a f3 86 78 3e e1 9c 3a be 81 31 98 3e
       0.00059424725 0.24270229 -0.18223907 0.29725268
000240 1d 08 42 be ce 55 54 be 67 41 d7 3d be d8 2b bd
       -0.18948407 -0.20735857 0.105105214 -0.04195475
000250 7b 7f 93 3c 8b ad ba be 87 63 4f be e1 59 9a 3d
       0.018005123 -0.36460528 -0.2025281 0.07536674
000260 56 e2 0d 3d 4a 7f 33 3e 9c ad 95 be 75 c8 81 be
       0.03463968 0.17529026 -0.29234016 -0.2534825
000270 1f 65 6a be d1 4b 7c be b4 83 b4 3d 69 6f 10 3f
       -0.22890137 -0.24638297 0.08814183 0.5642
000280 5f ff 07 bd b0 b9 85 3e e9 66 37 3e 76 d5 fc 3d
       -0.033202525 0.2611823 0.17910351 0.12345402
000290 05 e3 a9 3e bc 6c fe be 04 87 d1 3d 60 74 42 bf
       0.33181015 -0.49692333 0.1023083 -0.75958824
0002a0 0a 5f 54 3d 64 03 d4 3d 9e 98 c3 3e 92 fd e6 3d
       0.05184845 0.10352209 0.38202375 0.112788334
0002b0 27 f7 44 be 86 aa cc be 74 b7 d9 be 81 69 b4 3e
       -0.19234906 -0.3997385 -0.42522776 0.35236743
0002c0 91 a8 b4 be e1 e3 00 bd a6 56 cf be 64 47 8d 3e
       -0.35284856 -0.031467322 -0.40495795 0.2759353
0002d0 a5 c4 2f be aa 0d 4d 3d 52 45 b0 be 4b 0d c7 bd
       -0.17164858 0.05006186 -0.34427887 -0.09719332
0002e0 87 b1 2f be 74 38 bf 3d c4 55 71 bc 77 97 6b 3e
       -0.17157565 0.093369395 -0.014729921 0.23006998
0002f0 33 7b 3b 3e cf b9 5d be 72 91 03 3f de 71 50 bc
       0.18308716 -0.21652912 0.51393807 -0.012722461
000300 f6 eb ba be 18 e7 fe 3e 4a 0a f8 bd 81 04 30 be
       -0.3650815 0.49785686 -0.121113375 -0.17189218
000310 0a 70 6d 3e be cc 15 3e 7d 34 cc 3e a6 c8 c9 be
       0.23187271 0.14628884 0.39883795 -0.39410895
000320 83 6a 6a be e9 b1 89 be 37 38 b3 3e 4b 92 e2 bc
       -0.22892193 -0.26893547 0.35003826 -0.027657649
000330 3a ae 3d 3e 7e ad 61 be e7 0a 85 3e 2b f3 bb be
       0.18523493 -0.22038838 0.2598488 -0.3670896
000340 8d 0d 5d bd c5 35 d5 3e d4 b4 a2 3b 89 90 1b 3e
       -0.053968 0.41642585 0.004965404 0.15191855
000350 f1 68 0b bc 3c d4 0b bf fd 9d 9f bd ef ec 21 bf
       -0.008508907 -0.5462072 -0.07793806 -0.63252157
000360 ed 31 50 3e 1a 67 fb 3e 72 c8 80 be 67 da b6 3d
       0.20331545 0.49102098 -0.25152928 0.08928376
000370 ac 31 2d bf c1 33 81 be 88 e8 3c bd 59 86 5e be
       -0.6765392 -0.25234798 -0.046120197 -0.21730937
000380 e2 dd ab 3d e0 aa 34 be c3 04 aa be 91 91 64 bd
       0.0839193 -0.17643309 -0.33206758 -0.055802885
000390 3f 63 34 3e b3 72 09 bf 28 f5 17 3e df e7 4c be
       0.17615984 -0.5369064 0.14839613 -0.20010327
0003a0 db 7d dd 3d 72 ef c2 3e 43 20 6e bd 80 4d 62 be
       0.10815021 0.38073307 -0.058136236 -0.22099876
0003b0 16 ca ea 3e 21 83 70 bd f0 ff da 3e e3 94 be bd
       0.45857304 -0.058718804 0.4277339 -0.09305742
0003c0 f0 00 cf 3e 6f 06 98 be 6c 7d 89 be 06 57 9f be
       0.40430403 -0.29692408 -0.26853502 -0.3112108
0003d0 d8 ff b1 be 38 bf a4 3c 44 24 7e be 5d 22 34 be
       -0.34765506 0.020110711 -0.24818522 -0.17591234
0003e0 23 55 06 3e 7e 81 9f bd 62 1c 94 3e d4 73 3c be
       0.13118415 -0.077883705 0.28927904 -0.1840356
0003f0 41 98 45 bf e8 b0 a7 bd 4b 93 9c be f1 31 7d bc
       -0.77185446 -0.08188039 -0.30581126 -0.0154538015

value_net.2.bias f4 [32]
000000 62 01 27 3d 90 4b e2 bd 7d 7d b3 3d 0e d0 9e 3d
       0.040772803 -0.11049569 0.08764169 0.07754527
000010 42 75 b7 bd 79 6f ba bd dc 94 d0 ba 35 ea 10 bd
       -0.08957912 -0.09103293 -0.0015913504 -0.035379607
000020 42 d3 18 3e 9e 39 c1 3d cc 12 93 bc d3 5e 8c bd
       0.14924338 0.09434818 -0.017953299 -0.06854024
000030 7e 12 ef bb 4d 3d 8b 3d 3a 6d e8 3d 4e 87 e1 bd
       -0.0072959056 0.067988016 0.11348958 -0.110121354
000040 05 e3 38 3e 6e ed 33 bb 69 bb 0f 3e f0 f8 e6 ba
       0.18055351 -0.0027454752 0.14036335 -0.0017621797
000050 31 1a 4e 3d 9e d4 47 bd 6f 29 a6 3d 5c d4 87 bd
       0.050317947 -0.048786752 0.081133716 -0.06632301
000060 33 51 0d 3e 13 14 37 3c 89 19 8a bd ec 81 1b be
       0.13800506 0.01117422 -0.06743152 -0.1518628
000070 bf fe a6 3d c8 cf 62 bd 93 32 a4 bd 4b 7b 02 be
       0.08154058 -0.055373937 -0.08017459 -0.12742345
