MAPPO/Origin/save/LS1_3P_Train_agent_10_MAPPO.pt (torch, 34418 bytes, 11 tensors)

policy_net.0.weight f4 [32, 7]
00000000: f256 38bd c0f5 fa3d 8c9e 093f b65d ea3a
00000010: 823b 293e 436d 88bd 2130 c03e 9723 143f
00000020: 17a6 453e 6f20 63bd edca 1a3f 010e d63e
00000030: 7ec4 943e 44fd a63d 925e 50be 27f2 1cbe
00000040: 8960 c9be c91a cfbd f363 08bf fb0e 9ebb
00000050: cbaf 8bbe 0e20 8dbe 388b e7bd b2dd 663d
00000060: 7104 c4be eb5f 1dbf 0581 d5be bdec 843d
00000070: 40e8 793f be2a dd3e ac42 fabd 4a64 143f
00000080: d8fd 81be 54d1 8d3e 828d 73be bbca 593e
00000090: 86ab af3d 08f7 35bd 6316 47be 1e68 6fbe
000000a0: 63b5 97be 118e 10bd 678a e8be 419f 0bbf
000000b0: a20f 81be 123b b0bd 993c d53b 37a5 a93d
000000c0: d902 10be ef88 01bf 2ae8 433e de6a e5be
000000d0: aa96 493d aee3 573e c6ee b1be f5b6 203f
000000e0: 0fbf c0be 709d 373e 8c36 10bf ea07 83be
000000f0: 1644 003f 0138 913d 5791 e8be df57 9abf
00000100: 31fe febe 6810 6b3d 2064 2cbf 73f7 d8bd
00000110: 7165 45bc 0782 583e dbf7 843d 4ee2 103f
00000120: 4286 6ebd 0078 03bf c12a 31bf 0877 b33e
00000130: 7065 f13d dea6 143e 1368 8dbd 6a77 1b3f
00000140: 91d9 7bbe 77d5 0bbe 43dd c53d 0e17 cc3e
00000150: 306a 25bf 2191 203d 330c b13c 5184 473f
00000160: 49b1 153f ff41 1bbe 57c9 87be 19d2 5e3c
00000170: 34da 1f3d 512f 0cbf e7fb 67bc 5205 4bbe
00000180: 4ea2 9dbe 5086 b63e b2ac 6b3f 7f29 093e
00000190: cd86 a0bd 197c 1a3f 2d71 223f 831e 913f
000001a0: bc67 b83e 4933 9a3e ae9b 05bf f754 afbd
000001b0: ce7a b13e 8384 c6be e5d3 6fbd cdb0 d43b
000001c0: 79c4 a83e 74a3 dcbe b52a 113f 7191 aa3e
000001d0: 43ea 9c3d 2806 4b3d 76ed 653e a974 0d3d
000001e0: 9974 1fbd a865 3e3f 8ccb 51be 6fc4 723e
000001f0: 5147 d4bd 5445 96be 095a f3be a936 90be
00000200: 618b 713d 7414 7d3e b42a 1a3f 2390 1fbf
00000210: 500b a23d 0d0e 84be bb44 ca3c 0715 943d
00000220: 93cf a8bf a90e 3cbe e7eb 5bbf a389 c4bd
00000230: 9839 09bf 35c6 61be c701 713d 2b48 93bf
00000240: d8aa 9cbd 5dc5 1bbf 41a1 01be 161f 023f
00000250: 3adb 10bd cc82 9bbd 9f4e 623f a9d5 133f
00000260: 5cb2 c03e 4680 eebd 95e7 d13e 0c41 833c
00000270: 6a3c 45bd d6fe 293f 7b7c a93e 2426 063f
00000280: 9c5f f43c 2e0c b3be 5c7d acbc 0d13 d93e
00000290: aee0 eb3d 63dd 7fbd 149b 063e 2bea d1be
000002a0: 9e70 b03c 6c22 e7bd d4ed 123f 2ed6 403d
000002b0: 46a4 153e 97cb ecbe b3bb e93d cda0 3ebf
000002c0: bc22 0abf 51d5 d23d 8c16 c13e f3fc ef3e
000002d0: 9a75 06bf aac5 23be d93b ea3e 1406 67be
000002e0: 0889 ee3e 072b 1b3d 2dcf e63e b234 e13d
000002f0: a91d 34be 093f aabe fb63 43be 078f f13d
00000300: 1a8a f7be e2f3 a9bd 5dd3 6a3e 4b8e 393e
00000310: 81e5 e5b8 2c08 06bf 1b8e 2bbf 3182 f6be
00000320: cf33 9c3e 3b9d 4fbe 327b d73d e7e5 953e
00000330: 89bd 943d 5c28 a4bd fa65 d8bd df48 08bf
00000340: 74fb 073e dce0 863e e9f4 e2be 66cb 003e
00000350: 2fc4 643d 7b86 3fbf d8b7 c3be cb0a 6c3e
00000360: 6b53 04bc fb2e eebc b386 bf3e 8f68 ec3e
00000370: 9eea 4fbb e6fd 08bd 557f b23d a2c1 073e
-0.045004793 0.12253904 0.5375755 0.0017880711 0.16526607 -0.06661465 0.3753672 0.57866806
0.1930164 -0.055450853 0.6046589 0.4180756 0.29056162 0.08153775 -0.20348576 -0.15326749
-0.39331463 -0.10112531 -0.5327751 -0.004823563 -0.27282557 -0.27563518 -0.11305851 0.05636377
-0.3828464 -0.61474484 -0.41699997 0.06490467 0.9762001 0.43196672 -0.12219748 0.5796553
-0.2538898 0.27698767 -0.2378445 0.21268742 0.085776374 -0.04442504 -0.19442134 -0.23379561
-0.29630575 -0.035291735 -0.45418093 -0.5453988 -0.2520724 -0.08605017 0.006507468 0.08283465
-0.14063586 -0.5059957 0.19131532 -0.44808096 0.04921595 0.21082947 -0.34752482 0.6277917
-0.37645766 0.17931151 -0.5633323 -0.25591975 0.5010389 0.0709076 -0.45423386 -1.2058066
-0.49803308 0.057388693 -0.6734028 -0.10594072 -0.012048111 0.21143351 0.06492587 0.56595314
-0.058233507 -0.5135498 -0.6920586 0.3505175 0.11786926 0.1451678 -0.06904616 0.60729086
-0.24594714 -0.13655649 0.09661343 0.3986134 -0.64615154 0.039200906 0.021612262 0.77936274
0.5847364 -0.15161894 -0.26520798 0.013599896 0.039026454 -0.547597 -0.014159179 -0.19826248
-0.3078789 0.35649347 0.9206039 0.13394736 -0.07838211 0.6034561 0.6345394 1.1337436
0.36016643 0.30117252 -0.52190673 -0.08561128 0.34664005 -0.38772973 -0.058551688 0.006490803
0.32962397 -0.43093455 0.5670579 0.33314088 0.076618694 0.049566418 0.22453865 0.034535084
-0.038929556 0.74373865 -0.20487803 0.23707746 -0.10365165 -0.29349768 -0.4752963 -0.28166702
0.058970813 0.24714833 0.6022141 -0.6232931 0.07912314 -0.2579197 0.024690976 0.07230573
-1.3188347 -0.18364967 -0.85906833 -0.095965646 -0.53603506 -0.22048266 0.058839586 -1.1506399
-0.07649773 -0.6084803 -0.1265917 0.50828683 -0.03536532 -0.07593307 0.88401216 0.57747895
0.37636077 -0.1164556 0.40996996 0.016022228 -0.04815332 0.66404474 0.33102784 0.5240195
0.029830746 -0.3497023 -0.02105587 0.42397347 0.115174636 -0.06246699 0.13145095 -0.40998968
0.021538075 -0.11285862 0.57394147 0.047079258 0.14613447 -0.46249077 0.11412754 -0.7446411
-0.5395925 0.10294593 0.37712514 0.46872672 -0.52523196 -0.15993372 0.45748785 -0.22560912
0.46588922 0.03788283 0.45079938 0.10996379 -0.1758944 -0.33251217 -0.19081108 0.117948584
-0.4834755 -0.0829847 0.22932191 0.18120687 -0.00010962319 -0.5235622 -0.6701371 -0.48146203
0.30508277 -0.20274822 0.105215445 0.29276964 0.072627135 -0.080155104 -0.105663255 -0.5323619
0.13279516 0.2634343 -0.44327477 0.1257759 0.055851158 -0.74814576 -0.382262 0.23050992
-0.008076529 -0.029075136 0.37407455 0.46173522 -0.0031725536 -0.03344526 0.08715693 0.13257459

policy_net.0.bias f4 [32]
00000000: ec80 303e 9864 d73c 7f53 57be 8ce4 f4bd
00000010: de38 833e 62c0 4c3e e1e2 bdbe 29f2 59be
00000020: fb55 edbd e69c 4fbd b772 a83e b058 023e
00000030: f9d7 5dbe 62e8 28be d2e5 e63d 2322 223e
00000040: 67d4 f03d 1987 c73d 0171 a0be 2083 a4bd
00000050: a2e5 47bd 1d1a 913d 0a09 50bb 2d3d 423e
00000060: 0d62 f43d c9f7 b2be af37 0b3e e804 5ebe
00000070: b329 dbbd 98d2 bd3e dec7 0abe 99a8 4c3d
0.1723668 0.026293084 -0.21027945 -0.11957654 0.25629324 0.19995263 -0.37087157 -0.21283783
-0.11588665 -0.05068674 0.3290002 0.12729144 -0.21664418 -0.16494897 0.112743035 0.15833335
0.117592625 0.09742565 -0.31336215 -0.080328226 -0.04880298 0.07085059 -0.003174367 0.18968649
0.11932764 -0.3495467 0.1359546 -0.21681559 -0.10701313 0.37074733 -0.13552806 0.049965475

policy_net.2.weight f4 [32, 32]
00000000: 240b 30be 3c97 693e e076 1bbf ac92 1fbf
00000010: b7fb c6be 56a1 dc3d bab0 a43d ed50 0e3e
00000020: ddbc 9cbe 7bab a0be 50bd 70be cf48 2d3e
00000030: d61d 813e ee86 7d3d 7b4e 693e a0e2 e23d
00000040: 9c7e c73e 848c ba3e 3128 b53e bfbe 9abe
00000050: a655 0abf 45c4 d43e 972b 8bbe 19f3 8d3e
00000060: fba7 723d dcc5 053e 6b03 743b 1478 953d
00000070: 61bc 13bf 78b3 8bbc 7128 65be 3e84 b2bb
00000080: 8fae efbd b12d 833f 7d69 2f3e 042c 95be
00000090: 5e4f 6e3e f35b 863e eb91 3ebe c86c e63d
000000a0: cfac eabe 51f2 a8be e572 e93b 32a1 82be
000000b0: 3e0e 163d 1862 edbe 4535 993f 6fda 9b3e
000000c0: 3c52 f43e 2e16 403d 773a a2be 61eb 35bf
000000d0: 3bde 95bf fe8b 123f 4fc0 4a3f 6822 7bbe
000000e0: 6eeb 903e f62c febe b0d0 883e 3e29 f0be
000000f0: c231 14bd 4d07 1e3f eb75 b8be a444 773e
00000100: bdf2 4b3e da62 b7be 9dcf e63e 63bc 973e
00000110: f821 26be 6dd0 133e 5307 15be ec0e 393e
00000120: 5e62 8d3e 3034 743e d088 b53e 6f1b a7be
00000130: cc68 533c 73de 0b3d 9652 6cbf a1ab 223d
00000140: c588 cb3d 8bcb 8c3e f387 33bd 0f28 663f
00000150: 7ad6 9b3f ed85 9ebf e50e a4bf 9c44 a43c
00000160: dcd4 82be 8943 0d3f df46 0f3e 64c7 103f
00000170: 4e2e 643e 8756 b93e 8373 9f3e 0116 f5be
00000180: 25a7 19bf 577d 0abc 7af9 7b3e 7f8e 983d
00000190: c178 e33e e7c6 67be 3c47 b63e fb70 973e
000001a0: 0bb1 e7bd f6d3 b3be 05c7 113f 19b2 90be
000001b0: 28c7 e1bd 719a cabd fc5c 6fbd 249c 2c3f
000001c0: 193c 25bd 3e2f 05be f606 6cbe 1216 813e
000001d0: 5a22 843d 8755 adbd 4814 53be 4dbb 3dbe
000001e0: 530e 993c 9773 a1bc a37e e5be 281a 9abe
000001f0: 3351 b73e ac46 96be ae75 f2bd 0229 d1be
00000200: 8b22 14be f533 543f 5d80 03be 9334 a83d
00000210: 0501 123e ea9a a5be aec8 30be 07dc 093d
00000220: 1ef3 a8bd 50b0 01be 78da 03bf 876f dc3e
00000230: 7afc 02be a61f 8cbe 7975 ac3e 4aa5 943d
00000240: 49ac b9bd fc9a 563e af0d ee3e 99b4 32bd
00000250: 35ba cebe b689 ee3e 8a6c 983e 1a44 153d
00000260: 982f 493e e046 4fbe 9278 013f ce4c a33e
00000270: 01de 67be c3c3 8dbe da4b 98be daf8 b0be
00000280: 3d7d 9f3e 58c1 403f f151 6f3d 8a79 203d
00000290: 1126 f53a bc8d e0bc 67a5 f5be 5901 e13e
000002a0: 218a 2b3e 820f 57bf 5979 703e 0418 a53e
000002b0: 11e0 98bd ea82 bf3e 86dd ac3f 41e6 db3e
000002c0: 7155 af3e 5b06 063e 1f43 52be 96e0 43bf
000002d0: 0e58 71bf 9304 343f faa1 4b3f 4c48 ce3d
000002e0: 254e 6a3d 4a50 bdbe 9cc1 bf3d 294e c1be
000002f0: 51a7 22bd d8c9 09be df59 c73d da44 343e
00000300: af51 8f3e 10ad 413f 2563 20be c660 22bf
00000310: 27a0 fb3e 0fda 0cbe 969d 923e 3434 813e
00000320: 3081 bcbe 963f 04bf 0423 bbbc 5bab 503e
00000330: c479 9e3e 8e9d dc3e b098 463f 867b 9abe
00000340: c769 27be 1d8e 443e 0c71 293e c2b4 36bf
00000350: d380 99bf 2688 823f 9cf1 6d3f 162c 123e
00000360: 0469 1e3e 2612 c83e 92db 333f 65bc bfbe
00000370: da0f 21bd 4743 383e aee1 d4be a2c0 253d
00000380: 3f3b 09bf 3a97 45be ec3a 413d 2daf 2c3e
00000390: 8241 8f3e 27a7 7e3e 7b56 1c3b d1da eb3d
000003a0: 02ad 1d3e 0ab5 db3e cea8 823e dab5 9fbe
000003b0: 04b2 50be 1caf 103f bdec 6bbd 6a65 50be
000003c0: 5dfa bdbc 491f 35be bd24 993e 21e0 933e
000003d0: 6f2e dbbe ab39 fd3c 0bb7 b53c fed1 57be
000003e0: 02fb b1bc a572 05be 0d8b 8abe c701 2abe
000003f0: 5482 183f 2e8d 693e 6e70 0c3f c92d b5be
-0.1719175 0.22811598 -0.60728264 -0.6233318 -0.38863918 0.1077296 0.080415204 0.13898058
-0.3061284 -0.3138083 -0.23509717 0.16922306 0.25218076 0.061896257 0.22783844 0.110783815
0.38963783 0.3643533 0.35382226 -0.30223653 -0.5403694 0.41555992 -0.27181694 0.2772453
0.05924223 0.13063759 0.0037233483 0.07298294 -0.5770932 -0.01705335 -0.22378708 -0.0054478934
-0.11703216 1.0248319 0.17130084 -0.29135144 0.23272464 0.26242027 -0.18610351 0.11251217
-0.45834967 -0.32997373 0.007124292 -0.25513607 0.036634676 -0.46363902 1.1969382 0.3044009
0.4771899 0.046896152 -0.3168523 -0.71062285 -1.1708444 0.5724486 0.7919969 -0.24524844
0.2830462 -0.49643677 0.26721716 -0.46906465 -0.036180265 0.6172989 -0.36027464 0.24147278
0.19916816 -0.35817605 0.4508027 0.29635915 -0.16223896 0.14434977 -0.14553575 0.18072098
0.2761411 0.23848033 0.35455942 -0.32638118 0.0129034035 0.03414769 -0.92313516 0.03971446
0.09938196 0.2749904 -0.043830823 0.89904875 1.2174828 -1.2384621 -1.2817045 0.020052247
-0.25553024 0.55181175 0.13991879 0.56554246 0.22283289 0.36198828 0.31142816 -0.4786835
-0.6002067 -0.008452735 0.24606887 0.07449054 0.44428065 -0.22634469 0.35601223 0.29578385
-0.11313065 -0.3512265 0.56944305 -0.28260878 -0.11024314 -0.098927386 -0.058438286 0.6742575
-0.040340517 -0.13006303 -0.2304953 0.2521215 0.064518645 -0.08463579 -0.20613205 -0.18528481
0.018683588 -0.019708438 -0.4482318 -0.3009808 0.35804138 -0.29350793 -0.11838852 -0.408516
-0.14466302 0.8289178 -0.12841935 0.08213153 0.14258201 -0.32344753 -0.17264053 0.0336571
-0.08249496 -0.12664914 -0.5150523 0.4305384 -0.12791625 -0.27367896 0.33683375 0.07258089
-0.09066064 0.2095756 0.46494815 -0.043629263 -0.4037644 0.4658944 0.2977031 0.0364419
0.19647062 -0.2024188 0.505746 0.31894535 -0.22643282 -0.27688417 -0.2974537 -0.3456486
0.31150237 0.7529502 0.058427755 0.03917841 0.0018703361 -0.027411334 -0.47977754 0.4394634
0.16751911 -0.8400804 0.2348379 0.32244885 -0.07464612 0.37404567 1.3505104 0.42949107
0.34244874 0.13088362 -0.20533417 -0.76514566 -0.94274986 0.7031948 0.7954403 0.10072383
0.05720343 -0.36975318 0.093631 -0.37754944 -0.039710347 -0.13455904 0.097339384 0.1760439
0.27992007 0.756547 -0.1566282 -0.63428915 0.49145624 -0.13755058 0.28635854 0.2523514
-0.36817312 -0.51659524 -0.022843845 0.20377867 0.30952275 0.43088955 0.7757673 -0.30172366
-0.16348945 0.19194837 0.1654703 -0.71369565 -1.1992439 1.0197799 0.9294679 0.1427463
0.15469748 0.39076346 0.7025691 -0.3744842 -0.039321758 0.17994414 -0.4157843 0.040466912
-0.5360603 -0.1929597 0.047175333 0.168637 0.27979666 0.24868451 0.0023855257 0.11516345
0.15398028 0.4291156 0.25519413 -0.3119343 -0.20380408 0.56517196 -0.057598818 -0.20351186
-0.023190672 -0.17687716 0.29910842 0.28881934 -0.42808864 0.030911287 0.022182008 -0.210762
-0.021726135 -0.13032015 -0.27059212 -0.1660224 0.59573865 0.22807762 0.54859054 -0.35386494

policy_net.2.bias f4 [32]
00000000: d4f8 353e 7221 de3b 6479 46bd ed46 09be
00000010: d1f5 ae3d 7b98 0f3d 1152 c23c 864a 03be
00000020: bd75 00be 744c 82bd a8e4 2a3e 9c02 a73d
00000030: b16e 06be 817f 0e3e a5b2 54bd 2bed 23be
00000040: 2b9a 1e3e 6cb9 2c3d f868 1b3e 37d1 12be
00000050: 16d6 27be 3306 2c3e 404f 0dbe 4b43 fabd
00000060: 62ac 24be a471 33be fa38 5fbd 1844 c5bd
00000070: 648d 0bbe afa2 e9bc 7afa 17be 055a 84bd
0.17770702 0.0067788893 -0.04845561 -0.13405962 0.085429795 0.035057526 0.023720773 -0.12821397
-0.12544914 -0.063622385 0.16688788 0.081547946 -0.13128163 0.13915826 -0.05192818 -0.16008441
0.15488498 0.04216902 0.15176761 -0.14337622 -0.16390261 0.1679924 -0.13799763 -0.12219866
-0.16081384 -0.17523819 -0.054497696 -0.096321285 -0.13628155 -0.028519956 -0.14841643 -0.06462482

policy_net.4.weight f4 [21, 32]
00000000: bc3a b83e e6d8 883f a8ff 28bf e176 b2be
00000010: 94f6 bd3e 6647 8a3f 5b73 ea3e 66fc b5be
00000020: dff1 b2be e0b8 21bf 08a0 b33e c134 cb3e
00000030: bafa b1be 58da b13e cdd0 90bf 21eb b4be
00000040: e5ed b43e 3e04 9b3f ef9d b43e 8bb6 b3be
00000050: 8443 b2be 568b b53e 73e4 b6be 794e b2be
00000060: df1b b3be bf30 b3be 45b8 d3be 21da 96bf
00000070: bf60 b4be 1157 d4be 3232 b4be 2696 8ebf
00000080: 781c 81ba 4685 a5b8 e8a6 1439 e2f4 3b3b
00000090: e982 afba 50a3 85bb 7cdf 1abb c420 c9ba
000000a0: 06ea 263b aea0 71ba 6b4e 10bb e3c9 89ba
000000b0: d2d2 af3a c413 8bba c9c5 83b8 a5bf 933a
000000c0: ad14 c33a d04e dcba 123e be39 6552 d2b9
000000d0: 858a 61bb 7da4 233b 0de3 4bba d532 feba
000000e0: bd39 92ba 6fc0 b23a 73e6 1ebb 6f6d 26b8
000000f0: bb7a 9a37 370b 1f3a 8894 89ba 7832 41bb
00000100: 8916 b639 b7ef 7a37 ed2e c23a 545b 73b9
00000110: efb4 cfba 4ec4 3a3b c4c1 1c39 3d06 48b9
00000120: 6562 9339 7d9a f8ba 0041 47bb 5297 ab39
00000130: 5418 acba b4b7 283b 223c e4b9 6c7d 12bb
00000140: 8609 123a 3d99 57ba 3206 0f3b 360f 97b9
00000150: ea3e 89ba 9dfc 2939 59d1 7f3b 852d 9b3a
00000160: a46a 2f3b d773 343a 741b 43bb 5dc0 8c3b
00000170: 30dc 86b9 377d 2ab8 7418 adba 6652 06b9
00000180: f046 b539 e1a0 7bba 963e 22b9 366d 1a3b
00000190: 54a1 083b 0772 afba ea5e c33a 9e6a 993a
000001a0: fd33 91ba 5427 09bb 0b7c 6ebb 29da efba
000001b0: 399d 17bb c555 fe3a 20f9 0aba 9f23 0339
000001c0: 37b4 3dbb 503c 283a 4aa1 adba de51 d3b8
000001d0: 95c7 e8ba b2c3 b5ba 1895 1dbb d710 433a
000001e0: 1b2d 383a e53c 6cbb a628 ad39 bbbb 58ba
000001f0: 69d3 393b 726c 82ba f071 29bb 84d0 9139
00000200: ee5d ac3e 6fca 5dbe 3b6c 0abe 3837 aebe
00000210: 3b7b a03e ec32 28be 1e46 2b3e 7a11 adbe
00000220: c8ac afbe 0a04 e2bd 12de ae3e 77c7 613e
00000230: 1f1a adbe 6167 ae3e 39ac 273e 508a aebe
00000240: 8332 ae3e 3fe4 42be 69cc ae3e e4f4 aebe
00000250: b521 adbe 24d3 ad3e 1077 aebe ee53 b0be
00000260: 9d66 aebe 2048 afbe 60bb 5dbe bcd6 833e
00000270: 1cdf adbe 3769 72be 24ef afbe 84fe 5a3e
00000280: b13d 28bd 4a5c 683e d35d c5bc ba35 283d
00000290: cfc3 33bd a423 363e 453a 77bc 8ae6 313d
000002a0: d112 343d 7809 c93b 07c9 31bd 7366 44bd
000002b0: 6b29 293d 934f 3dbd 01eb 2abe 77ce 263d
000002c0: d75f 27bd 8de2 813e adc5 31bd b89e 323d
000002d0: 2770 323d 38a7 32bd b66e 303d 0ae5 303d
000002e0: 23c4 373d 6174 303d e89c 293d 179b 67be
000002f0: 5669 343d ec35 213d ee90 313d 9f06 27be
00000300: decb b03e be56 10bf c377 f9be eeaa abbe
00000310: 42bc b03e 7409 d5be d8fa 113f 2734 adbe
00000320: 5958 adbe 46fd 08bf 5a28 ae3e 41a9 bb3e
00000330: 8ea7 acbe a3cb ac3e 9791 ea3e 9f02 aebe
00000340: 4fca ab3e 1fcd 35bf 3045 ae3e 9f03 aebe
00000350: 0ee8 abbe 0f7d ad3e 5a1a acbe 4cd2 acbe
00000360: ea41 acbe 9bc8 adbe 5d28 dcbe 8aa1 273f
00000370: a0bf acbe cd99 ebbe 2bbd acbe 7665 0a3f
00000380: 5816 1ebe 981a 8fbc 2af0 d33d 004a 1f3e
00000390: ccee 21be 3e48 3ebd ffa7 34be 972b 203e
000003a0: d0f5 1d3e 7438 b73d 09d3 22be 9a20 2dbe
000003b0: 8da6 1b3e c74d 23be 82a5 dc3b 4453 1e3e
000003c0: 6ee9 20be d9e7 3f3c 9af5 23be 947a 213e
000003d0: 641d 1e3e bdf2 1ebe 1c0a 203e 37b5 1d3e
000003e0: fb49 203e 3e61 1f3e 5efe 2e3e c166 3ebd
000003f0: 69b1 1d3e 35b5 343e 5387 203e 4906 aebb
0.3598231 1.0691192 -0.660151 -0.34856322 0.37102187 1.0803039 0.45791134 -0.35544127
-0.34950158 -0.6317272 0.35083032 0.39688686 -0.34761602 0.34736896 -1.1313721 -0.3533564
0.3533775 1.211067 0.35276744 -0.35100207 -0.34817135 0.35457867 -0.35721168 -0.34825495
-0.349822 -0.34998128 -0.41351524 -1.1785318 -0.3523006 -0.41472676 -0.35194546 -1.1139572
-0.0009850403 -7.892637e-05 0.00014176557 0.0028679897 -0.0013390455 -0.0040783063 -0.0023631742 -0.0015344848
0.0025469079 -0.00092173635 -0.0022019397 -0.0010512437 0.001341427 -0.0010610749 -6.283407e-05 0.0011272324
0.0014883481 -0.0016808156 0.0003628587 -0.0004011571 -0.003441484 0.0024969869 -0.00077776687 -0.0019393811
-0.0011156123 0.0013637672 -0.0024246245 -3.9679402e-05 1.8415381e-05 0.000606704 -0.0010496536 -0.0029479545
0.00034730535 1.4956974e-05 0.001481501 -0.00023208308 -0.0015846769 0.0028498354 0.00014949503 -0.0001907581
0.00028111335 -0.001896694 -0.0030403733 0.00032728404 -0.0013129809 0.0025744261 -0.0004353235 -0.002235259
0.0005570877 -0.00082244334 0.002182376 -0.00028812297 -0.001047102 0.00016211202 0.0039034693 0.0011839127
0.0026766444 0.00068837166 -0.0029771002 0.0042953924 -0.00025722524 -4.0647774e-05 -0.001320614 -0.00012809932
0.00034575863 -0.0009598863 -0.00015472839 0.002356363 0.0020848112 -0.0013385423 0.0014905606 0.0011704748
-0.0011078116 -0.0020927982 -0.0036389853 -0.001829927 -0.0023134483 0.0019404223 -0.0005301405 0.00012506403
-0.0028946528 0.00064176787 -0.001324692 -0.00010076513 -0.0017759675 -0.0013867526 -0.0024045166 0.0007441169
0.0007025764 -0.0036047038 0.00033027417 -0.000826772 0.002835477 -0.0009950532 -0.0025855266 0.0002781191
0.33665413 -0.21659254 -0.13517849 -0.34026504 0.31344017 -0.16425675 0.16725966 -0.33802396
-0.3431151 -0.11035927 0.341538 0.22048746 -0.3380899 0.34063247 0.16374291 -0.340899
0.34022912 -0.19032381 0.34140328 -0.34171212 -0.3381478 0.3395015 -0.34075212 -0.34439033
-0.34062663 -0.34234715 -0.21653509 0.25749767 -0.3395928 -0.23672949 -0.34362137 0.21386153
-0.04107446 0.22691455 -0.02409259 0.041066863 -0.04388791 0.17787033 -0.015089576 0.04343275
0.043963257 0.006135162 -0.043404605 -0.047949266 0.041299265 -0.046218466 -0.1669121 0.040724244
-0.040862884 0.25368157 -0.04340141 0.043608397 0.043563988 -0.043616503 0.043074332 0.04318718
0.044864785 0.043079738 0.041409403 -0.22617756 0.04404577 0.039358065 0.043351106 -0.1631112
0.34530538 -0.5638236 -0.48724183 -0.33528847 0.3451863 -0.41608775 0.5702338 -0.33828852
-0.33856466 -0.53511465 0.3401516 0.36652568 -0.33721584 0.33749112 0.458142 -0.33986375
0.33552787 -0.71016115 0.3403716 -0.33987138 -0.3357548 0.33884475 -0.33613855 -0.33754194
-0.33644038 -0.33942112 -0.42999545 0.65480864 -0.33739948 -0.46015778 -0.33738074 0.5406107
-0.15438211 -0.017468736 0.10348542 0.15555573 -0.1581375 -0.046455614 -0.1764221 0.15641628
0.15425801 0.089463145 -0.15900816 -0.16906968 0.15200253 -0.15947638 0.0067335973 0.15461451
-0.15714046 0.011712992 -0.16011658 0.15769416 0.15440899 -0.15522285 0.15628856 0.15401159
0.15653221 0.15564439 0.17089221 -0.046484713 0.15399708 0.1764725 0.15676622 -0.005310808

policy_net.4.bias f4 [21]
00000000: 836d b23e 0000 0000 0000 0000 0000 0000
00000010: 2661 ae3e c1df 33bd 3b9b ac3e aea5 20be
00000020: 67d8 c0bd d9b5 a9bd c4d4 54bd 9410 0cbe
00000030: 3fb0 b8bd e777 d9bd 7a7a a8bd 91f7 82bd
00000040: 8bb8 f83d 692b 7ebd fd8b d6bd 1db4 ccbd
00000050: a14e 28be
0.34849176 0.0 0.0 0.0 0.34058493 -0.04391456 0.3371218 -0.15688202
-0.094162755 -0.08286638 -0.05196072 -0.13678199 -0.09017991 -0.10618573 -0.082264856 -0.06394876
0.12144574 -0.062053118 -0.104759194 -0.099952914 -0.16436245

value_net.0.weight f4 [32, 132]
00000000: 77d9 023d 194f 64bd 6268 46be b4dd f6bd
00000010: 043d 13be f8cd 273e 5442 7fbd 5782 4b3e
00000020: 8aaf 92bd 23be cf3c aae8 8ebd fd05 b8bd
00000030: c5d4 72be f8f3 93be 8dcf 823d 7ca3 d7bd
00000040: beb1 c73d 516a c03d 5ca7 f6bd 788f 4f3c
00000050: a745 9c3b b848 31be 85dc 09bd b20c 7dbd
00000060: 4d24 26bc 740b 95bb f0cd ad3c 8ef5 0abe
00000070: 83ec 813e 8e59 4fbe 6036 2cbe 5f1d 96bc
00000080: 43a7 1fbc 6bb2 79be ac57 44be a42e 5b3d
00000090: f2c4 8abc dde6 32bc b63d 52be b79e a8bd
000000a0: ef59 d33d aa07 d43d b34d 88bc dff8 a73d
000000b0: f710 93bd 444f 52be 0ced 7c3c f405 aabc
000000c0: 78cb 223d 7e77 553d 3dae 8ebd 3e51 a63d
000000d0: e3af 6fbd ffaa f93c 4aaf 533e e866 0e3c
000000e0: 06d4 7cbe 8a14 eabd 4a50 c2ba 12c8 003e
000000f0: 8099 a6bd 12ec f0bc 44ce 54be 7a59 60be
00000100: 5aff 3abd 48be 553d c336 65be 090c 033e
00000110: 60c5 b9bc 7161 a73c fe6d a63d 79f0 813d
00000120: 33d7 85be ae78 12bc b832 7eba ca58 383d
00000130: 5414 da3d 5cf1 b53d d862 ed3c d235 febd
00000140: 8853 0d3e 029d 133e 4efe 4cbe 6367 e4bd
00000150: a546 87bd 2ce3 3b3e dfb9 963d 1835 2abe
00000160: 69db 783d 9197 683d 6a99 69bd d629 0d3e
00000170: 3680 3fbe 7a03 38be 42e4 7e3e 8f20 6a3b
00000180: b0bd 923c 921d 1fbe cca3 04be 0912 14bd
00000190: 8aa3 303d bcb0 783d 3b1b 65be f458 87bc
000001a0: e0d6 cdbd 3b1a adbe 06bb ce3c 023c d93d
000001b0: 1d57 09be c2cf f3bb 789d 173b 1e4a 3a3c
000001c0: 50e2 4c3d ff51 27bd 6df3 2c3d 969f 10bd
000001d0: 9bf1 c5bd 0cf0 f13d aeff 2d3e 4c7d fb3d
000001e0: e888 093e 7b72 9c3d f6a6 033e 6369 82be
000001f0: 7d56 363e ae89 7bbd 3f24 173e 8842 533e
00000200: 9a26 18bd 6611 efbc 3105 d73c 37cd 813e
00000210: a1a4 0bbe ecf6 91bd fb0d 09be d03f bb3d
00000220: d87b a23c 7e78 bf3d 1d7f 603d 8559 ddbc
00000230: a282 263e b8af 1bbd fbe5 19be 4117 ba3d
00000240: 14f7 4f3d 97fe 993e 8293 d43d 1f12 4b3e
00000250: 1162 b9bc 915f 8cbb 55ae 70bd 8b60 ab3d
00000260: eab2 543e 9e2a 573e 239f a73d fe21 37be
00000270: 4640 363e 21a9 843e 586d b7bc 0a02 6b3d
00000280: 82d6 d03d dfc6 e7bd 6e3b 1dbd cdd2 7cbd
00000290: 461a fcbc a7c1 7b3c f08a 52bd ae21 dabc
000002a0: 6f4c cc3d 2147 3ebe d20f 92bd b89f a3bd
000002b0: 8e34 f03d 97da 333e 9cdb b5bd a06b 74bd
000002c0: 41b8 41bd 2837 67be aacb 2bbd 09ed 57be
000002d0: ff09 963d 2cc3 a0bd d20d 0bbe 15c0 90bd
000002e0: e3bc 35bc 7670 48bd 09b3 0dbe 149e 8cbd
000002f0: 1a4f 9fbd e9e6 d4bd 0395 1c3e 9207 9ebd
00000300: 7f94 163e e655 18be add4 0c3e ac6e 84be
00000310: a4e2 12bd 529a b3bd bcaf 68bd e928 8d3d
00000320: 3335 443d 7478 87bc 21ab a8bc 0ced 2abd
00000330: 6695 fdbd f811 0ebe 9498 23bd 1905 9bbd
00000340: aa8f 5fbd b276 8dbd 0724 05be c744 d63c
00000350: 6fd7 4c3e 4a0f cd3c 87d9 983d cdce ec3d
00000360: cb86 78be ae46 9bbd 64a8 f1bb ea3c 20bc
00000370: aa77 04be 47ad fcbd 2b8f 903d 2119 603c
00000380: e103 13be 77f4 dd3c 6dd5 d0bd 4a1f c1bd
00000390: 92b2 0abe dab8 23bd bc20 ea3d f0e8 e53d
000003a0: ed4b abbc 797f 8a3d 1d0e 0f3e 2c80 243e
000003b0: dbb5 5ebe 577a 333e 6474 a3bd 741e 61be
000003c0: 76e2 943d 16fb 233e 3b82 573e 641b d5bd
000003d0: cd9c 023e d27c 30bb a3fc 27be 28ab 143d
000003e0: c8a4 0bbe 3f25 9dbd e853 303e a40e c43d
000003f0: b387 063e 23b2 78be 6962 1c3e 39a2 b6bd
0.031945672 -0.055739496 -0.19375756 -0.12054005 -0.14378744 0.16387165 -0.062319115 0.1987394
-0.07162388 0.025359219 -0.06977971 -0.08985517 -0.23713978 -0.2889707 0.063872434 -0.10529229
0.097506985 0.09395278 -0.1204364 0.012668483 0.0047690454 -0.17312896 -0.03365757 -0.061779685
-0.010140491 -0.0045484845 0.021216363 -0.13570234 0.25375757 -0.20249006 -0.16817617 -0.018324552
-0.009744468 -0.24384467 -0.19174069 0.053511277 -0.016939614 -0.0109193 -0.20531353 -0.082333975
0.10319888 0.10353024 -0.016638612 0.08201765 -0.0718097 -0.2053805 0.015437376 -0.020754792
0.039744824 0.05211591 -0.06966827 0.081209645 -0.058517348 0.030477045 0.20672336 0.008691527
-0.24690256 -0.11429699 -0.0014824953 0.12576321 -0.081347466 -0.029409442 -0.20781809 -0.21909133
-0.04565368 0.05218342 -0.22384171 0.1279756 -0.022677124 0.020432206 0.08126448 0.06344695
-0.26140746 -0.008939905 -0.0009696889 0.04500655 0.106484085 0.08883926 0.028977796 -0.12412609
0.13801396 0.14415362 -0.20018885 -0.11152532 -0.06605271 0.18348378 0.07359671 -0.16621816
0.06075612 0.05678517 -0.057031073 0.1378549 -0.18701252 -0.17970076 0.24891761 0.0035724973
0.017912716 -0.15538624 -0.12953109 -0.036150012 0.043124713 0.060715422 -0.22373669 -0.016521908
-0.1005075 -0.33809075 0.025235664 0.10607149 -0.13412137 -0.007440538 0.002313463 0.01137021
0.050020516 -0.040849682 0.042224336 -0.035308443 -0.09665223 0.118133634 0.16992065 0.12279758
0.13431132 0.07639023 0.1285666 -0.2547103 0.1780643 -0.0614106 0.1475992 0.20630848
-0.03714619 -0.0291831 0.026247593 0.2535188 -0.1363702 -0.07127175 -0.1338424 0.09143031
0.019834444 0.09349154 0.054808725 -0.027020225 0.1626077 -0.038009375 -0.15029137 0.090864666
0.05077274 0.3007705 0.103796974 0.19831131 -0.02262977 -0.0042838533 -0.058760006 0.083680235
0.20771375 0.21012351 0.0818465 -0.1788406 0.17797956 0.25910285 -0.022391006 0.05737499
0.10197164 -0.113172285 -0.038386755 -0.061724473 -0.030774247 0.015365995 -0.051402032 -0.026627388
0.09975516 -0.18581821 -0.07131924 -0.07989448 0.11728774 0.17563854 -0.08879778 -0.05967295
-0.04729486 -0.22579634 -0.041942276 -0.21086515 0.07326125 -0.07849726 -0.13579491 -0.07067887
-0.011092397 -0.048935376 -0.13837828 -0.068660885 -0.07778759 -0.10395605 0.15291218 -0.07716288
0.14705084 -0.14876518 0.13753004 -0.25865686 -0.035860673 -0.08769669 -0.05680822 0.068925686
0.047902297 -0.016536929 -0.020589413 -0.04172997 -0.12382011 -0.13874042 -0.03994043 -0.07569332
-0.054580368 -0.06907405 -0.13002025 0.026155842 0.20004056 0.025031704 0.07463365 0.115628816
-0.2427017 -0.075818405 -0.00737481 -0.009780148 -0.12936273 -0.123377375 0.07058557 0.013677866
-0.14356948 0.027094109 -0.10196958 -0.09429796 -0.13544682 -0.03997121 0.11432025 0.1122607
-0.020910228 0.06762595 0.13970228 0.16064519 -0.2174906 0.17527138 -0.07981184 -0.21984273
0.072697565 0.1601375 0.21045773 -0.10405615 0.12755127 -0.0026929867 -0.16404967 0.03629604
-0.13637078 -0.0767312 0.17219508 0.09573105 0.13137703 -0.24286704 0.15271915 -0.0891766

value_net.0.bias f4 [32]
00000000: 4924 f3bc cd4b f83b d842 04be 3418 2b3d
00000010: 6d68 37bd ece8 663d 670c 1f3e 7ca7 b43c
00000020: d78b 00bc b000 933d bd96 8cbd f268 303d
00000030: d588 cbbc 5d3d 4f3e a4db 533d bfe2 b03d
00000040: 2d3d abbc 6de1 483c c715 eebc d685 88bd
00000050: fba9 4ebc 7a7b c23d 164d 823a d4c0 8dbd
00000060: 6b0a 163d 9068 be3d 5c56 4fbd b2ce 37bd
00000070: 908b f2bc d8a0 06bd cb4f c83d d939 33be
-0.029680388 0.0075773955 -0.12916124 0.04177113 -0.044777323 0.056374475 0.15532075 0.022052519
-0.00784584 0.071778655 -0.068646885 0.043068834 -0.02484552 0.20238252 0.051723137 0.086369984
-0.020903194 0.012260777 -0.029063119 -0.06666152 -0.012613769 0.094962075 0.0009941186 -0.06921545
0.03663103 0.092972875 -0.050619468 -0.044874854 -0.029607564 -0.032868236 0.09780844 -0.17502536

value_net.2.weight f4 [32, 32]
00000000: 395d 503c c0e1 863e 8277 adbd ba4f 253f
00000010: cd1b 8bbe 7791 bd3d a4ca 1cbe 4316 7d3d
00000020: 6090 9f3e c033 36bb 5f4e ac3e 2f2a cfbd
00000030: e637 f7be 7833 5cbe 7f8d 31bd 1f20 6f3d
00000040: b7de c3be a9d6 01bd 5d74 43be 6b2c 44be
00000050: 0894 863d 6439 933d 9df7 45be e5b2 a6be
00000060: 74a7 983e 9244 e33d cf50 67bd 1882 143c
00000070: 04ff 46bf 5ce3 4b3e f9e7 7cbe 5d13 62bc
00000080: 9857 653e ac02 623e ec2d 5bbe 1e8c 96be
00000090: 454c 263e a854 ea3e 1f10 5c3e a36c 8e3f
000000a0: 5021 b83d 9ac0 18be 260c 3d3e a86b 18be
000000b0: a206 dd3d b80a b93d db32 803e 197e b63d
000000c0: b040 4fbe d983 c13e 703e 73be dc66 fd3d
000000d0: 7453 0abe e6ba 4f3e df7d 92be e4c2 983e
000000e0: 53f7 02be 31d3 5b3e 1781 8b3e 6c1e 8c3e
000000f0: 42ff 01be 5bdc febd 5299 0fbe 066d 1a3e
00000100: c16a 3c3e 44b9 07be a18e c53d 8876 7f3e
00000110: cfaf f43d 0e15 8dbe 39ff c9be 13dc 8dbe
00000120: a752 8dbe d864 7cbd 3b03 c03e 2abb 78be
00000130: 574b ccbe ab52 043f 11ca 3cbd e981 38be
00000140: f768 9dbe f8de 0ebd c8b7 84be 3ea9 053d
00000150: d346 d83e 1d00 9a3e dd2c c8bd aab5 bb3d
00000160: 59b8 85be 20e4 4d3e d1d8 28be f35e 00be
00000170: 5000 d53e 97c8 63be c687 bb3e 07be bc3d
00000180: 9eff c93e 8717 32bf f4a6 10be ec8f 99bc
00000190: b40c c13e f0d5 4ebe 6914 a9be a945 ad3d
000001a0: 976d 91be bc71 74be 90cf 943b f3c9 653e
000001b0: 7cef 173e 730a 4e3e ef65 41be ff03 8ebe
000001c0: 9cfd bf3e b4ef 71bd 6636 b53e 5fae df3e
000001d0: 3ff2 71be 77f6 4b3e aab9 8dbe 81d7 b33d
000001e0: 867f b2bd ca3d 68be 7865 89be 242c 4abe
000001f0: 1f4d 72bd ccfe 673e 7841 bcbe 404c afbe
00000200: 4898 893e 3e79 d3be 754c eebd 9f4f 1fbe
00000210: b883 4cbe a0de a7bd aea2 6fbc ebfa e83e
00000220: 8b3c 82be ef15 88bd 4d44 5fbd dcfb 0a3f
00000230: 1621 1e3c d4c1 7fbd a79e 2fbf e067 1dbe
00000240: d5f7 05bc 4806 f33c 8568 953e 63c9 12bf
00000250: af1e 743d de8c bd3e 904f bc3e 237c bb3e
00000260: d868 56be 3116 b93d 66df f0bd 2173 15bc
00000270: af52 793e cf16 af3e e0da 4ebe 21f5 aa3d
00000280: 7110 563e 708e 803e 925e 23be 273d d1bd
00000290: 7e0e 62be 9925 b0bd 66b2 e8be 2a9c 61be
000002a0: 5dde babc 72a9 173e edb5 84be 3322 13bf
000002b0: 06e4 8e3c f3b1 173d e0af d83e a98b f73d
000002c0: b277 643e fbf2 21bf b47b 943d ed4a e0be
000002d0: 1b16 6ebc 7a7d 8d3e db87 27be 7a6c 38bd
000002e0: 2adf 823e 1c54 273e 7d9a 77be a188 5fbd
000002f0: bea1 cd3e dbbc a63e a2a8 48bd 36ae 3bbe
00000300: c11b 1e3e bc46 2f3e 45fb 4abe 3dcd 973e
00000310: 789d d9bc 7beb b43e 337a a6be 3999 b43d
00000320: e94c 9c3e 3cb5 303f ff24 713e 0001 2b3e
00000330: ccff dc3e 0e97 4ebe cec9 5e3e 2574 ebbe
00000340: c1c5 3dbe 5188 34be 6593 d3be c891 773d
00000350: 2c8e 0abe 1b51 55be 070d e73e 3fd9 71be
00000360: 8ce9 213d e8c8 a63d 7fe2 9ebe 0f2f 313e
00000370: f1db 2d3d 94b8 45be ebd0 953e a046 813d
00000380: 0c49 8e3d d8a4 853e 5b6d 36bd 91cb 07bd
00000390: 8dd6 09be 8852 67bd 1ac5 e2be 12b8 2cbf
000003a0: 01a5 7ebe cd2e 073d 341c 00bf d1f3 90be
000003b0: 2947 8d3d fb6e 943e 5cf2 e6be f376 84bd
000003c0: dedb f4be b625 16be 1258 ccbd aadf 4f3d
000003d0: 1bb8 0cbe 3350 993d 8978 443e 0bc1 5e3e
000003e0: 251c 233c 8a17 a5be 1545 32bc f8f8 bc3e
000003f0: 0bd0 7cbe ef7c 05be 3a0c d53d 96ab 39bf
0.0127175385 0.2634411 -0.0847006 0.6457478 -0.27169648 0.09256261 -0.15311676 0.06178881
0.31164837 -0.0027801841 0.33653542 -0.10115468 -0.48284835 -0.21504009 -0.04334783 0.058380242
-0.38255855 -0.031698857 -0.19087358 -0.19157569 0.065712035 0.07188681 -0.19332738 -0.3255836
0.29815257 0.11097063 -0.05647355 0.00906422 -0.7773287 0.1991095 -0.24697866 -0.013798562
0.22396696 0.22071332 -0.21404237 -0.29403776 0.16240032 0.45767713 0.21490525 1.1126903
0.08990729 -0.14917222 0.18461666 -0.14884818 0.10792281 0.090352476 0.250388 0.0891077
-0.2023952 0.37795904 -0.23754287 0.123731345 -0.13508397 0.2028614 -0.28611657 0.2983619
-0.12789659 0.21467282 0.27246925 0.2736696 -0.1269503 -0.12444373 -0.14023331 0.15080652
0.18400098 -0.13254267 0.09646345 0.2494756 0.11947595 -0.27555126 -0.39452532 -0.27706966
-0.2760212 -0.06161961 0.37502465 -0.24290147 -0.3990123 0.5168864 -0.046091143 -0.18018307
-0.30744144 -0.03488061 -0.25921464 0.032632105 0.42241535 0.3007821 -0.09774182 0.09165509
-0.2611721 0.20106554 -0.16488959 -0.1253622 0.416018 -0.22244488 0.36627024 0.09215932
0.39452833 -0.6956715 -0.14126188 -0.018745385 0.37705004 -0.20198798 -0.33023384 0.08460552
-0.28403923 -0.23871511 0.004541345 0.22440319 0.1483745 0.20121174 -0.18886541 -0.27737424
0.37498176 -0.05906649 0.35393065 0.43687722 -0.23627566 0.19918238 -0.27680713 0.087813385
-0.087157294 -0.2267982 -0.26835227 -0.19743401 -0.05915558 0.22655791 -0.367687 -0.34237862
0.26873994 -0.41303438 -0.11635677 -0.15557717 -0.19972122 -0.08196759 -0.014626188 0.45503935
-0.25436816 -0.066448085 -0.054508496 0.54290557 0.009651443 -0.06244071 -0.6860146 -0.15371656
-0.008176764 0.029666081 0.29181305 -0.5733854 0.059599575 0.37021536 0.3677945 0.36618146
-0.20938432 0.09037436 -0.1176136 -0.009121687 0.24347948 0.3419709 -0.20200682 0.08347536
0.2090471 0.2510867 -0.15954044 -0.10216742 -0.22075841 -0.08600921 -0.45448607 -0.22032228
-0.02281111 0.14810732 -0.25920048 -0.5747406 0.017442714 0.03703494 0.42321682 0.12087185
0.22311285 -0.63261384 0.07250157 -0.43807164 -0.014531638 0.27634794 -0.16360418 -0.045025326
0.25560886 0.16340679 -0.24180026 -0.05457366 0.40162462 0.3256596 -0.048988946 -0.18328175
0.15440275 0.17116827 -0.19822414 0.29648772 -0.026564345 0.35335907 -0.32515106 0.088182874
0.30527428 0.6902654 0.23549269 0.166996 0.43163908 -0.2017481 0.2175667 -0.4598705
-0.18532468 -0.17630126 -0.4132339 0.060441762 -0.13530797 -0.2083172 0.45127127 -0.23618029
0.03952937 0.081437886 -0.31032178 0.17303108 0.04244608 -0.19308692 0.29260954 0.06312299
0.06947526 0.26102328 -0.044537883 -0.03315312 -0.13460751 -0.056475192 -0.44291002 -0.6746837
-0.24867631 0.033003617 -0.50043035 -0.28311017 0.06898338 0.2899092 -0.4510678 -0.06468
-0.47823995 -0.14662823 -0.099777356 0.050750412 -0.13742106 0.07486 0.19186606 0.21753328
0.009955441 -0.3224452 -0.010880728 0.36908698 -0.24688737 -0.1303594 0.10402723 -0.72527444

value_net.2.bias f4 [32]
00000000: ea93 c93d 6949 573d fd53 a33c 57ee 09be
00000010: e47c d4bd 7931 81bc b671 d83d 4815 10bd
00000020: 0355 fd3c ee0e 8dbc 8842 a8bd 3490 b9bc
00000030: 23db e33b 2954 b53c 9a28 3abb c822 19bd
00000040: 1997 983d bd05 f63c 416e e63d 8020 66bd
00000050: 82cf 13ba 4925 613d ac25 5b3d a42a cfbc
00000060: 186d a73d fdde 50bc cb45 20bd 7521 6dbd
00000070: 6282 a6bd f3f5 963c 08e7 31bd 1ff9 1fbd
0.098426655 0.052560244 0.01993751 -0.13469826 -0.103753835 -0.01577066 0.10568564 -0.035176545
0.030924326 -0.017219033 -0.08215815 -0.02265177 0.0069536134 0.022134857 -0.0028405548 -0.037386686
0.074506946 0.030032033 0.11251498 -0.05618334 -0.0005638526 0.0549672 0.053502724 -0.025288887
0.08175105 -0.012748477 -0.03912906 -0.057893235 -0.08130337 0.018427825 -0.04343322 -0.03905594

value_net.4.weight f4 [1, 32]
00000000: a363 d7bd a886 a9be 0672 2c3d 1374 87be
00000010: c1ff d23e ad86 7d3e 098c fbbd 8624 2a3e
00000020: fdd9 3c3c d46e f83c 2c47 c63e 39e1 483e
00000030: 3b22 fb3d 7a96 2fbd 0c86 b33e 3e97 373e
00000040: 89c6 05be bfd0 af3e 2795 01be 67fb 393a
00000050: ffc3 2c3d 9a5c cfbc 5f23 5abd d5bd 4d3c
00000060: ab68 383d fed4 9fbe 86fd 793d 77b5 8d3e
00000070: 74e5 4abe 58dd adbc f806 d1be c2c9 9dbb
-0.10517051 -0.33110547 0.04210093 -0.26455745 0.4121075 0.24758406 -0.12282569 0.16615495
0.011526582 0.030326284 0.38726175 0.19617166 0.12262388 -0.042868115 0.35063207 0.17928788
-0.13064016 0.34338948 -0.12654553 0.0007094652 0.042179104 -0.02531271 -0.05325639 0.0125574665
0.045021694 -0.31217188 0.061032794 0.2767751 -0.19814092 -0.021223709 -0.4082563 -0.004815311
