MAPPO/Origin/save/LS1_2P_Train_agent_14_MAPPO.pt (torch, 34418 bytes, 11 tensors)

policy_net.0.weight f4 [32, 7]
-0.51911086 0.14224233 0.17695883 0.49819762 0.22072531 0.2796824 0.17235579 0.097423665
0.41812825 0.7810693 -0.0032031194 -0.058106642 0.15844475 -0.24785651 0.16193242 -0.1849241
-0.034272846 0.88794947 0.3112588 0.06814743 0.19279397 0.61819035 0.36194944 -0.105350345
-0.5500383 -0.16386157 1.0623451 0.11573947 -0.43656793 0.14750205 -0.5849344 -0.38456458
-0.058293894 -0.0030927886 -0.17542532 0.31239513 -0.14580859 -0.111623615 -0.1954084 1.0222051
0.50772053 0.2815013 0.105182365 0.4912202 0.047214225 -0.8349259 -0.3509679 -0.40249464
-0.25281975 0.57655615 0.94122195 -0.18070236 -0.3628346 0.32508644 0.7405455 -0.043997917
0.30516094 -0.27781913 0.7791882 -0.35919502 -0.1971512 0.12669411 0.0831851 0.6337861
-0.25043187 -0.21095872 -0.6521895 0.49668977 0.12013147 -0.40139064 -0.12628268 -0.27178305
0.15562111 0.44618228 0.18588439 0.19441918 0.321034 -0.14159659 -0.020018028 0.172484
0.09189942 -0.39930993 -0.77238625 -0.1957006 -0.61589 -0.00994283 0.15692423 -0.102655135
0.3682086 -0.32299423 -0.29851687 0.8857554 0.39629042 -0.18503718 -0.65991104 0.059752405
0.44899908 -0.2565842 0.08142787 -0.029027894 -0.14873074 -0.29638255 0.5336888 1.0428346
-0.35191143 -0.6211091 -0.2833793 0.22158875 0.014399667 -0.25644115 -0.05500593 -0.09840048
0.1983649 0.049301777 0.585906 -0.15464777 0.19280405 -0.17460299 0.15836132 0.0022581683
-0.08117908 -0.6985746 0.0010416008 0.40218577 -0.07795029 0.013481927 0.47374082 0.046265725
-0.118832365 0.23311017 -0.6041585 0.65444785 -0.32367843 -0.2545097 -0.12573929 -0.6278109
-0.09571592 -0.10083749 0.496115 -0.10632368 0.5719467 -0.13771957 0.7990232 0.12091706
0.49957186 0.25016898 -0.21228579 -0.33917555 0.016560912 0.053689253 -0.66481715 -0.59763986
-0.12411546 0.0072426195 -0.5039984 -0.25915387 -0.6350811 -0.4949641 -0.08968551 0.12915622
0.4033755 -0.15620996 0.16782227 0.025224198 -0.5961607 -0.3204296 -0.22075929 0.58953553
0.20068611 0.23695298 0.33629927 -0.070351206 0.031460974 0.43403774 -0.0546692 0.122519806
0.10681488 -0.058186017 -0.4968018 -0.23664519 0.54555595 0.21096328 0.07560248 -0.01642266
0.72379804 -0.048987955 0.12556969 0.27425742 0.23928759 -0.016432658 -0.019210288 0.08895973
0.1446881 0.3061512 0.038373597 -0.031070175 -0.36524358 0.45329872 0.024619194 -0.47317216
-0.3508962 -0.3718425 -0.031568673 0.22167152 0.19504698 0.09685749 0.10734815 -0.5952279
-0.21483171 0.45987824 -0.75465834 0.27607468 -0.6779154 0.09179849 0.025145024 -0.2489018
0.007726827 -0.31917644 -0.09167069 0.65621936 0.1645803 -0.022668924 0.14176275 -0.2637804
00000000: 73e4 04bf f9a7 113e b234 353e c213 ff3e
00000010: d105 623e 8832 8f3e 097e 303e 0f86 c73d
00000020: e814 d63e 28f4 473f 6deb 51bb 3b01 6ebd
00000030: 573f 223e 19ce 7dbe 9dd1 253e be5c 3dbe
00000040: af61 0cbd a850 633f 505d 9f3e e190 8b3d
00000050: c86b 453e b941 1e3f 7051 b93e ecc1 d7bd
00000060: 4fcf 0cbf 54cb 27be edfa 873f d108 ed3d
00000070: d585 dfbe c70a 173e 43be 15bf a6e5 c4be
00000080: 94c5 6ebd 62b0 4abb b2a2 33be 41f2 9f3e
00000090: d94e 15be ec9a e4bd 2419 48be 9ed7 823f
000000a0: f9f9 013f f020 903e da69 d73d 3781 fb3e
000000b0: b463 413d b4bd 55bf 11b2 b3be c713 cebe
000000c0: 9771 81be 2f99 133f ecf3 703f 0a0a 39be
000000d0: 75c5 b9be bb71 a63e 6494 3d3f 2937 34bd
000000e0: 0e3e 9c3e 4f3e 8ebe e178 473f 69e8 b7be
000000f0: 01e2 49be 1abc 013e f35c aa3d ce3f 223f
00000100: 9b38 80be 9005 58be e4f5 26bf 1f4e fe3e
00000110: 7d07 f63d 1383 cdbe 3f50 01be 2627 8bbe
00000120: 245b 1f3e 0172 e43e 7a58 3e3e d215 473e
00000130: 925e a43e b2fe 10be d9fc a3bc a59f 303e
00000140: c335 bc3d 5a72 ccbe 1bbb 45bf bd65 48be
00000150: f8aa 1dbf 40e7 22bc bfb0 203e db3c d2bd
00000160: d685 bc3e 805f a5be 34d7 98be dec0 623f
00000170: 94e6 ca3e 637a 3dbe eeef 28bf f0be 743d
00000180: 35e3 e53e 015f 83be a8c3 a63d e8cb edbc
00000190: df4c 18be 74bf 97be d49f 083f 9b7b 853f
000001a0: bc2d b4be 0201 1fbf 1717 91be 29e8 623e
000001b0: 95ec 6b3c 414c 83be e64d 61bd 3186 c9bd
000001c0: 2b20 4b3e a9f0 493d f0fd 153f fc5b 1ebe
000001d0: 6d6e 453e 20cb 32be 7829 223e c7fd 133b
000001e0: 3841 a6bd c9d5 32bf 5386 883a 4beb cd3e
000001f0: 67a4 9fbd 4de3 5c3c 288e f23e 2181 3d3d
00000200: 625e f3bd 6fb4 6e3e 22aa 1abf e589 273f
00000210: 2eb9 a5be 184f 82be cdc1 00be 37b8 20bf
00000220: b506 c4bd e383 cebd c902 fe3e 3bc0 d9bd
00000230: 196b 123f 5c06 0dbe c98c 4c3f 5da3 f73d
00000240: e2c7 ff3e 2616 803e 7261 59be 6ba8 adbe
00000250: c0aa 873c 43e9 5b3d 7531 2abf edfe 18bf
00000260: 3f30 febd 7f53 ed3b 0a06 01bf d1af 84be
00000270: ad94 22bf ef6b fdbe 09ad b7bd 8741 043e
00000280: 3c87 ce3e 81f5 1fbe 9ad9 2b3e faa2 ce3c
00000290: fd9d 18bf 590f a4be b90e 62be cdeb 163f
000002a0: a980 4d3e cda3 723e 6b2f ac3e 4b14 90bd
000002b0: 39dd 003d 323a de3e d0ec 5fbd aaeb fa3d
000002c0: c3c1 da3d 7654 6ebd ce5c febe 1e53 72be
000002d0: 8ea9 0b3f c206 583e 79d5 9a3d d088 86bc
000002e0: d44a 393f 98a7 48bd 5795 003e 786b 8c3e
000002f0: ce07 753e c89d 86bc e55e 9dbc 8530 b63d
00000300: 1e29 143e dabf 9c3e a22d 1d3d e186 febc
00000310: 3501 bbbe c516 e83e 31ae c93c 9f43 f2be
00000320: aba8 b3be 2462 bebe 274e 01bd dcfd 623e
00000330: 65ba 473e 385d c63d 59d9 db3d db60 18bf
00000340: d8fc 5bbe 2975 eb3e 4a31 41bf a959 8d3e
00000350: dd8b 2dbf d900 bc3d f0fc cd3c 1de0 7ebe
00000360: 5331 fd3b 186b a3be d8bd bbbd fefd 273f
00000370: bd87 283e 2eb4 b9bc 412a 113e 390e 87be

policy_net.0.bias f4 [32]
-0.33108264 0.1968511 -0.082271285 0.3546122 -0.3209162 0.036663074 0.13639922 0.26138455
0.19543724 0.23592378 -0.16308673 -0.32784227 -0.23073535 0.3783486 0.33362573 -0.3135801
0.34959745 -0.34410834 0.23529011 -0.32084814 0.119771875 0.11272799 -0.31128597 0.09105596
0.46986333 0.14316937 0.31391296 -0.002327316 0.13927199 -0.059242025 -0.2545148 0.12163623
00000000: aa83 a9be 5693 493e d97d a8bd bb8f b53e
00000010: 214f a4be 052c 163d 3dac 0b3e 32d4 853e
00000020: b320 483e 0196 713e 3500 27be f1da a7be
00000030: e345 6cbe e8b6 c13e fed0 aa3e 928d a0be
00000040: 70fe b23e f82e b0be e4ef 703e 3546 a4be
00000050: f54a f53d efdd e63d e060 9fbe 8c7b ba3d
00000060: ed91 f03e fe9a 123e 33b9 a03e e285 18bb
00000070: 519d 0e3e c4a7 72bd c44f 82be 6a1c f93d

policy_net.2.weight f4 [32, 32]
-0.23399752 0.46304774 -0.2301238 0.37256134 -0.00061387056 -0.4084855 0.3768674 -0.02979204
0.1780553 0.13035013 0.07309865 -0.09670894 -0.010451274 -0.30643272 -0.016683863 0.117480114
0.08429948 -0.5628083 -0.44211566 -0.052045234 0.12293379 -0.1467758 0.00361936 -0.31660274
-0.20422287 -0.48883936 0.1861398 0.5538671 -0.07944476 0.39251617 -0.3244187 0.49463713
-0.2756112 -0.2115627 0.3856375 0.14675479 0.5977655 -0.029357621 0.27487245 -0.114344746
0.10991857 0.31837708 -0.25313202 -0.10336554 -0.2739825 0.44319808 0.30212954 -0.020232275
0.25670722 0.34833875 0.21861371 0.33965927 -0.34033445 0.36152032 0.40521264 0.45010772
-0.2271237 0.22007065 -0.19412899 0.18472017 -0.29814622 -0.08106278 -0.043847065 -0.6546123
-0.087880105 0.045266416 0.710806 0.5579204 0.08830426 0.34897435 -0.989181 0.47819075
0.2127812 0.45631298 -0.117575124 -0.03243553 -0.5318709 0.5487989 0.95425117 -0.5334902
0.12571824 -0.15969348 0.54464847 -0.12082232 0.21084185 -1.2552946 -0.23882927 -0.7683435
0.12880068 -0.36499232 -0.1470646 -0.42468843 -0.789376 0.2985005 -0.43258464 0.032007307
-0.57112956 0.23630035 0.83169276 0.76967335 -0.059757926 0.7049079 -1.1649636 0.52651113
0.67431355 0.65766263 -0.23510852 -0.31976506 -0.1947495 0.36564928 0.040605232 -0.20812067
0.26103953 -0.063959576 0.39069012 0.006957395 -0.17376642 -1.0141582 -0.106780335 -0.9701537
-0.19899945 0.4932874 0.3714093 -0.13865347 -0.42668188 -0.10832963 -0.13480985 0.18931907
0.23026974 0.008486336 -1.0980129 -0.54433554 0.3348455 0.47293922 1.4496546 -0.43387893
0.37003887 -0.31286263 0.027918568 0.47914222 0.18616621 -0.71569103 -0.59390134 0.19738537
-0.13815281 0.12553209 -0.45448828 0.2828861 -0.06967984 0.57526505 -0.17319137 1.144682
-0.04305123 -0.22605798 -0.09905047 -0.4596197 0.32276025 -0.3065885 0.2701161 -0.1909739
-0.13748138 -0.09154644 -0.13838273 0.17449734 0.26234058 -0.2910914 0.10735667 -0.118504524
-0.16486776 -0.03866857 0.21006207 -0.19047317 0.09668756 0.014683185 0.46538138 -0.5845038
-0.014219734 0.024689471 0.19934684 0.34581944 -0.58299685 0.067468256 0.10962919 0.09469624
-0.43800074 0.6888119 -0.29860985 -0.67111856 0.39800352 0.18880191 0.20703156 -0.21354786
0.24306104 0.4906249 0.20271 -0.44590765 -0.13969569 -0.15043999 0.24448764 0.01434232
0.13494818 0.24816476 -0.02117623 0.24324456 0.19386706 0.012551148 -0.16168983 -0.02807888
0.09342777 -0.65389675 -0.4270312 -0.72170764 0.48899758 -0.23086256 -0.30389604 0.14762859
0.047259845 0.40582123 0.09175328 0.25962535 -0.020713707 0.09600877 -0.12528306 -0.10999606
-0.32091606 -0.49125054 -0.27142888 0.21944176 0.096595794 0.25256392 0.17780402 0.54156345
-0.0958603 0.12253016 -0.017478215 -0.16990617 0.1034102 0.46502936 0.22055207 -0.27885225
-0.122320294 0.11749008 -0.014669331 -0.55258 -0.72586435 0.53892326 0.28713554 0.085953794
-0.256519 -0.17684215 -0.21295585 -0.35500205 0.08300894 -0.36855775 0.3787049 -0.29876176
00000000: 0c9d 6fbe 9814 ed3e 93a5 6bbe 5cc0 be3e
00000010: 28ec 20ba 0325 d1be c4f4 c03e 700e f4bc
00000020: 2154 363e 817a 053e bfb4 953d 560f c6bd
00000030: d23b 2bbc c0e4 9cbe 99ac 88bc 6a99 f03d
00000040: 35a5 ac3d 3414 10bf fc5c e2be 622d 55bd
00000050: b6c4 fb3d 654c 16be c932 6d3b c119 a2be
00000060: cd1f 51be 2749 fabe 6f9b 3e3e 3cca 0d3f
00000070: efb3 a2bd e1f7 c83e 351a a6be 1441 fd3e
00000080: e91c 8dbe e4a3 58be 4772 c53e e346 163e
00000090: 2907 193f 657f f0bc 15bc 8c3e 942d eabd
000000a0: fd1c e13d 5202 a33e 859a 81be 50b1 d3bd
000000b0: 6f47 8cbe dcea e23e b9b0 9a3e 28be a5bc
000000c0: 216f 833e 7559 b23e 46dc 5f3e d2e7 ad3e
000000d0: 5140 aebe 3119 b93e 0878 cf3e 8574 e63e
000000e0: 1d93 68be 335a 613e c0c9 46be 4927 3d3e
000000f0: 9fa6 98be 3e04 a6bd fb98 33bd ac94 27bf
00000100: 7cfa b3bd 4769 393d 62f7 353f dfd3 0e3f
00000110: ddd8 b43d c4ac b23e f73a 7dbf 6bd5 f43e
00000120: 51e3 593e dba1 e93e 3acb f0bd 1edb 04bd
00000130: b128 08bf 167e 0c3f ce49 743f d092 08bf
00000140: 48bc 003e b086 23be 156e 0b3f b171 f7bd
00000150: ede6 573e 7ead a0bf a98f 74be 29b2 44bf
00000160: 53e4 033e 46e0 babe 1a98 16be c370 d9be
00000170: 8c14 4abf 0fd5 983e bc7b ddbe 181a 033d
00000180: 8c35 12bf b8f8 713e d1e9 543f 5009 453f
00000190: bac4 74bd d874 343f 871d 95bf 6fc9 063f
000001a0: d09f 2c3f 945c 283f 4ac0 70be 3fb8 a3be
000001b0: 6a6c 47be 6236 bb3e ac51 263d 961d 55be
000001c0: f9a6 853e 3dfd 82bd 8908 c83e dcfa e33b
000001d0: d3ef 31be f0cf 81bf a6af dabd fe5b 78bf
000001e0: 83c6 4bbe 2b90 fc3e 5c29 be3e 2dfb 0dbe
000001f0: 0c76 dabe eddb ddbd 980b 0abe dcdc 413e
00000200: d5cb 6b3e 460a 0b3c b08b 8cbf 9359 0bbf
00000210: df70 ab3e 1725 f23e 488e b93f 6125 debe
00000220: bc75 bd3e 882f a0be 7bb5 e43c 2152 f53e
00000230: 5ba2 3e3e 8737 37bf eb09 18bf 641f 4a3e
00000240: ee77 0dbe 7c8b 003e b0b2 e8be 72d6 903e
00000250: 4eb4 8ebd 9244 133f 1459 31be f184 923f
00000260: 7d56 30bd be7b 67be f9da cabd 4653 ebbe
00000270: d540 a53e 2bf9 9cbe a84c 8a3e a98e 43be
00000280: ebc7 0cbe b37c bbbd 34b4 0dbe 6eaf 323e
00000290: 8151 863e ef09 95be d0dd db3d 80b2 f2bd
000002a0: 18d3 28be ef62 1ebd 831a 573e 660b 43be
000002b0: 2104 c63d be91 703c 7846 ee3e 0ba2 15bf
000002c0: e3f9 68bc 9341 ca3c 9421 4c3e 3f0f b13e
000002d0: 483f 15bf cc2c 8a3d 4585 e03d 1af0 c13d
000002e0: a241 e0be fa55 303f 64e3 98be 6dce 2bbf
000002f0: 1ec7 cb3e 4a55 413e 1500 543e 4aac 5abe
00000300: fee4 783e 3033 fb3e 3693 4f3e 024e e4be
00000310: 630c 0fbe f10c 1abe f85a 7a3e 0dfc 6a3c
00000320: db2f 0a3e e71e 7e3e c679 adbc 1a15 793e
00000330: 1685 463e 55a3 4d3c 0592 25be ae05 e6bc
00000340: 0f57 bf3d c765 27bf d5a3 dabe d5c1 38bf
00000350: e45d fa3e 3c67 6cbe 4398 9bbe f32b 173e
00000360: 8a93 413d cdc7 cf3e 25e9 bb3d 9ded 843e
00000370: cbaf a9bc 3fa0 c43d 344a 00be 9d45 e1bd
00000380: 1c4f a4be 3185 fbbe baf8 8abe 57b5 603e
00000390: 04d4 c53d 0f50 813e 4212 363e e7a3 0a3f
000003a0: 6852 c4bd 18f1 fa3d 792e 8fbc e2fb 2dbe
000003b0: bac8 d33d 5418 ee3e 67d8 613e b9c5 8ebe
000003c0: 1083 fabd a49e f03d a257 70bc e275 0dbf
000003d0: 3fd2 39bf e0f6 093f 6e03 933e 8b08 b03d
000003e0: 7556 83be 1c16 35be 1911 5abe d4c2 b5be
000003f0: 9700 aa3d 9ab3 bcbe 9ce5 c13e 4df7 98be

policy_net.2.bias f4 [32]
0.16567957 -0.17759115 0.013526746 0.04588116 -0.07148267 -0.2015008 0.11527122 -0.25054324
0.16117024 -0.1762273 -0.13977566 -0.17064962 -0.11007342 0.16594075 -0.16626859 -0.20567313
-0.18707483 0.15139358 0.13615781 0.22499812 -0.22683963 -0.15050584 -0.15792744 -0.08018206
0.018284207 -0.24006931 -0.05175314 -0.16576868 -0.13790311 -0.20548542 0.16477965 -0.14394648
00000000: e8a7 293e 74da 35be 499f 5d3c e2ed 3b3d
00000010: 8265 92bd 3a56 4ebe 5113 ec3d 3447 80be
00000020: d009 253e ee74 34be 5a21 0fbe c6be 2ebe
00000030: 2c6e e1bd 5fec 293e 5042 2abe fa9b 52be
00000040: 8b90 3fbe eb06 1b3e f46c 0b3e e865 663e
00000050: a648 68be 341e 1abe bbb7 21be 7e36 a4bd
00000060: c3c8 953c bbd4 75be 1afb 53bd 44bf 29be
00000070: 7936 0dbe c56a 52be ffbb 283e b566 13be

policy_net.4.weight f4 [21, 32]
0.24627331 -0.24038212 1.4318925 1.593129 -1.2892638 -0.24057606 0.24511999 -0.24440606
0.24421641 -0.23841098 -0.24509901 -0.25119686 -0.23969872 0.24370664 -0.24161145 -0.2462909
-0.24376756 0.24223983 0.24331646 0.24218073 -0.24846204 -0.24225275 -0.24388711 -1.304595
1.335778 -0.24109794 0.85400665 -0.2456111 -0.26838946 -0.24494381 0.24482124 -0.24458268
0.00089478045 0.00042473915 -0.0006782375 -0.0052766595 0.0004497324 -0.002442071 0.00028466026 -0.0010767665
0.0018846698 -0.0019194507 -0.0008371407 -0.001274988 0.00053951424 -7.304446e-05 -1.3945215e-05 -0.0036765893
0.0009363262 -0.00022863757 -7.3203395e-05 -0.00025083355 -0.0006887259 -0.0032993227 -0.0008201083 -0.0001672263
0.00037778905 -0.0026256607 -0.0005747951 0.002137238 0.0034306347 0.0013075523 -0.00016648043 -0.0011972782
0.00028045202 -0.0014768243 0.0011643263 -0.0025532222 -0.00020979231 0.0012930728 -0.0003181878 -0.0012636591
0.0012564154 -0.0014972463 0.0007025829 -0.0024791174 0.0025749977 0.0017604941 -0.001718378 0.004123062
-0.0006725357 -4.841695e-05 -0.0010942337 0.0021956146 -0.0018380153 0.0010013165 -0.0037679411 -0.002148171
0.000101647056 0.0015472487 -0.00064152543 -0.00257755 0.0015514948 -0.0017386845 -0.00056512683 -0.0011976511
0.00064463343 0.0029598433 0.0003590048 0.0026110183 -0.0018197246 -0.0021180825 0.0019691512 -0.00238979
0.0013709262 0.0006749735 0.0014046639 -0.00086762785 0.00082861166 -0.001082437 -0.00048614125 0.001240617
3.255508e-05 0.00031502053 0.002608661 -0.003847421 -0.00081551954 -0.0015839825 -0.0021570204 3.0169887e-05
0.0017967812 -0.0021267615 0.000780479 -0.003971207 0.00045375357 0.0013705748 -0.00060469477 0.0012959896
0.4056861 -0.40623838 0.26435655 0.24010988 -0.47902408 -0.40863886 0.4082146 -0.40726408
0.40741777 -0.40424812 -0.41225064 -0.40873253 -0.40541902 0.40879366 -0.4058573 -0.40482318
-0.40955552 0.40644246 0.4062363 0.40401837 -0.41005775 -0.40411288 -0.4039676 -0.39069828
0.21158704 -0.40814167 0.39959806 -0.4077237 -0.4066936 -0.41081512 0.40590802 -0.40556
0.02321684 -0.017108576 0.19990334 0.1614622 -0.119194224 -0.01874032 0.017547244 -0.017900413
0.01902428 -0.015573582 -0.020627573 -0.019187685 -0.019928917 0.019780211 -0.017104883 -0.018742684
-0.021463212 0.019458089 0.01939833 0.021915024 -0.020842256 -0.01922423 -0.01806049 -0.14897315
0.1752356 -0.020430034 0.07311375 -0.019587446 -0.0115290675 -0.018122403 0.018655792 -0.017855134
0.3086474 -0.31051344 -0.6821265 -0.8371442 0.24280107 -0.3086238 0.31333324 -0.3060406
0.3093867 -0.30828512 -0.30966473 -0.3115769 -0.3087238 0.31102315 -0.30872217 -0.3100344
-0.3083393 0.30703104 0.30790713 0.3090275 -0.30969185 -0.30608734 -0.3089179 0.35099483
-0.83774495 -0.31244197 -0.09308929 -0.30930543 -0.30949274 -0.30833846 0.31306738 -0.3124895
0.01238498 -0.015670668 -0.09625992 -0.008119215 -0.03229645 -0.017448088 0.013914954 -0.01472297
0.014799268 -0.013588304 -0.01755944 -0.013021117 -0.014815549 0.010679549 -0.017908426 -0.0155986985
-0.012711326 0.01435322 0.01014069 0.016216718 -0.014897955 -0.015890295 -0.01578499 -0.012057638
0.020841382 -0.012822109 0.018019719 -0.016464697 -0.012452643 -0.014487365 0.0143801 -0.01421472
00000000: 122f 7c3e bb26 76be 4148 b73f a7eb cb3f
00000010: 9906 a5bf 9259 76be bc00 7b3e 9545 7abe
00000020: de13 7a3e 0222 74be 3cfb 7abe e09c 80be
00000030: 9573 75be 3c8e 793e fe68 77be af33 7cbe
00000040: 349e 79be b80d 783e f327 793e 3afe 773e
00000050: d56c 7ebe 1b11 78be 8bbd 79be f8fc a6bf
00000060: c6fa aa3f 61e2 76be 2ea0 5a3f 7a81 7bbe
00000070: 586a 89be 8dd2 7abe 6bb2 7a3e e273 7abe
00000080: b38f 6a3a 86af de39 c0cb 31ba d4e7 acbb
00000090: 10ca eb39 270b 20bb 743e 9539 4a22 8dba
000000a0: 0607 f73a 1496 fbba 9073 5bba 801d a7ba
000000b0: 306e 0d3a 722f 99b8 3ef6 69b7 eff2 70bb
000000c0: ca73 753a 6ebe 6fb9 c684 99b8 4f82 83b9
000000d0: 9d8b 34ba 7339 58bb 89fc 56ba 7859 2fb9
000000e0: fd11 c639 4713 2cbb d9ad 16ba e710 0c3b
000000f0: 80d4 603b 2d62 ab3a 4091 2eb9 fded 9cba
00000100: a209 9339 0092 c1ba 4f9c 983a f653 27bb
00000110: b2fb 5bb9 537c a93a 72d2 a6b9 5da1 a5ba
00000120: 4eae a43a 403f c4ba 8a2d 383a b078 22bb
00000130: 4bc1 283b 61c0 e63a 333b e1ba c01a 873b
00000140: 1b4d 30ba 4e13 4bb8 646c 8fba 4de4 0f3b
00000150: 8fe9 f0ba 9b3e 833a 90ef 76bb 54c8 0cbb
00000160: 592b d538 0dcd ca3a 0b2c 28ba 1dec 28bb
00000170: 875b cb3a 92e4 e3ba 0525 14ba 81fa 9cba
00000180: 9efc 283a eef9 413b cf38 bc39 9e1d 2b3b
00000190: d383 eeba 87cf 0abb e00c 013b 069e 1cbb
000001a0: a6b0 b33a b4f0 303a b31c b83a 8571 63ba
000001b0: 3037 593a 8fe0 8dba c6e0 feb9 339c a23a
000001c0: c08b 0838 5729 a539 12f6 2a3b 0325 7cbb
000001d0: 97c8 55ba a29d cfba cc5c 0dbb 5715 fd37
000001e0: f981 eb3a 2361 0bbb 0f99 4c3a e620 82bb
000001f0: c6e5 ed39 dca4 b33a 6184 1eba 32de a93a
00000200: 17b6 cf3e 7afe cfbe be59 873e 5ddf 753e
00000210: a542 f5be 1d39 d1be 8101 d13e eb84 d0be
00000220: 1099 d03e 9cf9 cebe 8412 d3be 6445 d1be
00000230: 1593 cfbe 674d d13e 87cc cfbe fc44 cfbe
00000240: 43b1 d1be 3a19 d03e 34fe cf3e 7fdb ce3e
00000250: 17f3 d1be e2e7 cebe d7d4 cebe 9b09 c8be
00000260: 46aa 583e f2f7 d0be 1e98 cc3e 29c1 d0be
00000270: 253a d0be 5c56 d2be 2dd3 cf3e 8fa5 cfbe
00000280: 3e31 be3c 4927 8cbc 76b3 4c3e 5956 253e
00000290: 1a1c f4bd 4d85 99bc 3dbf 8f3c e3a3 92bc
000002a0: cfd8 9b3c 5628 7fbc 28fb a8bc 7e2f 9dbc
000002b0: f841 a3bc 1c0a a23c 8a1f 8cbc 428a 99bc
000002c0: 9ed3 afbc 9266 9f3c 3fe9 9e3c 2387 b33c
000002d0: 61bd aabc 227c 9dbc 98f3 93bc 6b8c 18be
000002e0: f670 333e e35c a7bc a9bc 953d da75 a0bc
000002f0: 6ae4 3cbc 6f75 94bc 08d4 983c ee44 92bc
00000300: 0807 9e3e 9efb 9ebe d89f 2ebf 154f 56bf
00000310: d8a0 783e f003 9ebe 376d a03e 5bb1 9cbe
00000320: ef67 9e3e 8cd7 9dbe 608c 9ebe 0287 9fbe
00000330: 0c11 9ebe 6d3e 9f3e d510 9ebe d4bc 9ebe
00000340: a6de 9dbe 2c33 9d3e 01a6 9d3e da38 9e3e
00000350: ee8f 9ebe 7bb7 9cbe 7d2a 9ebe 98b5 b33e
00000360: 7476 56bf 65f8 9fbe 99a5 bebd 485d 9ebe
00000370: d575 9ebe 8ade 9dbe 5e4a a03e a0fe 9fbe
00000380: 5fea 4a3c c65f 80bc ec23 c5bd 7506 05bc
00000390: 4849 04bd 4bef 8ebc 8cfb 633c 9d38 71bc
000003a0: a178 723c 7aa1 5ebc d1d8 8fbc 8656 55bc
000003b0: ebbc 72bc 46f9 2e3c b1b4 92bc af91 7fbc
000003c0: 2a43 50bc c529 6b3c 2325 263c ecd8 843c
000003d0: 8d16 74bc 5d2c 82bc 864f 81bc 668d 45bc
000003e0: 8cbb aa3c d313 52bc 179e 933c f9e0 86bc
000003f0: 2c06 4cbc 6a5c 6dbc 839a 6b3c dbe4 68bc

policy_net.4.bias f4 [21]
0.24240994 0.0 0.0 0.0 0.40576363 0.019090759 0.3091365 0.015038488
-0.019624203 -0.008608647 -0.004612962 -0.015348349 -0.19576834 -0.07813997 -0.09988561 -0.06210676
0.13019149 -0.23084243 -0.11639613 -0.06063453 -0.07169805
00000000: 503a 783e 0000 0000 0000 0000 0000 0000
00000010: 40c0 cf3e 3964 9c3c 2447 9e3e fe63 763c
00000020: f0c2 a0bc 480b 0dbc 5428 97bb a477 7bbc
00000030: 7f77 48be d907 a0bd d490 ccbd a863 7ebd
00000040: eb50 053e f561 6cbe 1861 eebd ea5b 78bd
00000050: 6dd6 92bd

value_net.0.weight f4 [32, 132]
0.05334304 -0.115044765 -0.04681808 0.23829995 -0.18111059 0.054662857 0.05124438 0.13974492
0.19977307 0.017803105 0.0052136085 0.15155962 -0.18431467 -0.060080778 0.0978115 0.35551256
-0.019547068 -0.02601123 -0.06643654 0.10345101 0.17227812 -0.07772228 0.012141869 0.16398303
-0.009294995 -0.04078035 -0.14483283 0.018752385 0.07036077 -0.012523883 -0.08385322 -0.04035146
0.09456427 -0.029181652 0.00066829484 -0.2921753 -0.043448478 -0.18148561 0.14365302 -0.18280774
0.016919602 -0.2218056 0.049667213 -0.07411603 0.17704529 -0.017771691 0.09061889 0.04395628
-0.08507406 0.1406365 -0.1763623 0.0027067442 0.029825646 0.17450927 -0.023204215 -0.00093005283
0.119790465 0.040904082 0.11467327 -0.06756637 0.149154 -0.05008047 0.076103434 -0.1180523
0.08135356 -0.056559358 -0.0018690156 -0.12996887 0.10247946 0.28840184 0.12168167 0.15979652
0.0469524 0.03028584 0.124503426 0.31769067 -0.09828944 0.02596504 -0.14537928 -0.1281915
0.1246333 0.10322552 0.06719317 0.026379202 0.23251581 -0.2762591 0.087925024 -0.27111855
0.24679472 -0.078875884 0.06911145 0.15809482 0.014266928 0.059869986 0.036162056 -0.04019145
0.09215692 0.11031844 -0.080826275 -0.016566185 -0.17787115 -0.084483705 0.056268178 -0.07274232
-0.06987246 0.1334709 0.011709533 0.0026679456 0.09856286 0.2672082 0.08340703 -0.17218475
0.07625865 0.029743807 0.2496768 0.15162097 -0.0955446 -0.10715404 0.018064601 -0.028701534
0.12581137 -0.19224449 0.06325331 -0.11861774 0.17083794 0.029479828 0.06534381 0.107774265
0.04238 -0.060757793 -0.005163869 0.1491546 0.28638935 -0.048154622 0.025326889 -0.22481194
0.0078205485 0.34434807 0.29469126 0.05443195 0.13142686 -0.03407487 -0.07889942 0.037379246
-0.03145724 0.12443898 0.0373132 -0.054867115 -0.03227323 -0.046912644 0.06059752 0.230756
-0.14953658 -0.23412804 0.039036196 0.17567463 0.0605843 0.08357525 -0.09106647 0.19591649
0.057839777 -0.027769776 0.07790945 0.06680413 0.056022197 -0.028650504 0.24582162 -0.11191867
0.19223596 0.012748026 -0.10576555 -0.29502967 -0.24803105 0.06731832 0.21048217 0.109051816
0.2616296 -0.11472937 0.13530648 0.010286017 0.27835184 0.18011938 -0.077590115 -0.49692073
0.0018175751 -0.13158973 0.0677562 0.20697507 0.16309807 0.03318367 -0.2916816 -0.07990812
-0.019357769 0.29974455 -0.19814162 -0.40906504 -0.04943091 -0.2512919 0.18920103 0.4071997
0.079152614 -0.32838845 -0.089976944 0.13382448 0.01949917 0.36827222 -0.06142289 -0.46963847
-0.23973764 0.1486274 0.30394447 0.041917108 0.13599935 -0.083611 -0.10776812 0.17044124
0.36794433 0.15300985 -0.096873835 0.27230066 -0.012663718 0.03165136 0.06029515 -0.02646431
-0.1256435 -0.19689633 -0.12068287 0.19764076 0.20650837 -0.06867322 0.096817575 -0.17715655
-0.18707636 -0.36277854 0.21853387 0.21561505 -0.22573969 -0.2132244 -0.010051976 0.086790904
0.069639385 0.09701685 0.1857639 -0.5048024 -0.32952884 0.24078879 0.35644433 0.1387443
-0.0186665 -0.15883917 0.3161478 0.1697011 -0.12320746 0.28271267 -0.040413614 0.10543737
00000000: 3b7e 5a3d 979c ebbd 51c4 3fbd e704 743e
00000010: 0e75 39be 29e6 5f3d a1e5 513d 4b19 0f3e
00000020: 5091 4c3e d1d7 913c ebd6 aa3b 7232 1b3e
00000030: fcbc 3cbe 4317 76bd 6551 c83d be05 b63e
00000040: 2c21 a0bc 8115 d5bc e10f 88bd 20de d33d
00000050: ad69 303e dc2c 9fbd b1ee 463c 2beb 273e
00000060: 094a 18bc 4c09 27bd 0f4f 14be 9a9e 993c
00000070: 4f19 903d f930 4dbc 3dbb abbd 9347 25bd
00000080: e9aa c13d 5c0e efbc 8230 2f3a 0098 95be
00000090: 08f7 31bd 5dd7 39be c719 133e f431 3bbe
000000a0: fa9a 8a3c 0221 63be d96f 4b3d 25ca 97bd
000000b0: 5c4b 353e f095 91bc 6696 b93d 800b 343d
000000c0: 4f3b aebd 0403 103e 5298 34be a263 313b
000000d0: ea54 f43c 8fb2 323e c416 bebc cace 73ba
000000e0: b454 f53d 0a8b 273d d2d9 ea3d 3d60 8abd
000000f0: d4bb 183e 2e21 4dbd 1edc 9b3d 67c5 f1bd
00000100: b29c a63d c9aa 67bd c2f9 f4ba 8f16 05be
00000110: c0e0 d13d 68a9 933e 3d34 f93d b3a1 233e
00000120: 2951 403d 031a f83c a7fb fe3d 5aa8 a23e
00000130: f94b c9bd a3b4 d43c 4ede 14be a244 03be
00000140: be3f ff3d e767 d33d 939c 893d 3219 d83c
00000150: a018 6e3e d571 8dbe 0912 b43d 0dd0 8abe
00000160: c1b7 7c3e ae89 a1bd 4e8a 8d3d 9ce3 213e
00000170: d5bf 693c 3b3a 753d aa1e 143d ca9f 24bd
00000180: c4bc bc3d a2ee e13d 3f88 a5bd cfb5 87bc
00000190: db23 36be cb05 adbd 7679 663d edf9 94bd
000001a0: 4b19 8fbd 98ac 083e 57d9 3f3c b3d8 2e3b
000001b0: 53db c93d 83cf 883e 4ed1 aa3d 3351 30be
000001c0: 7f2d 9c3d 49a9 f33c 46ab 7f3e 8742 1b3e
000001d0: e3ac c3bd 9473 dbbd 37fc 933c 7b1f ebbc
000001e0: b2d4 003e bddb 44be f48a 813d dced f2bd
000001f0: 24f0 2e3e ae7f f13c fad2 853d c1b8 dc3d
00000200: a796 2d3d 2add 78bd ac35 a9bb fcbb 183e
00000210: a0a1 923e c83d 45bd 567a cf3c 1a35 66be
00000220: c221 003c 644e b03e c6e1 963e 09f4 5e3d
00000230: c394 063e 1792 0bbd 0596 a1bd fb1a 193d
00000240: 4fd9 00bd ddd9 fe3d bad5 183d 57bc 60bd
00000250: ef30 04bd 7927 40bd 1b35 783d 4d4b 6c3e
00000260: 1e20 19be 43bf 6fbe 6be4 1f3d 0de4 333e
00000270: 3e27 783d 8029 ab3d 0f81 babd 559e 483e
00000280: 67e9 6c3d 717d e3bc fd8e 9f3d 9bd0 883d
00000290: 8877 653d 76b4 eabc aab8 7b3e 9e35 e5bd
000002a0: 81d9 443e 19dd 503c 9c9b d8bd 210e 97be
000002b0: dafb 7dbe 30de 893d a388 573e 8f56 df3d
000002c0: 51f4 853e 3bf7 eabd c88d 0a3e af86 283c
000002d0: 2284 8e3e 3771 383e 91e7 9ebd 656c febe
000002e0: b33b ee3a 75bf 06be c3c3 8a3d 46f1 533e
000002f0: 2e03 273e 9aeb 073d 4a57 95be dea6 a3bd
00000300: 2f94 9ebc 1e78 993e a3e5 4abe f970 d1be
00000310: 1178 4abd 55a9 80be eabd 413e 7b7c d03e
00000320: c41a a23d 8822 a8be d545 b8bd 4909 093e
00000330: b9bc 9f3c 2d8e bc3e 9196 7bbd 7474 f0be
00000340: c97d 75be c831 183e 9c9e 9b3e 46b1 2b3d
00000350: 6a43 0b3e 3e3c abbd 88b5 dcbd 2688 2e3e
00000360: 3363 bc3e 9dae 1c3e ca65 c6bd fe6a 8b3e
00000370: 7c7b 4fbc dba4 013d 0cf8 763d aecb d8bc
00000380: b1a8 00be 319f 49be 9528 f7bd 5762 4a3e
00000390: ee76 533e 8ca4 8cbd 4b48 c63d 8768 35be
000003a0: f290 3fbe 1cbe b9be 58c7 5f3e 31ca 5c3e
000003b0: 4e28 67be 7f57 5abe 0bb1 24bc 6ebf b13d
000003c0: 189f 8e3d c5b0 c63d e438 3e3e bb3a 01bf
000003d0: 01b8 a8be 5691 763e df7f b63e fc12 0e3e
000003e0: 7dea 98bc bca6 22be 20de a13e 20c6 2d3e
000003f0: 3154 fcbd b7bf 903e bf88 25bd 8cef d73d

value_net.0.bias f4 [32]
0.022603726 0.12833658 0.058533024 -0.14745927 0.017694885 -0.0138162775 0.017120771 0.013803087
0.06611275 -0.10832978 0.05873265 -0.04011889 -0.031587984 0.043637205 -0.099957146 0.15665129
-0.05590241 0.114822745 -0.008852179 0.014553778 0.071421236 0.17590912 -0.028575962 -0.04590899
0.036300268 0.08792419 -0.012621056 0.025882114 -0.18652146 -0.054189518 0.03198122 -0.03503001
00000000: 732b b93c aa6a 033e 53c0 6f3d 90ff 16be
00000010: ddf4 903c ab5d 62bc dc40 8c3c 5826 623c
00000020: 1f66 873d 01dc ddbd a691 703d b553 24bd
00000030: 6762 01bd edbc 323d 55b6 ccbd 3269 203e
00000040: edf9 64bd 3028 eb3d bb08 11bc f872 6e3c
00000050: 4c45 923d 8521 343e 2318 eabc 110b 3cbd
00000060: 97af 143d 9911 b43d 8cc8 4ebc ba06 d43c
00000070: 7bff 3ebe d4f5 5dbd bdfe 023d a17b 0fbd

value_net.2.weight f4 [32, 32]
0.057271957 0.09199173 -0.6814377 0.32723075 0.26220173 -0.0024535172 -0.23806363 0.23672514
-0.39574915 -0.1831238 0.14663807 0.22720462 0.19943996 0.27725977 0.025053399 -0.37398323
-0.01384061 -0.8928742 -0.2502006 -0.24154934 -0.26642403 -0.088086195 0.07606235 0.13426644
-0.2962815 0.4965233 -0.09195837 0.34012404 0.33980998 -0.40409407 -0.09009655 0.038350772
0.24710023 -0.22054784 0.17753352 0.19100511 0.2239301 0.03999162 -0.06782403 -0.5201359
0.1896017 -0.015127273 0.515094 -0.0026017332 0.10945836 0.19594514 0.19331002 0.55383563
-0.22377709 0.41288194 0.35411477 -0.3070741 -0.44259065 -0.029000416 -0.27064377 0.101240955
0.35252386 -0.08660535 0.16652207 0.24000797 -0.034655362 0.11107866 -0.07347354 0.32736844
0.0546432 0.035456028 -0.56172293 -0.21982981 -0.061719317 -0.2860911 -0.22289078 -0.4006555
0.25153103 0.053195894 -0.577835 0.45123094 -0.11540967 -0.027606137 -0.05058906 0.027088478
-0.33219022 -0.40586135 -0.29186678 0.28223267 -0.11680855 0.10950654 -0.35013017 -0.21354188
0.15814883 0.5722227 -0.10414669 0.012640038 0.103515774 -0.15697184 0.14552622 0.4346128
-0.33006805 0.5413055 -0.80094105 -0.07779021 -0.10453018 -0.094145365 0.15174177 -0.0027946
-0.113180265 -0.17614767 -0.30376983 0.12546138 0.013179688 0.12366818 -0.28406718 0.39388025
-0.09142452 -0.25731808 0.134751 -0.41911197 0.039179537 -0.5236437 -0.2637063 0.21841148
0.023426654 -0.1283704 -0.048343208 -0.27621683 0.37555933 -0.24785373 0.2899467 -0.25142384
-0.28017002 0.18699482 -0.56836075 -0.11847481 0.33837894 0.16790858 -0.30806154 0.070575535
0.32134858 -0.24535763 0.34882942 -0.2092157 0.0052506374 -0.0660333 -0.18189909 0.15581103
-0.30310202 -0.26121953 -0.4047898 -0.068731695 0.08167915 0.37095508 0.25668103 0.33029303
0.2579436 0.17596246 -0.0071912087 -0.53854686 -0.19037531 -0.37087217 0.16629207 0.46927717
-0.08446787 0.14918761 -0.55022854 0.25258386 -0.04680335 -0.23756735 0.01957856 0.28927812
-0.120210886 -0.2546241 -0.253327 -0.003584772 0.29604584 0.14029379 -0.24869564 0.4345793
0.5567472 -0.13671991 0.3412261 0.31362206 -0.54591596 0.36086145 0.13580918 -0.01705463
0.043875676 0.18513848 -0.2665328 -0.16770543 -0.23623556 0.041100703 0.09234535 0.2867858
-0.20091131 -0.0028716223 -0.12668705 0.42454395 0.25641593 0.10537045 -0.092093974 0.29086745
0.27495056 0.15915501 -0.27166942 -0.46862948 -0.014866525 -0.16387166 -0.38970035 -0.095126316
-0.18911752 0.048888646 0.051812477 0.3756981 -0.22244124 0.073847584 -0.4076784 -0.009449029
0.5835945 0.18943314 0.5954182 0.4321836 0.10218295 -0.09831987 0.15204455 -0.43016768
0.44575712 -0.10795608 -0.060093075 -0.49336323 -0.021842202 0.3475671 0.23448648 0.40719387
0.008568561 0.34121937 0.3709555 0.012229812 0.1860652 0.2838298 -0.51571274 0.26558644
-0.41256553 -0.14606103 0.034924846 0.15808922 -0.21487522 -0.11867862 0.2605328 -0.17756115
0.6312283 -0.04911858 0.15097365 0.27546567 -0.22008783 -0.23918651 0.18476464 -0.1721123
00000000: 0096 6a3d 2966 bc3d b372 2ebf ca8a a73e
00000010: 4e3f 863e 30cb 20bb f4c6 73be 1368 723e
00000020: a29f cabe ce84 3bbe 4a28 163e 54a8 683e
00000030: fd39 4c3e fef4 8d3e c93c cd3c bb7a bfbe
00000040: bac3 62bc 6793 64bf 4b1a 80be b658 77be
00000050: bb68 88be 8966 b4bd 94c6 9b3d 247d 093e
00000060: 35b2 97be 4d38 fe3e ab54 bcbd bd24 ae3e
00000070: 93fb ad3e 6be5 cebe 8a84 b8bd b315 1d3d
00000080: d807 7d3e 4bd7 61be 59cb 353e d896 433e
00000090: ef4d 653e 41ce 233d 53e7 8abd a027 05bf
000000a0: f326 423e 62d8 77bc 33dd 033f d781 2abb
000000b0: b42b e03d d8a5 483e 10f3 453e 2cc8 0d3f
000000c0: d225 65be 4365 d33e 884e b53e d138 9dbe
000000d0: 3e9b e2be 4892 edbc d291 8abe 6b57 cf3d
000000e0: 027e b43e 255e b1bd c384 2a3e a6c4 753e
000000f0: c8f2 0dbd 357d e33d 4c79 96bd d69c a73e
00000100: 8cd1 5f3d 573a 113d 13cd 0fbf 111b 61be
00000110: 65cd 7cbd 887a 92be 7b3d 64be b822 cdbe
00000120: adc8 803e f0e3 593d ffec 13bf be07 e73e
00000130: e85b ecbd 4426 e2bc 7936 4fbd a8e8 dd3c
00000140: d614 aabe 0fcd cfbe 906f 95be cd80 903e
00000150: 5239 efbd f744 e03d 4344 b3be b9aa 5abe
00000160: c4f1 213e 307d 123f dc4a d5bd 2918 4f3c
00000170: 1400 d43d 3abd 20be d304 153e 9285 de3e
00000180: aefe a8be ff92 0a3f 790a 4dbf 7950 9fbd
00000190: eb13 d6bd 49cf c0bd 3262 1b3e 9c25 37bb
000001a0: 0ecb e7bd 0e60 34be b887 9bbe f378 003e
000001b0: 9eef 573c be45 fd3d 4171 91be acaa c93e
000001c0: c73c bbbd 32bf 83be 2bfc 093e d895 d6be
000001d0: b97a 203d 830d 06bf 8304 87be 42a7 5f3e
000001e0: 41e9 bf3c 8873 03be 8703 46bd 4b6c 8dbe
000001f0: 5049 c03e 5ecd 7dbe e573 943e a0ba 80be
00000200: 7272 8fbe 927b 3f3e 1780 11bf eca2 f2bd
00000210: 0140 ad3e 3af0 2b3e 3eba 9dbe e889 903d
00000220: cd87 a43e 083f 7bbe c599 b23e a43c 56be
00000230: 8a0d ac3b 773c 87bd c143 3abe ed8c 1f3e
00000240: 3030 9bbe 91be 85be 9c40 cfbe 34c3 8cbd
00000250: 6647 a73d d3ed bd3e b26b 833e 2b1c a93e
00000260: 2f11 843e 812f 343e 3ba4 ebbb 35de 09bf
00000270: bff1 42be f5e2 bdbe 7848 2a3e 1945 f03e
00000280: 7efd acbd a3c4 183e c7db 0cbf ac52 813e
00000290: dfb4 3fbd db44 73be 3763 a03c 431c 943e
000002a0: 2031 f6bd 175e 82be 14b4 81be 7fee 6abb
000002b0: 5293 973e 2da9 0f3e 12aa 7ebe 2e81 de3e
000002c0: fc86 0e3f 4e00 0cbe 30b5 ae3e 1293 a03e
000002d0: 26c1 0bbf d5c2 b83e 9011 0b3e 27b6 8bbc
000002e0: fbb6 333d f194 3d3e fd76 88be f9ba 2bbe
000002f0: bce7 71be 3659 283d 8f1f bd3d 97d5 923e
00000300: b2bb 4dbe d431 3cbb 40ba 01be d35d d93e
00000310: f348 833e 76cc d73d c49b bcbd 94ec 943e
00000320: 52c6 8c3e 88f9 223e 4118 8bbe 34f0 efbe
00000330: ba92 73bc f9cd 27be ce86 c7be 96d1 c2bd
00000340: 06a8 41be 763f 483d 5239 543d 805b c03e
00000350: a3c7 63be 673d 973d 39bb d0be 1ad0 1abc
00000360: 7366 153f c3fa 413e 546d 183f 2b47 dd3e
00000370: 4b45 d13d ee5b c9bd 91b1 1b3e f03e dcbe
00000380: 473a e43e 1418 ddbd 2824 76bd 1b9a fcbe
00000390: 6bee b2bc 51f4 b13e 391d 703e b77b d03e
000003a0: 2663 0c3c 4eb4 ae3e e1ed bd3e 8d5f 483c
000003b0: e087 3e3e 2452 913e c005 04bf f2fa 873e
000003c0: ca3b d3be 0691 15be 5b0d 0f3d 24e2 213e
000003d0: 4008 5cbe c70d f3bd 8e64 853e 97d2 35be
000003e0: 2e98 213f 9030 49bd d698 1a3e d609 8d3e
000003f0: b45e 61be 4fed 74be f132 3d3e 353e 30be

value_net.2.bias f4 [32]
0.010564462 0.0036897862 0.04261819 -0.0017097773 -0.010019997 -0.007810288 0.15983585 0.16292483
-0.064883985 0.15230365 -0.022731883 0.11957489 -0.03761317 -0.009698715 0.069119945 0.10661418
-0.029678924 0.14363988 -0.034119483 -0.0024878078 -0.012088196 0.053642005 -0.008113881 0.079200335
-0.044061318 -0.114916205 0.03081413 0.05987665 0.07052774 -0.06349887 0.05486734 -0.10044018
00000000: 9116 2d3c 57d0 713b 6990 2e3d 9b1a e0ba
00000010: ea2a 24bc 72ed ffbb 02ac 233e c4d5 263e
00000020: e5e1 84bd 7df5 1b3e 3738 babc aee3 f43d
00000030: 4410 1abd 5ce7 1ebc c28e 8d3d 8958 da3d
00000040: 3721 f3bc 5516 133e dfc0 0bbd 7d0a 23bb
00000050: 920d 46bc b8b7 5b3d 15f0 04bc c933 a23d
00000060: a479 34bd 3059 ebbd ea6d fc3c 3841 753d
00000070: d970 903d b20b 82bd 93bc 603d 95b3 cdbd

value_net.4.weight f4 [1, 32]
0.33444557 -0.032528616 0.0991506 0.120973825 0.4164901 0.072019674 -0.2964231 -0.35295767
-0.109208174 -0.22557485 0.15896615 -0.17480443 -0.1538774 -0.3306427 0.34613994 -0.07751652
-0.017341245 -0.12302411 0.2667952 0.32478565 0.10424995 -0.17945902 0.23824055 -0.12536696
-0.21796794 -0.04284889 -0.009787167 0.22619726 -0.052604124 0.18790188 0.04357583 0.129162
00000000: 733c ab3e ba3c 05bd 780f cb3d 20c1 f73d
00000010: 313e d53e 0d7f 933d c5c4 97be deb6 b4be
00000020: 89a8 dfbd 18fd 66be 06c8 223e efff 32be
00000030: 0a92 1dbe 004a a9be 4139 b13e fbc0 9ebd
00000040: 3a0f 8ebc 11f4 fbbd 6199 883e 4e4a a63e
00000050: ff80 d53d 1bc4 37be 55f5 733e 3260 00be
00000060: fd32 5fbe 5182 2fbd 5b5a 20bc 41a0 673e
00000070: 6c77 57bd 5a69 403e 927c 323d 0b43 043e
