MAPPO/No_Graph/save/SY_4_T1/agent_25_NGH_c.pt (torch, 127922 bytes, 15 tensors)

policy_net.0.weight f4 [32, 26]
0.2757428 0.020602409 -0.120553516 -0.9202596 -0.55578864 0.055598173 0.035250556 0.042307835
0.20411514 0.15488292 -0.111483 -0.25448856 0.12888911 -0.2173521 0.1287754 -0.040919326
-0.25327677 -0.33835742 0.19137171 -0.063416675 0.22436336 0.40829298 0.10372563 0.20137219
-0.23037219 0.19712761 0.18420333 0.13561803 -0.20779254 0.25922117 -0.2236476 0.10600342
-0.31555042 -0.060318857 -0.3007695 -0.014400315 -0.13434204 0.68378913 -0.05996593 -0.15103388
-0.36895403 0.09392149 0.31860936 -0.03308844 0.22450031 0.14126831 -0.039357275 0.17969714
0.3857501 0.24101694 0.17846622 -0.059987713 0.017695189 -0.26388323 -0.16583283 0.47507307
0.53261524 0.21247464 -0.3404491 0.3052613 -0.13360801 0.07985654 -0.28130877 -0.2737939
-0.14550897 -0.38425413 -0.17491804 -0.12022861 0.0054373876 -0.21370815 0.15439746 -0.03644228
0.61810523 0.14437535 -0.1390345 0.23171552 -0.28110877 -0.14958881 0.39258546 0.064617984
0.59193873 -0.4658855 0.50862247 -0.23531774 -0.041426715 0.04751888 0.18713252 0.10394594
-0.4400033 -0.13652346 0.06918771 -0.1391276 0.05264147 0.039472505 0.12481342 0.46916375
0.06607654 0.34421027 0.23252997 0.09897576 0.25519803 -0.26257995 0.25540903 -0.1989307
0.43197706 0.6501367 0.40289924 0.012659981 0.023500672 -0.5263479 -0.12716109 -0.25030947
0.12215783 0.18126978 -0.10879997 -0.18678698 0.28776795 -0.39006776 0.002483788 0.06942388
0.31439447 0.29864338 -0.25366467 -0.6134903 -0.051719185 -0.028324444 0.10030433 0.100331694
-0.017184129 0.12944967 -0.0636123 0.046053465 -0.13887781 -0.26533467 -0.08651629 0.51922256
-0.2796227 -0.37446433 0.16236396 -0.25776726 -0.55931395 -0.29081148 0.042337533 0.05082406
0.062251754 0.429618 0.28046277 -0.024976669 -0.20382172 0.2164384 0.21602122 -0.3271965
0.024803795 -0.44404343 0.023780383 0.057875287 0.14542603 0.6181654 0.08299161 -0.002168105
-0.013091136 -0.19702224 0.13969766 -0.09209553 0.16240694 -0.09003715 -0.086996816 -0.23043747
-0.39205918 -0.013558455 -0.43201298 -0.33302402 -0.1785418 0.19131482 0.6139477 0.19648515
0.15205415 -0.086822145 0.037737723 -0.16775179 -0.13038257 -0.07685037 0.5013448 -0.27461484
-0.24441724 -0.52864933 -0.10599641 -0.18013982 -0.17256401 -0.055460285 -0.24155118 0.28905514
0.10112743 -0.20338741 0.15939182 -0.36475146 -0.39909506 -0.1025286 0.16909781 0.2092651
-0.24354897 0.19464216 0.055778787 0.38871807 -0.17011195 -0.06291674 0.24794056 0.023550848
0.44777492 0.086013414 0.26954454 -0.19714476 0.31018972 -0.20385155 0.40344924 0.4168663
-0.12815006 0.012848969 0.22588381 0.033749636 0.12611593 -0.13022137 -0.07612556 0.7019661
-0.0013451255 0.03515517 0.32005376 0.48323464 0.3613474 -0.0852087 0.1234539 -0.08480948
-0.17614515 0.39301747 -0.2391601 0.10671407 -0.18514189 0.51176745 -0.11639463 -0.00907643
-0.17613427 -0.10440462 0.034152403 0.47202092 -0.062401097 0.27051273 0.1941212 -0.3594617
0.0073219156 -0.23430085 -0.53909147 -0.3203156 -0.08679156 0.15455234 -0.30368078 0.0439604
00000000: 292e 8d3e 62c6 a83c c3e4 f6bd 2296 6bbf
00000010: 2a48 0ebf e9ba 633d e362 103d fb4a 2d3d
00000020: 8f03 513e a199 1e3e 3351 e4bd 534c 82be
00000030: 82fb 033e 8d91 5ebe b3dd 033e 069b 27bd
00000040: 7ead 81be 2f3d adbe f2f6 433e 9ae0 81bd
00000050: 82bf 653e c70b d13e 1a6e d43d 8334 4e3e
00000060: b0e6 6bbe d2db 493e cc9f 3c3e 74df 0a3e
00000070: 91c7 54be a3b8 843e e003 65be 5218 d93d
00000080: d38f a1be e810 77bd 76fe 99be 4cef 6bbc
00000090: f690 09be ce0c 2f3f d69e 75bd a0a8 1abe
000000a0: 8be7 bcbe e959 c03d c420 a33e be87 07bd
000000b0: 69e3 653e a4a8 103e 1835 21bd 8702 383e
000000c0: 0981 c53e 25cd 763e d9bf 363e adb5 75bd
000000d0: 80f5 903c b41b 87be 15d0 29be c73c f33e
000000e0: 7959 083f f492 593e 584f aebe 364b 9c3e
000000f0: 8ad0 08be d38b a33d b407 90be b72e 8cbe
00000100: 4e00 15be f5bc c4be b71d 33be 6b3a f6bd
00000110: 1d2c b23b 4fd6 5abe 5e1a 1e3e 8044 15bd
00000120: 253c 1e3f 22d7 133e 0f5f 0ebe d546 6d3e
00000130: 7ded 8fbe cf2d 19be f600 c93e 6f56 843d
00000140: 4c89 173f 8b88 eebe 1535 023f 22f7 70be
00000150: 0faf 29bd 28a3 423d ab9f 3f3e 9ce1 d43d
00000160: 1d48 e1be cecc 0bbe 49b2 8d3d 7777 0ebe
00000170: 959e 573d ecad 213d 2e9e ff3d 3b36 f03e
00000180: 2353 873d 543c b03e 561c 6e3e ceb3 ca3d
00000190: 51a9 823e e170 86be f9c4 823e 7db4 4bbe
000001a0: 192c dd3e 5c6f 263f cf48 ce3e cf6b 4f3c
000001b0: 7b84 c03c bcbe 06bf 8436 02be 9028 80be
000001c0: e22d fa3d c99e 393e 85d2 debd 1645 3fbe
000001d0: 5256 933e f6b6 c7be 0cc7 223b 1b2e 8e3d
000001e0: 50f8 a03e c9e7 983e 56e0 81be b30d 1dbf
000001f0: 7fd7 53bd aa08 e8bc 5b6c cd3d b47a cd3d
00000200: bbc5 8cbc 748e 043e 2a47 82bd 8fa2 3c3d
00000210: fc35 0ebe f2d9 87be 742f b1bd c5eb 043f
00000220: b52a 8fbe cab9 bfbe bd42 263e 12fa 83be
00000230: 332f 0fbf 3ee5 94be 1f6a 2d3d e42c 503d
00000240: b2fb 7e3d e4f6 db3e d198 8f3e df9b ccbc
00000250: a4b6 50be 07a2 5d3e ab34 5d3e 4d86 a7be
00000260: 5431 cb3c a959 e3be 14cf c23c a30e 6d3d
00000270: 90ea 143e 1640 1e3f 81f7 a93d c416 0ebb
00000280: 347c 56bc 33c0 49be e70c 0f3e 959c bcbd
00000290: 014e 263e 6665 b8bd 632b b2bd cdf7 6bbe
000002a0: fbbb c8be 4824 5ebc ce30 ddbe 2082 aabe
000002b0: a9d3 36be 08e8 433e ad2b 1d3f 6733 493e
000002c0: 15b4 1b3e cfcf b1bd df92 1a3d 20c7 2bbe
000002d0: 0283 05be ba63 9dbd 2258 003f 519a 8cbe
000002e0: 8348 7abe 9055 07bf a514 d9bd 9376 38be
000002f0: 9fb4 30be 532a 63bd 3159 77be 09ff 933e
00000300: e61b cf3d ca44 50be 9c37 233e b4c0 babe
00000310: 3056 ccbe 84fa d1bd fa27 2d3e 9749 563e
00000320: e764 79be 4650 473e 4c78 643d 0e06 c73e
00000330: d431 2ebe 7eda 80bd 21e4 7d3e b5ed c03c
00000340: c142 e53e cd27 b03d be01 8a3e 51e0 49be
00000350: 30d1 9e3e 76be 50be e690 ce3e 806f d53e
00000360: c539 03be 7b84 523c 164e 673e 0f3d 0a3d
00000370: 8924 013e c058 05be b8e7 9bbd 0db4 333f
00000380: ec4e b0ba defe 0f3d 16de a33e 886a f73e
00000390: 8702 b93e e681 aebd 66d5 fc3d 98b0 adbd
000003a0: 655f 34be 9639 c93e 63e6 74be e88c da3d
000003b0: d695 3dbe 3103 033f 4f60 eebd 4fb5 14bc
000003c0: 8b5c 34be 17d2 d5bd 64e3 0b3d baac f13e
000003d0: 4b98 7fbd a580 8a3e b5c7 463e 5d0b b8be
000003e0: aeec ef3b 90ec 6fbe e601 0abf 6800 a4be
000003f0: c6bf b1bd f842 1e3e 0c7c 9bbe d20f 343d

policy_net.0.bias f4 [32]
0.025335183 -0.114585735 0.0354327 0.2185664 0.08561529 -0.078406155 0.08644456 0.07002131
0.16372916 0.037923656 0.073271684 0.0065841703 -0.03449814 0.023534007 -0.052721508 0.010211125
-0.08540149 -0.15883712 0.045285925 0.048050955 0.056056805 0.06732893 -0.027253112 0.02649546
-0.08042289 0.05049322 -0.05040363 0.006700278 -0.022796648 0.03889843 -0.049407415 -0.013571239
00000000: bb8b cf3c edab eabd e121 113d dfcf 5f3e
00000010: 1257 af3d 6893 a0bd d809 b13d 5567 8f3d
00000020: 9ea8 273e d655 1b3d 770f 963d 06c0 d73b
00000030: ec4d 0dbd 64ca c03c 82f2 57bd 904c 273c
00000040: fae6 aebd 33a6 22be bc7d 393d 14d1 443d
00000050: d29b 653d c0e3 893d eb41 dfbc 020d d93c
00000060: c2b4 a4bd fbd1 4e3d 0974 4ebd 018e db3b
00000070: 09c0 babc f653 1f3d 6e5f 4abd e759 5ebc

policy_net.2.weight f4 [32, 32]
-0.3937558 0.0639444 -0.16261609 -0.2912169 -0.42861718 -0.4823913 0.28429618 -0.59495825
0.15349025 0.47158554 -0.1702431 -0.25877303 -0.23109248 0.060319807 0.08653857 -0.18989745
0.031822838 0.0044573415 -0.16445194 -0.19308896 0.36035943 -0.57549137 0.27985457 0.11956897
0.2239041 -0.19178629 -0.006958265 0.26431543 0.11228591 -0.16823345 0.28379634 0.27206776
0.33260298 -0.024951898 -0.03136802 0.03026867 0.056845386 -0.63056964 -0.08107728 -0.05697951
-0.12880515 -0.3788374 0.3991435 0.63008595 0.24961089 0.33883312 -0.4499137 0.41367668
-0.20407443 -0.3271538 0.2492944 0.429096 0.46092618 0.052057195 0.11961792 0.35830048
0.27078658 0.40808055 0.13255121 0.32848665 0.3658511 -0.07032826 -0.35548925 -0.009482271
-0.11310958 -0.3086351 -0.16526073 0.04765478 0.12850112 0.14691399 -0.2961588 -0.038177434
-0.18211204 0.14073588 0.4049774 -0.03666932 -0.4604481 -0.5538465 0.3087395 0.27275252
-0.13511293 0.30425826 0.15931964 0.2914848 0.23878185 -0.18782955 0.5164472 0.2256147
0.28283012 -0.20430396 -0.28468603 -0.02616157 0.31476146 -0.6772816 -0.066048525 -0.038307287
0.42725712 -0.101075105 -0.12728238 -0.019577911 0.496402 -0.19773284 0.34985986 0.02844774
-0.3524631 0.09748708 -0.27569932 0.76257986 -0.0044498187 0.3629182 0.36561105 0.11342564
-0.07807708 0.05886795 0.19975004 0.07794719 0.07146716 -0.6061135 0.3319965 -0.12880217
-0.04492283 -0.530176 0.09555616 0.1365453 0.49955305 0.074362546 -0.15355915 0.3823864
0.2665089 0.080221325 -0.03153726 -0.53196764 0.39391696 -0.04948486 -0.21189302 -0.035977703
-0.40553778 0.28852916 0.6689537 -0.1530138 -0.21013631 -0.029100161 -0.26878428 0.08379291
0.15038903 -0.22955072 0.5200055 -0.3249256 0.0270505 -0.04812225 -0.3002109 0.04231507
-0.3450464 0.098644525 0.062292725 0.13591099 0.025802393 0.070474274 -0.16902655 0.060810957
-0.05613476 0.07658314 -0.06787487 0.29299298 0.14938577 -0.29601306 0.11149529 0.5568429
0.13852285 -0.19524148 0.2651037 -0.12574314 0.008923051 0.011380382 0.01675327 0.102346934
-0.105275996 -0.11473121 0.40278792 0.0018327448 0.46150318 0.2754142 -0.7127767 0.0873536
0.30633098 -0.5078092 0.0444355 0.15631974 0.17148654 0.610097 -0.0504942 -0.37476832
0.17709425 -0.48695606 -0.5606541 0.41181156 0.0012169367 0.086707264 0.22548726 -0.18905231
0.11868499 -0.15963578 0.43002552 -0.2752887 0.119138 0.5246413 0.1336108 0.17938994
-0.16104226 -0.3632021 -0.31221032 0.028272454 -0.08122371 0.27765435 -0.57540673 -0.12706828
-0.12691124 -0.07738327 0.081750646 -0.13142705 0.17908892 -0.025794359 -0.13411625 0.2907641
0.16456337 -0.15442652 0.28770375 -0.03660892 -0.19794343 0.6228415 -0.3164113 -0.35722786
-0.21364197 -0.46586153 0.0119088255 -0.11203004 -0.07981219 0.32673395 0.030948624 0.037981432
0.10081651 -0.24474372 0.09801548 -0.09722246 0.32149914 0.23859704 -0.40233082 -0.008904136
0.427876 -0.23967382 0.20365413 -0.098205745 -0.46439594 0.067916326 0.30845878 -0.40999398
00000000: 5c9a c9be 48f5 823d d584 26be 621a 95be
00000010: b673 dbbe fefb f6be 458f 913e 2f4f 18bf
00000020: 8c2c 1d3e a973 f13e 3554 2ebe e67d 84be
00000030: 82a3 6cbe e711 773d 223b b13d 7a74 42be
00000040: aa58 023d e40e 923b 1766 28be 1db9 45be
00000050: 0881 b83e 6753 13bf 1949 8f3e 93e0 f43d
00000060: 1e47 653e a063 44be 2802 e4bb 5a54 873e
00000070: 28f6 e53d 6445 2cbe c14d 913e 774c 8b3e
00000080: f04a aa3e ec67 ccbc c17b 00bd 00f6 f73c
00000090: b5d6 683d 036d 21bf d80b a6bd 5963 69bd
000000a0: 7fe5 03be faf6 c1be 895c cc3e 504d 213f
000000b0: ff99 7f3e 897b ad3e 175b e6be 6ecd d33e
000000c0: e3f8 50be b480 a7be 0847 7f3e 79b2 db3e
000000d0: 84fe eb3e ed39 553d 3dfa f43d 2973 b73e
000000e0: 8aa4 8a3e efef d03e 81bb 073e 672f a83e
000000f0: d650 bb3e 4308 90bd b002 b6be 875b 1bbc
00000100: ffa5 e7bd 6b05 9ebe 1c3a 29be a931 433d
00000110: cc95 033e 9f70 163e 20a2 97be f15f 1cbd
00000120: 947b 3abe 111d 103e 3359 cf3e 9232 16bd
00000130: dabf ebbe e2c8 0dbf 1b13 9e3e 38a6 8b3e
00000140: 0b5b 0abe bdc7 9b3e b024 233e 7f3d 953e
00000150: 3b83 743e 6456 40be e235 043f 8a07 673e
00000160: 1ccf 903e 0f35 51be 5ec2 91be ca50 d6bc
00000170: 6a28 a13e 5462 2dbf 7344 87bd 1ae8 1cbd
00000180: 72c1 da3e 7700 cfbd 5056 02be db61 a0bc
00000190: 6728 fe3e 7a7a 4abe d520 b33e 3c0b e93c
000001a0: 0b76 b4be 4ea7 c73d 7628 8dbe 6f38 433f
000001b0: c9cf 91bb 6ad0 b93e 5f31 bb3e b44b e83d
000001c0: e0e6 9fbd 851f 713d 468b 4c3e c7a2 9f3d
000001d0: 605d 923d 412a 1bbf 72fb a93e b7e4 03be
000001e0: 0001 38bd 9db9 07bf f3b2 c33d 88d2 0b3e
000001f0: 6bc5 ff3e 644b 983d 9c3e 1dbe 26c8 c33e
00000200: db73 883e 144b a43d 372d 01bd 082f 08bf
00000210: 7caf c93e a3b0 4abd 7cfa 58be 5b5d 13bd
00000220: a6a2 cfbe 18ba 933e 8d40 2b3f a6af 1cbe
00000230: f92d 57be 7663 eebc 189e 89be 9e9b ab3d
00000240: 95ff 193e 580f 6bbe 151f 053f a65c a6be
00000250: 0399 dd3c d61b 45bd 3eb5 99be 9152 2d3d
00000260: eca9 b0be 2406 ca3d a826 7f3d 402c 0b3e
00000270: 8a5f d33c d154 903d 4c15 2dbe e914 793d
00000280: 90ed 65bd 9fd7 9c3d fb01 8bbd 2d03 963e
00000290: 95f8 183e 068f 97be a557 e43d 428d 0e3f
000002a0: efd8 0d3e 62ed 47be acbb 873e cfc2 00be
000002b0: fd31 123c c874 3a3c 273e 893c 459b d13d
000002c0: f19a d7bd 32f8 eabd 383a ce3e b638 f03a
000002d0: 254a ec3e 1703 8d3e 8978 36bf 72e6 b23d
000002e0: 6ad7 9c3e c9ff 01bf 0002 363d 4812 203e
000002f0: 2b9a 2f3e 512f 1c3f 02d3 4ebd a2e1 bfbe
00000300: 3258 353e 4e52 f9be 0787 0fbf f7d8 d23e
00000310: 9f81 9f3a 9493 b13d 22e6 663e ee96 41be
00000320: 1e11 f33d 9077 23be 4e2c dc3e a4f2 8cbe
00000330: a0fe f33d e44e 063f 45d1 083e ffb1 373e
00000340: 43e8 24be a0f5 b9be 08da 9fbe a29b e73c
00000350: 9e58 a6bd b628 8e3e db4d 13bf 301e 02be
00000360: 05f5 01be 1f7b 9ebd e26c a73d d094 06be
00000370: 1663 373e b14e d3bc c555 09be 08df 943e
00000380: 4d83 283e fc21 1ebe e84d 933e 3cf3 15bd
00000390: afb1 4abe 8a72 1f3f a900 a2be 92e6 b6be
000003a0: f6c4 5abe 6785 eebe 3c1d 433c 0170 e5bd
000003b0: 9374 a3bd ac49 a73e f887 fd3c 6b92 1b3d
000003c0: e378 ce3d 199e 7abe 57bc c83d 921c c7bd
000003d0: 899b a43e c852 743e 4efe cdbe a7e2 11bc
000003e0: 9012 db3e 0e6d 75be b58a 503e 1820 c9bd
000003f0: 4ec5 edbe b717 8b3d 4fee 9d3e bbea d1be

policy_net.2.bias f4 [32]
0.024099346 0.020449337 -0.051033963 0.018685019 0.0148467515 0.06879469 0.11526953 0.005364324
0.050325178 0.013940235 -0.049894135 -0.042072568 -0.06433838 0.14288393 -0.06348536 0.077044144
-0.09071401 -0.05549702 0.09036495 -0.060721263 -0.014929318 0.06957846 -0.09234466 0.10863638
0.07320407 -0.080751546 0.13301101 -0.10625864 0.025578005 0.019248825 0.016307525 -0.09699423
00000000: fe6b c53c 5e85 a73c fd08 51bd 5311 993c
00000010: ca3f 733c 3be4 8c3d 6e12 ec3d 36c7 af3b
00000020: c621 4e3d 9565 643c cb5d 4cbd 4954 2cbd
00000030: d7c3 83bd 2a50 123e 9d04 82bd 52c9 9d3d
00000040: 44c8 b9bd d850 63bd 4211 b93d dcb6 78bd
00000050: 199a 74bc 277f 8e3d 321f bdbd c07c de3d
00000060: 04ec 953d 1161 a5bd 0a34 083e 219e d9bd
00000070: f788 d13c b6af 9d3c 5c97 853c e9a4 c6bd

policy_net.4.weight f4 [32, 32]
-0.19001846 0.44785407 0.16180013 0.07204018 0.5769574 0.50871503 0.13744392 -0.022394462
-0.09923911 0.108912826 0.28639078 -0.6689565 0.5516177 -0.10281542 -0.11242646 0.3273545
0.35493496 -0.11327422 0.60433555 0.21918793 0.30694315 -0.12287875 -0.4896901 -0.2738111
-0.1900273 0.27409324 -0.016356427 0.2135979 0.22108503 0.10662651 0.1657545 -0.54063493
0.12890339 0.6641495 0.2904054 0.01271031 0.3866396 -0.06901019 -0.24641138 -0.23750529
-0.15943964 0.5442572 0.08300375 -0.35134742 0.021227594 -0.060605146 -0.20543158 0.48398668
-0.24192868 -0.123074606 0.2712795 0.38900262 -0.028527917 -0.249444 0.41554525 -0.49770272
0.1571009 0.35931358 -0.041215587 0.0077953003 -0.36729565 -0.3895526 0.23854855 0.07374111
0.4038147 0.6950681 0.018790828 -0.12982324 0.33662504 0.66080254 0.42075458 -0.30938566
-0.26164195 0.2663367 -0.4217363 0.15336947 -0.03570703 0.040875465 -0.34441903 0.520603
0.18106729 0.030553391 0.84395796 0.37781826 -0.2730981 0.26781458 0.16594474 0.12537803
-0.12260197 -0.058017455 -0.25047895 0.20547831 0.09369445 0.2899411 0.038526934 -0.02353479
-0.14938329 0.10435891 -0.70754486 -0.01056004 -0.2060972 0.20984402 0.43724602 0.17074499
0.33617562 0.29377642 0.39474884 0.123558715 -0.10620315 -0.09623896 -0.7491103 0.36840203
0.043538272 0.14621699 0.13203104 0.015606467 0.26665968 0.09509422 -0.35289842 0.14350712
0.27466816 -0.2864426 -0.15042758 -0.47899646 0.21702887 -0.01663913 0.4844082 0.14539479
0.075550854 0.4761887 0.030886875 -0.5773117 0.2034521 -0.25766283 0.16984719 -0.05663232
-0.18125945 -0.33421227 0.17106096 -0.41440555 0.17458758 -0.43324178 0.25634214 0.36227292
1.0031292 0.08324306 0.019987471 0.10573846 -0.47729483 -0.15375993 0.14891118 -0.62109923
-0.014927445 -0.059131455 0.017690765 0.027058797 -0.19426876 -0.19211505 -0.15303725 0.48423186
0.119987674 -0.55770236 -0.10579441 0.39517987 0.13792579 -0.38082665 -0.2350895 0.18147887
-0.22806253 -0.51298255 0.021752162 0.33911005 -0.3190021 0.05824936 0.40728545 -0.5797689
-0.09911699 -0.43564913 -0.17828347 -0.29344717 0.3884134 -0.10375262 -0.3162393 -0.016291855
0.27127552 0.21205257 -0.4657851 -0.0076122843 -0.27117965 0.40360686 -0.1481159 0.8391014
0.080948666 -0.8849752 -0.027206821 -0.6353529 -0.07305444 0.018896358 0.26564592 0.41572508
-0.5481918 0.65508723 0.50082093 -7.944396e-05 -0.12520786 -0.34649736 0.34933805 0.016298154
0.0723472 0.3446996 0.20732436 0.389289 -0.068582565 -0.71412855 -0.06865625 -0.090154506
0.009069612 -0.08833716 -0.10246958 0.15213147 -0.24003384 -0.09826223 -0.057731573 0.42669004
-0.3390014 0.3517014 0.069977045 -0.51983154 0.4406169 0.42623222 -0.10096951 0.29485184
-0.080724776 -0.16224623 -0.36050457 -0.25795004 -0.24438715 -0.17104775 -0.4738811 0.5548098
0.11985234 -0.5343673 0.21877219 0.21763235 -0.03459691 -0.21111195 0.4773305 0.030353194
-0.1568322 -0.07205711 0.057886742 -0.011689478 0.3430093 0.13140172 0.6218671 -0.3402978
00000000: 3394 42be 214d e53e efae 253e cd89 933d
00000010: 7bb3 133f 263b 023f 19be 0c3e 9774 b7bc
00000020: e03d cbbd b00d df3d d0a1 923e bc40 2bbf
00000030: d136 0d3f e490 d2bd d83f e6bd 029b a73e
00000040: 09ba b53e 50fc e7bd bcb5 1a3f cd72 603e
00000050: a727 9d3e dba7 fbbd a9b8 fabe f830 8cbe
00000060: 8496 42be f355 8c3e eafd 85bc 68b9 5a3e
00000070: 1d64 623e 005f da3d 8cbb 293e 0d67 0abf
00000080: 40ff 033e b405 2a3f 04b0 943e e73e 503c
00000090: a0f5 c53e 3755 8dbd 4453 7cbe 9634 73be
000000a0: 2544 23be 7154 0b3f dffd a93d cfe3 b3be
000000b0: 7ee5 ad3c 1a3d 78bd a85c 52be 1acd f73e
000000c0: 27bc 77be 8a0e fcbd 26e5 8a3e 5a2b c73e
000000d0: 61b3 e9bc 3f6e 7fbe 59c2 d43e e4d2 febe
000000e0: 0fdf 203e f3f7 b73e add1 28bd b86f ff3b
000000f0: 2d0e bcbe 7073 c7be 1246 743e 9405 973d
00000100: cdc0 ce3e fcef 313f 39ef 993c 62f0 04be
00000110: 1e5a ac3e 5b2a 293f 256d d73e cc67 9ebe
00000120: eff5 85be 495d 883e d2ed d7be e30c 1d3e
00000130: 8941 12bd 086d 273d b157 b0be 3d46 053f
00000140: b469 393e 1b4b fa3c a10d 583f 6571 c13e
00000150: 84d3 8bbe fe1e 893e 6bed 293e 1963 003e
00000160: be16 fbbd b6a3 6dbd c73e 80be e868 523e
00000170: e0e2 bf3d 2973 943e 6bce 1d3d 08cc c0bc
00000180: eff7 18be 20ba d53d a921 35bf 0504 2dbc
00000190: 250b 53be 5ae1 563e b6de df3e c6d7 2e3e
000001a0: 361f ac3e dd69 963e 851c ca3e 5a0c fd3d
000001b0: 0981 d9bd ef18 c5bd b1c5 3fbf 319f bc3e
000001c0: 3055 323d e8b9 153e 2533 073e 44b2 7f3c
000001d0: 9e87 883e c2c0 c23d 1aaf b4be 88f3 123e
000001e0: 4ea1 8c3e 9ba8 92be b009 1abe 063f f5be
000001f0: d13c 5e3e c94e 88bc 5a04 f83e 5fe2 143e
00000200: 68ba 9a3d 01cf f33e 7906 fd3c b3ca 13bf
00000210: bf55 503e 62ec 83be 6cec 2d3e 4bf7 67bd
00000220: 149c 39be df1d abbe 9b2a 2f3e f72c d4be
00000230: 16c7 323e ded1 ddbe 473f 833e d67b b93e
00000240: 8a66 803f 567b aa3d c4bc a33c 688d d83d
00000250: fd5f f4be 3e73 1dbe 2c7c 183e 5c00 1fbf
00000260: 3e92 74bc d333 72bd 39ec 903c 69aa dd3c
00000270: 64ee 46be cfb9 44be ccb5 1cbe 3ded f73e
00000280: 19bc f53d 95c5 0ebf bdaa d8bd 0455 ca3e
00000290: 6b3c 0d3e b6fb c2be 4dbb 70be 99d5 393e
000002a0: 3989 69be d352 03bf 9731 b23c d59f ad3e
000002b0: 3e54 a3be e296 6e3d b887 d03e bc6b 14bf
000002c0: d9fd cabd 670d dfbe f18f 36be b53e 96be
000002d0: 1fde c63e 417c d4bd 1eea a1be 7f76 85bc
000002e0: a0e4 8a3e 4f24 593e 627b eebe 7870 f9bb
000002f0: 0fd8 8abe 8fa5 ce3e b2ab 17be 59cf 563f
00000300: 6ac8 a53d bc8d 62bf d7e0 debc 7da6 22bf
00000310: 919d 95bd 89cc 9a3c be02 883e ebd9 d43e
00000320: 4c56 0cbf ccb3 273f cd35 003f 279b a6b8
00000330: 7d36 00be 1a68 b1be 70dc b23e b583 853c
00000340: c52a 943d 777c b03e d64c 543e e350 c73e
00000350: 0475 8cbd 21d1 36bf a69b 8cbd eda2 b8bd
00000360: b698 143c 1dea b4bd 92db d1bd 5ac8 1b3e
00000370: 6ecb 75be b53d c9bd f177 6cbd 1e77 da3e
00000380: 9791 adbe 3512 b43e 2050 8f3d ae13 05bf
00000390: 8a98 e13e 1c3b da3e 1ac9 cebd d2f6 963e
000003a0: 0853 a5bd e023 26be 0e94 b8be 0712 84be
000003b0: a040 7abe 2427 2fbe 8ba0 f2be 0408 0e3f
000003c0: 2575 f53d 4ccc 08bf d105 603e 04db 5e3e
000003d0: 7db5 0dbd bb2d 58be aa64 f43e 43a7 f83c
000003e0: 9f98 20be ae92 93bd a61a 6d3d 3985 3fbc
000003f0: ea9e af3e 2c8e 063e af32 1f3f 833b aebe

policy_net.4.bias f4 [32]
-0.07540578 -0.11977855 -0.029098993 0.08118467 -0.22116931 0.033280592 -0.13307047 -0.01676363
-0.14983629 -0.21509789 0.21980175 -0.06938262 -0.19696818 0.1807566 0.06614472 0.03655361
-0.109257706 -0.12737454 0.15901466 0.16672029 -0.07084819 -0.2473706 0.2532598 -0.13992058
0.27537766 0.09476652 -0.16803108 -0.14986047 -0.09354428 -0.13667595 -0.2638196 0.12219796
00000000: 586e 9abd 754e f5bd 0361 eebc 2644 a63d
00000010: 357a 62be 3b51 083d a043 08be e153 89bc
00000020: af6e 19be 9f42 5cbe b613 613e 7a18 8ebd
00000030: 07b2 49be 4218 393e e276 873d 3db9 153d
00000040: 81c2 dfbd 796e 02be bdd4 223e b9b8 2a3e
00000050: db18 91bd b84e 7dbe 45ab 813e 5747 0fbe
00000060: 4dfe 8c3e f314 c23d 5710 2cbe 0675 19be
00000070: 2594 bfbd c8f4 0bbe 5d13 87be ed42 fa3d

policy_net.6.weight f4 [21, 32]
-0.5639743 -0.5240361 -0.53708434 -0.24686818 -0.4211456 0.5887563 0.078166164 -0.56599796
-0.13503703 -0.38094983 0.3820512 0.048363246 -0.396929 -0.013917289 -0.26532853 0.57656866
-0.4410339 0.10508068 0.023343973 0.42799422 -0.53919995 -0.4089766 0.42398143 0.0972525
0.42098993 0.6026689 -0.06349152 -0.49885976 0.32821152 0.06557657 -0.42000967 0.38942057
0.00047283142 -0.0016758504 0.0010219483 -0.0013124105 0.0015246549 0.0031728235 -0.0029436888 0.00083829014
0.00046707902 -0.0056336145 0.0011679567 0.00045961625 0.0015715092 0.0023159862 -0.0010060663 0.0005967079
2.42599e-06 -0.00084584637 -0.0018066233 0.0024857773 0.0005238926 -0.0010346331 -0.00073650555 -0.0008543893
0.001561611 -0.000213925 -1.856443e-05 -0.0020576504 -0.0006670093 -0.0023370916 0.000105313644 0.0020727983
-0.005372812 0.0015957209 -0.0012041763 -0.0003453236 0.00018072757 -0.0005020195 -0.00057616 -0.0011439972
0.00025914054 -0.00059185206 0.00045570504 -0.0008654554 0.0006440953 -7.4994285e-05 0.0005233756 -0.0048212586
0.002870626 0.00083497167 -0.0001104744 -0.0018105119 -0.00078840164 -0.00012971272 0.0013653601 -0.00031874902
-0.00039022803 0.0001272314 0.000950267 -0.003992388 -0.0021224958 0.0004759486 0.00027451006 0.0017689802
0.001448896 -0.0006939541 -0.0018893223 -0.0027603956 0.0005543438 -0.0030307844 -0.0018855506 -0.00024902113
0.0038630262 0.0027337116 -0.0019056096 0.0015330485 0.0010297336 -0.0023606445 0.0020877295 -0.00051463424
0.0007804724 -0.00024564398 -0.0014590772 0.0034698644 -0.00014895509 -0.0016959965 -6.83219e-05 -0.001203066
0.0021314651 0.0013361879 -0.0010274632 -0.0017339925 0.0012693752 0.00041954205 -0.00092327973 0.001125004
0.00016237104 0.0017614497 0.0014171853 0.0053298883 0.0021291375 -0.00093083916 0.0008793743 0.00045262717
0.00034546296 -0.0017390659 -0.002202886 0.0027534987 0.0003479688 -0.0012631142 0.002232706 0.00038332414
0.0025670396 0.0007390271 9.892674e-05 -0.0006090649 -0.0025892705 -0.00033648818 -0.0011955429 -0.0012426163
0.0032905822 -0.00038316977 -0.00045897017 0.0015378484 -0.0017067064 -0.0019609241 -0.00010677063 -0.00015148649
-0.045841847 -0.047379546 -0.045308795 -0.018134426 -0.046142112 0.047554485 -0.038829677 -0.050416708
-0.042981066 -0.048423864 0.048811175 0.030209588 -0.048624177 0.026549738 -0.025025811 0.04646345
-0.050642885 -0.032300726 0.030458555 0.04920063 -0.046503335 -0.049086247 0.050059922 -0.038858037
0.047026947 0.04986861 -0.048621453 -0.050390963 0.023108203 -0.04129592 -0.049398877 0.044693068
-0.3746106 -0.3782711 -0.37144768 -0.30345356 -0.37442046 0.35105562 -0.38216507 -0.37151748
-0.3799267 -0.3747513 0.37438688 0.353418 -0.376002 0.40440932 -0.3510773 0.35091174
-0.37582928 -0.39140907 0.41343892 0.375802 -0.3778228 -0.37629735 0.3728965 -0.384126
0.372138 0.35368967 -0.37410715 -0.37484285 0.2572487 -0.38654062 -0.37294146 0.378001
-0.3877339 -0.3777278 -0.4045685 0.16283563 -0.36974815 0.42216167 -0.40735635 -0.39671865
-0.37103176 -0.37355015 0.36730188 -0.21345137 -0.3730461 -0.06465521 0.1340531 0.43075442
-0.37599468 -0.38308167 -0.07088717 0.36868304 -0.38624677 -0.36917728 0.36927527 -0.3826881
0.37102595 0.4025772 -0.3693976 -0.3780039 -0.18559834 -0.38777274 -0.37043145 0.37260124
00000000: 9f60 10bf 3b27 06bf 5c7e 09bf 03cb 7cbe
00000010: 65a0 d7be bcb8 163f 9515 a03d 3ee5 10bf
00000020: 2647 0abe db0b c3be 379c c33e 8a18 463d
00000030: 473a cbbe 5705 64bc 24d9 87be 019a 133f
00000040: 32cf e1be 8a34 d73d dc3b bf3c 0f22 db3e
00000050: 0209 0abf 6265 d1be 1814 d93e 522c c73d
00000060: fe8b d73e 8248 1a3f d807 82bd 8c6a ffbe
00000070: 570b a83e 024d 863d 820b d7be 2262 c73e
00000080: 5ce6 f739 35a8 dbba e5f2 853a 3005 acba
00000090: eed6 c73a 25ef 4f3b e7ea 40bb b3c0 5b3a
000000a0: 49e2 f439 2f9a b8bb 2016 993a a6f8 f039
000000b0: 19fb cd3a cdc7 173b fcdd 83ba 646c 1c3a
000000c0: 31ce 2236 cabb 5dba 38cc ecba 6ce8 223b
000000d0: d655 093a 879c 87ba 0d12 41ba 18f9 5fba
000000e0: f8ae cc3a 0e51 60b9 cfba 9bb7 a5d9 06bb
000000f0: 3dda 2eba e429 19bb d5db dc38 c9d7 073b
00000100: 6a0e b0bb 8227 d13a 74d5 9dba 8d0c b5b9
00000110: b081 3d39 f599 03ba 7109 17ba 2df2 95ba
00000120: 41dd 8739 8526 1bba b2eb ee39 bbdf 62ba
00000130: 81d8 283a 4046 9db8 2433 093a a6fb 9dbb
00000140: 1d21 3c3b 00e2 5a3a 7eae e7b8 b34e edba
00000150: bdac 4eba 7e03 08b9 e2f5 b23a c51d a7b9
00000160: 8597 ccb9 6b69 0539 571b 793a 94d2 82bb
00000170: 9219 0bbb bd88 f939 1eec 8f39 20dd e73a
00000180: e2e8 bd3a 79ea 35ba 23a3 f7ba c1e7 34bb
00000190: 6251 113a 20a0 46bb 9424 f7ba 0d8f 82b9
000001a0: d32a 7d3b 1228 333b a6c5 f9ba 92f0 c83a
000001b0: 20f8 863a 0bb5 1abb 4ad2 083b 85e8 06ba
000001c0: 9e98 4c3a c7c9 80b9 823e bfba aa66 633b
000001d0: d430 1cb9 334c deba 0a48 8fb8 32b0 9dba
000001e0: 0db0 0b3b 0723 af3a f2ab 86ba 2247 e3ba
000001f0: 2a61 a63a fbf5 db39 4108 72ba df74 933a
00000200: 2542 2a39 72e0 e63a d9c0 b93a 58a6 ae3b
00000210: 0089 0b3b 8f03 74ba cf85 663a 974e ed39
00000220: 411f b539 5ef1 e3ba 4b5e 10bb 0b74 343b
00000230: 956f b639 148f a5ba 9752 123b e5f8 c839
00000240: c73b 283b 45bb 413a e476 cf38 a7a9 1fba
00000250: c0b0 29bb ae6a b0b9 c3b3 9cba 49df a2ba
00000260: cfa6 573b 2de4 c8b9 efa1 f0b9 a191 c93a
00000270: 90b3 dfba d982 00bb 0cea dfb8 58d8 1eb9
00000280: a9c4 3bbd 0e11 42bd b795 39bd a68e 94bc
00000290: 83ff 3cbd 7ec8 423d de0b 1fbd c081 4ebd
000002a0: ea0c 30bd 1a58 46bd 3aee 473d 197a f73c
000002b0: 252a 47bd d67e d93c ee02 cdbc 7550 3e3d
000002c0: ea6e 4fbd c44d 04bd 3884 f93c 9a86 493d
000002d0: 487a 3ebd a90e 49bd a20b 4d3d 9b29 1fbd
000002e0: 549f 403d 0743 4c3d 4a27 47bd c166 4ebd
000002f0: 6a4d bd3c e925 29bd 7a56 4abd 1410 373d
00000300: f6cc bfbe c0ac c1be 642e bebe 445e 9bbe
00000310: 0ab4 bfbe 90bd b33e 24ab c3be 8a37 bebe
00000320: c185 c2be 67df bfbe a3af bf3e 34f3 b43e
00000330: 5683 c0be bd0e cf3e 67c0 b3be b4aa b33e
00000340: b26c c0be c566 c8be 44ae d33e 1f69 c03e
00000350: fd71 c1be 0caa c0be 4aec be3e 2aac c4be
00000360: df88 be3e d016 b53e f98a bfbe 67eb bfbe
00000370: 1ab6 833e a7e8 c5be 2ff2 bebe 5989 c13e
00000380: 0f85 c6be 8a65 c1be 9a23 cfbe 62be 263e
00000390: a14f bdbe 9325 d83e 0391 d0be b51e cbbe
000003a0: e0f7 bdbe f741 bfbe fe0e bc3e ff92 5abe
000003b0: e6ff bebe f369 84bd 3745 093e d88b dc3e
000003c0: 6082 c0be 4823 c4be 4b2d 91bd 06c4 bc3e
000003d0: 23c2 c5be ce04 bdbe a611 bd3e b2ef c3be
000003e0: 1df7 bd3e 991e ce3e af21 bdbe ba89 c1be
000003f0: 7e0d 3ebe 268a c6be 31a9 bdbe 97c5 be3e

policy_net.6.bias f4 [21]
0.41222906 0.0 0.0 0.0 0.0 0.047938533 0.37416115 0.37162423
0.29257837 -0.097975954 -0.15410022 -0.009662997 -0.10925882 0.15010849 -0.19058475 -0.18356499
-0.21818945 -0.1985331 -0.21988666 -0.20207895 -0.123433195
00000000: b00f d33e 0000 0000 0000 0000 0000 0000
00000010: 0000 0000 325b 443d 0d92 bf3e 8845 be3e
00000020: d5cc 953e 9ea7 c8bd 73cc 1dbe 8c51 1ebc
00000030: 17c3 dfbd 0ab6 193e a628 43be 76f8 3bbe
00000040: 0e6d 5fbe 434c 4bbe f829 61be c9ed 4ebe
00000050: 8bca fcbd

value_net.0.weight f4 [32, 770]
0.041638684 0.10051775 -0.042902406 0.00040643278 0.004199351 0.036074802 -0.053911187 0.0023991428
0.027673984 0.046039063 0.0022050415 0.016741117 0.015217107 0.057008445 -0.11295576 -0.026863534
0.013906081 0.057928424 0.008491751 -0.024176612 -0.0021345182 0.006922789 0.045653075 0.059749205
0.017831525 0.06235891 0.07867546 0.036209043 0.046808526 -0.025744315 0.049742736 -0.0039693606
0.07785936 -0.044626623 0.058973353 -0.031407643 0.041050408 0.0273542 -0.02723558 0.017743481
-0.06477174 -0.016394831 -0.013244887 -0.012442231 0.018353067 0.005443738 0.039539754 0.057300672
-0.044610217 0.003569949 0.044311114 0.01780217 -0.07419139 0.022763062 0.07143786 -0.06629374
0.034998085 0.03275866 0.07989835 0.030761288 0.08451043 0.12935196 0.09103666 -0.099038854
-0.09815776 -0.008706539 0.033603854 0.02021838 -0.009156861 -0.036136974 0.007956696 -0.045952547
-0.12008872 0.036492515 0.03580154 0.0004398547 0.033930603 0.0010683892 0.0053077377 0.064920366
0.05481437 0.021252628 -0.020158203 -0.03251492 0.011902058 -0.035610408 -0.06816124 -0.056280863
-0.0054117437 -0.011417919 0.045871172 0.022051446 -0.0007038931 -0.031412028 0.05732609 -0.052915465
0.04246432 0.026400961 0.008277781 0.011309894 0.049482465 -0.000274087 0.088251166 0.062329743
0.07201659 0.042476896 0.00094758434 0.039192595 -0.03640758 -0.05454385 0.017430801 0.063246444
0.053859428 0.009144529 0.056937564 0.080443665 0.019688765 0.06088237 0.06189348 -0.031408288
0.007608986 0.046606507 0.07936507 0.137128 0.006939979 -0.027560301 0.03129637 0.014335864
-0.0011740924 -0.067514464 -0.019588456 0.10478671 0.004577534 -0.08654388 0.1254332 0.037435364
0.04120663 -0.00014680417 -0.03978668 -0.014940762 0.04900259 0.057598904 0.060947295 0.09740246
0.011233544 -0.047309373 0.051240053 0.07602772 0.021435026 -0.064528875 0.05965804 -0.034891736
0.06672801 0.018744288 -0.020432835 -0.022509493 -0.057789396 0.06426155 0.013410851 -0.007470973
0.050584834 0.020704143 -0.007060256 0.057647046 -0.004650796 0.020958323 0.042757165 0.072318204
0.06736675 -0.07597123 0.044902574 0.03435702 -0.04370946 -0.057409972 0.016124828 0.04671907
0.020980984 0.04631489 -0.015215975 -0.007711143 -0.011173592 0.1144977 0.0044472064 -0.020386973
0.058918636 0.04543485 -0.014646931 -0.07701754 -0.029402973 -0.009682076 0.017538948 0.017284673
-0.0045052017 -0.050746594 -0.07070606 -0.027639281 -0.06205806 -0.04160862 0.036138143 -0.008314967
0.09748465 -0.022301588 0.0979648 0.13197482 0.02231483 0.016347371 -0.07057702 -0.002421183
-0.063377954 0.01365873 -0.04436503 0.10390845 0.011056214 -0.03236471 0.02974924 0.023239793
-0.02503282 0.022556419 -0.00920184 -0.0067555048 0.06946998 -0.044086915 0.08600131 -0.0056844545
-0.033861164 0.020642709 -0.061390266 0.17325039 0.006217499 -0.051829733 -0.0284123 -0.020077476
0.022291178 0.03052741 -0.00031670328 0.0305457 0.09119118 -0.01866832 0.03827374 -0.05855655
0.05013669 0.081418216 -0.11165419 -0.0357546 -0.07930725 0.042556867 0.01185825 0.024081655
0.058588587 -0.037785705 0.043256972 0.03905654 0.07250098 0.02698731 0.04834943 0.04786847
00000000: 538d 2a3d 40dc cd3d 6fba 2fbd 7c16 d539
00000010: b69a 893b 2cc3 133d fad1 5cbd f03a 1d3b
00000020: 8db4 e23c 7593 3c3d 7582 103b ab24 893c
00000030: 2c51 793c b081 693d 5955 e7bd ea10 dcbc
00000040: 55d6 633c 5b46 6d3d fc20 0b3c 080e c6bc
00000050: 46e3 0bbb 90d8 e23b b8fe 3a3d 95bb 743d
00000060: 6b13 923c 0e6c 7f3d 9920 a13d ef4f 143d
00000070: 4cba 3f3d bee5 d2bc 0abf 4b3d 6911 82bb
00000080: ba74 9f3d 68ca 36bd 0b8e 713d 4da5 00bd
00000090: 7924 283d ea15 e03c 271d dfbc c75a 913c
000000a0: 0ca7 84bd 744e 86bc 1501 59bc 80da 4bbc
000000b0: 2c59 963c 6261 b23b 70f4 213d 1cb4 6a3d
000000c0: 34b9 36bd cef5 693b 927f 353d dbd5 913c
000000d0: a8f1 97bd 9a79 ba3c 034e 923d 03c5 87bd
000000e0: 275a 0f3d f22d 063d bfa1 a33d 19ff fb3c
000000f0: ce13 ad3d d774 043e 6e71 ba3d e2d4 cabd
00000100: f006 c9bd dfa5 0ebc 32a4 093d 04a1 a53c
00000110: a906 16bc 5d04 14bd cd5c 023c bd38 3cbd
00000120: 13f1 f5bd 2d79 153d a3a4 123d 4c9c e639
00000130: d1fa 0a3d 3109 8c3a 88ec ad3b f8f4 843d
00000140: 0885 603d fe19 ae3c d122 a5bc 5d2e 05bd
00000150: d900 433c 38dc 11bd 1f98 8bbd c386 66bd
00000160: ff54 b1bb 3912 3bbc 69e3 3b3d 3ca5 b43c
00000170: 7785 38ba e6a9 00bd c3ce 6a3d e3bd 58bd
00000180: 11ef 2d3d d446 d83c 889f 073c 224d 393c
00000190: 20ae 4a3d 56b3 8fb9 07bd b43d 794d 7f3d
000001a0: 6f7d 933d 41fc 2d3d 4f67 783a 6a88 203d
000001b0: 1d20 15bd 5f69 5fbd 0acb 8e3c 5a87 813d
000001c0: b49b 5c3d efd2 153c 5d37 693d a6bf a43d
000001d0: 554a a13c cb5f 793d 0584 7d3d faa5 00bd
000001e0: cd54 f93b 77e6 3e3d 278a a23d 486b 0c3e
000001f0: c368 e33b 24c6 e1bc 9f30 003d f9e0 6a3c
00000200: 01e4 99ba 0645 8abd f877 a0bc 6a9a d63d
00000210: 23ff 953b eb3d b1bd 9071 003e d355 193d
00000220: 49c8 283d 72ef 19b9 5cf7 22bd 19ca 74bc
00000230: f1b6 483d d4ec 6b3d dfa3 793d f17a c73d
00000240: e60c 383c 79c7 41bd 17e1 513d 6cb4 9b3d
00000250: 8298 af3c b727 84bd fd5b 743d a3ea 0ebd
00000260: b2a8 883d 9f8d 993c c362 a7bc d465 b8bc
00000270: 93b4 6cbd 8f9b 833d 30b9 5b3c 10cf f4bb
00000280: 0b32 4f3d bc9b a93c b859 e7bb 4f1f 6c3d
00000290: b465 98bb cab0 ab3c 2322 2f3d 911b 943d
000002a0: 94f7 893d ce96 9bbd c3eb 373d f2b9 0c3d
000002b0: b108 33bd b826 6bbd 3718 843c 7f5c 3f3d
000002c0: 50e0 ab3c afb4 3d3d 6d4c 79bc c1ad fcbb
000002d0: 7111 37bc c57d ea3d dfb9 913b 9502 a7bc
000002e0: ab54 713d e519 3a3d aef9 6fbc 5fbb 9dbd
000002f0: 81de f0bc 92a1 1ebc d7ad 8f3c 9698 8d3c
00000300: 5fa0 93bb a9db 4fbd 57ce 90bd c66b e2bc
00000310: 9830 7ebd cd6d 2abd 9705 143d 803b 08bc
00000320: 08a6 c73d d2b1 b6bc c5a1 c83d 6824 073e
00000330: 97cd b63c ecea 853c af8a 90bd b6ac 1ebb
00000340: 4dcc 81bd dec8 5f3c 1bb8 35bd f4cd d43d
00000350: 1f25 353c dc90 04bd aeb4 f33c 6161 be3c
00000360: a111 cdbc 3dc8 b83c 50c3 16bc 485d ddbb
00000370: 4746 8e3d 7b94 34bd 7421 b03d a944 babb
00000380: 01b2 0abd e61a a93c 5c74 7bbd 8d68 313e
00000390: 29bc cb3b 6a4b 54bd e9c0 e8bc 8579 a4bc
000003a0: fd9b b63c 9e14 fa3c 320b a6b9 fa3a fa3c
000003b0: 71c2 ba3d 4eee 98bc edc4 1c3d fed8 6fbd
000003c0: 215c 4d3d 98be a63d f4aa e4bd 6a73 12bd
000003d0: d76b a2bd 1c50 2e3d 1b49 423c e446 c53c
000003e0: 96fa 6f3d 2fc5 1abd 392e 313d c0f9 1f3d
000003f0: 657b 943d 7e14 dd3c 0d0a 463d bb11 443d

value_net.0.bias f4 [32]
0.030395877 0.02430072 0.011731923 -0.03677096 -0.025710769 -0.04039477 0.046271015 0.032471817
-0.0043816175 -0.034606345 -0.029422762 -0.01643072 0.002153398 -0.0095791295 -0.033019185 -0.03067522
-0.03881669 0.024429435 -0.014480277 0.013908079 -0.021802522 -0.056635275 0.030755801 -0.034561943
0.032162827 -0.0019391859 -0.021035254 -0.0035278706 0.0013353387 0.041557696 -0.020783534 0.010432324
00000000: c600 f93c 4e12 c73c 4037 403c 259d 16bd
00000010: 649f d2bc fd74 25bd ad86 3d3d 2b01 053d
00000020: ac93 8fbb 62bf 0dbd 0108 f1bc b899 86bc
00000030: 0620 0d3b c8f1 1cbc 203f 07bd 994a fbbc
00000040: 40fe 1ebd 3d20 c83c af3e 6dbc b6de 633c
00000050: 349b b2bc 64fa 67bd 97f3 fb3c d390 0dbd
00000060: 2bbd 033d 482c feba 2052 acbc d933 67bb
00000070: 8806 af3a 6738 2a3d 3b42 aabc 57ec 2a3c

value_net.2.weight f4 [32, 32]
0.28911445 -0.1524308 -0.019460533 0.25218058 0.5304532 -0.50957507 0.4255038 -0.0156042725
-0.24932857 0.041412212 -0.26457736 -0.008099662 0.5667809 -0.25833875 -0.6119212 -0.5138019
-0.25184157 0.22721116 -0.29488125 -0.112185076 0.06962651 0.18084057 -0.25432667 -0.10247108
0.056387603 0.06998692 -0.29462692 -0.064102076 0.1597283 0.12899877 -0.33156878 0.14427058
-0.2144334 -0.03367712 0.054028865 0.2735969 0.2384535 0.14157131 0.11998967 -0.43414277
0.2615097 -0.038858775 0.032296054 0.30782777 -0.30150688 -0.19054143 0.30407423 0.44943327
-0.44487813 0.15550523 -0.09261817 0.08988532 0.11153709 -0.024712393 -0.12597 0.5974512
0.093969025 -0.30831838 -0.08108823 -0.1710803 -0.5641668 0.076130554 -0.10701474 0.37370062
-0.18998866 -0.15558328 0.32754943 0.36012474 0.1526774 0.43817788 0.043815248 0.01749971
-0.29968712 0.15900283 0.33372384 0.44823626 -0.032987546 -0.1255182 0.2465587 -0.27759016
0.041768372 0.32300362 -0.061210763 0.22278605 -0.2598501 -0.21071629 -0.3406393 0.09649118
0.4819516 -0.009985443 -0.5678008 0.7865909 -0.12309267 -0.076997094 0.12445085 -0.115921065
-0.3993962 -0.42192626 0.30298743 0.14405575 0.04573211 0.48145854 -0.42050475 -0.05613177
-0.24636222 0.18748012 -0.32961673 0.5379222 0.32017878 -0.15718454 -0.40086398 -0.12800136
0.6434651 -0.19295852 0.13474295 0.038082894 -0.093700245 -0.24997723 -0.21727228 0.10496818
-0.051632017 -0.17641559 0.06215223 -0.2155897 0.14048201 -0.0847698 0.22302274 0.28771424
0.13641267 -0.2602455 -0.604684 -0.09898982 0.26011723 -0.18573028 0.19955838 -0.09746667
-0.17309035 0.041888267 -0.058639124 0.1846403 -0.029733883 0.058870304 0.19981499 0.5346479
-0.057732128 -0.27492297 0.05607588 -0.053919632 0.21183634 -0.55060387 0.46097937 0.068642564
0.28333637 -0.39990196 0.38301286 0.050385002 -0.14407063 -0.1322673 0.2013745 -0.49838853
-0.16543695 0.119836874 0.120207146 -0.21449092 0.40289614 0.2211956 -0.21608083 -0.27320608
0.08646793 0.123240344 -0.31503204 0.13587087 0.325645 0.10200724 0.5744101 0.05967929
0.10880413 0.091002226 0.2796067 0.0042119035 0.0048051695 0.6005144 -0.3456326 0.32070622
-0.084744245 -0.35913846 0.14723793 0.52944314 0.29089838 -0.23989145 0.10485208 0.01825077
0.03232024 -0.48800036 -0.14332011 0.3468089 -0.09131536 -0.47037748 -0.3753593 0.0037531261
-0.30902025 -0.119934544 0.01877821 0.48378414 0.1533114 -0.24451335 0.09700728 0.7183146
0.029895721 0.120065674 -0.033791263 -0.07753764 0.23305446 0.29912102 0.16902019 -0.3167366
-0.025751052 0.30179155 0.16160163 0.3353118 0.2438494 0.31872278 0.10786016 0.18009986
0.364021 0.049032826 0.23145325 0.23592348 -0.060899086 0.26848236 0.06738173 0.02721179
0.27636757 -0.22516547 -0.2253561 -0.1457556 0.44745702 -0.85957587 -0.47384688 -0.28744608
-0.12866203 0.015157033 0.07538627 -0.523758 -0.09301103 -0.0617547 0.33208314 -0.07239068
-0.19057329 -0.110834315 0.035471603 0.5169458 -0.015573959 0.18127114 -0.38893285 0.1138443
00000000: cf06 943e d216 1cbe b26b 9fbc d01d 813e
00000010: c8cb 073f 8373 02bf a2db d93e 10a9 7fbc
00000020: fd4f 7fbe da9f 293d af76 87be 72b4 04bc
00000030: 8e18 113f fa44 84be dea6 1cbf 8588 03bf
00000040: 61f1 80be 0baa 683e adfa 96be 4ac1 e5bd
00000050: 5898 8e3d 452e 393e 1b37 82be 5cdc d1bd
00000060: b0f6 663d 4d55 8f3d 57d9 96be f347 83bd
00000070: d18f 233e 4118 043e 62c3 a9be abbb 133e
00000080: 6e94 5bbe 05f1 09bd 5f4d 5d3d e514 8c3e
00000090: 282d 743e 12f8 103e 25bd f53d f647 debe
000000a0: 99e4 853e 612a 1fbd de48 043d 9a9b 9d3e
000000b0: 1c5f 9abe 4b1d 43be 9eaf 9b3e 1e1c e63e
000000c0: 11c7 e3be c33c 1f3e 98ae bdbd cb15 b83d
000000d0: 8f6d e43d a571 cabc 48fe 00be 90f2 183f
000000e0: d572 c03d e8db 9dbe 9611 a6bd ad2f 2fbe
000000f0: 3c6d 10bf 56ea 9b3d 8b2a dbbd b055 bf3e
00000100: 638c 42be 3951 1fbe 8fb4 a73e 4562 b83e
00000110: 7757 1c3e da58 e03e 9e77 333d 8d5b 8f3c
00000120: 9770 99be a3d1 223e dadd aa3e 397f e53e
00000130: f31d 07bd d887 00be e279 7c3e 4c20 8ebe
00000140: 5015 2b3d bb60 a53e 23b8 7abd 0722 643e
00000150: 130b 85be 03c6 57be 4668 aebe 2b9d c53d
00000160: 5cc2 f63e fc99 23bc 655b 11bf 055e 493f
00000170: 0318 fcbd a7b0 9dbd 16e0 fe3d 0668 edbd
00000180: a97d ccbe b806 d8be 2b21 9b3e 5a83 133e
00000190: 9851 3b3d bc81 f63e 664c d7be 6dea 65bd
000001a0: 6146 7cbe cafa 3f3e 86c3 a8be 45b5 093f
000001b0: 79ee a33e fcf4 20be 0b3e cdbe ca12 03be
000001c0: 21ba 243f eb96 45be 0efa 093e cffc 1b3d
000001d0: eae5 bfbd 08fa 7fbe a07c 5ebe 8ff9 d63d
000001e0: 187c 53bd 4aa6 34be 5693 7e3d 8cc3 5cbe
000001f0: 84da 0f3e ca9b adbd 1360 643e 484f 933e
00000200: c3af 0b3e e63e 85be 92cc 1abf 2dbb cabd
00000210: 162e 853e 1430 3ebe 0859 4c3e 9b9c c7bd
00000220: 993e 31be 0893 2b3d 942f 70bd 5912 3d3e
00000230: 7994 f3bc fd21 713d 4d9c 4c3e afde 083f
00000240: 8678 6cbd b4c2 8cbe d2af 653d d5da 5cbd
00000250: a0eb 583e 60f4 0cbf 7d05 ec3e 7994 8c3d
00000260: 7711 913e f3bf ccbe 431a c43e 8160 4e3d
00000270: 4087 13be 1471 07be 1e35 4e3e c82c ffbe
00000280: 4e68 29be 096d f53d 2a2f f63d 82a3 5bbe
00000290: 6748 ce3e 1981 623e 4b44 5dbe abe1 8bbe
000002a0: 1916 b13d 6f65 fc3d e14b a1be bc21 0b3e
000002b0: f1ba a63e 2ce9 d03d 8a0c 133f 4572 743d
000002c0: b3d4 de3d 605f ba3d 9c28 8f3e 0204 8a3b
000002d0: af74 9d3b 50bb 193f c2f6 b0be 9b33 a43e
000002e0: 648e adbd ffe0 b7be 8ac5 163e 9689 073f
000002f0: a2f0 943e 1ba6 75be b0bc d63d a482 953c
00000300: 3a62 043d 2fdb f9be 82c2 12be f090 b13e
00000310: 8c03 bbbd 51d5 f0be 182f c0be 02f7 753b
00000320: e737 9ebe 3ea0 f5bd c3d4 993c 8eb2 f73e
00000330: aafd 1c3e b561 7abe c1ab c63d 77e3 373f
00000340: dfe7 f43c fee4 f53d b568 0abd 0ecc 9ebd
00000350: d4a5 6e3e 6426 993e a113 2d3e 4d2b a2be
00000360: dff3 d2bc 6c84 9a3e e67a 253e fdad ab3e
00000370: a8b3 793e a22f a33e cae5 dc3d 196c 383e
00000380: f660 ba3e a5d6 483d 1502 6d3e ed95 713e
00000390: 5271 79bd 8576 893e 6fff 893d 43eb de3c
000003a0: 0d80 8d3e c791 66be c0c3 66be f540 15be
000003b0: 1619 e53e 2a0d 5cbf 0f9c f2be 222c 93be
000003c0: fbbf 03be 3455 783c 1e64 9a3d 0115 06bf
000003d0: 917c bebd 7ff2 7cbd cd06 aa3e 9141 94bd
000003e0: a525 43be 1afd e2bd ac4a 113d 8f56 043f
000003f0: eb29 7fbc 249f 393e 3522 c7be 3327 e93d

value_net.2.bias f4 [32]
0.046636708 -0.082243934 -0.10139496 -0.11134119 0.105570704 -0.05357814 0.0025616325 0.040704206
0.11064338 0.020605315 -0.013811333 -0.0023920764 -0.15189192 0.032464452 0.08166487 0.030655898
0.07668669 0.056706253 -0.0034851742 0.04354174 -0.06061929 0.06677471 0.036524653 0.11741387
-0.12775797 -0.009290841 0.028647052 -0.08287359 0.019610686 0.0034505175 -0.038244125 -0.026971515
00000000: 2206 3f3d 826f a8bd 29a8 cfbd da06 e4bd
00000010: 7435 d83d c074 5bbd 10e1 273b 74b9 263d
00000020: ff98 e23d 7acc a83c ee48 62bc 62c4 1cbb
00000030: 8e89 1bbe 72f9 043d e93f a73d 1422 fb3c
00000040: e90d 9d3d d144 683d 8567 64bb d358 323d
00000050: ef4b 78bd 2ec1 883d e09a 153d af76 f03d
00000060: fcd2 02be 9d38 18bc 39ad ea3c a1b9 a9bd
00000070: 97a6 a03c 1422 623b dfa5 1cbd 5ef3 dcbc

value_net.4.weight f4 [32, 32]
-0.10390793 -0.19809154 -0.0051714783 -0.06998815 0.09816459 0.3518036 0.033629756 -0.49104849
-0.30421147 -0.069342926 -0.25331932 -0.28428742 -0.27668163 -0.060151484 0.17878571 -0.31238455
-0.7292012 -0.2956997 0.111666396 -0.53366196 0.31424165 -0.22608985 -0.0051375963 -0.18172327
-0.089689456 0.21254133 0.13728665 0.15259531 0.015702268 -0.37909248 0.24468349 0.100644395
-0.1230947 0.34590057 0.47574958 0.2907248 -0.35771596 0.44284227 0.28901228 -0.046802115
-0.13993847 0.008160441 -0.050657403 -0.23057337 0.11008552 -0.30982295 -0.18583363 -0.125777
-0.18624187 -0.1655738 -0.020785855 0.18141681 -0.19239493 -0.08006035 0.11817245 -0.6830181
0.1032619 0.11910598 -0.35465598 0.23614518 -0.15172191 0.40091738 0.37423036 -0.40900248
-0.0054981206 -0.17759992 0.3496256 -0.17072417 0.23173633 -0.21618727 -0.100298956 0.4090139
0.27223355 -0.27588022 0.353362 -0.1423892 -0.30249372 -0.3502918 -0.31790516 -0.010460898
0.16344923 -0.014730857 0.071468905 -0.47469205 -0.1601078 0.2390051 0.4646063 0.52511215
0.37599114 0.10893663 -0.4346355 -0.2667879 -0.09521255 -0.0070892363 -0.12372259 0.24429749
0.08077775 -0.022016998 0.76985085 0.4257938 0.0012536163 -0.051939297 0.31871998 -0.31308746
-0.72622985 0.0971138 -0.17758512 -0.14475676 0.17897825 -0.01988549 0.23491947 -0.104247004
0.013290614 -0.06308972 0.32830068 0.16004393 0.46499535 -0.18973945 -0.62346137 -0.2801341
0.23043877 -0.010918224 0.018618153 0.17327783 -0.21006444 -0.040977407 -0.23454407 0.22549142
-0.1469072 -0.3182176 0.597286 -0.13202623 0.040098544 -0.10672347 -0.06065671 0.04380605
-0.24497382 0.07393104 0.309698 0.04834076 -0.19817649 0.51757413 -0.14696 -0.21762647
0.013066317 0.08537806 0.023981676 -0.18870151 -0.27915272 0.25354028 -0.25513935 -0.0850295
-0.2539982 0.020420903 0.101273134 -0.076628745 0.5768991 0.12895449 0.35287037 -0.20040205
0.07171178 0.39813778 -0.095115796 0.25105673 0.18115297 -0.15694638 0.39411575 -0.21182697
0.09946681 -0.29141268 0.5528292 -0.13772461 0.09598787 0.32134065 -0.068809055 -0.23803939
0.19076234 0.25621173 0.02448056 -0.23309276 0.20962916 -0.604779 0.08253097 0.18709719
-0.24790467 0.15444724 -0.23194577 0.32171112 0.232325 -0.13996741 0.03691417 -0.27328357
-0.19476978 0.033628594 0.05636065 -0.5136488 0.06876306 -0.2742718 -0.34122944 -0.29971504
-0.05351402 0.1045406 0.11577388 0.17721896 -0.46447936 -0.063506186 -0.0430175 0.4497469
0.035936452 -0.47090417 0.07936282 0.41524014 0.15477143 -0.20325917 -0.046731643 0.14967051
-0.34186813 -0.33244047 -0.4554178 0.22950119 -0.40502107 0.29934108 0.13672645 0.13605613
-0.37518683 -0.2993415 -0.056937978 0.44121027 -0.023505159 -0.014262999 0.11252853 0.020809337
-0.096876726 0.091360524 -0.44042814 0.22597465 -0.08403361 0.14583822 -0.17335498 0.11764271
0.3457136 0.09771051 0.43986908 -0.19638172 0.01031823 -0.20038071 0.58261067 0.10452268
-0.2697139 0.14342082 0.2890358 0.08955512 -0.2096735 0.15719976 0.14144456 0.11378863
00000000: aecd d4bd 82d8 4abe 8175 a9bb f255 8fbd
00000010: 840a c93d 9a1f b43e 5bbf 093d b56a fbbe
00000020: 9bc1 9bbe aa03 8ebd 12b3 81be 1f8e 91be
00000030: 37a9 8dbe 6761 76bd 9a13 373e def0 9fbe
00000040: eeac 3abf f365 97be 5ab1 e43d 129e 08bf
00000050: 48e4 a03e 1984 67be 4859 a8bb aa15 3abe
00000060: 1baf b7bd 6fa4 593e df94 0c3e f241 1c3e
00000070: 0ba2 803c 6918 c2be 4f8e 7a3e a61e ce3d
00000080: 1319 fcbd e119 b13e 7395 f33e e2d9 943e
00000090: 8c26 b7be 39bc e23e 6bf9 933e 93b3 3fbd
000000a0: 084c 0fbe 5fb3 053c 237e 4fbd 6d1b 6cbe
000000b0: 8474 e13d 1da1 9ebe 2c4b 3ebe b0cb 00be
000000c0: 30b6 3ebe 2e8c 29be 1947 aabc 54c5 393e
000000d0: 2d03 45be aef6 a3bd 6604 f23d 46da 2ebf
000000e0: fa7a d33d d6ed f33d 7895 b5be 0bd0 713e
000000f0: fd5c 1bbe 0b45 cd3e 1f9b bf3e c668 d1be
00000100: 9429 b4bb c1dc 35be 2002 b33e 51d2 2ebe
00000110: 4a4c 6d3e 3260 5dbe 8a69 cdbd 456a d13e
00000120: 3262 8b3e 2c40 8dbe ddeb b43e 79ce 11be
00000130: 75e0 9abe 7259 b3be 77c4 a2be 3064 2bbc
00000140: 3c5f 273e b159 71bc 4a5e 923d d60a f3be
00000150: 4df3 23be c1bd 743e e1e0 ed3e c06d 063f
00000160: e981 c03e 2b1a df3d 8b88 debe 6c98 88be
00000170: ccfe c2bd d34c e8bb 4562 fdbd 1f29 7a3e
00000180: ce6e a53d fe5c b4bc f214 453f a501 da3e
00000190: 6250 a43a 4dbe 54bd 442f a33e 004d a0be
000001a0: 33ea 39bf 9ae3 c63d e0d8 35be 1e3b 14be
000001b0: 1346 373e e5e6 a2bc bb8e 703e 747f d5bd
000001c0: e0c0 593c 2f35 81bd 0717 a83e 8ee2 233e
000001d0: df13 ee3e 0f4b 42be 2a9b 1fbf bd6d 8fbe
000001e0: 24f8 6b3e 5ae2 32bc 1985 983c be6f 313e
000001f0: 221b 57be edd7 27bd 522c 70be 39e7 663e
00000200: d76e 16be 6bed a2be bce7 183f e231 07be
00000210: 5f3e 243d d691 dabd 2c73 78bd f96d 333d
00000220: 6bda 7abe 2869 973d bc90 9e3e f600 463d
00000230: c7ee 4abe bd7f 043f af7c 16be 79d9 5ebe
00000240: 1b14 563c b1da ae3d 3875 c43c f83a 41be
00000250: 1bed 8ebe 08d0 813e a0a1 82be f223 aebd
00000260: 0d0c 82be bd49 a73c 4a68 cf3d 88ef 9cbd
00000270: a9af 133f a50c 043e 6dab b43e 3236 4dbe
00000280: a0dd 923d b7d8 cb3e 12cc c2bd 828a 803e
00000290: 2a80 393e 8db6 20be 8ac9 c93e 2be9 58be
000002a0: 41b5 cb3d 0b34 95be 3786 0d3f ae07 0dbe
000002b0: 4a95 c43d c386 a43e c3eb 8cbd 99c0 73be
000002c0: 3457 433e 2f2e 833e 758b c83c deaf 6ebe
000002d0: 07a9 563e ccd2 1abf ff05 a93d 6896 3f3e
000002e0: b9da 7dbe 6b27 1e3e 3183 6dbe 52b7 a43e
000002f0: 9be6 6d3e 9e53 0fbe 5033 173d d3eb 8bbe
00000300: bb71 47be 23be 093d 6dda 663d 7d7e 03bf
00000310: a6d3 8c3d 5a6d 8cbe a0b5 aebe 4074 99be
00000320: 8431 5bbd 6219 d63d db1a ed3d e378 353e
00000330: 3dd0 edbe 880f 82bd 1e33 30bd 3a45 e63e
00000340: 1a32 133d 5a1a f1be f988 a23d 5b9a d43e
00000350: 677c 1e3e 2c23 50be ae69 3fbd 3a43 193e
00000360: 5709 afbe a335 aabe 862c e9be 5c02 6b3e
00000370: ec5e cfbe 3c43 993e 0502 0c3e 4c52 0b3e
00000380: 7d18 c0be 4a43 99be cc37 69bd 50e6 e13e
00000390: e48d c0bc 5baf 69bc 5c75 e63d 5878 aa3c
000003a0: 4e67 c6bd 3a1b bb3d cc7f e1be e665 673e
000003b0: d019 acbd 9d56 153e f883 31be a9ee f03d
000003c0: 5f01 b13e 731c c83d 8536 e13e 4a18 49be
000003d0: cb0d 293c 9a30 4dbe f925 153f fd0f d63d
000003e0: f117 8abe e8dc 123e 80fc 933e ad68 b73d
000003f0: a6b4 56be f9f8 203e d8d6 103e 030a e93d

value_net.4.bias f4 [32]
-0.053906005 -0.09899169 0.0850284 -0.19373469 -0.037699454 -0.02593724 0.015359293 -0.010394537
0.18290223 0.07741792 -0.03143756 -0.05321263 -0.04452715 0.20256247 -0.13092446 0.1182915
0.00072380033 -0.017329432 -0.23407483 -0.13231589 -0.032518663 0.10427594 0.039345015 0.017211145
-0.01809571 0.14417893 0.15063937 0.10744958 -0.023993269 -0.05682173 0.10052976 0.15004952
00000000: 8bcc 5cbd 28bc cabd 5f23 ae3d 6362 46be
00000010: be6a 1abd 567a d4bc 8ba5 7b3c d94d 2abc
00000020: b94a 3b3e 498d 9e3d acc4 00bd 7df5 59bd
00000030: 1a62 36bd 896c 4f3e 1011 06be d042 f23d
00000040: 6bbd 3d3a 74f6 8dbc 50b1 6fbe d17d 07be
00000050: 4a32 05bd a08e d53d 3d28 213d 63fe 8c3c
00000060: 743d 94bc a4a3 133e 3541 1a3e 870e dc3d
00000070: 888d c4bc e7bd 68bd 8ce2 cd3d 95a6 193e

value_net.6.weight f4 [1, 32]
-0.071983136 0.18600036 -0.08812385 0.19298294 -0.01077965 -0.028058529 0.06313879 -0.0005217106
0.17568846 -0.18143658 -0.22144204 0.2881542 0.08012959 -0.3373353 -0.22901726 -0.18032189
0.00038865994 -0.26882747 0.1277827 0.24033038 0.0057980954 -0.1611319 0.03326191 -0.0402873
-0.04965914 0.07935382 -0.2005459 -0.19264719 -0.33106568 0.0073943874 0.051692996 -0.1902742
00000000: e56b 93bd e176 3e3e 477a b4bd 529d 453e
00000010: 219d 30bc 00db e5bc e94e 813d 68c3 08ba
00000020: ade7 333e 83ca 39be b4c1 62be f388 933e
00000030: fc1a a43d 36b7 acbe 8083 6abe 4da6 38be
00000040: 0ec5 cb39 c1a3 89be 78d9 023e 2b19 763e
00000050: f3fd bd3b c3ff 24be a43d 083d 4c04 25bd
00000060: 6267 4bbd 4184 a23d e85b 4dbe 4e45 45be
00000070: 7181 a9be 9e4c f23b 09bc 533d 3dd7 42be
