MAPPO/No_Graph/save/SY_4_T1/agent_9_NGH_r.pt (torch, 127774 bytes, 15 tensors)

policy_net.0.weight f4 [32, 26]
000000 ea 54 3f 3e 01 7d 8d bd aa f1 53 3e 31 3e 2a 3e
       0.18684736 -0.06908608 0.20697656 0.16625287
000010 8a ff 81 be dc 65 ac be 23 4d 09 3f b0 2f 90 be
       -0.25390273 -0.33671463 0.53633326 -0.28161383
000020 6f df d6 3d da 41 c0 be 4d d0 91 bc 1a bd f2 bc
       0.10491835 -0.3755024 -0.01779952 -0.029631186
000030 91 60 1a be f7 65 e9 bd 8f a0 a8 bc 1e 1c c1 3d
       -0.150759 -0.113964014 -0.020584373 0.09429191
000040 3c e1 1e 3c 38 ec 11 be 0e a2 f8 be 1c e0 e7 3d
       0.009697255 -0.14250267 -0.48561138 0.11322042
000050 06 42 0e 3f 32 b4 02 3e e2 23 1a be 3b 2f fc 3e
       0.55569494 0.12764052 -0.1505275 0.49254784
000060 9e 23 3e 3e 99 fe e4 be ec 7d b7 bd 90 39 40 3e
       0.18568274 -0.44725493 -0.089595646 0.18771958
000070 da b3 31 be 3f 78 0a 3e 0e fb 20 3d 24 60 a6 be
       -0.17353764 0.13522433 0.039301924 -0.32495224
000080 42 24 37 bf 0a 7e 3c 3e 9c 9e 3b be e0 ce 7a 3d
       -0.715397 0.18407455 -0.18322223 0.061232448
000090 24 a6 c9 bd 4e 89 37 3e 92 38 eb 3e e9 57 20 bb
       -0.09846142 0.17923471 0.45941597 -0.002446646
0000a0 9e 0e 84 3e 07 a3 3f be 2c 9b 55 be 9b ba df be
       0.25792402 -0.18714534 -0.20859975 -0.43697056
0000b0 42 a8 3a 3d 89 2e 0e be 00 05 dd 3e b0 17 cb bd
       0.04557062 -0.13884939 0.43167877 -0.099166274
0000c0 4b 39 c9 be ec d9 0f 3d 75 4a e8 bd e4 69 25 be
       -0.39301524 0.035119936 -0.113423266 -0.16153675
0000d0 de 17 45 3d 13 b4 05 be 6e 84 ff be c2 e9 2f be
       0.048118465 -0.13056974 -0.49905723 -0.17179015
0000e0 a4 17 6b be 1d 9c d0 3d ad 24 94 3d d8 0e e4 3d
       -0.22958237 0.10186026 0.07233558 0.11135644
0000f0 dc 5d be bd 88 c3 b2 3e 55 02 77 be 5a de 90 be
       -0.09295246 0.34914804 -0.24121983 -0.2829464
000100 97 6b 2d be d6 b2 b1 3d 03 6a 65 be c5 8f 49 be
       -0.16935574 0.086766884 -0.22403722 -0.1968375
000110 89 18 c8 be b5 a7 8c be 55 e8 26 bf be 00 8a bb
       -0.3908122 -0.274717 -0.6519826 -0.0042115143
000120 26 14 b4 bd 6a ab d6 3d f0 74 80 bd f4 9c 82 3c
       -0.087929055 0.104819134 -0.06272304 0.015943982
000130 f9 12 6f 3e f4 16 e0 3e 15 91 11 be 49 b5 8b bb
       0.23347081 0.43767512 -0.142155 -0.0042635542
000140 58 c3 25 bf 94 70 8a 3d 5f 9e e6 3e c2 5c 5f bd
       -0.64751196 0.06759754 0.45042703 -0.05453182
000150 96 b9 c2 bd a6 ef b7 3c 74 80 d1 3e 66 c4 a9 be
       -0.09508054 0.02245314 0.40918314 -0.33157653
000160 a1 e8 4e be 71 27 0f 3e 86 10 28 3e 64 ce a7 bd
       -0.20205928 0.1397989 0.16412553 -0.08193663
000170 64 76 cb 3c 46 96 07 3e 71 b6 94 bd 09 d4 aa 3e
       0.024836726 0.13240919 -0.072613604 0.33364895
000180 a7 ed 0f bf 08 ad 71 bc 41 6e 96 be d8 a3 81 3b
       -0.56222004 -0.0147507265 -0.29380992 0.0039562993
000190 19 5e c6 be 7d bf f9 bc d2 1d 13 be 5d 30 23 be
       -0.38743666 -0.030486817 -0.14366844 -0.15936418
0001a0 6d 86 c2 be 7b af c2 bd 55 a9 0b 3e 1e 31 03 be
       -0.37993184 -0.095061265 0.13638814 -0.12811705
0001b0 b7 af b8 3e 37 4b 8b 3e 2f 9a 79 be 02 41 f1 bd
       0.3607156 0.27205822 -0.24375223 -0.117799774
0001c0 fa 21 e3 3e 3f da f0 3e 30 74 50 3e 62 1a 87 bd
       0.4436186 0.4704151 0.20356822 -0.06596829
0001d0 d5 d2 60 be b1 ab ac be ab ce 10 3f 0f 53 21 be
       -0.21955426 -0.3372474 0.5656535 -0.1575434
0001e0 ae 6c 83 bc b7 5b 01 bf e1 8e cb 3c 56 52 65 be
       -0.016043033 -0.5053057 0.024848403 -0.2239469
0001f0 56 ea 89 bd e3 73 91 3e 1a 50 80 bd 85 1b 6b 3e
       -0.06734149 0.28408727 -0.06265278 0.22959717
000200 c6 af 4d be ba 4c 14 be 31 dd b1 3e 90 79 b1 3d
       -0.20086583 -0.14482394 0.34739068 0.08665764
000210 59 ea d0 bd df 20 d3 bb ca 41 1e 3f 9e 6e ba 3d
       -0.10200948 -0.0064431275 0.61819136 0.0910313
000220 3a b6 11 3f b2 8e fb bd 0a a4 ea be 85 c4 a1 3e
       0.5691868 -0.12283076 -0.45828277 0.31595245
000230 8f 5b 8f bd a5 fa fa 3e 4e 60 2f 3e 0a d1 98 3e
       -0.06999885 0.49019352 0.17126581 0.29846984
000240 7e cc ab be da 46 e4 be 7c 71 17 be 10 e7 de bd
       -0.33554453 -0.44585305 -0.14789385 -0.108839154
000250 bf ce 95 bd 8d a3 76 bd 40 6f ee 3c 6f ec 98 3c
       -0.07314824 -0.060214568 0.029105783 0.018667428
000260 7e 49 6f bc 6b d5 60 3d c6 a6 19 be 8c 7c 9d be
       -0.014604924 0.05489103 -0.15005025 -0.30759084
000270 78 50 84 bd c0 02 18 3f db 11 77 3e 29 6c d6 bd
       -0.06460661 0.59379196 0.24127905 -0.10469849
000280 b6 1e 18 3e 78 3c 15 3d 8e ef f6 bd 2a b0 84 be
       0.14855465 0.03643462 -0.1205741 -0.25915653
000290 b5 d4 8f bc 60 a1 ca 3d 61 6b 52 bd 04 15 c2 be
       -0.017557481 0.09894061 -0.051371936 -0.3790666
0002a0 d7 72 ac 3c 78 39 7e 3e 00 dc 5f 3d e1 6a 4c 3d
       0.021050854 0.2482661 0.054653168 0.049906615
0002b0 d9 00 a1 3e b4 5c 80 be 73 27 3e be b0 6f c3 3d
       0.3144596 -0.25070727 -0.18569736 0.09542787
0002c0 ab a2 80 3e 94 b0 a9 be d7 d5 e7 be 3a 5f 0e bf
       0.25124106 -0.3314253 -0.45280334 -0.55614054
0002d0 38 fa 81 3e d7 65 61 3e 24 6d 97 3e 3c 12 fe 3e
       0.25386214 0.22011505 0.29575455 0.49623287
0002e0 46 9b db 3d bd 0e 13 be 89 7e 6d be 88 da 20 3e
       0.107229754 -0.14361091 -0.231928 0.15708363
0002f0 52 40 74 3e ac 8c f8 bc 63 02 e1 3e 22 ff 37 be
       0.23852661 -0.030340515 0.43947133 -0.17968419
000300 77 08 6b 3d b2 8e a1 3e 3b 69 b1 3d 28 a1 74 bd
       0.05738112 0.3155418 0.08662649 -0.059724003
000310 e9 e2 08 bc 7b 1d 1a bf 6b c7 aa be cb 68 ad 3d
       -0.008354881 -0.60201234 -0.3335527 0.08467253
000320 9c 1d cc 3b d6 53 9d 3e a9 67 e4 3e 81 58 31 bc
       0.0062291157 0.30728024 0.44610336 -0.010824324
000330 02 3c d6 3d d9 0f 2e be b4 63 03 be ff 1b 84 3e
       0.10460664 -0.16998233 -0.12831002 0.2580261
000340 35 b5 87 be 87 93 83 be 6c fd ef be 38 36 a2 be
       -0.26505437 -0.25698492 -0.46873033 -0.3168199
000350 68 05 30 3e bc 23 d1 3d c9 4c 05 3e ff e7 6f 3e
       0.17189562 0.10211894 0.13017572 0.23428343
000360 eb 54 6d 3e 3e fb c9 be 43 f4 a2 bd f3 5f 53 3e
       0.23176925 -0.39449495 -0.079567455 0.2064207
000370 67 e1 d4 3c 0e 68 28 3e b0 f7 e7 bd fd 34 d8 bd
       0.025986386 0.16445944 -0.113265395 -0.10556982
000380 6c e2 f0 bd ef 70 cf be 5b 89 b1 3e 1a 7e 5e 3e
       -0.117619365 -0.4051585 0.34675106 0.21727791
000390 56 b2 1c 3e b0 05 94 be 68 d2 33 3e 82 15 f5 3d
       0.15302405 -0.2891059 0.17560732 0.11966993
0003a0 9a 47 5f 3d 2c f9 86 3e 92 04 9e 3d 18 b9 0b bf
       0.054511644 0.26361978 0.077157155 -0.54579306
0003b0 f5 35 67 3e d9 a7 0e 3e ee 77 cf bd d6 45 c4 3c
       0.22579177 0.13931216 -0.10130297 0.023959082
0003c0 db e2 df be 43 0c c0 be 56 b2 2b bc bd de 96 be
       -0.43727764 -0.37509355 -0.01047953 -0.2946681
0003d0 57 38 2a 3f bf dd 50 3c 5e 7e 96 3e 98 b1 30 3f
       0.6649222 0.012748181 0.29393286 0.69020987
0003e0 b6 4e df 3d bf 3f 2f be 1a f4 fb 3a 0a f8 4c be
       0.10903685 -0.17114161 0.0019222528 -0.20016494
0003f0 c5 6c 33 be 12 4b df be 94 fd 7a b9 86 b8 b1 bd
       -0.17521961 -0.43611962 -0.00023936323 -0.08677773

policy_net.0.bias f4 [32]
000000 c9 72 15 3e 5e 8b 8c 3d d9 5b bd bb 2d 82 cd bc
       0.14594568 0.0686252 -0.0057787714 -0.025086487
000010 19 97 96 bd a1 88 56 bc e2 54 df 3c 55 ab bc 3d
       -0.07353038 -0.013094098 0.027262155 0.092123665
000020 88 3b 0c bd e2 7a 23 bd 01 c7 fb bd 1f 78 02 be
       -0.03423646 -0.039912112 -0.12293816 -0.12741135
000030 35 4c bb 3d 96 69 6e bd 38 d8 02 3d 25 b1 09 bb
       0.09145395 -0.058206163 0.031944484 -0.0021010127
000040 ea 82 90 bd 4d 96 d1 3a 96 96 03 3d 9a e5 88 bd
       -0.0705622 0.0015990228 0.03212603 -0.06684418
000050 bc f4 6b bd 57 6a 62 bc ab f8 2b ba 67 53 03 bc
       -0.057606444 -0.013819299 -0.0006560187 -0.00801549
000060 b4 bd a0 3d de 91 82 bd a2 ed a9 3c 56 26 6f 3d
       0.07848683 -0.06375478 0.020743195 0.05838617
000070 27 f5 c6 3d 80 7e be 3c 2d f0 5a bc d8 b8 0b be
       0.09714728 0.02325368 -0.013362926 -0.13644731

policy_net.2.weight f4 [32, 32]
000000 5e 87 12 be 22 c0 e4 be 51 36 98 3e 47 ac 48 be
       -0.14309451 -0.44677836 0.2972894 -0.19596969
000010 d8 78 e7 3c 70 13 04 bd b2 2c c2 3d 1e 61 a3 3e
       0.028255865 -0.0322451 0.09481181 0.31910032
000020 c2 a4 7b be 76 bc 50 3e 68 a3 b8 bd ea c8 b5 be
       -0.24574569 0.20384392 -0.09015542 -0.35504848
000030 12 32 5c be 3f 56 81 3e d3 b7 28 bd d0 d3 c5 be
       -0.21503475 0.25261113 -0.041190933 -0.38638163
000040 ff 52 97 bd 26 ef 4a be 81 0b 19 3f 9f e3 42 3e
       -0.07388877 -0.1981779 0.5978318 0.19032143
000050 53 cf 88 3d 53 c9 4d 3e 1d 4d b0 bd 15 65 e3 3e
       0.06680169 0.2009633 -0.08608458 0.44413057
000060 e6 e5 96 be ff 50 4e 3e 69 a6 9e be 79 d4 06 3f
       -0.29472274 0.20148085 -0.30986336 0.5266796
000070 31 33 ba 3d 7a dc 77 3e 1c 39 a1 be 15 59 db be
       0.09091795 0.24205199 -0.31488883 -0.42841402
000080 3b 3c e3 3d 20 1e ec be 64 ee 07 3e a7 65 d5 3e
       0.110954724 -0.46116734 0.13274533 0.41679117
000090 3f 8b dc be 7f 0b 06 3e 48 f4 f4 be b6 32 ad 3e
       -0.43074986 0.13090323 -0.47842622 0.33827752
0000a0 86 fd 5a be 55 ac 9e 3d 52 c1 66 bc 99 0d 9b bd
       -0.21385774 0.077477135 -0.014084177 -0.07570953
0000b0 6b d9 21 3e b4 ef 08 3e b8 37 69 bd 9d f2 d1 be
       0.15805595 0.1337269 -0.056937903 -0.41005412
0000c0 ea bf 96 be 78 ce 37 be b9 8d 01 bd 89 41 9f 3e
       -0.29443294 -0.17949855 -0.031629298 0.31104687
0000d0 5c 66 0f 3f 38 5a 67 be f3 44 c1 3d 58 34 5a 3d
       0.56015563 -0.2259301 0.09436979 0.053272575
0000e0 3a df ea bd f8 05 d9 be 44 c1 97 be 8b 89 6f be
       -0.11468358 -0.42387366 -0.29639637 -0.23392312
0000f0 5e 05 c2 3e 5f 3a 21 bd 58 6f 76 3e 20 af 1d 3e
       0.3789472 -0.039362308 0.24065912 0.15398836
000100 35 29 a9 3d 19 41 67 be be 9e d2 be 03 35 ad be
       0.08259813 -0.22583427 -0.41136736 -0.33829507
000110 f2 08 39 be ab 5f ea 3c c3 45 2d be ec 63 5b 3e
       -0.18069819 0.028610071 -0.16921143 0.21424836
000120 41 4e 05 be 3b 3a 83 3d cd 2c 38 bf d2 03 42 bf
       -0.13018133 0.06407591 -0.7194336 -0.7578708
000130 3e c6 b0 3d f3 e9 28 3e de 4f 18 3d 91 82 93 3e
       0.08631562 0.16495495 0.037185542 0.28810552
000140 14 64 b0 3e 03 21 a8 bd 88 fe 35 be 42 fe 23 3e
       0.34451354 -0.082094215 -0.17772877 0.1601496
000150 a0 bd 88 be ea 8d c5 be 7f 9a c0 bd 2e ee 87 be
       -0.26707172 -0.38584834 -0.09404468 -0.26548904
000160 f5 25 3a bd c9 2e 19 bf 6d 67 77 3e 5e 94 5b bd
       -0.045446355 -0.59837013 0.24160548 -0.05360829
000170 9d da 87 bd 50 e5 09 3e 46 f5 17 be 6b 6f 8f be
       -0.06633494 0.13466382 -0.14839658 -0.28014693
000180 19 3b cc 3e f7 d1 d9 3d 4b 25 81 bd 4b 1f 91 3e
       0.39888838 0.10635751 -0.06305941 0.28344187
000190 5f 58 85 3e 10 ba 9a be d7 69 d3 3e 2e 28 be be
       0.26043984 -0.3022008 0.41291687 -0.3714003
0001a0 63 e6 e8 3e 69 d0 38 3e 87 aa cc ba ed fe 41 bd
       0.4548827 0.18048252 -0.0015614786 -0.047362257
0001b0 33 9c 66 bd c3 54 29 3f 57 3d 84 bd c0 b0 6e be
       -0.056301307 0.6614496 -0.06457012 -0.23309612
0001c0 f9 9f 28 3e a3 47 3b 3e 47 3e d5 3e fe 86 9e 3e
       0.16467275 0.18289046 0.41649076 0.30962366
0001d0 02 08 fa bd 6a 26 96 3c 4d 21 9f bc e0 33 16 3e
       -0.122085586 0.018328864 -0.019425059 0.14668226
0001e0 9c ce 40 bf 56 74 5e be dc 07 ac bd 71 4e 96 be
       -0.7531526 -0.21724066 -0.083999366 -0.2935672
0001f0 da 01 56 bd 5b 9f bf 3d f6 96 02 3e 72 bd 7f 3e
       -0.05224786 0.093565665 0.127529 0.24974611
000200 d1 79 de bd c9 05 9b b9 66 fc 0b 3f 03 d9 a7 bc
       -0.108630784 -0.00029568214 0.54682004 -0.020489221
000210 fb 23 26 be 7a 50 ac 3d 67 40 77 bd f1 a3 a9 be
       -0.16224663 0.08413787 -0.060364153 -0.3313289
000220 24 70 76 3d 45 49 eb be a4 d0 19 bd 9f a7 84 3e
       0.06016554 -0.45954338 -0.03755249 0.25909135
000230 f8 32 7f 3e 8d 9b eb bd 6b e9 4d bf 53 04 15 be
       0.24921787 -0.11504278 -0.8043429 -0.14552431
000240 13 73 46 3e b0 5e 3d be 59 93 12 3d c9 2c 36 3f
       0.19379835 -0.18493152 0.035785053 0.71162087
000250 f8 4e 97 3e a7 d1 cb 3e 1f e6 84 3e 6a a5 8c 3d
       0.29552436 0.3980839 0.25956818 0.06867488
000260 c3 34 86 be cd 5f 4f be 51 97 5f be 82 f0 02 3f
       -0.2621213 -0.20251389 -0.21835066 0.51148236
000270 97 91 4d be e2 d1 f6 3d 47 f3 aa 3c 2c 6e 48 3e
       -0.2007507 0.12051751 0.020867957 0.19573277
000280 ff 04 02 be 29 be cf 3e ba 26 33 3e 43 0f 41 3e
       -0.12697218 0.40574768 0.17495242 0.18853478
000290 93 75 ec 3e 4b cb b2 bd 26 0d 78 be 55 ca d9 bd
       0.46183452 -0.08730181 -0.24223766 -0.10634295
0002a0 a0 bf 28 be 3c c5 2b 3e 26 61 f8 3e 31 5d 56 3d
       -0.16479349 0.16774458 0.48511618 0.052334968
0002b0 cf dc 3f 3e 5f 40 a6 3b 47 6b 39 bd 3d 4e 18 3e
       0.18736576 0.0050735916 -0.045268323 0.14873596
0002c0 a7 53 cc 3e 9a 87 79 be 4e c0 9d be 27 44 f0 3e
       0.39907572 -0.24368134 -0.3081078 0.46926996
0002d0 d4 bb 84 3e c5 54 61 be a3 ec ab be 09 b7 4f 3e
       0.2592455 -0.22004993 -0.33578977 0.20284666
0002e0 11 db 7d 3e 17 fa fd 3e 6d da 8a be 7e 82 e8 be
       0.24790598 0.49604866 -0.2711977 -0.45412058
0002f0 56 c2 a0 be 59 79 fc 3d 09 86 fd be 2a ae b6 3e
       -0.31398267 0.12327833 -0.49516323 0.35679752
000300 1e 15 0a bd 88 ea 02 bc d9 7f e0 bd 4a 48 65 bd
       -0.033711545 -0.007990487 -0.10961885 -0.055977143
000310 50 19 76 be d7 a5 a1 bd 7c 8f 21 3d dc 8a 9c bd
       -0.24033093 -0.078929596 0.039443478 -0.07643673
000320 a1 64 ba be 1a 6e 18 be 79 54 21 3b a2 a1 93 be
       -0.364049 -0.1488575 0.0024617 -0.28834254
000330 70 e0 d9 3c 7e c1 8a 3e b7 00 2e 3f 82 ff 9e 3e
       0.026596278 0.27100748 0.6796984 0.31054312
000340 54 26 1d bf cf 5f 4b bd 8e 51 86 be fe 30 38 3e
       -0.6138661 -0.049651917 -0.26234096 0.17987439
000350 08 41 60 3d 2d 95 15 3f 42 a0 5e 3e 26 6d bb be
       0.05474952 0.5843075 0.21740821 -0.3660671
000360 12 21 01 3e 93 4f 21 be 7c 53 48 bd e2 43 d6 3d
       0.12610272 -0.15753011 -0.048907742 0.10462166
000370 5c 21 d7 be 06 8d e9 3d 92 08 4d be ab e8 0b 3e
       -0.4201764 0.11403851 -0.200228 0.13662975
000380 ed da 16 bf dd 05 ee 3e c6 9b 09 3f 7f da a7 be
       -0.58927804 0.46488848 0.53753316 -0.32783887
000390 d0 07 ca 3c 74 7f 87 3d 57 01 a1 3d 17 dd 48 be
       0.024661928 0.06616107 0.07861584 -0.19615589
0003a0 68 e0 89 3e 1e c0 88 be 37 b9 a9 3e 2f b4 89 be
       0.2692902 -0.26709074 0.3314912 -0.26895282
0003b0 a2 42 0a be f5 b0 7b 3e 25 d4 4b be 26 2f da bc
       -0.13501981 0.24579223 -0.19905145 -0.02663381
0003c0 4f 5f ed bc 08 96 93 3e aa e5 81 3e 04 28 82 be
       -0.02897611 0.28825402 0.25370532 -0.25421154
0003d0 48 1d 8a 3e 46 56 a8 be d8 e1 c4 3d 1f ec cf 3d
       0.26975465 -0.3287832 0.09613389 0.101524584
0003e0 dd 2c ef be 9e ba e6 bc 3f d1 09 be 29 6a 05 bf
       -0.46713915 -0.028165158 -0.13458727 -0.5211511
0003f0 3d 78 28 be 40 ad 0f bf f7 54 33 be ab ca a8 b7
       -0.16452117 -0.56123734 -0.1751288 -2.0121535e-05

policy_net.2.bias f4 [32]
000000 af f7 60 3d 7b 4d 06 3d a7 65 28 3e 1e 4c 41 bd
       0.05492371 0.032788735 0.16445027 -0.04719173
000010 15 53 91 bd e6 99 2a be 57 b7 cd 3c fe 47 0f be
       -0.07095925 -0.1666027 0.025111837 -0.13992307
000020 3d 2f 53 bb 51 4c 27 3e fb 2e c7 bd 92 f8 c0 3d
       -0.00322242 0.16337706 -0.09725758 0.09422411
000030 e8 b0 e1 bd b8 2e 63 bc d5 09 b2 bb 9f 77 b0 3d
       -0.1102007 -0.013866119 -0.005433301 0.08616566
000040 8c fc 28 3e a5 98 b1 bd d8 07 f7 bd 30 6e 45 3d
       0.16502589 -0.08671693 -0.12062043 0.048200786
000050 b0 1b 3a bc 26 86 1a 3d fc 35 96 ba 9a bb 55 3d
       -0.01135914 0.03772559 -0.001146018 0.052180864
000060 b8 ec 87 bd a9 ed 2d 3e 6b 68 42 bd 81 bd 0b be
       -0.066369474 0.16985191 -0.047462862 -0.13646509
000070 d1 15 7f bc 48 5c 48 bb 29 c1 0b be fe c4 80 3d
       -0.015569166 -0.0030572582 -0.13647904 0.06287573

policy_net.4.weight f4 [32, 32]
000000 f6 54 ee bd 0f f9 22 3f 81 b3 c3 3e 37 45 da 3e
       -0.11637299 0.63661283 0.38222888 0.42630932
000010 98 b3 af bd ea 0d 0e bf 3a 2c ad 3e 90 94 4a be
       -0.08579177 -0.5548998 0.33822805 -0.19783235
000020 aa 06 db 3e fb c7 e9 3e c3 83 0a bf ac 2b 09 be
       0.42778522 0.45660385 -0.541073 -0.13395566
000030 05 78 a1 be 60 fc 6b 3e 13 83 96 3e 04 77 d3 3c
       -0.3153688 0.23045492 0.29396877 0.025813587
000040 77 00 94 3e 7e 89 e3 3d ba ad 6a be 16 67 35 3e
       0.28906605 0.11110209 -0.22917834 0.17715105
000050 fa 86 92 3e 36 22 5f 3d 9a 8a 09 3e 66 62 b3 3c
       0.28618604 0.054475985 0.13431779 0.021897506
000060 c0 bd cf be 65 31 db 3e 0f 1b c9 be 3f 41 3e bc
       -0.40574455 0.42811123 -0.39278457 -0.011612236
000070 d6 1e f5 3d 4c be f7 bd fd 8d d9 be 57 f7 95 3e
       0.11968772 -0.12096843 -0.4249114 0.29290268
000080 89 7d 42 3d a1 b6 94 be 41 d7 a0 be 30 94 99 3e
       0.047483 -0.29045585 -0.31414226 0.2999587
000090 66 7a 7a 3e 21 9f e7 3e 38 59 90 be f3 24 e5 3e
       0.24460754 0.45238593 -0.28193069 0.44754753
0000a0 44 fa 11 be 9f 3e a5 be ac 3f 35 3e e6 09 04 bf
       -0.14255625 -0.3227434 0.1770007 -0.51577604
0000b0 b2 7b 21 3e a7 b1 c4 be 2d 48 bc 3e c3 41 e5 3e
       0.15769842 -0.38416788 0.36773816 0.44776735
0000c0 5b 8f ca 3d 6d 32 87 3e 31 53 ea 3e de 2a 9b be
       0.09890624 0.2640566 0.45766595 -0.30306143
0000d0 62 9d 2c be 6e a0 3f be dd dc 8a bd 77 bb 5d be
       -0.16856912 -0.18713543 -0.067804076 -0.21653543
0000e0 50 6b 09 3f f6 da 7b 3e 1a dd 5e bd 1e 88 cd 3e
       0.5367937 0.24595246 -0.054410078 0.40142912
0000f0 f1 33 fa bd 9d f6 e0 be 85 47 7c 3e d7 71 f0 be
       -0.12216938 -0.4393815 0.24636658 -0.46961853
000100 3c 6f 0d bf 99 dc 29 3e 70 ba b6 3e 49 28 46 3e
       -0.55247855 0.16588058 0.35689116 0.19351305
000110 bb b5 bd be bb 79 d5 3d c0 73 b4 3e b3 ec c0 be
       -0.37052712 0.10423609 0.3524456 -0.37680587
000120 4b 77 3d 3f 75 0c 8f be a8 2e 62 3e 53 4a 09 3f
       0.7401015 -0.2793919 0.2208811 0.53629035
000130 2e 08 18 3e fe 88 d6 3e e6 e1 5e 3e bc 2b bf bb
       0.1484687 0.41901392 0.21765861 -0.005834071
000140 3e 4f 09 be 3a 12 9b be dd 76 60 3d 8f 1f 31 3e
       -0.13409135 -0.30287343 0.054800857 0.17297195
000150 d8 a8 28 bf 49 18 d2 be f4 d1 07 bd c1 15 1c 3f
       -0.65882635 -0.41034153 -0.03315921 0.60970694
000160 5c 78 91 be 96 77 c7 3e 16 e6 42 bc 61 dc 77 bd
       -0.2841214 0.38958424 -0.011895677 -0.060512904
000170 82 2f 20 bf 10 81 27 bc 8e ec 82 3d 53 b2 ff be
       -0.6257249 -0.010223642 0.063927755 -0.49940738
000180 75 87 8c be 27 d9 88 3c d8 ed bd 3e e4 78 f9 bd
       -0.27447096 0.016705109 0.37095523 -0.12181261
000190 64 86 3b 3e 17 c8 36 3e c1 f2 ba 3e df 8e a7 bd
       0.18312985 0.17849766 0.36513332 -0.081815474
0001a0 67 d0 48 be 02 d9 ca 3e 5a 62 00 bf 7a 99 20 3e
       -0.19610749 0.3961869 -0.5015007 0.15683547
0001b0 0f e2 71 be c5 b3 64 3e 3c 91 01 bf ab c0 eb 3e
       -0.23621391 0.22334202 -0.50612235 0.46045431
0001c0 01 9c c0 bd 25 03 80 be 60 82 ae 3d f2 0c 11 3f
       -0.094047554 -0.250024 0.08520961 0.5666038
0001d0 ea e1 0a 3e df 57 12 3c e2 b5 de 3e fe 44 cf 3d
       0.13562742 0.008932083 0.4349814 0.10120581
0001e0 73 93 f1 be ca 00 36 3f 6a dd 9d be 14 f2 f0 be
       -0.47182807 0.71094954 -0.30832988 -0.4705969
0001f0 4b 14 ae bd ba 96 68 3e b2 d7 6f be 7b 0f 63 3e
       -0.08499964 0.22713748 -0.23422125 0.22173874
000200 68 80 43 bd 4c 9e 84 3e 80 d5 a5 be 8c 22 40 3e
       -0.04772988 0.2590202 -0.3238945 0.18763179
000210 68 73 d1 3e c8 d6 52 3e 7b f6 82 be 4e f2 bb be
       0.4090836 0.20589745 -0.25578675 -0.367083
000220 56 93 dd be 62 6c bb bd 97 01 3c 3e dd 3c 07 bf
       -0.4327647 -0.09151532 0.18359981 -0.52827245
000230 5c 34 19 be 5e 4a 6e bf ce 46 38 bf d4 85 c2 be
       -0.1496138 -0.93082225 -0.7198304 -0.37992728
000240 10 f9 18 be 83 35 a6 3e 48 55 e6 bd d6 98 98 3e
       -0.1493876 0.324627 -0.11246735 0.29804105
000250 26 0b 38 3f 1f 7c ec 3d 05 4c 1c bf 48 10 e5 bd
       0.7189201 0.11547112 -0.61053497 -0.11184746
000260 4a 08 c8 3e 6c b1 ad 3d 9e 0d 9a bd 1a d8 42 3e
       0.39068824 0.08481106 -0.075221285 0.19027749
000270 ad b6 b5 3e de 54 dc bd 2e 88 4f bd 92 f3 2e 3e
       0.35490933 -0.10758375 -0.05066698 0.17085102
000280 c1 3c 28 3f 19 74 8a 3d 0d 5e 56 3e 33 68 fc 3e
       0.65717703 0.06760425 0.20934315 0.49298248
000290 cc 63 f2 3e 18 0b d8 bd 2d ca b2 be 70 3a e8 3e
       0.47341764 -0.10548991 -0.34919873 0.45357084
0002a0 d2 8b b0 bd 1e 9e f0 3e 8f 40 3f 3b c2 34 0a 3f
       -0.086204186 0.46995634 0.0029182767 0.5398675
0002b0 bd 2b 28 be 7d a6 e7 be be d5 2d be a0 eb c6 bc
       -0.16422935 -0.45244208 -0.16976067 -0.024282277
0002c0 66 8f 86 3d af b6 d5 3c 83 43 03 bf 8b b1 32 3e
       0.0657032 0.026088087 -0.5127489 0.1745054
0002d0 8e 74 ae 3a 70 89 1b 3e 83 78 85 be 84 7f 79 bc
       0.0013309882 0.15189147 -0.26068506 -0.015228156
0002e0 80 f2 e9 3b 14 34 a6 3e 2c d7 55 3e 9e dd 91 3e
       0.007139504 0.32461607 0.20882863 0.28489393
0002f0 d5 c6 82 bd d3 e9 2a 3f 07 94 4d be 9e 4c 87 3d
       -0.063855805 0.6676304 -0.20075999 0.066064104
000300 ff d5 b0 3e 6a d2 8b 3e 36 48 2e bf 78 2a 4c be
       0.34538266 0.2730897 -0.68078935 -0.19938076
000310 9a 13 13 3f d3 08 5a 3d 84 bc 2f bd ca 49 bb 3e
       0.57451785 0.05323107 -0.042904392 0.36579734
000320 0a f6 e4 bd 75 62 c2 be 96 e1 63 bb e8 51 52 be
       -0.11179741 -0.37965742 -0.003477191 -0.20539057
000330 13 b6 91 3d 61 51 76 3c e5 44 e9 be d7 79 84 3d
       0.07114806 0.015034051 -0.45560375 0.064685516
000340 26 08 9f 3c 02 cc 19 3f 6a bf 77 be ed 41 18 3e
       0.019413065 0.60076916 -0.24194112 0.14868899
000350 2a 69 05 3e f6 2d 2a 3f 81 9b 06 bf b6 37 a7 be
       0.13028398 0.6647638 -0.5258103 -0.32659692
000360 0c af 45 3e 1e dd 9d 3e 37 ff e6 3d a2 1f 1f 3d
       0.19305056 0.30832762 0.11279147 0.038848527
000370 bc f7 30 3f 1b e6 2f 3e 6d 6f 89 be fc 90 5d be
       0.6912801 0.17177622 -0.26842824 -0.21637338
000380 8c 3d c5 bd 22 51 e0 bd c5 52 77 be ae ae a1 3e
       -0.0963088 -0.10952975 -0.24152668 0.31578583
000390 e8 67 29 3f 4c 2b e0 3e 03 16 8a 3d ba 8e 35 3e
       0.66174173 0.43783033 0.0674248 0.17730227
0003a0 6b 63 85 3d 3c 3d be be 8f 5e 15 3e 10 a9 98 be
       0.06513103 -0.37156093 0.14586852 -0.29816484
0003b0 d3 fa 2c 3d d2 5b 9c bd f2 ae 16 be de d4 8a be
       0.042231392 -0.07634701 -0.14715174 -0.2711553
0003c0 f8 ff 5d be dd f6 c5 be db ff 9d bd b5 51 5d bf
       -0.21679676 -0.38664904 -0.07714816 -0.864528
0003d0 30 48 aa bd dd f4 93 be 42 b4 7e 3e 57 93 a7 be
       -0.0831455 -0.28897753 0.2487345 -0.327296
0003e0 df 0c 38 3e 80 b9 3a be 9b 1d 26 3f 08 ca 4c 3e
       0.1797366 -0.18234825 0.64888924 0.19998944
0003f0 3f 89 96 3e c4 4a 5a be 51 be 92 3e 04 24 84 be
       0.29401585 -0.21317583 0.28660825 -0.25808728

policy_net.4.bias f4 [32]
000000 dd d9 52 3e 86 ba 71 be 15 e7 c2 3d b4 e3 3f 3e
       0.20590921 -0.2360631 0.09516732 0.18739206
000010 5e b2 a6 bd 5f 44 83 3d 4b 32 7e bd 5a 7a 39 be
       -0.081394896 0.06409525 -0.06205968 -0.1811308
000020 71 a7 65 3e 54 c0 4a be e4 62 63 3e f3 29 58 be
       0.22427155 -0.1979993 0.22205693 -0.21109752
000030 72 03 47 3e 99 e8 89 be ac 6e f9 3c bf 2a 48 be
       0.19434908 -0.2693527 0.03044828 -0.19547556
000040 4d 4d 4f be ae 21 5f 3d 55 e1 b5 3d a3 69 6c be
       -0.20244332 0.05447548 0.08880869 -0.23087172
000050 69 6a cb 3d 57 ba 58 3e 96 26 4d be ec 17 4f be
       0.099324055 0.21164833 -0.2003425 -0.20223969
000060 ae fb 8a 3d b2 82 45 3e 47 e0 e3 3d 98 e9 4e be
       0.06786285 0.19288138 0.11126762 -0.20206296
000070 2b fd 5a be a2 09 80 be ac 8d 6d be d3 fa 57 3e
       -0.21385638 -0.2500735 -0.23198575 0.21091776

policy_net.6.weight f4 [20, 32]
000000 ae f2 a4 ba a6 c4 fe 3a 90 92 f4 3a f3 e9 f2 3a
       -0.0012584531 0.0019437268 0.0018659402 0.0018532857
000010 25 5d c3 b9 f0 2b 5a 3a 0d fe 2b bb 90 33 cb b9
       -0.00037262696 0.0008322587 -0.0026243955 -0.00038757594
000020 d4 5b 9a ba 46 91 9b 3a b8 31 5a ba a2 8a 13 ba
       -0.0011776634 0.0011868856 -0.0008323449 -0.0005628263
000030 1c 8e 89 3a a0 c7 01 b9 3b 6b a4 3a a4 07 d0 ba
       0.0010494622 -0.00012376765 0.0012544164 -0.0015871418
000040 a3 29 9b ba f4 ad a3 3a b2 3c f7 38 fc 59 e4 b9
       -0.001183797 0.0012487755 0.00011789183 -0.00043554592
000050 3e 49 16 3b c1 89 af 3a 56 a1 20 39 fb a8 93 bb
       0.002293184 0.0013392494 0.00015318891 -0.004506228
000060 b7 0f f2 3a bb 2a 52 bb c4 66 05 3b cb dd f1 3a
       0.0018467818 -0.0032068926 0.0020355443 0.001845294
000070 61 ee d1 39 a9 d7 26 3b f1 bb 90 39 f3 21 66 3b
       0.00040041193 0.0025458133 0.00027605848 0.003511545
000080 65 92 85 bd 90 c5 73 3d 01 45 7a 3d 5d 09 59 bd
       -0.06522063 0.059514582 0.061100964 -0.052987445
000090 b6 b4 6d bd c8 98 a6 bd 4d d8 99 bd 0c 8e 3a 3d
       -0.058033668 -0.081346095 -0.07511959 0.045545623
0000a0 ee 28 91 bd 85 e1 85 3d 5d 83 87 bd 7e 03 5c 3d
       -0.07087885 0.06537155 -0.066168524 0.053714268
0000b0 bc 2f 69 bd b7 22 9c 3d 00 45 68 bd 25 41 91 3d
       -0.05693029 0.07623809 -0.05670643 0.070925035
0000c0 95 33 82 3d 97 7a 8f bd 63 b0 82 3d 48 7a a2 3d
       0.06357495 -0.07005804 0.06381299 0.079334795
0000d0 fb d2 97 bd 4a 33 8a bd 25 0f 89 3d f0 51 62 3d
       -0.07413288 -0.06748064 0.06692342 0.055253923
0000e0 58 34 97 3d a8 58 69 bd 8a de 4f 3d 05 eb 61 3d
       0.07383031 -0.056969315 0.05074934 0.055155773
0000f0 99 70 77 3d eb 62 91 3d 00 52 9d 3d 17 cd 6f bd
       0.060410116 0.07098945 0.07681656 -0.0585452
000100 42 7d c0 b9 38 cb 3b 3a d8 6a c0 39 e7 37 ca 3a
       -0.00036714418 0.0007163766 0.000367007 0.0015428037
000110 2e 70 a6 3b 9e b0 02 ba f2 1e ef 3a 6c 0d 0f bb
       0.005079291 -0.00049854245 0.0018243475 -0.0021828068
000120 53 67 14 3a f8 85 33 3a 0b c1 e5 ba e2 91 5d 3a
       0.00056611485 0.0006848271 -0.0017528845 0.0008452219
000130 f4 e1 2e 3b 32 9e d1 ba 4e ea 50 bb 80 83 c7 ba
       0.0026684972 -0.001599258 -0.0031877938 -0.0015221685
000140 83 b5 1b ba 30 65 c9 ba 6b 04 c6 ba f5 f4 50 3a
       -0.0005939828 -0.0015365239 -0.0015107518 0.0007971072
000150 18 34 d7 ba a1 e0 02 ba d2 6d 73 b9 07 b0 d2 ba
       -0.0016418723 -0.0004992579 -0.00023215197 -0.0016074189
000160 d0 18 01 bb 47 ab b3 ba c4 9d 51 3a 4c 71 18 3b
       -0.0019698627 -0.0013707661 0.0007996226 0.002326089
000170 78 70 d4 3a bb 59 b5 b9 d2 03 06 bb e9 ab 20 bb
       0.0016207835 -0.00034589865 -0.0020449054 -0.002451653
000180 8f fe 89 3a 6e 76 d0 b9 72 a4 3e bb bb e6 e1 ba
       0.0010528135 -0.0003976109 -0.0029089716 -0.0017234901
000190 87 89 64 3b 4f 56 4d 3b 17 2b f4 39 90 af 8d 3a
       0.0034872012 0.0031331962 0.0004657141 0.0010809768
0001a0 96 8b 2e 3a e7 02 46 3b c1 53 28 3b e6 bc 62 bb
       0.0006658373 0.0030214132 0.0025684687 -0.0034597456
0001b0 fc e4 6a 3a 87 02 1f 3a 6a 92 c6 ba 6a e9 24 3b
       0.0008960513 0.0006065745 -0.0015149836 0.002516354
0001c0 c9 ad df 39 12 ba bb 3a eb 52 2e b9 fe 74 98 3a
       0.00042663355 0.0014322421 -0.00016624822 0.0011631546
0001d0 60 ff 4e b9 64 9d 15 3b cd bf 05 3b ed 83 a6 ba
       -0.00019740826 0.0022829408 0.0020408512 -0.0012704112
0001e0 76 a8 a7 38 37 33 f3 38 f0 42 fc 39 a9 d4 d0 b9
       7.994559e-05 0.000115966825 0.00048115058 -0.00039831296
0001f0 1d 3b ba b9 77 fb dc 3a 42 64 38 3b 98 c1 82 b9
       -0.00035520727 0.001685961 0.002813593 -0.0002493977
000200 3b 5b 0f 3e 8c ca 11 be 61 8a 26 3e d0 a8 16 3e
       0.13999645 -0.14237422 0.16263725 0.14712834
000210 d9 49 0c be d0 76 cc bd 0f df 13 be 49 5f 0f be
       -0.13700046 -0.09983599 -0.14440559 -0.14001192
000220 28 04 13 3e 53 4c 0f be 28 c2 10 3e 3c cd 0b be
       0.14357054 -0.13993959 0.14136565 -0.1365251
000230 a0 46 13 3e 24 c8 10 be b7 43 09 be 92 8f 0e be
       0.1438241 -0.14138848 -0.13404737 -0.13921955
000240 e0 8b 0f be 5a 23 cf bd 9d af 1a 3e b0 46 29 be
       -0.14018202 -0.10114165 0.15106054 -0.16530871
000250 24 69 88 bd d2 20 26 3e ed a9 10 be 1d 22 12 be
       -0.06660679 0.16223457 -0.14127322 -0.14270826
000260 24 17 23 3e f2 35 0d 3e e0 f7 0f 3e ad c0 19 be
       0.15926796 0.1379011 0.140594 -0.15014906
000270 f5 ad 10 be dd 62 18 be d3 dd 11 be 35 33 11 3e
       -0.1412886 -0.14881463 -0.14244775 0.1417969
000280 e8 42 86 bd f4 60 8c 3d 9d 2e 8a 3d 2a 1a 82 bd
       -0.0655573 0.0685443 0.06747172 -0.06352647
000290 f8 c8 92 bd c5 e3 88 bd 43 66 8b bd d1 49 88 3d
       -0.07167238 -0.066840686 -0.06806614 0.06654704
0002a0 42 fa 7a bd 94 38 74 3d 66 87 7e bd 26 1a 8c 3d
       -0.06127382 0.05962427 -0.062140845 0.06840925
0002b0 83 70 80 bd 9d 51 85 3d 44 a9 90 bd 5f dc 7b 3d
       -0.0627146 0.06509707 -0.07063535 0.06148946
0002c0 70 f5 88 3d 64 b2 90 bd e5 29 95 3d e4 e3 76 3d
       0.066874385 -0.07065275 0.072833814 0.060275927
0002d0 60 1c 6d bd 9f 19 86 bd 43 d5 80 3d 4b 33 87 3d
       -0.05788839 -0.065478556 0.062906764 0.0660158
0002e0 d9 b5 8b 3d a0 6b 88 bd 94 4b 93 3d fa de 7b 3d
       0.06821794 -0.06661153 0.0719215 0.061491944
0002f0 ef a8 82 3d 31 b2 88 3d d1 8c 80 3d 35 62 87 bd
       0.06379878 0.06674612 0.062768586 -0.066105284
000300 cf 0b aa 3a bb c0 27 3a ba 14 85 ba a6 a7 27 3b
       0.001297349 0.00063992635 -0.0010153272 0.0025582104
000310 03 bb 68 ba 3a 61 9f 3a 01 2f 6a 3a 57 23 8e ba
       -0.00088779646 0.0012159713 0.0008933396 -0.0010844272
000320 1c f7 35 39 8d dc ae b6 ae 0f 1f ba e4 89 2d bb
       0.0001735356 -5.2112796e-06 -0.0006067705 -0.0026479894
000330 a0 ec 29 bb 79 c4 38 bb c8 88 93 ba fd da 27 3b
       -0.0025928393 -0.0028193279 -0.0011255974 0.0025612705
000340 d2 70 3d ba d6 2b 04 bb 99 05 3b 3a 1d 37 0b bb
       -0.00072265894 -0.002016773 0.0007134318 -0.0021242567
000350 5c 2a b2 3a b9 78 21 bb 4f 52 b9 ba 2d dd be 39
       0.0013592946 -0.0024638607 -0.001413891 0.00036404413
000360 de e9 d0 3a fd 2b 2c 39 fa 60 a0 3a c2 db 38 ba
       0.0015938838 0.00016419585 0.0012235933 -0.00070517894
000370 bb 01 b3 3b d2 59 9e 39 2e 88 ba 3a 22 58 b1 b7
       0.005462853 0.0003020303 0.0014231259 -2.1141084e-05
000380 f6 20 d6 3d 43 4d d6 bd 7c e0 da 3d 52 b7 d4 3d
       0.104555055 -0.10463955 0.10687348 0.10386528
000390 95 fa ea bd 12 60 e7 bd 65 33 d8 bd 3a 5e de bd
       -0.11473576 -0.11297621 -0.10556678 -0.10857816
0003a0 cb 54 d9 3d 03 c6 d8 bd 85 25 de 3d 10 65 d5 bd
       0.10611876 -0.10584643 0.10847 -0.10419667
0003b0 00 e8 da 3d ba ef df bd be cf be bd 07 0f d8 bd
       0.10688782 -0.10934396 -0.093169674 -0.10549741
0003c0 21 fd df bd 27 d9 bd bd 0b a1 d5 3d 04 e2 a0 bd
       -0.109369524 -0.09269934 0.10431107 -0.07855609
0003d0 a3 e9 a2 bd d3 da d0 3d ee 20 db bd 82 59 d0 bd
       -0.07954719 0.101979874 -0.1069964 -0.10173322
0003e0 5a c0 d5 3d 40 d7 d9 3d e4 dc e0 3d d3 74 dc bd
       0.10437079 0.10636759 0.109796315 -0.1076447
0003f0 a9 e6 de bd d5 47 ca bd e5 5a df bd 0e d2 d7 3d
       -0.10883839 -0.09876982 -0.10906009 0.105381116

policy_net.6.bias f4 [20]
000000 00 00 00 00 1b 5a 3f bd 00 00 00 00 00 00 00 00
       0.0 -0.04671679 0.0 0.0
000010 54 6e 0b 3e 00 a1 8a bd 00 00 00 00 7e b4 d2 3d
       0.13616306 -0.067689896 0.0 0.102883324
000020 a3 6d 0b be 00 00 00 00 13 a3 80 3e 08 f7 20 3e
       -0.13616042 0.0 0.25124416 0.15719235
000030 53 de 13 3e 92 b4 d2 bd 18 e0 13 be 00 00 00 00
       0.14440279 -0.10288347 -0.14440954 0.0
000040 00 00 00 00 6f f5 20 be 00 00 00 00 00 00 00 00
       0.0 -0.15718625 0.0 0.0

value_net.0.weight f4 [32, 770]
000000 40 e0 ba bd 1d 52 de bb ef bf 5e bd 41 79 a4 bd
       -0.091248035 -0.006784691 -0.05438226 -0.0803094
000010 20 de 94 3a 6a e1 af 3d 38 67 35 bc 6a 33 a1 3b
       0.0011357702 0.08587916 -0.011071973 0.004919459
000020 8d 5d 91 3d 07 3b de bc c7 d9 77 3d b0 47 93 3c
       0.070979215 -0.027127756 0.060510423 0.01797852
000030 8b b7 22 3d 5c 3f a5 bc 4b a6 49 bd bc 1d e4 bc
       0.03972582 -0.020171814 -0.049230855 -0.02784621
000040 56 b9 39 bd 88 05 17 bd 0b bc 79 bc 5b de f2 bc
       -0.045342766 -0.03687051 -0.015242587 -0.029647043
000050 aa af 31 3d 87 46 50 3c 1f 69 d0 3c 79 f1 79 ba
       0.043380417 0.0127121275 0.02544075 -0.00095345784
000060 b1 35 0e 3d 4f 3f 9b bd 86 d4 45 3c 80 ed 97 bd
       0.034719173 -0.075804345 0.012074595 -0.074183464
000070 a8 2b 23 3d d5 fb 2d 3d 2a 15 93 3b 07 56 93 3d
       0.039836556 0.042476494 0.004488607 0.07194143
000080 ff b2 f7 bd 54 01 1b bd a0 67 0f be 55 69 9a bd
       -0.12094688 -0.037843063 -0.14004374 -0.07539622
000090 f6 21 82 bd 70 7b de bc 15 73 bf 3c 3c 9e 9f 3d
       -0.06354134 -0.027158469 0.023370305 0.07793853
0000a0 35 09 09 be 26 0c 73 bd 41 3e 86 bd fb fd 5b 3c
       -0.13382418 -0.059337758 -0.06554843 0.013427253
0000b0 01 71 f9 3c 16 71 a2 bb 37 3a a2 bd 8c 0e 59 3c
       0.030449392 -0.0049573286 -0.0792126 0.013248097
0000c0 4e 12 5a bc c3 b5 4a bb 78 d3 60 bd 04 2c c5 bb
       -0.013310028 -0.0030931092 -0.054889172 -0.00601721
0000d0 1f d7 a5 bd e3 28 95 3c 25 24 69 bd 4d 17 13 bd
       -0.08097672 0.018207973 -0.056919236 -0.035910893
0000e0 d2 20 05 bd b6 12 31 bd 52 47 e7 bc 19 20 0d bb
       -0.032502003 -0.043230735 -0.02823225 -0.0021534024
0000f0 01 07 37 bd 99 9e 25 bc 63 29 36 be 55 7e e9 bc
       -0.044684414 -0.010108613 -0.17789225 -0.028502623
000100 a3 c1 7f 3d 2d 46 e3 bd c6 df 72 3d d1 45 a4 bc
       0.062440526 -0.11097369 0.05929544 -0.020052822
000110 fb 01 c4 3c e3 a1 94 3d ab dd 07 bc 11 25 1e 3c
       0.023926726 0.0725744 -0.008292596 0.009652392
000120 e6 5e 9c 3c 6d 9f 99 3d 21 9a 4c 3d 63 8b 14 bb
       0.01908822 0.07501111 0.049951676 -0.0022666089
000130 0d 40 74 3c e9 56 5a bd b4 fe 26 bd d9 45 ca 3d
       0.014907849 -0.05330554 -0.040770248 0.09876604
000140 0c be 69 bd 2a 5b 03 3c 49 3f 0f 3b 20 49 55 bd
       -0.05706601 0.008017341 0.002185779 -0.05207169
000150 c5 99 9f 3d 59 02 3d bd 88 68 99 bb ac 0f 32 bc
       0.07793001 -0.046144817 -0.0046816505 -0.010867994
000160 21 ec 06 bd 43 69 61 3d a6 9a 73 3d 68 3f 07 be
       -0.032940034 0.055032026 0.059473656 -0.13207781
000170 5c cf 64 3c 99 ae 82 bd 5e 01 e8 bd 60 b8 1b 3c
       0.013965454 -0.06380958 -0.11328386 0.009504408
000180 07 d6 16 3c e7 bd 3d bd 72 a8 da 3d 87 65 c5 3d
       0.0092063015 -0.046323683 0.1067666 0.096385054
000190 3e 50 7f bc af 6b 8e bc 5e e3 9f bd e6 5f 0f be
       -0.015583096 -0.017385332 -0.07807039 -0.14001426
0001a0 41 5a bc bd 40 84 39 3d 64 41 87 3d 2d b1 a0 bc
       -0.09196902 0.04529214 0.06604269 -0.019615734
0001b0 f7 19 90 3d 8a fa fe bc 1c 1a 45 bb 86 85 a6 3c
       0.070362024 -0.031125326 -0.0030075377 0.02032734
0001c0 d2 20 92 3d 59 a8 1a 3d 9b 1c 3e 3b 6b 4b b2 bc
       0.07135166 0.037758205 0.002900875 -0.021764478
0001d0 4d 24 9b 3c 2c 82 fe bc e2 82 5e 3c f7 d4 1b bd
       0.018938208 -0.03106793 0.01358101 -0.038044896
0001e0 9c c9 44 3c 4a fe c0 bd 15 c8 a3 bd 7b be 00 3d
       0.012010958 -0.09423502 -0.07997147 0.031431656
0001f0 d9 15 06 3a 98 0b f1 bd bc f3 19 be e8 fa cd bc
       0.000511495 -0.117697895 -0.15034384 -0.025144055
000200 13 65 22 bd 07 04 b1 3d 7b 88 94 bc 88 fc 9e bd
       -0.039647173 0.08643346 -0.018131485 -0.0776301
000210 05 3f 98 bc a2 b5 d8 3d 21 4a 19 be c9 9a 25 bd
       -0.018584738 0.10581519 -0.14969684 -0.040430818
000220 7f 49 02 3d d4 9d 91 3c 56 cb 05 bd 0d 1f 3f bd
       0.031808373 0.017775454 -0.03266462 -0.04666047
000230 67 24 c0 bd 67 da fe 3c 5e 1d 85 bc 3b 85 8d 3c
       -0.09381943 0.031110002 -0.016249355 0.017275443
000240 7b 6d 08 3d 79 9d 8b bd 97 b1 8d 3c 41 f3 cd 3c
       0.033307534 -0.06817145 0.017296595 0.025140407
000250 48 a0 87 bd ea b5 3c 3c 05 60 c4 bd 09 47 10 bd
       -0.06622368 0.011517981 -0.09588627 -0.035223994
000260 f3 8a a7 3c 3c 11 cf bc 5f 3d aa 3d 3d af 40 3d
       0.020451998 -0.025276773 0.08312487 0.04704212
000270 42 0d 30 bc e7 79 0f bd 11 5a 9b 3d 02 2a a3 3d
       -0.010745348 -0.035028365 0.07585538 0.07966997
000280 b3 3e 83 bc a5 d5 16 3d b7 f8 95 bd 5b df 8d bd
       -0.016021108 0.03682484 -0.07322829 -0.06927367
000290 14 a2 8f 3d e2 4d 80 bd ea dc f6 bd e0 dd 04 bd
       0.07013336 -0.06264855 -0.12053855 -0.03243816
0002a0 94 62 82 3d fa 0a d9 bc d9 f8 ce bb 20 05 5e bd
       0.063664585 -0.026494492 -0.006316286 -0.054204106
0002b0 3f 2a e5 bc ac aa 93 3d 0e f0 1f bd a7 1c dc 3d
       -0.027974246 0.072102875 -0.039047293 0.107476525
0002c0 c1 6f 91 bd 04 c5 2d bd 51 89 88 3c 30 13 30 3d
       -0.071013935 -0.042424217 0.01666704 0.04298705
0002d0 81 f9 5b bc 2e 9a d3 bc a0 f9 8d 3c 2c e2 0e bc
       -0.013426186 -0.025830355 0.017330945 -0.008720916
0002e0 23 8c b5 bb 6c f1 ac bd b4 26 0e bc 26 33 d8 b9
       -0.0055403872 -0.08444485 -0.00867622 -0.0004123684
0002f0 c2 5e 85 3c 0f 27 d3 3b fa d5 d8 bc 93 1e 6d bd
       0.016280536 0.006443865 -0.02646922 -0.057890486
000300 14 d1 7b bd 2a bf 7b 3d a3 17 1a 3e 6d 52 63 3d
       -0.06147869 0.061461605 0.15048079 0.05549853
000310 c4 b8 7e 3c 88 21 1e bd a1 0a dc bd 14 9b 84 bd
       0.015546981 -0.038606197 -0.10744215 -0.06474891
000320 30 ca 81 bd 36 30 b2 bd 9d e2 31 bc 3c 24 20 be
       -0.06337392 -0.08700602 -0.0108572515 -0.15638822
000330 ec f8 da 3b 6e f8 b3 3c 4f 0f 97 3c 97 fa 13 3d
       0.006682506 0.021969046 0.018439917 0.036127653
000340 eb 93 7e bd 34 90 d1 3b 0d fd 53 bd 0b aa 9f bd
       -0.062152784 0.006395364 -0.051755 -0.07796105
000350 de e6 47 bd 52 b6 54 3c 12 4e 32 bd be 5f ca bb
       -0.048804156 0.012982922 -0.043531485 -0.006175964
000360 4a a2 1a bd 91 70 fa bc 5f 43 47 3d 4b 14 12 bd
       -0.037752427 -0.030571254 0.048648234 -0.035663884
000370 9f 1e 65 3c 5c ae 28 bd 66 0e 20 bd 8e f9 28 3d
       0.013984351 -0.041181907 -0.03907623 0.04125362
000380 cf 95 a0 bd 78 27 37 bd 1a f8 f9 bc 6f 08 1e be
       -0.07841074 -0.044715375 -0.030513812 -0.15432905
000390 43 ee 2c 3c 81 f6 82 3d e0 52 11 be bd 03 35 3d
       0.010554853 0.06394673 -0.1419177 0.04419302
0003a0 b0 00 98 38 bd 7c 09 bd ef 8b 69 3d ac ba 9c 3d
       7.248053e-05 -0.033566225 0.057018217 0.07652792
0003b0 5d f0 9c 3c 5c e4 b0 3d 38 72 33 bd 38 80 29 bd
       0.019157583 0.08637306 -0.0438101 -0.041382045
0003c0 c2 bc b2 bd 7f c2 7c bd d8 8b 34 bc 3a e4 0c 3c
       -0.08727409 -0.061708923 -0.0110196695 0.008599335
0003d0 d8 3f 94 bc a8 d1 81 3c b5 e9 8f 3b 9f 3b 1f bb
       -0.01809685 0.015847042 0.0043918737 -0.0024297012
0003e0 84 34 d9 3c ec 59 b5 3d b9 79 93 bd ac b5 89 bd
       0.0265143 0.08855042 -0.07200951 -0.06724104
0003f0 8f b3 f0 3c 09 e7 92 bd 61 b9 4d bd b0 32 13 3d
       0.029382495 -0.07172973 -0.05022562 0.03593701

value_net.0.bias f4 [32]
000000 80 e7 17 bd 85 52 17 3d 2d 37 74 bd 76 e6 4c bd
       -0.03708601 0.03694393 -0.059622932 -0.050024472
000010 aa 67 ca 3a fc 90 99 bc 72 73 36 3d b5 92 9d 3d
       0.0015442271 -0.018745892 0.04454369 0.07693998
000020 b2 f8 45 3d bd a1 15 bd 2c f3 82 bd ec 9a 82 3d
       0.048332877 -0.0365312 -0.063940376 0.06377205
000030 92 cc 46 3c 5a b4 18 bb bb a0 89 bd 6c 75 ab 3d
       0.012133734 -0.0023300857 -0.0672011 0.08372006
000040 b8 31 8d 3c fe 8e b9 bb ba fe 48 3c f6 36 44 3d
       0.017235622 -0.005662798 0.012267763 0.047903977
000050 9d 09 1c 3b 55 b8 68 bc a2 b7 f0 3c ac a9 89 bd
       0.002380944 -0.014204104 0.029384438 -0.067218155
000060 d0 dc 69 bd c3 c5 03 3d d2 f6 8d bc b8 2b ae b9
       -0.05709535 0.032171022 -0.017329607 -0.0003322044
000070 c0 c8 20 3d fa 25 80 bc 3f 29 63 bd fe 00 79 bc
       0.03925395 -0.015643109 -0.055459257 -0.01519799

value_net.2.weight f4 [32, 32]
000000 b9 4b 02 be c9 d3 a3 3e cc b6 e1 3e 44 ec db be
       -0.12724198 0.31997517 0.44084775 -0.42953694
000010 a7 8a 87 be 12 da 87 bd 8d cd 31 be 17 af 0c bd
       -0.2647297 -0.066333905 -0.17363568 -0.034346666
000020 0b 18 8d 3e 41 be 04 bf ff a1 76 bd bb d5 3a 3e
       0.27557406 -0.51852804 -0.060213085 0.18245594
000030 c1 ad 19 3e 4f d4 12 3f 27 06 34 be 27 f5 03 3d
       0.15007688 0.5735521 -0.17580472 0.032216217
000040 a6 82 a1 3e eb c6 0b 3f 18 d9 62 bd 69 f7 b1 3e
       0.3154499 0.546004 -0.055382818 0.3475907
000050 5c 09 09 be 9d 67 b0 3c ef 3b f8 3e 65 eb dc bd
       -0.13382477 0.021533782 0.48483226 -0.107870854
000060 41 2b 10 be d3 2c 42 3e c0 4f 27 be cc b9 a6 3e
       -0.14079 0.18962412 -0.16339016 0.32563627
000070 7a 4b 7c bd c7 96 75 bd da a2 ca be 19 b3 5e 3e
       -0.061595418 -0.059958246 -0.3957737 0.21748008
000080 53 b4 8b 3e 25 8f 75 3e 9d 06 2a bd e3 a9 b1 3d
       0.27286014 0.23980387 -0.041510213 0.086749814
000090 9f a4 9c be 72 5b 39 3c 93 60 29 be 97 7b f6 be
       -0.30594346 0.011313306 -0.16540746 -0.48141167
0000a0 cf c1 0e be 22 dd 42 3f 61 e6 94 3c 36 90 e1 3d
       -0.1394112 0.7611867 0.01817626 0.11013834
0000b0 a2 7d ec be ed 17 a9 3e 8a a3 f6 3c a1 f5 d1 3e
       -0.461896 0.33026066 0.030107278 0.41007712
0000c0 39 ff 35 bd 85 e4 9f 3e 2c e6 8e be 41 0b 78 be
       -0.044432852 0.31229034 -0.27909982 -0.24223043
0000d0 fe ba 65 be 65 22 8d 3e 9d fa 80 be fe a5 1a bd
       -0.22434613 0.27565303 -0.25191203 -0.03775596
0000e0 86 f4 89 3d 72 fb 34 bd 06 e2 37 bd d4 9f 1a bd
       0.06736092 -0.04418511 -0.044893287 -0.03775008
0000f0 c8 80 8a be 5b e4 23 3f 0a 60 4b 3e 9e 31 dd 3d
       -0.27051377 0.6402032 0.19860855 0.10800479
000100 28 6f 8d 3e 3a a2 84 bd 96 44 e1 3e fc f7 46 be
       0.27623868 -0.06476255 0.4399764 -0.19430536
000110 d5 7d 4b be 6c ac 1b 3d d7 fb c5 3c 9c 4b 8f 3e
       -0.1987222 0.03800623 0.024167938 0.27987373
000120 72 e9 a1 be fa a2 d8 bc 79 f7 dd be 55 c7 bb 3d
       -0.31623417 -0.0264449 -0.4335287 0.09168879
000130 27 ff 9d 3c 52 5f a8 be 91 70 0b bf 9b 51 f8 3e
       0.019286705 -0.32885224 -0.5446864 0.4849976
000140 97 a3 87 bd 47 75 b6 bd 5f fc 1b 3f ed 20 6d be
       -0.06622999 -0.08909088 0.6093196 -0.23157091
000150 01 e5 88 3e 38 4c b0 3c 98 30 bf 3b d4 07 c9 bc
       0.26737216 0.021520719 0.0058346502 -0.024539866
000160 e2 65 6e 3c dc 05 2e bf 21 35 d6 bd 5b 10 13 3f
       0.014550658 -0.6797769 -0.10459352 0.5744683
000170 bd 20 b2 be a2 35 83 3e a5 32 6f bd b7 9f bd bd
       -0.34790602 0.25626856 -0.058397908 -0.09258979
000180 e5 c7 07 bf 5c b9 3b 3e bf c8 dc 3d c3 84 f7 3e
       -0.5303939 0.18332428 0.10780477 0.48343477
000190 89 b3 2a be c0 87 ff bd 77 2d 0a 3d ee ef 2b 3e
       -0.1667005 -0.12477064 0.033734765 0.16790745
0001a0 b9 25 6c bd 09 d0 03 bf f2 9e ed 3d e0 94 ba 3d
       -0.057653163 -0.5148931 0.11602582 0.09110427
0001b0 cd 88 80 be 57 1e 95 3e 3b 4a 74 3e a8 7d 66 3e
       -0.2510437 0.2912471 0.23856442 0.22508872
0001c0 de 30 0a 3e 5e 2c cc be ec 01 80 3d 1b 07 0a 3f
       0.13495204 -0.398776 0.062503666 0.5391709
0001d0 9b 9b 62 3d d1 dd 09 be 35 ab fe be ff 1e 9a be
       0.05532418 -0.13463522 -0.49739996 -0.30101773
0001e0 8a 58 54 3d 39 14 1c 3f 08 20 04 3d 19 44 96 3e
       0.05184225 0.6096836 0.03225711 0.2934883
0001f0 bd 02 10 3d 0d 7c b5 be 1e c1 7e bd 40 33 72 be
       0.03515886 -0.35446206 -0.06219589 -0.23652363
000200 2a de 2d bc ab 2c 03 bf 2c 62 71 be 1a db 55 be
       -0.01061205 -0.5124003 -0.23572606 -0.20884362
000210 40 a4 7a 3c 62 34 95 3d cf 6f c4 3c be 0f 49 3e
       0.015297949 0.07285382 0.023979096 0.19634911
000220 df 7e 37 3e f2 92 d3 be 58 6e b4 bd ba 16 69 3e
       0.17919491 -0.41323048 -0.08810109 0.22762576
000230 4b df 0d bf 71 1a bb 3d 3b b0 c2 be 5e f4 19 be
       -0.55418843 0.09135903 -0.38025078 -0.15034625
000240 f1 b2 e5 be 9c 80 80 3d a6 f0 61 be b5 66 7c bc
       -0.44863084 0.0627453 -0.22064456 -0.015405347
000250 22 7d 9e 3d ba 04 61 3e 6f 62 fd be b3 ad 6b 3d
       0.07738711 0.2197446 -0.4948916 0.0575387
000260 46 45 c0 3e b1 5a cf 3e 7a 61 9f be 99 9f 64 bd
       0.3755285 0.4049888 -0.31129056 -0.055816267
000270 00 4c a8 3d e7 bf 15 bf 96 f3 e3 be 6f 47 e9 3d
       0.08217621 -0.58495945 -0.4452178 0.11390578
000280 7e 47 e6 bd 2d ae 99 be 1d 43 a8 bd 09 ee bb bc
       -0.11244105 -0.30015698 -0.08215926 -0.022940652
000290 a6 eb ef be fb 16 3c be 53 d6 32 3e 7b 4b 88 3c
       -0.46859473 -0.18368141 0.1746457 0.016637554
0002a0 b2 cc ec be fa 94 c0 bd af 33 9d be 9d e7 97 be
       -0.4624992 -0.09403415 -0.30703494 -0.29668894
0002b0 73 52 8f 3e 86 d5 b9 3e 9c 52 8d be 97 68 cb ba
       0.2799259 0.36295718 -0.27602088 -0.0015518841
0002c0 30 a0 a0 3e 56 aa f4 be 36 c3 d5 3d 99 90 8b bd
       0.31372213 -0.47786206 0.10437624 -0.06814689
0002d0 26 92 1c 3e 90 8c dc 3e df 29 b7 ba 3e 3e 34 be
       0.15290126 0.4307599 -0.001397427 -0.17601869
0002e0 e5 4e ce be 3f e8 6b 3e a2 7b 76 3d 8f 2d 6f be
       -0.40294567 0.23037814 0.0601765 -0.23357223
0002f0 ea 3d a4 3e 85 a4 ff be 13 77 c2 3d 13 9b 8b 3e
       0.32078487 -0.49930206 0.09495368 0.2726675
000300 6d 33 a6 3e 6c 73 87 3d e2 a4 8e bd 3e c9 7a be
       0.3246111 0.06613812 -0.06965043 -0.2449083
000310 72 35 1b 3d 26 e8 98 3e 03 bb 3d 3f 8b f5 05 3d
       0.037892766 0.29864615 0.7411348 0.03270487
000320 25 ca aa be 01 b6 7f be 57 30 35 3c 7a fa dc 3e
       -0.3335735 -0.24971773 0.011058888 0.43159848
000330 a2 5d db 3b 26 00 51 be 82 4f 49 3e 4b c4 84 be
       0.0066945115 -0.20410213 0.19659236 -0.2593101
000340 b3 c4 37 3b 34 d6 29 3e 9b 2d 1e 3d de d3 9f 3e
       0.0028040826 0.16585618 0.03861771 0.3121633
000350 18 7e 72 be 64 7b 50 bd 0a 31 43 be db eb 47 be
       -0.23680913 -0.050898924 -0.19061676 -0.19523565
000360 ca 28 4e be e2 63 0e 3f e2 9d 21 bf 32 8c ac bd
       -0.20132747 0.5562116 -0.63131535 -0.08425178
000370 73 5a 92 3e f4 3d 5c 3e 99 70 cc 3e 9d 7d 80 be
       0.28584632 0.21508008 0.39929655 -0.25095835
000380 df 32 86 3e a7 ff b1 3e 33 fb 9c bc d4 c9 6a 3d
       0.26210687 0.3476536 -0.01916275 0.057321385
000390 41 27 12 be 40 a9 fd 3e bd 07 88 bd 94 3c 06 be
       -0.14272787 0.4954319 -0.06642101 -0.13109046
0003a0 d9 f0 a0 3e 00 32 5e 3e bd 60 08 bd 2f c0 1b 3e
       0.31433752 0.21698761 -0.03329538 0.15210031
0003b0 6a 4d a0 bd 30 8d 52 be c5 39 4a 3e cc 19 84 bd
       -0.078272656 -0.20561671 0.197486 -0.06450233
0003c0 2f 00 07 3f fc df a7 be cf 9c b7 3e 2f f2 9b 3e
       0.52734655 -0.32788074 0.35861823 0.3045821
0003d0 58 2e 77 be 96 91 3b 3f 3e 7f 1f be 6b db 89 3e
       -0.24138772 0.7326902 -0.15575883 0.26925215
0003e0 62 88 80 3e aa 01 d4 be b4 ed a1 be 52 81 27 3d
       0.25104052 -0.4140752 -0.31626666 0.040894814
0003f0 ba 66 73 3e d9 68 1b bf a5 66 66 3e 1f 4a 83 be
       0.23769656 -0.6070686 0.22500093 -0.25642487

value_net.2.bias f4 [32]
000000 00 7a 1e 3e 36 3c c2 3b e8 08 7b 3d 8d 74 a1 3d
       0.15476227 0.005927588 0.06128779 0.078835584
000010 44 f6 54 3c 87 7c 26 3d a7 de 3b bc fe d1 4c bd
       0.012998167 0.040646102 -0.011466659 -0.05000495
000020 4a e0 f3 bc 93 2e b1 bd 85 f1 03 be 46 a6 a0 bd
       -0.029770035 -0.086514615 -0.12885101 -0.07844214
000030 ce 36 b0 3c fc 68 b1 bd 12 98 ff 3c 6d ef ba bd
       0.021510508 -0.08662602 0.031200442 -0.09127698
000040 9a 67 35 37 dc 08 69 bd 7f 5b 57 3d 73 5c 8d 3d
       1.0812562e-05 -0.056893215 0.05257749 0.06902399
000050 53 01 b3 3c 4a 14 df bd 40 c4 0c 3e a8 0a ac bd
       0.021851217 -0.10892542 0.13746738 -0.0840047
000060 21 71 1f be a8 74 df 3d c3 c6 82 bd 0e 56 c2 3d
       -0.15570499 0.10910922 -0.06385567 0.0948907
000070 04 78 06 be a1 5a 03 bd 8c 1d e6 bd 64 9a c6 3d
       -0.1313172 -0.032068852 -0.11236104 0.096974164
