MAPPO/No_Graph/save/SY_4_T1/agent_11_NGH_r.pt (torch, 127794 bytes, 15 tensors)

policy_net.0.weight f4 [32, 26]
0	0x3e22e76a	0.1590859
1	0xbe47aca8	-0.19499457
2	0xbe7e9efb	-0.24865334
3	0xbe83eda8	-0.25767255
4	0xbd8e8b97	-0.069602184
5	0xbe398e01	-0.18120576
6	0x3ea02b3c	0.31282985
7	0xbd9d0296	-0.07666509
8	0xbf49cc01	-0.7882691
9	0xbe38e8cf	-0.1805756
10	0x3dbdfbf7	0.09276574
11	0xbd81d635	-0.06339685
12	0xbcc7a3ae	-0.02437004
13	0x3cb87bcb	0.022519967
14	0xbdcae162	-0.099062696
15	0x3e08e715	0.13369401
16	0x3e20db53	0.15708666
17	0xbd931d78	-0.07183355
18	0xbedf5d28	-0.4362576
19	0xbe4714cc	-0.19441527
20	0x3d210f54	0.03932126
21	0x3ef29cbb	0.473852
22	0x3dfc4e66	0.12319641
23	0xbf0d497a	-0.5519024
24	0x3e7ed72f	0.24886774
25	0x3deb9249	0.11502511
26	0xbe90fc11	-0.2831731
27	0x3c6e26b2	0.014535593
28	0xbed4da3a	-0.41572744
29	0x3e18ed88	0.14934361
30	0x3e60cc0e	0.2195284
31	0xbe75c233	-0.23999862
32	0x3e771c5f	0.24131916
33	0xbf068828	-0.5255151
34	0x3e82c973	0.2554432
35	0x3d7b4afe	0.061350815
36	0x3ea70f78	0.3262899
37	0x3ed49a19	0.41523817
38	0xbe818474	-0.25296366
39	0xbd6baf16	-0.05754002
40	0xbe52c4c8	-0.20582879
41	0xbe24628f	-0.16053222
42	0x3e8f9b4f	0.2804818
43	0xbeb0cb45	-0.34530082
44	0x3e106574	0.14101201
45	0xbe3c336a	-0.18378988
46	0x3e4e5c0a	0.20152298
47	0x3de9ee61	0.1142242
48	0x3d3c04dd	0.045903075
49	0x3de65049	0.11245782
50	0xbe66e4ed	-0.22548266
51	0x3e813dfb	0.252426
52	0xbe96bedb	-0.29442486
53	0xbdc63d10	-0.096796155
54	0x3e6e096e	0.23245785
55	0x3dcad70e	0.099043
56	0xbef2054f	-0.47269675
57	0x3df0ab16	0.11751382
58	0xbee23c68	-0.4418671
59	0xbe641de5	-0.22277029
60	0xbd89b974	-0.067248255
61	0x3d43c157	0.047791805
62	0xbc0b536a	-0.008503774
63	0x3d9a5745	0.075361766
64	0xbe05e0c9	-0.1307403
65	0x3e5507bf	0.20803736
66	0x3e432777	0.19058023
67	0xbe02fe77	-0.12792383
68	0x3ec6c4f8	0.3882215
69	0xbde1318c	-0.109957784
70	0xbdaf5dac	-0.08562788
71	0xbf04cdf0	-0.51876736
72	0xbe2abf74	-0.16674596
73	0xbe9aae91	-0.3021131
74	0xbe7b1f1d	-0.24523588
75	0xbc0db4af	-0.008649035
76	0xbd3406cb	-0.04395179
77	0xbf1fb319	-0.62382656
78	0x3ea9bb6a	0.33150798
79	0x3dd87310	0.105688214
80	0x3db2cb50	0.08730185
81	0x3ea05087	0.31311437
82	0x3e646b90	0.22306657
83	0xbe32c8f0	-0.17459464
84	0xbf202438	-0.62555265
85	0x3e1b46fc	0.15163797
86	0xbe062b59	-0.13102473
87	0x3dbf41ae	0.09338699
88	0xbd53fd3b	-0.05175517
89	0x3ea04831	0.31305078
90	0xbeb45676	-0.35222214
91	0xbe9714b2	-0.29507977
92	0xbe7f05a0	-0.2490449
93	0xbd2da950	-0.042397797
94	0xbe259c2b	-0.16172855
95	0x3dec8e3b	0.11550566
96	0x3e898cca	0.26865226
97	0xbe89c8e0	-0.26911068
98	0xbeb2795d	-0.34858218
99	0x3e9ed5ec	0.31022584
100	0x3d822519	0.06354732
101	0x3e14d5dc	0.14534706
102	0x3ec915d1	0.39274457
103	0xbdab5c89	-0.08367259
104	0xbed83187	-0.42225286
105	0x3e877dc8	0.2646315
106	0x3e3d5dd7	0.18492828
107	0x3e23ecbf	0.1600828
108	0x3e6162ef	0.22010396
109	0x3f4398ea	0.76405203
110	0xbe106443	-0.14100747
111	0xbe55c61f	-0.20876358
112	0xbecf115f	-0.4044294
113	0x3e9d35a6	0.30704993
114	0xbe8b5bc8	-0.2721846
115	0x3e8f8572	0.28031498
116	0x3d2e17a4	0.042503014
117	0x3e0ef7de	0.13961741
118	0x3e07cf6d	0.1326272
119	0x3e0fc259	0.14038981
120	0x3e365b11	0.17808177
121	0x3eb214b5	0.34781423
122	0x3e7d3e14	0.24730712
123	0xbdb4e93f	-0.08833551
124	0x3e00c362	0.12574533
125	0x3e0455ac	0.12923306
126	0x3f0e2bab	0.5553538
127	0x3c97ae79	0.018515812
128	0x3dfe36df	0.124128096
129	0xbc068b93	-0.008211988
130	0x3de98cde	0.114038214
131	0x3e982e06	0.29722613
132	0xbeaccb5c	-0.337489
133	0x3c885e53	0.01664654
134	0xbf13cdf0	-0.5773611
135	0x3eaf8e79	0.34288386
136	0x3f177ce2	0.5917493
137	0x3e81b0a7	0.25330088
138	0xbddf6377	-0.10907643
139	0xbd916fe2	-0.07101418
140	0x3ecaedf2	0.39634663
141	0x3e74a74b	0.23891942
142	0xbd00e54a	-0.031468667
143	0x3bfbb56e	0.00768154
144	0x3e1c97af	0.15292238
145	0x3e8451b5	0.25843588
146	0xbec50299	-0.38478544
147	0xbe4ddca9	-0.20103706
148	0xbe0748f1	-0.13211419
149	0x3d20b5d7	0.039235916
150	0x3d4f4997	0.05060729
151	0x3e8e3faa	0.27782947
152	0xbe1ff554	-0.15620929
153	0x3e1fee8e	0.15618345
154	0x3da1bd47	0.0789743
155	0xbe94f648	-0.29094148
156	0xbdfa4051	-0.12219299
157	0xbe114079	-0.1418475
158	0x3f0278ec	0.5096576
159	0x3e96fda2	0.2949038
160	0x3e0ba426	0.13636836
161	0xbdf769b1	-0.12080706
162	0xbe0cd2ec	-0.13752335
163	0x3eb21fd9	0.34789923
164	0x3e0e0f92	0.13873127
165	0xbe72d935	-0.2371567
166	0x3edd5d0b	0.4323505
167	0x3e327f65	0.1743141
168	0x3e7369cd	0.23770829
169	0x3e3223ea	0.17396513
170	0xbe241c65	-0.16026457
171	0x3e02230a	0.12708679
172	0x3ef6d8ad	0.48212186
173	0xbd1dd812	-0.03853614
174	0x3d8c0e13	0.06838622
175	0x3ef2ea0d	0.47444192
176	0x3e6db48c	0.23213404
177	0x3ece87dd	0.4033803
178	0x3e776d36	0.24162754
179	0x3e9f91c3	0.31165895
180	0x3ea3ec51	0.32016233
181	0xbe7565f9	-0.2396468
182	0xbd7e4cbc	-0.0620849
183	0xbe445794	-0.19174033
184	0x3c6ae406	0.014336592
185	0xbebb7fa2	-0.36620814
186	0xbdf20a8d	-0.11818419
187	0x3c20806a	0.009796241
188	0xbea6c56a	-0.3257249
189	0x3ee178c6	0.44037455
190	0xbe179ec0	-0.14806652
191	0xbe93ab53	-0.28841648
192	0x3e0e55b0	0.13899875
193	0x3dcb053a	0.09913106
194	0xbead9fbb	-0.33910927
195	0x3e65c35e	0.22437808
196	0x3e251e53	0.16124849
197	0x3bc4a342	0.006000907
198	0x3f02074d	0.5079239
199	0xbd96a3d5	-0.07355467
200	0x3ebf693a	0.3738497
201	0xbdaef4a7	-0.085427575
202	0xbe17915d	-0.14801545
203	0xbe4a2cb1	-0.19743611
204	0x3e4a5276	0.19758019
205	0xbe6709fd	-0.22562404
206	0xbe211ddf	-0.15734051
207	0x3e90f46b	0.28311476
208	0x3cf0f386	0.029412996
209	0xbe67e3f2	-0.22645548
210	0xbf17ff5b	-0.59374017
211	0xbea10a6a	-0.31453258
212	0xbe6b3ab6	-0.22971615
213	0xbe9b4371	-0.3032489
214	0x3e483461	0.19551231
215	0xbe50dd2d	-0.20396872
216	0xbe90495b	-0.28180966
217	0x3e2fccc6	0.17167959
218	0x3f2383f1	0.638732
219	0x3e0c4467	0.13697968
220	0x3e963925	0.29340473
221	0x3e947a9e	0.289998
222	0xbd2edd76	-0.04269167
223	0xbe1b2cfe	-0.15153882
224	0xbeeb4a86	-0.45955294
225	0x3ef6c5c0	0.48197746
226	0x3eafee7b	0.34361634
227	0x3dcd157b	0.10013863
228	0xbddfc054	-0.109253556
229	0xbe785569	-0.24251331
230	0x3e8c0f50	0.27355433
231	0x3e232891	0.15933444
232	0xbe341449	-0.17585863
233	0xbcdade5e	-0.026717361
234	0xbcae7482	-0.02129579
235	0x3edb6793	0.42852458
236	0xbdb6692b	-0.08906778
237	0x3ec445db	0.38334545
238	0xbe5285ed	-0.20558901
239	0xbe61ddb9	-0.22057237
240	0x3e55bba8	0.20872366
241	0x3ef88a0b	0.48542818
242	0x3cda443b	0.026643863
243	0x3e55d52e	0.20882103
244	0x3d4688be	0.04847025
245	0xbea22f60	-0.3167677
246	0x3e8a3638	0.2699449
247	0xbeaf73ea	-0.34268123
248	0xbd8c48d2	-0.06849827
249	0xbdc194ce	-0.0945221
250	0x3e975a86	0.2956125
251	0x3d23bbc5	0.039973993
252	0x3e82e717	0.25566933
253	0xbecd2e15	-0.4007422
254	0xbe57c905	-0.21072777
255	0x3eb54abe	0.35408586

policy_net.0.bias f4 [32]
0	0x3c86ac06	0.016439449
1	0xbd468b9d	-0.04847299
2	0x3c7e378c	0.015516173
3	0x3d741efb	0.059599858
4	0x3c22752b	0.00991563
5	0x3d821d97	0.063533
6	0x3d46c271	0.048525278
7	0xbda8c0ce	-0.082398996
8	0xbd8af9cc	-0.06785926
9	0x3e3de5f0	0.18544745
10	0xbc9fd52e	-0.019510832
11	0xbe1ae0e2	-0.15124848
12	0xbe279b58	-0.16367853
13	0x3dd44c08	0.10366064
14	0xbc9dd5bf	-0.019266961
15	0xbda37b03	-0.07982447
16	0xbc09d2d0	-0.008412078
17	0x3dbe316c	0.0928677
18	0xbda42890	-0.08015549
19	0x3d837b53	0.064200066
20	0x3d8b0e6b	0.067898594
21	0xbe24962d	-0.16072913
22	0xbe010f6b	-0.12603538
23	0xbd5e5617	-0.05428132
24	0xbe0df992	-0.13864735
25	0xbd0de197	-0.034638967
26	0x3c27ce5b	0.01024207
27	0x3e28d85d	0.16488786
28	0x3e21f158	0.15814722
29	0xbd77dba2	-0.060512193
30	0x3cb2b8b4	0.021816589
31	0x3e22c0d6	0.15893874

policy_net.2.weight f4 [32, 32]
0	0xbafb0280	-0.0019150525
1	0xbddf132b	-0.10892328
2	0xbdff636c	-0.12470135
3	0xbe78be8d	-0.2429144
4	0xbe14e1c0	-0.14539242
5	0x3e0189ab	0.12650172
6	0x3bbd840b	0.005783563
7	0x3e8a56f2	0.2701946
8	0x3ea3aa28	0.31965756
9	0x3e0131f9	0.1261672
10	0x3f0e2dc4	0.5553858
11	0x3e8591ec	0.26087892
12	0xbc94c910	-0.01816228
13	0x3e8554c5	0.26041237
14	0x3e19ac89	0.15007223
15	0x3e7698f6	0.24081787
16	0xbf4b983b	-0.7952916
17	0xbf209350	-0.6272478
18	0x3e139f8c	0.14416331
19	0x3decf39d	0.11569903
20	0x3e10d60d	0.14144154
21	0xbd96808a	-0.07348736
22	0x3e58d3d0	0.2117455
23	0xbe4d0fac	-0.2002551
24	0x3e93e79b	0.28887638
25	0x3e7c9888	0.24667561
26	0xbe4b892c	-0.19876546
27	0xbd9a0d77	-0.075220995
28	0xbe17dda9	-0.1483065
29	0xbf2440db	-0.6416146
30	0xbe65cb51	-0.2244084
31	0x3d53a14c	0.051667497
32	0xbcf76cb3	-0.030203199
33	0x3ed1dd84	0.40989316
34	0x3ee45d79	0.44602564
35	0xbcd946a1	-0.026522936
36	0x3ea664ee	0.32498878
37	0x3d656043	0.056000005
38	0x3d83d86d	0.06437764
39	0x3dcdae8d	0.100430585
40	0x3e4f258c	0.20229167
41	0xbf0bc7de	-0.5460185
42	0xbd699e3f	-0.05703568
43	0x3e82c987	0.25544378
44	0x3ec9289d	0.39288798
45	0xbef4419c	-0.47706306
46	0xbe09564d	-0.13411827
47	0x3e8e3747	0.27776548
48	0x3c8e9005	0.017402658
49	0xbe5de4f9	-0.21669377
50	0xbe483f2c	-0.19555348
51	0x3ed3eb7a	0.41390592
52	0x3c547a8f	0.012968673
53	0x3e585ba7	0.21128713
54	0x3ed76959	0.4207256
55	0xbe5378d8	-0.20651567
56	0x3d997c15	0.0749437
57	0xbe92ee76	-0.28697556
58	0xbe68534d	-0.22688027
59	0xbedac0cf	-0.42725226
60	0xbe7382bd	-0.23780341
61	0x3e8d0719	0.27544478
62	0x3d804cbb	0.06264635
63	0x3dae85b7	0.08521598
64	0x3e6c4a80	0.23075294
65	0x3e49cda7	0.19707356
66	0x3ddf106f	0.10891806
67	0xbedca074	-0.43091166
68	0x3ebf3a79	0.373493
69	0xbf0cf3ff	-0.5505981
70	0xbe34134d	-0.17585488
71	0xbe2954d3	-0.16536264
72	0xbd3ebbed	-0.04656594
73	0xbec2275a	-0.37920648
74	0xbe5273a6	-0.20551929
75	0x3f2815f1	0.6565848
76	0x3cde7472	0.027155135
77	0xbea9c7ff	-0.33160397
78	0xbe769ff9	-0.24084462
79	0x3d1dfdad	0.038572002
80	0xbe25b37d	-0.1618175
81	0x3bca14c7	0.0061670276
82	0x3ecb5421	0.39712623
83	0xbefa9dba	-0.4894846
84	0xbe9c0840	-0.30475044
85	0x3d393f58	0.045226425
86	0x3d38d84b	0.045128148
87	0x3d0a7e37	0.033811774
88	0x3f05ab5f	0.52214617
89	0xbd9fbd1e	-0.07799743
90	0x3e87e12c	0.2653898
91	0xbe079f87	-0.13244449
92	0x3e3a920c	0.18219775
93	0x3cbfdbf4	0.023420312
94	0xbc650221	-0.013977558
95	0x3c609413	0.013707179
96	0xbcd960d2	-0.026535425
97	0x3ef324b7	0.4748895
98	0xbee511d0	-0.44740152
99	0xbeadfcbb	-0.3398188
100	0xbea6af8e	-0.32555813
101	0x3db9ba9e	0.090687975
102	0xbf00f466	-0.5037292
103	0xbdb21277	-0.08694928
104	0xbe484fc7	-0.19561683
105	0xbe8640cf	-0.2622132
106	0x3ee2ac1c	0.44271934
107	0xbde75c85	-0.112969436
108	0x3e933687	0.2875254
109	0xbe328e47	-0.17437087
110	0xbc4b235a	-0.012398565
111	0x3d1fed56	0.0390447
112	0xbf349cc2	-0.70551693
113	0x3dc94ea3	0.09829452
114	0x3d352af2	0.04423041
115	0x3eb6e2a2	0.35719782
116	0x3dfaff30	0.122557044
117	0x3eb67570	0.35636473
118	0x3c55229e	0.013008742
119	0x3e8dff55	0.27733865
120	0xbe2af327	-0.16694318
121	0x3e8fa125	0.2805263
122	0x3cfbcef7	0.030738337
123	0x3d34f537	0.044179168
124	0x3da416c8	0.08012158
125	0x3deb16ff	0.114789955
126	0x3d6972b0	0.05699414
127	0xbed35cd1	-0.4128175
128	0xbdac5c42	-0.08416034
129	0xbd739966	-0.059472464
130	0xbe8268f5	-0.254707
131	0xbe48fe50	-0.19628263
132	0x3e83d664	0.25749505
133	0x3e4a450d	0.19752903
134	0xbcafc53a	-0.02145635
135	0xbe8bf068	-0.27331853
136	0xbe3db219	-0.1852497
137	0x3e937490	0.28799868
138	0x3f276ff0	0.6540518
139	0x3ca21f4e	0.019790318
140	0x3e84d4fa	0.25943738
141	0xbeb4b691	-0.35295537
142	0x3e80307f	0.25037
143	0x3ea77f0f	0.32714126
144	0xbdbe3e48	-0.09289223
145	0x3e906cc1	0.28207973
146	0xbe686fe0	-0.22698927
147	0x3ccc0439	0.024904357
148	0x3ef311ea	0.47474605
149	0xbe233b3c	-0.15940565
150	0x3e74dd6f	0.23912595
151	0xbf23cc83	-0.63983935
152	0x3ea55e3f	0.32298467
153	0x3e9aaf52	0.30211884
154	0x3e50661a	0.20351449
155	0x3e3ead04	0.18620688
156	0x3e75134d	0.23933144
157	0xbe4606bb	-0.19338505
158	0xbec36f7d	-0.38170996
159	0xbeb5d8a3	-0.35516843
160	0xbe5439a7	-0.20725118
161	0x3e29bbeb	0.16575591
162	0xbec03b15	-0.37545076
163	0xbd3f6654	-0.046728447
164	0xbe32c664	-0.17458493
165	0xbec95693	-0.39323863
166	0x3f2b0d36	0.66817033
167	0xbe71e8e1	-0.23623993
168	0xbf14fa8e	-0.58194816
169	0xbd06171d	-0.032736886
170	0xbf15866b	-0.5840823
171	0xbd3c9b20	-0.046046376
172	0xbcaf5c2e	-0.02140626
173	0x3e99487a	0.29938108
174	0xbddf5f82	-0.109068885
175	0x3e36cc13	0.17851286
176	0x3ea21f8d	0.31664696
177	0xbd795611	-0.060873095
178	0x3da2aecd	0.07943497
179	0xbd1eaf69	-0.038741503
180	0x3e9f7ae1	0.31148437
181	0x3e81476a	0.25249797
182	0x3dde70ba	0.10861345
183	0x3d3d1441	0.046161894
184	0xbcaf8342	-0.021424893
185	0x3dbddc0f	0.092704885
186	0xbeb87e4d	-0.3603386
187	0xbcba729c	-0.022759728
188	0x3ca8b4a0	0.020593941
189	0x3cbfa4a6	0.02339394
190	0x3e15e5fc	0.14638513
191	0x3f13606e	0.57569015
192	0x3ea3a788	0.31963754
193	0xbd0c38c3	-0.03423382
194	0xbed0c4e4	-0.40775216
195	0xbf11d654	-0.56967664
196	0x3e171f81	0.14758112
197	0x3eddc0ab	0.43311056
198	0xbec43410	-0.3832097
199	0xbe8f40ff	-0.27979276
200	0x3eac28f1	0.33624986
201	0x3e26496b	0.16238944
202	0xbe72f902	-0.23727801
203	0xbed95ffc	-0.42456043
204	0x3ed77ab9	0.42085817
205	0xbeabe3f4	-0.33572352
206	0x3f0486bd	0.51768094
207	0xbe997367	-0.29970858
208	0xbec22269	-0.37916878
209	0xbdb96a9f	-0.090535395
210	0xbe1504a5	-0.14552553
211	0x3d3bb430	0.045826137
212	0xbddb1538	-0.106974065
213	0x3e54adb4	0.20769387
214	0xbdc2f6ef	-0.09519755
215	0xbea01dd6	-0.31272763
216	0x3e006bd4	0.12541133
217	0x3dc9074b	0.09815844
218	0xbd7bf0a5	-0.061508793
219	0x3d592325	0.053012032
220	0xbe7bf545	-0.24605282
221	0xbecab9d2	-0.39594895
222	0xbecfc51f	-0.4058008
223	0x3e49ffad	0.19726439
224	0xbe041f97	-0.12902676
225	0xbd116c82	-0.03550387
226	0x3d203d19	0.039120767
227	0xbd3a1b47	-0.04543617
228	0xbe8fa98e	-0.28059047
229	0xbf0076c2	-0.5018121
230	0xbc58c532	-0.013230609
231	0x3db04cfa	0.08608432
232	0x3eecaacb	0.46224055
233	0xbed68a39	-0.4190233
234	0x3ee33d33	0.4438263
235	0x3f17b4dc	0.59260345
236	0x3ed4c8e7	0.41559526
237	0xbe2bdbfd	-0.16783138
238	0x3e9e5403	0.3092347
239	0xbf0a1f67	-0.53954166
240	0x3ebaaa3a	0.36457998
241	0x3d05759a	0.032582857
242	0xbe4e97fe	-0.20175168
243	0xbe36cd7e	-0.17851827
244	0x3bbd2054	0.005771676
245	0x3f18c9c8	0.59682894
246	0xbc609f81	-0.013709904
247	0xbd879d88	-0.066218436
248	0x3e2b623e	0.16736695
249	0x3e37464c	0.1789791
250	0xbdbaef26	-0.09127645
251	0xbe017eba	-0.12645999
252	0xbe0646ab	-0.13112895
253	0xbbd9cf65	-0.006647038
254	0xbdbdff84	-0.09277251
255	0xbdf1631c	-0.11786482

policy_net.2.bias f4 [32]
0	0xbc1739dd	-0.009230104
1	0xbe0657fc	-0.13119501
2	0xbe19a4ac	-0.15004224
3	0xbd82ac5d	-0.06380532
4	0xbad3c87c	-0.0016157771
5	0x3d48ec20	0.04905331
6	0x3c5cb7e7	0.01347158
7	0xbe22f5d6	-0.15914091
8	0x3b798c2e	0.0038077938
9	0x3db8ac24	0.09017208
10	0xbe2ae6ce	-0.16689608
11	0x3df5a67d	0.11994646
12	0xbb6fed66	-0.0036610006
13	0xbcb84ea9	-0.022498446
14	0x3ca21ef6	0.019790154
15	0x3c9349fb	0.017979613
16	0xbbb870dd	-0.0056286887
17	0x3e122c36	0.14274678
18	0x3e352b85	0.17692383
19	0xbcdfb739	-0.027309047
20	0x3c6dfb13	0.014525193
21	0x3c80cd6f	0.015722958
22	0x3e0214c0	0.12703228
23	0x3caf5e30	0.021407217
24	0xbdd215ba	-0.1025805
25	0x3dbf43ad	0.0933908
26	0x3e212183	0.1573544
27	0xbb0215e1	-0.0019849467
28	0xbe0641e6	-0.13111076
29	0x3e040b53	0.12894945
30	0x3db5d6b4	0.08878842
31	0xbe176cb8	-0.14787567

policy_net.4.weight f4 [32, 32]
0	0x3d9c2330	0.07623899
1	0x3dd176ea	0.10227759
2	0x3e554a4f	0.20829128
3	0xbee95a91	-0.4557691
4	0xbe89b6f6	-0.268974
5	0x3ebec2bb	0.37257943
6	0xbf0de04b	-0.5542037
7	0x3e1210f7	0.14264284
8	0x3bd80d63	0.0065933927
9	0x3e8c432b	0.27394995
10	0xbd6ace12	-0.05732543
11	0x3e18d9db	0.14926855
12	0xbf0ed6a1	-0.5579625
13	0xbe9bdcbb	-0.3044184
14	0x3e37ea5a	0.17960492
15	0x3f0b2b21	0.54362684
16	0xbeb5c257	-0.35499832
17	0xbf1e2aa0	-0.6178379
18	0xbe945cf1	-0.2897716
19	0x3c857009	0.016288774
20	0x3ee462ec	0.4460672
21	0xbeb1af3f	-0.34704015
22	0x3e5cf57d	0.21578021
23	0xbed18adf	-0.40926263
24	0xbe23aee0	-0.15984678
25	0xbecc6418	-0.39920115
26	0x3ea03f4a	0.31298286
27	0xbeb7e06f	-0.35913417
28	0xbec7a6a9	-0.3899434
29	0xbdca468f	-0.09876739
30	0xbe0e0679	-0.13869657
31	0xbdba101b	-0.09085103
32	0xbf2ee6b6	-0.68320787
33	0x3d66e99b	0.056375127
34	0x3dbb15e3	0.09135034
35	0xbf026f87	-0.5095143
36	0xbd971024	-0.073761255
37	0x3f0f4cbe	0.55976474
38	0xbf73af42	-0.951893
39	0x3dfabfc9	0.12243611
40	0xbe24ab32	-0.16080931
41	0x3e5c0f49	0.21490206
42	0xbe1c2dc8	-0.15251839
43	0xbe3cb238	-0.1842736
44	0x3e990bbe	0.2989177
45	0xbedcf115	-0.4315268
46	0xbe43c9fc	-0.1912002
47	0x3cd9e6fe	0.026599403
48	0xbea7badf	-0.3275976
49	0x3c0f377b	0.008741255
50	0x3e26e4cd	0.16298218
51	0x3ea8bb10	0.32955217
52	0x3e05c1b5	0.13062175
53	0xbeabfcc9	-0.33591297
54	0xbe6970a7	-0.2279688
55	0xbe87dd2b	-0.26535925
56	0x3e20a393	0.15687399
57	0x3d5b9301	0.05360699
58	0x3ecc6e89	0.39928082
59	0xbed2b493	-0.41153392
60	0x3e84e7c3	0.2595807
61	0x3d910423	0.07080867
62	0xbbc20a2a	-0.005921622
63	0xbd7794b8	-0.060444564
64	0x3f1beaea	0.60905325
65	0xbe1bda9e	-0.15220115
66	0x3dd46e32	0.103725806
67	0x3f0375e0	0.5135174
68	0x3eb0effe	0.345581
69	0xbe6ee4c9	-0.23329462
70	0x3e8b989f	0.27264878
71	0xbda8ea87	-0.082478575
72	0x3f2141d9	0.629911
73	0x3e8ae9b5	0.2713143
74	0xbd168c82	-0.036755092
75	0xbdfd479d	-0.12367175
76	0x3f123346	0.5710949
77	0xbe0185e8	-0.12648737
78	0x3ed42e9e	0.41441816
79	0x3e19aa2a	0.15006319
80	0x3f484b48	0.7823987
81	0x3e2757d9	0.16342105
82	0x3e8e2420	0.27761936
83	0xbef8179b	-0.4845551
84	0xbe20da6e	-0.15708324
85	0xbe14ad37	-0.14519201
86	0xbe827020	-0.2547617
87	0x3d5ed86e	0.054405622
88	0x3ecdd772	0.40203434
89	0xbb620955	-0.0034490426
90	0xbe66f763	-0.22555308
91	0x3ea6019c	0.32423103
92	0x3d561e09	0.052274738
93	0x3e6a4797	0.22878872
94	0xbcb83b84	-0.022489317
95	0xbd924227	-0.07141524
96	0xbcaa7ff7	-0.020812972
97	0xbe2ff3d3	-0.17182855
98	0x3daf8c4e	0.08571683
99	0x3e994e9e	0.29942793
100	0x3ea7a35f	0.3274183
101	0x3c1d8333	0.0096138
102	0x3f0181b0	0.5058851
103	0xbe0c417b	-0.13696854
104	0x3ea0ca5c	0.31404388
105	0x3cd185cd	0.025576496
106	0xbb865967	-0.004100013
107	0x3d9750dd	0.0738847
108	0x3f2bb0f5	0.6706689
109	0xbd1598ef	-0.036522802
110	0xbd95f5b2	-0.07322253
111	0xbe885fa2	-0.26635462
112	0x3efa5092	0.48889595
113	0xbe20be27	-0.15697537
114	0x3e5ac202	0.2136307
115	0xbe553430	-0.20820689
116	0xbdd113f4	-0.10208884
117	0x3f5eca8a	0.870278
118	0xbe85f4da	-0.2616337
119	0x3bedef26	0.0072611747
120	0xbe833987	-0.25629827
121	0x3d27d41e	0.040973775
122	0xbdff6c52	-0.12471832
123	0x3ee6983d	0.45038024
124	0xbf1de98d	-0.61684495
125	0xbe0ba477	-0.13636957
126	0xbef5fb9a	-0.4804352
127	0x3ec3d4f7	0.38248417
128	0x3d6e37b5	0.058158595
129	0xbe9d4961	-0.30720046
130	0xbe195942	-0.14975455
131	0xbedf5ddd	-0.436263
132	0x3d4ab148	0.049485475
133	0xbe1521ae	-0.14563629
134	0x3da8225b	0.08209678
135	0xbe2ea1b3	-0.17053871
136	0xbd8d93ee	-0.06912981
137	0xbebe743d	-0.37198058
138	0xbe6983e2	-0.22804216
139	0x3e3e8c1a	0.18608132
140	0x3e5f4efd	0.21807475
141	0xbe217508	-0.157673
142	0x3f2c27e7	0.67248386
143	0xbe0e98f4	-0.13925534
144	0x3e6ff13a	0.23431864
145	0x3ea93b28	0.33052945
146	0x3e9a3e10	0.30125475
147	0x3ef3e0c0	0.47632408
148	0x3ef420b2	0.47681195
149	0xbc5300fc	-0.012878653
150	0x3e946725	0.28984943
151	0x39c0ecd5	0.00036797547
152	0xbe8124d2	-0.25223404
153	0x3ef03224	0.46913254
154	0x3df4d6b8	0.11955017
155	0x3c821b26	0.015882086
156	0xbf0970d5	-0.53687793
157	0x3e114e5c	0.14190048
158	0x3ea0d581	0.3141289
159	0xbf23e9e6	-0.64028776
160	0x3ee8db62	0.45479876
161	0xbdabbc8d	-0.083855726
162	0x3ebf1e39	0.37327746
163	0x3ed22fa0	0.4105196
164	0x3ec7d115	0.39026704
165	0x3d4142a3	0.04718269
166	0x3de4f15d	0.11178849
167	0x3e73fe6e	0.23827526
168	0x3daf3b97	0.08556288
169	0xbd50f40f	-0.051014002
170	0x3d790da0	0.06080401
171	0x3ecfa0c1	0.40552333
172	0x3ec62a85	0.38704315
173	0x3f4174f5	0.7556909
174	0xbd8c9ed8	-0.068662345
175	0xbf1a6396	-0.60308206
176	0x3e0b7f0c	0.13622683
177	0xbcdad3bb	-0.02671229
178	0x3f00fb3f	0.5038337
179	0xbf0f2f98	-0.55932
180	0xbc9e5cb1	-0.019331308
181	0x3ea7cca3	0.32773313
182	0x3e9c27b1	0.30499032
183	0x3e4abe69	0.19799198
184	0x3e859be7	0.26095507
185	0x3da9acc5	0.08284906
186	0xbcf0bc21	-0.029386582
187	0x3eb3e0b0	0.3513236
188	0x3d8b6637	0.06806605
189	0x3d9e2f5c	0.07723877
190	0xbeb7c9f1	-0.35896257
191	0xbe918892	-0.28424507
192	0x3d11d6cd	0.03560524
193	0x3e97c373	0.29641303
194	0x3ed15608	0.4088595
195	0xbe440a77	-0.19144617
196	0xbea58436	-0.3232743
197	0xbddae690	-0.106885076
198	0xbbe91cc5	-0.0071140253
199	0x3ecd1a9b	0.4005936
200	0x3e24655f	0.16054295
201	0xbeca1eae	-0.39476532
202	0x3f130341	0.5742684
203	0xbac509ca	-0.0015032825
204	0x3ea7672f	0.3269591
205	0xbe978794	-0.29595625
206	0xbf10c3e1	-0.5654889
207	0xbd990738	-0.0747208
208	0x3e96c9d1	0.2945085
209	0xbef84fc4	-0.48498356
210	0xbedd5f03	-0.4323655
211	0xbeabf239	-0.3358324
212	0x3ea78532	0.32718807
213	0x3d1ed362	0.03877581
214	0xbe3e8311	-0.18604685
215	0x3eb4e96f	0.35334346
216	0xbd8f1823	-0.069870256
217	0xbe826ac4	-0.2547208
218	0xbeb8a8be	-0.3606624
219	0xbe65cb0a	-0.22440735
220	0x3f12965d	0.57260686
221	0x3d372bab	0.04471938
222	0xbe0882a4	-0.13331085
223	0xbd3a4ec6	-0.04548528
224	0xbb9bbfe9	-0.004753102
225	0xbf598e39	-0.8498264
226	0xbf2bc2c4	-0.67094064
227	0xbcf41616	-0.029795688
228	0x3dc9afec	0.098480076
229	0x3da88b49	0.082296915
230	0xbd38e218	-0.045137495
231	0xbe1e94f0	-0.15486503
232	0x3e88aca1	0.26694205
233	0x3e21ca55	0.1579984
234	0xbe17a4ab	-0.1480891
235	0x3f47e9c7	0.7809109
236	0xbcd4c58d	-0.025973106
237	0x3b9ad19b	0.004724694
238	0x3e2fe0fc	0.17175668
239	0x3ebba719	0.36650923
240	0xbeda85cb	-0.426802
241	0x3e5d458a	0.21608558
242	0x3ed3c746	0.4136297
243	0x3e41ee37	0.18938528
244	0x3e9a504a	0.3013938
245	0x3e22e87b	0.15908997
246	0xbe24c95b	-0.16092436
247	0x3ef07071	0.46960786
248	0xbe0ed159	-0.13947047
249	0x3be68784	0.0070351977
250	0x3cc142bd	0.023591394
251	0x3e0b0001	0.1357422
252	0xbe072b38	-0.1320008
253	0x3eae3651	0.34025815
254	0x3e988c9b	0.29794773
255	0xbd6c2acc	-0.057658

policy_net.4.bias f4 [32]
0	0xbd6d9d52	-0.05801136
1	0xbd051d11	-0.032498423
2	0x3b530bfb	0.0032203186
3	0xbc439d83	-0.011939409
4	0x3e3a7f1b	0.1821255
5	0xbd1e5489	-0.038654838
6	0xbe2c3ff0	-0.16821265
7	0x3e4488f1	0.19192864
8	0xbe615e5f	-0.22008656
9	0x3cf13cb7	0.029447896
10	0x3e367aca	0.17820278
11	0x3e64c1b2	0.22339514
12	0x3e1e9679	0.15487088
13	0x3e53f071	0.2069719
14	0xbc01d84d	-0.007925105
15	0xbc3b8472	-0.011445152
16	0x3e5f6e9c	0.21819538
17	0x3a663bd9	0.00087827217
18	0xbe44ea37	-0.19229971
19	0xbd27ab78	-0.04093501
20	0x3e397fe6	0.18115196
21	0xbe71f613	-0.23629026
22	0x3e37f641	0.17965032
23	0xbbb037de	-0.0053777536
24	0xbe6775e3	-0.22603564
25	0xbe637923	-0.22214179
26	0x3c04171a	0.0080621485
27	0xbe38bab6	-0.18039975
28	0xbe4cebb3	-0.20011787
29	0xbc470ce8	-0.012149073
30	0x3c94c515	0.018160382
31	0x3e4215d2	0.18953636

policy_net.6.weight f4 [20, 32]
0	0xba879c70	-0.0010346305
1	0xb9f3bc2e	-0.00046488777
2	0x3ba02144	0.004886778
3	0xb7a1c4e7	-1.9284385e-05
4	0xb9a32bbf	-0.00031122376
5	0xbb03a7e6	-0.002008909
6	0xbb135727	-0.0022482367
7	0x3b00c73f	0.001965001
8	0x3a1865bb	0.0005813499
9	0x3b0fe63a	0.0021957294
10	0xb9ecf5ae	-0.00045196473
11	0x39d921b0	0.00041414564
12	0xbaba4cef	-0.0014213602
13	0xbb4cdfd5	-0.0031261344
14	0x3b47fc0a	0.0030515217
15	0xb9e3bd3b	-0.00043437802
16	0xba925c9d	-0.0011166517
17	0x3a4467bc	0.0007492264
18	0x391421a4	0.00014126912
19	0x39c41ca5	0.00037405375
20	0x3a3324c5	0.0006833787
21	0x3a8a310d	0.0010543183
22	0x3ad5d947	0.0016315364
23	0xba66876b	-0.00087939826
24	0x399fc4d4	0.00030473492
25	0xb8c4d354	-9.385371e-05
26	0xbb2c1d6d	-0.0026262656
27	0xbada328c	-0.0016647144
28	0x3b361b62	0.0027787318
29	0x39194c5e	0.00014619666
30	0xbb43c062	-0.0029869308
31	0xbaa29a2d	-0.0012405567
32	0x3b8a3cb7	0.0042186636
33	0xbb286bf6	-0.0025699115
34	0xbca6bb0a	-0.020352859
35	0xbc132c58	-0.00898274
36	0x3b9f5860	0.00486283
37	0x3b08dd5e	0.0020883898
38	0xbb3ced83	-0.0028828091
39	0x3b4dee31	0.003142249
40	0x3b52c1ab	0.0032158892
41	0xbcaa4745	-0.020785937
42	0x3c0ead68	0.008708335
43	0x3c399e72	0.01132928
44	0x3be2b655	0.0069187083
45	0x3b716eb4	0.0036839666
46	0x3b10c5fa	0.002209066
47	0x3b14bd84	0.0022695968
48	0x3bf164a9	0.007366736
49	0xbbd0e58d	-0.006375021
50	0xbbbc7d3f	-0.005752235
51	0x3c8222e6	0.015885781
52	0x3bb031db	0.005377037
53	0xbc044e16	-0.008075258
54	0x3bb6906f	0.005571417
55	0x3b3be668	0.0028671268
56	0xbb14c618	-0.002270108
57	0x3aeeed94	0.0018228763
58	0x3abec6a9	0.0014555055
59	0xba3dd518	-0.0007241531
60	0xbc14f1e1	-0.009090872
61	0x3b77eadf	0.0037829203
62	0xbac4debb	-0.0015019992
63	0x3bcd2e6b	0.006261637
64	0xb5af380a	-1.3054826e-06
65	0xbb1ed544	-0.0024236003
66	0x3a29ac29	0.0006472492
67	0xba5cd3ec	-0.0008423913
68	0x39615c6a	0.00021492099
69	0x3aac99fc	0.001316845
70	0x39a6870e	0.0003176261
71	0x3ad404ab	0.0016175708
72	0x3a163b56	0.00057308876
73	0xbac2efef	-0.0014872531
74	0x3a1e5bc3	0.0006040895
75	0x3b2e5d47	0.002660589
76	0xb9fa0412	-0.00047686748
77	0x39963c7d	0.00028655297
78	0x3adba3d8	0.0016757203
79	0x3b0d428a	0.0021554553
80	0xbb05ce52	-0.0020417166
81	0x3b7f10d3	0.003891994
82	0xbaba3e5e	-0.0014209261
83	0x3a0fd147	0.0005486202
84	0x39ebafee	0.0004495377
85	0x3a97597e	0.0011547056
86	0xbaa0405b	-0.0012226211
87	0x3a9bf9a9	0.0011899966
88	0x3ab00834	0.0013430179
89	0x3987f4c2	0.00025931565
90	0xbb506409	-0.0031797907
91	0x3b35f11e	0.0027762125
92	0xbafd1e6e	-0.0019311437
93	0xbb4c4d4e	-0.0031174007
94	0x3ab0932e	0.0013471597
95	0x3b4c4d01	0.0031173828
96	0xbadf3b29	-0.0017031181
97	0xba847359	-0.0010105177
98	0x3a1e091b	0.00060285785
99	0x3a3b5f9e	0.0007147732
100	0x3a597666	0.0008295536
101	0xba1d9077	-0.00060106016
102	0x3b4df119	0.0031424223
103	0x3ae55201	0.0017495753
104	0x3b0d18d6	0.0021529696
105	0x38f08aca	0.00011469943
106	0x3ae05f13	0.0017118178
107	0xb99a468d	-0.00029425733
108	0xb7dc2ca6	-2.6246835e-05
109	0xbb1b7abc	-0.0023724278
110	0x3ae7f1ef	0.0017696003
111	0x39fe1ac1	0.00048466588
112	0x39dc9a09	0.00042076435
113	0xbb2a08af	-0.0025945117
114	0xba6ceec9	-0.00090382673
115	0x3b517de0	0.0031965896
116	0x3a860f91	0.0010228028
117	0xba4a192e	-0.00077094405
118	0xb9c63c6f	-0.0003781053
119	0x3b34b0c6	0.0027571185
120	0xb9dcdf10	-0.00042127864
121	0xbae247a2	-0.001726378
122	0x3b507590	0.0031808354
123	0xbb24e009	-0.002515795
124	0xbb66ba57	-0.0035206282
125	0xbaf79586	-0.0018889166
126	0xba9c4abb	-0.0011924127
127	0x3a004f19	0.0004894599
128	0xbe0ec039	-0.13940515
129	0xbe0d2ebd	-0.1378736
130	0x3e11bc81	0.14232065
131	0x3e13bee6	0.1442829
132	0xbe0d0bb5	-0.13773997
133	0x3e0fd799	0.14047088
134	0x3e118425	0.14210565
135	0xbe12e1e6	-0.14343986
136	0x3e4f684e	0.20254633
137	0x3e0d6dac	0.13811368
138	0xbe5522c8	-0.20814049
139	0xbe0e2f4d	-0.13885231
140	0xbe14add8	-0.14519441
141	0xbe14c2b4	-0.14527398
142	0x3e0fa9b9	0.14029588
143	0x3e0e9b60	0.13926458
144	0xbe0a064b	-0.13478963
145	0xbe04eb16	-0.12980303
146	0x3e101abb	0.14072697
147	0xbe19b00e	-0.15008566
148	0xbe0f906b	-0.14019935
149	0x3e0e0193	0.13867788
150	0xbe0d1bb1	-0.13780095
151	0xbe1096d3	-0.14120035
152	0x3e0f2229	0.13977875
153	0x3e1061c9	0.14099802
154	0xbe161d86	-0.146597
155	0x3e16700c	0.1469118
156	0x3e105e22	0.14098409
157	0x3e0cfb10	0.13767648
158	0x3e0e3998	0.13889158
159	0xbe0bf668	-0.13668215
160	0xbcfeb13f	-0.031090377
161	0xbd0b5316	-0.034014784
162	0x3c9f0385	0.019410858
163	0x3cec6ab9	0.028859483
164	0x3d17abbf	0.037029024
165	0x3d133d2d	0.035947014
166	0xbd1651c0	-0.036699057
167	0x3d26859a	0.040654756
168	0xbcc5b2ec	-0.024133168
169	0x3c8db327	0.01729734
170	0x3d1a2a43	0.03763796
171	0x3d213f95	0.039367277
172	0x3d2ed35e	0.042682044
173	0x3d151f64	0.03640689
174	0x3d09db86	0.03365662
175	0x3d1244cc	0.03571014
176	0x3d1901a4	0.03735508
177	0xbd120068	-0.03564492
178	0xbd1cf988	-0.03832391
179	0xbcb77eca	-0.022399325
180	0x3d229c01	0.03969956
181	0xbd234dbe	-0.039869063
182	0x3d2044fa	0.03912828
183	0xbd093ea9	-0.033507023
184	0xbd12580e	-0.035728507
185	0xbcfb58fc	-0.03068208
186	0xbd02f63d	-0.031973112
187	0xbcf9588c	-0.03043773
188	0xbd12f0fb	-0.035874348
189	0x3d08444e	0.033268265
190	0x3d0ab619	0.033865068
191	0x3d1939dd	0.0374087
192	0x3a94074d	0.001129368
193	0xbb778bf4	-0.0037772628
194	0x3b0496ca	0.002023148
195	0x3b4ae20a	0.0030957484
196	0x3a26dded	0.0006365467
197	0xba037a1c	-0.0005015449
198	0x3b1d3970	0.0023990534
199	0x3a6d8fa5	0.0009062237
200	0xbaededc1	-0.0018152521
201	0xba3f31c9	-0.00072934903
202	0x3b9bda4d	0.004756248
203	0xbb201def	-0.0024431904
204	0x3a0df6c8	0.00054154964
205	0x3a6c0c99	0.0009004563
206	0x38564557	5.1086154e-05
207	0x3a65e8ae	0.0008770329
208	0xba447d85	-0.00074955105
209	0x39833b5b	0.0002503049
210	0x3a0ba52e	0.0005327043
211	0xba3bd009	-0.00071644835
212	0xbb07a694	-0.0020698654
213	0x3abb4013	0.0014286063
214	0xba041410	-0.000503839
215	0x39062e07	0.00012796382
216	0x3a1df03c	0.00060248724
217	0xb9a9c201	-0.00032378736
218	0x3a53d6d7	0.0008081025
219	0x3b2472f3	0.002509293
220	0x3a8c285b	0.0010693179
221	0x3b553c12	0.0032537025
222	0xbaaaa85e	-0.0013020148
223	0xba244d64	-0.00062676356
224	0x3cb5ffe0	0.022216737
225	0x3cd98cbb	0.026556363
226	0xbcd198aa	-0.025585491
227	0xbcd7346f	-0.02627012
228	0x3cd961c7	0.026535882
229	0xbcd6b507	-0.026209367
230	0xbcc46c11	-0.023977311
231	0x3ce5dd01	0.028059484
232	0x3d4a2f3d	0.049361456
233	0xbc9fc760	-0.01950425
234	0x3c96eb04	0.018422611
235	0x3cd107f1	0.025516482
236	0x3ce44c33	0.027868366
237	0x3cca3c5a	0.024686981
238	0xbcbebc06	-0.023283016
239	0xbcc2f4d4	-0.023798384
240	0x3d0d0058	0.034424156
241	0x3bd03732	0.006354236
242	0xbcaf5c23	-0.021406239
243	0x3cb7ebb6	0.022451263
244	0x3cc8da4d	0.024518156
245	0xbcd124ce	-0.025530245
246	0x3cb48cd0	0.0220398
247	0x3c81848a	0.01581027
248	0xbcd2213c	-0.025650613
249	0xbcc45652	-0.023966942
250	0x3ca153f8	0.01969336
251	0xbce64365	-0.028108308
252	0xbcdb1b89	-0.026746528
253	0xbcb935f2	-0.022608731
254	0xbcb77d08	-0.022398487
255	0x3cd0e3ed	0.025499308

policy_net.6.bias f4 [20]
0	0x00000000	0.0
1	0x3c41a09f	0.01181808
2	0x00000000	0.0
3	0x00000000	0.0
4	0xbe0eff9f	-0.13964699
5	0x3d2e29cb	0.042520326
6	0x00000000	0.0
7	0x3cce371d	0.025172764
8	0x3e0efdb4	0.13963968
9	0x00000000	0.0
10	0x3e7456f8	0.23861301
11	0x3dfcec29	0.123497315
12	0xbe54474a	-0.2073032
13	0xbcce3719	-0.025172757
14	0x3e520e2f	0.20513223
15	0x00000000	0.0
16	0x00000000	0.0
17	0xbdfce9f3	-0.1234931
18	0x00000000	0.0
19	0x00000000	0.0

value_net.0.weight f4 [32, 770]
0	0x3d53a405	0.051670093
1	0x3dc67d81	0.09691907
2	0x3dd97413	0.106178425
3	0x3e184e68	0.1487366
4	0xbd2e0c9e	-0.0424925
5	0xbd8f7b18	-0.070059
6	0xbd2cd35a	-0.042193748
7	0x3b96834f	0.00459329
8	0xb7910b26	-1.7290538e-05
9	0xbd3e623d	-0.046480406
10	0x3cf2496e	0.02957603
11	0xbd975c1d	-0.07390616
12	0x3d92566c	0.0714539
13	0xbd4a9ba5	-0.04946484
14	0x3b9f4abe	0.004861205
15	0xbcc81486	-0.024423849
16	0x3dab9adb	0.08379146
17	0x3cb77216	0.022393268
18	0x3d9a7b96	0.075431034
19	0x3d35180e	0.044212393
20	0xbdfde58c	-0.12397298
21	0xbc18d548	-0.009328194
22	0x3e2707e7	0.16311608
23	0xbd64c9e3	-0.055856597
24	0xbb9197a4	-0.004443126
25	0x3d567153	0.05235417
26	0x3cc8b5a0	0.024500668
27	0x3d49b83a	0.049247958
28	0x3c843403	0.016138082
29	0xbd8455ad	-0.06461654
30	0xbd3ec317	-0.04657277
31	0x3d705ad6	0.058680378
32	0x39910eac	0.00027667487
33	0xbdbea091	-0.09307969
34	0xbd6b2197	-0.05740508
35	0x3ca814f7	0.02051781
36	0x3de95059	0.11392278
37	0xbbc01e03	-0.0058629527
38	0x3d144d14	0.03620632
39	0x3d3e37a5	0.046439786
40	0xbcd62975	-0.026142815
41	0x3e253d0e	0.16136572
42	0xbc980f8c	-0.0185621
43	0xbcd22c51	-0.025655897
44	0x3d30ea48	0.043192178
45	0x3dfa4eed	0.12222085
46	0xbcc41ce4	-0.023939557
47	0xbd4b768a	-0.049673595
48	0xbc46a111	-0.012123362
49	0x3d3ed363	0.046588313
50	0x3dcebb93	0.10094371
51	0x3d4c4178	0.049867123
52	0xbd3399f0	-0.043847978
53	0x3c65d423	0.014027628
54	0x3de40c47	0.11135154
55	0xbdb3ee82	-0.08785726
56	0x3d39d5e3	0.045369994
57	0x3e145297	0.1448463
58	0x3dec5e3f	0.115414135
59	0xbd0b79f6	-0.034051858
60	0xbc032282	-0.008003833
61	0xbc60f7ee	-0.013730986
62	0x3ceaae89	0.028647678
63	0xbc42542a	-0.011860887
64	0x3d72b74e	0.059256844
65	0x3d3565a7	0.044286396
66	0x3dd53905	0.10411266
67	0xbd416502	-0.04721547
68	0x3d09b56a	0.033620276
69	0x3d9957ae	0.07487427
70	0xbc7dc6e0	-0.01548931
71	0xbe0a6d85	-0.13518341
72	0xbc93b87a	-0.018032301
73	0xbdbf5cd5	-0.09343878
74	0xbe18423e	-0.1486902
75	0x3ddca256	0.107731506
76	0x3d0049e4	0.031320468
77	0x3d456056	0.048187576
78	0x3d509af7	0.050929036
79	0xbd8d341b	-0.06894704
80	0xbcf31ef7	-0.029677851
81	0xbd329503	-0.04359914
82	0x3c259a70	0.010107622
83	0x3cc09229	0.023507195
84	0x3d3c677d	0.04599713
85	0x3cf54909	0.029942052
86	0xbd42bba4	-0.04754223
87	0x3b5a82a9	0.003334204
88	0xbbb9e91c	-0.0056735408
89	0xbd491d48	-0.04910019
90	0x3d4979be	0.049188368
91	0x3dad8aa8	0.08473712
92	0x3d6d9809	0.05800632
93	0x3ceb8cf3	0.028753733
94	0x3d4aa75f	0.049476024
95	0x3c9163e6	0.01774783
96	0xbc0b2268	-0.00849209
97	0x3c81b55e	0.015833553
98	0xbd2a9c65	-0.041653056
99	0xbd9a67de	-0.07539342
100	0x3c2aa691	0.010415689
101	0x3dba3bc9	0.09093434
102	0x3e20b22e	0.1569297
103	0x3cfc6851	0.03081146
104	0xbc738840	-0.0148640275
105	0x3abc8973	0.0014384225
106	0xbb697d9a	-0.0035627843
107	0x3d027bfc	0.031856522
108	0x3db1e06c	0.08685383
109	0x3d7ac185	0.06121971
110	0xbd627918	-0.055291265
111	0xbc7e9e06	-0.015540605
112	0xbd18fd40	-0.037350893
113	0x3c5adc4c	0.013358187
114	0x3bd477d4	0.006484011
115	0x3d3fcc1f	0.046825524
116	0x3de59f1d	0.11211989
117	0x3cdd5989	0.027020233
118	0xbd853029	-0.065033264
119	0x3ca1c432	0.019746874
120	0x3d118fd0	0.03553754
121	0xbd2946bf	-0.041327234
122	0x3d66bfa6	0.056335114
123	0x3da242a1	0.07922865
124	0xbe150ba3	-0.1455522
125	0x3d335057	0.04377779
126	0x3bdf94a0	0.0068231374
127	0x3ccb30ae	0.024803486
128	0x3d9d659e	0.076853976
129	0xbdb6e173	-0.0892972
130	0xbcdaa616	-0.026690524
131	0x3caaeced	0.020864928
132	0xbdd57def	-0.104244106
133	0xbcc86bd3	-0.024465477
134	0xbb5a5252	-0.0033313227
135	0xbd3ebf5c	-0.046569213
136	0xbaaeea53	-0.001334498
137	0x3d9ca542	0.07648708
138	0xbd768ebe	-0.060194723
139	0x3cf27555	0.029596964
140	0x3d12ef1f	0.035872575
141	0x3df5f7fe	0.120101914
142	0x3d2b894d	0.041878987
143	0xbc471f7a	-0.012153501
144	0x3ccb4e05	0.024817476
145	0xbc878394	-0.016542234
146	0xbdd02cba	-0.10164781
147	0x3c95702e	0.018241968
148	0xbda619bc	-0.08110377
149	0xbd2f1a37	-0.04274961
150	0x3dc7cd34	0.09755936
151	0x3df7bd10	0.12096608
152	0x3d2ff3dc	0.04295717
153	0xbd81acc9	-0.06331784
154	0xbde99f39	-0.114073224
155	0xbc06c631	-0.008225963
156	0x3ce5b8be	0.028042194
157	0xbc1d9438	-0.009617858
158	0x3c92e90f	0.017933397
159	0xbd1e2815	-0.038612444
160	0xbd9bc1cc	-0.07605323
161	0xbce80d45	-0.02832664
162	0xbceba324	-0.028764315
163	0xbc4af03f	-0.012386381
164	0x3da7ec45	0.08199362
165	0xbc5e2c71	-0.0135604
166	0xbd0b9991	-0.034082
167	0x3d840798	0.06446761
168	0xbe2e5cd5	-0.170276
169	0x3cfab014	0.030601539
170	0xbdc4cd20	-0.09609437
171	0xbba38632	-0.0049903626
172	0x3c01325e	0.007885544
173	0xbca51de6	-0.020155858
174	0x3c0889e0	0.008333653
175	0x3c15d719	0.009145522
176	0x3d02c2b0	0.03192395
177	0x3e056fac	0.1303088
178	0xbc5543e3	-0.013016674
179	0xbd9092a1	-0.07059217
180	0x3d7d3625	0.061819214
181	0xbb192d65	-0.0023373005
182	0xbc2391b5	-0.00998347
183	0x3d9470df	0.07248091
184	0xbda0d405	-0.078529395
185	0xbcbaf916	-0.022823852
186	0x3cc92138	0.024551973
187	0xbb7d1edf	-0.0038623137
188	0x3cd07677	0.025447113
189	0xbe1d8955	-0.1538442
190	0x3d9bc640	0.076061726
191	0x3b842353	0.0040325313
192	0xbe017a80	-0.12644386
193	0xbcf1d9b6	-0.029522758
194	0xbdd96509	-0.10614974
195	0xbcd395ce	-0.025828268
196	0x3db5505f	0.0885322
197	0x3cd90d72	0.026495669
198	0xbce30f3d	-0.027717227
199	0xbc9ad11f	-0.018898545
200	0x3d65e408	0.05612567
201	0x3da42f16	0.080167934
202	0x3d64ee53	0.055891346
203	0x3c5f8fec	0.0136451535
204	0x3da1b3fd	0.07895658
205	0xbdde4cd1	-0.10854495
206	0xbc058984	-0.008150462
207	0x3e0c15f2	0.13680246
208	0xbd13bbda	-0.03606782
209	0xbbd6fd32	-0.006560945
210	0xbbc0a6db	-0.0058792657
211	0xbd47241e	-0.04861843
212	0x3d3f6891	0.04673058
213	0xbc3fde04	-0.0117106475
214	0xbc97a5e0	-0.018511713
215	0xbc0313ef	-0.008000358
216	0x3da22de6	0.07918911
217	0xbdcfc29d	-0.101445414
218	0x3bc4b7d8	0.006003361
219	0x3d06b553	0.032887768
220	0xbd4bea4d	-0.049783994
221	0x3c979c26	0.018507075
222	0x3d608e9f	0.054823514
223	0xbbc45422	-0.0059914747
224	0xbb4cd3ef	-0.0031254252
225	0x3d74f310	0.059802115
226	0x3d9730d7	0.07382362
227	0xbd121949	-0.035668645
228	0x3b28f48b	0.0025780525
229	0xbd9b7a55	-0.07591692
230	0xbd046464	-0.032322302
231	0x3bd768a0	0.0065737516
232	0x3d940bfd	0.07228849
233	0xbd0fef1f	-0.035140153
234	0x3cf90680	0.030398607
235	0xbd451f21	-0.04812539
236	0xbda559d5	-0.08073775
237	0xbd38e45c	-0.045139655
238	0x3c6db878	0.014509313
239	0xbcfdaa7e	-0.030965086
240	0xbc3dd0d5	-0.011585434
241	0x3db6446a	0.08899768
242	0x3daa582f	0.08317601
243	0xbda32774	-0.079665095
244	0xbd1c5647	-0.038168218
245	0xbd981857	-0.074265175
246	0x3db691f6	0.089145586
247	0xbc463b0d	-0.01209904
248	0xbd12ca55	-0.03583749
249	0x3ca29133	0.019844627
250	0xbcbec9f6	-0.023289662
251	0x3cabaa44	0.020955212
252	0x3dd6ffbe	0.10497998
253	0xbcd6f27d	-0.026238674
254	0xbdacead3	-0.08443227
255	0x3c8114d1	0.015756996

value_net.0.bias f4 [32]
0	0x3d657407	0.056018855
1	0x3c1c9e4c	0.009559225
2	0xbd1ceeb6	-0.03831359
3	0x3d9d15c1	0.07670165
4	0xbd7e7d39	-0.06213114
5	0xbd4f0fcd	-0.05055218
6	0x3d6a8858	0.057258934
7	0x3d8e86dd	0.06959317
8	0x3c95f2e2	0.018304292
9	0x3d7dc399	0.061954115
10	0xbd21e14f	-0.03952151
11	0x3d979490	0.07401383
12	0xbd904172	-0.07043733
13	0x3d856e9a	0.06515236
14	0x3d76ec82	0.060284145
15	0xbd12d57e	-0.035848133
16	0xbdb65301	-0.089025505
17	0xbc0757a7	-0.008260644
18	0xbd684838	-0.0567095
19	0x3d9f541b	0.07779714
20	0xbd5ac32e	-0.053408794
21	0xbc9a640a	-0.01884653
22	0xbdb4a7b8	-0.08821052
23	0x3cc36545	0.023852
24	0x3cb71226	0.022347521
25	0xbdabcb4e	-0.08388387
26	0x3d8cf4e8	0.0688265
27	0x3d992170	0.07477081
28	0xbd84acea	-0.06478293
29	0xbd8ba853	-0.06819215
30	0x3a018e24	0.000494214
31	0xbd389239	-0.045061324

value_net.2.weight f4 [32, 32]
0	0x3ddc0216	0.10742585
1	0x3daaa972	0.083331004
2	0x3e2f76f3	0.1713522
3	0xbdacb833	-0.08433571
4	0xbeaa45ce	-0.33256382
5	0x3c47a9e2	0.012186499
6	0x3d08006e	0.033203535
7	0xbd303be7	-0.043025877
8	0xbde3b0e6	-0.11117725
9	0xbeac510d	-0.33655587
10	0xbf370fa0	-0.71508217
11	0x3ddc8f8d	0.10769568
12	0xbce99a9e	-0.02851611
13	0x3ed346b7	0.4126489
14	0x3eb9a396	0.3625762
15	0xbe1c2a35	-0.15250476
16	0xbe25aaba	-0.16178408
17	0x3e51e687	0.20498095
18	0x3ebb1bb6	0.3654458
19	0x3ba9b9b0	0.0051796064
20	0x3e908a06	0.28230304
21	0xbed61d51	-0.41819242
22	0x3d66d464	0.056354895
23	0x3e7b849a	0.24562302
24	0xbf0f6a66	-0.56021726
25	0xbddd8daa	-0.10818036
26	0x3ea56505	0.32303634
27	0xbec8ac10	-0.39193773
28	0x3e088484	0.133318
29	0x3dd8d4ae	0.105874404
30	0x3e8a9948	0.2707007
31	0xbe9097a7	-0.28240702
32	0x3db4c6a9	0.08826954
33	0x3ee957fc	0.4557494
34	0x3d855f0e	0.06512271
35	0x3cbd658b	0.023119709
36	0x3e53fcd5	0.20701917
37	0xbe6c8290	-0.2309668
38	0x3ecdcd84	0.40195858
39	0xbe4f8a15	-0.20267518
40	0xbe7b8e9c	-0.2456612
41	0xbe8ba13f	-0.27271459
42	0x3e407ec0	0.18798351
43	0x3e459079	0.19293393
44	0x3e9e2e35	0.30894628
45	0x3edcdc89	0.43137005
46	0x3ea95c89	0.3307841
47	0x3ca91499	0.020639705
48	0xbdb0c3ec	-0.08631119
49	0xbe978740	-0.29595375
50	0x3e55be64	0.2087341
51	0x3db14477	0.08655637
52	0xbe5f8613	-0.21828489
53	0x3e80c526	0.25150412
54	0xbf064330	-0.5244627
55	0xbefe30b9	-0.49646547
56	0x3c459143	0.012058559
57	0xbc2f3b47	-0.010695285
58	0x3f0419b0	0.51601696
59	0x3cf5d162	0.030007068
60	0x3cd2ba4d	0.0257236
61	0x3e0af4a6	0.13569888
62	0x3daab434	0.08335152
63	0xbeb6a6c0	-0.35674095
64	0xbeeb69df	-0.4597921
65	0x3ea6a989	0.3255122
66	0x3e6c2879	0.23062314
67	0xbedf19b0	-0.43574286
68	0x3c8bd848	0.017070904
69	0x3f50266e	0.8130864
70	0xbe9d251d	-0.30692378
71	0x3ea675f1	0.32511857
72	0x3ceed91d	0.029156262
73	0xbe760f55	-0.24029286
74	0xbe9856d5	-0.29753748
75	0xbf003dfc	-0.5009458
76	0x3cf249ce	0.029576208
77	0xbe863e2a	-0.26219302
78	0xbda8d709	-0.0824414
79	0xbd47eee3	-0.048811805
80	0x3e68dc0a	0.22740188
81	0xbb3bc2fd	-0.0028650158
82	0xbe28a8e7	-0.16470681
83	0x3dd86ed6	0.10568015
84	0x3ddb6c3a	0.10714002
85	0x3df38e89	0.11892421
86	0x3e976e87	0.29576513
87	0xbd1eeacf	-0.03879815
88	0x3ea179d1	0.3153825
89	0x3db49951	0.08818305
90	0x3e4fde63	0.20299678
91	0x3de58011	0.11206067
92	0xbea3233b	-0.31862816
93	0xbcedf1bb	-0.02904593
94	0x3db1bb9f	0.08678364
95	0x3c9d34a2	0.019190136
96	0xbea39018	-0.31945872
97	0xbd4a34d0	-0.049366772
98	0xbe70338f	-0.23457168
99	0x3c555ebf	0.0130230775
100	0x3e2af9e8	0.16696894
101	0xbf0aaa75	-0.54166347
102	0x3d4023c5	0.046909112
103	0xbb03d8c2	-0.0020118211
104	0xbdb48cf6	-0.08815949
105	0x3db95831	0.09050024
106	0xbea1e2f6	-0.3161847
107	0xbe4cd4ca	-0.20003048
108	0xbd77a5d2	-0.060460873
109	0xbecd23e9	-0.4006646
110	0xbe78270f	-0.2423365
111	0xbf10ec33	-0.5661041
112	0x3da32d34	0.07967606
113	0xbe9926e4	-0.29912484
114	0xbe5b514f	-0.21417736
115	0xbe2eb964	-0.17062908
116	0xbcb52498	-0.022112176
117	0xbe01e459	-0.12684764
118	0x3e6b9626	0.23006496
119	0x3eadbefd	0.33934775
120	0x3dc85bcb	0.09783133
121	0x3e8410bb	0.25794014
122	0x3ec7ab70	0.38997984
123	0xbf020ece	-0.5080384
124	0xbe708c86	-0.23491105
125	0x3e7cbb54	0.24680835
126	0x3ed65850	0.41864252
127	0xbe8c3b78	-0.2738912
128	0xbee6f853	-0.4511133
129	0xbe2a8e0b	-0.16655748
130	0x3e5437ea	0.20724455
131	0x3e647c8b	0.22313134
132	0xbe5110bc	-0.2041654
133	0xbeb07658	-0.3446529
134	0x3d31cbda	0.0434073
135	0xbedb6044	-0.42846882
136	0x3e6ade9d	0.22936483
137	0xbef3aeb2	-0.4759422
138	0x3e246622	0.16054586
139	0x3e536ba3	0.20646529
140	0xbf0886e6	-0.5333084
141	0x3ea03084	0.31287014
142	0x3ea16080	0.31518936
143	0xbee77251	-0.45204404
144	0x3e3d4de7	0.18486749
145	0xbdd819ac	-0.105517715
146	0xbf17e228	-0.5932946
147	0x3d96910b	0.073518835
148	0xbdf07bee	-0.11742388
149	0x3e4319a2	0.19052747
150	0xbe7e3b24	-0.24827248
151	0x3ef794dc	0.48355758
152	0xbda47bbd	-0.08031414
153	0x3d9afda3	0.075679086
154	0x3e382144	0.1798144
155	0x3e733b4f	0.23753093
156	0xbe63f63c	-0.222619
157	0xbe1052aa	-0.14094034
158	0xbf09f519	-0.53889614
159	0xbe1f4edd	-0.15557428
160	0x3d956f70	0.07296646
161	0x3d07d7f5	0.033164937
162	0xbe959d02	-0.2922135
163	0xbc1464ff	-0.0090572825
164	0x3ef13ac3	0.47115144
165	0x3ed2589d	0.41083232
166	0x3daebae6	0.08531742
167	0xbe9fdd33	-0.3122345
168	0xbd931d00	-0.07183266
169	0xbeba024f	-0.36329886
170	0xbe582bcc	-0.21110457
171	0x3ef6ea06	0.4822542
172	0xbea4fd6f	-0.32224604
173	0x3e25c363	0.16187815
174	0xbde2c303	-0.11072352
175	0x3f1be8cd	0.609021
176	0xbe047ff4	-0.12939435
177	0xbe4678f5	-0.19382079
178	0x3d87a23a	0.06622739
179	0xbed3f4a4	-0.41397583
180	0x3d9b0a5a	0.07570334
181	0x3e078b54	0.13236743
182	0x3e1e7326	0.15473613
183	0xbdb0c630	-0.08631551
184	0x3d9d173a	0.07670446
185	0x3cec8366	0.02887125
186	0x3dc0d0c4	0.09414819
187	0xbe0acfc4	-0.13555819
188	0x3f08d5a5	0.53450996
189	0x3ee5027b	0.44728455
190	0x3b3b340e	0.0028564963
191	0x3d987718	0.0744459
192	0x3e83d846	0.2575094
193	0x3e852b7e	0.26009744
194	0x3dd2419b	0.102664195
195	0xbe87fa78	-0.2655828
196	0xbe7226b0	-0.2364757
197	0xbe7a7d14	-0.24461776
198	0xbdffff40	-0.12499857
199	0x3d55b96f	0.052178796
200	0xbe750f8b	-0.2393171
201	0x3e01e97d	0.12686725
202	0xbf045618	-0.5169387
203	0x3dfa6463	0.122261785
204	0xbcbb0096	-0.022827428
205	0xbec8d54c	-0.39225233
206	0x3e463fec	0.19360322
207	0x3f223400	0.63360596
208	0x3eda93e4	0.42690957
209	0xbebc671b	-0.36797413
210	0x3e850fb4	0.25988543
211	0xbd994645	-0.07484106
212	0x3e42e564	0.19032818
213	0x3e91e530	0.2849517
214	0x3e1850c3	0.14874558
215	0xbe88fa6e	-0.26753563
216	0x3e5903a7	0.211928
217	0x3e8a55ad	0.2701849
218	0x3dc22fc7	0.09481769
219	0xbeb04df8	-0.34434485
220	0x3edca498	0.43094325
221	0xbe146344	-0.14490992
222	0xbea35a79	-0.31904963
223	0x3f1646c0	0.58701706
224	0xbe705fa7	-0.23473988
225	0x3ebad8be	0.36493486
226	0x3dbe94b7	0.09305709
227	0xbd9208d0	-0.07130587
228	0xbe583f42	-0.21117881
229	0x3e0fff99	0.14062347
230	0x3d956680	0.07294941
231	0x3e457802	0.1928406
232	0xbed142b3	-0.408712
233	0x3e32d04d	0.17462273
234	0xbe31626f	-0.17322706
235	0x3e5e92e0	0.21735716
236	0xbe84e436	-0.2595536
237	0xbeb330f7	-0.34998295
238	0xbe764f59	-0.24053706
239	0x3e8a8530	0.2705474
240	0xbec4b05d	-0.38415805
241	0xbebdb88d	-0.37054864
242	0x3c9fbff5	0.019500712
243	0x3eebcd8e	0.46055263
244	0xbdf5a6a9	-0.119946785
245	0xbeda2521	-0.42606452
246	0xbe045ed6	-0.12926802
247	0x3e2a3b84	0.16624266
248	0xbee30fe8	-0.44348073
249	0x3d2774c7	0.040882852
250	0x3e410c9d	0.18852468
251	0xbe4845d7	-0.19557892
252	0xbe2b247b	-0.16713135
253	0x3eca80b8	0.3955133
254	0xbdf51599	-0.1196701
255	0xbe3713eb	-0.17878692

value_net.2.bias f4 [32]
0	0x3d1bed0b	0.03806786
1	0x3e18fc56	0.14940009
2	0xbdf711dc	-0.12063953
3	0xbd929a43	-0.07158329
4	0x3d3f2001	0.04666138
5	0x3c455db5	0.012046267
6	0xbdd1eeb8	-0.1025061
7	0x3c0f8eee	0.008762104
8	0x3e11ee94	0.14251167
9	0x3dfce5ae	0.123484954
10	0x3e0ed391	0.13947894
11	0x3e3c2234	0.18372422
12	0x3dd1b08f	0.10238754
13	0xbe0f3b27	-0.13987409
14	0xbd369f0c	-0.044585273
15	0x3d6a8397	0.0572544
16	0x3d73169c	0.059347734
17	0x3c1b225e	0.009468643
18	0xbd37eb80	-0.044902325
19	0xbdb57e9c	-0.088620394
20	0x3df66008	0.12030035
21	0x3e044a64	0.12919003
22	0xbd8510f1	-0.06497372
23	0x3e3e0c08	0.18559277
24	0xbe15e434	-0.14637834
25	0xbe3869be	-0.18009087
26	0x3e2829f9	0.16422261
27	0xbdf50775	-0.11964313
28	0xbe3a375e	-0.18185183
29	0x3dfd4630	0.12366903
30	0x3e11cf3f	0.14239214
31	0xbcc5ed38	-0.024160966
