MAPPO/Graph_H2/save/SY_4_T1/agent_24_GH_c.pt (torch, 127902 bytes, 15 tensors)

policy_net.0.weight f4 [32, 26]
-0.4812845 -0.049506895 -0.011008592 -0.3313777 -0.013794462 -0.17846754 -0.09908085 -0.1678431
-0.5224948 -0.35956737 -0.34660602 -0.1240393 0.36979654 -0.38781843 0.33264384 -0.0033699558
-0.3902248 0.26107734 0.60255814 0.03425915 -0.64587206 0.13551852 0.24859972 0.16914444
-0.4761694 -0.02579856 -0.034573324 0.303886 -0.41938722 -0.19434913 -0.13015524 0.057046633
0.127209 -0.12883839 -0.003625006 -0.0977235 0.1379447 0.040811636 0.2366797 -0.008603373
0.47542775 0.10904174 -0.21401335 0.18927465 0.34846768 0.2214874 0.2382106 -0.37169832
-0.20393434 0.15991397 0.012733837 0.7810534 -0.33460313 -0.3851046 0.33913076 0.12014713
-0.0846815 -0.072382614 0.21257764 -0.31761345 -0.41623995 -0.3427574 0.041699868 0.08399881
-0.6307625 0.4123357 -0.2125565 -0.078458406 -0.106766194 -0.33519486 0.06525679 0.29458836
-0.07717322 0.036546122 -0.08468159 0.33055237 0.14927247 0.290033 -0.47171268 0.20215443
-0.29672813 0.36832106 0.059885863 -0.10452402 0.41502044 0.011684703 0.1624442 -0.21668679
0.29998904 0.12405202 -0.30409652 0.038088467 0.16548799 0.21623719 0.26051357 -0.34934294
-0.50490564 -0.17638934 0.32070372 -0.046471827 0.0056459536 0.2508092 0.1726364 -0.3785694
0.09773867 0.11228518 0.036293134 0.23877643 -0.094981425 0.23314273 -0.006787784 0.29867616
-0.1654021 0.34406903 0.3591177 0.5032228 -0.1535128 0.27217832 0.38154685 0.074550994
0.28678957 -0.6677419 -0.45326066 0.18791038 -0.13452174 -0.2995411 0.64742947 -0.32441962
-0.2372031 0.18234845 0.23166826 0.19585061 0.2391195 -0.56343496 0.09186605 0.15885827
0.15576884 -0.1842264 0.13185419 0.32330585 -0.14328115 -0.3307084 -0.12757082 0.25185347
0.30448973 0.46271163 -0.4617045 -0.53386354 -0.82068044 0.25125572 -0.009496769 0.2386451
-0.25510445 0.21676974 -0.0063137794 -0.062027358 -0.41569123 -0.061937887 0.23719938 0.51347333
-0.19868313 -0.008590754 0.2218837 0.28180844 0.024400828 0.26392117 0.2307236 0.4466917
-0.29600212 -0.13195658 0.18539935 -0.19359618 0.6911837 -0.28705058 -0.68578243 0.1609237
-0.039998267 0.4472525 -0.5541009 -0.037113916 -0.15878743 0.13197277 0.19560038 -0.311288
-0.3114209 0.5869731 0.050941966 0.14552635 0.0037030487 0.07437607 -0.4504703 0.3886409
-0.4517472 -0.25639975 0.047138117 0.20049214 0.24955371 -0.20127763 0.18668541 0.15340054
0.17168637 -0.19524716 0.34919357 -0.03952044 0.097767435 0.28710267 0.24733795 0.0652887
-0.44967136 0.32196814 0.029515563 0.47357088 0.0032704913 -0.11322906 -0.24567285 0.036510188
-0.06430159 0.0922542 -0.051075585 0.40853631 -0.33268765 -0.13871813 -0.046944734 0.15987329
-0.4670906 -0.42852736 -0.21457349 -0.4531579 0.26893708 0.03775204 0.28402394 0.24110042
0.13165131 -0.051789653 -0.1273037 0.15535949 0.09752919 0.4808101 0.37152603 0.28924352
0.263592 -0.39682126 0.078937255 -0.0590368 0.6229208 0.15498087 0.34712312 0.2400578
0.26505312 -0.20974469 0.23994629 -0.44927654 -0.1317379 0.06511788 -0.049513906 0.19703075
00000000: ec6a f6be bec7 4abd 625d 34bc 57aa a9be
00000010: 2b02 62bc 32c0 36be e7ea cabd 10df 2bbe
00000020: 38c2 05bf 3719 b8be 5876 b1be 5108 febd
00000030: f955 bd3e 2390 c6be 4b50 aa3e 7ada 5cbb
00000040: 8ccb c7be eeab 853e 4041 1a3f 5353 0c3d
00000050: df57 25bf 5ec5 0a3e ed90 7e3e 3334 2d3e
00000060: 7acc f3be 8057 d3bc c29c 0dbd f296 9b3e
00000070: ecb9 d6be 7503 47be 6a47 05be bba9 693d
00000080: 1343 023e 36ee 03be 8291 6dbb 4223 c8bd
00000090: 6041 0d3e 1a2a 273d 2a5c 723e 29f5 0cbc
000000a0: 446b f33e 4751 df3d 5126 5bbe 37d1 413e
000000b0: 5b6a b23e 98cd 623e 7bed 733e 3e4f bebe
000000c0: 2ad4 50be 7dc0 233e 95a1 503c 1ef3 473f
000000d0: 1a51 abbe 6e2c c5be 8ca2 ad3e b30f f63d
000000e0: 7f6d adbd 563d 94bd f4ad 593e 3b9e a2be
000000f0: 671d d5be e67d afbe 7bcd 2a3d 9107 ac3d
00000100: a779 21bf aa1d d33e 69a8 59be cdae a0bd
00000110: 3ca8 dabd a99e abbe 5aa5 853d 49d4 963e
00000120: fe0c 9ebd 63b1 153d 8b6d adbd 293e a93e
00000130: e2da 183e 357f 943e 5384 f1be 9201 4f3e
00000140: c0ec 97be 9494 bc3e e14a 753d b010 d6bd
00000150: 8f7d d43e 3271 3f3c c657 263e 24e3 5dbe
00000160: 2a98 993e fc0e fe3d 8ab2 9bbe a702 1c3d
00000170: af75 293e 486d 5d3e 0962 853e 14dd b2be
00000180: 7f41 01bf 689f 34be 4733 a43e 3e59 3ebd
00000190: b101 b93b 106a 803e 99c7 303e d9d3 c1be
000001a0: 362b c83d c6f5 e53d 1ca8 143d cf81 743e
000001b0: 9f85 c2bd f8bc 6e3e 0f6c debb 15ec 983e
000001c0: 2b5f 29be d129 b03e 46de b73e 36d3 003f
000001d0: 7632 1dbe f55a 8b3e 1c5a c33e 31ae 983d
000001e0: 15d6 923e 22f1 2abf c811 e8be 946b 403e
000001f0: 11c0 09be 735d 99be f0bd 253f 541a a6be
00000200: 5fe5 72be 8db9 3a3e 723a 6d3e 108d 483e
00000210: bedb 743e 463d 10bf 4524 bc3d beab 223e
00000220: de81 1f3e d8a5 3cbe c904 073e 5888 a53e
00000230: 4bb8 12be 9d52 a9be eda1 02be f0f2 803e
00000240: 14e6 9b3e 8ae8 ec3e 8864 ecbe 48ab 08bf
00000250: 1d18 52bf 97a4 803e 5698 1bbc 625f 743e
00000260: 0d9d 82be e3f8 5d3e d2e3 cebb 6610 7ebd
00000270: 7bd5 d4be 95b2 7dbd 65e4 723e fd72 033f
00000280: 9773 4bbe 3cc0 0cbc 7b35 633e 3249 903e
00000290: 3fe4 c73c ad20 873e cf42 6c3e c6b4 e43e
000002a0: 978d 97be a01f 07be 54d9 3d3e 143e 46be
000002b0: 6af1 303f 4bf8 92be 708f 2fbf 2fc9 243e
000002c0: 39d5 23bd 48fe e43e 8ed9 0dbf c304 18bd
000002d0: 2c99 22be df23 073e 774b 483e 2461 9fbe
000002e0: 8f72 9fbe de43 163f 86a8 503d dc04 153e
000002f0: d9ae 723b 7b52 983d 0ba4 e6be f1fb c63e
00000300: 694b e7be d446 83be e613 413d d04d 4d3e
00000310: 028b 7f3e b91b 4ebe 762a 3f3e 0815 1d3e
00000320: 8dce 2f3e dfee 47be 80c9 b23e 2fe0 21bd
00000330: 4b3a c83d 1fff 923e 2946 7d3e 15b6 853d
00000340: 533b e6be 02d9 a43e 9fca f13c e277 f23e
00000350: bd55 563b a3e4 e7bd aa91 7bbe b58b 153d
00000360: 8db0 83bd c5ef bc3d a234 51bd ac2b d13e
00000370: 0956 aabe 200c 0ebe 1f49 40bd d3b5 233e
00000380: 8026 efbe f067 dbbe 27b9 5bbe 5004 e8be
00000390: 1fb2 893e e2a1 1a3d 966b 913e 07e3 763e
000003a0: 9acf 063e 6321 54bd e75b 02be 8f16 1f3e
000003b0: 62bd c73d be2c f63e a938 be3e ba17 943e
000003c0: 88f5 863e 282c cbbe dba9 a13d 92d0 71bd
000003d0: bd77 1f3f 4eb3 1e3e 1fba b13e b6d1 753e
000003e0: 0bb5 873e 50c7 56be 7bb4 753e 9307 e6be
000003f0: 4de6 06be 865c 853d 18cf 4abd 6ec2 493e

policy_net.0.bias f4 [32]
0.0067016482 0.03810844 -0.13207853 -0.104306206 -0.004543061 -0.057742257 -0.022403551 -0.041149065
-0.028066313 -0.04473414 -0.031582277 -0.01782823 -0.011178465 -0.033417135 0.12543553 0.0063272957
0.013702398 -0.08760876 -0.1307741 0.011691582 -0.018336093 0.06328334 0.051938165 0.03126776
0.011489024 -0.07652112 -0.014745543 -0.015693566 -0.016620738 0.13632804 -0.015635233 0.018014077
00000000: 8099 db3b 9817 1c3d 983f 07be 7e9e d5bd
00000010: f5dd 94bb 2583 6cbd a787 b7bc ec8b 28bd
00000020: 53eb e5bc 253b 37bd 6b5c 01bd 820c 92bc
00000030: e125 37bc 68e0 08bd 2c72 003e 3455 cf3b
00000040: 0680 603c 396c b3bd a5e9 05be 0d8e 3f3c
00000050: 9335 96bc b29a 813d 1dbd 543d 9f12 003d
00000060: 763c 3c3c 1bb7 9cbd 4a97 71bc cb8f 80bc
00000070: 3728 88bc 9499 0b3e 7615 80bc 4292 933c

policy_net.2.weight f4 [32, 32]
0.22175959 -0.14332414 -0.51790476 0.52777886 -0.36641228 -0.49554133 -0.08731915 0.12581794
-0.1892802 -0.06941637 -0.31917754 0.019556312 0.061943766 -0.11315319 0.2993186 -0.01008335
-0.2535822 0.14978543 0.14026155 -0.5679334 -0.16947019 0.092085555 0.16566902 -0.41362882
-0.037093125 0.38940397 -0.42045292 0.02551578 -0.28885308 -0.3227789 -0.32757795 -0.51048476
0.049738348 -0.47544405 -0.041863497 -0.046066064 -0.16562092 -0.044900805 0.28423277 0.14807534
0.28085095 0.24897686 0.13879111 0.25611144 0.2851014 0.12211386 -0.24844229 1.0154871
-0.1856254 0.4892535 0.068511985 0.46033266 -0.120720565 0.1481159 0.10161702 0.0942938
-0.0441873 0.19125576 0.07496522 0.23932926 -0.4469747 -0.17722805 -0.21845727 -0.43925107
-0.045952022 0.37399346 0.213597 -0.4106021 -0.4094613 -0.19739607 -0.40218484 0.5442172
-0.18508711 0.069108814 0.15157498 -0.25603828 0.034130674 0.23851296 -0.34322748 -0.42696694
0.4043353 -0.0554233 -0.28240922 -0.0069789807 -0.22718091 0.060643863 0.07582845 -0.20792972
0.29411697 0.36361533 -0.46070623 0.21616799 0.02208277 -0.024231108 -0.37232792 0.50534797
-0.13501538 0.08971391 0.24269512 -0.05367294 -0.011909045 -0.32940093 -0.6514231 -0.1532015
-0.112991355 -0.13147102 -0.1831817 0.09682558 -0.36356413 0.15880698 0.6459235 0.09232712
0.011902116 -0.18502297 -0.42375427 0.22385967 -0.5327616 0.20535815 -0.05775356 0.18518017
-0.3276777 -0.22500357 -0.27796158 0.43596295 -0.018967008 -0.04213682 -0.23585492 0.45497876
0.21507931 0.28067738 -0.060453165 0.63183534 0.042850986 0.30258954 -0.16800077 0.06280914
0.35389704 0.15413612 0.019347616 -0.33052188 -0.1833213 0.33723575 -0.06690589 -0.33886942
-0.38054073 0.35446757 -0.05351858 0.44921216 0.16694044 -0.10461224 -0.30176428 -0.09618758
0.28123376 -0.4536233 -0.17941372 0.31381184 -0.079613306 0.2799814 -0.15407832 0.011135206
-0.0154609615 -0.066909045 -0.23546876 -0.05978249 -0.015288088 0.107094616 -0.013987652 0.56615686
0.004465432 -0.22150083 -0.4043545 -0.2384604 -0.06675151 -0.114976265 -0.34864768 0.1797836
-0.6100828 -0.25963178 -0.46875829 0.084041536 0.12973024 -0.33710673 -0.14004487 0.19534686
-0.053854913 -0.14000519 0.09296655 0.18246043 -0.13061039 -0.03833079 0.19618765 0.19996324
-0.41334152 -0.11804276 -0.016106265 0.109464936 0.07457118 0.30890432 -0.47853112 0.32905304
0.04100709 -0.15388982 0.702763 -0.22969115 -0.25521752 0.40221524 -0.05172348 0.26335573
-0.031970404 -0.5595866 -0.27818143 0.05791937 -0.108376645 -0.09192617 0.24109702 0.023517169
-0.20029193 0.04716477 0.13260591 -0.2715407 0.34346998 0.45737794 -0.025465159 -0.22453827
-0.24865699 0.1702991 -0.05337604 -0.17917813 -0.2248251 0.454784 -0.1268693 0.02884159
0.20822655 0.17117539 -0.36478487 0.01058334 0.22843862 0.34749433 0.2107303 0.327519
0.3113944 0.14220876 -0.42154285 -0.4020518 -0.1260756 -0.5333484 -0.11874215 0.41429096
-0.07634709 -0.16853091 0.021287221 -0.57994914 -0.10714627 -0.1498801 -0.16438287 -0.07905137
00000000: f214 633e 90c3 12be 6895 04bf 841c 073f
00000010: 649a bbbe 98b7 fdbe 62d4 b2bd 6bd6 003e
00000020: abd2 41be 2b2a 8ebd 3d6b a3be 8f34 a03c
00000030: bfb8 7d3d dcbc e7bd 4a40 993e a334 25bc
00000040: 87d5 81be 5a61 193e b9a0 0f3e 1564 11bf
00000050: 9889 2dbe 5a97 bc3d 24a5 293e 28c7 d3be
00000060: f6ee 17bd f55f c73e 9b45 d7be 7806 d13c
00000070: 8de4 93be 4743 a5be 4cb8 a7be 21af 02bf
00000080: 70ba 4b3d 676d f3be 0f79 2bbd c5af 3cbd
00000090: 8898 29be e8e9 37bd f586 913e 10a1 173e
000000a0: b2cb 8f3e caf3 7e3e 421f 0e3e 0a21 833e
000000b0: d0f8 913e d516 fa3d a867 7ebe 7bfb 813f
000000c0: 9614 3ebe 6f7f fa3e 0350 8c3d b9b0 eb3e
000000d0: 583c f7bd b2ab 173e 961c d03d 1c1d c13d
000000e0: befd 34bd 8dd8 433e 5e87 993d bb12 753e
000000f0: ded9 e4be 457b 35be 43b3 5fbe 84e5 e0be
00000100: 3038 3cbd 127c bf3e 2cb9 5a3e 703a d2be
00000110: e9a4 d1be 3222 4abe 2ceb cdbe d251 0b3f
00000120: 7a87 3dbe ec88 8d3d 7936 1b3e 7317 83be
00000130: 9bcc 0b3d be3c 743e 83bb afbe 699b dabe
00000140: 0905 cf3e 8b03 63bd f197 90be efaf e4bb
00000150: 1da2 68be b365 783d f24b 9b3d 87eb 54be
00000160: 8096 963e ca2b ba3e b0e1 ebbe 245b 5d3e
00000170: ede6 b43c 5180 c6bc c4a1 bebe 7c5e 013f
00000180: 7941 0abe edbb b73d 1285 783e 28d8 5bbd
00000190: 281e 43bc 3da7 a8be aac3 26bf dbe0 1cbe
000001a0: 0368 e7bd 57a0 06be fc93 3bbe 7d4c c63d
000001b0: 1425 babe 4c9e 223e 3e5b 253f 0016 bd3d
000001c0: 1801 433c a976 3dbe 52f6 d8be 783b 653e
000001d0: 1063 08bf 6849 523e ff8e 6cbd df9f 3d3e
000001e0: 5fc5 a7be 5667 66be fb50 8ebe 8936 df3e
000001f0: b360 9bbc a897 2cbd f483 71be faf2 e83e
00000200: c03d 5c3e f2b4 8f3e bd9d 77bd f6bf 213f
00000210: 8484 2f3d 04ed 9a3e 6508 2cbe 14a2 803d
00000220: fe31 b53e dcd5 1d3e e47e 9e3c 2a3a a9be
00000230: 94b8 3bbe 2aaa ac3e f505 89bd 4b80 adbe
00000240: 3cd6 c2be c67c b53e 4c36 5bbd 23ff e53e
00000250: 6ff2 2a3e f13e d6bd d980 9abe fefd c4bd
00000260: dffd 8f3e 5041 e8be 3bb8 37be f2ab a03e
00000270: 4d0c a3bd b959 8f3e b5c6 1dbe 7070 363c
00000280: f94f 7dbc 9c07 89bd b91e 71be 7cde 74bd
00000290: e37a 7abc 6c54 db3d 772c 65bc a8ef 103f
000002a0: c252 923b 1dd1 62be 8e07 cfbe f72e 74be
000002b0: 04b5 88bd ad78 ebbd f381 b2be 3119 383e
000002c0: 632e 1cbf 75ee 84be 1601 f0be f81d ac3d
000002d0: 01d8 043e 4199 acbe ec67 0fbe 0209 483e
000002e0: f896 5cbd 855d 0fbe 3f65 be3d e8d6 3a3e
000002f0: bbbe 05be bf00 1dbd 6ae5 483e 2ac3 4c3e
00000300: 80a1 d3be 67c0 f1bd 49f1 83bc 272f e03d
00000310: c6b8 983d b528 9e3e 0802 f5be a479 a83e
00000320: 0df7 273d 4b95 1dbe 47e8 333f 2834 6bbe
00000330: dfab 82be 28ef cd3e 00dc 53bd 90d6 863e
00000340: 66f3 02bd 1141 0fbf cc6d 8ebe dc3c 6d3d
00000350: 93f4 ddbd ca43 bcbd 23e2 763e 14a7 c03c
00000360: 5419 4dbe d92f 413d d8c9 073e 6207 8bbe
00000370: 4cdb af3e 712d ea3e 4f9c d0bc 5ced 65be
00000380: f09f 7ebe e362 2e3e d6a0 5abd 797a 37be
00000390: 8d38 66be 73d9 e83e 07ea 01be 3345 ec3c
000003a0: 5739 553e 9a48 2f3e 15c5 babe bf65 2d3c
000003b0: d0eb 693e c7ea b13e afc9 573e 92b0 a73e
000003c0: 166f 9f3e 2c9f 113e 77d4 d7be bcd9 cdbe
000003d0: f619 01be 8589 08bf 162f f3bd f21d d43e
000003e0: dd5b 9cbd 5e93 2cbe 8a62 ae3c 8c77 14bf
000003f0: 816f dbbd 2b7a 19be fc53 28be afe5 a1bd

policy_net.2.bias f4 [32]
-0.11495387 -0.032171384 0.027413562 -0.009796497 -0.031650644 0.029298648 0.06477544 -0.03667759
-0.2035202 0.13131724 0.028528089 -0.009252558 -0.0939955 0.059658818 -0.096360445 -0.035187658
-0.09220082 0.037183464 0.0004635833 -0.0011067182 -0.040927976 -0.0648642 0.07843475 -0.009221939
0.068368055 0.07433157 0.0027535672 -0.08429558 0.046845723 0.067446165 0.004727625 0.007898744
00000000: ef6c ebbd 24c6 03bd 6892 e03c 7d81 20bc
00000010: 1ba4 01bd b803 f03c fca8 843d 3e3b 16bd
00000020: 9967 50be 0778 063e bdb3 e93c 0b98 17bc
00000030: b680 c0bd ce5c 743d a058 c5bd ef20 10bd
00000040: c9d3 bcbd b04d 183d 190d f339 4d0f 91ba
00000050: 18a4 27bd 86d7 84bd 66a2 a03d 9e17 17bc
00000060: 8d04 8c3d 263b 983d 3175 343b 29a3 acbd
00000070: 4de1 3f3d 3721 8a3d 31ea 9a3b bc69 013c

policy_net.4.weight f4 [32, 32]
-0.28458947 -0.018858422 -0.25252149 -0.64208513 -0.050086595 -0.08997492 0.41897818 -0.012944572
-0.46932226 0.23850855 0.0005401079 -0.5234254 0.37229 -0.28743443 0.26614267 0.45442247
-0.18683833 0.27709174 -0.10156673 0.16803846 -0.39321595 -0.17654827 0.026976515 -0.01775505
-0.13001196 0.59377104 0.16353817 -0.8566691 0.53687733 -0.008959661 0.25624794 0.29011324
-0.05511813 -0.45519662 0.13756679 -0.40293294 -0.03390541 0.0002278532 0.8187452 0.31129506
-0.18047532 0.27494505 0.20965645 -0.12928753 -0.22917096 -0.20367675 -0.18343839 0.08169938
-0.44151813 -0.057618763 0.19393988 0.4234415 0.09831608 -0.45149624 0.13385247 0.32243258
-0.12473077 -0.018246884 0.72418845 -0.47963464 0.49265814 -0.21374904 -0.22172163 -0.30347675
-0.2797396 0.010389595 -0.24736986 -0.094487764 -0.43349043 -0.24302787 0.271239 0.49227232
-0.4078671 0.6982601 0.16260749 -0.30574378 0.12892503 -0.07212776 0.16484633 0.49569303
-0.4868602 -0.22460638 0.18428321 -0.021605887 -0.6247237 -0.3688737 0.33878824 -0.07218135
-0.4903962 -0.1193077 0.31342602 0.26770735 0.6856506 -0.13616541 0.19738415 -0.18842563
-0.88335294 -0.33011848 0.085133396 0.11876419 -0.21173885 -0.15161702 0.33372843 0.48730174
-0.11890299 0.5069624 -0.2571437 -0.31804377 -0.18948898 -0.11100261 0.23222221 -0.024485998
-0.19601685 0.0704993 -0.28857672 0.7732122 0.23028989 -0.46006382 0.36055315 0.013711275
-0.2839306 0.22207153 0.27550566 -0.35746574 0.5005819 -0.3397669 0.66446126 0.043370236
0.33930752 -0.4682809 0.4930128 0.048698936 -0.34203646 -0.11658066 -0.36092147 -0.15748191
0.0994586 0.44865295 0.89771795 0.30169606 -0.11088947 0.2029309 0.16981281 -0.62052625
-0.1659625 -0.04573763 -0.43496484 -0.17515394 -0.27361855 -0.028400622 -0.5039021 -0.38447675
0.49765247 0.22011249 -0.08849559 -0.019074764 0.052531846 0.10446605 0.0691851 -0.59639525
-0.27112493 0.15162548 -0.53479815 -0.23196495 -0.31314424 0.08010964 0.06444413 0.17579341
0.18577674 0.4593164 -0.6771876 -0.46266872 0.4575645 -0.13717714 -0.32566798 0.032174263
-0.31277585 -0.11507675 0.3572139 0.092818074 0.32421243 -0.34225073 -0.2294364 0.6909282
-0.103612505 -0.18072009 -0.085033104 -0.16176851 -0.5871155 0.28509587 0.14798449 0.4861937
0.081709854 -0.4663137 0.78569925 0.4910701 0.3253034 0.102298476 0.2540746 0.033149257
0.06596238 0.29710332 0.61959934 0.6870653 0.31796366 0.057338763 0.33101887 0.16855262
0.3674445 -0.10472306 -0.6040921 -0.28360167 -0.21199194 -0.26701945 -0.058843423 -0.47510344
0.053371545 -0.12887645 -0.2397549 -0.23518223 -0.055957343 0.41402003 -0.32245418 -0.19852202
0.18064748 -0.046279665 0.16885036 0.5412207 0.17095798 0.17073712 -0.20842183 -0.5398168
0.2733976 -0.27592158 0.35177398 -0.14045325 -0.19265431 0.14683573 0.18882214 -0.22720338
0.6006997 0.0670003 0.21382082 -0.19297868 -0.01807872 0.8959892 -0.65189934 0.41455862
0.201601 -0.53547865 -0.27442434 0.36878517 0.0661 0.7593561 -0.0298662 0.18763097
00000000: b6b5 91be fa7c 9abc 7f4a 81be b15f 24bf
00000010: 9a27 4dbd c544 b8bd 4f84 d63e 7815 54bc
00000020: 024b f0be 963b 743e 0796 0d3a 35ff 05bf
00000030: cb9c be3e 9b2a 93be da43 883e 10aa e83e
00000040: 8c52 3fbe f8de 8d3e 3802 d0bd 4612 2c3e
00000050: 9a53 c9be 12c9 34be dafd dc3c 0a73 91bc
00000060: db21 05be 6101 183f 8d76 273e ab4e 5bbf
00000070: cb70 093f 8bcb 12bc ee32 833e b989 943e
00000080: 8cc3 61bd 880f e9be 4fde 0c3e 3a4d cebe
00000090: 66e0 0abd e1eb 6e39 4999 513f 1162 9f3e
000000a0: 86ce 38be 99c5 8c3e 2eb0 563e f363 04be
000000b0: cbab 6abe a390 50be 46d7 3bbe 0152 a73d
000000c0: aa0e e2be a701 6cbd 2d98 463e 53cd d83e
000000d0: f159 c93d 842a e7be 9f10 093e e215 a53e
000000e0: d972 ffbd 7d7a 95bc 6a64 393f ac92 f5be
000000f0: b03d fc3e 07e1 5abe ff0a 63be 4e61 9bbe
00000100: 073a 8fbe 1f39 2a3c 864e 7dbe cd82 c1bd
00000110: 75f2 ddbe 4cdc 78be d7df 8a3e 1e0b fc3e
00000120: f5d3 d0be 2dc1 323f 9482 263e 738a 9cbe
00000130: ec04 043e b8b7 93bd 7acd 283e 7acb fd3e
00000140: bd45 f9be 37ff 65be bdb4 3c3e d4fe b0bc
00000150: e4ed 1fbf 03dd bcbe a775 ad3e d1d3 93bd
00000160: 3615 fbbe 9857 f4bd 6079 a03e f010 893e
00000170: cc86 2f3f f26e 0bbe 121f 4a3e a6f2 40be
00000180: 6b23 62bf 4a05 a9be 6b5a ae3d a43a f33d
00000190: 12d2 58be 7e41 1bbe 74de aa3e 9d7f f93e
000001a0: 6983 f3bd 4ac8 013f 57a8 83be a2d6 a2be
000001b0: 6609 42be 5655 e3bd a9cb 6d3e dc96 c8bc
000001c0: a4b8 48be f061 903d 54c0 93be 3cf1 453f
000001d0: 1dd1 6b3e 7c8d ebbe 6c9a b83e 41a5 603c
000001e0: 5a5f 91be b866 633e 140f 8d3e c005 b7be
000001f0: 2326 003f edf5 adbe 221a 2a3f fda4 313d
00000200: b7b9 ad3e 84c2 efbe 2c6c fc3e 8978 473d
00000210: 671f afbe d7c1 eebd b3ca b8be f042 21be
00000220: f3b0 cb3d d7b5 e53e d8d0 653f e877 9a3e
00000230: 051a e3bd 1ecd 4f3e 69e3 2d3e cfda 1ebf
00000240: 13f2 29be 6257 3bbd b6b3 debe 8e5b 33be
00000250: bb17 8cbe 6ca8 e8bc baff 00bf 23da c4be
00000260: 4ecc fe3e 2b65 613e 2d3d b5bd ae42 9cbc
00000270: a22b 573d 4cf2 d53d ebb0 8d3d 5cad 18bf
00000280: e3d0 8abe b643 1b3e 88e8 08bf 3888 6dbe
00000290: 7154 a0be 8610 a43d 49fb 833d 3003 343e
000002a0: 423c 3e3e 852b eb3e 2b5c 2dbf eae2 ecbe
000002b0: e545 ea3e 2a78 0cbe f4bd a6be 29c9 033d
000002c0: 2824 a0be 5cad ebbd bee4 b63e 6717 be3d
000002d0: 2cff a53e 7d3b afbe 60f1 6abe ace0 303f
000002e0: cb32 d4bd b00e 39be d625 aebd a5a6 25be
000002f0: 344d 16bf 16f8 913e 3f89 173e 61ee f83e
00000300: 7f57 a73d abc0 eebe 9623 493f 8a6d fb3e
00000310: 2b8e a63e dd81 d13d 1116 823e 84c7 073d
00000320: 4917 873d ed1d 983e 109e 1e3f 83e3 2f3f
00000330: 22cc a23e 0ddc 6a3d 4e7b a93e 0f99 2c3e
00000340: af21 bc3e 0b79 d6bd c8a5 1abf 3d34 91be
00000350: 6a14 59be c6b6 88be cd05 71bd c240 f3be
00000360: 1f9c 5a3d 30f8 03be 4f82 75be 9cd3 70be
00000370: 8733 65bd 6ffa d33e b718 a5be 5b49 4bbe
00000380: a7fb 383e bf8f 3dbd 1ce7 2c3e 718d 0a3f
00000390: 9c0f 2f3e b6d5 2e3e 886c 55be 6f31 0abf
000003a0: c5fa 8b3e 9845 8dbe b81b b43e fad2 0fbe
000003b0: 2c47 45be 1b5c 163e 975a 413e 01a8 68be
000003c0: 75c7 193f 7437 893d d8f3 5a3e 349c 45be
000003d0: d319 94bc 8c5f 653f e0e2 26bf 0741 d43e
000003e0: 7e70 4e3e 2115 09bf 5981 8cbe 69d1 bc3e
000003f0: 705f 873d 2965 423f f6a9 f4bc 5522 403e

policy_net.4.bias f4 [32]
0.20944512 0.24723531 0.31129822 0.2857755 -0.055564083 -0.013554758 0.03374438 -0.30314225
-0.25680092 0.057492327 0.25128213 -0.24814332 -0.09302648 0.1000284 0.2632542 -0.27939096
0.06424129 -0.22095706 -0.34379786 -0.004673675 -0.30262184 0.04534202 0.08394507 -0.2661769
-0.24919291 0.2930413 0.040799018 -0.28904825 -0.32540822 0.29755953 0.087983236 -0.30536255
00000000: c878 563e 412b 7d3e 7b62 9f3e 2b51 923e
00000010: 2a97 63bd c714 5ebc 8c37 0a3d 7635 9bbe
00000020: 697b 83be 137d 6b3d 0da8 803e 4819 7ebe
00000030: ab84 bebd b1db cc3d 41c9 863e 550c 8fbe
00000040: f090 833d 9142 62be 4606 b0be a125 99bb
00000050: 40f1 9abe 8eb8 393d 65eb ab3d 5748 88be
00000060: 6d2c 7fbe 8209 963e df1c 273d 22fe 93be
00000070: e89b a6be b959 983e 8e30 b43d 7b58 9cbe

policy_net.6.weight f4 [21, 32]
0.5575647 0.5752997 0.5408029 0.58062416 -0.026232092 0.017009266 -0.038739547 -0.58444285
-0.5839668 0.008363521 0.5623693 -0.54822576 -0.2941613 0.20237128 0.583387 -0.57508194
0.16450502 -0.5271533 -0.578977 0.013311185 -0.5841108 -0.121145226 -0.16568017 -0.57975215
-0.56058156 0.5618826 0.37271538 -0.56023544 -0.582054 0.5812461 0.35947427 -0.5714349
-0.0018365973 0.0025418606 0.0015134787 -0.0017907843 -0.0038413506 -0.0027817294 -0.0017442183 -0.0015880936
-0.0034370262 -0.0030843683 0.0010507983 0.00090674195 -0.00066347636 -0.0020257465 5.2365158e-05 -0.0022723002
0.0003802799 -0.0012230048 -0.0018999567 0.0017433662 -0.0007586998 0.0018968087 -0.0012747193 0.001027568
0.00012215096 -4.287031e-05 2.9031384e-05 -0.0020304087 0.00021043734 -0.0011525276 -0.00020440665 0.0017172162
-0.00055744563 -0.00029763905 -0.0031127338 -0.00026983174 -0.001414134 -0.0021156017 0.0008697833 -0.0016985574
0.00038185826 0.0012953874 -0.0006001082 0.0007408308 0.002015456 -0.0019664012 0.0020622266 2.087268e-05
0.002729547 -0.0022079248 0.0008304377 0.00019815272 -0.003526521 -0.0030511494 0.0010221541 -0.0008486112
-0.00037542917 0.0003181444 0.0036247505 -0.0008107779 -0.003171626 0.0011859881 7.576277e-05 -0.0016528333
0.000117707845 -0.003448605 0.0012586814 -0.0008911842 -0.00030876097 0.0005008512 0.0007524177 0.0016009468
0.0013604185 -0.002243325 0.0037285727 0.001046501 0.0011022945 0.0009237686 -2.6127607e-05 -0.0011490133
-0.0008965796 0.0013546702 -0.002391731 0.0010648656 -0.0006589026 0.00017745017 0.00065845874 -0.002575969
-0.004946123 -0.0019888915 0.0028615983 -2.95039e-06 -0.00038293353 9.391345e-05 0.001518865 0.000932912
0.010234204 0.008228261 0.006403175 0.008756797 -0.0036301888 0.0047319117 -0.0051091528 -0.009223747
-0.008418882 -0.0007840351 0.008336085 -0.011679874 -0.004922445 0.0015281659 0.007136991 -0.007995506
0.004763208 -0.010953919 -0.010511596 0.0047780396 -0.012931704 -0.003283532 -0.0036116655 -0.0055335425
-0.010360322 0.007273386 0.0030810274 -0.011958999 -0.007121643 0.011368203 0.005639453 -0.011177528
0.3724495 0.3735305 0.37530738 0.3779355 -0.34205678 0.3387478 -0.34056047 -0.37566546
-0.37445724 0.25015265 0.37519872 -0.37614927 -0.07390599 -0.036416717 0.3732506 -0.37664342
0.14747186 -0.37165275 -0.37621164 0.33412537 -0.37780446 0.01872084 0.06447796 -0.37345874
-0.37433055 0.3778401 -0.06659168 -0.37684062 -0.3752096 0.3744676 0.13825925 -0.3731725
0.4436957 0.44091046 0.4428042 0.44307005 -0.36112943 0.35977998 -0.38090292 -0.44362035
-0.4455297 0.10323723 0.4433066 -0.44149324 -0.28905687 0.18047726 0.44487014 -0.4437901
0.3194142 -0.44329637 -0.44213238 0.35163265 -0.44387853 -0.17533702 -0.18984838 -0.44071677
-0.4407879 0.4422603 0.20340684 -0.44413012 -0.44835228 0.44194943 0.31444222 -0.44164056
0.22851218 0.22966963 0.22694886 0.23155731 0.10869682 -0.02005677 -0.11120267 -0.2289688
-0.22755148 0.057568375 0.22875945 -0.22816408 0.25816685 -0.24843761 0.22882159 -0.22721554
-0.2784132 -0.22740753 -0.2279864 0.24412642 -0.22947589 0.25540277 -0.07594677 -0.23038349
-0.22988549 0.22974385 -0.25269392 -0.23016061 -0.22801663 0.2267945 -0.26991773 -0.22720385
00000000: 8fbc 0e3f d746 133f 0f72 0a3f c9a3 143f
00000010: afe4 d6bc 0457 8b3c 5cad 1ebd 0c9e 15bf
00000020: d97e 15bf 2607 093c 6ff7 0f3f 8658 0cbf
00000030: 4f9c 96be 6b3a 4f3e da58 153f 9238 13bf
00000040: 0174 283e 85f3 06bf d637 14bf 2817 5a3c
00000050: 4988 15bf fd1a f8bd 10a8 29be a36a 14bf
00000060: 4682 0fbf 8ad7 0f3f 8dd4 be3e 976b 0fbf
00000070: 7e01 15bf 8bcc 143f 030d b83e 8f49 12bf
00000080: fbb9 f0ba 5895 263b eb5f c63a c0b8 eaba
00000090: 2bbf 7bbb ad4d 36bb 419e e4ba 9427 d0ba
000000a0: bb3f 61bb 1d23 4abb f1ba 893a 6cb2 6d3a
000000b0: 25ed 2dba 63c2 04bb a9a2 5b38 dfea 14bb
000000c0: 4e60 c739 3b4d a0ba f807 f9ba aa81 e43a
000000d0: 7be3 46ba 579e f83a 7b14 a7ba 76af 863a
000000e0: a615 0039 a5cf 33b8 6c88 f337 9b10 05bb
000000f0: d8a8 5c39 6910 97ba fe55 56b9 3714 e13a
00000100: 8b21 12ba 700c 9cb9 02ff 4bbb 3478 8db9
00000110: 775a b9ba e8a5 0abb 2b02 643a 21a2 deba
00000120: 2634 c839 fdc9 a93a 9450 1dba 5034 423a
00000130: be15 043b bdde 00bb 6c26 073b bd17 af37
00000140: 33e2 323b d5b2 10bb bbb1 593a 37c7 4f39
00000150: 341d 67bb cbf5 47bb cdf9 853a 5575 5eba
00000160: 40d5 c4b9 9ecc a639 398d 6d3b 628a 54ba
00000170: 0edb 4fbb 2873 9b3a d4e2 9e38 e2a3 d8ba
00000180: ebd9 f638 fe01 62bb 57fa a43a 5c9e 69ba
00000190: 32e1 a1b9 8e4b 033a e63d 453a dcd6 d13a
000001a0: 1250 b23a c004 13bb 125b 743b bf2a 893a
000001b0: de7a 903a 1029 723a 9c2c dbb7 7d9a 96ba
000001c0: 7008 6bba 308f b13a 96be 1cbb f692 8b3a
000001d0: 34ba 2cba eb11 3a39 6b9c 2c3a 97d1 28bb
000001e0: 1613 a2bb 1058 02bb a789 3b3b 50ff 45b6
000001f0: 78c4 c8b9 66f3 c438 a714 c73a aa8e 743a
00000200: 5dad 273c d4cf 063c bad1 d13b ab78 0f3c
00000210: 76e8 6dbb 270e 9b3b ae6a a7bb 331f 17bc
00000220: 5aef 09bc b487 4dba 1394 083c f15c 3fbc
00000230: 764c a1bb bd4c c83a 6bdd e93b 95ff 02bc
00000240: af14 9c3b 1178 33bc d438 2cbc 1a91 9c3b
00000250: 7fdf 53bc 8730 57bb b1b1 6cbb b852 b5bb
00000260: 57be 29bc 9655 ee3b 10eb 493b adef 43bc
00000270: ac5c e9bb b341 3a3c 29cb b83b f321 37bc
00000280: b3b1 be3e 643f bf3e 4a28 c03e c380 c13e
00000290: 1122 afbe 5a70 ad3e f15d aebe 3957 c0be
000002a0: dcb8 bfbe 0214 803e 0c1a c03e a396 c0be
000002b0: 065c 97bd b229 15bd b41a bf3e 68d7 c0be
000002c0: dd02 173e 4549 bebe d09e c0be 7b12 ab3e
000002d0: 966f c1be 725c 993c 050d 843d fc35 bfbe
000002e0: 41a8 bfbe 4274 c13e 3861 88bd 41f1 c0be
000002f0: 791b c0be 38ba bf3e d593 0d3e 7710 bfbe
00000300: 152c e33e 04bf e13e 3bb7 e23e 14da e23e
00000310: f5e5 b8be 1535 b83e b505 c3be 3522 e3be
00000320: 781c e4be 0a6e d33d 15f9 e23e 670b e2be
00000330: 43ff 93be 08cf 383e 05c6 e33e 7538 e3be
00000340: 428a a33e bef7 e2be 2d5f e2be 3209 b43e
00000350: 0c44 e3be 8c8b 33be 9d67 42be a1a5 e1be
00000360: f4ae e1be f16f e23e e249 503e 0665 e3be
00000370: 6e8e e5be 3247 e23e 92fe a03e b61e e2be
00000380: 19ff 693e 842e 6b3e 4865 683e 5c1d 6d3e
00000390: 709c de3d 184e a4bc 3abe e3bd cc76 6abe
000003a0: 4103 69be d1cc 6b3d eb3f 6a3e d8a3 69be
000003b0: 722e 843e 6e66 7ebe 3550 6a3e 31ab 68be
000003c0: 2d8c 8ebe 85dd 68be 4475 69be 47fc 793e
000003d0: bafb 6abe 27c4 823e fb89 9bbd a6e9 6bbe
000003e0: 1a67 6bbe f941 6b3e 1961 81be 39af 6bbe
000003f0: 317d 69be d13c 683e a832 8abe 20a8 68be

policy_net.6.bias f4 [21]
0.5791079 0.0 0.0 0.0 0.009408752 0.37486655 0.44389445 0.22831327
0.32866704 0.31171587 0.2119516 0.25565103 0.3286251 0.16875118 0.10135428 -0.17268264
0.13947368 -0.16156565 -0.15290889 -0.1749191 -0.16415152
00000000: 6a40 143f 0000 0000 0000 0000 0000 0000
00000010: 2b27 1a3c 82ee bf3e 2246 e33e f4ca 693e
00000020: 0c47 a83e 3999 9f3e d709 593e b1e4 823e
00000030: 8d41 a83e 1ccd 2c3e d592 cf3d b8d3 30be
00000040: 30d2 0e3e 7771 25be 2694 1cbe fe1d 33be
00000050: 5617 28be

value_net.0.weight f4 [32, 770]
-0.10201197 -0.017199546 0.036643513 -0.022860704 -0.07968386 -0.07004919 -0.122694194 0.02202881
-0.0050535076 -0.013310482 0.06151293 -0.08520498 0.055196524 0.091536276 0.094809495 -0.072710834
0.06448544 0.1271811 -0.037752386 0.0010432658 -0.053946756 -0.15318939 -0.023754565 0.010991446
-0.05292026 0.053801645 -0.07844357 -0.065276906 0.018525733 -0.13941878 0.0147612 -0.032918274
-0.024745723 -0.19166908 0.023042785 -0.026582537 0.020640269 0.043914564 0.00018731861 -0.041208826
0.025008354 -0.03980609 0.089299 -0.006561595 0.02870466 0.019590482 0.005294993 -0.040502213
0.034554996 -0.12903836 0.02031761 -0.09350244 -0.09768672 -0.08364712 0.05746262 -0.0061387136
0.024228614 -0.06715698 0.05941881 0.06390542 -0.022534996 -0.024751533 -0.12623969 -0.06640041
0.013606024 0.009882079 -0.027585708 0.052116536 0.07617352 0.037150476 -0.04640843 -0.19297534
0.014934296 0.07491969 -0.08919966 0.017391223 0.077444665 -0.04674218 -0.026240986 -0.02021018
0.020088527 0.028240804 -0.0055376347 -0.0074318447 -0.0759818 -0.07095942 0.030727176 0.02074322
0.09942993 0.036377616 0.008089673 -0.0031748228 0.07292364 0.014150263 0.11703851 -0.106566854
-0.053452387 0.035183374 0.04058191 -0.05802133 -0.015242232 0.06911336 0.12565948 -0.15428744
-0.080544405 -0.051898208 -0.028205799 0.056058362 -0.014315039 -0.15162987 -0.005340718 0.070304655
0.0273 0.021148384 -0.12321859 0.02107691 -0.065974474 -0.022295939 0.034248848 0.13748847
-0.054123152 -0.085697845 -0.08206715 0.05716784 -0.02457083 -0.0076858806 0.0034691428 0.049910568
-0.05303616 -0.041099764 -0.028397376 -0.028806817 0.017573593 0.021540174 -0.08041168 -0.059392963
-0.025422912 -0.092170425 0.020377101 0.009974279 0.027433744 0.12385217 -0.050727937 -0.101176396
0.029691376 0.018489495 0.0157502 0.056645595 0.016231552 -0.024406578 -0.05955872 0.004784465
0.026958028 -0.05813395 -0.092059195 0.052851163 0.04134033 -0.023537654 0.10204246 -0.058109142
-0.057225976 -0.025450027 -0.041146062 0.046068355 -0.017402688 0.04723819 0.073257364 0.00411852
0.027299197 -0.001145057 -0.027678724 0.017243445 0.030863617 -0.0013026575 -0.09575374 0.06879992
0.034482963 0.024485681 -0.12865406 -0.06525414 0.11587452 0.038298108 -0.061171748 -0.082969196
0.04940246 -0.05922304 0.012272459 -0.07590814 -0.0940459 -0.018941628 -0.064987846 0.100557595
-0.006100599 -0.0102238925 -0.06653818 0.049321387 -0.11009824 0.07962529 0.04174211 -0.017889904
0.005426211 -0.01961978 -0.022815347 0.021588257 -0.070638165 0.053453747 -0.053560447 0.09041243
-0.05108753 0.12024007 0.004180344 0.03340458 0.0023811734 -0.012465702 0.045853183 -0.09174711
0.09348787 -0.013778357 -0.00041028514 0.10537583 -0.023172723 0.017728817 0.012476691 0.063209854
-0.031026917 -0.10303392 -0.061659336 -0.078739814 -0.12722518 -0.06104582 -0.04396593 -0.035555292
0.01180981 0.0006821992 -0.062025253 0.06520178 0.014502 0.11825743 -0.036815446 -0.0054216227
-0.009797841 0.14042364 -0.05874433 0.11651005 -0.07339245 -0.032643218 -0.023666082 -0.025627252
0.023621442 -0.05186711 0.039335478 0.09891819 -0.051708233 0.032088507 -0.06233828 -0.088268384
00000000: a7eb d0bd 10e6 8cbc 8217 163d 5f46 bbbc
00000010: 4b31 a3bd f375 8fbd 1847 fbbd c375 b43c
00000020: e597 a5bb 3514 5abc fbf4 7b3d f37f aebd
00000030: c015 623d 5f77 bb3d 7b2b c23d 6be9 94bd
00000040: f110 843d c33b 023e 3fa2 1abd 31be 883a
00000050: 46f7 5cbd aedd 1cbe ef98 c2bc 7715 343c
00000060: eac2 58bd 1d5f 5c3d 06a7 a0bd e6af 85bd
00000070: 47c3 973c ccc3 0ebe f6d8 713c 50d5 06bd
00000080: 8bb7 cabc e644 44be 39c4 bc3c 9fc3 d9bc
00000090: c815 a93c c2df 333d f56a 4439 96ca 28bd
000000a0: 52de cc3c b60b 23bd 65e2 b63d a602 d7bb
000000b0: 0926 eb3c 387c a03c 9f81 ad3b a6e5 25bd
000000c0: 8a89 0d3d a222 04be 1e71 a63c 357e bfbd
000000d0: fa0f c8bd 2e4f abbd ed5d 6b3d 4327 c9bb
000000e0: 167b c63c 9989 89bd 2361 733d d8e0 823d
000000f0: 509b b8bc bac3 cabc fa44 01be f0fc 87bd
00000100: cdeb 5e3c 72e8 213c 6cfb e1bc 2678 553d
00000110: dd00 9c3d 192b 183d c416 3ebd 549b 45be
00000120: faae 743c 7f6f 993d 50ae b6bd 0a78 8e3c
00000130: 4f9b 9e3d ba74 3fbd 56f7 d6bc d28f a5bc
00000140: b290 a43c 4259 e73c 0c75 b5bb d586 f3bb
00000150: 599c 9bbd 2c53 91bd 8fb7 fb3c afed a93c
00000160: eba1 cb3d b200 153d 8c8a 043c b010 50bb
00000170: fd58 953d 81d6 673c e3b1 ef3d b93f dabd
00000180: e4f0 5abd 711c 103d 3839 263d c6a7 6dbd
00000190: 8eba 79bc 4e8b 8d3d e1ac 003e 87fd 1dbe
000001a0: 77f4 a4bd 3793 54bd d90f e7bc 749d 653d
000001b0: a089 6abc dc44 1bbe 3101 afbb e3fb 8f3d
000001c0: 40a4 df3c 603f ad3c 075a fcbd 7ca9 ac3c
000001d0: a01d 87bd f9a5 b6bc 8548 0c3d c7c9 0c3e
000001e0: 3db0 5dbd 5a82 afbd d212 a8bd d328 6a3d
000001f0: c448 c9bc d7d9 fbbb 8f5a 633b 066f 4c3d
00000200: 723c 59bd 3a58 28bd 9da1 e8bc 46fc ebbc
00000210: 7ff6 8f3c 0575 b03c e1ae a4bd 0946 73bd
00000220: b643 d0bc d9c3 bcbd e1ed a63c 296b 233c
00000230: bbbc e03c 35a6 fd3d 19c8 4fbd 9235 cfbd
00000240: 543b f33c 4877 973c 9006 813c 3605 683d
00000250: 08f8 843c 4ef0 c7bc d8f3 73bd 00c7 9c3b
00000260: 15d7 dc3c dd1d 6ebd 8889 bcbd 767a 583d
00000270: 7a54 293d 0ad2 c0bc a3fb d03d da03 6ebd
00000280: c965 6abd 937c d0bc c688 28bd 2cb2 3c3d
00000290: 1590 8ebc d57c 413d f507 963d a6f4 863b
000002a0: 91a2 df3c bd15 96ba 7ebe e2bc 2042 8d3c
000002b0: b2d5 fc3c efbd aaba 891a c4bd f9e6 8c3d
000002c0: 023e 0d3d 3296 c83c e4bd 03be f6a3 85bd
000002d0: 9f4f ed3d 7ade 1c3d 3a8f 7abd c1eb a9bd
000002e0: 3c5a 4a3d dc93 72bd 6d12 493c ba75 9bbd
000002f0: 239b c0bd 792b 9bbc 5918 85bd 24f1 cd3d
00000300: 89e7 c7bb 1d82 27bc 2b45 88bd 3905 4a3d
00000310: 307b e1bd 9612 a33d c6f9 2a3d d98d 92bc
00000320: 5bce b13b a9b9 a0bc 40e7 babc dbd9 b03c
00000330: beaa 90bd 51f2 5a3d 3362 5bbd 272a b93d
00000340: 2841 51bd 6d40 f63d 44fb 883b 3ed3 083d
00000350: 760d 1c3b f23c 4cbc 8cd0 3b3d e9e5 bbbd
00000360: 9276 bf3d 9ebe 61bc 8a1b d7b9 48cf d73d
00000370: b9d4 bdbc 063c 913c 096b 4c3c 2b74 813d
00000380: 292c febc 7303 d3bd 808e 7cbd 5742 a1bd
00000390: 5147 02be 2f0b 7abd 9e15 34bd 6da2 11bd
000003a0: ef7d 413c 9dd5 323a 310e 7ebd 8388 853d
000003b0: cc99 6d3c f430 f23d cbcb 16bd dea7 b1bb
000003c0: 2087 20bc 37cb 0f3e e59d 70bd d29c ee3d
000003d0: c84e 96bd e5b4 05bd 5fdf c1bc 3ef0 d1bc
000003e0: c181 c13c 9b72 54bd 3d1e 213d 9f95 ca3d
000003f0: 03cc 53bd 3d6f 033d 6d56 7fbd 0ec6 b4bd

value_net.0.bias f4 [32]
0.01807106 -0.08744543 0.05537018 -0.033798903 -0.059273917 -0.0033682766 0.086430095 0.03099005
0.024544107 -0.03645152 -0.049245827 0.059371594 -0.041602556 -0.015489924 -0.038876165 -0.044778533
0.06160604 0.049673587 -0.09840079 -0.04445706 -0.05792391 -0.04109717 0.01128247 -0.08278227
0.054086253 -0.01886581 0.05622259 0.01893629 -0.08542836 0.037607443 -0.01002278 -0.05293415
00000000: c209 943c 9716 b3bd d8cb 623d b870 0abd
00000010: 35c9 72bd 4ebe 5cbb 4302 b13d d8de fd3c
00000020: b910 c93c 304e 15bd feb5 49bd a12f 733d
00000030: 7167 2abd 73c9 7dbc 9d3c 1fbd b269 37bd
00000040: 9d56 7c3d 8876 4b3d 5a86 c9bd 9b18 36bd
00000050: 9f41 6dbd 8255 28bd 1cda 383c c089 a9bd
00000060: 8c89 5d3d 798c 9abc a949 663d 4720 9b3c
00000070: 10f5 aebd 430a 1a3d 9636 24bc 7bd1 58bd

value_net.2.weight f4 [32, 32]
0.036327746 -0.11742567 0.3393677 -0.41939315 -0.48383465 -0.62771946 0.2967963 0.5325721
-0.20058547 -0.2740425 0.10479289 0.15932094 0.020288406 -0.43177262 -0.29363254 -0.389914
0.4194335 -0.4056438 -0.19158895 0.058991566 -0.06882587 0.3227949 -0.1727391 -0.17408547
0.22219016 0.1020587 0.066341564 0.09524095 0.38953772 -0.027171548 -0.19160967 -0.1851278
0.19033135 0.10352646 0.16063547 -0.12688348 0.022445865 0.2810173 0.10648904 -0.08622404
0.34378886 -0.43613312 0.35080793 0.44678044 -0.006754263 -0.13227487 0.052533925 -0.013922154
-0.21726623 -0.0342675 -0.46135014 0.1602221 -0.30820894 -0.32823128 0.0403286 0.45823878
-0.115238674 0.3376478 -0.4149956 0.44200695 -0.20921354 -0.2953779 0.0796743 -0.35479817
-0.5850502 0.2914643 0.114447325 0.36070466 -0.3960794 0.11359855 0.408876 -0.11142375
0.13544527 0.07810823 -0.044601627 0.048770435 0.027136428 0.32783306 -0.43488717 -0.25607744
0.14696667 0.23556358 -0.4134461 -0.16726045 -0.4224105 0.22737937 0.18564889 -0.33214492
0.64117205 -0.06072898 0.24518348 0.28831494 0.1560027 0.3026705 0.011947513 -0.109275855
0.07090586 -0.5341949 0.32949674 0.3531281 -0.3498035 0.22510529 -0.010718824 0.09535115
0.076522045 -0.021721255 0.10677522 0.16866644 0.6237667 0.18943077 0.23836458 -0.10901937
-0.21168974 -0.1466962 0.19456299 0.34600332 0.32855082 -0.3332294 0.04890829 -0.20483746
0.36749393 0.38354722 0.45864505 -0.21136789 -0.13825305 -0.17597553 0.19785987 0.3041147
-0.120728254 0.21420734 0.106502265 0.06248176 0.16686143 0.27661148 0.16823642 -0.2523133
-0.3798887 -0.0997427 -0.18442649 0.39044034 0.05716482 -0.15220621 0.3696046 -0.32771295
-0.30789655 0.3955253 0.0060173376 -0.03805724 0.61893564 0.33173466 -0.22618176 -0.18268812
-0.21074378 0.059736498 -0.68789303 -0.01331272 -0.009013504 -0.18661827 0.5455083 0.022218583
0.29633933 -0.053894162 0.25838333 -0.54771864 -0.091408364 0.4426503 -0.13297805 -0.023048764
-0.11166346 0.02279185 -0.13457362 -0.027025504 0.24148566 -0.18913367 -0.14774549 -0.07298245
0.11789944 0.93398875 -0.2881036 0.060604397 -0.31853056 -0.47217295 0.1395288 0.15965644
-0.043476384 -0.3625452 -0.19392923 0.20654133 0.3812094 0.4205897 -0.32962015 -0.26183718
-0.21878555 0.13355976 -0.009406828 -0.2004301 0.0035799725 0.36260498 0.014376521 -0.23098932
-0.18160611 -0.5649414 -0.12388677 0.16451067 0.30575365 0.06567493 -0.2747871 -0.14479308
-0.15390655 -0.6384962 0.65130854 -0.34426758 0.17331801 -0.18013293 -0.09853221 0.5186166
0.02536938 0.27737617 -0.12203796 0.20808423 0.521314 0.38033283 0.074477784 0.4280814
0.07895692 -0.02686971 -0.022559416 -0.17429489 0.011183606 -0.1699041 -0.06419436 0.20666054
-0.49375665 -0.29777995 -0.14679116 0.019751152 -0.0053036925 -0.09595695 -0.39339158 0.85996014
-0.3400296 0.16197488 -0.0441987 -0.08750347 0.2253494 -0.20507653 -0.118525535 -0.10713502
-0.07031417 0.30159953 0.058633763 0.30407745 -0.6127596 0.3377845 0.32614613 -0.29521582
00000000: 67cc 143d df7c f0bd 9ac1 ad3e b3ba d6be
00000010: 2db9 f7be 39b2 20bf aff5 973e a556 083f
00000020: 4766 4dbe 4c4f 8cbe a89d d63d 0725 233e
00000030: df33 a63c 4d11 ddbe 0157 96be cfa2 c7be
00000040: fdbf d63e 8bb0 cfbe e52f 44be 24a1 713d
00000050: 94f4 8cbd 6045 a53e 85e2 30be 7643 32be
00000060: d185 633e 2704 d13d 16de 873d b00d c33d
00000070: 7d71 c73e de96 debc 5335 44be 2492 3dbe
00000080: 39e6 423e ae05 d43d a07d 243e beed 01be
00000090: 64e0 b73c 80e1 8f3e ed16 da3d 3b96 b0bd
000000a0: 1805 b03e d74c dfbe 199d b33e 68c0 e43e
000000b0: dd52 ddbb 1073 07be d02d 573d bf19 64bc
000000c0: 0a7b 5ebe 145c 0cbd 1636 ecbe 4311 243e
000000d0: 90cd 9dbe ee0d a8be 9a2f 253d 469e ea3e
000000e0: 4102 ecbd 2ce0 ac3e 4e7a d4be bc4e e23e
000000f0: 133c 56be c63b 97be 482c a33d 1ba8 b5be
00000100: dac5 15bf cf3a 953e 5c63 ea3d 48ae b83e
00000110: ebca cabe 5ba6 e83d 3258 d13e 2332 e4bd
00000120: 2ab2 0a3e 35f7 9f3d 32b0 36bd 82c3 473d
00000130: 374d de3c bcd9 a73e 88a9 debe 951c 83be
00000140: 6e7e 163e 9437 713e 35af d3be 5346 2bbe
00000150: 3046 d8be 23d6 683e be1a 3e3e e60e aabe
00000160: da23 243f f3be 78bd 6111 7b3e 049e 933e
00000170: 2cbf 1f3e a1f7 9a3e 80bf 433c 05cc dfbd
00000180: 1737 913d ffc0 08bf ccb3 a83e 35cd b43e
00000190: 7219 b3be 0082 663e 029e 2fbc 7747 c33d
000001a0: 97b7 9c3d c6f0 b1bc f7ac da3d e5b6 2c3e
000001b0: 2daf 1f3f 24fa 413e d815 743e 8c45 dfbd
000001c0: 32c5 58be 8737 16be 853b 473e 5927 b13e
000001d0: d037 a83e 0b9d aabe 0f54 483d e9c0 51be
000001e0: 2a28 bc3e 4d60 c43e 86d3 ea3e d370 58be
000001f0: 3592 0dbe ee32 34be c79b 4a3e ecb4 9b3e
00000200: 6040 f7bd 2b59 5b3e dc1d da3d e0ec 7f3d
00000210: b9dd 2a3e 05a0 8d3e 2b46 2c3e 352f 81be
00000220: c680 c2be e745 ccbd 4cda 3cbe cce7 c73e
00000230: a925 6a3d f2db 1bbe d03c bd3e fec9 a7be
00000240: 9ea4 9dbe 4b82 ca3e 162d c53b e9e1 1bbd
00000250: 9172 1e3f 20d9 a93e 319c 67be 9812 3bbe
00000260: 38cd 57be 42ae 743d c219 30bf 981d 5abc
00000270: 60ad 13bc dc18 3fbe 6fa6 0b3f bf03 b63c
00000280: cab9 973e 20c0 5cbd d24a 843e 4a37 0cbf
00000290: 4f34 bbbd 0fa3 e23e 662b 08be c3d0 bcbc
000002a0: d0af e4bd f9b5 ba3c abcd 09be 9764 ddbc
000002b0: 0448 773e 42ac 41be 984a 17be d377 95bd
000002c0: 4375 f13d e319 6f3f 5182 93be 513c 783d
000002d0: 7016 a3be a7c0 f1be a3e0 0e3e fa7c 233e
000002e0: 4b14 32bd 869f b9be 6295 46be 927f 533e
000002f0: e12d c33e 8857 d73e f9c3 a8be 860f 86be
00000300: 5209 60be e4c3 083e 191f 1abc 8c3d 4dbe
00000310: f99d 6a3b 5ca7 b93e 808b 6b3c 7788 6cbe
00000320: f4f6 39be 00a0 10bf 59b8 fdbd 7c75 283e
00000330: be8b 9c3e 9480 863d e5b0 8cbe a344 14be
00000340: ae99 1dbe 7d74 23bf 28bc 263f d743 b0be
00000350: 477a 313e c474 38be 41cb c9bd 0fc4 043f
00000360: 72d3 cf3c 4004 8e3e 0aef f9bd 0814 553e
00000370: d674 053f fcba c23e cf87 983d 7c2d db3e
00000380: 2ab4 a13d de1d dcbc 86ce b8bc 5c7a 32be
00000390: 723b 373c 57fb 2dbe 5578 83bd d29e 533e
000003a0: accd fcbe 9d76 98be 6c50 16be 2bcd a13c
000003b0: 99ca adbb 1485 c4bd 9f6a c9be 5926 5c3f
000003c0: 5c18 aebe bedc 253e b209 35bd 0535 b3bd
000003d0: fec1 663e 95ff 51be 84bd f2bd 9b69 dbbd
000003e0: e000 90bd 416b 9a3e f529 703d 0ab0 9b3e
000003f0: d0dd 1cbf 17f2 ac3e a0fc a63e 8726 97be

value_net.2.bias f4 [32]
0.07386278 0.039812747 0.11151394 -0.031215359 -0.14413577 0.08201016 -0.05186399 -0.06950071
0.19177707 0.19514626 0.055184215 0.040102772 0.029487466 -0.04483536 0.0519565 -0.13297457
-0.14384364 0.06400544 -0.07330855 0.032005344 -0.016065296 0.03126642 -0.009727619 -0.0051341313
-0.06797918 0.11124576 0.11130159 -0.12315793 0.08233736 0.01303727 -0.07006384 0.044547565
00000000: 5f45 973d b112 233d 6c61 e43d 5ab7 ffbc
00000010: 5498 13be f1f4 a73d 566f 54bd 6356 8ebd
00000020: 3561 443e 6cd4 473e d808 623d ce42 243d
00000030: b38f f13c 48a5 37bd 57d0 543d 7c2a 08be
00000040: bf4b 13be 4915 833d cb22 96bd 0918 033d
00000050: 5e9b 83bc 3811 003d 9760 1fbc 373c a8bb
00000060: ab38 8bbd d1d4 e33d 17f2 e33d 3a3a fcbd
00000070: 7da0 a83d 469a 553c a17d 8fbd 8277 363d

value_net.4.weight f4 [32, 32]
0.034403324 0.08748299 0.13607045 -0.08681919 -0.31969067 0.44329038 0.040285952 0.330495
-0.13905029 0.35822898 0.46077827 -0.076931 -0.4401826 -0.4512049 -0.3377801 -0.093847044
-0.18794894 -0.22423457 -0.59022087 -0.32238975 0.31610054 0.408836 -0.19265813 0.16654268
0.036474265 -0.1400293 -0.10383834 0.059913192 -0.26394957 0.2292805 0.022395048 0.1639368
-0.43804494 0.12416178 0.09440334 -0.21114667 0.2857814 0.14337455 0.27698487 -0.23584133
0.34019092 0.005526526 0.16228795 0.058357615 -0.0127979135 0.3312331 0.055507813 0.6175808
0.1294228 0.31537053 -0.036520094 -0.03985895 0.16969858 0.106220774 -0.030970335 0.16175374
0.276589 0.21828938 -0.6571217 0.046457328 -0.18352723 0.5472601 -0.06800796 -0.09233216
0.3471351 -0.043323524 0.110802546 0.29585674 0.06927098 -0.02124909 0.014685097 -0.12581855
0.27163672 0.41938913 0.19337761 -0.21646032 -0.037079494 0.45283678 -0.4201855 0.5671762
0.1853432 -0.18686992 0.048141308 -0.014267531 -0.30353892 -0.022034168 -0.21877046 0.113759264
0.28065637 -0.51068485 -0.1212506 0.14744179 -0.20123081 -0.4586669 -0.025760608 0.2185357
0.8523998 -0.17306803 0.12324474 -0.1032183 -0.2202418 0.07082201 0.03032239 -0.09730054
0.10482165 0.014375614 -0.06897755 0.257227 -0.091126636 0.22378427 0.13263325 0.08322993
0.14953083 -0.49977556 -0.5879631 -0.47703925 0.13135196 -0.06638998 -0.29484397 -0.4951922
0.34820074 0.39246923 -0.120873466 -0.05410213 0.12785079 -0.013366379 -0.17417115 0.44039333
-0.1499215 0.43377852 -0.48599216 -0.29262212 0.21099295 0.13981822 0.21629637 0.23152518
-0.32146814 -0.31983268 -0.57708436 -0.13463363 -0.09019354 0.40658066 0.6825324 0.31990245
0.44708234 -0.11428223 -0.04163958 -0.49255255 -0.12142804 -0.37875617 0.29672548 0.30398285
0.119607784 -0.5006574 -0.14261195 -0.0011758601 -0.16178386 0.21663597 0.42320034 0.02021136
-0.73757845 -0.22280292 0.035704236 -0.09345671 -0.21746191 -0.2607488 -0.29565912 0.12977597
-0.6700441 0.035001155 -0.11560312 0.030904273 -0.57418424 0.17643355 0.22389498 0.16978998
-0.044303507 -0.19366641 0.49938986 0.45388737 -0.093979046 -0.23894802 -0.14215201 -0.17539671
-0.11211572 -0.32302424 0.028800735 -0.35871255 0.379637 -0.034362085 -0.28836143 -0.22120367
0.1955475 -0.5953341 -0.12138862 0.036260284 -0.02929201 -0.19987844 -0.2633964 -0.1135694
-0.05932225 0.24702473 -0.039435014 0.026747838 0.1735734 -0.09437833 0.15508376 -0.4791996
0.17032455 0.40567723 -0.5448238 0.21377704 -0.26013967 0.21332884 -0.35139453 0.29469162
-0.095588066 -0.16551818 -0.30096486 -0.009917004 0.10656779 0.26395816 0.5055235 0.17435369
-0.34106037 0.17293036 0.1345783 -0.06803294 -0.13741226 0.05986134 0.5067662 -0.0976949
0.39221022 0.29343167 -0.058664035 0.4061302 0.25823915 -0.20017019 -0.2637211 -0.50525135
0.274222 -0.4217054 0.1090434 -0.40957525 -0.28427213 0.19386937 -0.53622156 0.107826464
0.10984567 0.1494478 -0.053398866 -0.24115805 0.058923498 -0.21628019 0.21657507 0.45418993
00000000: 80ea 0c3d 482a b33d 0d56 0b3e 42ce b1bd
00000010: 7fae a3be f5f6 e23e e202 253d a436 a93e
00000020: 3363 0ebe ca69 b73e 21eb eb3e 008e 9dbd
00000030: 9d5f e1be 5404 e7be 83f1 acbe e132 c0bd
00000040: b075 40be bf9d 65be b718 17bf 4510 a5be
00000050: eed7 a13e f452 d13e 2c48 45be 2a8a 2a3e
00000060: 0a66 153d d763 0fbe 32a9 d4bd 8967 753d
00000070: 6624 87be 82c8 6a3e d275 b73c 0cdf 273e
00000080: 6d47 e0be 8848 fe3d 8a56 c13d d536 58be
00000090: f151 923e c7d0 123e f6d0 8d3e 6480 71be
000000a0: 812d ae3e dc17 b53b d02e 263e 6508 6f3d
000000b0: 57ae 51bc 6397 a93e 295c 633d c619 1e3f
000000c0: 6987 043e 3f78 a13e 1896 15bd 2343 23bd
000000d0: 77c5 2d3e 478a d93d 80b5 fdbc c6a2 253e
000000e0: 139d 8d3e 4087 5f3e 2139 28bf 0a4a 3e3d
000000f0: 90ee 3bbe 3d19 0c3f c247 8bbd a518 bdbd
00000100: b1bb b13e 0274 31bd 72ec e23d 897a 973e
00000110: f2dd 8d3d 9212 aebc c399 703c 94d6 00be
00000120: f813 8b3e 2cba d63e c804 463e c6a7 5dbe
00000130: abe0 17bd 39da e73e 8e22 d7be 7632 113f
00000140: 9cca 3d3e d45a 3fbe d22f 453d 5dc2 69bc
00000150: 7469 9bbe 0081 b4bc 5d05 60be 9efa e83d
00000160: 31b2 8f3e 3ebc 02bf 3c52 f8bd fbfa 163e
00000170: 730f 4ebe 63d6 eabe e907 d3bc d3c7 5f3e
00000180: e036 5a3f bf38 31be bd67 fc3d 1e64 d3bd
00000190: 1187 61be 210b 913d a966 f83c 8145 c7bd
000001a0: bcac d63d b287 6b3c 1a44 8dbd 42b3 833e
000001b0: 9aa0 babd b427 653e 03d1 073e 7474 aa3d
000001c0: 9c1e 193e 95e2 ffbe c084 16bf 7d3e f4be
000001d0: 2181 063e 78f7 87bd caf5 96be d589 fdbe
000001e0: 5e47 b23e baf1 c83e 828c f7bd 329a 5dbd
000001f0: 51eb 023e a8fe 5abc ec59 32be 3c7b e13e
00000200: 0685 19be 3818 de3e f7d3 f8be 91d2 95be
00000210: 890e 583e 822c 0f3e cc7c 5d3e f014 6d3e
00000220: 7997 a4be 1cc1 a3be cdbb 13bf 66dd 09be
00000230: 64b7 b8bd 572b d03e 72ba 2e3f 41ca a33e
00000240: fae7 e43e cd0c eabd 448e 2abd d92f fcbe
00000250: 44af f8bd 54ec c1be 67ec 973e a4a3 9b3e
00000260: edf4 f43d 152b 00bf de08 12be 511f 9aba
00000270: abaa 25be d2d5 5d3e b7ad d83e 4b92 a53c
00000280: f1d1 3cbf 7326 64be 9b3e 123d 3b66 bfbd
00000290: 56ae 5ebe de80 85be a260 97be fee3 043e
000002a0: 0388 2bbf 5f5d 0f3d 54c1 ecbd f52a fd3c
000002b0: bdfd 12bf ffaa 343e ba44 653e 6ddd 2d3e
000002c0: 9877 35bd 7d50 46be 07b0 ff3e ed63 e83e
000002d0: 1678 c0bd caae 74be 4c90 11be 329b 33be
000002e0: ed9c e5bd 6f63 a5be 85ef eb3c 2ca9 b7be
000002f0: c85f c23e 42bf 0cbd 1ca4 93be 3783 62be
00000300: 9b3d 483e d167 18bf 999a f8bd aa85 143d
00000310: ccf5 efbc efac 4cbe e5db 86be 1397 e8bd
00000320: e3fb 72bd 0df4 7c3e 9c86 21bd 481e db3c
00000330: 3abd 313e 6d49 c1bd 47ce 1e3e a659 f5be
00000340: 8f69 2e3e edb4 cf3e 9379 0bbf 5ee8 5a3e
00000350: 0731 85be e072 5a3e fce9 b3be d2e1 963e
00000360: adc3 c3bd 997d 29be 1118 9abe ee7a 22bc
00000370: 3740 da3d 8625 873e fd69 013f c689 323e
00000380: 779f aebe a814 313e e5ce 093e db54 8bbd
00000390: cdb5 0cbe 2a31 753d 6ebb 013f 4414 c8bd
000003a0: c7cf c83e ad3c 963e b349 70bd 4cf0 cf3e
000003b0: ec37 843e 6af9 4cbe 7406 87be 2758 01bf
000003c0: d366 8c3e c5e9 d7be 2552 df3d d9b3 d1be
000003d0: 1e8c 91be b185 463e d145 09bf 1fd4 dc3d
000003e0: c4f6 e03d d808 193e c5b8 5abd 23f2 76be
000003f0: c459 713d 8e78 5dbe dbc5 5d3e 958b e83e

value_net.4.bias f4 [32]
0.05130971 -0.0732933 -0.019647064 0.024764128 -0.2678643 -0.05933745 0.07327413 0.07316542
-0.020813305 0.094419956 0.047126446 0.053917058 -0.123531066 -0.04117403 -0.050885778 0.22741286
0.01917311 -0.018521907 0.22723594 -0.03457195 0.047713205 0.09330919 -0.04548965 -0.027758129
-0.1641684 0.14947058 0.13351925 0.088932164 -0.1419382 0.0055998303 -0.008009278 -0.015486487
00000000: 212a 523d cc1a 96bd e1f2 a0bc 24de ca3c
00000010: 8225 89be d30b 73bd bf10 963d c0d7 953d
00000020: aa80 aabc 405f c13d a907 413d 22d8 5c3d
00000030: dbfd fcbd 1aa6 28bd 9b6d 50bd ebde 683e
00000040: ed10 9d3c 41bb 97bc 8ab0 683e 519b 0dbd
00000050: ec6e 433d e318 bf3d 5b53 3abd 0465 e3bc
00000060: c31b 28be d10e 193e 45b9 083e 1122 b63d
00000070: 3f58 11be c87e b73b 5939 03bc 09bb 7dbc

value_net.6.weight f4 [1, 32]
0.043898042 -0.08210784 -0.015380959 0.16617745 0.30205444 -0.12700534 -0.03502622 0.09429184
-0.21973608 -0.035125766 -0.027259598 -0.06656109 0.032482117 0.09732054 0.10313214 -0.46730223
-0.156349 0.08002209 -0.15314263 0.024018148 -0.045630563 -0.08691725 -0.004449117 -0.004049717
0.1252654 -0.35130915 -0.25830054 0.015030546 0.04712883 0.006317971 0.011845686 -0.032528535
00000000: 6fce 333d 2828 a8bd 6b00 7cbc 6c2a 2a3e
00000010: e1a6 9a3e b00d 02be a777 0fbd 151c c13d
00000020: 7f02 61be 09e0 0fbd 854f dfbc 2e51 88bd
00000030: f80b 053d fe4f c73d f236 d33d 3d42 efbe
00000040: f419 20be 9fe2 a33d 6cd1 1cbe b5c1 c43c
00000050: 1de7 3abd ac01 b2bd e6c9 91bb 7db3 84bb
00000060: 9345 003e cbde b3be f83f 84be ae42 763c
00000070: 290a 413d fb06 cf3b 6814 423c a43c 05bd
