MAPPO/Only_C/save/SY_2_T1/agent_28_OC_c.pt (torch, 127902 bytes, 15 tensors)

policy_net.0.weight f4 [32, 26]
0	0x3f098803	0.5372316
1	0xbdc2f2f7	-0.09518998
2	0xbe2665cc	-0.1624977
3	0xbef1bd2e	-0.47214645
4	0xbe00d1fc	-0.12580103
5	0x3d03b60d	0.03215604
6	0x3e7545e8	0.23952448
7	0x3e995269	0.29945686
8	0x3e4a1209	0.19733442
9	0x3d92bec0	0.07165289
10	0x3e23b640	0.15987492
11	0x3dea0058	0.11425847
12	0x3e85fd0c	0.26169622
13	0x3e5f0419	0.21778907
14	0xbe50221a	-0.20325509
15	0x3e3432df	0.17597531
16	0x3f2602be	0.64847934
17	0x3ec1467e	0.37749094
18	0x3e879740	0.26482582
19	0x3d2ea1e6	0.042634867
20	0x3f0b6c52	0.5446216
21	0xbdbf83a7	-0.093512826
22	0xbe6cb926	-0.23117504
23	0xb9ac2072	-0.0003283057
24	0xbda0420d	-0.07825098
25	0xbcc1742e	-0.02361497
26	0xbd9ba70b	-0.0760022
27	0x3ef8199f	0.48457047
28	0xbe20f566	-0.15718612
29	0xbbe5cd94	-0.007013032
30	0xbef05491	-0.4693952
31	0x3e847885	0.258732
32	0xbd92b446	-0.07163291
33	0x3c4ffa06	0.012693888
34	0x3edb93de	0.4288625
35	0x3b73ae86	0.0037182881
36	0xbe55829d	-0.20850606
37	0x3e2cfd57	0.16893516
38	0xbd1723ca	-0.036899365
39	0xbe168ac1	-0.14701368
40	0x3ed82950	0.4221902
41	0x3ed5f59b	0.41788945
42	0x3e612b35	0.21989138
43	0x3df10776	0.11769001
44	0x3dcdf04d	0.10055599
45	0xbe2dcf69	-0.16973652
46	0x3b8fb7d6	0.0043859286
47	0xbc7b33b3	-0.01533215
48	0x3d53d90d	0.051720668
49	0x3de60648	0.11231667
50	0xbe8fefa1	-0.2811251
51	0x3edf8c7e	0.43661875
52	0xbe776b2e	-0.2416198
53	0xbebd8fe8	-0.37023854
54	0xbe94318d	-0.28944054
55	0x3e4754b9	0.19465913
56	0x3ee8f449	0.45498875
57	0x3e9058da	0.28192788
58	0xbdf203ec	-0.11817154
59	0x3e87eeca	0.2654937
60	0xbe1e9c3c	-0.15489286
61	0xbe47af5f	-0.19500493
62	0xbf61aa5b	-0.88150567
63	0x3e3ab56e	0.18233272
64	0xbdc71721	-0.09721208
65	0x3e6acbe0	0.22929335
66	0xbd09f6a3	-0.033682477
67	0x3db95b6b	0.0905064
68	0xbe0ebfea	-0.13940397
69	0xbe1cc30b	-0.15308778
70	0x3e4b47dd	0.19851632
71	0xbea0c038	-0.3139665
72	0xbd5563d9	-0.052097175
73	0x3c8b15fc	0.016978256
74	0x3f309880	0.68982697
75	0xbe6d8ea3	-0.23198943
76	0xbe320188	-0.17383397
77	0xbe1aa129	-0.1510054
78	0xbdc62597	-0.096751384
79	0xbe94557a	-0.28971463
80	0x3e0590bc	0.13043493
81	0xbdca07e2	-0.09864785
82	0xbe0fc5ce	-0.140403
83	0xbe0a7954	-0.13522846
84	0xbe8384c5	-0.25687233
85	0x3eaab5e7	0.33341905
86	0x3de1dbd6	0.110282585
87	0x3ef4848d	0.47757378
88	0xbf7e739e	-0.9939517
89	0xbcf92706	-0.030414116
90	0xbe858e03	-0.2608491
91	0xbe322588	-0.1739713
92	0x3e86e914	0.263497
93	0x3e96fa42	0.29487807
94	0xbe4b792e	-0.19870445
95	0xbea98f4f	-0.33117148
96	0xbed06465	-0.40701595
97	0xbc56da16	-0.013113519
98	0xbd6e9c3f	-0.058254477
99	0xbc9ed16f	-0.019386975
100	0xbf19bf36	-0.6005739
101	0x3d872f1f	0.066007845
102	0xbebac1c8	-0.36475968
103	0x3b43f545	0.002990083
104	0x3d172f66	0.036910437
105	0xbe95e4da	-0.29276162
106	0xbcac1a21	-0.021008553
107	0xbefc592a	-0.49286777
108	0x3db06772	0.08613481
109	0x3edf845f	0.4365568
110	0x3f108b3a	0.5646244
111	0xbe558b31	-0.20853879
112	0xbc033935	-0.008009245
113	0x3e1303c2	0.14356902
114	0x3e443eec	0.19164628
115	0x3d4d3e47	0.05010822
116	0x3e2650a1	0.16241695
117	0x3cc03513	0.023462808
118	0x3e6674fa	0.2250556
119	0x3d5411a3	0.051774632
120	0xbe9bea2e	-0.30452102
121	0x3d87f685	0.06638817
122	0xbd1bd7c6	-0.038047574
123	0x3f162b9a	0.5866028
124	0x3dfccb64	0.12343481
125	0x3f22bbdc	0.635679
126	0xbdc7840d	-0.097419836
127	0x3e1145da	0.14186803
128	0x3dae442d	0.08509097
129	0xbda4367d	-0.08018205
130	0x3f063120	0.5241871
131	0x3e8b9d53	0.27268466
132	0xbe907f94	-0.28222334
133	0x3e048a11	0.12943293
134	0xbe1c5746	-0.15267667
135	0xbd647749	-0.05577782
136	0x3e88c0d3	0.26709613
137	0xbe27866a	-0.16359869
138	0x3e5526b4	0.20815545
139	0x3e93af2d	0.28844586
140	0xbe8b758e	-0.27238125
141	0x3e935745	0.2877752
142	0xbeeb6950	-0.45978785
143	0x3e1ee5bf	0.15517329
144	0xbe81e16d	-0.253673
145	0x3e1599ba	0.14609423
146	0xbe9863b2	-0.2976356
147	0x3e6df590	0.23238206
148	0xbe82bb88	-0.255337
149	0xbef239c9	-0.47309712
150	0xbc9e56fc	-0.019328587
151	0x3e721c55	0.2364362
152	0x3d6f7c28	0.058468014
153	0x3e8e0c6f	0.2774386
154	0x3e8b3388	0.27187753
155	0x3d4814f1	0.048848096
156	0xbe88e91a	-0.26740342
157	0x3e809d5d	0.2512006
158	0xbd8e8568	-0.06959039
159	0xbda853ca	-0.082191065
160	0x3e30519c	0.17218632
161	0x3da2545c	0.079262465
162	0xbebeb294	-0.3724562
163	0x3dc2f4c6	0.09519343
164	0x3e338dd8	0.17534578
165	0x3e3829d3	0.17984705
166	0xbe8e2541	-0.27762797
167	0xbd6408fc	-0.05567263
168	0xbedf39c7	-0.43598768
169	0xbdf92d4e	-0.12166844
170	0x3ebe2c50	0.37143183
171	0x3dce7367	0.10080605
172	0xbe4beb6f	-0.1991403
173	0x3f02abc0	0.5104332
174	0x3ee437c5	0.445738
175	0x3e91d2b6	0.28481072
176	0x3e7dba90	0.24778199
177	0x3d6bfe97	0.057615843
178	0x3e2c7a7b	0.16843598
179	0xbd1f4937	-0.038888182
180	0x3ea27f56	0.31737775
181	0x3dbd2a3c	0.09236571
182	0xbc489303	-0.012242082
183	0xbdf3ea5d	-0.119099356
184	0x3c25a4e2	0.010110112
185	0x3f123499	0.5711151
186	0x3da51142	0.08059932
187	0x3ed44cd1	0.41464856
188	0x3ec90a64	0.3926574
189	0x3e045309	0.129223
190	0xbef2cf4d	-0.47423783
191	0xbea0a8d7	-0.31378815
192	0xbd71bce2	-0.059018023
193	0xbd915864	-0.07096937
194	0xbea1a283	-0.315693
195	0xbd5c5003	-0.053787243
196	0x3bae0d66	0.005311656
197	0x3e613a8f	0.21994995
198	0xbdd5dd59	-0.10442609
199	0x3ec515f5	0.38493314
200	0xbe02c569	-0.12770618
201	0x3e95de70	0.2927127
202	0x3d718ea0	0.05897391
203	0xbe8d38c0	-0.2758236
204	0xbd43e2ea	-0.047823824
205	0x3e87bef7	0.26512882
206	0xbc8d4e19	-0.017249154
207	0xbec4e0bb	-0.38452706
208	0x3e2cda80	0.16880226
209	0xbf1c519a	-0.61062014
210	0x3e370cd3	0.17875986
211	0x3eea7712	0.45793968
212	0xbe21c264	-0.1579681
213	0xbeece2da	-0.46266824
214	0xbd1885b1	-0.037236873
215	0x3d559802	0.05214692
216	0xbf17cd9d	-0.59298116
217	0xbe8ff696	-0.28117818
218	0xbe48a603	-0.19594578
219	0x3e5ec8b2	0.21756247
220	0x3d9caec9	0.07650525
221	0xbeaf727d	-0.34267035
222	0x3f0b5e5f	0.54440874
223	0xbe5a2c6b	-0.21306007
224	0xbdba8932	-0.09108199
225	0x3ea2f61a	0.31828386
226	0xbd8498e0	-0.06474471
227	0xbd6dfff4	-0.058105424
228	0x3d673e82	0.056456096
229	0x3e446f13	0.19182996
230	0x3dfa957a	0.12235542
231	0xbd930682	-0.07178976
232	0xbb093c9a	-0.0020940662
233	0x3f15ae38	0.5846896
234	0xbeff56e7	-0.4987099
235	0xbe86531a	-0.26235276
236	0x3e7b4e27	0.24541532
237	0x3e092fc1	0.13397123
238	0xbe6fae2e	-0.23406288
239	0x3c91256c	0.01771804
240	0x3e965da8	0.2936833
241	0x3e9251cf	0.2857804
242	0x3e3ff71e	0.18746611
243	0xbe49e561	-0.19716407
244	0xbe367bd8	-0.1782068
245	0xbe4fa817	-0.20278965
246	0xbe0209ef	-0.12699102
247	0x3f2809b7	0.65639824
248	0x3dd8418a	0.105593756
249	0x3d854eb0	0.06509149
250	0x3df4c7d7	0.11952179
251	0xbddaff04	-0.106931716
252	0x3dc0f252	0.09421219
253	0xbe2433b4	-0.16035348
254	0x3e300260	0.17188406
255	0x3d86b884	0.06578162

policy_net.0.bias f4 [32]
0	0x3d993e47	0.074825816
1	0x3e22d4ea	0.15901533
2	0xbd9744b8	-0.07386154
3	0xbe0bf606	-0.13668069
4	0x3dcbaaac	0.099446625
5	0x3d2d923b	0.042375784
6	0xbd6f1b7e	-0.058375828
7	0xbcca2392	-0.024675164
8	0xbe4a4a9e	-0.19755027
9	0xbe037a3c	-0.12839597
10	0xbe27edc0	-0.16399288
11	0xbe036adf	-0.12833737
12	0x3dd7ee4c	0.105434984
13	0x3ddb5e09	0.10711295
14	0xbdef2bd4	-0.116782814
15	0x3e5571fa	0.2084426
16	0x3d83a5a7	0.0642808
17	0xbdacc29f	-0.084355585
18	0xbd065f6a	-0.032805838
19	0xbd2bb44b	-0.041919988
20	0x3da90527	0.08252936
21	0xbcbc3c1d	-0.022977883
22	0xbdbf9f93	-0.09356608
23	0x3e335aef	0.17515157
24	0x3dea4127	0.11438208
25	0x3db47f7d	0.08813379
26	0x3b085fb5	0.0020809
27	0x3e300e2b	0.17192905
28	0xbe387df4	-0.18016797
29	0xbd172574	-0.036900952
30	0xbeb14040	-0.3461933
31	0xbcefb87a	-0.02926277

policy_net.2.weight f4 [32, 32]
0	0x3b152dde	0.0022762935
1	0x3d602b43	0.054728758
2	0xbe427b3f	-0.18992327
3	0x3f14a37a	0.58061945
4	0xbea19e71	-0.31566194
5	0x3f2a39b7	0.66494316
6	0xbdecf3bb	-0.115699254
7	0xbea68554	-0.32523596
8	0xbe3f4c9d	-0.1868157
9	0xbe27a9f0	-0.1637342
10	0x3df8dc9a	0.121514514
11	0xbe12ab5b	-0.1432318
12	0xbd4703b7	-0.048587527
13	0x3ea9b83a	0.33148366
14	0xbeb95992	-0.3620115
15	0x3e0a66ad	0.1351573
16	0x3ea4386e	0.32074302
17	0x3e9b1dc8	0.3029616
18	0xbbae9681	-0.005328
19	0xbd6b93e0	-0.05751407
20	0xbe486107	-0.19568263
21	0xbdae7c7b	-0.085198365
22	0x3e1e81b7	0.1547917
23	0x3f539863	0.826544
24	0x3edc4618	0.43022227
25	0x3e786040	0.24255466
26	0xbe6e53bf	-0.23274134
27	0x3eb6b38a	0.35683852
28	0xbeb68734	-0.35650027
29	0x3e7f2a83	0.2491856
30	0xbcf5ccc2	-0.030004863
31	0xbe279840	-0.16366673
32	0x3e51cedc	0.20489067
33	0xbea655e7	-0.32487413
34	0x3de61456	0.112343475
35	0x3ebbc82f	0.36676165
36	0x3e615cf6	0.22008118
37	0x3ea7c40e	0.32766765
38	0xbe00c647	-0.12575637
39	0xbdc4873b	-0.09596106
40	0x3e3c8c43	0.1841288
41	0x3dd9a0fe	0.1062641
42	0xbe99f0ec	-0.3006662
43	0x3eba1044	0.36340535
44	0xbdb1584a	-0.08659418
45	0x3cdddd49	0.027083056
46	0x3e25ee75	0.16204245
47	0x3e12b563	0.14327006
48	0xbf41d340	-0.75712967
49	0x3def7f62	0.11694218
50	0xbe4a3a70	-0.19748855
51	0xbe6d0669	-0.23146977
52	0x3ee786df	0.45220086
53	0x3eb548b0	0.3540702
54	0x3f0d3f99	0.5517517
55	0xbe16c396	-0.14723048
56	0xbdbf7898	-0.09349173
57	0xbe279c3e	-0.16368195
58	0x3e6ea732	0.23305967
59	0xbe45c283	-0.19312482
60	0x3ec38efd	0.3819503
61	0x3e990b16	0.2989127
62	0xbe894da3	-0.26817045
63	0x3dbceee5	0.09225253
64	0xbeab3e4d	-0.3344597
65	0xbeb379dd	-0.35053912
66	0x3ecd2b3d	0.4007205
67	0xbc4f4b7a	-0.012652272
68	0xbed1c9bd	-0.40974227
69	0xbd69d916	-0.057091795
70	0xbe0ccbc0	-0.137496
71	0x3dd59f50	0.10430777
72	0x3de2c917	0.11073511
73	0xbc912b7d	-0.017720932
74	0x3d0944d0	0.03351289
75	0x3e160bdd	0.14652963
76	0x3de49f6d	0.111632206
77	0xbe25a577	-0.16176401
78	0xbe11ed0a	-0.1425058
79	0xbef99bbd	-0.4875163
80	0xbed2bf89	-0.41161755
81	0xbe774a08	-0.24149334
82	0xbe0f930c	-0.14020938
83	0x3e092b95	0.13395531
84	0x3e420c46	0.18949994
85	0x3e17e3b5	0.14832957
86	0x3e4c6ffe	0.19964597
87	0xbf020c63	-0.5080015
88	0x3e9b83cf	0.30374
89	0x3dbd3ef0	0.0924052
90	0xbd992113	-0.074770115
91	0xbf36786f	-0.7127752
92	0xbe1d1940	-0.15341663
93	0x3ea2d074	0.31799662
94	0xbec2cfc0	-0.38049126
95	0xbec6471d	-0.3872613
96	0xbdf50605	-0.11964039
97	0xbc83a5f3	-0.016070342
98	0xbec7e36a	-0.3904069
99	0x3e2e4de5	0.17021902
100	0xbe559307	-0.20856868
101	0x3d8a6343	0.06757214
102	0x3dfbbcc1	0.12291861
103	0xbf196d03	-0.59931964
104	0x3e289e0f	0.16466545
105	0x3e243d80	0.16039085
106	0xbf2e7f5f	-0.681631
107	0x3d9c3a66	0.07628326
108	0x3ebe353c	0.3714999
109	0xbe2217b5	-0.15829356
110	0xbe902025	-0.28149524
111	0xbeba96f1	-0.36443284
112	0xbe256938	-0.16153419
113	0x3e58a988	0.21158421
114	0x3dfaa580	0.12238598
115	0xbd4004f9	-0.046879742
116	0x3d48ae3f	0.0489943
117	0xbe5e05d3	-0.2168191
118	0xbf048f1d	-0.51780874
119	0x3d7d3ecd	0.06182747
120	0x3e4ec0b8	0.20190704
121	0x3e277262	0.16352227
122	0xbda5e93f	-0.08101129
123	0x3e62c3f6	0.22145066
124	0xbe27c436	-0.16383442
125	0xbdf26f8f	-0.11837684
126	0x3d91dbf1	0.071220286
127	0x3c8e8b0d	0.017400289
128	0xbe2ffdd6	-0.17186674
129	0xbeca632d	-0.3952879
130	0x3ea2efdf	0.31823632
131	0xbef7ab80	-0.48373032
132	0xbd6f1dfa	-0.058378197
133	0x3f086e8d	0.5329369
134	0x3ebd66ee	0.36992592
135	0x3f04afc7	0.51830715
136	0x3bfa1899	0.007632327
137	0x3dda7ed2	0.1066872
138	0xbe6b759c	-0.22994083
139	0x3e89e30c	0.26931036
140	0xbe477059	-0.19476451
141	0x3e66af0c	0.22527713
142	0x3e00468a	0.12526909
143	0x3d8a8e66	0.067654416
144	0xbcfecebc	-0.031104438
145	0xbeee710e	-0.4657063
146	0x3eb7d882	0.3590737
147	0x3e99cc4b	0.30038676
148	0x3ee7e6f9	0.45293406
149	0x3e33cde1	0.17559005
150	0xbe6436db	-0.2228655
151	0xbdb580f9	-0.0886249
152	0x3d95e389	0.073187895
153	0xbe63b8df	-0.22238491
154	0x3e0782f8	0.13233554
155	0x3ecf072e	0.40435165
156	0x3c74c09a	0.014938498
157	0x3ecfbb34	0.40572512
158	0xbd43c7e7	-0.047798064
159	0xbde0fd7c	-0.10985848
160	0xbe01be0f	-0.12670158
161	0xbddba657	-0.10725086
162	0x3e612f29	0.21990646
163	0xbf56da6d	-0.8392704
164	0xbdcb1565	-0.0991619
165	0x3edb8b01	0.4287949
166	0xbe9f80a1	-0.31152824
167	0x3d99bade	0.07506345
168	0xbdc3ada9	-0.095546074
169	0x3d8ae0da	0.06781168
170	0x3e8e93a8	0.27847028
171	0x3e8a4fe2	0.2701407
172	0x3eb6ba5a	0.3568905
173	0x3e97b176	0.2962758
174	0xbd94049a	-0.0722744
175	0xbe3bf66a	-0.18355718
176	0xbf1ebe79	-0.6200939
177	0x3e919c55	0.28439584
178	0x3e5a4a2d	0.21317358
179	0xbebd09f8	-0.36921668
180	0xbe5dc62a	-0.21657625
181	0x3e80226b	0.2502626
182	0x3e0b3c29	0.13597168
183	0xbe1e532f	-0.1546142
184	0xbdaf0661	-0.085461386
185	0xbe888d32	-0.26670223
186	0xbe7b7103	-0.2455483
187	0x3dc795f6	0.097454
188	0x3c267ecb	0.010162066
189	0x3de2f680	0.110821724
190	0x3bd8b275	0.0066130706
191	0x3dcb754b	0.09934481
192	0xbe39af42	-0.18133262
193	0x3e06cb88	0.13163579
194	0x3f136b1c	0.5758531
195	0xbd80fb44	-0.06297925
196	0x3ecdae80	0.40172195
197	0x3dbfb0bf	0.093598835
198	0x3eef0347	0.46682188
199	0xbeac7253	-0.33680972
200	0x3d98313a	0.07431264
201	0xbea9c1bb	-0.33155617
202	0x3e6bce78	0.2302798
203	0x3ddc4d46	0.10756926
204	0x3f194315	0.59867984
205	0x3e4f3a46	0.20237073
206	0x3ebca9d2	0.36848313
207	0x3e8dbdcc	0.27683866
208	0xbddb6d21	-0.10714174
209	0x3e64ca13	0.2234271
210	0xbd86b0c3	-0.06576683
211	0x3f375b2d	0.716235
212	0xbe61c61a	-0.22048226
213	0x3d74d2e3	0.05977143
214	0x3db751d3	0.089511536
215	0xbed0a7c5	-0.40752998
216	0x3ed90ed2	0.4239412
217	0x3e756dd5	0.23967679
218	0x3f23fbfe	0.64056385
219	0x3dc4555b	0.09586593
220	0x3eefd830	0.46844625
221	0x3bbb8ea7	0.0057237926
222	0xbe1b3860	-0.15158224
223	0xbe530122	-0.20605901
224	0x3e09cf49	0.1345798
225	0xbd322bf2	-0.04349894
226	0x3e669160	0.22516394
227	0xbeb07130	-0.34461355
228	0x3eca943d	0.39566222
229	0xbc8bf872	-0.017086241
230	0xbeed0845	-0.46295372
231	0x3eb9642e	0.36209244
232	0x3e1a895a	0.15091458
233	0xbed4b5eb	-0.41545042
234	0xbf1c7d5d	-0.6112879
235	0xbe698f57	-0.22808586
236	0x3dd47f3c	0.103758305
237	0x3ede098f	0.43366668
238	0xbef2f585	-0.47452942
239	0x3eecd321	0.4625483
240	0xbe00301e	-0.12518355
241	0x3c783d6e	0.015151365
242	0x3e8516da	0.25993997
243	0x3ed8c5ae	0.42338318
244	0xbe7ea5ff	-0.2486801
245	0xbde23dee	-0.110469684
246	0xbd456546	-0.048192285
247	0xbe6e513d	-0.23273177
248	0x3e89ba76	0.2690007
249	0xbe3afb70	-0.18259978
250	0x3e04feeb	0.12987868
251	0x3e59d7bd	0.21273704
252	0xbf2a3b7e	-0.6649703
253	0x3ecb3ac8	0.39693284
254	0xbea9d11a	-0.33167344
255	0x3e947bb6	0.29000634

policy_net.2.bias f4 [32]
0	0x3a9f3c5e	0.0012148728
1	0x3c38d7c9	0.011281916
2	0xbd64aeec	-0.05583088
3	0x3d415c26	0.04720702
4	0x3d764cc6	0.06013181
5	0xbc9bfc2e	-0.019041147
6	0xbdaa3531	-0.08310927
7	0xbd631b36	-0.055445872
8	0x3d33d96f	0.043908533
9	0xbc26b60b	-0.010175238
10	0x3b312feb	0.0027036618
11	0xbbbdb5ce	-0.005789495
12	0x3d4785b0	0.04871148
13	0xbdd38026	-0.10327177
14	0xbd99f6ad	-0.07517753
15	0xbd4c4f97	-0.04988059
16	0xbd8f86ad	-0.07008109
17	0xbe0523ca	-0.13001934
18	0x3d939f3c	0.07208106
19	0x3cfb13b2	0.03064904
20	0x3cc20025	0.02368171
21	0xbcbace44	-0.022803433
22	0xbc81af94	-0.015830792
23	0xbd83d130	-0.06436384
24	0x3d718fc9	0.058975015
25	0x3d31b956	0.04338964
26	0xbc310942	-0.01080543
27	0x3b832994	0.0040027592
28	0x3d9a4f56	0.075346634
29	0x3d45fd3e	0.048337214
30	0xbcba8be1	-0.022771778
31	0x3d4435cd	0.04790287

policy_net.4.weight f4 [32, 32]
0	0x3f2c46e1	0.6729565
1	0xbefcf3e2	-0.49404818
2	0xbe8c64b8	-0.27420592
3	0x3e4d1f48	0.20031464
4	0x3f200aa4	0.62516236
5	0xbe8a6f03	-0.2703782
6	0x3e991dd3	0.29905567
7	0x3edee569	0.435344
8	0x3e72d614	0.23714477
9	0xbebfa26c	-0.37428606
10	0xbe6e2f91	-0.23260333
11	0x3f12ae6b	0.5729739
12	0x3d8f4ff8	0.06997675
13	0x3d7b6de9	0.061384115
14	0xbcf2acf5	-0.029623488
15	0x3e72283d	0.23648162
16	0xbdd6872f	-0.10475003
17	0xbec2f771	-0.38079408
18	0x3db1e73a	0.08686681
19	0xbc57d656	-0.01317366
20	0x3eed4c98	0.463475
21	0xbd1a502d	-0.037674118
22	0x3d62413c	0.055237994
23	0xbee671f7	-0.45008823
24	0xbdacce5a	-0.08437796
25	0xbd1dacf4	-0.03849502
26	0xbe77b2b3	-0.24189262
27	0x3c5beab8	0.0134226605
28	0x3db8048e	0.08985244
29	0xbe91ac37	-0.28451702
30	0xbeb90363	-0.36135396
31	0x3eb27840	0.34857368
32	0x3e2c466b	0.16823737
33	0xbf021f66	-0.5082916
34	0x3ed0bc03	0.40768442
35	0xbe227598	-0.15865171
36	0xbea55bde	-0.32296652
37	0x3e84f46c	0.2596773
38	0x3eb158dd	0.3463811
39	0x3e88ec7b	0.2674292
40	0xbec9b6da	-0.39397317
41	0x3eb6244d	0.3557457
42	0x3da792b1	0.08182276
43	0x3ea4dd62	0.32200152
44	0x3d6ce49e	0.057835214
45	0x3d138fed	0.03602593
46	0x3ec7656b	0.38944563
47	0x3ea7ce1e	0.32774442
48	0x3e9f9da8	0.3117497
49	0x3eccff79	0.4003866
50	0xbe1aec61	-0.15129234
51	0xbaee2e23	-0.0018171709
52	0xbf03492a	-0.51283514
53	0xbdb74739	-0.089491315
54	0xbe15f0d6	-0.14642653
55	0x3e774030	0.2414558
56	0x3eb8eff9	0.36120585
57	0xbda7efd9	-0.08200044
58	0xbd748346	-0.059695505
59	0xbf0a8ae6	-0.5411819
60	0xbea06468	-0.31326604
61	0x3d8bc78f	0.06825172
62	0x3f6c97a2	0.92418873
63	0x3e9b1beb	0.30294737
64	0x3e43dbb2	0.19126776
65	0x3e0cb55b	0.13741057
66	0xbe1d7712	-0.15377453
67	0x3ec74605	0.38920608
68	0x3f1d002b	0.6132838
69	0x3f1a1afb	0.6019742
70	0xbe8f4dd1	-0.27989057
71	0x3ef923c5	0.48660102
72	0xbdf8c2a9	-0.121465035
73	0xbd6b16bc	-0.057394728
74	0x3ee228e5	0.44171825
75	0x3c4d558a	0.012532601
76	0x3f2a268c	0.6646507
77	0xbf0473d3	-0.51739234
78	0xbf17ef42	-0.59349453
79	0x3e8568a7	0.26056406
80	0x3ebec157	0.37256882
81	0x3e8d2279	0.27565363
82	0xbe09aaa9	-0.13444008
83	0x3e20ee23	0.15715842
84	0x3e0c0533	0.13673858
85	0x3d11e6e0	0.03562057
86	0x3dc399e0	0.09550834
87	0xbea9d96d	-0.33173695
88	0x3e3cdf2f	0.18444513
89	0xbef8e660	-0.48613262
90	0xbe50571d	-0.20345731
91	0x3ed7e391	0.42165807
92	0x3e62697d	0.22110553
93	0x3ea98ab4	0.33113635
94	0xbe161c64	-0.14659268
95	0x3f4ef91f	0.8084888
96	0xbe8af227	-0.27137873
97	0xbe43743f	-0.19087313
98	0x3e2d3c9a	0.16917649
99	0xbe093aa1	-0.13401271
100	0xbf04c12a	-0.51857245
101	0xbf3496c3	-0.70542544
102	0xbe9db0ae	-0.30798858
103	0xbea0fa8d	-0.31441155
104	0x3de39eca	0.11114271
105	0x3e8bc52b	0.27298865
106	0xbf1d50fa	-0.61451685
107	0xbea152f5	-0.31508604
108	0xbf53e13f	-0.82765573
109	0x3df38671	0.11890877
110	0x3e0fface	0.14060518
111	0x3f2b3540	0.6687813
112	0xbec5c11f	-0.38623902
113	0xbe868816	-0.262757
114	0xbdefc3fc	-0.11707303
115	0xbd228cd4	-0.039685085
116	0xbe89bdf1	-0.26902726
117	0xbf1d2bad	-0.6139477
118	0xbf011268	-0.5041871
119	0x3e5d7dd9	0.21630038
120	0xbdfb2223	-0.122623704
121	0xbdfc5df8	-0.123226106
122	0xbdeca6a2	-0.1155522
123	0x3e6256ef	0.22103475
124	0x3d7b7104	0.061387077
125	0x3e8fce52	0.28087097
126	0xbb8ed1ef	-0.004358522
127	0xbf127d37	-0.5722231
128	0x3e4621d0	0.19348836
129	0xbd204e8a	-0.0391374
130	0x3c8ad2c6	0.016946208
131	0x3e48a5b4	0.1959446
132	0xbda3aaa1	-0.07991529
133	0xbebe2bfd	-0.37142935
134	0xbe460f35	-0.19341739
135	0xbeb4b2ad	-0.3529257
136	0x3ed192d6	0.4093234
137	0xbf00131d	-0.50029165
138	0xbc524c8a	-0.012835631
139	0x3f0cf67f	0.55063623
140	0x3e7b5e89	0.24547781
141	0xbe8582b1	-0.26076272
142	0xbabc7a82	-0.0014379772
143	0xbd8da3ac	-0.069159836
144	0x3e2a0ea9	0.16607155
145	0xbc8804b9	-0.016603814
146	0x3e0b43a6	0.13600025
147	0x3ea75c23	0.32687482
148	0x3edb3180	0.42811203
149	0x3e5e8e1e	0.21733901
150	0xbd5ba27f	-0.053621765
151	0xbeefb1b0	-0.46815252
152	0xbe62d336	-0.22150883
153	0x3f27156e	0.65267074
154	0xbe95f4b4	-0.29288256
155	0x3f89cd95	1.0765864
156	0x3f00f412	0.5037242
157	0x3eb0d6af	0.3453879
158	0xbddfeb75	-0.10933582
159	0xbcd88b9b	-0.026433757
160	0xbc916192	-0.01774672
161	0xbf2d2d55	-0.67647296
162	0xbe3ee719	-0.18642844
163	0xbefde242	-0.49586684
164	0x3de64f72	0.11245622
165	0x3dd01647	0.10160499
166	0xbef3af51	-0.47594693
167	0xbe6824ef	-0.22670339
168	0x3d118e42	0.03553606
169	0xbf1a8987	-0.603661
170	0xbe25185a	-0.1612257
171	0xbc459e11	-0.012061612
172	0x3e25f44a	0.1620647
173	0xbeb92b31	-0.36165765
174	0xbd47b337	-0.048754897
175	0xbec5e4ff	-0.38651273
176	0xbe8f1f5f	-0.27953622
177	0x3d4d4235	0.050111968
178	0x3e7dc344	0.24781519
179	0x3f196875	0.59925014
180	0x3f4d6499	0.80231625
181	0xbe331479	-0.17488278
182	0x3b953df7	0.004554506
183	0xbdf3a278	-0.11896223
184	0xbe918551	-0.28422025
185	0xbe18c9d7	-0.14920746
186	0xbe614670	-0.21999526
187	0x3f161d43	0.586384
188	0x3ece6d7d	0.40317908
189	0xbd7981b7	-0.06091472
190	0xbeb7d4cc	-0.3590454
191	0xbe031c2a	-0.12803712
192	0x3e1a4e31	0.1506889
193	0xbe9d91dc	-0.30775344
194	0xbf1e8f23	-0.6193716
195	0x3e859a17	0.26094124
196	0xbe8c1abd	-0.2736415
197	0x3de3fc4d	0.11132107
198	0xbf2a50be	-0.6652945
199	0x3cc55b41	0.024091365
200	0x3edf948d	0.43668023
201	0xbf62e650	-0.8863268
202	0xbd958d1d	-0.07302306
203	0x3e967f54	0.2939402
204	0xbdd1757c	-0.102274865
205	0x3d1f363c	0.03887008
206	0x3e50591d	0.20346494
207	0x3d5137d4	0.051078632
208	0xbe87626e	-0.26442283
209	0xbe5b13ec	-0.21394318
210	0x3ddff4d5	0.1093537
211	0x3e0290fd	0.12750621
212	0x3d18f756	0.037345253
213	0x3dfdd159	0.123934455
214	0x3ea3ecfc	0.32016742
215	0xbda97208	-0.08273703
216	0xbeb5599a	-0.35419923
217	0xbd3daf60	-0.04630983
218	0x3e2c5d43	0.16832452
219	0x3f5ab900	0.8543854
220	0xbe6cd341	-0.23127462
221	0xbdfed0a6	-0.1244214
222	0xbdd65251	-0.10464919
223	0xbd4cccc4	-0.049999967
224	0xbd7b3d83	-0.06133796
225	0xbe393600	-0.18087006
226	0xbe018a20	-0.12650347
227	0xbf078660	-0.52939415
228	0xbe6148bb	-0.220004
229	0xbe62f840	-0.22165012
230	0xbe780bf3	-0.24223308
231	0x3f08626a	0.5327517
232	0x3ed39848	0.4132712
233	0xbf364f54	-0.71214795
234	0x3dcd12ca	0.10013349
235	0x3d426b61	0.047465686
236	0x3dfdf64a	0.124004915
237	0x3e008fe0	0.12554884
238	0xbea45fb5	-0.3210427
239	0xbc749327	-0.014927662
240	0x3d17912f	0.037003692
241	0xbe640844	-0.22268778
242	0x3cc98ba9	0.024602728
243	0x3f0c15f5	0.54721004
244	0x3e64baa7	0.22336827
245	0x3e015978	0.12631786
246	0x3e1ed21f	0.15509842
247	0x3e6e4b36	0.23270878
248	0xbdd5b8e3	-0.10435655
249	0x3ea70ebc	0.3262843
250	0xbea9b149	-0.3314307
251	0x3f995e22	1.1981852
252	0x3cf7012e	0.03015193
253	0xbe79c3dc	-0.2439112
254	0xbf4dc8ad	-0.8038433
255	0x3c64788b	0.013944755

policy_net.4.bias f4 [32]
0	0xbe42b84c	-0.19015616
1	0xbc90148e	-0.017587926
2	0xbded4c32	-0.11586799
3	0x3e2f0d6d	0.17094965
4	0xbda7be95	-0.081906475
5	0xba90240d	-0.0010997072
6	0x3c3c3d89	0.0114892805
7	0xbd89b7ae	-0.06724487
8	0xbd8f3f3c	-0.06994483
9	0xbd896f05	-0.067106284
10	0xbd4c9be2	-0.04995335
11	0xbde87526	-0.11350469
12	0xbea54034	-0.32275546
13	0x3e6f3023	0.23358206
14	0xbca1c5a3	-0.01974756
15	0xbbd86644	-0.006603988
16	0xbd2d3f50	-0.042296708
17	0xbe05bc41	-0.13060094
18	0xbc378a14	-0.011202354
19	0xbd6628fd	-0.056191433
20	0x3dd286e7	0.10279637
21	0x3e2dd8ff	0.16977309
22	0x3dd6278c	0.10456762
23	0xbcb417ad	-0.021983946
24	0x3dda5c46	0.10662131
25	0xbc3c6357	-0.011498294
26	0xbd505e8f	-0.050871428
27	0x3dd021d1	0.101627
28	0x3d78a124	0.06070055
29	0x3e75b069	0.23993076
30	0x3e50160f	0.20320915
31	0x3ca58b9c	0.020208173

policy_net.6.weight f4 [21, 32]
0	0xbee6b17f	-0.45057294
1	0x3f07d7d5	0.5306371
2	0xbec95097	-0.39319298
3	0x3ec51b85	0.38497558
4	0xbf30e1a7	-0.6909432
5	0xbf1c67eb	-0.61096066
6	0xbf17b9b2	-0.59267724
7	0xbf319949	-0.6937452
8	0xbe09b34e	-0.13447306
9	0xbec1c0cf	-0.37842414
10	0xbd6e3a5d	-0.05816113
11	0xbebfc0b6	-0.37451714
12	0xbf00cbe7	-0.5031113
13	0x3eeda74b	0.46416697
14	0xbeb1eaf0	-0.34749556
15	0xbf277525	-0.65413123
16	0xbec41fd2	-0.38305527
17	0xbdbd45e6	-0.09241848
18	0x3f21d34e	0.6321305
19	0xbed3507f	-0.4127235
20	0x3ebff16f	0.37488887
21	0x3e971323	0.29506788
22	0x3ec5d6ff	0.38640592
23	0x3ec270a1	0.37976554
24	0x3eb1337d	0.34609595
25	0xbf01e4aa	-0.5073954
26	0xbebfb440	-0.37442207
27	0x3f288329	0.65825135
28	0x3e918bec	0.28427064
29	0x3ef1c394	0.47219527
30	0x3ec18d3f	0.37803075
31	0x3f15629f	0.5835361
32	0x3993cc96	0.00028190453
33	0x3b394bbd	0.0028273903
34	0xba83e8d6	-0.0010063897
35	0x3a2389a6	0.0006238468
36	0x3ab553be	0.0013834161
37	0x3a6efb78	0.0009116451
38	0x3a7aa7f9	0.0009561773
39	0xbb3e09fc	-0.002899765
40	0x3a00fabd	0.00049201754
41	0xb9f267c6	-0.00046235154
42	0x3aa77813	0.0012776874
43	0x3b4bc92d	0.0031095252
44	0x3b07bd3d	0.002071216
45	0xbb16e805	-0.0023026478
46	0xba8f4d4b	-0.0010933069
47	0x39975709	0.0002886581
48	0xbb503c45	-0.0031774205
49	0xbb133a6d	-0.0022465244
50	0xb94fd5b3	-0.00019820668
51	0xbabe3742	-0.0014512318
52	0xbb1baa98	-0.0023752805
53	0x3879d009	5.9559974e-05
54	0xba564735	-0.0008174063
55	0x3a3d81e9	0.0007229136
56	0x3a80019f	0.0009766108
57	0xb88765a1	-6.4562315e-05
58	0x3b2e8aea	0.0026633092
59	0xbaf4fb5c	-0.0018690634
60	0x3b7466ef	0.0037292799
61	0x3b05a252	0.002039094
62	0xba722c94	-0.000923821
63	0x3a91fa2b	0.0011137178
64	0x3a89f4d0	0.001052523
65	0x3ab07e07	0.0013465293
66	0xbab4a1fd	-0.0013781186
67	0xbb0ee407	-0.0021803395
68	0xb92c7ee1	-0.00016450464
69	0x38143c22	3.5341953e-05
70	0xba440857	-0.00074780494
71	0x3b942ca7	0.0045219245
72	0x3b267893	0.0025401458
73	0xba3e5369	-0.0007260354
74	0xbb574ec6	-0.003285335
75	0x3ac1b845	0.0014779648
76	0x3b7ee4f9	0.0038893803
77	0x3a97b9e4	0.0011575785
78	0x3a15fb98	0.00057213893
79	0xba94632f	-0.0011321063
80	0x3a92a564	0.0011188206
81	0xba2007fd	-0.0006104706
82	0xba824451	-0.0009938573
83	0xba8e6f7a	-0.0010866963
84	0x3b2c4482	0.002628595
85	0xba6f0a6b	-0.0009118679
86	0x3af06002	0.001833916
87	0xb9fe18aa	-0.0004846503
88	0x3a2035ee	0.0006111552
89	0x398e946f	0.00027194942
90	0x3a864676	0.0010244388
91	0xbb5da577	-0.0033820549
92	0x398c8a93	0.00026806127
93	0xba05402c	-0.000508311
94	0xbab0b9f8	-0.0013483157
95	0x3a8c089e	0.001068372
96	0xbacffb57	-0.0015867752
97	0xba513f5c	-0.00079821586
98	0x3b33c450	0.0027430244
99	0x3a898638	0.0010492271
100	0x3ac345f8	0.0014898172
101	0x3b298ac6	0.002587007
102	0xb8d419ca	-0.00010113751
103	0x3b4163e9	0.0029509014
104	0x3a046f81	0.0005052016
105	0x39d626a4	0.0004084605
106	0xba82d4ec	-0.0009981669
107	0x3a8d46a9	0.0010778505
108	0xb95fa500	-0.00021328405
109	0x3aa60184	0.0012665247
110	0xbaa30f09	-0.0012440394
111	0xba141df0	-0.0005650213
112	0xbb585699	-0.00330106
113	0x3b2dec3c	0.0026538512
114	0xbb48bff0	-0.0030631982
115	0xba93e06a	-0.001128209
116	0xbae3812c	-0.0017357222
117	0x39b4c006	0.00034475344
118	0xb9d4df6e	-0.0004060226
119	0x3b90e55a	0.004421872
120	0xbad6bb0b	-0.0016382647
121	0xb91068c0	-0.00013771933
122	0xbb403c10	-0.0029332675
123	0xba21c43c	-0.0006170904
124	0x39d5beb9	0.00040768625
125	0x3a05367f	0.0005081668
126	0x3a190bbb	0.0005838235
127	0x3a4a2906	0.00077118014
128	0xbb0198ac	-0.0019774837
129	0x39ea7b82	0.00044723978
130	0xba002dfa	-0.00048896635
131	0xba03d4aa	-0.0005028943
132	0x3971ff8e	0.00023078753
133	0x3a243e42	0.00062653807
134	0x3aeb5434	0.0017954172
135	0xba17d1bb	-0.0005791445
136	0xbb2574d2	-0.0025246632
137	0x3a978af9	0.0011561803
138	0x3a82a61f	0.0009967721
139	0xba892fe7	-0.0010466547
140	0x3a0c98d8	0.00053633517
141	0xbaff978f	-0.0019500124
142	0x3ab178d7	0.0013540041
143	0xba820f52	-0.0009922779
144	0x3847e020	4.765403e-05
145	0xba5ea5e5	-0.0008493348
146	0xbb1585ff	-0.0022815464
147	0x3ad5f457	0.0016323429
148	0x3af79180	0.0018887967
149	0xb98e28bb	-0.00027114697
150	0xb91b3c62	-0.00014804446
151	0x39cb0c10	0.00038728165
152	0xbb26e6f9	-0.002546726
153	0xbaa0dc59	-0.00122727
154	0xbacdb144	-0.0015693088
155	0xbb18684b	-0.0023255523
156	0x3b1d3cda	0.002399257
157	0xbb69d6fd	-0.0035681122
158	0xbb7e161b	-0.00387705
159	0xbb6b58b2	-0.003591102
160	0xb88a1580	-6.5843575e-05
161	0xbb52379e	-0.0032076607
162	0xba09a046	-0.0005250018
163	0xbb04ae3f	-0.002024546
164	0xb8062a11	-3.1987267e-05
165	0xba1308c9	-0.0005608914
166	0xba4a0c1e	-0.0007707494
167	0x3a0c8df9	0.0005361732
168	0x3b36f712	0.0027918261
169	0x3ad9bd8a	0.0016612273
170	0x3ab21015	0.0013585115
171	0x3b1b62fe	0.0023710127
172	0xb8a66b80	-7.93552e-05
173	0xb995fdd3	-0.00028608608
174	0x39c640c0	0.00037813745
175	0x3a7710ac	0.00094247865
176	0x3ab8299d	0.0014050488
177	0xbb4d9986	-0.0031372025
178	0xba554085	-0.00081349193
179	0xb894ec76	-7.101234e-05
180	0xbaed6c1c	-0.0018113884
181	0xb9ca1264	-0.00038542144
182	0xba8c86d4	-0.0010721334
183	0x3b75f510	0.0037530102
184	0x3a5b22a2	0.00083593477
185	0xbadf6459	-0.0017043456
186	0x3ac19b80	0.0014771074
187	0x3b47f84a	0.0030512982
188	0xbaeaabbc	-0.0017903964
189	0xbb020fbb	-0.0019845802
190	0xbb5e8081	-0.0033951106
191	0x3994b37d	0.0002836249
192	0x3dbff866	0.0937355
193	0x3df5b87b	0.119980775
194	0x3daa6408	0.08319861
195	0xbdc1b288	-0.0945788
196	0xbe3c0391	-0.18360735
197	0xbe3dad8a	-0.18523231
198	0xbe2ac9ff	-0.16678618
199	0xbe3acb20	-0.18241549
200	0x3decf4cb	0.11570128
201	0x3dbef0f2	0.093233004
202	0x3dfc5b3b	0.12322088
203	0x3dc6cfe7	0.09707623
204	0x3ca73282	0.020409826
205	0xbdc23aa2	-0.094838396
206	0x3dd05286	0.1017199
207	0xbe294752	-0.16531113
208	0x3dc51d6b	0.09624752
209	0x3e03a852	0.12857178
210	0x3df28119	0.1184103
211	0x3d52c9f9	0.051462147
212	0xbdc7b324	-0.09750965
213	0xbdc43aae	-0.09581505
214	0xbdc907fa	-0.098159745
215	0x3e28cdec	0.16484803
216	0xbdc66841	-0.096878536
217	0xbe307c6b	-0.17234962
218	0x3dc21fca	0.094787195
219	0x3daa263c	0.08308074
220	0xbdc26ddc	-0.0949361
221	0xbda671e3	-0.08127191
222	0xbdb8326c	-0.08993992
223	0x3e06c4b8	0.1316098
224	0x3d8a5adc	0.06755611
225	0x3dd7e573	0.10541811
226	0x3d849807	0.064743094
227	0xbd928b9a	-0.07155533
228	0xbe31408f	-0.17309783
229	0xbe22224d	-0.15833397
230	0xbe459cec	-0.19298142
231	0xbe39e54c	-0.18153876
232	0x3da0db07	0.07854276
233	0x3d8d9659	0.06913442
234	0x3da66013	0.081237935
235	0x3d8dc1da	0.0692174
236	0x3c8e1798	0.017345235
237	0xbd893f7f	-0.06701564
238	0x3d931501	0.071817406
239	0xbe127c14	-0.14305145
240	0x3d90b8da	0.07066508
241	0x3dbbe36e	0.09174238
242	0x3dbbec35	0.09175912
243	0x3d40fbbf	0.047115084
244	0xbd945efc	-0.07244679
245	0xbd974530	-0.07386243
246	0xbd8b9638	-0.06815761
247	0x3e066bb9	0.1312703
248	0xbd88a900	-0.06672859
249	0xbe168772	-0.14700106
250	0x3d8f9cb7	0.07012313
251	0x3d95c9d8	0.07313889
252	0xbd8f2817	-0.069900684
253	0xbd829a28	-0.06377059
254	0xbd8df490	-0.06931412
255	0x3e113eac	0.14184064

policy_net.6.bias f4 [21]
0	0x3eefcdd3	0.4683672
1	0x00000000	0.0
2	0x00000000	0.0
3	0x00000000	0.0
4	0x00000000	0.0
5	0x00000000	0.0
6	0xbdc4c85e	-0.096085295
7	0xbd90630f	-0.07050144
8	0x3e403a11	0.1877215
9	0x3e7cd8f6	0.24692139
10	0x3dc93fb0	0.098266006
11	0x3e02c4a3	0.12770323
12	0x3ce78807	0.028263105
13	0x3d85517d	0.06509683
14	0x3d727735	0.059195716
15	0x3ebcb65e	0.36857885
16	0xbd44577a	-0.047934987
17	0x3de1291d	0.1099417
18	0xbdcc3ecd	-0.09972916
19	0xbdbc434c	-0.09192523
20	0xbd0dc099	-0.034607504

value_net.0.weight f4 [32, 770]
0	0xbdbeb194	-0.09311214
1	0xbe266ac0	-0.1625166
2	0xbe155be6	-0.14585838
3	0xbd3a8b6d	-0.045543123
4	0x3eb50c0b	0.3536075
5	0x3ca8df76	0.020614367
6	0xbe3531e7	-0.17694817
7	0xbe18a8d3	-0.14908151
8	0xbe354c80	-0.17704964
9	0xbe36be7a	-0.17846099
10	0xbc8e72ba	-0.01738869
11	0xbc936c6c	-0.017996036
12	0x3d902f74	0.07040301
13	0xbd54d5f8	-0.05196187
14	0xbd66b441	-0.056324247
15	0xbc8357a2	-0.016032998
16	0x3c05105c	0.008121576
17	0xbc956075	-0.01823447
18	0xbd8b373f	-0.06797647
19	0xbc10a253	-0.008827764
20	0xbcbea3a0	-0.023271382
21	0xbd2915df	-0.041280624
22	0x3cb6e060	0.022323787
23	0xbcd74f2a	-0.026282866
24	0x3ea5814a	0.32325202
25	0xbe06f769	-0.13180317
26	0x3c9e8816	0.019352
27	0xbcfbd753	-0.030742323
28	0x3e01ce17	0.12676273
29	0x3e01632a	0.12635484
30	0xbd083776	-0.033256017
31	0xbcd0b30d	-0.025476003
32	0xbc698929	-0.014253893
33	0xbe5e862f	-0.21730874
34	0x3d6d90c2	0.05799938
35	0xbccc7590	-0.024958402
36	0x3d25ba50	0.040460885
37	0xbd05493e	-0.032540552
38	0xbde960c5	-0.113954104
39	0x3cc4120a	0.023934383
40	0x3cc0650d	0.023485685
41	0xbd6f1c29	-0.058376465
42	0xbcc59e6c	-0.024123393
43	0x3c3468a5	0.011011277
44	0x3c1e7945	0.009672468
45	0xbc430eda	-0.011905396
46	0xbc0b36d0	-0.008496955
47	0x3e03a0a9	0.12854256
48	0x3c1ce90a	0.009577045
49	0x3d9cceb7	0.07656615
50	0xbd39b206	-0.045335792
51	0xbdb914ef	-0.09037196
52	0xbd546cea	-0.05186168
53	0xbd7df606	-0.062002204
54	0x3daa4e19	0.08315677
55	0xbdcf3002	-0.10116579
56	0x3cf554b5	0.029947618
57	0xbbaaea14	-0.0052158926
58	0xbe432cfc	-0.19060129
59	0x3d4d1997	0.050073233
60	0xbd8075da	-0.062724784
61	0x3d1952e5	0.03743257
62	0x3d6727fb	0.056434613
63	0x3c597755	0.01327308
64	0x3dd9855b	0.10621139
65	0x3c83dd8d	0.016096855
66	0xbb90a648	-0.0044143535
67	0x3d0e4380	0.03473234
68	0xbd573335	-0.05253907
69	0xbd42195b	-0.047387462
70	0x3c5e5c33	0.013571787
71	0xbc8c250f	-0.017107515
72	0xbc855015	-0.016273538
73	0xbc9f5215	-0.01944832
74	0x3bdeb4c7	0.0067964527
75	0xbe149687	-0.14510547
76	0xbde96826	-0.11396818
77	0xbe021f61	-0.12707283
78	0x3d42fbc3	0.04760338
79	0x3e2e019d	0.16992803
80	0xbbdd653e	-0.006756454
81	0xbe386a2c	-0.18009251
82	0x3d6f5bfd	0.058437336
83	0xbe2bc981	-0.16776086
84	0xbe15750a	-0.14595428
85	0xbcded74d	-0.027202273
86	0xbd0dc884	-0.034615055
87	0xbcedfd3c	-0.029051416
88	0xbd6f773b	-0.058463316
89	0xbd0a672e	-0.033789806
90	0x3c084c83	0.008319023
91	0xbcf533a7	-0.029931856
92	0x3d920068	0.07128984
93	0xbc8cf355	-0.017205874
94	0x3d078ff8	0.033096284
95	0x3dab4a6a	0.08363803
96	0x3a092340	0.0005231388
97	0x3de08301	0.10962487
98	0xbd62b1b0	-0.055345237
99	0x3e3a6260	0.1820159
100	0xbe1208fe	-0.14261243
101	0xbcc14767	-0.023593618
102	0xbd1d6341	-0.038424734
103	0xbc476712	-0.01217057
104	0x3e299bc1	0.16563322
105	0x3c408155	0.011749585
106	0xbccdff1d	-0.025146062
107	0x3d4b1a3b	0.049585562
108	0xbe6bdb7e	-0.23032948
109	0xbd99ec4c	-0.07515773
110	0xbc4ee53f	-0.012627899
111	0xbbdafafc	-0.0066827517
112	0xbd3707e6	-0.044685267
113	0xbd8172bf	-0.06320714
114	0x3c522b13	0.0128276525
115	0xbd7a8802	-0.061164863
116	0x3d6ce766	0.057837866
117	0x3d1b4446	0.037906907
118	0xbd879cf3	-0.066217326
119	0x3c457883	0.012052658
120	0xbd36979a	-0.044578172
121	0xbc26f9ff	-0.01019144
122	0xbc477fd5	-0.012176474
123	0xbd8a1477	-0.067421846
124	0x3e36a42d	0.17836066
125	0xbe0d0d1e	-0.13774535
126	0xbe232f24	-0.15935951
127	0x3d73099f	0.059335347
128	0x3c8ebcde	0.017424043
129	0x3d1d4bc9	0.038402352
130	0x3bd1fbf5	0.0064082094
131	0xbdf839d0	-0.12120402
132	0xbe4a79df	-0.19773053
133	0xbe097334	-0.13422853
134	0x3e90a538	0.28251052
135	0x3e0272f4	0.12739164
136	0xbdf3fe5d	-0.1191375
137	0xbd720c20	-0.059093595
138	0x3d09717c	0.033555493
139	0x3d5de64e	0.054174714
140	0x3da859ac	0.082202286
141	0x3d4e293f	0.050332304
142	0xbc1fd3fd	-0.009755132
143	0xbade0dc1	-0.0016941355
144	0xbcf69806	-0.030101787
145	0xbddbcecb	-0.10732802
146	0xbd04e5f1	-0.03244585
147	0x3cfb6cde	0.03069156
148	0xbc0fe8a2	-0.008783491
149	0x3e452a23	0.19254355
150	0xbd73030b	-0.059329074
151	0xbd25d419	-0.040485475
152	0xbcb3a3b3	-0.021928644
153	0xbc50c298	-0.012741707
154	0x3cc0c7f7	0.02353285
155	0x3d77bc24	0.06048216
156	0xbe1ead5c	-0.15495819
157	0xbe46b169	-0.19403614
158	0xbe0c4a39	-0.13700189
159	0x3d9fa0a9	0.07794315
160	0x3c543427	0.012951887
161	0x3d1c756b	0.038197916
162	0xbb428e86	-0.0029687001
163	0xbb8f2b1e	-0.0043691536
164	0xbbd146f3	-0.0063866316
165	0xbc995ae8	-0.018720105
166	0x3b0d8e95	0.0021599878
167	0xbd8c0c76	-0.06838314
168	0x3d841db7	0.0645098
169	0x3c2b21e9	0.0104450965
170	0xbb8d48ee	-0.0043116724
171	0x3d5f27fd	0.054481495
172	0x3c7ea7d7	0.015542946
173	0xbdccebf3	-0.10005941
174	0x3e03d457	0.1287397
175	0xbdfafa9b	-0.122548304
176	0xbd052c15	-0.032512743
177	0xbd66d2af	-0.056353267
178	0x3c080e9b	0.008304263
179	0x3e4975f8	0.19673908
180	0x3c0be72e	0.008539004
181	0xbdb3806c	-0.08764729
182	0xbe228fb4	-0.15875131
183	0xbbfd3e0f	-0.007728345
184	0xbdb563df	-0.088569395
185	0x3d1bae22	0.038007863
186	0x3d8458e0	0.06462264
187	0x3b083aab	0.0020786922
188	0x3dae008b	0.08496197
189	0xbd385b4e	-0.04500895
190	0x3da05f7b	0.078307115
191	0xbcb9323e	-0.022606965
192	0xbcaa65f7	-0.020800574
193	0xbcaf85be	-0.021426078
194	0xbd062923	-0.032754075
195	0xbcea9143	-0.02863372
196	0xbcc1015e	-0.023560222
197	0x3cc0482d	0.023471916
198	0x3cd9af2e	0.02657279
199	0x3e433880	0.19064522
200	0xbcd25def	-0.025679557
201	0xbd9c1c74	-0.076226145
202	0xbda149b8	-0.07875389
203	0x3dbf4af2	0.093404666
204	0x3d960787	0.073256545
205	0xbc520484	-0.012818459
206	0xbd1fc97f	-0.03901052
207	0xbde99069	-0.11404497
208	0x3e120a83	0.14261822
209	0xbe2a47ab	-0.16628902
210	0x3bce63bb	0.00629851
211	0x3cf5004e	0.029907372
212	0x3c906c6e	0.017629828
213	0x3c8cc845	0.01718534
214	0xbcb3d732	-0.021953199
215	0x3c4395d5	0.011937578
216	0x3b7a4ad7	0.003819158
217	0xbe03aab2	-0.12858084
218	0x3cd34c75	0.025793293
219	0x3cbd99ea	0.023144681
220	0x3d40df33	0.04708786
221	0xbd02fbdd	-0.031978477
222	0x3d61c711	0.055121485
223	0x3d5e2ebb	0.054243784
224	0x3e24bdb3	0.1608799
225	0xbe283c19	-0.16429175
226	0xbd5e4fa6	-0.054275177
227	0xbcd3cc44	-0.025854237
228	0xbdc27358	-0.09494656
229	0x3e040983	0.12894253
230	0x3d3a19d1	0.045434777
231	0xbd11ae07	-0.035566356
232	0xbe5fd845	-0.21859844
233	0xbd40db8b	-0.047084372
234	0x3e252902	0.16128924
235	0x3be24349	0.0069049937
236	0x3b1a6c1d	0.0023562976
237	0xbccaae72	-0.024741385
238	0xbc335db9	-0.010947638
239	0x3be0a3fa	0.006855485
240	0x3b931ea4	0.0044897366
241	0x3c98f738	0.01867257
242	0xbdf30051	-0.11865295
243	0xbc4fdfab	-0.012687604
244	0xbdbeb3bc	-0.09311625
245	0x3cc32b6f	0.023824422
246	0xbc40edd1	-0.01177545
247	0x3d18075b	0.03711639
248	0x3d0b403f	0.033996817
249	0x3dfc6c65	0.12325362
250	0xbd952972	-0.07283296
251	0xbd981a06	-0.074268386
252	0xbdbabafb	-0.09117695
253	0x3c15153a	0.009099299
254	0x3dab2d1b	0.083582126
255	0xbc8863cb	-0.016649147

value_net.0.bias f4 [32]
0	0xbdc5c190	-0.0965606
1	0xbd09cc87	-0.033642318
2	0xbd1020dc	-0.035187587
3	0xbc5ee45b	-0.013604249
4	0xbd47c988	-0.04877618
5	0x3da207a2	0.07911612
6	0x3d93d29d	0.07217906
7	0x3b23b368	0.002497876
8	0x3c84ccf6	0.016211014
9	0x3d6862cd	0.05673485
10	0x3d22aa19	0.039713
11	0x3d5289f4	0.051401094
12	0x3d1fdf58	0.039031357
13	0xbde75ff6	-0.112976
14	0x3d230848	0.03980282
15	0x3d5ac67c	0.053411946
16	0xbd835de0	-0.064143896
17	0x3db8a7fd	0.09016416
18	0x3d4fb0df	0.050705787
19	0x3d87f48b	0.0663844
20	0x3d077f88	0.033080608
21	0x3d7b4c19	0.06135187
22	0xbd6a7483	-0.05724002
23	0xbd9292c5	-0.071569
24	0x3d72b468	0.05925408
25	0xbd4cbdc7	-0.049985673
26	0xbd8233c2	-0.06357528
27	0x3d778f93	0.060439657
28	0x3d605265	0.054766078
29	0xbdbe13c2	-0.09281112
30	0xbda006d4	-0.07813802
31	0x3bbe1ea9	0.005801995

value_net.2.weight f4 [32, 32]
0	0xbcc30de2	-0.02381033
1	0xbdbf31be	-0.093356594
2	0xbea430a5	-0.32068363
3	0x3c13a86f	0.009012326
4	0x3ecca078	0.39966178
5	0xbe3b4138	-0.18286598
6	0xbdcb0e08	-0.099147856
7	0xbe893ae6	-0.26802748
8	0x3f53dd0f	0.82759184
9	0x3d4e65fb	0.050390225
10	0x3e36d8cc	0.17856139
11	0xbc8e8460	-0.017397106
12	0x3dab0c52	0.08351959
13	0x3d29c388	0.04144624
14	0x3ea1857a	0.31547147
15	0xbdc307d9	-0.09522981
16	0xbe3e1f6f	-0.18566678
17	0xbee1d75f	-0.44109628
18	0x3e8720b1	0.2639213
19	0x3dcabe3e	0.09899567
20	0xbde10567	-0.109873585
21	0xbc38620f	-0.011253848
22	0xbe91efbe	-0.2850322
23	0xbe4115dd	-0.18855996
24	0xbf1498c2	-0.5804559
25	0x3df0d45e	0.11759256
26	0x3e7cbcb3	0.24681358
27	0x3e81e9a9	0.2537358
28	0x3e41a747	0.18911467
29	0x3e5edaae	0.21763107
30	0xbee183ef	-0.4404597
31	0x3eeb4973	0.45954475
32	0x3dcde343	0.10053112
33	0xbe4f2959	-0.20230617
34	0x3e122f03	0.14275746
35	0xbebe59d5	-0.3717791
36	0xbc181009	-0.009281167
37	0xbe65a539	-0.22426309
38	0xbe105d6f	-0.14098142
39	0xbc7fbf99	-0.015609645
40	0x3eaaffbf	0.33398244
41	0xbde0e229	-0.109806366
42	0x3d0292eb	0.031878393
43	0xbd69a697	-0.057043638
44	0x3d7abd5f	0.061215755
45	0x3efaff25	0.49022785
46	0x3e14e289	0.14539541
47	0xbf2ea0b9	-0.68213993
48	0xbe36be9b	-0.17846148
49	0xbd430c42	-0.04761911
50	0xbe8322ea	-0.25612575
51	0x3ec4f47b	0.38467774
52	0xbd10e460	-0.035374045
53	0x3e9e90fb	0.30969986
54	0x3daaeb83	0.083457015
55	0xbe5137e0	-0.20431471
56	0xbefc04d4	-0.49222434
57	0x3f1f3003	0.62182635
58	0x3e5fc92b	0.21854083
59	0xbe48b3b8	-0.19599807
60	0x3dda793f	0.10667657
61	0xbe4ac600	-0.19802094
62	0x3c095ed8	0.008384429
63	0xbf2e6469	-0.68121964
64	0xbddc16ef	-0.10746562
65	0xbe82a80e	-0.2551884
66	0xbea34d7e	-0.3189506
67	0xbddc5a61	-0.10759426
68	0x3e092837	0.13394247
69	0xbde9fde8	-0.11425382
70	0x3ea4d8e6	0.3219673
71	0xbe141014	-0.14459258
72	0xbebd7374	-0.37002146
73	0x3e5bdc1f	0.21470688
74	0xbba6a8be	-0.0050860336
75	0x3ea8e96d	0.3299059
76	0x3ce98f55	0.028510729
77	0xbe6d273d	-0.231595
78	0x3e985fab	0.2976049
79	0xbea4fe0f	-0.3222508
80	0x3e9176ba	0.28410894
81	0xbcd720f2	-0.026260827
82	0xbd7bc717	-0.061469164
83	0xbe8d2abe	-0.27571672
84	0xbecad5b2	-0.39616162
85	0x3e587fd7	0.21142517
86	0x3e99a267	0.30006716
87	0x3eb991bb	0.36243996
88	0xbeacacee	-0.33725685
89	0x3d5071dc	0.050889835
90	0x3f55ce5e	0.83518016
91	0x3edde0f2	0.43335682
92	0xbe0b457d	-0.13600726
93	0xbe026692	-0.1273444
94	0x3e857bcb	0.2607101
95	0x3e0684ff	0.13136671
96	0x3e9aa1c6	0.30201548
97	0x3c614bd2	0.013750987
98	0xbece3e60	-0.40281963
99	0x3eae3f78	0.34032798
100	0x3d68127e	0.05665826
101	0x3ebbe887	0.36700842
102	0xbef9c8cb	-0.48786005
103	0x3ebdfbea	0.37106258
104	0x3f0ce1ff	0.5503234
105	0xbc2f6595	-0.010705371
106	0x3eccf6a5	0.40031925
107	0x3ddfc6a5	0.1092656
108	0x3de75802	0.11296083
109	0x3de1f9c6	0.110339686
110	0x3cf38270	0.029725283
111	0xbd976140	-0.07391596
112	0xbdcb16ca	-0.09916456
113	0xbe5c6b41	-0.21525289
114	0x3e810e63	0.2520629
115	0xbcfdb4bf	-0.030969976
116	0x3b275826	0.0025534718
117	0x3e2bcb3e	0.1677675
118	0x3ea51c9d	0.32248393
119	0xbef7aa48	-0.48372102
120	0xbdb62d8d	-0.08895407
121	0xbd02e53e	-0.031956904
122	0x3e869017	0.26281807
123	0xbd46c05a	-0.048523284
124	0xbe63544e	-0.22200128
125	0xbe7495c8	-0.23885262
126	0x3f5feb6f	0.8746862
127	0xbe8ac82c	-0.27105844
128	0x3ecdf84e	0.40228504
129	0xbe19ab29	-0.15006699
130	0xbe0f3789	-0.13986029
131	0x3f05d87e	0.52283466
132	0x3eb62c8f	0.3558087
133	0xbe99fea5	-0.3007709
134	0xbe16eb15	-0.14738114
135	0xbdc6275f	-0.09675478
136	0x3e0725e8	0.13198054
137	0xbe800546	-0.25004023
138	0xbe102c3f	-0.14079379
139	0x3ed215f9	0.4103239
140	0x3d4d9286	0.050188564
141	0xbe341490	-0.17585969
142	0x3dfa6fd0	0.12228358
143	0xbe83bcc6	-0.2572996
144	0x3c9ec0c4	0.019379027
145	0x3f0daf17	0.5534529
146	0xbdcc9bcd	-0.09990654
147	0xbed64d23	-0.41855726
148	0x3f3086cb	0.6895568
149	0x3c3fc71a	0.011705184
150	0x3cfc8ede	0.030829843
151	0xbd90cb99	-0.07070083
152	0x3e3de247	0.18543349
153	0xbe00858a	-0.12550941
154	0xbebf70ef	-0.3739085
155	0x3e8e1501	0.277504
156	0x3e6754b9	0.22590913
157	0xbebeac82	-0.37240988
158	0x3e9e8cb1	0.30966714
159	0x3e406f21	0.18792392
160	0x3ebad8db	0.36493573
161	0x3d92f4f5	0.07175628
162	0x3c0bad28	0.00852517
163	0xbe424bd5	-0.1897424
164	0x3d50f4c2	0.05101467
165	0xbeded135	-0.43518987
166	0x3e587461	0.21138145
167	0xbef0adf6	-0.47007722
168	0x3ed37187	0.41297552
169	0x3daa91b6	0.083285734
170	0xbef78643	-0.4834462
171	0xbe059e60	-0.13048697
172	0x3d8770a7	0.066132836
173	0x3eaff75c	0.34368408
174	0xbe92a7c5	-0.28643623
175	0x3eb0b48f	0.34512755
176	0xbdf2cd84	-0.11855605
177	0xbe8b70e2	-0.2723456
178	0xbeca506d	-0.39514485
179	0xbeabb311	-0.33535054
180	0xbe0719fd	-0.13193507
181	0xbd025c0f	-0.031826075
182	0x3eaca174	0.3371693
183	0xbd41c72a	-0.04730908
184	0xbd8b706b	-0.068085514
185	0x3e124698	0.14284742
186	0x3f653a8b	0.89542454
187	0xbd7ca796	-0.06168326
188	0x3e19aa99	0.15006484
189	0xbccd142d	-0.025034035
190	0x3ed75a04	0.42060864
191	0x3e337826	0.17526302
192	0x3e7e564a	0.24837604
193	0xbd952bd4	-0.0728375
194	0x3e48f6eb	0.19625442
195	0x3d94fad1	0.07274402
196	0x3e5aba95	0.21360238
197	0x3ee03817	0.43792793
198	0x3e87fa73	0.26558265
199	0x3ef0c3e6	0.4702446
200	0xbf46c8c6	-0.77650106
201	0xbe028b86	-0.12748536
202	0x3e94a9f9	0.2903593
203	0xbd991075	-0.07473842
204	0xbecc6902	-0.39923865
205	0x3d399718	0.04531011
206	0xbe0f2db0	-0.13982272
207	0x3e8c5d2e	0.2741484
208	0xbf0287db	-0.5098855
209	0x3ee16f39	0.4403017
210	0xbb23419d	-0.0024910935
211	0xbe38f960	-0.18063879
212	0xbe7865d8	-0.242576
213	0x3ddd70a6	0.108125016
214	0xbe4a5b2a	-0.19761339
215	0xbe9cdde5	-0.30638042
216	0xbe3cb3e3	-0.18427996
217	0xbeb3b5e5	-0.35099712
218	0xbe7e6b40	-0.248456
219	0xbccdc2bc	-0.02511727
220	0x3e2df357	0.16987358
221	0xbea75317	-0.3268058
222	0xbe6d38cc	-0.23166198
223	0x3e61cd04	0.22050864
224	0x3e6c7819	0.23092689
225	0x3e39fc75	0.18162711
226	0x3ecd3289	0.40077618
227	0x3ddedafd	0.108816124
228	0x3d13b581	0.036061767
229	0x3ebd6abd	0.36995497
230	0xbde83f05	-0.11340145
231	0x3dd199c5	0.10234407
232	0x3ef65ea9	0.48119095
233	0xbc74b045	-0.014934604
234	0xbe98a416	-0.29812688
235	0x3e9deae2	0.30843264
236	0x3e734ec2	0.23760512
237	0x3e542b20	0.20719576
238	0xbe08c657	-0.1335691
239	0xbe76f071	-0.24115159
240	0xbdc3b6a0	-0.09556317
241	0xbebb838b	-0.36623797
242	0x3de78dcb	0.11306342
243	0x3e368b09	0.17826475
244	0x3d924bb3	0.07143345
245	0x3d8a1d22	0.06743838
246	0xbef802bc	-0.48439586
247	0xbe82e2b4	-0.25563586
248	0x3e8cf6eb	0.27532133
249	0x3ea54144	0.32276356
250	0x3f3b11d3	0.7307407
251	0x3f1ad853	0.60486335
252	0x3e93d43d	0.28872862
253	0x3e7fa207	0.24964152
254	0x3eb2852f	0.34867236
255	0x3cd0b448	0.02547659

value_net.2.bias f4 [32]
0	0x3ce7469f	0.028231917
1	0x3d0cd395	0.034381468
2	0xbdc82370	-0.09772384
3	0x3c657ffe	0.0140075665
4	0x3ce3d162	0.027809802
5	0x3c98b169	0.018639283
6	0x3d006e34	0.031355098
7	0x3dd0c2c8	0.101934016
8	0x3dd17df1	0.102290995
9	0xbe05a214	-0.13050109
10	0xbe99b222	-0.30018717
11	0xbe551611	-0.20809199
12	0x3e19c0bb	0.15014927
13	0x3de7d1bd	0.11319301
14	0xbe02e630	-0.12783122
15	0xbe6a2540	-0.22865772
16	0xbe1fe3a1	-0.15614177
17	0x3cda74a8	0.026666954
18	0xbe488e5a	-0.19585553
19	0x3d6f7af4	0.058466867
20	0xbca4bc18	-0.020109221
21	0xbd7060c4	-0.058686033
22	0x3d1e46ac	0.038641617
23	0xbd34e920	-0.044167638
24	0x3ca72153	0.020401632
25	0xbdf979da	-0.121814445
26	0x3df4146f	0.1191796
27	0xbe86c6a6	-0.26323432
28	0x3d46bbf3	0.048519086
29	0xbd009430	-0.031391323
30	0x3d894dbb	0.06704279
31	0xbc70157c	-0.01465356
