MAPPO/Graph_H/save/HY_T4/agent_18_MAPPO_r.pt (torch, 28570 bytes, 15 tensors)

policy_net.module_0.bias f4 [32]
000000 a8 cf 8e 3d 33 6c 0e be 07 af 44 bc da ab 84 bd
       0.06973201 -0.13908462 -0.01200462 -0.064780906
000010 46 d5 92 bd 26 49 60 3d 45 e1 81 bd ba 05 6b bd
       -0.07169585 0.05475726 -0.06341795 -0.05737851
000020 9c 55 db 3c ce 23 a8 bc 1c e3 de bc a6 1f 0c 3e
       0.02677422 -0.020524886 -0.027207904 0.13683948
000030 9c 7f 3d bd 2c 49 48 bd 21 7a 47 bd 44 b6 48 3d
       -0.046264276 -0.048897907 -0.048700456 0.049001947
000040 62 01 1a bc 62 08 05 3d 42 b0 0f 3d 66 72 de 3c
       -0.009399744 0.032478698 0.035080202 0.027154159
000050 7e a2 fd 3c d7 f7 8c 3d 87 f1 2f 3c 22 62 b0 3c
       0.030961271 0.06883209 0.010738737 0.021531168
000060 60 f7 e5 3d eb 2b fb bc da 4e 64 3d 17 2c 2c bd
       0.11228824 -0.03066059 0.05573926 -0.042034235
000070 76 a8 4f 3d ed b1 07 3d c3 1c 32 bd 65 19 b4 3d
       0.050697766 0.033128668 -0.04348446 0.08793906

policy_net.module_0.lin.weight f4 [32, 2]
000000 28 24 20 be 8d f7 7d be 95 96 a2 be 90 4c 59 3e
       -0.15638793 -0.24801464 -0.3175551 0.21220613
000010 7c 8d d0 bd 47 fb 87 3d a6 bd 06 be 02 ee 1b bc
       -0.10183236 0.06639724 -0.13158283 -0.009517195
000020 25 81 03 3c 61 40 5f 3d 20 e9 5b 3e e6 2d dc 3d
       0.008026396 0.054504756 0.21475649 0.10750942
000030 d2 0f 3b be 3f e1 b9 3d 05 d3 ff be 70 cf 46 3e
       -0.18267754 0.090761654 -0.49965683 0.19415069
000040 95 40 b6 3d 08 e3 50 3e 5c 98 47 3d bb 45 12 be
       0.08899037 0.20399106 0.048729286 -0.14284413
000050 ab 4c 9b be 6b 2f 88 be c7 ed d2 bc 47 15 87 be
       -0.3033193 -0.26598677 -0.025748147 -0.2638342
000060 ac 21 32 bd 6f 47 31 be 62 fc 0c bf f8 c8 e6 bc
       -0.043489143 -0.17312406 -0.55072606 -0.028172001
000070 3e 09 50 3e 00 79 5e be 27 05 29 3f 42 ec 92 3e
       0.20316026 -0.21725845 0.66023487 0.28695875
000080 74 43 e1 3e 59 5b a8 3d 05 30 95 bd 13 ef 75 3e
       0.43996775 0.08220548 -0.072845496 0.24016981
000090 3f d0 02 3f 10 18 0a 3e 31 79 d8 3e 9e 9a da bd
       0.5109901 0.13485742 0.42279962 -0.10674022
0000a0 03 91 97 3d 7a d9 03 3e 9c 98 16 3e 69 24 ee bd
       0.07400706 0.1287593 0.14706653 -0.116280384
0000b0 68 d9 49 3d f0 73 0b bf 8a e9 cf 3d 47 11 56 3e
       0.0492796 -0.5447378 0.10151966 0.20905028
0000c0 e1 ef 85 3d 3a 36 cf be bb ae bf be 74 38 ff 3d
       0.06539894 -0.4047106 -0.37437996 0.124619395
0000d0 5e 02 d6 3b 06 f2 02 bc 9e 08 17 bd c0 e8 13 3c
       0.006531044 -0.007992273 -0.036873452 0.00902766
0000e0 a2 eb fa bc 8a 2c 03 3f a4 c3 18 3f e0 14 1d 3f
       -0.030629937 0.51239836 0.59673524 0.6135998
0000f0 7f c6 c2 be 01 5c 7a bc 79 0b 53 3e f2 0a a8 bd
       -0.38042066 -0.0152807245 0.20609845 -0.08205213

policy_net.module_2.bias f4 [32]
000000 74 f5 a2 3d 8d 64 12 3d f1 64 85 bd f9 d5 1f 3d
       0.07956973 0.035740424 -0.06513394 0.03902242
000010 a7 64 76 bd 50 4c 8a bc 95 ab 72 3d d9 7a 3f 3d
       -0.060154583 -0.016882092 0.059245665 0.046748016
000020 52 f7 4b 3d 68 10 3b bd 44 9e 96 bd 1d ba 64 3d
       0.04979641 -0.045669943 -0.073544055 0.055841554
000030 03 d4 76 bd 18 4e 0a bd 29 d9 2b 3d 6c 77 96 bd
       -0.060260784 -0.033765882 0.041955147 -0.07346997
000040 d5 98 b5 bd d6 25 fb bc dc 86 0b 3e 56 4b 39 bd
       -0.08867041 -0.03065769 0.13625664 -0.04523786
000050 55 14 6a 3d 0d ce c8 3d 48 3e 84 3c fd 05 ae 3d
       0.057148296 0.09804926 0.01614298 0.08497236
000060 d3 15 7f bd f2 00 74 3d 1c 3d 11 3d fa 40 83 3d
       -0.062276673 0.059571214 0.03545867 0.06408878
000070 dc d7 7a bd 33 b7 2a bd 5b 93 55 3d 9f ed 59 3d
       -0.061241016 -0.04167862 0.052142482 0.05320513

policy_net.module_2.lin.weight f4 [32, 32]
000000 c1 89 36 be cf be 04 bf 18 97 77 be 2b ac d4 bd
       -0.17825986 -0.5185365 -0.24178731 -0.10384401
000010 a0 de 61 be 42 ab d1 3e 6e 21 2d bd ad aa a0 be
       -0.22057581 0.40950972 -0.04226821 -0.31380215
000020 02 ff 73 be 81 55 55 be 68 32 13 be df 79 fa 3e
       -0.23827747 -0.20833398 -0.14374697 0.48921105
000030 c6 01 09 3e 7b 9f 33 bd f4 d3 fe 3d b7 07 e9 3e
       0.13379583 -0.043853264 0.124427706 0.45513698
000040 a3 49 71 3e ce 28 71 be fe 3e 01 3f ae a8 49 bd
       0.23563246 -0.23550722 0.50486743 -0.04923313
000050 a2 dc 36 be 1d 4e 48 be a8 85 ba 3b ba e9 48 be
       -0.17857602 -0.19561048 0.0056922026 -0.1962041
000060 f8 6f 03 be 20 91 00 3e 23 cd e5 3c cd b7 4e bd
       -0.12835681 0.12555361 0.028051918 -0.050468255
000070 52 74 d1 3e 42 6f 73 be b7 3a a5 bd c3 bf 2a be
       0.40909058 -0.2377291 -0.080678396 -0.16674714
000080 32 81 80 be b3 23 49 3e 13 6e e5 3c 4f 6b dd 3e
       -0.25098568 0.19642524 0.028006589 0.43245932
000090 da b0 c2 be aa 8b 82 bd 3a 6c be 3e 08 bf 12 3f
       -0.38025552 -0.06374295 0.37191945 0.5732274
0000a0 c7 b1 71 be a6 ac b1 bc 83 0c 12 be 3d eb 37 3d
       -0.23602973 -0.02168877 -0.14262585 0.044902075
0000b0 ad 76 45 3e 41 b4 09 be 16 00 ef bc 6a 09 ed 3d
       0.19283552 -0.13447668 -0.029174846 0.11574061
0000c0 7d 9c 85 be 3b 16 43 be 69 58 2f 3e a2 25 9f 3e
       -0.26095954 -0.19051449 0.1712357 0.310834
0000d0 56 b9 62 3d b4 18 03 3f cc 05 89 be 36 d5 b4 be
       0.05535253 0.5120957 -0.26762235 -0.35318917
0000e0 3f 72 cb 3d 49 b8 40 3d a2 c7 77 3e 91 04 0e 3e
       0.099339 0.047050748 0.24197248 0.1386893
0000f0 ad ec 3a be 8d 8b f0 bd 08 cb 95 be 03 dc 6d 3d
       -0.18254347 -0.11745367 -0.29256463 0.058071148
000100 e7 98 f3 3c ea 37 71 3e 00 a8 1e bf 16 89 8c 3e
       0.029735995 0.23556486 -0.619751 0.27448338
000110 90 68 46 3e 7d c4 8b be a9 4e c6 3e 3b 2e 4b 3d
       0.19375825 -0.27298346 0.38731888 0.049604636
000120 cb a1 ee 3c aa e1 a1 3e 29 ce 5f be 6a 8f 2a 3e
       0.029129883 0.3161748 -0.21855988 0.1665627
000130 86 3d 3f be 57 35 69 3e f2 ed ad be 2a 12 90 be
       -0.18675813 0.22774254 -0.339706 -0.28138858
000140 3f 23 de bd a4 3b 4a 3d 8b 7a 39 3e 1a e0 32 3e
       -0.108465664 0.049373284 0.18113153 0.174683
000150 9d 37 3d be 85 ad 0c bf 19 ca 18 3e 27 b0 d4 be
       -0.18478246 -0.5495227 0.14920844 -0.41540644
000160 ef 58 2f 3d 90 79 e0 bd e2 a8 60 bd b5 86 cd 3d
       0.042809423 -0.10960686 -0.05484856 0.10035459
000170 e8 56 8d bc 25 14 27 be 35 1e c7 3e 9f ec 0b 3e
       -0.017253354 -0.16316278 0.38890234 0.13664483
000180 62 f9 b1 3e fd 14 5b 3d 67 d4 8a be 3c 0d fa 3e
       0.34760576 0.053486813 -0.27115175 0.48838222
000190 c4 e4 6c be c4 14 df 3d 55 07 23 be 9b 93 02 be
       -0.23134142 0.108926326 -0.15920766 -0.1275162
0001a0 f5 bb 96 bd e8 69 05 3f db a0 2d 3e 63 07 7e be
       -0.07360069 0.52114725 0.16955893 -0.24807505
0001b0 4a 3a 79 3e e5 af e3 3d bc 71 67 bd da e8 8f 3e
       0.24338642 0.111175336 -0.05650495 0.2810734
0001c0 d5 4e 0b 3e 64 ae 21 3e e0 3f 9d 3e 52 09 ad bd
       0.13604291 0.15789181 0.30712795 -0.08449043
0001d0 ec dc cb bd 96 f5 e1 3d 77 50 63 be 5f ea 27 3f
       -0.09954247 0.1103317 -0.22198664 0.65591997
0001e0 0e 5d 7b bd f6 5c 7c be fa 8d 94 3e 83 e3 88 3d
       -0.06136804 -0.24644837 0.2901457 0.066840194
0001f0 2c ee 63 bd a0 7c 56 be 11 28 72 3e cf 63 5e bd
       -0.05564706 -0.20945978 0.23648097 -0.054294404
000200 9d b6 f7 3e bc dc 82 be 4e 18 a1 3e 76 45 ab be
       0.4838151 -0.25559032 0.31463856 -0.33451432
000210 6b ca ec 3d 29 ff 85 bc 12 ad 7d 3e e1 12 c2 bc
       0.11562046 -0.016357021 0.24773052 -0.023690643
000220 b4 80 17 be 13 45 95 bc a8 0c a3 be 28 4f 57 be
       -0.1479519 -0.018221414 -0.31845593 -0.2102629
000230 9d e4 7e 3e 4f 7b 0f be d4 c9 2d be 3a a5 0c bf
       0.24891897 -0.14011882 -0.16971523 -0.54939616
000240 c0 99 fa 3d 41 c7 f6 be 0b ae 99 3e 29 8e 00 3e
       0.12236357 -0.48198894 0.30015597 0.1255423
000250 c3 ca e8 bd 3c 6d 3d be 19 b7 2e be d9 4a 88 3e
       -0.11366799 -0.18498701 -0.17062034 0.26619604
000260 13 f3 a1 3d ec 28 39 3e cd c2 4a 3e 42 89 66 3e
       0.07907691 0.18082017 0.19800873 0.22513297
000270 c3 75 99 be 7a 3d 13 be 81 64 50 bc 4b b4 5b bc
       -0.29972658 -0.1437892 -0.0127192745 -0.013409684
000280 85 79 4d 3e 45 82 da be 1d 41 f2 bd 6e ad de 3d
       0.20065887 -0.42677513 -0.118288256 0.10872923
000290 60 a7 98 3d 72 9f ee bd 66 71 d7 be 25 40 d9 3e
       0.07453799 -0.116515055 -0.42078704 0.4243175
0002a0 0d 57 8d be aa 81 c8 ba 8f 44 1a bd 99 97 5b 3e
       -0.27605477 -0.0015297432 -0.03766304 0.21444549
0002b0 d2 ee 78 be 0e 6d 7f 3e 45 af d5 bc a6 59 c2 be
       -0.24309853 0.24943945 -0.026084552 -0.3795902
0002c0 db f6 af 3d 82 fa cf 3d 8d f5 a9 be b4 51 c1 3e
       0.08592006 0.101552024 -0.33195153 0.37757647
0002d0 85 fa 47 be 05 51 31 3e b8 c9 0d 3f 2f ea 48 3d
       -0.1952916 0.17316063 0.55385923 0.04905146
0002e0 51 ff 2c be ff dd 25 be 07 bd d5 3d 86 91 8e 3e
       -0.1689427 -0.16197966 0.10436445 0.278454
0002f0 d0 63 80 be 71 27 3f be 28 52 de bd 44 c3 d1 be
       -0.2507615 -0.1866739 -0.10855514 -0.40969288
000300 47 2f fe 3e 2b 63 b8 3d df 9b 5a be 33 ce 9a 3c
       0.49645445 0.0900329 -0.21348523 0.018897152
000310 a5 1e 96 bb b6 6b 32 3e 90 f8 05 3c 9e ed 98 3e
       -0.00458129 0.17423901 0.008176938 0.29868788
000320 9b 34 4b 3e 42 b1 b4 be 08 4c 98 3e 1e 3c 2e 3e
       0.19844286 -0.35291487 0.29745507 0.1701512
000330 b5 ab c2 be eb 42 b3 be d1 c4 3e 3e 06 77 95 3d
       -0.38021627 -0.35011992 0.18629767 0.072980925
000340 82 8d 10 be 50 71 95 3e cb ba d3 3e 8c 00 19 be
       -0.14116481 0.29188013 0.4135345 -0.14941615
000350 e8 aa a7 be d5 38 99 bd 5d 01 4d 37 1f 0a 9c 3d
       -0.3274758 -0.07481543 1.221927e-05 0.07619118
000360 7a 18 10 3f 33 1d e5 3e da a0 3d 3e 12 4d a3 3c
       0.5628735 0.4474884 0.18518391 0.01993421
000370 6a 80 9e 3c 7e 17 5f 3e dd 27 be bd 91 9b 34 bd
       0.019348342 0.21786305 -0.09284947 -0.044093672
000380 5d b3 56 3e a8 75 5c 3e 42 b7 b7 3e bb 23 fb 3c
       0.20966859 0.21529257 0.35882002 0.030656686
000390 be fc af 3e 2a a6 e9 bd 24 fe f1 bd 49 72 9c 3d
       0.34372514 -0.114086464 -0.118160516 0.07638986
0003a0 93 f5 a5 be 1e f7 68 bd 94 8d 35 3e 71 76 8a 3e
       -0.3241392 -0.056876294 0.17729789 0.2704349
0003b0 73 67 9c be 5b 51 32 be c3 1a 84 bd d9 ef 4a be
       -0.30547675 -0.17413847 -0.06450417 -0.19818057
0003c0 ae 1c ca be 7a 5d a9 3c d2 73 b1 3e 94 78 e6 bd
       -0.39475006 0.020674456 0.34658676 -0.11253467
0003d0 a7 46 15 3e 41 af 73 3d 7b b7 65 be 52 eb 5b bc
       0.14577733 0.059493307 -0.22433273 -0.013422804
0003e0 4a dc d8 be 48 42 48 be c0 b2 ae bc b2 99 b4 be
       -0.42355567 -0.19556534 -0.021325469 -0.3527351
0003f0 6b ba 83 3e 11 c9 23 bf 9d ba 69 bc 27 55 87 bd
       0.25728163 -0.6397868 -0.0142656835 -0.066080384

policy_net.module_4.weight f4 [32, 32]
000000 2d 8e 5f 3e d1 f5 81 be 4f 5c e5 be 98 0a 9f 3e
       0.2183158 -0.25382856 -0.44796988 0.3106277
000010 15 83 5b be 34 8e cb be d6 87 48 be 2d 83 e6 3d
       -0.21436723 -0.3975693 -0.19583067 0.112554885
000020 f2 93 a7 bd 06 d5 27 be 33 67 b1 3e 65 00 84 3e
       -0.08182515 -0.16389856 0.34649047 0.2578155
000030 9a fc 4c be ed 4f 07 be 8d a5 f2 bd 74 75 aa be
       -0.20018235 -0.13214083 -0.118479826 -0.33292735
000040 48 cc e7 bd 32 d7 8d bd d4 fd aa 3b 19 47 71 3d
       -0.113182604 -0.06925811 0.005218247 0.058905695
000050 68 4e a3 be 39 61 a0 3d 53 6b d7 be 70 c2 1d bf
       -0.31895757 0.07831044 -0.4207407 -0.61624813
000060 98 91 95 3e 18 24 56 3e 94 90 d7 bd f7 c5 9d 3d
       0.29212642 0.20912206 -0.10525623 0.077037744
000070 4a ab f1 be 82 31 93 3d 3e 4f fd 3d 05 5d 63 3e
       -0.47200996 0.07187177 0.1236863 0.22203453
000080 82 fe 9c 3e a8 f2 ab 3e e5 71 54 be 2b c0 87 be
       0.30662924 0.3358357 -0.20746572 -0.265138
000090 a9 04 53 bf 36 1c 01 be 2f 17 94 3d dd be 86 3e
       -0.82428986 -0.12608418 0.072309844 0.26317492
0000a0 9d 4b 22 3e a2 00 be bd b3 4e f9 bd 12 88 94 3d
       0.15849157 -0.092774644 -0.12173214 0.07252516
0000b0 3b 48 3a 3d 18 2a 4b be f3 37 9e bd 3f f0 e9 3e
       0.04547904 -0.19840276 -0.07725515 0.45691106
0000c0 cf 83 93 3d 62 17 78 3e 28 8b a6 3d 0e ad 13 be
       0.07202875 0.2422767 0.08132011 -0.14421484
0000d0 dd c0 92 3e 16 09 bb bd 14 4d c8 bd 9c dd 4d be
       0.28662768 -0.091325924 -0.097803265 -0.20104069
0000e0 b8 e3 dd 3d 81 de dd 3d cb b0 1b 3d 5b d0 fe 3e
       0.108344495 0.10833455 0.0380104 0.49768338
0000f0 c0 e4 87 bd 7d 0c 32 3e d4 ea 88 3e eb 6d db be
       -0.066354275 0.17387576 0.2674166 -0.42857298
000100 31 7c b8 3d 83 3c d4 3e 8a d1 36 3e f2 67 f3 3c
       0.09008063 0.41452417 0.1785337 0.02971265
000110 6c d4 51 be 73 e3 51 be 3f 66 01 be d3 38 23 be
       -0.20491189 -0.20496921 -0.1263666 -0.15939645
000120 22 26 07 3e 10 1a 0c bd 65 ad ff 3d fb 8d 48 3e
       0.1319814 -0.034204543 0.12484244 0.19585411
000130 8a 3d 42 3e bf 68 26 bf 88 fd 53 3e 75 4e 1f be
       0.18968788 -0.6500358 0.20702183 -0.15557273
000140 fb 8b 25 be e2 14 0f bf 6c 79 10 be 81 ac ad be
       -0.1616668 -0.5589124 -0.14108819 -0.33920673
000150 6a 99 f0 bc 59 86 9c 3e b1 2b 85 3e a6 75 63 be
       -0.029370029 0.3057125 0.26009896 -0.22212848
000160 33 39 8d be 4b cf 64 3e 4f 85 ce 3e 53 0b 96 be
       -0.27582702 0.22344701 0.4033608 -0.29305515
000170 44 a2 d1 bd 0f 68 d7 bc dd 5e fb 3e 81 4a 81 bd
       -0.10236028 -0.026294736 0.49095812 -0.063130386
000180 d9 f1 0c be f3 29 1a bf fa df a0 be 57 89 00 bf
       -0.13764133 -0.6022026 -0.3142088 -0.50209564
000190 82 ff 01 be 56 22 60 bc ed a7 c7 3c 96 5a 7e 3c
       -0.12695125 -0.013680061 0.024372065 0.015524527
0001a0 2e e5 02 bd bc be 15 3e 8a bc f6 3e 8d 15 0f 3e
       -0.031956844 0.1462354 0.4819072 0.13973065
0001b0 b5 cf 2d 3e 46 ed e7 be 92 7e 1b 3f 1a cc a9 bc
       0.16973765 -0.45298213 0.60740006 -0.020727206
0001c0 5d b6 63 be 64 03 7b 3e c3 a5 41 3e 46 ad 05 3e
       -0.22237535 0.24513012 0.1891089 0.1305438
0001d0 ae 4d 95 3e 0c 79 95 bc cb dc 3e 3e 77 e3 a9 bd
       0.29160827 -0.018246196 0.18638913 -0.082953386
0001e0 a8 f0 be be 98 04 86 bd 97 ee c4 bd 4b a5 bd 3d
       -0.3729298 -0.06543845 -0.0961582 0.09260043
0001f0 fc 26 12 be 5c 6c 59 3e a4 79 98 3e a1 04 13 3e
       -0.14272684 0.21232742 0.29780304 0.14357235
000200 e0 57 d5 3e 87 c2 5e be 6e dd 50 be 31 34 4a be
       0.41668606 -0.21753894 -0.20396969 -0.19746472
000210 8b 0c 80 3c 0f a7 9b 3e 93 a2 11 3f fe 27 0f bf
       0.015630981 0.30400893 0.56888694 -0.559204
000220 2f 5a 38 be 51 ac fb bd c1 ef ab be a9 42 a5 3e
       -0.18003152 -0.12288726 -0.33581355 0.3227742
000230 17 f6 c1 be a5 da 40 be f5 46 b2 3c 09 7e bb bc
       -0.37883064 -0.18833406 0.02176235 -0.022887247
000240 30 bc ce 3d 9e e5 27 bd 33 10 98 be 2c 44 8f bd
       0.10094488 -0.040990464 -0.2969986 -0.06995425
000250 7c d0 90 be f8 ad 90 bd e0 96 65 3e b2 eb 75 be
       -0.2828406 -0.07064432 0.22420835 -0.24015692
000260 e0 9f 19 be f0 01 90 be ec 38 ce bd 8f 06 9a 3d
       -0.15002394 -0.28126478 -0.10069451 0.07520782
000270 82 1b a1 be 17 ef 8d bd 23 57 82 3e cc cd 80 be
       -0.314663 -0.069303684 0.25457105 -0.2515701
000280 b6 ef dc be 83 ce c6 bd ce 49 1c 3e e3 35 71 3e
       -0.43151635 -0.09707358 0.15262529 0.23555712
000290 60 bf b2 be 17 a7 e7 3c cd b3 4c 3e e9 b8 77 3e
       -0.34911633 0.028277917 0.19990464 0.24191631
0002a0 c8 8d 2d be 9e 2b 66 3e 18 df 03 be b3 f2 ac be
       -0.16948617 0.22477576 -0.12878072 -0.33778915
0002b0 28 90 8b be be d3 77 3e 09 4a 0d 3f f6 22 b4 be
       -0.2725842 0.24201867 0.55191094 -0.35182923
0002c0 30 60 ca bd 45 c1 fd bc 34 b9 a3 be e9 cf b0 bd
       -0.098816276 -0.030975947 -0.31977236 -0.08633406
0002d0 61 c6 06 be 38 b8 b0 3e c0 74 b4 bc ea 3a 2b 3e
       -0.13161613 0.34515548 -0.022028327 0.16721693
0002e0 90 54 22 3e e9 3f 98 3c 0a 3b 11 3d 9a 4f dd 3d
       0.1585257 0.018585162 0.035456695 0.108061984
0002f0 23 d8 14 be 5a 8f 42 3e d2 80 ce 3d 81 1d c0 be
       -0.14535575 0.18999997 0.10083164 -0.3752251
000300 58 6a 2f 3e a5 5f 24 be 10 92 b7 be df 0f cc 3d
       0.1713041 -0.1605211 -0.35853624 0.09963965
000310 43 c4 4b bd 6e f7 33 be 27 95 f9 bc 93 e7 79 3e
       -0.049747717 -0.17574856 -0.03046663 0.24404745
000320 f9 88 c2 3e 82 7a 48 3e 41 40 14 be a4 e7 2a bd
       0.37995127 0.19577983 -0.14477636 -0.041724816
000330 ba 18 2d 3e 48 c1 98 be 4f 90 94 bd 96 83 5b be
       0.16903964 -0.29834962 -0.07254087 -0.21436915
000340 09 d0 c9 3d b0 68 ae bd 70 58 26 3e 38 3a d6 3e
       0.09854133 -0.08516061 0.16244674 0.41841292
000350 21 4c 66 be c4 5f 3c 3e 51 0e 21 3f 6a fa 0a 3e
       -0.22489978 0.18395907 0.6291247 0.13572088
000360 b6 cf 5e 3d 8a 24 34 3c 6f 39 fd 3d c4 9c c0 3e
       0.054397307 0.01099504 0.1236447 0.37619603
000370 a0 e6 a7 bd 4f a7 2a bf 12 1d cc bd e6 21 f5 bd
       -0.08198285 -0.6666154 -0.09966482 -0.11969356
000380 89 b1 1f 3e 60 ea eb bd e5 96 13 be 68 ed 94 3e
       0.15595068 -0.11519313 -0.1441303 0.29087377
000390 e2 e6 fc bc 36 f4 8d be 3a 0d 26 bd e8 bb 51 bc
       -0.030871812 -0.2772538 -0.040539958 -0.012801148
0003a0 0e c6 d9 3d 71 98 9c be 61 30 ca be 5e c4 79 3d
       0.10633479 -0.30585054 -0.39490035 0.060978286
0003b0 2b 94 f0 be 20 ce be be 03 7a fb 3e 81 76 32 be
       -0.46988043 -0.37266636 0.49116525 -0.17428018
0003c0 c5 90 88 be 9f 0e a3 3e db e8 01 3f c5 20 f9 be
       -0.2667295 0.31847093 0.50745934 -0.48657814
0003d0 89 f1 d7 3d 13 a2 a4 be ba 42 15 be 89 55 27 3d
       0.10544116 -0.32154903 -0.14576235 0.040853057
0003e0 ce 15 d2 bd 97 92 09 bd 35 80 40 3e 48 8c 43 bd
       -0.10258065 -0.033587065 0.18798907 -0.047741205
0003f0 22 a3 76 3e 3c 4e a3 be f7 1c 90 bc 75 63 66 3b
       0.24085668 -0.31895626 -0.017591937 0.0035154496

policy_net.module_4.bias f4 [32]
000000 f5 97 98 3d 00 bc 99 3d 17 d4 95 3d 25 fe a0 3d
       0.074508585 0.07506561 0.073158436 0.07860974
000010 a6 f7 87 3d 12 09 7d 3d e3 8c 8f 3d 6a 73 8b 3d
       0.06639032 0.06177623 0.07009294 0.06809123
000020 9e b9 93 3d 0c 45 85 3d 94 75 9c 3d dd fd 87 3d
       0.07213138 0.0650731 0.07639614 0.066402175
000030 f3 31 8f 3d 77 f4 8f 3d 99 ca 8d 3d 76 7e 8f 3d
       0.06991949 0.0702905 0.06923408 0.070065424
000040 c1 3d 82 3d 01 ae 8a 3d e5 b4 84 3d 3f 0c 88 3d
       0.06359435 0.0677147 0.064798154 0.06642961
000050 34 fd 8f 3d d2 aa 92 3d b7 57 8c 3d f3 4d 9e 3d
       0.070307165 0.07161488 0.06852668 0.077297114
000060 99 fc 8b 3d c0 e2 8e 3d b7 d9 90 3d a3 f9 a4 3d
       0.068352886 0.06976843 0.07072776 0.08055427
000070 fb 59 97 3d 31 46 89 3d 46 c8 9c 3d d3 3b 91 3d
       0.07390209 0.06702841 0.076553866 0.07091489

policy_net.module_8.weight f4 [10, 10]
000000 00 79 13 3b 3a ce 9a 3b 60 5c aa bb 7c dd 09 3a
       0.0022502542 0.004724291 -0.0051990002 0.0005259139
000010 46 76 72 3a df a2 81 ba cb fb 5e bb fb 7a be ba
       0.00092491915 -0.0009890458 -0.0034024592 -0.0014532501
000020 50 0b 71 3a ee 49 b0 bb 5a ba 10 3c 20 5e a9 3b
       0.0009195106 -0.005379907 0.008833492 0.0051686913
000030 46 46 a6 3b 00 75 45 3c 31 ae b5 3c b6 9a 45 3c
       0.005074295 0.012051821 0.022177787 0.012060812
000040 56 96 6c 3b 0c 15 d9 3c 2f ca 7a 3c b9 15 da 3c
       0.003610035 0.026499294 0.015306993 0.026621686
000050 ac 3c ca 3d b6 80 c6 3d c8 5d c4 3d d5 bd c2 3d
       0.098748535 0.096925184 0.095882 0.09508864
000060 da 8d fc 3d 92 2d 04 3e 9d 2f cf 3d 63 32 e4 3d
       0.123317435 0.12908009 0.101165034 0.11142423
000070 3a 36 d4 3d da 1f fe 3d 2c 43 0b 3d eb 8f 1f 3d
       0.103619054 0.12408419 0.033999607 0.03895561
000080 86 fc 1a 3d 12 a7 17 3d fa 4a 81 3d ac 95 b9 3d
       0.03783848 0.037024565 0.06313129 0.09061751
000090 c1 7d 0d 3d f3 40 73 3d 56 c2 25 3d d9 00 9e 3d
       0.034543756 0.059388112 0.040468536 0.077150054
0000a0 7d de 84 bb aa a6 27 3b f9 f8 da 3a cd ed 96 ba
       -0.004054843 0.0025581517 0.001670628 -0.0011514962
0000b0 1b a5 96 ba 86 d8 9b bb 46 39 94 3a bb 1c 00 bb
       -0.0011493297 -0.004756036 0.0011308573 -0.0019548375
0000c0 9c 84 d8 3b 3e e8 e7 39 f2 4a da 3a d4 1f 20 3c
       0.006607605 0.00044232787 0.0016654416 0.009773213
0000d0 83 57 91 3c 6d 74 91 3c 8c d7 14 3d 94 b0 56 3d
       0.017741924 0.017755711 0.036338374 0.05241449
0000e0 44 df b1 bb 58 f8 32 3d cb 54 50 3d a5 67 19 3d
       -0.0054282267 0.04369387 0.050862115 0.03745236
0000f0 57 d8 ce 3c 80 3c fa 3c 4d 12 ee 3c 6c 8c f6 3c
       0.025249643 0.030546427 0.02906146 0.030096255
000100 41 3f c2 3c f1 b3 28 3c cd cf db 3c f3 86 c0 3c
       0.023711802 0.010296808 0.026832486 0.023501849
000110 d5 75 c0 3c 8d 1b 90 3c 2c 97 f4 3a 73 e6 63 3a
       0.023493687 0.017591262 0.0018660775 0.00086937024
000120 06 80 c1 ba 75 e2 51 3b 17 f3 61 bb 66 83 6c bb
       -0.0014762885 0.0032025848 -0.0034477168 -0.0036089062
000130 9b dd c3 3b 50 6f 57 bb 17 bc 61 bb c7 ca 04 b9
       0.005977345 -0.0032872744 -0.0034444386 -0.00012664041
000140 00 78 46 bd 55 df 3f bd 9d 59 43 bd b8 44 29 bd
       -0.048454285 -0.046843845 -0.047692884 -0.0413253
000150 46 cf ac bd 73 7f 02 be 2b 50 33 bd 4f 63 97 bd
       -0.08437972 -0.1274393 -0.043777626 -0.073919885
000160 b0 bf 4f bd a3 57 c7 bd 65 9b ad 3b 57 0d 70 bc
       -0.050719917 -0.09733512 0.0052980655 -0.014651618
000170 f4 1d 92 bc 01 db 90 bc aa c7 23 bd bf d5 4f bd
       -0.017836548 -0.017682554 -0.039985336 -0.050740954
000180 31 22 c1 3a 01 56 52 bd 98 ed 3b bd ec ca 0b bd
       0.0014734921 -0.05135155 -0.045880884 -0.03412907

policy_net.module_8.bias f4 [10]
000000 00 00 00 00 00 cc 30 bd 8c 1a d4 3d b6 f1 90 3d
       0.0 -0.0431633 0.10356626 0.07077353
000010 00 00 00 00 fe 47 63 3d c1 aa f3 3c 00 00 00 00
       0.0 0.05548858 0.029744508 0.0
000020 8c 93 b1 bd 5c 36 63 bd
       -0.086707205 -0.055471763

value_net.module_0.bias f4 [32]
000000 8e da 89 3d 1c 03 88 3c f8 d6 ef 3d 28 bc 82 3d
       0.06731139 0.016603045 0.11710924 0.06383544
000010 2c 51 96 3c 82 68 18 3c d1 44 cf 3c 54 da cd 3d
       0.018349253 0.00930226 0.025301369 0.100514084
000020 fd 0a f8 bc b3 5b 41 3c d6 ce b3 bc ff 02 7d 3d
       -0.030278677 0.011801648 -0.021949213 0.061770435
000030 a4 48 c9 3c 8b 73 37 3d 38 d9 c6 bc 58 a1 08 bd
       0.02457077 0.044787925 -0.0242735 -0.033356994
000040 7e 47 8b 3d f6 e9 77 bd 64 22 04 bd db 2c fe 3c
       0.068007454 -0.060525857 -0.03225936 0.031027248
000050 97 bf d9 bc 87 49 23 3d 5f 28 ec 3b c0 28 1a bc
       -0.026580615 0.039865043 0.007206961 -0.00940913
000060 f2 35 80 bd 2d d0 ba bd 84 bd ad 3c 81 3c 89 bd
       -0.06260289 -0.09121738 0.021208532 -0.06700993
000070 9e ff a9 3a 57 b6 d9 bc 85 98 fb 3b 7e 2a 94 3c
       0.0012969857 -0.026576204 0.007678094 0.018086668

value_net.module_0.lin.weight f4 [32, 32]
000000 3a 71 89 3c 1e 73 3f be b8 fa 27 3e 9f 89 b6 3e
       0.016777623 -0.18696257 0.16404235 0.35651872
000010 c7 24 ad 3e a3 77 ab 3e 56 17 30 3e 03 66 05 3e
       0.3381712 0.33489713 0.17196402 0.13027196
000020 00 85 e3 3c 84 44 80 3d 4c be 23 3e d4 bf 7d be
       0.02777338 0.06263068 0.15990561 -0.24780208
000030 16 7c a7 3c e5 96 c9 3e 20 51 cc 3d f9 ac 8b bd
       0.020444911 0.39372936 0.09976411 -0.06820101
000040 81 21 e1 be d2 e7 82 be 46 57 3b be 7a 57 fc 3d
       -0.43970874 -0.2556749 -0.18295011 0.12321372
000050 7a cc 9a be e0 77 8d bc dc 1b 97 be 35 aa 2a bf
       -0.30234128 -0.017269075 -0.29513443 -0.66665965
000060 4e d4 ba 3e 44 f4 00 3e 3e df aa be aa 09 37 3e
       0.364901 0.1259318 -0.33373445 0.1787478
000070 cc a0 b3 bd 7a 14 64 3e 5c fd 48 be c6 d4 c3 3e
       -0.08770904 0.22273436 -0.19627899 0.3824827
000080 7b 2c 64 3e 5b 5d 8b bc 3b 38 0a bf 22 67 10 3e
       0.22282593 -0.017012289 -0.5399205 0.14101842
000090 37 28 3d 3e 55 38 d6 be 3f 75 44 3e b3 c4 0a be
       0.18472372 -0.41839853 0.19185351 -0.13551597
0000a0 10 a5 a8 3c e4 f7 60 bd dd 5f 3c 3e 65 9c 86 bd
       0.02058652 -0.054923907 0.18395944 -0.06572799
0000b0 86 85 02 bf 9c a8 27 3e da b0 1c be 05 6c b0 be
       -0.5098499 0.16372913 -0.15301839 -0.34457412
0000c0 02 09 45 be 37 17 7b 3e e6 2b 10 be 63 27 f3 bd
       -0.19241717 0.24520575 -0.14079246 -0.11872747
0000d0 25 5b a1 3e b4 78 3a be 8d 64 16 be d6 06 2e 3e
       0.3151485 -0.18210107 -0.14686795 0.16994795
0000e0 80 e4 b8 be bc aa 94 bc 8e 42 ff 3d 4f 04 01 3f
       -0.36111832 -0.018147819 0.12463866 0.503972
0000f0 14 9e 94 be 48 5f 7b 3e 64 16 22 3e 15 62 2f 3e
       -0.29026854 0.24548066 0.15828854 0.17127259
000100 34 a1 6c be 53 55 03 bf f7 9a 42 3e d2 05 93 bd
       -0.23108369 -0.5130207 0.19004427 -0.071788445
000110 ff 45 9b bc 97 53 20 bd 37 24 d2 bd 24 e7 99 be
       -0.018954275 -0.039142217 -0.10260814 -0.3005916
000120 6b a1 3b bc dc b0 4e be 15 03 9f 3e 54 81 c7 bc
       -0.011452059 -0.20184654 0.3105704 -0.02435366
000130 b8 f9 59 be 2a 0f 60 be 79 6e 2d be e5 e9 bc ba
       -0.21286666 -0.21880785 -0.16936673 -0.0014412968
000140 d4 4c f2 3d 30 33 92 3e 22 a4 44 3f c6 9c 9a 3e
       0.1183106 0.28554678 0.76812947 0.30197734
000150 89 94 27 be c5 8a fd 3d f0 43 1d 3e c4 16 cd be
       -0.16365255 0.12379984 0.15357947 -0.4005643
000160 b7 fe eb be 5e 99 04 be 5b 1f 56 be f6 7a 1f 3e
       -0.4609277 -0.1294913 -0.20910399 0.1557425
000170 4a d4 88 be 17 83 4d be 92 1c 13 3d f4 f0 6d 3d
       -0.26724464 -0.20069538 0.03591592 0.05809112
000180 d5 81 05 be 75 0a cb be 50 b8 2c be ba c0 02 3f
       -0.13037808 -0.39656416 -0.16867185 0.5107533
000190 04 f5 57 bd bf 3b 1d 3e 3d be e4 3e 2d b3 30 be
       -0.0527239 0.15354823 0.4467639 -0.1725585
0001a0 8c 5b 9f 3d cc 2c 72 3e e3 54 63 be 6e 18 36 3e
       0.07781133 0.23649901 -0.2220035 0.17782757
0001b0 86 48 84 3e 5a 84 86 3e 11 d3 4a be ee 35 e3 bc
       0.2583658 0.2627285 -0.19807078 -0.027735677
0001c0 f9 72 87 3d 4b e0 dd 3d 3d 90 95 bc 16 a0 c4 3e
       0.06613726 0.10833796 -0.018257255 0.38403386
0001d0 14 d3 9e 3e 12 23 cc be 87 d1 7f 3e 1e 38 08 3d
       0.31020415 -0.39870507 0.24982272 0.033256643
0001e0 c9 d6 5d 3d e8 b4 09 3f f6 12 d0 be 60 a5 ba be
       0.054159913 0.53791666 -0.40639466 -0.36454296
0001f0 17 5b 4c 3d 56 1c f6 3d e6 5d 32 be 33 04 67 be
       0.049891558 0.120171234 -0.17418632 -0.22560196
000200 64 57 91 be 56 a4 fc bc 93 3e a8 3e 32 ce 9b 3e
       -0.28386986 -0.03084008 0.3286024 0.30430752
000210 80 36 e1 bd 06 12 4c be 62 6b 78 be 3f eb c6 3d
       -0.10996723 -0.1992875 -0.24259713 0.097128384
000220 1e 7d 8b be cc 14 f6 3d 97 01 f6 bd d9 e5 ca 3d
       -0.27243894 0.120156854 -0.12012022 0.09907121
000230 79 9b af 3e 1f 1f 29 3f 6d 35 b6 3c de 91 de 3e
       0.34298304 0.6606311 0.022242272 0.43470663
000240 de 9a d1 be f6 2f 8e 3d d4 55 ba 3d b5 54 8f 3e
       -0.40938467 0.069427416 0.09098402 0.27994314
000250 e7 14 62 3d cf 2a 04 bc 85 64 39 bd 93 c8 78 3d
       0.055195715 -0.008066847 -0.04526188 0.060738157
000260 f5 be b0 be 3a e8 1e be 49 79 91 3e b7 3a 34 bd
       -0.3452069 -0.15518275 0.28412846 -0.044001307
000270 33 d4 ce 3e 91 3a 83 3d ab 6a d7 3e fa b1 f5 3d
       0.4039627 0.06407655 0.4207357 0.11996837
000280 b3 a5 b0 bd 71 54 66 3c d0 c5 3a be 74 16 86 bc
       -0.086253546 0.014058218 -0.18239522 -0.016368128
000290 c0 db 87 be b0 99 bc be d0 1c a0 3d df b6 0c 3e
       -0.26534843 -0.36836004 0.078179955 0.13741635
0002a0 81 bb 58 bd 97 68 7f 3d 99 80 9a 3e 4a fe 22 3f
       -0.052913193 0.062355604 0.30176237 0.63669264
0002b0 dd 22 76 be 2b cc aa bd 35 8a 06 be 72 50 47 3e
       -0.24036737 -0.08339723 -0.1313866 0.19464281
0002c0 23 8c 4e 3e 66 f3 21 3b a1 1b 88 be 67 b8 5f be
       0.20170645 0.0024711727 -0.2658358 -0.21847688
0002d0 53 49 f5 be 71 e2 95 be d3 13 87 3e b8 67 23 be
       -0.47907504 -0.29274324 0.26382312 -0.15957534
0002e0 e6 e1 d7 3d 8d a4 86 be 49 ad b5 be ca 18 e7 3e
       0.105411336 -0.26297417 -0.3548377 0.451361
0002f0 05 79 cc 3e 44 77 75 3e d8 a9 d1 3c bc b5 d3 bd
       0.3993608 0.23971277 0.025593683 -0.103373975
000300 1a 18 b7 be 06 ce 67 3d 9c fd 1d be 8b e7 4a bd
       -0.35760576 0.056592964 -0.15428776 -0.049537223
000310 e4 26 22 3e db a7 c5 3d 96 a3 9b 3e ca 6d 9e 3e
       0.15835148 0.096511565 0.30398244 0.30943137
000320 93 8d 90 3e b4 ff c8 3c 80 58 c4 3e 47 57 dd 3e
       0.28233013 0.024535991 0.3834877 0.4323065
000330 f0 a1 12 3e b5 ec ed 3d 63 e2 d8 bb 73 c0 9d be
       0.14319587 0.11617414 -0.0066187843 -0.3081089
000340 d7 0d 10 3f 4e 46 ed be a9 14 db bd a9 63 ea 3d
       0.5627112 -0.463427 -0.106973 0.1144479
000350 0c 22 ed 3e 31 1d 03 3d 6d 0d c6 bd f3 a0 86 be
       0.46315038 0.03201026 -0.096705295 -0.2629467
000360 60 d3 2a 3d 41 d6 d0 3c 74 5c c9 3d 75 09 48 be
       0.04170549 0.02549279 0.09832087 -0.19534858
000370 86 74 3a 3e d4 bf e4 bd ef ab 9b 3e 20 42 e6 3e
       0.18208513 -0.11169401 0.30404612 0.44972324
000380 86 a9 17 bf 27 32 88 3d bd 4e 26 3c 0a 5a 27 3e
       -0.5924305 0.06650191 0.010150609 0.16342941
000390 6a 05 1f 3e 09 06 87 3d 59 b5 bd 3c da db 8e bd
       0.15529409 0.06592948 0.023157762 -0.06975527
0003a0 fb 9b 33 3d 74 29 d4 3e a5 47 5d 3e ad 06 70 be
       0.043849926 0.41437876 0.21609361 -0.23440047
0003b0 76 fb e0 3e 8b 49 56 3d 52 36 56 bd e2 ca 29 be
       0.4394185 0.05231623 -0.052297898 -0.165813
0003c0 af 37 b0 be 24 8d 80 3e 27 18 30 3e 56 82 13 bd
       -0.34417483 0.25107682 0.17196713 -0.03601297
0003d0 27 ba cb bd ba 6b da be a8 9c b8 3c 6a 11 b9 3e
       -0.09947615 -0.42660314 0.022535637 0.36146098
0003e0 20 9d 9e 3e 5e c3 1e bf f0 08 ed bd 5b bd a5 bd
       0.30979252 -0.62016857 -0.1157397 -0.08092757
0003f0 e9 a2 d0 be 46 45 8d be b9 8c 4a 3c 07 ed a7 3d
       -0.4074929 -0.27591914 0.012362652 0.08199506

value_net.module_2.bias f4 [32]
000000 b3 dc 3e bb 76 9d 6f 3d ab 30 23 bb 59 19 5b 3d
       -0.0029123246 0.058499776 -0.0024900835 0.05349097
000010 f0 e3 df 3c 50 7b 91 3c 55 6b d1 bb 52 9f 14 3d
       0.027330369 0.017758995 -0.006390969 0.036284752
000020 07 5d f5 3c 7a 3b 0e 3d 47 45 2d bb 1d 4c c1 3c
       0.029951585 0.03472469 -0.0026438998 0.023595864
000030 f4 91 94 3c c8 d8 ab bd 76 33 7a 3c 01 35 2a 3d
       0.018136002 -0.08390957 0.015271058 0.041554455
000040 74 61 1e bc 20 2e 0a 3b 25 69 52 3d e1 c4 4e 3b
       -0.009666789 0.0021084622 0.051369805 0.0031550454
000050 d7 ba b0 bd 76 60 e8 3b f7 a7 1d 3d 9d ec 15 bd
       -0.08629387 0.007091577 0.038490262 -0.036602605
000060 2e a2 04 3c 27 4a 4b bd 54 14 0c bd 31 de 48 bc
       0.008095307 -0.049631264 -0.034199074 -0.012260006
000070 19 89 9d bc 51 02 54 3d 0e 29 94 bd 71 a8 c9 3c
       -0.019230412 0.05176002 -0.07234393 0.024616452

value_net.module_2.lin.weight f4 [32, 32]
000000 ab 51 0b bd 41 bb 21 be f2 ea 09 3e 85 88 0c 3b
       -0.03401343 -0.15794088 0.13468531 0.0021443677
000010 e4 46 84 3d 9c 6e bb be 17 da ef be 39 4e 89 be
       0.06458834 -0.36607826 -0.46846077 -0.26817492
000020 28 0b 49 3e 17 00 1b bd b8 91 94 be 72 39 ba 3d
       0.19633162 -0.037841883 -0.29017425 0.09092988
000030 9d 8e 17 bc 70 ab 40 bf aa 82 13 3e 1c f3 9a 3e
       -0.00925031 -0.7526159 0.14405313 0.30263603
000040 18 e6 0c be be 1e 8f be a1 d3 48 3e 37 36 3b 3e
       -0.13759649 -0.27953142 0.1961198 0.182824
000050 9a 87 2c 3d a7 73 91 3c 45 f0 70 3e 6d 3d 71 3e
       0.042121507 0.017755343 0.23529156 0.23558588
000060 cb bd 7c be 41 8e b0 3d b9 41 48 3e 72 cc 87 be
       -0.24681775 0.08620883 0.19556321 -0.26523167
000070 aa c6 b1 bc 96 5b 42 3e c2 e5 f0 be 17 dd 9b 3e
       -0.021701176 0.1898025 -0.4705029 0.30442116
000080 16 da 7f be 74 40 ec 3d 92 d4 1b be 5b 7f e7 3d
       -0.24985537 0.11535731 -0.15217808 0.11303588
000090 ef aa 2c 3e 1f c1 69 3e 7e 19 c9 3e 40 ba e2 bc
       0.16862081 0.22827576 0.39277261 -0.027676702
0000a0 f6 f4 af 3e 06 a2 ca 3e 2a 67 03 be 6f b0 86 be
       0.34366578 0.3957674 -0.12832323 -0.26306483
0000b0 cd 89 ca 3e 62 b7 ae be 72 f5 9a 3e 35 a1 fb 3e
       0.3955826 -0.34124285 0.30265385 0.4914643
0000c0 84 c6 ba 3e 81 a7 95 3d 28 2b 42 be cc 8b 56 bd
       0.3647958 0.073073395 -0.18961775 -0.052379414
0000d0 b3 83 a5 3c fc f4 21 be 60 16 dd 3d c2 8e 65 be
       0.0202044 -0.1581611 0.10795283 -0.22417739
0000e0 7c 9e 18 3f 16 28 1c 3e 68 38 68 3e 22 b5 f1 bd
       0.5961683 0.15249667 0.22677767 -0.118021265
0000f0 91 fc 61 be b7 f5 90 3e 5d 3f 55 bd 27 e9 d4 bd
       -0.22069003 0.28312466 -0.05206238 -0.10396033
000100 19 ae e1 bd d6 b6 b5 be 89 38 29 be 95 8b 0d be
       -0.110195346 -0.35491055 -0.16525473 -0.13822778
000110 b7 b2 91 be 27 ff e5 be 8c ad 09 be 3b ab 52 be
       -0.2845666 -0.44921228 -0.13445109 -0.20573132
000120 3e cd eb bd d6 46 a2 be 03 95 a5 3e bf ff c6 bd
       -0.11513756 -0.3169467 0.3234025 -0.097167484
000130 54 9a a4 3e 98 06 86 3e 3e 57 c3 3b c4 87 b5 3e
       0.32148993 0.26176906 0.005961328 0.35455143
000140 13 94 a2 3e 9b 3f 2b be 5b 33 77 3e dc 60 23 bd
       0.31753597 -0.16723482 0.24140684 -0.039887294
000150 40 dc 90 3d bb f3 a3 be 67 47 76 be 34 8d 35 be
       0.07073259 -0.3202189 -0.24050675 -0.17729646
000160 9f 79 92 3e 98 6b fd 3d 29 4b 87 3e 1b 2f 88 bd
       0.28608415 0.123740375 0.2642453 -0.0664961
000170 72 e4 24 3d d8 4c e6 be 03 d7 29 bc f3 62 76 be
       0.040256925 -0.44980502 -0.010366204 -0.24061184
000180 ab ae 97 be 89 32 16 bf ee 12 6a 3e b0 37 8d be
       -0.2962545 -0.5867086 0.22858784 -0.2758155
000190 d7 bb 8e be 6c 90 83 3e ec a7 2b 3e 91 a7 e2 3e
       -0.27877685 0.25696123 0.16763276 0.44268468
0001a0 bb df db 3e f1 c6 0f bc cc c1 e5 3b 58 26 a3 3e
       0.4294413 -0.008775459 0.007011628 0.3186519
0001b0 14 4c 04 be f3 bd 86 3c 42 25 d9 bd 70 cd 9a 3d
       -0.12919647 0.016447997 -0.106028095 0.07558715
0001c0 32 5f ab 3e e3 fb bd 3a d2 96 4e be 96 8a aa 3e
       0.33471066 0.0014494624 -0.20174721 0.33308858
0001d0 ce b7 89 bd f2 36 d3 be 40 f5 66 3e 81 2f 06 bd
       -0.06724511 -0.41252857 0.22554493 -0.032760147
0001e0 1c 3f c0 be b1 18 70 be 35 60 de 3e 27 b4 42 bd
       -0.3754815 -0.23446919 0.43432775 -0.047535088
0001f0 5c 8f 81 be 1e 80 d5 3d a4 c4 45 3d 81 19 54 3e
       -0.25304687 0.10424827 0.048283234 0.20712854
000200 21 9e b0 3d d5 81 2e 3e 37 d4 dc be 5f 47 e0 3e
       0.08623911 0.17041714 -0.43130657 0.43804452
000210 00 e5 27 bd 8b 9f c9 3d 15 f6 ca bd 4d 02 9c 3e
       -0.040989876 0.098448835 -0.09910218 0.30470505
000220 9c 99 61 3e 02 27 e7 bd 6c 8a 06 3f 18 1b 9c 3e
       0.22031254 -0.11286737 0.52554965 0.3048942
000230 72 a1 6a be 1c 6b a2 bd e7 69 00 3f 6b ba 54 3e
       -0.22913149 -0.07930586 0.50161594 0.20774238
000240 f3 2b 32 bd c8 18 0a bf bc 63 e7 be 98 86 87 3e
       -0.043498944 -0.53944063 -0.4519328 0.26469874
000250 86 0c b7 bc 68 07 6c bd d9 28 c0 3d ef 05 49 3e
       -0.022344839 -0.05762425 0.09382791 0.1963117
000260 00 ca 43 be ad 10 c1 bd ce af 39 be 29 3f ad bd
       -0.19120026 -0.09427009 -0.1813347 -0.084593125
000270 26 29 bc be 9e e1 a5 be 93 25 ca 3d 25 37 1c bc
       -0.36750144 -0.32398695 0.09870448 -0.009534632
000280 a4 4a 0c be db d6 08 3e c5 a2 ef 3e 79 83 a6 be
       -0.13700348 0.13363211 0.4680387 -0.3252218
000290 79 f1 b5 3e d2 5f 00 3f 08 d5 df be df 62 68 bd
       0.35535792 0.5014621 -0.43717217 -0.056734916
0002a0 f3 26 c7 be 28 4a dc be 64 19 2b 3e eb 49 05 be
       -0.38896903 -0.43025327 0.16708905 -0.13016479
0002b0 6c 61 60 3d 28 4a f2 be 37 45 da bd 14 60 fc bd
       0.05478041 -0.47322202 -0.10657733 -0.12323013
0002c0 93 fe e3 3d e3 ab 30 be 6f 8f 8b be ee 4f ef bd
       0.111325406 -0.1725307 -0.2725787 -0.11685167
0002d0 3d a9 62 be b7 6a 1e bd 56 ca fb 3b 74 97 52 be
       -0.22134872 -0.03867599 0.0076840324 -0.20565587
0002e0 86 0f 16 3e 67 18 99 3d 55 ba 13 3d 50 b3 2f be
       0.14654359 0.074753575 0.036066372 -0.17158246
0002f0 77 e7 93 3e f1 ea 49 be db b2 a0 3e 03 57 a7 be
       0.2888753 -0.1971853 0.31386456 -0.32683572
000300 8a 7d 30 3e ba 18 8b bd 97 a2 43 3e 10 b0 5b 3e
       0.1723539 -0.067918256 0.19104992 0.21453881
000310 c7 6d 80 3e 37 5e 1c bd f2 da 2d be 54 7e eb be
       0.25083753 -0.038175788 -0.16978052 -0.45994818
000320 f7 2e 3b 3e 17 0a 87 3e d4 ad ba 3c d6 41 9d 3e
       0.18279634 0.26374885 0.022787966 0.3071429
000330 76 1b c7 3c 31 90 70 3e b4 63 e9 bc 52 e7 dd be
       0.024305087 0.23492505 -0.028489925 -0.43340546
000340 e4 03 66 be 98 61 04 bf 60 b0 b9 3c e6 e7 ca 3e
       -0.22462422 -0.51711416 0.02266711 0.3963005
000350 95 68 2a be 3e 95 59 bd 1f fe 0f be e2 1f f4 3c
       -0.16641457 -0.053120844 -0.14061783 0.02980036
000360 b7 86 aa 3e 38 98 0e 3e 95 e9 a7 3e 20 89 2b 3e
       0.33305904 0.13925254 0.32795396 0.16751528
000370 12 1c d0 3d 84 11 8e bd af e1 26 3f 78 0e 92 3e
       0.10161604 -0.069369346 0.65188116 0.28526664
000380 bc 00 a0 be bb 36 0c be 8f d7 a2 3c d7 ca 62 3e
       -0.3125056 -0.13692753 0.019878177 0.2214769
000390 6b e7 28 3e dc a8 18 3e 85 39 1f 3d 6a 9d 21 3e
       0.16494529 0.14908165 0.038873214 0.15782705
0003a0 27 5b 17 3e 5d 0e ee be 11 7b c2 be 48 9b 84 3b
       0.14780866 -0.46495333 -0.37984517 0.0040468313
0003b0 d3 29 ee 3e e3 5f 99 3e 2b e3 c8 3e fc 51 54 bb
       0.46516284 0.29955968 0.39235815 -0.00323975
0003c0 e8 f0 86 3d 7b a1 41 3e 0c da 1f be e1 d8 60 be
       0.06588918 0.18909256 -0.15610522 -0.21957733
0003d0 c5 b9 94 3d 70 a9 74 3e 91 6a 5b 3e 7a ea 98 3c
       0.07261995 0.2389276 0.2142737 0.018666495
0003e0 ef 3b 07 be db d5 61 3e 11 d6 d5 3e b4 97 e5 be
       -0.13206457 0.22054236 0.41764882 -0.44842303
0003f0 c6 be 33 be c4 bf c0 be 3c e8 e2 3e b0 be f0 3e
       -0.17553243 -0.37646306 0.44317806 0.47020483

value_net.module_4.weight f4 [32, 32]
000000 64 6a 78 bd 0b 18 63 be ba 4d 8d 3e cb 27 1f 3d
       -0.060648337 -0.2217714 0.27598363 0.03885631
000010 0a cf de 3d 50 32 a4 be df ce 81 be 27 66 36 bd
       0.10879333 -0.32069635 -0.25353143 -0.044531014
000020 8e 84 85 be 0b 96 53 be ef 22 1a be f3 69 c6 be
       -0.26077694 -0.20662706 -0.15052389 -0.38752708
000030 65 c9 8f bd 7e e0 6c be e7 04 2b 3e 98 89 52 be
       -0.07020835 -0.23132512 0.16701089 -0.205603
000040 9d 7b 5b be 71 b6 3f be f3 c0 8b 3d e2 3f 7c 3e
       -0.21433873 -0.1872194 0.068239115 0.24633744
000050 9a 03 67 3e 3b 15 2d 3d ac 44 42 3f e2 8f 96 be
       0.22559968 0.042256575 0.75886035 -0.2940665
000060 62 96 ab bd b6 3e 78 bd 88 a8 c2 3e e5 77 bf 3c
       -0.083782926 -0.06060668 0.38019204 0.0233726
000070 25 00 ca 3d 48 ae 74 be 62 92 65 3e 6d ba d4 3c
       0.09863309 -0.23894608 0.22419122 0.025967801
000080 c5 2f da 3b c3 7b da 3d 2e a9 f4 be 9a b6 2b bd
       0.0066585266 0.10668137 -0.47785324 -0.04192219
000090 ac 30 76 3d fb 24 f1 3d b8 9c ff bd b1 89 b8 3e
       0.06010501 0.117746316 -0.124810636 0.3604255
0000a0 43 2a 9c 3c 11 e1 01 bf 82 a8 da 3d eb 1f dc be
       0.01906312 -0.5073405 0.106766716 -0.429931
0000b0 7e 0e 1a bc 21 c6 e4 3d eb a2 c6 bd 5d ac 9b 3e
       -0.009402869 0.111706026 -0.09699043 0.3040494
0000c0 61 50 d4 be 40 b3 d0 3e 3c 0c dc be ce d1 fb 3d
       -0.41467574 0.40761757 -0.42978084 0.122958764
0000d0 52 f4 6b 3e 78 3a 1f be 9c f9 06 3d 08 21 cd bd
       0.2304242 -0.15549648 0.03295289 -0.10016066
0000e0 64 ec b4 3d 90 42 0d 3d 5a 95 7e 3e cd 85 42 3e
       0.088341504 0.034487307 0.2486166 0.18996353
0000f0 45 b6 d2 bc de f5 9f 3c 83 81 c9 bd 58 57 9a 3e
       -0.025721679 0.019526418 -0.098391555 0.30144763
000100 67 a2 a3 3e cb a5 dd 3c 87 b5 22 3c 1d 39 c8 bb
       0.3195984 0.027056595 0.009930975 -0.006110324
000110 ae 42 ab be 01 a2 98 3d 84 79 cd be 3f ea 8b 3e
       -0.3344931 0.07452775 -0.40131772 0.27327153
000120 b9 99 bf 3d a8 08 e8 bd 2c f6 84 be 35 91 0d be
       0.09355492 -0.11329776 -0.25969064 -0.13824923
000130 69 3c 57 bd 4b 3d c6 bd 0e a3 63 3e 2b 89 1f be
       -0.052547846 -0.096796595 0.22230169 -0.15579669
000140 14 5a b6 3e fa 19 91 be 5b ee 83 be 31 df 00 3f
       0.356156 -0.2834013 -0.25767788 0.50340563
000150 ff ca 8d bd 56 e9 62 be f1 ef 57 be 86 f5 74 3e
       -0.06923484 -0.22159323 -0.21087624 0.23921785
000160 65 3d f1 3d cc 21 de 3e c0 ff b2 3e 64 9e 1b be
       0.11779288 0.4338516 0.34960747 -0.1519714
000170 1e d9 87 bd c1 83 c7 3e e1 65 ad be f9 17 6e be
       -0.06633209 0.38967708 -0.3386679 -0.23251332
000180 8e 2d df bd e9 0a 01 3f 30 e1 96 be f0 f4 4e bd
       -0.10897361 0.5040727 -0.2946868 -0.05052656
000190 86 3a 56 be 70 ec 11 3e 8c 2f f1 3b 61 e2 18 be
       -0.20920762 0.1425035 0.0073604044 -0.14930107
0001a0 03 c7 6b 3c 0b e0 16 3f 43 27 99 be a5 aa 2a 3d
       0.01439071 0.5893561 -0.29912767 0.041666646
0001b0 0c c4 1f bf 94 d6 0e be d1 9c a7 ba de f7 9d be
       -0.6240852 -0.13949043 -0.0012787824 -0.3085317
0001c0 05 b2 07 be 70 02 c7 3d d7 8b 01 bd 65 4b 00 be
       -0.13251503 0.09717262 -0.031627502 -0.1252876
0001d0 f3 90 cb 3d 22 c4 82 3e ad fa 93 3e 2f 59 1b 3d
       0.09939756 0.25540262 0.28902188 0.03792685
0001e0 eb 96 f4 bd 0f bf 92 bd d3 19 a0 3e 53 1a b1 3e
       -0.11942848 -0.07165348 0.31269702 0.34590396
0001f0 ae 46 74 3e 8c 64 1f 3d d1 2a bf bd 19 67 5e be
       0.23855087 0.03891425 -0.093343385 -0.21719016
000200 b6 a0 20 be 04 8a 71 bc c9 96 27 3e c1 e9 b4 3e
       -0.15686306 -0.014742378 0.16366114 0.3533459
000210 d4 4a d1 3c 17 dd 7d 3e 30 66 94 bd 7f 61 cb 3e
       0.025548376 0.2479137 -0.07246053 0.3972282
000220 ad f7 09 3e 68 89 62 3e 93 06 f0 3c 2a 51 25 3d
       0.13473387 0.22122729 0.02930001 0.040360607
000230 59 6e df bd d8 25 8f 3e 65 66 fe 3e 38 a2 90 3e
       -0.10909719 0.2795856 0.49687496 0.28248763
000240 38 40 89 3d 8c 37 6d 3d 78 34 69 3e 1f 16 89 3c
       0.06701702 0.0579143 0.22773921 0.016734181
000250 cf 55 e4 3e 46 94 a5 3d b3 c7 95 bb ed 5b 66 be
       0.44596717 0.080849215 -0.004570925 -0.22496004
000260 f6 d3 e6 3b f0 14 f6 be 82 90 0f 3d c9 3e c0 3d
       0.0070443107 -0.4806285 0.035049923 0.09386975
000270 b2 9f 32 bf 38 63 52 3e 20 69 e4 3d b2 49 fe bd
       -0.69774926 0.20545661 0.111528635 -0.124164
000280 b5 14 8b bd cb fb 55 be 07 fb 9a 3e 5d 43 b1 bd
       -0.06791059 -0.20896833 0.30269644 -0.08655427
000290 65 da d6 bd 88 ce 1a 3e 8e 0f 80 3e ac 40 24 3e
       -0.10490874 0.15117848 0.25011867 0.16040295
0002a0 53 d9 95 3e 45 b0 49 3e 82 13 d1 3c f4 4f 5f 3e
       0.29267368 0.19696148 0.025521997 0.21807843
0002b0 bd a7 2e be 7b 65 bf bc c8 67 70 bc 37 58 15 3d
       -0.17056175 -0.02336382 -0.014673181 0.03646108
0002c0 99 94 38 be 1a 45 d8 3e 89 af 81 be e4 12 58 be
       -0.18025436 0.4224022 -0.25329235 -0.21100956
0002d0 9d 40 30 bf 45 cc 20 be ce 5b e6 3e 3f 49 94 be
       -0.6884859 -0.15702923 0.44991916 -0.28962132
0002e0 f4 c7 b6 be c6 b9 10 3f 76 13 93 3d 1e 64 ec bb
       -0.35699427 0.5653347 0.07181446 -0.0072140833
0002f0 31 1b ef be e3 b5 60 bd 33 b7 77 3e af 0a 0d bd
       -0.46700433 -0.05486096 0.24190979 -0.034434017
000300 77 b9 8a be b2 57 a1 be 3b 2f 08 be 5c d2 f7 be
       -0.27094623 -0.3151222 -0.13299267 -0.4840268
000310 9c 39 9a 3d bc ee fa be 1a bb e4 3d 23 c5 04 3c
       0.07530519 -0.49010265 0.11168499 0.008103642
000320 e4 82 bb 3e ee 75 3b bd f5 d2 22 3c 21 94 25 3e
       0.366233 -0.045766763 0.009937991 0.16169788
000330 d0 0b c1 bd ab c2 bb be 3a e8 80 3d 5e 4d 12 3e
       -0.09426081 -0.36671957 0.06294294 0.14287326
000340 8f bd ae 3d 8b 7d 44 3e 10 96 45 3e fe 16 6b 3e
       0.08532249 0.19188516 0.19295526 0.2295799
000350 a1 cd 1e be 48 f0 d3 3e f3 bc 98 bd 74 da c3 be
       -0.15508129 0.41394258 -0.07457914 -0.38252604
000360 1d c6 57 be 53 05 f4 bd 4c 85 07 bd a6 fa 9f 3e
       -0.21071668 -0.11915078 -0.033086106 0.31245917
000370 6b e9 13 3e 4b e7 03 3f d2 ae 7b be 55 4b e8 bc
       0.1444451 0.515248 -0.24578407 -0.028356234
000380 0a 42 c2 3d 9f 5a 8a 3d b8 2b af 3e 88 0c 07 bf
       0.09485252 0.06755566 0.34213042 -0.52753496
000390 8b d1 9f 3e fc 90 9d 3e 18 6f 94 3e 3c 27 36 3e
       0.31214556 0.30774677 0.28991008 0.17788404
0003a0 a8 80 33 be 74 06 78 bd fc aa f6 3d 55 5a 8d 3d
       -0.17529547 -0.06055303 0.120443314 0.06901995
0003b0 22 d5 c3 3e 4b e3 ba 3c bc 9c 76 3e 14 5b 1b 3d
       0.38248545 0.02281346 0.24083227 0.037928656
0003c0 61 54 09 bf fb 7f 7f be f1 a9 22 3e 9d 08 8b be
       -0.53644377 -0.24951164 0.1588514 -0.2715501
0003d0 74 ff 11 3d 2d 20 f5 3d e4 e9 12 be 61 10 68 3e
       0.03564401 0.11969028 -0.14347035 0.22662498
0003e0 af 89 aa be da 2b 70 3c 1d 95 08 3f 66 21 d7 3d
       -0.3330817 0.0146588925 0.5335253 0.10504417
0003f0 7e 20 9e bc 2a 23 0b 3e 4c e0 94 be 67 ba 65 be
       -0.019302603 0.13587633 -0.29077375 -0.22434388

value_net.module_4.bias f4 [32]
000000 76 98 5e bc be 2b 64 3c b0 cd 94 bb f7 7d 7a 3c
       -0.013586154 0.013926445 -0.0045411214 0.015288821
000010 f0 a0 74 39 d4 f8 37 bc 74 fc f8 3b 80 46 aa bb
       0.00023329607 -0.011228759 0.007598454 -0.0051963925
000020 10 a5 2a bc 0c be 1e bd c3 36 1e bc 6e 3b 3b 39
       -0.0104153305 -0.03875546 -0.009656611 0.00017855849
000030 9f 94 da 3a 24 12 1e 3b df 9b 5c 3c 54 05 34 bb
       0.0016676373 0.00241197 0.013464897 -0.0027468996
000040 97 ae 8b bb af 97 39 bc c6 82 6d 3b 07 7a a5 bc
       -0.004262756 -0.011327668 0.0036241277 -0.020199789
000050 84 15 7f bb 22 f9 9b 3c 0e 9e 1d bc 39 21 72 bc
       -0.0038922736 0.019039694 -0.009620203 -0.014778429
000060 0c 61 57 bd b2 c3 5d 3d 7f 0e 34 bd 40 29 92 3c
       -0.052582785 0.054141708 -0.043959137 0.017841935
000070 7e 21 24 3b f9 43 8a bc 74 56 ae 3c b6 f5 91 ba
       0.0025044377 -0.016878115 0.021281458 -0.001113585

value_net.module_7.weight f4 [1, 32]
000000 e8 b4 48 3c 65 7a 87 bc a6 e1 b7 3d d9 12 23 bc
       0.012250163 -0.016537854 0.08978586 -0.009953224
000010 e9 39 b2 3c 11 ee aa 3d 78 3e fa 3d d6 3e 1d bd
       0.02175613 0.08346189 0.12218946 -0.038390003
000020 a1 1f fd 3b 48 24 d4 3e 0a 27 ce bc f7 2f 88 bd
       0.0077247177 0.4143393 -0.0251651 -0.066497736
000030 9a c2 ef 3d 20 b2 aa 3e 8d ae a0 be e6 03 79 bd
       0.11707039 0.33339024 -0.31383172 -0.060794733
000040 e1 78 8a 3d 69 73 bf 3d f7 43 8c bc c9 58 08 be
       0.06761337 0.093481846 -0.017122252 -0.13315119
000050 a4 60 8b 3c 63 89 b3 bd 3d fe 89 3d 65 f8 8a 3b
       0.017013855 -0.08766439 0.06737945 0.0042410367
000060 5d fd 04 3d 85 ae 71 3c 7d 9f 6f bb 62 fa d3 bd
       0.03246819 0.014751081 -0.0036563568 -0.10350491
000070 97 88 2c be 15 d1 f9 3a 9e 69 62 3d e7 d0 8a 3d
       -0.1684898 0.0019059504 0.055276506 0.06778126
