MAPPO/Graph_H/save/HY_T4/agent_19_MAPPO_r.pt (torch, 28570 bytes, 15 tensors)

policy_net.module_0.bias f4 [32]
00000000: 28e3 793d 4b0e 4abd 35a8 4f3d 8fc0 c0bd
00000010: 1aa6 9ebd 9331 7cbd f555 943d 76d5 06bc
00000020: 7a5b 02be 5978 593d c983 b7bd 7998 743d
00000030: 7fdd 5c3d c044 09be f2cd abbd be7e 9c3d
00000040: 4f37 cf3d 32f7 60bd 60c6 cb3d e2a7 813d
00000050: 9550 aabd 5343 65bd 35ce 7d3d b1ce 8ebc
00000060: 2b63 cbbd 772a 27bd 1964 943d 1a5c e6bd
00000070: 7b8f 193d 1596 dcbd 3d18 653d 3551 f7bb
0.06100765 -0.049330037 0.050697524 -0.09411728 -0.07746525 -0.061570715 0.072429575 -0.008229604
-0.12730208 0.053093288 -0.08960683 0.05971572 0.053922173 -0.13405132 -0.0838889 0.07641362
0.10117971 -0.054923244 0.099499464 0.06330849 -0.08316151 -0.05597241 0.061964232 -0.017432543
-0.09931024 -0.040811982 0.072456546 -0.11248036 0.03749035 -0.107708134 0.05593132 -0.0075475224

policy_net.module_0.lin.weight f4 [32, 2]
00000000: c1de 62bc 1c4a 453d ba95 45be cb76 02be
00000010: bbd1 183f e848 263e ce54 df3d ea2b 293e
00000020: fc53 44bd 7ca2 fabc a30d 513e 1fce b7be
00000030: 9829 dd3e 4b1f e1be 5fd6 0cbf c247 1dbf
00000040: 52bc 963d d001 5e3d 01f3 9c3e ee06 783e
00000050: 6712 7ebd 5187 a33e 4121 153d b14c fc3d
00000060: 28ec 073f 6157 493c 7238 973e efef ff3d
00000070: c379 1bbe bbba 9a3e 49cc 173e 81df 3e3a
00000080: 4805 96bd d340 6cbd 363b 62be 609c e33b
00000090: f38b 85be ab89 57bd 7708 ef3e 04ed 97bd
000000a0: b236 89bd 35ff 943e eaef 8bbd e24b aebe
000000b0: 4916 003e 22fe a83e fc5e 953e d9a8 9dbe
000000c0: 8e81 3ebd 5e37 a43a 9f75 863d 2e6e 6c3c
000000d0: 2225 163f 7a31 3bbe c093 d73d c49e 8d3d
000000e0: 4772 95be dd30 4ebe 47a6 acbd f577 d63e
000000f0: 415b 053f a369 893e 7a5e 7e3e 0a11 c63d
-0.013847054 0.04816638 -0.19295397 -0.12740628 0.59695023 0.16238749 0.10904847 0.16520658
-0.047931656 -0.030595057 0.20415358 -0.35899445 0.43195796 -0.43969187 -0.55014604 -0.6143762
0.07360138 0.054200947 0.30654147 0.24221393 -0.06202927 0.31939176 0.036408667 0.12319315
0.5309472 0.012288899 0.29535252 0.124969356 -0.15183167 0.3022059 0.14824022 0.00072812295
-0.07325226 -0.05767901 -0.220929 0.0069461316 -0.26083335 -0.052621525 0.46686146 -0.07418254
-0.066998854 0.29100958 -0.06832869 -0.3404227 0.12508501 0.33006388 0.2917403 -0.30792883
-0.04651027 0.0012528708 0.06565403 0.014430566 0.5865041 -0.18280593 0.10526228 0.06915048
-0.2918875 -0.20135827 -0.084301524 0.41888395 0.5209237 0.26838407 0.24840727 0.09671219

policy_net.module_2.bias f4 [32]
00000000: 4b6a 803c d36d 923d 9d6b b4bd e1e9 1dbd
00000010: d091 35bd 3478 66bd 2242 95bd d003 07bd
00000020: dd5d 0e3d 188a a23c 1361 81bd f68f 8a3d
00000030: de52 45bd 833b ac3c 69be fe3c 73a7 813d
00000040: 379c 90bd 4f0f 6c3c 81bb 8a3d 0a57 ae3b
00000050: 3c39 90bd 49b9 8d3d 1bfb a33d d4ec 853d
00000060: 459d 753d f133 df3d 38fa 213d 158d 9abd
00000070: c801 173d b591 7dbd 5bdc 0b3c 5afa 05bb
0.015675684 0.071498536 -0.08809588 -0.038553122 -0.04432851 -0.05626698 -0.072880045 -0.03296262
0.034757484 0.019841239 -0.063173436 0.067657396 -0.04817473 0.021024471 0.031096654 0.063307665
-0.070610456 0.014407947 0.06774045 0.0053204345 -0.070421666 0.06920106 0.08006879 0.06539312
0.059964437 0.10898579 0.039545268 -0.075464405 0.036866933 -0.061906535 0.008536424 -0.002044341

policy_net.module_2.lin.weight f4 [32, 32]
00000000: b253 a9be 750f ecbe 4292 d2be 6cd8 12be
00000010: 371c 86bd a8eb 153e f840 b2be 317c 153d
00000020: 777d cabc 99e6 543d 8901 03be 1d77 283e
00000030: 4e5b 473e efe7 c93e 253b ef3d 7b5b 2a3e
00000040: 505c 083e 4993 40be 0b62 083f 7652 f9bd
00000050: ac89 94bd 14f6 243e caf5 04be 0df4 ebbe
00000060: 61fb 083e 1c0f a43e fd84 cdbe 645b 1a3e
00000070: 91f0 283c f7df c4be dd7c 633e 547c f1bc
00000080: f69b 853e d5e9 88bd 7d2d bb3d 5db7 f53d
00000090: 6823 ff3d 3ec3 febd 6673 82be cfe8 6d3e
000000a0: 42c3 6cbe 4ed1 78bc 9732 a0be 6bc0 bfbe
000000b0: f2fc fe3d 37aa 4f3e 55c7 fabc bb39 fb3e
000000c0: 7785 6cbe 916c 2fbe 24d6 84be affd d73e
000000d0: ee86 9c3c 4ed7 e03d 6a0a 193f d61a 0f3e
000000e0: 9bda ccbe 98e3 f93c 4a2e acbe 8cc7 64be
000000f0: 1585 aabe 1907 a4be 6604 adbd a0b4 1b3e
00000100: 8ab4 4fbd 5b90 aabe 996e c1bd e501 7f3e
00000110: be7d aebd 338f 953d 5ae4 6bbe 4dcf 23be
00000120: f0ec 2f3e b3f5 1abe d76a 4f3e 45aa 563e
00000130: f19a 673e 58bc 023f 9eba bc3e 1f0a bb3d
00000140: 88f7 8dbd 7282 2abe a943 03bf 1f7b 233e
00000150: 3187 873e 36f7 a0be 8ef8 00bf 125b b53e
00000160: 79d2 b8bd 1585 1fbe f09b 533e 7d14 cfbd
00000170: 79d5 993b 5967 03be 0f03 c6bc f2d2 96be
00000180: 2357 86bd c599 fabc 719d cbbc 6406 66be
00000190: 56d7 043e 8c48 b1be bfee bbbd 22e9 27be
000001a0: 3942 02be 32c1 57bf 5574 04be 3535 693e
000001b0: e37d af3e 80ee 8b3e 66b7 a13e 1438 ddbd
000001c0: 6949 1e3d 41ea e03e 9b57 bcbe 3e2d 88be
000001d0: 9103 87bd 1812 de3d 0844 6e3e 4d99 05be
000001e0: d0ae 1d3e 9eb9 12be 53aa 3ebe b217 98bc
000001f0: bf8b f93d b80e 883e 1f06 f63b 0b0b 953e
00000200: 61a1 afbe edc6 e23e 1ac8 f8bc 6a20 79be
00000210: c169 55be d998 6b3d b931 c7be a58b 85be
00000220: 451c 803e 49b1 bdbe c15f 51be 0df4 e33c
00000230: 89c1 edbd c3c8 c4be 16c3 2cbe ade5 53be
00000240: 3441 b83b 1055 2dbe 4480 b23d 699e 743e
00000250: 7160 96be 3740 0abe 1a6d 80be 0450 a6bd
00000260: f7c8 14bf b665 c0be 7cc1 67be 8dc9 da3b
00000270: a817 3cbe 726a 1ebe f833 bc3d 46b0 c6bd
00000280: 509a 62be 295f 38be fe2f b3be 9428 563e
00000290: 6077 33be f971 a23e d0f8 933e e5f9 133e
000002a0: e242 debc 5465 81be fdc3 f03e 3190 10be
000002b0: b9a5 fbbd 3477 c3be bbe9 9e3d 87d6 b83e
000002c0: 0194 833e 5fa8 e93c 4c9b 97be d9cb ad3e
000002d0: e268 cebe 55a8 a33e 769e a13d d879 c4be
000002e0: f285 833d 8392 c3bd 7633 883d f7c4 89bd
000002f0: 95f9 dabc 7ef7 c23d 5bf4 c8be a6f8 03be
00000300: 36b0 84be e6ff 5a3d af55 143e 3ea3 50be
00000310: d1f9 693e 2369 af3e 155f a73e 6644 57be
00000320: da55 793e 6499 d43d d998 b3be 20b1 a1bd
00000330: 99af afbe daa3 1e3e e85f 173f 5a3d 77be
00000340: 3350 03be 49b9 3a3e c9d4 c7be 5c95 7ebc
00000350: 6ba5 f83d a510 123e 5394 293e c38b 00be
00000360: 1780 393e c2a7 98bd ff2e b8be 8e60 d83e
00000370: 56f8 133e 9742 77be 3678 09be 6238 1dbf
00000380: 173e 783d 6fe1 f93d cb69 a6be 3ced e4bd
00000390: 38f3 613e 24cb e8be ebde 1bbe 9d8b 0c3e
000003a0: 1885 0f3f 400e f43d 87a3 013f ce9c ed3c
000003b0: 9843 1d3d ce4f ac3e 1586 0dbb d803 1cbe
000003c0: 77e6 fbbe a1b6 403e ca53 62bd ad5d e73d
000003d0: bf4c dbbc 51c9 e53e 6568 253e 689b 47be
000003e0: cfe3 8fbe 92b6 673c cb49 8d3e 96e9 aa3d
000003f0: b691 ab3d ce6c 413d 2729 333e 85da c2be
-0.33071667 -0.46105543 -0.4112721 -0.14340371 -0.0654835 0.14640677 -0.34815192 0.03649539
-0.02471803 0.051977728 -0.12793554 0.16451688 0.19468424 0.39434764 0.11681203 0.1663646
0.13316464 -0.18806185 0.532746 -0.12173931 -0.07252821 0.16109496 -0.12984386 -0.46084633
0.13377143 0.32042778 -0.40140525 0.15073925 0.010311262 -0.38452122 0.222156 -0.02947823
0.2609555 -0.06685225 0.091395356 0.119978644 0.12457925 -0.12439583 -0.25478667 0.2323334
-0.2312136 -0.015186621 -0.31288597 -0.3745149 0.12450589 0.20279776 -0.030612627 0.49067482
-0.23097788 -0.17131259 -0.25944626 0.42185733 0.019107308 0.10978566 0.59781516 0.13975081
-0.40010533 0.030504033 -0.33629066 -0.22341746 -0.3330466 -0.32036665 -0.084481046 0.15205622
-0.050709285 -0.3331326 -0.09444923 0.24903066 -0.08520077 0.07302704 -0.23036328 -0.15997048
0.17180228 -0.1513279 0.202556 0.2096339 0.22617699 0.5106864 0.36861128 0.0913279
-0.069319785 -0.16651323 -0.51275116 0.15964936 0.2647033 -0.31438607 -0.50379264 0.35421044
-0.090245195 -0.1557811 0.20664954 -0.1011133 0.0046946374 -0.12832393 -0.02417138 -0.29457814
-0.06559589 -0.030590901 -0.024855347 -0.22463375 0.12972769 -0.3462566 -0.091763966 -0.16397527
-0.12720574 -0.8427917 -0.12935002 0.22774203 0.3427573 0.273304 0.31585234 -0.10801712
0.038644228 0.43928722 -0.36785588 -0.26597017 -0.06592477 0.10843295 0.2326814 -0.13046761
0.15398717 -0.1432862 -0.18619661 -0.018565986 0.121848576 0.2657373 0.007508054 0.29109988
-0.3430281 0.44292393 -0.030368853 -0.24328771 -0.20841123 0.057518814 -0.38905123 -0.26083103
0.25021568 -0.3704932 -0.20446683 0.027826333 -0.116091795 -0.3843442 -0.16871294 -0.20693083
0.005623007 -0.1692698 0.08715871 0.23888554 -0.29370454 -0.13501059 -0.25083238 -0.081207305
-0.5811915 -0.375776 -0.22632402 0.0066768588 -0.18368399 -0.15470293 0.091896 -0.0970159
-0.22129178 -0.1800505 -0.34997553 0.20913917 -0.17526007 0.3172758 0.28900766 0.14450796
-0.027131502 -0.2527262 0.47024527 -0.14117505 -0.122874685 -0.38176882 0.07759424 0.3610117
0.25698856 0.028522668 -0.2961067 0.33944586 -0.40314394 0.31964365 0.07891552 -0.3837421
0.064220324 -0.09549429 0.066504404 -0.06727021 -0.026730338 0.09519862 -0.39248928 -0.1288782
-0.25915688 0.0534667 0.1448581 -0.20374772 0.22849204 0.342599 0.3268973 -0.21022186
0.24349156 0.103808194 -0.3507755 -0.07895112 -0.34313658 0.15492192 0.59130716 -0.24144498
-0.12823562 0.18234743 -0.3902953 -0.01553854 0.12140926 0.14264162 0.16560487 -0.12553315
0.18115269 -0.07453872 -0.35973355 0.42261165 0.14450201 -0.24146496 -0.13424763 -0.6141416
0.06060609 0.12201201 -0.3250259 -0.11178061 0.22065437 -0.45467484 -0.15221755 0.13725133
0.5606246 0.119167805 0.5064015 0.029005434 0.03839454 0.33654636 -0.0021594812 -0.15235841
-0.49199268 0.18819667 -0.05525569 0.11297164 -0.026769994 0.44880155 0.16153105 -0.19492877
-0.28103492 0.014142649 0.27595362 0.08345334 0.083774015 0.047222905 0.17496167 -0.38057342

policy_net.module_4.weight f4 [32, 32]
00000000: c0af 663e 5054 e93e 58ae c1be 31ba 2dbe
00000010: 8c06 cd3e 8359 5dbe 09c9 ba3e 8dd3 b0be
00000020: 6c91 8d3d 911a 27bf f494 e03e 7bea 903d
00000030: 071f 253e 0f71 8abd 1986 89be 3bf1 c1bb
00000040: 40ab d33e fd4e 93bd c3ef 87be d31f 1f3e
00000050: c66c f73d 64a0 5d3d c381 3c3d 118e ff3c
00000060: a79b 93be ad66 02bc 9d3f e03d e9b3 6c3d
00000070: 8f24 e13c f575 28bd d2ad cbbd e707 2fbe
00000080: 2d78 9ebd 64da bb3e a55e 933e 17df 413d
00000090: 6881 29be 48f5 f9bd 69bb 46be 4848 82be
000000a0: ccb7 a63d bdac 993e be9f ab3e d685 88be
000000b0: e839 013f b24b d73e 1b78 19be 6721 653e
000000c0: fd19 113e 2880 8c3e 5c67 ad3e 8a21 953d
000000d0: 2f18 993e a267 fbbe 49a0 0a3c 8673 c93d
000000e0: fa36 23be 99b0 8b3d 147b 8abe 96c3 93be
000000f0: fdf7 8d3d d184 09be e9ff 123e bccb fe3d
00000100: 4823 9e3e 5896 2e3d 1626 4cbe a249 2bbe
00000110: e014 b43c 76e3 d03e 54c6 153e 49f1 b93e
00000120: afb3 bf3d 1c9d 9a3d c626 1b3f a96e a63c
00000130: c250 d1bd 48e7 253e f5db 213e dc48 f73d
00000140: b090 c23a 5a07 a33d 9c42 fabe 3c72 f6be
00000150: f146 e73b bd52 d5be 1841 bebe 37ec 613e
00000160: 28a8 963e 4f67 99bd 3e8a 25be d191 493e
00000170: d47c 653e 63ba 343e 2dfa 7e3e 463c d43d
00000180: d107 13bf fefc 86bd 1bc3 bd3d 92da 863e
00000190: c29b 54be bea2 f83d 0426 bb3e 7a53 bcbe
000001a0: 9eec 013e 69a4 e9bd e8f5 023d 48d0 73bd
000001b0: 295d ccbe c992 21be 9d62 1fbe f742 cabd
000001c0: 849e abbd f9ab 043d b673 b1be 017e 90be
000001d0: 0ee0 0fbd 16c1 d4be b6df 40bb c3f3 a5be
000001e0: ebf7 8dbe 225f 8e3e 4627 8c3e 642c b4bd
000001f0: f959 d83e a46c a2be fe28 453e da76 143e
00000200: 0ce0 b13e bee4 92be 2c44 703e 1f2d 8abe
00000210: 0884 a93c 76fd 2a3e 81d8 b53d 8c12 503e
00000220: 9129 0f3e 24e9 83be fb29 bfbe f5be 023e
00000230: 7e5a 7f3e 96b0 103d ebc3 d3bd db6f 88be
00000240: 7397 593e 2214 2b3e 5583 7cbd ac1a 753e
00000250: 0ec9 923e aa05 cebe 95d3 073f dac4 ddbc
00000260: 8479 3d3e dc41 a5be 20af 883e 4892 a23d
00000270: a65d 0a3f e35f cdbd 4909 a13e e383 4f3c
00000280: fc30 dabd 5a44 9fbe 8aa0 f0bd 1b94 a6be
00000290: 29e4 5c3e 67b4 39be 01eb 593e bddb 183e
000002a0: d5d5 5c3d 1514 bebd 78c7 823d d5e9 c5ba
000002b0: 854c 41bd 3990 bf3e 114d bf3d bab2 f23e
000002c0: 470b d3bb bbd6 d1be ce3c cdbd 38b4 ac3d
000002d0: 8864 8b3e 23f6 153e 14a4 a83d 9479 0fbf
000002e0: e212 30be cffd 1fbe 3adf 34be b231 09be
000002f0: 292f 00bd bc6a 053d c71d 893e 9009 3d3f
00000300: f472 94be dc43 d93c c08a b6be bdd1 5f3d
00000310: b0a1 24be ba47 273d ba76 d83e d690 f63d
00000320: 021a af3d 6d5a e53e 9570 b83c 7e36 7fbe
00000330: 4b59 e33e 46e3 90be 9c6e 4bbd 828f 28bd
00000340: 9df5 383e e0a6 58bb df88 673d b6c8 af3e
00000350: e2a8 8abd f543 bebc f679 65be 955a d8bd
00000360: 52ac 83be 41bb 74be 0a14 823e 32b3 b33e
00000370: 42aa b43e 92f6 293f 9f35 3a3d d66b 2c3e
00000380: a327 0c3f 7d0e 583d 8225 c93e 9206 903e
00000390: 5f79 42bd 56d0 013e b413 943e 41f4 08be
000003a0: d1ab c1be 65e3 313e e0e4 923e f227 a2bd
000003b0: bcf0 b83c 741d e5be cb5e 1e3e 8a98 83bd
000003c0: 1e25 e3bd c1cc bfbe 1cb9 013d 8580 423e
000003d0: 6bdc 4e3e aad5 773e 34c7 5dbe cfab 97be
000003e0: 4377 1fbe 63f4 3cbe 1e5b 89be 3d22 a6bd
000003f0: 5fd8 9a3e a766 4cbe 1bfc e13e ef8c 3ebe
0.22527981 0.45572138 -0.37828326 -0.16965558 0.40044057 -0.21616177 0.36481503 -0.345364
0.06912503 -0.6527491 0.43863642 0.070759736 0.16125117 -0.067598455 -0.2686012 -0.0059186495
0.4134159 -0.071928 -0.2655011 0.15539484 0.12081294 0.05410804 0.046022188 0.031195672
-0.2882969 -0.00795905 0.10949633 0.057788763 0.027483253 -0.041128118 -0.09945263 -0.17092858
-0.077377655 0.36690056 0.28783146 0.047331896 -0.16553271 -0.12204987 -0.19407429 -0.2544577
0.08140525 0.300146 0.3352031 -0.2666461 0.5047898 0.42049938 -0.14987223 0.22376023
0.1417007 0.27441525 0.3386792 0.07281788 0.29901263 -0.49102503 0.0084610665 0.098364875
-0.1593894 0.06820793 -0.27047026 -0.28860158 0.06932066 -0.13429572 0.14355434 0.12441203
0.30886292 0.042623848 -0.19936404 -0.16727307 0.02198261 0.4079854 0.14626437 0.36316898
0.09360444 0.075494975 0.6060604 0.020316439 -0.102204815 0.16201508 0.15806563 0.12074444
0.0014844146 0.079603866 -0.48878944 -0.4813403 0.0070580174 -0.41664687 -0.37159038 0.22062765
0.29425168 -0.07490408 -0.16166016 0.19684531 0.224109 0.17649226 0.24900122 0.10363059
-0.574338 -0.06591223 0.09265729 0.2633863 -0.20762542 0.121404156 0.3655244 -0.36782438
0.12687919 -0.11408312 0.031972796 -0.059524804 -0.39914826 -0.1577865 -0.15564962 -0.09876054
-0.08379844 0.03239057 -0.34658593 -0.28221133 -0.035125785 -0.41553563 -0.0029430217 -0.32412538
-0.2772821 0.27806956 0.27373713 -0.08797529 0.42256144 -0.3172351 0.19253919 0.14498463
0.34741247 -0.2869014 0.23463506 -0.2698755 0.02069284 0.1669825 0.088791855 0.20319575
0.139807 -0.2576381 -0.37336716 0.12768157 0.24936864 0.035324655 -0.10340103 -0.2664784
0.2124918 0.16706899 -0.061648685 0.23935956 0.28669018 -0.40238696 0.53057224 -0.027071405
0.18503386 -0.3227681 0.2669611 0.07938057 0.54049146 -0.100280546 0.31452397 0.012665722
-0.10653874 -0.31106836 -0.117493704 -0.3253487 0.21571411 -0.18135224 0.21281053 0.14927574
0.053914864 -0.09281174 0.06385702 -0.0015099595 -0.047192115 0.3741472 0.09340871 0.47401983
-0.0064405533 -0.4098414 -0.10021363 0.084328115 0.27225137 0.14644675 0.082344204 -0.5604489
-0.17194703 -0.15624164 -0.17663279 -0.13397864 -0.031294975 0.032572493 0.2678053 0.73842716
-0.28993952 0.026521616 -0.35652733 0.05464338 -0.16077304 0.04083989 0.4227808 0.12039344
0.085498825 0.44795552 0.02251462 -0.24923131 0.44404063 -0.28298396 -0.049666032 -0.041152485
0.18062444 -0.003305845 0.056527015 0.34332818 -0.06770493 -0.023225764 -0.22409806 -0.10564152
-0.25717407 -0.23899557 0.25405914 0.35097653 0.35286146 0.6639186 0.045461293 0.16838011
0.5474798 0.052748192 0.3928643 0.28130013 -0.04747903 0.1267713 0.28921282 -0.13374425
-0.37826398 0.173719 0.28690243 -0.07917775 0.022575729 -0.44749033 0.15465848 -0.06425579
-0.11091064 -0.37460902 0.031670675 0.18994339 0.2020127 0.242026 -0.21658021 -0.29623267
-0.15572838 -0.18452601 -0.2682733 -0.08111999 0.30243203 -0.19961034 0.44137654 -0.1860845

policy_net.module_4.bias f4 [32]
00000000: fcb6 98bd fd90 85bd 54d3 8cbd 72c7 93bd
00000010: 9d52 93bd 3b90 91bd 0b60 98bd 45bd 8abd
00000020: 8f9e c5bd 62e7 83bd 2afa a2bd a894 aabd
00000030: d9d4 8abd e5b2 95bd d378 9ebd de61 95bd
00000040: cf80 abbd 9747 8dbd 2c3a 87bd 6073 a9bd
00000050: c13c a1bd 35d6 a3bd 2dbd 92bd 504f 8fbd
00000060: 85b5 a7bd 1917 abbd 139f 95bd 87bd 8abd
00000070: 13b5 95bd 84cd 9cbd 7ea8 87bd e991 9abd
-0.074567765 -0.06521795 -0.06876245 -0.072157755 -0.071934916 -0.07107588 -0.07440194 -0.067743815
-0.09649383 -0.06440617 -0.07957871 -0.08329135 -0.06778879 -0.07309512 -0.07737889 -0.07294057
-0.08374178 -0.0689842 -0.06602892 -0.08273959 -0.07872916 -0.07999841 -0.07164989 -0.069975495
-0.08188919 -0.08354015 -0.073057316 -0.06774431 -0.07309928 -0.076563865 -0.06623934 -0.075473614

policy_net.module_8.weight f4 [10, 10]
00000000: 00f6 9f3a 1cc5 c1ba b837 b53b bc3e 03bb
00000010: 208d 11bb a4dc 0dbb 134b 5d3b e7e7 a5b9
00000020: 4432 b0bb f922 603b ed45 533b 9f8a cdbb
00000030: db80 04bc 807f dc3a 897d 74bb 1f68 27bb
00000040: 2296 363c cba4 1dbc ef96 c33b b7ed a6bb
00000050: 2bd8 f4bd 14dc e7bd ee16 f6bd d4e7 f4bd
00000060: 7956 17be 4f5b 2fbe 0dec edbd 7066 11be
00000070: dda0 02be 3956 1ebe 45ed 08bd 26e0 25bd
00000080: 8813 38bd 72c4 3ebd db3b a8bd 5f61 c3bd
00000090: a961 22bd 63cd a5bd a97a 85bd 66da b7bd
000000a0: 00ac 0ebb 1900 233b 4e99 c7ba 9384 c0ba
000000b0: 1646 1c3a 9da2 a5bb ed5c b4bb a314 7e3b
000000c0: 35d4 14bb eabf 3b3b 43f0 95bc 34d2 8abc
000000d0: 0241 e9bc 67da 0ebd 4165 50bd cce4 f8bc
000000e0: cc82 86bc b3cd d7bc 89a9 08bd a134 a5bc
000000f0: 6122 c43c 788c a83c 2fcc 193c 1f1f d53a
00000100: d8ae 4ebd 4464 bcbd 3510 913c 678e 24bd
00000110: 12a0 bbbc c2fb 96bd 8c7d 01bc dd01 ba3a
00000120: dbb6 223b a425 c53a 4dbd 3e3b e1fb 983a
00000130: e926 393b 098c f53a 811a bbba 2b3a fdba
00000140: d9a8 11bd 2fef bcbc 868f a2bc ab8e a8bc
00000150: c7cd 383d 5e24 ba3d e262 02bd f3e9 143d
00000160: 29df b93b e9b8 8d3d 306c 9f3c 2b6e a63c
00000170: 0287 d33c 9f85 3b3d 54be 503d 06ee fd3c
00000180: 1ab9 963c f057 d03c d389 003d e42a de3c
0.0012204051 -0.0014783475 0.005530324 -0.0020026406 -0.0022209361 -0.0021646405 0.0033766672 -0.00031644033
-0.005377086 0.0034200533 0.0032237724 -0.0062726284 -0.008087362 0.0016822666 -0.003730627 -0.0025544239
0.011144193 -0.009621809 0.0059689204 -0.005094256 -0.11955293 -0.113212734 -0.12016092 -0.1195828
-0.1477908 -0.17124675 -0.11617289 -0.14199233 -0.12756677 -0.15462579 -0.033429403 -0.040496968
-0.0449405 -0.046574064 -0.082145415 -0.095400564 -0.039643917 -0.08095815 -0.06517536 -0.08977203
-0.002177 0.0024871884 -0.0015228183 -0.0014687948 0.00059613714 -0.0050547854 -0.0055042417 0.0038769625
-0.0022709493 0.0028648325 -0.018303042 -0.016945936 -0.028473381 -0.034876253 -0.050877813 -0.030382536
-0.01641979 -0.026343202 -0.033364806 -0.020166697 0.023942174 0.020574793 0.00938706 0.0016259885
-0.050459713 -0.09198812 0.017707923 -0.040174868 -0.022903476 -0.07372238 -0.007903468 0.0014191229
0.0024828229 0.0015041125 0.0029104531 0.0011671745 0.0028251952 0.001873375 -0.0014274867 -0.0019319704
-0.035561416 -0.02306327 -0.019843828 -0.020575842 0.04511812 0.09088968 -0.031832583 0.036355924
0.0056723547 0.069200344 0.019460768 0.020316204 0.025821213 0.045781728 0.05096276 0.030997287
0.01839881 0.025432557 0.03138144 0.027120061

policy_net.module_8.bias f4 [10]
00000000: 0000 0000 0699 68bc a806 233e 9ac0 f83d
00000010: 0000 0000 89bd 913d 4ed5 ae3d 0000 0000
00000020: 5363 c0bd d0ae 91bd
0.0 -0.01419664 0.15920508 0.12146111 0.0 0.07116229 0.085367784 0.0
-0.093939446 -0.07113421

value_net.module_0.bias f4 [32]
00000000: 4898 2ebe bbd8 57be 5b88 6f3d c82e 863c
00000010: 614f 313d 5c5a c8bd e923 e53d cf37 c0bb
00000020: 52b3 7c3d eed9 afbd 7ac0 6fbd 15df 94bd
00000030: fab7 a8bc 29da d53c c784 053c e386 cb3d
00000040: f1d3 603c 6e1a 51bc 79be 9fbb 07db 7ebd
00000050: ad05 163c d373 6abb 1fb0 203d 09ec 09bd
00000060: 9c08 9f3c 08f8 c13d faa3 51be ebe9 79bd
00000070: 98f8 febd f7c1 6d3d 6b53 87bc 77d1 d63c
-0.17050278 -0.2107877 0.058479648 0.016379729 0.043288592 -0.0978286 0.1118849 -0.005866028
0.06169445 -0.08586489 -0.05853317 -0.07269112 -0.02059554 0.026105003 0.008149332 0.09937837
0.013722406 -0.012762649 -0.004875001 -0.0622206 0.009156627 -0.0035774603 0.039230462 -0.033672366
0.019413285 0.09471136 -0.20472708 -0.061014097 -0.12449759 0.058046307 -0.016519269 0.026222927

value_net.module_0.lin.weight f4 [32, 32]
00000000: 8bba 9e3e 910e f3be 54b2 553e 6783 8cbe
00000010: c760 053e 5e50 25bd bb55 063e f31e 38be
00000020: 8f8b 33bd deb2 4f3e dee6 313e 3ef7 d2bd
00000030: d9c3 2e3f 2c4c 023e c2ba 3b3e 153f 3abe
00000040: b790 7bbe 61ff 373e 1cbf 18bd 1769 c9bd
00000050: 70b6 d4be 8044 9bbe 7e8a 76be daf3 6dbe
00000060: 72c0 22bf 9486 0fbd 6178 913b 6751 4f3e
00000070: 0490 dd3e f55a b13d 9016 a73c 2937 1abe
00000080: 7eb9 193e d3c0 9b3e 7f7e 8c3e 3979 4f3d
00000090: 5aee 14bf 5392 9a3e 3800 64bc a52b 9cbe
000000a0: 2982 ba3d cd8b c33e 2c87 75bc b251 5a3e
000000b0: c93f 513e dfce 35be dc91 ae3d fc71 8d3e
000000c0: 1f62 f03e 649f 133f 289a 81be 6291 8b3d
000000d0: 9ca5 3a3e 1553 313e e7e7 1b3e 3c64 85bd
000000e0: 21c2 7dbd 5b8a ccbe c690 02bf 8580 f23c
000000f0: f8b6 623e 3c59 933d 36c0 a1bc 4ece 243e
00000100: 464b 153e 6456 41bd 0909 e53d 551e 493e
00000110: 4922 2bbe ceab 23bd 0e46 38bd 5278 c73e
00000120: 1b83 08be 41bf 833e 15c5 8dbc 3345 3ebe
00000130: 38a0 86be 1f3e 5bbe 0370 513e 54f3 023e
00000140: 0949 8e3d 7062 f8bd e055 423f 3892 843c
00000150: 0611 f3bc 6af3 183f d71e f4bd c51e 0cbe
00000160: 66d5 903e e68d da3d 6641 453e 9f6f 30be
00000170: 6eae 113f 78fd dfbd 5ed3 6ebe a130 dabe
00000180: 6e42 c63d dddf 27be 6b7e 203e 2c5a a4be
00000190: 52e3 b4bd b619 b2be 9c86 d73d 5d97 90be
000001a0: 6c31 7dbe a0db a13d 2794 c7bc d950 9e3e
000001b0: d37c 5f3d 6a80 543e 1c98 35be 933a 6d3e
000001c0: d907 bbbd c428 943d 343d 8bbe d44e 64be
000001d0: 7c44 9fbd 9a37 e73c bbaf e83e dc06 bcbe
000001e0: 373a 2e3e f476 afbd 2b6f df3e 31bf e3be
000001f0: 56b1 55bd 2e5c bfbe 79f1 90be e3f2 3b3e
00000200: 1769 573d c869 553d 3c95 7fbe c229 19bf
00000210: 55b6 c03e df3f 653e 9ae7 e63d abad da3d
00000220: 30c9 a93e d739 193e 96ce 4f3e c309 e13d
00000230: 16d5 0fbe 701c 13bf a86e 0e3e 5196 603e
00000240: a7e5 a83e b5e1 233d cb8f 04bf 8dbf cd3e
00000250: 6cac e63d 3402 953d 37dc e43d 52d1 a23e
00000260: 34db 61bb e995 bfbe 66ed db3d dd52 6e3d
00000270: 4020 c53e 0f89 533e f361 2cbf bb3b 9cbd
00000280: 8f22 323e 3463 e03d a0a6 cdbe 84b9 3abe
00000290: effe d3bb 34c1 75be bc4a 35be 1397 41bf
000002a0: bc87 11be b30e d4bd f1ab e8bd 618b 0abe
000002b0: f715 afbe d25d b3be c9f4 443e 588b 2dbe
000002c0: f7b9 413e 2641 75be 8efb 11be 7b48 3abd
000002d0: cf2f 3f3e 5a68 733e 1854 5abe 54b3 6fbe
000002e0: 704a 55bf ed1c be3d 9a86 883d 197b f4bb
000002f0: a9a2 15be c3e8 f8bd f030 b2bd 4b5a 003d
00000300: e33b 26be f386 fcbd cd11 31bd 6062 bb3e
00000310: 2898 0d3d 8fb6 2b3e f40e ba3d 303a 67bc
00000320: 2c68 45be 6975 1c3f f6c3 6f3d 2b89 a13e
00000330: d4dc ca3d 161f 873e 2059 5e3e 3a00 83be
00000340: c203 ae3e f132 ad3d 55b4 1ebd 59fe 96be
00000350: a495 b63e a530 48be c484 553e f23a 81bd
00000360: 2407 7fbd 500b 41be afbc 8a3e 1402 123f
00000370: c365 e2bd 1e3e 56be 91fd 35be b622 94be
00000380: 9438 de3d e037 92bd 9a45 623e 013b 1c3d
00000390: 9dc7 853e 0dda eebd b23c 44be b14c a43e
000003a0: 40ca 60be 65cd 19be ba88 e7bd 4e2e 6fbc
000003b0: e76b a0be 1d84 183f 1482 283e cc3a 143f
000003c0: beca f03e f4e9 ee3d 8b87 b43d c589 97be
000003d0: 771b 68be 8efa fd3e e96d 9c3e eadb 4e3e
000003e0: 63e2 0abe 0a78 ee3d f85b 02be eadd e43d
000003f0: f0ef 8bbe 7f04 cf3e d929 4bbd 2143 a1be
0.31001696 -0.4747205 0.20868808 -0.27444002 0.13025199 -0.040359847 0.13118641 -0.17980556
-0.043834265 0.20283076 0.17373225 -0.10301064 0.6826759 0.1272437 0.18332961 -0.18188126
-0.24566923 0.17968513 -0.03729163 -0.098344974 -0.4154544 -0.303257 -0.24076268 -0.23237553
-0.635749 -0.035040453 0.004439399 0.20245896 0.43273938 0.08659927 0.0203965 -0.15060104
0.15012166 0.3042055 0.2744026 0.050652716 -0.58176196 0.30189762 -0.013916068 -0.30502048
0.09106857 0.38192597 -0.014985841 0.21320227 0.20434488 -0.17754696 0.08523914 0.27626026
0.4694986 0.57665086 -0.25312924 0.06814839 0.18227237 0.1731685 0.15225182 -0.06513259
-0.061952714 -0.39949307 -0.51002157 0.029602299 0.2214011 0.071947545 -0.019744974 0.16094324
0.14579496 -0.04720153 0.11183364 0.19640477 -0.16712297 -0.039958768 -0.044988684 0.38958985
-0.13331263 0.25731853 -0.01730589 -0.18581085 -0.26294112 -0.21410416 0.20452885 0.12788135
0.06947524 -0.121281505 0.75912285 0.016183004 -0.029671203 0.5974642 -0.11919945 -0.13683613
0.2828781 0.10671596 0.19263229 -0.1723008 0.56906784 -0.10937017 -0.23322818 -0.42615226
0.09680639 -0.16393991 0.15673225 -0.32100046 -0.088324204 -0.3478524 0.105237216 -0.2824048
-0.24725884 0.07903218 -0.024362637 0.30921057 0.0545624 0.20752111 -0.17733806 0.23166876
-0.09132356 0.07234338 -0.27195132 -0.22295696 -0.07776734 0.028224755 0.45446572 -0.36723983
0.17014395 -0.085676104 0.43639502 -0.44481805 -0.052171074 -0.37375015 -0.2830923 0.18354373
0.052590456 0.052102834 -0.24959272 -0.5982934 0.37639108 0.22387646 0.11274643 0.10677656
0.33161306 0.1496347 0.2029365 0.1098819 -0.1404613 -0.5746527 0.139094 0.21932341
0.3298771 0.040010173 -0.5178191 0.40185204 0.112633556 0.07275811 0.11174815 0.31800324
-0.003446293 -0.3741906 0.107386395 0.058184493 0.38501167 0.20657752 -0.6733696 -0.0762858
0.17395996 0.109564215 -0.40166187 -0.18234831 -0.0064695994 -0.23999482 -0.1770429 -0.75621146
-0.14211935 -0.10354366 -0.1136092 -0.13529731 -0.34196445 -0.35032517 0.19234003 -0.16947687
0.18918596 -0.23950633 -0.14256117 -0.04547928 0.18670581 0.23770276 -0.21321142 -0.23408252
-0.8331671 0.09282861 0.06666298 -0.0074609634 -0.14612831 -0.12153771 -0.0870074 0.03133611
-0.16233782 -0.12330427 -0.043229867 0.36598492 0.034568936 0.1676886 0.09084883 -0.014112994
-0.1927802 0.61116654 0.058536492 0.31549963 0.09905401 0.26390904 0.21713686 -0.2558611
0.33987242 0.08456982 -0.038746197 -0.29490927 0.35661042 -0.19549806 0.20851427 -0.06310071
-0.06226267 -0.18851972 0.2709708 0.5703442 -0.11054566 -0.20922133 -0.17772509 -0.28932732
0.10850635 -0.071395636 0.22096863 0.038142208 0.26128855 -0.11662684 -0.19163778 0.3208976
-0.21952152 -0.15019758 -0.113053754 -0.014598442 -0.31332323 0.5957659 0.16455871 0.57902217
0.4702968 0.11665717 0.08814915 -0.29597297 -0.22666727 0.4960522 0.30552605 0.20201078
-0.13562922 0.116439894 -0.12730396 0.11175139 -0.27331495 0.40433118 -0.049600456 -0.31496528

value_net.module_2.bias f4 [32]
00000000: 119b 97bc 4094 be3c 9857 faba 53af 683c
00000010: a427 d9bc 710f b33d 63f9 6dbb 20f2 c43c
00000020: 838f 56bd 2cf5 c8bd ce4e 69bc e923 723b
00000030: 3f31 c53d 222e 39bc 29b8 323d c537 f4bc
00000040: f520 9a3b 1322 19bb 56d7 053d 57da 6cbc
00000050: baf9 b6bc 7833 ce3d 96e9 84bc 55e9 3f3d
00000060: 81de 883c 13a5 bcbd f4cd 77bd d2d7 88bc
00000070: 45e0 573d c1c6 85bd 54de a73a 1137 473d
-0.018506559 0.02326405 -0.0019099591 0.014201957 -0.02650816 0.087431796 -0.0036311976 0.024041235
-0.052382957 -0.09812388 -0.01423998 0.0036947674 0.096285336 -0.011302503 0.04363266 -0.02981175
0.004703636 -0.0023366257 0.032676063 -0.014456353 -0.022335876 0.10068411 -0.016224664 0.046853382
0.01670766 -0.09211173 -0.060499147 -0.016704474 0.052704114 -0.0653205 0.0012807348 0.0486365

value_net.module_2.lin.weight f4 [32, 32]
00000000: a6a4 37be a24f 37be d250 983e c815 85bd
00000010: 566c 2bbe 7ec4 ddbd f3b7 3dbe e65e 5ebe
00000020: 9d60 15be 02b7 d7be 8272 d2bb 438d f93e
00000030: 37df 46bd 432e e7be 07f2 e33e 5c72 8fbe
00000040: d38f 253d af79 3dbf 1f41 15be f37f c73d
00000050: ccad 023f ab90 64be 661a cb3b b4f3 853d
00000060: 1057 063e f824 3a3e 2beb d53d 76ec b23e
00000070: 1bbd c8bd a432 2fbe e202 f5bd c4a0 f5bc
00000080: d7ae b53d 4d96 df3e 2765 8c3e 4383 87be
00000090: 5d28 6cbe 40b4 97be 4cd4 1fbe fe18 95be
000000a0: 498f c53e bacc 093f 6f4e 833d a3c0 f23c
000000b0: 591c 83be 643a 593d 4bb8 d2bd 06dc f5be
000000c0: 0eb1 1fbe bcec 21be d273 20bf 55b8 55bd
000000d0: e6f3 80bd 625f 38be b4fe c03d 192f 403e
000000e0: bae9 f93d b647 cb3e 965b ed3d d56c 80be
000000f0: c53e 0c3e c728 bb3c 43ff 603e e721 15bd
00000100: 1145 9abe ee7b 3bbf 2445 993e 6357 663e
00000110: 03b4 c4bb adc7 38be 7bb1 efbe 5c70 1e3e
00000120: 0714 9c3e 9a08 b23e e301 113f c16a 123e
00000130: c585 64be 0371 6b3e 738f 16bd 2f46 d4bd
00000140: 09eb 483e 7777 dd3d 5b2c 7f3e 3c68 b7bc
00000150: fd8b 62be 9401 163e c97a 74bd ca89 48bb
00000160: 6d86 24be eef3 313f b07d c93c 1c3a e73d
00000170: 79fb 8dbe 2521 61be 2f03 54be 4eef 36be
00000180: 3570 1b3e 3e0e 80be 7abd 163e 8c80 693a
00000190: 2649 5dbe e655 553d 72aa 80be 4130 f7be
000001a0: 2775 abbe 1a84 193e 40b4 ebbc 3660 0cbe
000001b0: 2f76 df3e 381e b83e 0d31 083e 6252 38bf
000001c0: 13a6 533e 7f80 4fbe 1e18 c83e d9ae 08be
000001d0: 3437 5dbd e936 bb3c aa05 52bd 5ab0 f43d
000001e0: 1fcb bbbe 1f76 85be 23f8 4bbe bac1 0abe
000001f0: 4e64 b9be 5fd3 f33c 0374 9dba 7d38 003e
00000200: 4271 bebc 4601 a4be 17a4 06be da5d 67be
00000210: b9ff 8c3b 581d f8bd e946 edbe 6417 e9bd
00000220: 95cf 19be 945d caba 7c85 c6be f75c 36bf
00000230: a2a6 febe 2da7 20be db02 943c b832 23be
00000240: 49d7 cabe cce2 713e 8dc4 e63c 7b14 7e3e
00000250: 2dc8 073e c3ca f5bc d1c0 51bd 2ebf 91bc
00000260: d77b bdbd 15f4 78be 2f53 71bd 7a98 ffbd
00000270: 6fd6 1e3e 3736 b5be a640 c63d a8b9 a7bd
00000280: 926b 05bf 7db3 abbe 0821 743e 9c9a fbbd
00000290: 8e24 7fbe f8eb e23c db84 013f a0c4 d0be
000002a0: 70e6 48be 9c95 06bd d772 1abe eb53 133d
000002b0: ba55 68be ed80 2d3f 2b03 b6be 649a 553e
000002c0: ea02 bcbd 7dcc e2be db85 843e bc31 363d
000002d0: f645 1cbc 92cf 1bbe 6787 db3d 7f70 603e
000002e0: 7143 023e 7950 953c 631c 543e 3d08 a3be
000002f0: 3bcf fabe 24b6 02be d056 57be 31ee f83c
00000300: 849a a2be 2a3e 8c3e be50 70be 6876 8d3e
00000310: 5e59 f3bc 2800 34be 2a74 fbbc 03fb 95be
00000320: ecb8 df3d 6bba 98bc 2949 9b3e ef4a cbbb
00000330: 2501 1e3e 4653 8fbe 3d14 883c ada7 1ebb
00000340: f318 95bd 1ab8 debd 779d db3e 0b0b 413f
00000350: cb92 94be ff66 2b3d 71ff 303e b97a 4ebe
00000360: 2f1c b33e 0bde f4bd c0b7 923b d65a 4c3a
00000370: 5f01 073f 9b3f 07be e916 7b3e cb39 afbe
00000380: e225 103d 8688 58bc 177b e4bc c7d7 843e
00000390: ff65 47bf 6259 a83e 3270 7f3d 29aa 5f3d
000003a0: 9c30 663e 6171 fabb 57b0 3bbe 545b 803d
000003b0: 1ffd 8ebe 50be 013e 8561 cb3d b0b5 94be
000003c0: fd5d a43e 9652 003f 0dac 603e 0141 8f3e
000003d0: b103 983e e3e1 09bd 7866 3fbd 4ebe 783d
000003e0: 8d68 1a3f 2f9d 5c3d 0047 91be 2ebd 1ebe
000003f0: a455 82be eb07 8a3e 766c 66bd 93d7 babd
-0.17933902 -0.17901471 0.2974916 -0.06498295 -0.16740546 -0.108284935 -0.18527202 -0.21715888
-0.14587636 -0.4213181 -0.006422342 0.48740587 -0.048552718 -0.45152482 0.4452059 -0.28016937
0.040420365 -0.740138 -0.14575623 0.09741201 0.51046443 -0.22320811 0.0061982153 0.06540623
0.13119149 0.18178165 0.10445245 0.3494603 -0.09801694 -0.17109162 -0.119634405 -0.029983886
0.08871239 0.43669358 0.27420923 -0.26467332 -0.23062272 -0.29629707 -0.15608329 -0.2912063
0.3858588 0.5382801 0.064114444 0.029632872 -0.25607565 0.0530342 -0.10289057 -0.48019427
-0.15594885 -0.15812963 -0.6267673 -0.052177746 -0.0629652 -0.18005136 0.09423581 0.18767966
0.12202783 0.3970315 0.11589734 -0.25083032 0.1369582 0.022846593 0.21972375 -0.036409285
-0.30130818 -0.73235977 0.29935563 0.22494273 -0.0060029044 -0.1804492 -0.46815094 0.15472549
0.3048403 0.34772187 0.56643504 0.14298536 -0.22316654 0.2299233 -0.036757898 -0.10364949
0.19620909 0.10813802 0.24919264 -0.02238857 -0.22123714 0.1464904 -0.05968741 -0.0030599707
-0.16066904 0.6951283 0.024596065 0.1129038 -0.2773092 -0.219853 -0.2070434 -0.17864725
0.15179522 -0.25010866 0.14720717 0.00089073996 -0.21609935 0.052083872 -0.2513004 -0.48279002
-0.33487818 0.14991799 -0.028772473 -0.13708577 0.43644854 0.35960555 0.13299961 -0.72000706
0.20668821 -0.20263861 0.390809 -0.13347949 -0.054007724 0.022853332 -0.051274933 0.11947699
-0.36678407 -0.26066682 -0.19918875 -0.13550463 -0.3620934 0.029763876 -0.0012012724 0.12521549
-0.023247365 -0.32032222 -0.13148533 -0.22594395 0.0043029455 -0.12114972 -0.46343163 -0.113814145
-0.15020593 -0.0015439265 -0.38773715 -0.71235603 -0.49736506 -0.15688772 0.018067768 -0.15937316
-0.39617375 0.23621672 0.028169895 0.248125 0.13259955 -0.03000391 -0.051209275 -0.017791357
-0.09252136 -0.2431186 -0.05891722 -0.124802545 0.15511487 -0.35392925 0.096802995 -0.08189708
-0.52117264 -0.33535376 0.23840725 -0.12285349 -0.24916288 0.02770041 0.50593346 -0.40775013
-0.19619155 -0.032857522 -0.1508287 0.035968702 -0.22688952 0.6777485 -0.35549292 0.20859677
-0.09180243 -0.44296637 0.25883374 0.044481024 -0.009538164 -0.152159 0.10719185 0.21917914
0.1272104 0.018226849 0.20713954 -0.31842223 -0.4898623 -0.12764794 -0.2102921 0.030387016
-0.3175851 0.27391177 -0.234683 0.276294 -0.0297057 -0.17578185 -0.03069504 -0.2929307
0.10923943 -0.018643579 0.30329254 -0.006204001 0.15430124 -0.2799322 0.016611213 -0.002420883
-0.07280149 -0.10874958 0.42893574 0.75407475 -0.29018244 0.04184627 0.17284943 -0.20164002
0.3498244 -0.11956414 0.004477471 0.0007795518 0.5273647 -0.13207857 0.24520458 -0.3422378
0.035192378 -0.0132161435 -0.027890725 0.25945875 -0.7789001 0.32880694 0.062362857 0.054605637
0.2247948 -0.0076429104 -0.18328987 0.062674195 -0.2792749 0.12670255 0.0993071 -0.29044867
0.32102957 0.50126016 0.21940632 0.27979282 0.29690316 -0.033662688 -0.04672858 0.060728364
0.6031578 0.05386084 -0.2837448 -0.15501854 -0.25455964 0.26959166 -0.05625578 -0.09123149

value_net.module_4.weight f4 [32, 32]
00000000: 64b4 233e b15f 2e3e 33a7 f03e b7f5 c43e
00000010: 8b2e 9f3e 806a 7abe 1d66 1ebe ecf7 f1bd
00000020: 0900 dabe 107f 173d e29d 803c 02d4 dd3d
00000030: 8fe0 e93e 230d 56be 9f30 4b3e 6f41 7bbe
00000040: 2eba 0a3e dab8 a3be ab94 87bd 5eaf 97bd
00000050: a583 27be 2827 ff3d 8b6d a33d e1ab a33e
00000060: b89d 1a3d f02d 4a3e 94f1 d0be 3a48 fdbc
00000070: 383d c5be 1cef 4c3e 8ab9 75be c7d4 7fbe
00000080: 5094 92bd 85d7 79be e4e3 b63e 10b9 f0be
00000090: bc49 a13d 0fdb 08be 1515 d93c c93f 95be
000000a0: 0adb 0c3c ba4e 05be 3b31 1cbe dc18 f0bd
000000b0: c8c1 a7bd 5838 b13e 9764 17bf c8fa 8ebe
000000c0: 8834 24be 1e51 933e 1c58 c8be d851 2e3d
000000d0: 0cba 6a3e 8703 43be 4475 70be 5ea9 163e
000000e0: dd93 6f3e fb34 983d afc8 9fbe c2ac 83bb
000000f0: 316d f5be cbbd fbbe 08e3 1cbd 34fc 07be
00000100: 3811 e3bd 71ed 563d 209c 913e 4385 e8be
00000110: ad3e 05be 7623 bb3e 8942 9c3d ca48 883e
00000120: de2d c53b 9356 ab3e d8df 6f3d d4b1 6e3e
00000130: 7a6f db3c da02 45be 469b b83d 5b5a fb3c
00000140: 9811 7b3e 0114 b7be 8b59 033e 8f31 893e
00000150: ff3a 8e3e 296d 0e3e a76a 7eba 0f98 a5be
00000160: 8bb5 3dbe b801 503f 5179 903d 0ab0 6fbe
00000170: e828 efbd ec2c 17bd cb34 3fbe 5ae6 2f3e
00000180: 2dca f63e 7d11 1dbd 42ae 50be 6e2c 873e
00000190: e6d5 86ba 0b58 e33e b129 d7be 1db9 bd3e
000001a0: 30b2 56bd ea42 d2bd bb40 023e f947 1bbd
000001b0: 67d4 8fbd aad4 b53e 2040 acbd 7c70 d4be
000001c0: d8d6 cbbe 3bbc a6be 27ce abbd b581 85bd
000001d0: ea32 9b3e 2694 9dbd 7c0b fa3c 5c37 8cbe
000001e0: fb50 55bd 2002 8cbe 5011 22bf 2eb7 aa3c
000001f0: 3765 103d 939f 433d 9e74 debd 553e 1dbb
00000200: 28a6 60be b427 87be 2902 2c3d 15ff 203e
00000210: a1c6 203d 6ae4 a73e f6bf 7abe e398 32be
00000220: 38a7 3a3d 80bf 673e fa93 7e3d abff 543d
00000230: 2efd ba3d a7ce 043e 4ee6 8739 48ae eb3e
00000240: 071e 22bf ed77 423d 945d e83e be43 b93e
00000250: 7179 76be 8496 23bd e3d6 c7bc 1b31 58bd
00000260: f633 65be 5643 afbe b1dd 11bf c579 c6be
00000270: 86c5 bfbd ae12 93be 7303 6fbd adbf 08be
00000280: 2463 1bbe 17f8 933c ed30 83be 84d7 12be
00000290: 255f 1c3f 6d76 c2bd 14f1 2bbe 654c ac3c
000002a0: 7651 ec3d 0806 54be e547 cf3e 6dbf da3e
000002b0: c0aa a7bd c659 393e 233d 93bd 5353 023f
000002c0: 9496 ff3d 733d a2be 8ea6 3e3e c2ec a2be
000002d0: 4e55 913e 6406 673e 39fa 7b3a 0de1 253e
000002e0: 2b36 a33e 73fa 5f3d 27b1 f5ba a939 1e3e
000002f0: 7835 7abd 69aa fabd 83b7 2fbe a860 9dbe
00000300: 2831 7e3e 10db 7cbe 2b8a adbe e58e 7d3e
00000310: d593 b03c 292b 43bd fed7 113e 422b 8f3d
00000320: 7cfa ffbd 2b40 063e 5898 d2bd d5a7 693e
00000330: 69d1 073f 4726 9d3e 9aff 57bc f920 313e
00000340: e5af 043e 35c3 493e ce3c 693e 69f8 a23e
00000350: bca6 cc3e be3d 52be fc7e b53e 16a3 c8bc
00000360: 1ad2 84be bbd7 2cbe 644a a03e 2a20 273e
00000370: 5969 fdbe ab6c bfbd be9c babe e186 883e
00000380: 5982 dd3d 971e a5be 25a3 b63e 5f59 c83e
00000390: 2032 723e 1e3d 903e 87a7 5f3e 4539 543e
000003a0: a637 4b3e 8609 16be ac3c b43d 39fc 893d
000003b0: a281 993e 3a7f d2be cba8 96be 61d5 e8bd
000003c0: eca6 29be 5d10 b8bd 8791 d73e 642c 8cbe
000003d0: d49c d1bd 2480 20bf 2f8f 77bd e4f9 51be
000003e0: cee2 853e be1d 933d 2c7c 00bd 9614 783e
000003f0: 399d 953c a0ae 98be 3cde 4c3e 75aa e8bd
0.15986782 0.17028691 0.47002563 0.38468716 0.31090197 -0.24454689 -0.1546864 -0.118148655
-0.42578152 0.03698641 0.015700284 0.10831453 0.45679137 -0.20903449 0.19842766 -0.2453668
0.13547584 -0.31976968 -0.06620153 -0.074064955 -0.16358812 0.1245864 0.07979878 0.3196707
0.03774807 0.19744086 -0.4080931 -0.03091823 -0.3852327 0.20013088 -0.23996559 -0.24983512
-0.071571946 -0.2439862 0.35720742 -0.4701619 0.07875392 -0.13364814 0.02649931 -0.29150227
0.008597145 -0.13018313 -0.15253155 -0.117234915 -0.08191258 0.346133 -0.5913786 -0.27925706
-0.16035664 0.28772825 -0.39129722 0.04255852 0.22922534 -0.19044314 -0.23482233 0.14713046
0.23396249 0.0743198 -0.31207797 -0.004018397 -0.4793487 -0.49168238 -0.03830245 -0.13279802
-0.110872686 0.052472536 0.28439426 -0.4541417 -0.1301219 0.36550492 0.07629878 0.26618034
0.0060174307 0.33464488 0.058563083 0.23310024 0.026786555 -0.19239369 0.09013991 0.030682733
0.2451843 -0.3575745 0.12827127 0.26795623 0.27779385 0.13908829 -0.00097052235 -0.32342574
-0.18526284 0.8125262 0.07054389 -0.23406997 -0.11677724 -0.036908075 -0.18672483 0.17177716
0.48201123 -0.038346756 -0.20378974 0.26401085 -0.0010287135 0.4440311 -0.42023996 0.37055293
-0.052416027 -0.10266669 0.12720005 -0.037910435 -0.070229344 0.35513812 -0.084106684 -0.4149207
-0.3981235 -0.32565483 -0.0838893 -0.0651888 0.30312282 -0.07694273 0.030523054 -0.27385986
-0.052079182 -0.2734537 -0.63307667 0.0208393 0.035252776 0.047759604 -0.10862087 -0.0023993452
-0.21938384 -0.2639748 0.041994248 0.15722306 0.039251927 0.32791454 -0.2448729 -0.17441134
0.04556963 0.22631645 0.06215284 0.052001636 0.091303214 0.12969457 0.00025920797 0.46031404
-0.6332707 0.04747765 0.45383894 0.36184496 -0.24069764 -0.039938465 -0.024394458 -0.052781206
-0.22383103 -0.3423106 -0.569789 -0.38764778 -0.093638465 -0.2872519 -0.0583529 -0.13354369
-0.15174538 0.018062634 -0.25623265 -0.14340025 0.6108268 -0.09495244 -0.16791183 0.021032522
0.11538975 -0.20705426 0.4048454 0.4272417 -0.08186865 0.18100652 -0.07189395 0.5090839
0.124798924 -0.31687507 0.18618223 -0.31821257 0.28385395 0.22561032 0.0009612176 0.16199131
0.31877264 0.054682206 -0.0018744812 0.15451683 -0.061086148 -0.122395344 -0.17159848 -0.30737805
0.24823439 -0.2469294 -0.33894476 0.24761541 0.021554867 -0.047648583 0.1424255 0.06990673
-0.12498948 0.13110416 -0.102829635 0.22817929 0.5305391 0.30693266 -0.013183499 0.17297734
0.12957723 0.19703372 0.22777101 0.31830147 0.39970958 -0.20531365 0.35448444 -0.024491828
-0.25941545 -0.1687917 0.31306756 0.16320863 -0.49494436 -0.09346899 -0.3644771 0.26665404
0.108158775 -0.322499 0.35671344 0.39130685 0.23651934 0.2817163 0.2184125 0.20724972
0.19845447 -0.1465207 0.08800635 0.06737561 0.29981714 -0.4111269 -0.29425654 -0.11368824
-0.16567582 -0.08987496 0.42103216 -0.27377617 -0.10234991 -0.6269553 -0.060439285 -0.20505482
0.261496 0.07183407 -0.03136842 0.24226603 0.018263446 -0.29820728 0.2000665 -0.11360637

value_net.module_4.bias f4 [32]
00000000: 58d7 a53d 2afa 54bc 39ec 0a3c dcac ed3d
00000010: e6a8 793d 7954 58bd 0cfc 8b3d 01a7 46bd
00000020: 0eaf 853c 3b59 2fbd 2162 043d 9ead 453d
00000030: 5550 453d 1dcc 703d c5be a33d f5d4 613d
00000040: a975 f73c dd4f 183c 8b17 74bd 4988 6a3c
00000050: 86ca 623d 71ba 9abd 4213 dd3a fe4c 71bd
00000060: fd00 923c 2182 8d3d 6506 d8bc efed 83bd
00000070: 7f98 1c3d 06e3 583d 0d3f 0a3d e5bf 453d
0.08097714 -0.012999097 0.008479171 0.11605236 0.06095209 -0.052814934 0.068351835 -0.04849911
0.016318824 -0.042809706 0.032320146 0.048261277 0.048172314 0.058788408 0.07995371 0.055134732
0.030207472 0.009296385 -0.059592765 0.0143147195 0.055368923 -0.07555092 0.0016866701 -0.058911316
0.017822737 0.06909586 -0.026370237 -0.064418666 0.03823137 0.05295088 0.033751536 0.048278708

value_net.module_7.weight f4 [1, 32]
00000000: 40f4 8cbd 8127 aa3c 0599 efbc 8306 253d
00000010: 6eb8 76be 1609 fd3d 9902 e4bb 3f0f a03d
00000020: 2354 20be 38a1 fa3e 8a09 1fbd c2d7 31be
00000030: a15d c6bc 53a9 87be 31f9 0bbe c819 68bc
00000040: 23c6 3bbe c2cd 5ebc 4ea3 ff3c 122b 5abd
00000050: 16d5 35b9 7054 da3c 0037 68be a2d3 7e3d
00000060: 939e 1cbe f6a4 b93d 6b69 f23b 31a2 7e3e
00000070: 70c3 24bd 167a abbd 428c 22be 247e 52bd
-0.068825245 0.02077079 -0.02924777 0.040289413 -0.24093792 0.12355249 -0.0069583175 0.07815408
-0.15657096 0.48951125 -0.038827457 -0.17367461 -0.024214568 -0.26496372 -0.13669278 -0.014166303
-0.18337302 -0.013598861 0.0312058 -0.05326373 -0.00017340886 0.026651591 -0.22677231 0.062213548
-0.15294866 0.09064667 0.0073978207 0.24866559 -0.040225446 -0.083728954 -0.15873817 -0.05138983
