MAPPO/Graph_H/save/HY_T1/agent_15_MAPPO_r.pt (torch, 28570 bytes, 15 tensors)

policy_net.module_0.bias f4 [32]
0	0xbce0ce1d	-0.027442032
1	0xbc78ba30	-0.015181109
2	0x3c8421ae	0.016129341
3	0x3d251bb3	0.04030962
4	0xbcc67601	-0.02422619
5	0x3d090872	0.03345532
6	0x3d1f2ea9	0.038862858
7	0x3c980885	0.01855875
8	0x3d289d84	0.041165844
9	0xbcd9e6df	-0.026599346
10	0xbc6c6e8c	-0.014430653
11	0xbce9ba66	-0.028531265
12	0x3cddc27e	0.02707028
13	0xbca0166f	-0.019541947
14	0xbd4e792c	-0.050408527
15	0x3d076911	0.033059184
16	0xbd0ee522	-0.034886487
17	0x3d073620	0.033010602
18	0xbd338ee4	-0.043837443
19	0x3d195b0f	0.037440356
20	0xbd37a3fd	-0.044834126
21	0x3d1a0308	0.037600547
22	0xbcf77cf0	-0.030210942
23	0x3cc0f63c	0.023554914
24	0x3be738ba	0.007056323
25	0xbd042dc7	-0.03227022
26	0xbd2ef664	-0.042715445
27	0xbd0e1260	-0.034685493
28	0xbd20ff5f	-0.03930604
29	0x3d273635	0.04082318
30	0x3d0f6c36	0.035015307
31	0x3d1bbae2	0.038020022

policy_net.module_0.lin.weight f4 [32, 2]
0	0xbd3b5604	-0.045736328
1	0xbeb23737	-0.3480775
2	0xbef88509	-0.48538998
3	0x3d99cf5b	0.07510253
4	0x3e867bbe	0.26266283
5	0xbd638c0b	-0.055553477
6	0xbe62836e	-0.22120449
7	0xbe9cdcdd	-0.30637255
8	0x3db055fc	0.0861015
9	0xbe9495e8	-0.2902062
10	0xbe5ad662	-0.21370843
11	0xbe7d998f	-0.24765609
12	0x3d80e08d	0.0629283
13	0x3e8010b0	0.25012732
14	0x3e00215d	0.12512727
15	0x3f3d3556	0.7390951
16	0x3d9f23b2	0.0777048
17	0x3e6e2e09	0.23259749
18	0x3d06d337	0.032916274
19	0x3e197ef9	0.14989842
20	0xbd4ea2dc	-0.050448284
21	0x3e222f4b	0.15838353
22	0x3ec84440	0.3911457
23	0xbec689ab	-0.38776907
24	0x3e37262d	0.17885657
25	0x3eeb412e	0.45948166
26	0xbee0c537	-0.43900463
27	0x3c9a57f3	0.018840766
28	0xbe0f8b97	-0.14018093
29	0x3df0027d	0.117192246
30	0x3eb75bd8	0.3581226
31	0x3e5f4265	0.21802671
32	0x3d082f18	0.033248037
33	0xbec98d52	-0.3936563
34	0xbe2c500c	-0.1682741
35	0x3ed5b8ba	0.41742498
36	0x3e814634	0.25248873
37	0xbecc6295	-0.39918962
38	0x3e9d8726	0.30767173
39	0x3e997b16	0.2997672
40	0x3e4ad75f	0.1980872
41	0xbd9805b8	-0.07422966
42	0xbea28fdf	-0.3175039
43	0x3eb26c3e	0.34848207
44	0x3ddc702b	0.10763582
45	0xbe147c1c	-0.14500469
46	0x3ecee70b	0.40410647
47	0x3ee917ca	0.45525962
48	0x3d473bce	0.04864102
49	0xbd2f1726	-0.042746685
50	0xbeceb688	-0.40373635
51	0xbcdca44a	-0.026933808
52	0xbe6319bf	-0.2217779
53	0xbe13741b	-0.1439976
54	0x3dbe5ea5	0.09295396
55	0xbe5ae671	-0.21376969
56	0xbe8d630f	-0.27614638
57	0xbe4f134e	-0.20222208
58	0xbc92949f	-0.017893134
59	0x3e1c93e3	0.1529079
60	0xbef3859c	-0.47562873
61	0x3ea3a900	0.31964874
62	0xbb48926b	-0.003060485
63	0x3e6d8e9a	0.2319893

policy_net.module_2.bias f4 [32]
0	0x3cc86bfd	0.024465555
1	0x3d30a21e	0.043123357
2	0x3c779162	0.015110346
3	0x3d26db63	0.040736567
4	0x3caac12e	0.020844068
5	0xbd2db921	-0.04241288
6	0xbd4ee362	-0.050509818
7	0xbd02368e	-0.03179031
8	0x3ca8ff04	0.020629413
9	0x3d1a9c8b	0.037746947
10	0x3d517fe0	0.05114734
11	0xba7e6c8f	-0.00097055075
12	0xbd39d3fe	-0.045368187
13	0x3d09a5e9	0.03360549
14	0x3ca7cb35	0.020482639
15	0x3cf09a09	0.029370325
16	0xbd27cd78	-0.040967435
17	0x3d261064	0.040542975
18	0xbd32eb63	-0.043681514
19	0xbcba7f27	-0.02276571
20	0x3cf3d2f5	0.029763678
21	0xbd1e8555	-0.038701374
22	0xbd31e50d	-0.04343133
23	0xbcd8cb87	-0.026464237
24	0xbd515b3f	-0.05111241
25	0xbd319f16	-0.043364607
26	0x3d391d87	0.045194175
27	0x3d0df182	0.034654148
28	0xbd35ce6a	-0.044386305
29	0xbd2f68e9	-0.04282466
30	0xbd501b16	-0.05080708
31	0xbd202ce4	-0.03910531

policy_net.module_2.lin.weight f4 [32, 32]
0	0xbeb54193	-0.35401592
1	0x3e39d526	0.18147716
2	0x3dbec35a	0.09314604
3	0xbd4b31ce	-0.049608044
4	0xbd02d288	-0.03193906
5	0x3dccfef9	0.1000957
6	0xbd961391	-0.07327951
7	0x3ed7d306	0.42153186
8	0xbe96123a	-0.2931078
9	0x3e8e5d8a	0.2780574
10	0x3d1d729b	0.038439374
11	0xbf14f669	-0.5818849
12	0x3eae15bd	0.3400096
13	0x3e22627d	0.15857883
14	0xbd6610a2	-0.056168206
15	0x3ed7c113	0.4213949
16	0xbe8e27f0	-0.27764845
17	0x3d2d30cc	0.042282864
18	0x3e5307aa	0.20608392
19	0xbeaacef4	-0.33361018
20	0xbe704345	-0.23463161
21	0x3ef3cfc7	0.4761946
22	0xbe0fa23b	-0.1402673
23	0x3e0c7235	0.13715442
24	0xbeeccf99	-0.46252134
25	0xbe046f4d	-0.12933083
26	0xbe054023	-0.13012747
27	0xbc55ab82	-0.013041379
28	0xbe6e4d59	-0.23271693
29	0x3d8a6e49	0.067593165
30	0xbdd37af5	-0.103261866
31	0xbe9d0b13	-0.3067251
32	0xbd4e49f3	-0.050363492
33	0x3dccffea	0.10009749
34	0xbe8f12cd	-0.2794403
35	0xbdaf8c72	-0.0857171
36	0xbe72322f	-0.23651956
37	0xbf050272	-0.51956856
38	0xbcb2c27f	-0.021821259
39	0x3e9d0cb6	0.3067376
40	0x3c7bcd66	0.015368795
41	0x3d56fb3d	0.052485693
42	0xbf04785d	-0.5174616
43	0x3e72e913	0.23721723
44	0xbd6f4daa	-0.058423676
45	0x3e0c3047	0.13690291
46	0xbe9b8561	-0.30375198
47	0x3edc853c	0.430704
48	0xbe9718ab	-0.29511008
49	0xbe83e612	-0.25761467
50	0xbe6fe546	-0.23427305
51	0x3d1be3ef	0.03805917
52	0xbd5d03ac	-0.05395858
53	0x3e889865	0.26678768
54	0xbd6d1e6e	-0.057890348
55	0x3d71ef3d	0.059066046
56	0x3dafb7b8	0.085799634
57	0xbcb18256	-0.021668594
58	0x3c7fb7b9	0.015607768
59	0xbf4d05e8	-0.8008714
60	0xbd08d19d	-0.033403028
61	0x3c8db0b9	0.017296182
62	0x3ea354b8	0.31900573
63	0x3e5a320c	0.21308154
64	0xbe74d004	-0.23907477
65	0xbd57d73b	-0.052695494
66	0xbe6ce879	-0.23135556
67	0x3d60ff5d	0.054931033
68	0xbdc8e48a	-0.09809215
69	0xbe503ba9	-0.20335259
70	0x3e7f2828	0.24917662
71	0x3e4b607c	0.19861025
72	0x3ea8df50	0.32982874
73	0x3f061ab9	0.52384526
74	0x3e8b9bc1	0.27267268
75	0x3d8b6f55	0.06808344
76	0x3e69fda0	0.22850657
77	0xbec86f3c	-0.39147365
78	0x3e80e22e	0.2517256
79	0xbe2d3966	-0.16916427
80	0x3ed02fae	0.40661377
81	0xbead6ed6	-0.33873624
82	0xbdd76b6e	-0.105185375
83	0x3cef4e03	0.029212004
84	0xbe82a5c0	-0.25517082
85	0x3d876d19	0.066126056
86	0x3eb01063	0.34387502
87	0x3ec7240c	0.3889469
88	0x3d9e8044	0.077393085
89	0x3e315631	0.17318036
90	0xbe0ee761	-0.13955452
91	0xbe3be097	-0.18347393
92	0xbd8e8ec6	-0.069608256
93	0x3e19d00c	0.1502077
94	0x3e8d0040	0.27539253
95	0xbecef2f6	-0.4041974
96	0xbe1e9924	-0.15488106
97	0x3ea336be	0.31877702
98	0xbe873729	-0.2640927
99	0x3e5bc351	0.21461226
100	0x3ea9b033	0.33142242
101	0xbd98d883	-0.07463171
102	0x3de86762	0.11347844
103	0xbb2791de	-0.0025569121
104	0x3e12f22b	0.14350192
105	0xbe81581b	-0.25262532
106	0xbea2a528	-0.3176663
107	0xbe762a90	-0.24039674
108	0x3f1c83fe	0.61138904
109	0xbe552d40	-0.20818043
110	0xbe6948d4	-0.22781688
111	0x3db49eb8	0.08819336
112	0x3d89e174	0.06732455
113	0x3e345b1d	0.17612882
114	0xbd179120	-0.037003636
115	0x3e8d0e9b	0.27550206
116	0xbed67c1e	-0.4189157
117	0xbcd01cb2	-0.025404308
118	0xbea9b7c2	-0.3314801
119	0x3e372cb8	0.17888153
120	0x3e81d2c5	0.25356117
121	0x3e763eb1	0.24047352
122	0x3ecff842	0.40619093
123	0x3d90779e	0.07054065
124	0x3e275598	0.16341245
125	0xbeb5405a	-0.3540066
126	0xbd141718	-0.036154836
127	0xbe2682fb	-0.16260903
128	0xbe0951aa	-0.13410059
129	0xbed8fb45	-0.42379203
130	0xbe278076	-0.16357598
131	0xbdfe07b0	-0.1240381
132	0x3ea0a0a2	0.31372553
133	0xbe55b1ce	-0.20868608
134	0xbe86c4fb	-0.2632216
135	0x3dcdaf96	0.10043256
136	0x3dadba6d	0.084828235
137	0xbe3eca2f	-0.18631814
138	0xbc8f9660	-0.01752776
139	0xbed492f0	-0.41518354
140	0x3eb678e1	0.35639098
141	0xbe8c4786	-0.27398318
142	0x3e06a5f0	0.13149238
143	0x3e59e9bc	0.21280569
144	0xbbf47770	-0.007460527
145	0xbea8512b	-0.32874426
146	0x3e8a0be3	0.26962194
147	0x3e09f0ea	0.13470808
148	0x3caa2442	0.020769242
149	0xbdb5eb78	-0.08882803
150	0x3e220676	0.15822777
151	0xbe44af5f	-0.19207524
152	0x3e7aeaaa	0.2450358
153	0xbd0abbca	-0.033870496
154	0xbdd32566	-0.103098676
155	0xbdd0dfd8	-0.10198945
156	0xbcf5ca77	-0.03000377
157	0x3f1d2353	0.61382025
158	0xbeb27228	-0.3485272
159	0x3eea7461	0.45791915
160	0x3e022720	0.12710238
161	0xbbe44d7d	-0.006967245
162	0x3e2d026a	0.16895452
163	0xbf2ff9e3	-0.6874067
164	0xbce33678	-0.027735934
165	0xbe262e0b	-0.16228501
166	0xbbd98b34	-0.0066389088
167	0xbe086f04	-0.13323599
168	0x3e7a3740	0.24435139
169	0xbe39beb1	-0.18139149
170	0xbe88c2b3	-0.26711044
171	0xbe9752f1	-0.29555467
172	0xbe49f8a3	-0.19723754
173	0x3dc9b5ce	0.098491296
174	0xbd942a3e	-0.072346196
175	0xbe849e58	-0.25902057
176	0xbd9f77a0	-0.077864885
177	0xbea27bb4	-0.31735003
178	0xbe11cb4a	-0.14237705
179	0xbe743ddf	-0.23851727
180	0x3e2805da	0.16408482
181	0xbec727eb	-0.38897642
182	0xbeb72406	-0.3576967
183	0x3e9c0f37	0.30480358
184	0xbdff6b6a	-0.124716595
185	0x3ebf9408	0.37417626
186	0x3dafda24	0.08586529
187	0x3c76df6b	0.015067915
188	0x3e21e9aa	0.15811792
189	0x3e4a6e5f	0.19768666
190	0xbe844ddb	-0.2584065
191	0xbee4df6b	-0.44701704
192	0xbebc8016	-0.36816472
193	0x3eaeb5c6	0.34123057
194	0x3e12ff83	0.14355282
195	0x3e34a9ae	0.17642853
196	0xbeedd70a	-0.46453124
197	0xbd834d0e	-0.064111814
198	0xbf1d5254	-0.6145375
199	0xbe6e4583	-0.23268704
200	0xbeb7e06d	-0.3591341
201	0xbea109e8	-0.3145287
202	0xbd14cc5d	-0.03632771
203	0x3e2af4cc	0.16694945
204	0x3dde59e4	0.10856989
205	0xbe5a4ff9	-0.2131957
206	0x3ec6e860	0.38849163
207	0xbdc4540e	-0.09586345
208	0x3e78bb86	0.24290285
209	0x3e3fa8e9	0.18716778
210	0x3c798169	0.015228608
211	0xbe429017	-0.19000278
212	0x3eb3d7ca	0.3512557
213	0xbdf6641a	-0.120308116
214	0x3e5733b2	0.21015814
215	0x3e2c00f5	0.1679724
216	0x3dbea922	0.09309603
217	0x3db8b9f9	0.090198465
218	0x3e4b9813	0.1988223
219	0xbe92f481	-0.28702167
220	0x3e4ccb58	0.19999444
221	0xbd6a9dda	-0.057279445
222	0xbeca5545	-0.3951818
223	0xbdeee148	-0.11664063
224	0xbf0e0990	-0.5548334
225	0xbe065a67	-0.13120423
226	0x3e417ef7	0.1889609
227	0xbdc37fc6	-0.09545855
228	0x3f1fc0b2	0.62403405
229	0x3d063040	0.03276086
230	0x3d7b6b69	0.06138173
231	0xbca5051a	-0.020144034
232	0xbd9c3afc	-0.07628438
233	0xbdff0f3a	-0.12454076
234	0x3ea17b74	0.315395
235	0x3e772940	0.2413683
236	0xbebb4b0a	-0.36580688
237	0x3d22664d	0.039648343
238	0xbcd92148	-0.026505128
239	0xbe1528e7	-0.14566384
240	0xbd34867e	-0.044073574
241	0x3e394838	0.18093956
242	0x3e9f1300	0.31069183
243	0x3eab3454	0.3343836
244	0xbe3ce7aa	-0.18447748
245	0xbdbe3f12	-0.092893735
246	0xbdc90701	-0.09815789
247	0x3d818b92	0.06325449
248	0xbec57328	-0.3856442
249	0x3e09e4ea	0.1346623
250	0xbb779391	-0.0037777165
251	0xbf0c214f	-0.54738325
252	0x3eb466b5	0.3523461
253	0xbd3e1904	-0.046410576
254	0xbcb4dc21	-0.022077622
255	0x3c462f40	0.012096226

policy_net.module_4.weight f4 [32, 32]
0	0xbdc59f85	-0.096495666
1	0x3f0d34bd	0.551586
2	0x3e6870e7	0.22699319
3	0xbc522791	-0.012826816
4	0x3db2ca21	0.08729959
5	0x3db520b8	0.08844131
6	0x3d2d62a7	0.04233041
7	0xbdf8aaec	-0.12141976
8	0x3d05b377	0.032641854
9	0x3d902cb5	0.07039777
10	0xbb5e8687	-0.0033954696
11	0x3ef71d10	0.4826436
12	0xbe2a1519	-0.1660961
13	0x3e6f258f	0.23354171
14	0x3f0f3970	0.5594702
15	0xbcc410d3	-0.023933804
16	0xbd9e22c0	-0.07721472
17	0x3f31cbf2	0.6945182
18	0x3b8ce585	0.004299822
19	0x3e5d61db	0.2161936
20	0x3ebdcac7	0.3706877
21	0x3d85ac1e	0.065269694
22	0xbecedd6b	-0.40403304
23	0x3e44e64b	0.19228475
24	0xbe76e1f3	-0.2410963
25	0xbcd874c9	-0.026422875
26	0xbcab5db7	-0.02091871
27	0xbe4e876f	-0.20168851
28	0x3e60ced3	0.21953897
29	0xbe862320	-0.26198673
30	0xbde26747	-0.11054855
31	0x3dfb2a27	0.12263899
32	0x3e42d565	0.19026716
33	0xbeb67f30	-0.3564391
34	0xbde948b1	-0.11390818
35	0x3e462955	0.19351704
36	0xbe86a6a4	-0.26299012
37	0xbe1f891c	-0.15579647
38	0xbe69ced0	-0.22832799
39	0xbe91bf0c	-0.2846607
40	0x3e82dd3b	0.2555941
41	0xbd7cc52d	-0.06171148
42	0x3e6b8f71	0.23003937
43	0xbd951bfa	-0.07280727
44	0xbd90f8d3	-0.070787095
45	0x3ef4cc23	0.47811994
46	0x3e616718	0.22011983
47	0xbe4cd453	-0.2000287
48	0x3eac179b	0.3361176
49	0x3e54e002	0.20788577
50	0xbb81fd6e	-0.0039669788
51	0xbceb60e3	-0.028732723
52	0x3e21f2ef	0.15815328
53	0x3eb06788	0.34453988
54	0xbe766e5e	-0.24065539
55	0xbc0063ad	-0.007836265
56	0x3ebe368f	0.37151
57	0xbe01a125	-0.12659128
58	0xbd8dce07	-0.06924062
59	0x3e62ea9c	0.22159809
60	0xbf0e398b	-0.55556554
61	0xbef9d5f4	-0.48796046
62	0xbe62bc42	-0.22142127
63	0xbe67d3b4	-0.22639352
64	0x3e800cf2	0.25009876
65	0xbe406fb4	-0.18792611
66	0xbe996063	-0.2995635
67	0x3eb2867d	0.3486823
68	0x3e0ca066	0.13733062
69	0x3e7c3923	0.24631171
70	0x3c43eee0	0.011958808
71	0x3d8e1d0e	0.069391355
72	0x3d69155e	0.056905143
73	0xbc1b3175	-0.009472241
74	0xbecc3329	-0.39882782
75	0xbdd3c2ad	-0.10339866
76	0xbea76a59	-0.32698324
77	0xbead2b3e	-0.33822054
78	0x3eb3e521	0.3513575
79	0xbd781988	-0.060571223
80	0xbbd895ae	-0.00660964
81	0xbc1a6147	-0.009422607
82	0xbe08257a	-0.13295546
83	0x3d9a2850	0.0752722
84	0xbe7a86cb	-0.24465482
85	0xbedf0cdf	-0.43564507
86	0xbf0345e0	-0.51278496
87	0xbe1077bb	-0.14108174
88	0x3dd59422	0.10428645
89	0xbd8a5b7c	-0.067557305
90	0x3eee1842	0.46502882
91	0xbeaaa8b1	-0.33331826
92	0xbced6542	-0.028978948
93	0xbdbbb1d2	-0.09164776
94	0xbedbe4f1	-0.42948106
95	0xbe3fa226	-0.18714198
96	0xbc5d0de8	-0.013492085
97	0xbe1b6971	-0.15176941
98	0xbdc603c2	-0.096686855
99	0x3ede9c9e	0.43478864
100	0xbd53694f	-0.051614102
101	0x3e071f04	0.13195425
102	0x3e0e1578	0.13875377
103	0x3bb016eb	0.005373826
104	0x3d811da0	0.06304479
105	0x3ce870c0	0.028374076
106	0x3f1b132f	0.60576147
107	0x3e46acfc	0.19401926
108	0x3e37101f	0.17877243
109	0x3df9ce98	0.12197608
110	0x3ebcd110	0.36878252
111	0xbea2a5c4	-0.31767094
112	0xbe24b6bb	-0.16085331
113	0x3ce38d16	0.027777236
114	0x3dcdfaf4	0.10057631
115	0x3e9bad58	0.30405688
116	0xbd66d841	-0.05635858
117	0xbf0960a8	-0.5366311
118	0xbcd2f107	-0.025749696
119	0x3e07877b	0.13235275
120	0xbefda9e9	-0.49543694
121	0x3dd911ce	0.10599099
122	0x3e019ed3	0.12658243
123	0x3e770ce0	0.24126005
124	0xbef74871	-0.48297456
125	0x3e9df9c4	0.3085462
126	0x3e811bc5	0.252165
127	0xbd2e96ef	-0.04262441
128	0x3e473034	0.19451982
129	0x3e895aa4	0.26826966
130	0x3e491edd	0.1964068
131	0xbd6bb634	-0.05754681
132	0x3d3cc4bf	0.04608607
133	0x3c9c519e	0.019081887
134	0xbe96637f	-0.29372784
135	0xbed0c3cd	-0.40774384
136	0x3e78d921	0.24301578
137	0xbe7f5d76	-0.24937996
138	0xbda8289b	-0.0821087
139	0x3e4f1cca	0.20225826
140	0xbcd16a8b	-0.025563499
141	0xbf30ca18	-0.6905837
142	0xbe262c81	-0.16227914
143	0xbec579d7	-0.3856952
144	0xbe844329	-0.2583249
145	0x3c2e0ef1	0.0106236795
146	0x3eb90959	0.36139944
147	0x3eb4865d	0.3525876
148	0xbde369af	-0.11104142
149	0x3e3960d6	0.18103346
150	0x3d4c96b5	0.049948413
151	0x3e32bca0	0.17454767
152	0xbe7df38e	-0.2479994
153	0xbeae60c4	-0.340582
154	0x3d40ede1	0.04710186
155	0xbd4bdcd7	-0.049771156
156	0xbed94f4c	-0.4244331
157	0xbea2581b	-0.31707844
158	0x3cee2e63	0.029074853
159	0xbeab3eff	-0.334465
160	0x3be964e0	0.007122621
161	0x3d33ffa0	0.043944955
162	0x3e4ec23b	0.2019128
163	0xbeb86839	-0.36017016
164	0x3e828b8b	0.25497088
165	0x3ed537bc	0.41644084
166	0xbd3e5d64	-0.046475783
167	0xbe962220	-0.2932291
168	0xbf030084	-0.5117266
169	0x3e13dc38	0.14439476
170	0x3e9ba244	0.30397236
171	0xbf012d2b	-0.50459546
172	0xbf07d569	-0.53060013
173	0x3b85ccea	0.0040832656
174	0x3e2c08a2	0.16800168
175	0xbcf156d9	-0.029460358
176	0x3d6838e1	0.05669487
177	0x3de19697	0.11015051
178	0xbcce5313	-0.025186097
179	0xbdab84bd	-0.08374927
180	0x3e1ce327	0.15321027
181	0xbe148618	-0.14504278
182	0x3e082e62	0.13298944
183	0x3e344eba	0.17608157
184	0xbb5e5c15	-0.0033929397
185	0xbebad098	-0.3648727
186	0x3ed4e65d	0.41582003
187	0x3be90418	0.0071110837
188	0xbec9e24a	-0.39430457
189	0xbe47222b	-0.19446628
190	0x3e5947a6	0.21218738
191	0x3e60408e	0.21899626
192	0xbea47eb3	-0.32127914
193	0xbb137fbe	-0.002250656
194	0x3dcde244	0.10052922
195	0xbe52ab9f	-0.20573281
196	0xbe1606e1	-0.14651062
197	0x3dbe5fd3	0.09295621
198	0xbe5c88e8	-0.215366
199	0x3eb28bca	0.34872276
200	0x3c3ae62c	0.011407416
201	0xbe851330	-0.259912
202	0x3d86457e	0.06556223
203	0x3dfc1abd	0.123097874
204	0xbed112d4	-0.40834677
205	0xbeb31b13	-0.34981593
206	0x3d18aa6e	0.03727191
207	0x3e7990fb	0.24371712
208	0xbe7447e9	-0.23855557
209	0x3e3d1bdf	0.18467663
210	0xbd1f5b50	-0.03890544
211	0xbee260d5	-0.44214502
212	0x3eaae3ff	0.33377072
213	0xbdedc3cb	-0.1160961
214	0xbe432b06	-0.19059381
215	0xbd9871f9	-0.074436136
216	0xbd196c09	-0.037456546
217	0x3e9f7ada	0.31148416
218	0xbeb98d54	-0.36240637
219	0xbd5a24e5	-0.05325784
220	0xbf26965b	-0.65073174
221	0x3e35907c	0.17730898
222	0xbdd389c4	-0.10329011
223	0xbe82f6d3	-0.25578937
224	0x3e8993de	0.26870626
225	0x3efd8e8d	0.4952282
226	0x3bf3058f	0.007416434
227	0xbec2a8b7	-0.38019344
228	0xbdcfe54b	-0.10151156
229	0xbe8251c2	-0.25453
230	0xbe705397	-0.23469387
231	0x3cce67be	0.025195953
232	0x3e042dbe	0.12908074
233	0x3e3c8afe	0.18412396
234	0x3e3739de	0.17893168
235	0x3caf9598	0.021433637
236	0xbeb70238	-0.3574388
237	0x3cfbf0a7	0.0307544
238	0x3e89868b	0.2686046
239	0xbe84bb9e	-0.2592439
240	0xbdda51c6	-0.10660128
241	0x3e0bcf4e	0.13653299
242	0xbca61d51	-0.020277651
243	0x3e0a375f	0.13497685
244	0xbe7f64ec	-0.24940842
245	0xbc4e383e	-0.012586651
246	0x3db946df	0.09046721
247	0x3dd34222	0.10315348
248	0x3ed80bb7	0.42196438
249	0x3d785f81	0.060637955
250	0x3e9403dc	0.28909194
251	0x3ee70370	0.4511981
252	0x3cea9faf	0.028640596
253	0x3f1cc59b	0.6123902
254	0xbe840acc	-0.25789487
255	0xbea40150	-0.3203225

policy_net.module_4.bias f4 [32]
0	0x3d5607e8	0.052253634
1	0x3d560dff	0.05225944
2	0x3d582753	0.052771877
3	0x3d50d0ee	0.0509805
4	0x3d3bfabc	0.045893416
5	0x3d4abbd0	0.04949552
6	0x3d5b35c4	0.05351807
7	0x3d499e09	0.04922298
8	0x3d621bd3	0.055202316
9	0x3d5d0a98	0.05396518
10	0x3d4c6545	0.049901266
11	0x3d619ca4	0.055081025
12	0x3d62e2fe	0.055392258
13	0x3d5b2a82	0.053507335
14	0x3d5c3bf5	0.053768117
15	0x3d45b62b	0.048269432
16	0x3d50d0c2	0.050980337
17	0x3d4de3d3	0.0502661
18	0x3d4f7be1	0.05065525
19	0x3d515691	0.051107947
20	0x3d3c44bc	0.045963988
21	0x3d34e9fb	0.044168454
22	0x3d50c7c2	0.050971754
23	0x3d3a6361	0.04550493
24	0x3d42b597	0.04753646
25	0x3d627db5	0.055295665
26	0x3d5c9935	0.053857047
27	0x3d43066b	0.047613543
28	0x3d1d1eab	0.038359325
29	0x3d56b776	0.052421056
30	0x3d5d04e0	0.053959727
31	0x3d0a8d59	0.033826206

policy_net.module_8.weight f4 [10, 10]
0	0xba7f255c	-0.0009733045
1	0xbb482657	-0.003054043
2	0xb91a34ae	-0.00014706209
3	0xb80e94a2	-3.3993863e-05
4	0x3c1656fb	0.009176011
5	0x3af63e2f	0.0018786843
6	0x3869507c	5.5626486e-05
7	0x39d72b8a	0.00041040435
8	0xbaa83058	-0.001283179
9	0xb9cf16dd	-0.0003949915
10	0x3c8a45b6	0.016878944
11	0x3c3eef10	0.011653677
12	0x3c456cb2	0.012049841
13	0x3c272d92	0.010203736
14	0x3cc85464	0.024454303
15	0x3c6e48e7	0.014543748
16	0x3c1f8a26	0.009737527
17	0x3c5c0f71	0.013431416
18	0x3c9069fc	0.017628662
19	0x3c5bf2ee	0.013424618
20	0x3d7f5dea	0.062345423
21	0x3d69e6cd	0.057104874
22	0x3d8002eb	0.062505566
23	0x3d83d665	0.06437377
24	0x3d5a6780	0.05332136
25	0x3d49a516	0.049229704
26	0x3d7fcb21	0.06244958
27	0x3d5ce9e6	0.053934
28	0x3d697cba	0.057003714
29	0x3d53d5f5	0.051717717
30	0x3c87a2de	0.016557153
31	0x3cc2b510	0.023767978
32	0x3cb59a1c	0.022168212
33	0x3caced27	0.021109177
34	0x3cbf5846	0.023357522
35	0x3cd04ebd	0.02542817
36	0x3c919e03	0.017775541
37	0x3ce4cec7	0.02793063
38	0x3ccf84c1	0.025331857
39	0x3cb565eb	0.022143325
40	0x3b11cd62	0.0022247662
41	0x3ba1eacc	0.00494132
42	0x3ba0e323	0.0049098893
43	0xbb19c5c4	-0.0023463825
44	0x3a84b519	0.0010124772
45	0xb7f6c44e	-2.9416897e-05
46	0x3aab5d84	0.0013074134
47	0x3b117fb7	0.0022201368
48	0xbbbad821	-0.005702034
49	0xba70cae0	-0.0009185504
50	0x3cbfe862	0.023426238
51	0x3bee9c20	0.007281795
52	0x3b7bcbfa	0.003842114
53	0x3c23ad63	0.009990069
54	0x3d10226a	0.03518907
55	0x3d135e56	0.035978638
56	0x3ce93c1e	0.028471049
57	0x3cef52b1	0.029214235
58	0x3cc617c8	0.024181262
59	0x3d05a0bb	0.032623988
60	0xbd04cdcd	-0.03242283
61	0xbd0f77d0	-0.03502637
62	0xbcda1ff9	-0.026626574
63	0xbd157a22	-0.036493428
64	0xbd0a4a6d	-0.033762384
65	0xbcbc66b6	-0.022998195
66	0xbd0b355f	-0.033986446
67	0xbd049380	-0.03236723
68	0xbcfeb0f0	-0.03109023
69	0xbcfa4a02	-0.030552868
70	0xb99d2d27	-0.00029979015
71	0xba3173db	-0.0006769278
72	0x3bab0af9	0.005219814
73	0x3b5c4d77	0.0033615509
74	0xba10a397	-0.0005517541
75	0x3b89b08e	0.004201955
76	0x3b616c1d	0.0034396716
77	0x3b60b401	0.0034286978
78	0x3b89acb2	0.004201495
79	0x3aab2180	0.0013056248
80	0xbcf80415	-0.030275384
81	0xbd1992a0	-0.037493348
82	0xbd06e41a	-0.03293238
83	0xbd126772	-0.035743184
84	0xbd196046	-0.03744533
85	0xbd0272f8	-0.031847924
86	0xbd1e74bb	-0.03868554
87	0xbceb8872	-0.028751586
88	0xbd099135	-0.033585746
89	0xbcee760e	-0.029109027
90	0xbcdaf235	-0.026726821
91	0xbc2be4d3	-0.010491568
92	0xbaf658e5	-0.0018794803
93	0xbc821e3a	-0.015883554
94	0xbd0df14b	-0.034653943
95	0xbd354938	-0.04425928
96	0xbca77037	-0.02043925
97	0xbce6d852	-0.028179321
98	0xbcb276b2	-0.021785114
99	0xbd04d3b8	-0.032428473

policy_net.module_8.bias f4 [10]
0	0x00000000	0.0
1	0xbb50f562	-0.003188454
2	0x3d7b2665	0.061315913
3	0xbc365f86	-0.011131173
4	0x00000000	0.0
5	0x3d3fb35c	0.04680191
6	0xbceb4064	-0.028717227
7	0x00000000	0.0
8	0xbd1662cf	-0.036715325
9	0xbd3fb320	-0.046801686

value_net.module_0.bias f4 [32]
0	0xbcd4712a	-0.025932867
1	0x3b2c09b2	0.0026250896
2	0x3c54c3d3	0.012986141
3	0xbd01d218	-0.0316945
4	0xbcb75280	-0.022378206
5	0xbc37edb5	-0.011226107
6	0x3be67d47	0.007033977
7	0xbb299dcc	-0.0025881408
8	0xbc343235	-0.010998298
9	0x3b16b29e	0.0022994648
10	0xbcbd9152	-0.023140583
11	0x3c78ecdd	0.015193191
12	0xbad5dea9	-0.0016316968
13	0xbb5cb995	-0.0033679951
14	0x3bd683e6	0.0065464852
15	0xbbcef26f	-0.0063155214
16	0xbd6c33d2	-0.057666607
17	0x3b183d44	0.0023229877
18	0x3a8911b4	0.0010457546
19	0xbd897eed	-0.06713662
20	0xbcee9b23	-0.02912671
21	0x3d954f3f	0.072905056
22	0x3c2ac368	0.010422565
23	0x3bad262d	0.005284092
24	0xbcd9b433	-0.026575183
25	0x3d0e4d2c	0.034741566
26	0xbcaf8458	-0.021425411
27	0x3d6633b8	0.056201667
28	0x3acda7ac	0.0015690229
29	0x3c070d3e	0.008242903
30	0x3bfa4200	0.0076372623
31	0xbc9f6b19	-0.019460248

value_net.module_0.lin.weight f4 [32, 32]
0	0xbe69c17e	-0.22827718
1	0x3eaf6fc8	0.3426497
2	0xbc120807	-0.008913047
3	0x3a544e3d	0.00080988166
4	0xbe9de21d	-0.30836573
5	0xbe3868df	-0.18008755
6	0xbec6c9ad	-0.3882574
7	0xbcc47e1c	-0.023985915
8	0xbec3415e	-0.3813581
9	0xbe8ee00b	-0.27905306
10	0xbe511a1a	-0.20420113
11	0x3d26b7af	0.040702518
12	0xbe6eb87e	-0.23312566
13	0x3deb4bf5	0.11489097
14	0xbea4fa64	-0.32222283
15	0xbe299769	-0.16561665
16	0x3dea974e	0.1145464
17	0x3ec5a159	0.3859966
18	0x3c35978b	0.011083494
19	0x3d5d67db	0.054054122
20	0x3f1044ec	0.56355166
21	0x3ecc46bb	0.39897713
22	0xbcf32538	-0.029680833
23	0x3eb237ec	0.3480829
24	0x3e61cbcc	0.22050399
25	0x3ed5dcbd	0.41769972
26	0x3ddeac36	0.108726904
27	0xbdbdeb8c	-0.092734426
28	0xbd4570a7	-0.048203137
29	0x3dece240	0.11566591
30	0xbdf9e3a3	-0.122016214
31	0x3e89dd12	0.26926476
32	0x3e755def	0.23961614
33	0xbd68759d	-0.05675279
34	0xbd5f9587	-0.05458596
35	0xbe812bbb	-0.25228676
36	0x3e6ce35f	0.2313361
37	0xbec9f571	-0.3944507
38	0x3d690e0c	0.05689816
39	0xbd08c35e	-0.03338944
40	0x3ed76b15	0.42073885
41	0x3d1e6874	0.038673833
42	0xbdfc0829	-0.12306244
43	0x3dcf8520	0.101328135
44	0x3dedc576	0.11609928
45	0x3eac260d	0.3362278
46	0xbdb9d63c	-0.09074065
47	0xbdeb7ec5	-0.11498789
48	0x3e616a8d	0.22013302
49	0xbe16a85d	-0.14712663
50	0xbd4ad445	-0.049518842
51	0xbe9ec14e	-0.31006855
52	0xbdbd0c97	-0.09230917
53	0xbe14bce9	-0.14525189
54	0xbe4cb148	-0.19989502
55	0xbdbea3e3	-0.09308603
56	0x3e4725fd	0.19448085
57	0x3f252505	0.6450961
58	0x3e3c92d2	0.18415383
59	0xbe8958db	-0.26825604
60	0x3e4b447a	0.1985034
61	0xbeece812	-0.46270806
62	0x3e833110	0.2562337
63	0x3ec1ee29	0.37877014
64	0xbe86d523	-0.26334485
65	0x3cf63e46	0.030058991
66	0x3eb90833	0.36139068
67	0xbd497f90	-0.04919392
68	0x3d458452	0.048221894
69	0x3e1d57a0	0.15365458
70	0xbea9f75a	-0.33196527
71	0x3e0672ec	0.13129777
72	0x3e835929	0.2565396
73	0x3e880e5f	0.26573464
74	0xbc7834a1	-0.015149266
75	0xbd0165d0	-0.031591237
76	0x3cefb483	0.02926088
77	0xbe0d1c2e	-0.13780281
78	0x3f0f94f4	0.5608666
79	0x3dd42cee	0.10360132
80	0xbe40e30a	-0.18836609
81	0xbf33e70d	-0.7027443
82	0xbc5f21fc	-0.013618942
83	0xbd08608a	-0.03329519
84	0x3d5fc092	0.05462701
85	0x3f05baa1	0.522379
86	0x3dc89e38	0.09795803
87	0x3da0e3cb	0.07855948
88	0x3eecaa96	0.46223897
89	0x3e99abd8	0.3001392
90	0xbbbb6531	-0.00571885
91	0x3c1ebb82	0.00968826
92	0xbdd2137a	-0.10257621
93	0xbde1f0e5	-0.11032275
94	0xbe925a73	-0.28584632
95	0xbdcc24c5	-0.09967951
96	0x3cda569e	0.02665263
97	0x3ecf1c14	0.4045111
98	0xbe4e205d	-0.20129533
99	0x3dda4448	0.10657555
100	0xbe1bc177	-0.1521052
101	0xbe4d34c8	-0.20039666
102	0x3e638626	0.22219142
103	0xbe6d6f30	-0.23186946
104	0x3c3ed903	0.011648419
105	0x3d82f333	0.06394043
106	0xbe225387	-0.15852176
107	0xbe876ed0	-0.2645173
108	0xbed25e28	-0.4108746
109	0xbe68b062	-0.22723535
110	0x3ea31121	0.31849006
111	0x3daf48aa	0.085587814
112	0xbc4cf53d	-0.012509641
113	0xbe0aa9ba	-0.13541308
114	0xbdd17aa3	-0.10228469
115	0xbe0880f3	-0.1333044
116	0x3e8a8fab	0.27062735
117	0xbe1034d1	-0.14082648
118	0x3ddb302c	0.107025474
119	0xbda5778d	-0.08079443
120	0xbeb99614	-0.36247313
121	0x3d94f846	0.07273917
122	0xbe49d1ee	-0.19708988
123	0x3df2bc63	0.11852338
124	0xbef01839	-0.4689348
125	0xbdcf3b1b	-0.10118695
126	0x3d7c38e6	0.0615777
127	0x3f471af3	0.77775496
128	0x3e0fd52a	0.1404616
129	0x3e97cf39	0.29650286
130	0xbdecaee1	-0.11556793
131	0x3dc1db60	0.094656706
132	0xbe4ae0b4	-0.1981228
133	0xbe2a8f11	-0.16656138
134	0x3e88b6b6	0.26701897
135	0xbe49a463	-0.19691615
136	0xbca84cf3	-0.020544505
137	0x3de123ee	0.10993181
138	0xbd39f3db	-0.045398574
139	0x3d9887ca	0.07447775
140	0x3e3b4c4c	0.18290824
141	0xbf4e2465	-0.80524284
142	0xbd88152e	-0.06644665
143	0xbe7fce75	-0.24981101
144	0xbeec7d37	-0.4618928
145	0xbd921e9b	-0.07134744
146	0x3db7daf3	0.08977308
147	0x3d743af2	0.059626527
148	0xbbdfe6e0	-0.0068329424
149	0xbe12b78f	-0.14327835
150	0xbe6c95be	-0.23103997
151	0x3e754a33	0.23954086
152	0x3d0d3d30	0.03448218
153	0x3cadb7a6	0.021205734
154	0x3c9d5e2d	0.019209946
155	0x3e3015ad	0.17195769
156	0x3f03126d	0.5119999
157	0xbd0eeaf6	-0.034892045
158	0x3c502901	0.012705089
159	0x3e73bbca	0.23802105
160	0x3db57814	0.08860794
161	0x3e00f733	0.12594299
162	0x3e33d7eb	0.17562835
163	0xbea16cc9	-0.3152831
164	0x3e8e72bd	0.27821913
165	0xbe937467	-0.28799745
166	0x3d16133e	0.036639445
167	0x3e89d58b	0.26920733
168	0xbe0eb7d8	-0.13937318
169	0xbdf2b6f5	-0.118513025
170	0xbe709fd5	-0.23498471
171	0xbed4943a	-0.41519338
172	0xbe6c14aa	-0.23054758
173	0xbe343229	-0.1759726
174	0x3e007889	0.1254598
175	0xbd72c5fe	-0.05927085
176	0x3e8b9a9d	0.27266398
177	0x3c309a87	0.01077903
178	0x3eb62221	0.35572913
179	0xbe9b541d	-0.3033761
180	0xbeee8c3d	-0.46591368
181	0x3eac83b5	0.33694234
182	0x3e64fed8	0.2236284
183	0xbdfd6acc	-0.123738855
184	0xbeaf0533	-0.34183654
185	0xbd00d20a	-0.03145031
186	0x3e4ae502	0.19813922
187	0x3ec7b261	0.3900328
188	0x3e9d41a1	0.30714133
189	0x3ed788c4	0.4209653
190	0x3eafa7ee	0.34307808
191	0x3d053c02	0.03252793
192	0xbe7021cf	-0.23450397
193	0xbe80d1c0	-0.25160027
194	0xbdb1c5ec	-0.08680329
195	0xbe0a6ef9	-0.13518895
196	0xbef62efb	-0.48082718
197	0xbc4a14b5	-0.0123340385
198	0x3e0f13a7	0.1397234
199	0x3e15d426	0.1463171
200	0xbe186a98	-0.14884412
201	0xbbd6dbfe	-0.006556987
202	0xbd31f459	-0.04344592
203	0xbeaec3f9	-0.3413389
204	0xbe9d8d9c	-0.30772102
205	0xbda30b11	-0.07961095
206	0x3e98bf6e	0.2983355
207	0xbe565f54	-0.20934802
208	0x3e1b213b	0.15149395
209	0xbe49b785	-0.19698913
210	0xbe813f58	-0.2524364
211	0xbed0bd4a	-0.40769416
212	0xbe6a11e8	-0.22858393
213	0xbec9fa46	-0.39448756
214	0xbe358754	-0.17727405
215	0x3e4eff10	0.20214486
216	0xbe9511b7	-0.29115078
217	0x3ebd8cd3	0.37021503
218	0xbee75da4	-0.4518863
219	0xbd67a595	-0.056554396
220	0xbd901d23	-0.070368074
221	0x3ca2eb7a	0.019887675
222	0xbe6f9a17	-0.23398624
223	0xbf105ef6	-0.563949
224	0xbf4c2020	-0.7973652
225	0xbf38a7e3	-0.72131175
226	0x3dfb2c17	0.12264269
227	0x3f0473da	0.51739275
228	0x3ec157c6	0.37762278
229	0x3e8aa35b	0.27077755
230	0x3d4a3f3a	0.049376704
231	0xbe08d5ad	-0.13362761
232	0x3ed065bc	0.40702617
233	0x3f3facd8	0.74873114
234	0x3dfbebd5	0.12300841
235	0x3e9736ca	0.29533988
236	0xbcf5c0f0	-0.029999226
237	0x3dba9663	0.09110715
238	0x3d2845a1	0.04108203
239	0xbe3eb68c	-0.18624324
240	0x3db4703c	0.088104695
241	0x3e7f5bc5	0.24937351
242	0x3cd1dc3b	0.02561771
243	0xbe0b8f95	-0.13628991
244	0xbea2d944	-0.31806386
245	0x3e0c68e0	0.13711882
246	0xbd41f5d2	-0.047353573
247	0xbe07a645	-0.1324702
248	0xbd4bf694	-0.049795702
249	0x3e25ba75	0.16184409
250	0x3b551f1a	0.0032519759
251	0xbe257085	-0.16156204
252	0xbe29f1a7	-0.1659609
253	0x3ecece8d	0.4039196
254	0xbdde34ff	-0.10849952
255	0x3e4dcd17	0.20097767

value_net.module_2.bias f4 [32]
0	0xbc932e94	-0.017966546
1	0x3ac7eeed	0.00152537
2	0xbd3f238a	-0.046664752
3	0xbbd4b63a	-0.0064914497
4	0xbaea5597	-0.0017878291
5	0xbd13c100	-0.03607273
6	0x3b6b5ca4	0.0035913372
7	0x3c348775	0.011018624
8	0xbc3d6b0d	-0.011561167
9	0xbbc2d447	-0.0059457156
10	0xbb8a4dfc	-0.0042207222
11	0xbbb303d1	-0.0054631014
12	0xbac278af	-0.0014836992
13	0x3c999807	0.01874925
14	0x3d59082d	0.052986313
15	0xbc24b27c	-0.01005232
16	0xbc9a7393	-0.018853938
17	0xbb42c1d2	-0.0029717577
18	0x3a0247d1	0.0004969808
19	0xbbb05ab1	-0.005381905
20	0xbc8e48c0	-0.017368674
21	0x3c56ece9	0.013118007
22	0x3cadfb20	0.02123791
23	0x3c2731b4	0.010204721
24	0xbba388b8	-0.0049906634
25	0xbca530cf	-0.020164875
26	0x3c579f91	0.013160602
27	0x3b8add37	0.0042377966
28	0xbc415ad7	-0.011801443
29	0x3c1fa7eb	0.009744625
30	0x3cb57e8c	0.022155069
31	0x3c1bff94	0.009521384

value_net.module_2.lin.weight f4 [32, 32]
0	0x3e3c665a	0.18398419
1	0xbdb63f09	-0.08898742
2	0x3e863e68	0.26219487
3	0x3e0c1c40	0.13682652
4	0xbd48c3c6	-0.04901483
5	0xbed8170f	-0.42205092
6	0x3dadc8f3	0.08485594
7	0x3d23532a	0.039874233
8	0xbf00ba93	-0.5028469
9	0x3ea4480f	0.32086226
10	0xbd9fcd77	-0.07802861
11	0x3e886ca8	0.26645398
12	0xbeff1f81	-0.49828723
13	0x3e88f684	0.26750576
14	0xbec061dd	-0.37574664
15	0x3e04377a	0.12911788
16	0x3e0e2d0a	0.13884369
17	0xbf0c3bff	-0.54779047
18	0x3e6eb407	0.23310862
19	0xbd9fda5b	-0.0780532
20	0xbea7a146	-0.3274023
21	0xbe8130a0	-0.2523241
22	0xbe3a4954	-0.18192035
23	0x3e6aa792	0.22915486
24	0x3cd8e762	0.02647752
25	0x3e40cd8f	0.18828414
26	0xbf083207	-0.53201336
27	0x3dc4186e	0.09574972
28	0x3d9f84ea	0.07789023
29	0x3e72fa2d	0.23728247
30	0x3e0d9263	0.13825373
31	0x3d64acc4	0.055828825
32	0x3eeb017a	0.45899564
33	0xbd7510c1	-0.05983043
34	0x3eef1136	0.46692818
35	0x3cc9ff5c	0.024657898
36	0x3e0f5586	0.13997468
37	0xbeca7a8e	-0.39546627
38	0x3df4b7ac	0.11949095
39	0xbefb2fe8	-0.49059987
40	0x3e339c27	0.17540036
41	0x3e7ee28e	0.24891111
42	0x3df2fddb	0.11864825
43	0x3dfccf30	0.123442054
44	0x3e880fa1	0.26574424
45	0x3ed97c8e	0.4247784
46	0x3e43d893	0.19125585
47	0x3e9ef179	0.31043604
48	0xbeb42bd4	-0.35189688
49	0x3e5f97f3	0.21835308
50	0xbea32984	-0.3186761
51	0x3e1f8f53	0.15582018
52	0x3ea7e70d	0.32793465
53	0x3da6e120	0.08148408
54	0x3dd4060d	0.103527166
55	0xbd16312f	-0.036668
56	0x3e56739d	0.2094254
57	0xbdb7fdaf	-0.08983933
58	0x3eaae183	0.33375177
59	0xbd7c746a	-0.06163446
60	0x3d59d6f0	0.053183496
61	0x3e941a34	0.2892624
62	0x3e4ba1d7	0.19885956
63	0xbe9becd7	-0.30454132
64	0x3e6e16e1	0.23250915
65	0x3dcd9a8f	0.10039245
66	0xbea631fd	-0.32460013
67	0x3e6592e1	0.22419311
68	0x3e933e42	0.28758436
69	0x3d830087	0.06396585
70	0xbe14fdf8	-0.14550006
71	0xbe705108	-0.23468411
72	0xbe3bd656	-0.18343481
73	0x3eea2818	0.45733714
74	0x3e5067e7	0.20352136
75	0xbe30a060	-0.17248678
76	0x3e4730fa	0.19452277
77	0xbee48948	-0.44635987
78	0x3ee1152b	0.43961462
79	0x3e5b1fa1	0.21398784
80	0xbdc54fa2	-0.096343294
81	0x3e027a66	0.12742004
82	0x3ee6e664	0.4509765
83	0x3e6c8490	0.23097444
84	0xbeada6cf	-0.33916327
85	0xbd4d5178	-0.050126523
86	0x3e633893	0.2218955
87	0xbc4b5513	-0.01241042
88	0x3e8b504d	0.27209702
89	0xbde9ff73	-0.11425676
90	0xbe0bb977	-0.13644968
91	0xbe60d0a7	-0.21954595
92	0x3e8f00e9	0.27930382
93	0xbd7fe718	-0.062476248
94	0x3e6ab79d	0.22921605
95	0xbcc518ea	-0.024059732
96	0xbe10ad6f	-0.1412866
97	0x3e0fa283	0.14026837
98	0x3e084c96	0.13310465
99	0x3eccd0f8	0.4000318
100	0x3ea881d0	0.3291154
101	0x3bed4a29	0.0072415066
102	0x3d7caf3d	0.061690558
103	0x3e23e290	0.16004395
104	0xbc74f681	-0.014951349
105	0xbe12246a	-0.14271703
106	0xbe1572b7	-0.14594541
107	0xbef9a977	-0.48762104
108	0x3e2d110d	0.16901036
109	0x3ec9eccc	0.39438474
110	0x3c239a2d	0.009985489
111	0x3e7a63a6	0.24452075
112	0x3db9d18a	0.090731695
113	0x3ebb4051	0.36572507
114	0x3cc258b0	0.02372393
115	0xbe4ec9e8	-0.20194209
116	0xbe212568	-0.15736926
117	0x3e432f31	0.19060971
118	0xbe3fe49a	-0.18739548
119	0xbe3e07fa	-0.1855773
120	0x3ea0a0db	0.31372723
121	0xbe9ad0db	-0.3023747
122	0xbe0b3b90	-0.1359694
123	0x3df6bbad	0.12047515
124	0xbe389a78	-0.18027675
125	0xbd4234e0	-0.047413707
126	0x3eea23b9	0.4573038
127	0x3df14794	0.117812306
128	0xbe6d90ec	-0.23199815
129	0xbe314404	-0.17311102
130	0x3ebe2f10	0.3714528
131	0xbebe9880	-0.37225723
132	0x3c3f33a2	0.011670025
133	0xbe02935e	-0.12751529
134	0xbe9d84b8	-0.3076532
135	0x3d12e134	0.0358593
136	0xbee6d4d3	-0.45084247
137	0x3e506ed2	0.20354775
138	0xbeaf1f7b	-0.34203705
139	0xbd2078ee	-0.039177828
140	0xbe8a515b	-0.27015194
141	0xbe4cc3ad	-0.1999652
142	0xbed7c26b	-0.42140517
143	0xbe89c439	-0.26907519
144	0xbe41f42d	-0.18940802
145	0x3eaece35	0.34141698
146	0x3e01d6bc	0.12679571
147	0xbc4a08ca	-0.012331197
148	0x3e026877	0.12735163
149	0x3e250776	0.16116127
150	0x3d6747c7	0.056464937
151	0xbddf7512	-0.10911001
152	0x3f118d8d	0.56856614
153	0x3e964563	0.29349813
154	0xbde42745	-0.111403026
155	0xbebb3e54	-0.3657099
156	0xbe9ab23e	-0.30214113
157	0xbec6e868	-0.38849187
158	0xbe047523	-0.12935309
159	0xbd4a7dd0	-0.04943639
160	0xbdf4e692	-0.1195804
161	0xbc0e4804	-0.008684162
162	0x3cb1c0c6	0.021698367
163	0xbdda1dbf	-0.10650205
164	0x3d0291dd	0.031877387
165	0xbdf7e88b	-0.12104901
166	0x3e9bf15e	0.30457586
167	0xbe82c474	-0.25540507
168	0xbcca4e97	-0.024695678
169	0xbe35b55e	-0.17744967
170	0x3f1624cd	0.58649904
171	0x3e7d79d9	0.24753512
172	0x3d6a6e6f	0.057234224
173	0x3db4ee34	0.08834496
174	0x3ebea8ac	0.3723806
175	0x3dffaf92	0.12484659
176	0xbcb230a9	-0.021751719
177	0xbe0b78fc	-0.1362037
178	0xbd0bdd5f	-0.034146663
179	0x3ebc13ac	0.36733758
180	0x3eaa9e9a	0.33324128
181	0xba8f6261	-0.0010939353
182	0xbbb9b7da	-0.005667669
183	0xbe940925	-0.28913227
184	0x3e65fca4	0.22459656
185	0x3cd33bba	0.025785316
186	0xbef6fa3f	-0.48237798
187	0x3e42b1ac	0.19013089
188	0xbea12dbb	-0.31480202
189	0xbea9342d	-0.3304762
190	0xbdfe6b85	-0.124228515
191	0x3ec49e4f	0.3840203
192	0x3edd231c	0.4319085
193	0x3df9a664	0.121899396
194	0xbeae0dff	-0.33995053
195	0x3b891fe2	0.004184709
196	0x3d1b2931	0.03788108
197	0xbd013f94	-0.031554773
198	0xbe08c407	-0.13356028
199	0xbe0d63f5	-0.13807662
200	0xbe0eb256	-0.13935217
201	0x3cb53a5b	0.022122553
202	0x3de2fcfb	0.110834084
203	0x3e2c429d	0.16822286
204	0x3eb9feda	0.3632725
205	0x3ebbb791	0.36663488
206	0xbe64bcc3	-0.22337632
207	0xbe0db945	-0.13840206
208	0x3efa46f8	0.4888227
209	0x3db10067	0.08642655
210	0xbd0ff310	-0.03514391
211	0xbe5a9149	-0.21344484
212	0xbeb605bd	-0.35551253
213	0x3dfa9c40	0.122368336
214	0x3db057f2	0.08610524
215	0xbebacaaa	-0.36482745
216	0x3e7e3b2f	0.24827264
217	0x3f0349cb	0.51284474
218	0x3e00a22e	0.12561867
219	0xbe00b922	-0.12570623
220	0xbe8cb4fe	-0.27481836
221	0x3e850b57	0.25985214
222	0xbdd1e221	-0.10248209
223	0x3ebabcf3	0.36472282
224	0x3cdb6876	0.02678321
225	0x3e8008e6	0.2500679
226	0x3e3bef16	0.18352923
227	0x3e57e1cd	0.2108223
228	0x3ee3963e	0.44450563
229	0xbe5112c4	-0.20417315
230	0xbd43d0ea	-0.047806658
231	0x3ef4889d	0.47760478
232	0xbe84e3aa	-0.25954944
233	0xbe8162f3	-0.25270805
234	0x3e887d6c	0.2665819
235	0x3ea7ce32	0.32774502
236	0xbe00c057	-0.12573372
237	0xbee19431	-0.44058374
238	0x3dd574ac	0.10422644
239	0x3d70ec6e	0.058819227
240	0xbde8b903	-0.11363413
241	0xbe8ef930	-0.2792449
242	0xbe7de5c9	-0.24794687
243	0xbd9d05e7	-0.076671414
244	0xbe17dd29	-0.1483046
245	0x3edf9050	0.4366479
246	0x3d99980b	0.07499703
247	0xbe0b4f27	-0.13604413
248	0xbe42cc59	-0.19023265
249	0x3e32651b	0.17421381
250	0x3ea4cf25	0.3218929
251	0xbc9e94da	-0.019358087
252	0xbeb55ecd	-0.3542389
253	0x3da995c9	0.082805224
254	0x3e708267	0.23487245
255	0xbd810343	-0.0629945

value_net.module_4.weight f4 [32, 32]
0	0x3e0b7721	0.13619663
1	0xbe290df8	-0.16509235
2	0x3e554fa6	0.20831165
3	0xbd83434a	-0.06409319
4	0xbdc3bbd5	-0.095573105
5	0x3ed6e9ca	0.41975242
6	0x3db32765	0.08747748
7	0xbd0096c3	-0.031393778
8	0xbe0a9f13	-0.13537244
9	0x3e19ed5c	0.15031952
10	0xbe864a91	-0.26228765
11	0x3ed07cd8	0.40720248
12	0xbec6a6b8	-0.3879907
13	0xbea0f3b9	-0.31435946
14	0xbe87f194	-0.26551497
15	0xbea69d62	-0.3254195
16	0xbe10b0be	-0.14129922
17	0xbe198df1	-0.14995553
18	0x3dfa1a92	0.12212099
19	0xbde6b219	-0.11264438
20	0x3ef7ffb2	0.48437268
21	0xbe29a525	-0.16566904
22	0x3d2e4a16	0.042551123
23	0xbe935c27	-0.28781244
24	0x3dbd0e88	0.09231287
25	0x3d04508c	0.032303378
26	0xbd38d8fb	-0.045128804
27	0xbca1afdd	-0.019737178
28	0x3f096579	0.5367046
29	0xbea680b6	-0.32520074
30	0xbebdcc62	-0.37069994
31	0x3e8c4134	0.27393496
32	0x3d292606	0.041296028
33	0x3e83b8d4	0.2572695
34	0xbdce7334	-0.10080567
35	0x3d2fe9c4	0.042947546
36	0x3dcbaaa6	0.09944658
37	0x3e5321e0	0.20618391
38	0x3e8cfd0b	0.27536806
39	0xbe19e121	-0.15027286
40	0xbe1fe326	-0.15613994
41	0x3da82b1d	0.08211348
42	0x3eb501a4	0.35352814
43	0xbeb1e303	-0.3474351
44	0xbe938e0c	-0.2881931
45	0x3f0f1397	0.55889267
46	0xbd8d0fac	-0.06887755
47	0xbea7838f	-0.3271756
48	0xbe3e4ef6	-0.18584809
49	0xbe35d7eb	-0.17758147
50	0x3d2234f8	0.039601296
51	0x3ca4cdb9	0.020117627
52	0x3c199ee0	0.009376258
53	0xbe75c097	-0.23999248
54	0x3d629617	0.055318918
55	0xbe82a5a9	-0.25517014
56	0xbce9ba5c	-0.028531246
57	0xbdf297b7	-0.118453436
58	0xbe976ffa	-0.2957762
59	0x3e596425	0.21229608
60	0x3d67400a	0.056457557
61	0x3eb575b8	0.35441375
62	0xbe6ea0ec	-0.23303574
63	0xbf07e3f6	-0.53082216
64	0x3e588891	0.21145846
65	0x3bf5ccbf	0.0075012143
66	0x3d200e7c	0.039076313
67	0x3c3a576d	0.011373383
68	0xbe015621	-0.12630512
69	0xbd9bb4be	-0.07602833
70	0xbe38e16b	-0.1805474
71	0xbd43681b	-0.047706705
72	0x3b88594b	0.004161035
73	0x3edec942	0.43512923
74	0x3efe3b46	0.49654597
75	0x3dd37ccc	0.103265375
76	0x3ec38e2c	0.38194406
77	0xbf096fc8	-0.5368619
78	0xbdd08cfa	-0.10183139
79	0x3dc6a9f3	0.09700384
80	0x3dba4ed6	0.09097068
81	0xbce5e175	-0.028061608
82	0x3e60fe2f	0.21971963
83	0xbed14f84	-0.40880978
84	0xbe810b40	-0.25203896
85	0x3d483e34	0.048887447
86	0xbf108f59	-0.5646873
87	0xbe06aa72	-0.13150957
88	0xbd0f844b	-0.035038274
89	0x3d44c2a9	0.048037205
90	0xbe4e3de9	-0.20140804
91	0x3e54d5eb	0.20784728
92	0xbda5b0d3	-0.08090367
93	0xbdd3c51b	-0.10340329
94	0xbed0bd59	-0.4076946
95	0xbea0ae30	-0.31382895
96	0xbe115ad5	-0.14194806
97	0xbe8c0a4f	-0.27351615
98	0xbc787e36	-0.01516681
99	0x3e8e56e3	0.27800664
100	0x3a1d272f	0.00059949135
101	0x3e8a1c1b	0.26974568
102	0xbebc46b2	-0.36772686
103	0x3ce06be2	0.027395193
104	0xbe340590	-0.17580247
105	0x3e052ff9	0.13006581
106	0xbd95661b	-0.07294866
107	0x3ea24cbf	0.31699178
108	0xbdf9b498	-0.12192649
109	0x3eb893ce	0.36050266
110	0x3ea2d5d1	0.31803754
111	0xbe7ccbc2	-0.24687102
112	0x3e316f2b	0.17327563
113	0x3c5d85e1	0.013520689
114	0x3e87e337	0.2654054
115	0x3db92cd6	0.09041755
116	0xbe2a26e7	-0.16616403
117	0xbe1027cb	-0.1407768
118	0xbe1a0d1c	-0.15044063
119	0x3e0e4bfa	0.1389617
120	0x3ee46eac	0.44615686
121	0x3eb4b84a	0.3529685
122	0x3e8dd030	0.27697897
123	0x3e2cfd4a	0.16893497
124	0xbdd4241e	-0.10358451
125	0xbe2e8902	-0.17044452
126	0x3e248a86	0.16068467
127	0xbf02e1c1	-0.51125723
128	0x3ee545de	0.44779867
129	0xbd3a8bd7	-0.045543518
130	0x3d9e9951	0.077440865
131	0xbe889fd1	-0.2668443
132	0x3ebbb6df	0.36662957
133	0x3e8a1dd4	0.26975882
134	0xbcf7b356	-0.030236881
135	0xbdbf194f	-0.09330999
136	0xbf1adef4	-0.6049645
137	0x3e53e222	0.20691732
138	0x3e689d5d	0.2271628
139	0x3ea98ec2	0.33116728
140	0xbe31ab6a	-0.17350546
141	0x3dee6280	0.11639881
142	0x3d630a86	0.055429958
143	0x3e381c2c	0.17979497
144	0xbe2e0241	-0.16993047
145	0x3d05f295	0.032702047
146	0xbdb6a265	-0.08917693
147	0x3e96527c	0.29359806
148	0xbea92e6f	-0.3304324
149	0x3e67ff3c	0.22655958
150	0x3e8a8ff9	0.27062967
151	0x3cba9eeb	0.022780856
152	0xbdb191f7	-0.08670419
153	0xbedfb5b4	-0.43693316
154	0x3d9216df	0.071332686
155	0x3e8c9594	0.2745787
156	0xbec0efc8	-0.3768294
157	0xbe8f4dd4	-0.27989066
158	0xbd435b77	-0.04769465
159	0x3e3a4451	0.18190123
160	0x3e0b0614	0.13576537
161	0xbd7ebd6c	-0.062192366
162	0xbea8374d	-0.3285469
163	0xbd6773de	-0.056506984
164	0xbece80e2	-0.40332705
165	0x3e19b799	0.15011443
166	0xbc1135fb	-0.008862968
167	0x3f112d55	0.56709796
168	0xbb082ecf	-0.0020779853
169	0xbd824c63	-0.06362226
170	0xbdd5fccd	-0.104486085
171	0xbe824b28	-0.25447965
172	0xbf03db77	-0.5150675
173	0xbe6421ac	-0.2227847
174	0xbe6e7056	-0.2328504
175	0xbd8abbc0	-0.06774092
176	0x3d380c25	0.044933457
177	0x3e5f1e32	0.21788862
178	0x3ecb04bb	0.39652047
179	0xbe56989e	-0.20956656
180	0xbdec84f9	-0.115488
181	0x3e3ca69a	0.18422928
182	0x3db49d64	0.088190824
183	0xbeb40480	-0.35159683
184	0xbe660859	-0.22464122
185	0xbe2836fa	-0.16427222
186	0x3e5b6cbc	0.21428198
187	0x3ea40fe6	0.3204338
188	0xbe04ea09	-0.12979902
189	0x3e9258b4	0.285833
190	0x3e73bac9	0.23801722
191	0xbd2d12cd	-0.042254258
192	0x3e2f3f0c	0.17113894
193	0xbd7a199f	-0.06105959
194	0x3e3eadeb	0.18621032
195	0xbebf4d32	-0.37363583
196	0xbe06cb22	-0.13163427
197	0xba965262	-0.0011468644
198	0x3dbcac7f	0.092125885
199	0x3ed29aab	0.41133627
200	0x3d806664	0.062695295
201	0xbdb6dbaa	-0.08928616
202	0x3e4dcae6	0.20096931
203	0xbe19eda4	-0.15032059
204	0x3d8d539e	0.06900714
205	0x3edf6d44	0.4363805
206	0xbe5cd98f	-0.21567367
207	0x3dad2b63	0.08455541
208	0x3f3ded2d	0.74190027
209	0xbd7ff1de	-0.062486522
210	0x3e7f979b	0.24960177
211	0x3d904aac	0.070454925
212	0x3e80165d	0.25017062
213	0xbd11b171	-0.035569612
214	0xbe89b8c4	-0.26898777
215	0x3e1221f8	0.1427077
216	0x3dcc7af2	0.099843875
217	0xbe4adcfa	-0.19810858
218	0x3e8758c7	0.2643492
219	0xbe338d1f	-0.17534302
220	0x3d138800	0.03601837
221	0xbea9f0bb	-0.33191475
222	0xbe716d12	-0.23576763
223	0xbb941c9b	-0.0045200116
224	0xbef560e9	-0.479255
225	0xbda49945	-0.08037046
226	0x3d94b993	0.07261958
227	0xbeb63270	-0.35585356
228	0xbe624c12	-0.22099331
229	0x3dd95562	0.106119886
230	0xbe93f2ef	-0.2889628
231	0xbd7625de	-0.060094707
232	0xbc92c79c	-0.017917447
233	0x3e44fd36	0.19237217
234	0x3e1ba200	0.15198517
235	0x3d531854	0.051536873
236	0x3e7bb682	0.2458134
237	0x3ea2f6b3	0.31828842
238	0xbd0f880c	-0.035041854
239	0xbef87243	-0.48524675
240	0xbef6f5e0	-0.48234463
241	0xbe602a2b	-0.21891086
242	0x3e874f55	0.26427713
243	0xbd87dfb0	-0.06634462
244	0xbcde655a	-0.027147938
245	0x3e98c491	0.29837468
246	0xbe84983c	-0.25897396
247	0xbe38f7e8	-0.18063319
248	0xbe9d6394	-0.30740035
249	0xbe0792a7	-0.13239537
250	0x3dadb26f	0.08481299
251	0xbefcc7c4	-0.4937116
252	0xbe0d44dc	-0.13795799
253	0xbd099a90	-0.033594668
254	0x3e1402b7	0.1445416
255	0x3e2bdea3	0.16784148

value_net.module_4.bias f4 [32]
0	0x3ba58748	0.005051527
1	0x3c2f69fd	0.010706422
2	0x3911f5eb	0.00013919889
3	0x3b4a41e6	0.0030862032
4	0x3ba500a2	0.005035476
5	0xbafa7381	-0.0019107909
6	0xbd5870f9	-0.052842114
7	0x3c88c34d	0.01669469
8	0x3bd1a9fe	0.0063984385
9	0x3c5072de	0.012722699
10	0xbceedb5f	-0.029157339
11	0xbc7fb006	-0.015605932
12	0xbc0b9ea6	-0.008521711
13	0x3bf4118d	0.0074483813
14	0xbbd91c29	-0.0066256714
15	0x3bf6cade	0.007531508
16	0x3b6bc2b2	0.0035974202
17	0xbc14a040	-0.00907141
18	0xbc1a1a99	-0.009405755
19	0xb9fedfd4	-0.0004861342
20	0xbc2e9b26	-0.010657107
21	0xbb9c3e4c	-0.0047681686
22	0x3c37e087	0.011222965
23	0x3c4f6a2a	0.012659589
24	0xbcaab88a	-0.020839948
25	0xbc563510	-0.0130741745
26	0x3b52611b	0.0032101336
27	0x3aa42868	0.0012524249
28	0x3c2b7c2f	0.010466619
29	0xbbc11e33	-0.0058934926
30	0x3b267752	0.002540071
31	0x3c4d9a29	0.012548962

value_net.module_7.weight f4 [1, 32]
0	0xbe72b4eb	-0.23701827
1	0xbe8856a8	-0.26628613
2	0xbd061114	-0.03273113
3	0xbb869e24	-0.0041082073
4	0x3ded91c4	0.11600068
5	0x3d51e256	0.05124124
6	0xbc5a185d	-0.013311473
7	0x3b774403	0.0037729747
8	0xbd8a5ddb	-0.06756183
9	0xbdb94836	-0.09046976
10	0xbc024032	-0.007949876
11	0xbceb0861	-0.028690519
12	0xbce2fb96	-0.027707856
13	0xbe4e7b19	-0.20164146
14	0x3e43ca2f	0.19120096
15	0xbe82955f	-0.25504586
16	0x3bbd2160	0.005771801
17	0x3e57e57a	0.21083632
18	0xbe7ecd8b	-0.24883096
19	0xbe8e434c	-0.27785718
20	0xbd0c0c3b	-0.03419135
21	0x3dab828c	0.08374509
22	0xbc087b64	-0.0083302
23	0xbbbe44f5	-0.00580656
24	0xba1ab467	-0.0005901516
25	0x3e0d6480	0.13807869
26	0x3e662c1a	0.22477761
27	0x3d3ac88a	0.045601405
28	0x3cad001a	0.021118212
29	0x3ea495bf	0.32145497
30	0x3d8a123f	0.067417614
31	0xbe3462f2	-0.1761587
