MAPPO/Graph_H/save/HY_T1/agent_29_MAPPO_c.pt (torch, 87002 bytes, 15 tensors)

policy_net.0.weight f4 [32, 16]
000000 bd d9 10 3f 12 c3 88 3e 9d 2b 28 3e 92 91 fb bd
       0.5658224 0.26711327 0.16422887 -0.12283625
000010 90 0a 9c be fa 51 8a 3d 9b 6c 7c 3d 2d 7f 41 be
       -0.3047681 0.06753917 0.06162701 -0.1889617
000020 51 67 89 bd f3 bb c0 3e 1a d0 91 3e f8 b3 53 be
       -0.06709159 0.37643394 0.2847908 -0.20674121
000030 31 b0 0a 3e 4b e9 0f bf 7b fa 90 be 49 89 07 bd
       0.13543774 -0.5621535 -0.283161 -0.03308991
000040 0d 03 15 bf b7 ea 87 be 79 2a e1 be 9c 59 7a 3d
       -0.5820778 -0.2654626 -0.43977717 0.061120614
000050 98 ff c7 3e 33 69 1d 3e 25 cb d0 3d 59 1c c6 3b
       0.3906219 0.15372162 0.10194997 0.00604586
000060 c5 31 10 3e 13 be e0 bd 64 1f 68 3e d9 4e c4 3c
       0.14081486 -0.10973754 0.22668225 0.023963379
000070 d6 eb 02 3e 21 99 b7 be 0f 5e 07 be 2a ae c7 3b
       0.12785277 -0.35859016 -0.13219474 0.00609376
000080 50 d2 6d 3e 32 70 d0 be b9 b2 bd 3e f7 db 13 bf
       0.23224759 -0.40710598 0.37050417 -0.57757515
000090 e1 2f 5b be 9d bc dc bd 0b c6 c7 bd 93 8b 2c bd
       -0.21404983 -0.10778163 -0.097545706 -0.042125296
0000a0 67 30 a9 be 23 7b d3 be 68 03 72 3e 87 2e 27 3c
       -0.3304474 -0.41304883 0.23634112 0.010203964
0000b0 38 29 a5 3e c6 98 67 3e d6 54 16 3d b7 d4 8e 3e
       0.3225801 0.22616872 0.036702 0.27896664
0000c0 72 b4 99 be 6e 2d e0 3c b5 ab 80 be 3f 64 4a 3d
       -0.3002048 0.027365413 -0.25131002 0.04941201
0000d0 7b 9e 1f be df aa fa bc 72 6a 71 3e db bd ab be
       -0.15587799 -0.030599056 0.23575762 -0.33543286
0000e0 f5 8f 33 be 0f 0e 2a bd 5a 0a 16 3c 3d 7b cd be
       -0.17535384 -0.041517314 0.009157741 -0.40133086
0000f0 83 5d c0 bd 2c b3 10 3e b7 b1 95 be 7c 11 bc 3e
       -0.09392836 0.14130849 -0.29237148 0.3673209
000100 9c 9f 8a 3e d1 09 4b 3e cb 12 84 be 27 ba e4 3d
       0.27074897 0.19827963 -0.25795588 0.11168318
000110 8e fd 59 3e 29 b2 f8 3e 1a b3 f5 be ff 85 35 3e
       0.2128813 0.48573425 -0.47988206 0.17726897
000120 1d 07 5d bd a6 99 81 be 33 14 a8 be 7a 93 9f 3e
       -0.053961862 -0.25312537 -0.3282791 0.31167203
000130 c9 8d 3a bd f7 12 8c 3e 4d ca bb be 78 39 8e 3e
       -0.045545373 0.2735822 -0.3667778 0.2777822
000140 6f 7e 59 3e 31 0e c7 bd b6 d6 f4 be bc 5c 51 be
       0.21239637 -0.09719504 -0.4782006 -0.20445532
000150 fc ff 5d be ab bc 1b 3d 7d 70 10 bf f9 25 d2 3e
       -0.21679682 0.038021725 -0.56421643 0.41044596
000160 77 83 0e 3d 87 ad 6b 3d 6d 2c 39 3e da 28 18 bf
       0.034793343 0.057538535 0.18083353 -0.59437335
000170 74 82 97 be ba 3e 03 b8 e9 ae 42 3e b6 6a 08 be
       -0.29591715 -3.1291253e-05 0.19012035 -0.13321957
000180 59 32 8c 3d 1e 95 0a 3e e0 2b 02 bf e0 3d 36 bd
       0.068455406 0.13533446 -0.508482 -0.044492602
000190 b8 64 4a 3d 78 a9 a0 3d 06 bf 9c 3d 84 bd 02 3e
       0.04941246 0.078448236 0.07653622 0.12767607
0001a0 c7 19 88 be fc fe a6 be 38 36 85 bb 68 e9 1b bd
       -0.26582167 -0.32616413 -0.0040653013 -0.03806439
0001b0 35 df 1d 3e 10 b3 17 bf e9 c9 b7 3d db 12 b9 3e
       0.15417178 -0.592576 0.08974058 0.36147198
0001c0 1d 7f a1 bb c5 32 0e be a3 ec d4 3e 2b b8 fc be
       -0.004928483 -0.13886555 0.4158679 -0.4935926
0001d0 f5 22 d1 be 0a 87 0d 3e 21 ae 5e be 18 ed c7 bd
       -0.40846983 0.13821045 -0.21746112 -0.09762019
0001e0 9a 48 88 3e 68 c3 07 3f 9f 24 be be 22 0c 87 3e
       0.2661789 0.5303254 -0.37137315 0.26376444
0001f0 a5 c0 9a be 19 30 04 bd 32 3e 04 be 89 64 8f 3e
       -0.302251 -0.032272432 -0.1291435 0.2800639
000200 6a a7 ee bd 01 7a bc 3e 3a 1b 8d 3e 94 83 cb 3e
       -0.116530254 0.36811832 0.27559835 0.39748824
000210 d9 e5 17 3d 73 33 d2 bc ef a5 21 bd e4 29 ad 3d
       0.037084434 -0.025659299 -0.039464887 0.08455256
000220 0f 0d 86 3e bb d3 d9 bd 1b 14 03 3c aa 0b e1 be
       0.26181838 -0.106360875 0.008000399 -0.4395421
000230 9d a4 b8 3d 01 f0 2b 3e 71 92 a6 bd e6 d4 73 3e
       0.090157725 0.16790773 -0.081334 0.23811683
000240 64 44 3e 3e 4c fc 47 be 65 fe e0 be 35 41 a8 be
       0.18580776 -0.19529837 -0.43944088 -0.3286225
000250 2c 34 03 be fa 0d 92 bd 34 26 57 3e ca 65 d7 3d
       -0.1281287 -0.07131572 0.21010667 0.105174616
000260 9e c1 dc be 8b 75 f3 3d 56 03 2d bd b1 0c 93 bd
       -0.43116468 0.11887654 -0.04223951 -0.07180155
000270 76 18 6a 3e de c6 48 3e 92 e8 23 3e a9 59 22 be
       0.22860894 0.19607112 0.16006687 -0.15854515
000280 e4 ce a8 be 5e db d7 3e a6 57 e5 3e b5 80 9d bd
       -0.32970345 0.4215955 0.44793433 -0.076905645
000290 8d e5 33 bd e5 60 a6 bd 89 b5 7a be 77 a9 9c 3e
       -0.04392009 -0.0812395 -0.24483313 0.3059804
0002a0 94 a9 63 3d 29 a6 56 3e c3 9a 0b 3e 99 c0 90 3e
       0.055581644 0.20961823 0.13633256 0.2827194
0002b0 70 cb e1 bd cf e2 a9 3e 5d 9d 2f 3f 43 c6 41 be
       -0.11025131 0.33180854 0.6859949 -0.18923287
0002c0 d0 9c 8e be 64 ef 98 bc 9b 62 7b 3e ca f3 05 3e
       -0.27854013 -0.018668838 0.24549334 0.1308128
0002d0 e9 72 f6 be 10 42 6e 3e 2f 26 96 be b3 64 8a be
       -0.48134544 0.23267388 -0.29326007 -0.27029952
0002e0 6e cc 61 3e 13 a8 9d 3e 91 f7 37 3e fa dd eb 3d
       0.2205064 0.30792293 0.17965533 0.11516948
0002f0 01 98 10 3d 55 0f 31 be 64 b8 8c 3d b1 03 fc 3b
       0.035301212 -0.17291005 0.06871107 0.0076908697
000300 26 5a 82 be f2 ef 8f 3b 2b 3a c1 be ed a2 8f be
       -0.25459403 0.0043926174 -0.3773969 -0.2805399
000310 9a b7 16 3e bf a3 50 be 81 96 82 3e b6 da de 3d
       0.14718476 -0.20374964 0.2550545 0.108815596
000320 11 af 37 3d df e1 95 3e bc 0f e7 3e c1 cd a0 3b
       0.04484469 0.29273888 0.45129192 0.0049073403
000330 e2 7c e7 3e 1f 95 b0 3e 43 5c 12 be a0 23 8c 3e
       0.45212466 0.3448877 -0.14293008 0.2737093
000340 4f 34 61 be 65 8b 4e 3d 11 f6 4b 3e a3 c9 ac 3e
       -0.2199261 0.050425906 0.19918086 0.33747587
000350 9e 84 8d 3e ec 3d dc bc 53 21 9e bc 20 f4 cd 3e
       0.2764024 -0.026884995 -0.019303 0.40225315
000360 4a 8a e0 be 68 d6 f3 3d 5c 21 4d bc 94 c1 7a be
       -0.43855506 0.11906129 -0.0125201605 -0.24487907
000370 12 e1 11 bc 7f 4e 8c bd 87 3e bd be fb 57 a2 be
       -0.008903759 -0.068509094 -0.36961767 -0.3170775
000380 3d b0 c1 3d e3 fa c8 3e f8 43 06 be a6 13 17 be
       0.09457443 0.3925391 -0.13111866 -0.14753589
000390 e5 3c cb be 55 8b eb 3b 56 5b 6b 3d b8 0b cc be
       -0.39694896 0.0071882405 0.05746015 -0.3985269
0003a0 29 5f 12 3c 0a 86 ea be 01 fd af bd 34 7e 1a bd
       0.008933821 -0.4580539 -0.085931785 -0.037718013
0003b0 51 1f 77 3c 1c 69 aa 3e 43 91 7f be 7d 63 19 bd
       0.01508315 0.33283317 -0.24957757 -0.037448395
0003c0 a5 2e 17 3e 3c 0c 07 be 06 3d 0b 3e 10 50 a1 3d
       0.14763887 -0.13188261 0.13597497 0.07876599
0003d0 27 63 06 3f ce eb d3 3e db f3 a8 bc 98 a4 dd bd
       0.52495044 0.41390842 -0.020624092 -0.108224094
0003e0 38 ac f7 3d e5 df 4b 3d 25 86 cd 3e 6b 2e ae be
       0.12093395 0.04977407 0.40141407 -0.3401979
0003f0 79 e1 1b bf bd 8b 9f 3d 3a 59 3b 3e 65 90 85 be
       -0.6089092 0.07790325 0.18295756 -0.26086727

policy_net.0.bias f4 [32]
000000 eb 98 d9 3c fc 6e 57 bd e0 8b a5 3d 86 71 96 bd
       0.026562175 -0.052596077 0.0808332 -0.073458716
000010 a4 9c 89 bd 42 e4 15 bb 46 87 7a bd 17 90 95 3d
       -0.0671933 -0.0022871648 -0.061164163 0.073028736
000020 34 94 0e 3d 88 84 29 bd 6a 92 07 3d c0 5c cc 3d
       0.034809306 -0.041386157 0.033098616 0.09978628
000030 8a 56 aa bd 42 90 0d bd 1e 63 1c 3d 27 e4 e5 bd
       -0.08317287 -0.034561403 0.038180463 -0.11225157
000040 96 c6 cc bc 2b 2c 84 bd aa 62 bf 3d 87 e0 7e 3d
       -0.024997037 -0.06453737 0.093449906 0.062225845
000050 0e 7b 85 3b 24 80 30 3d 2e e4 45 3d 49 7f 63 3d
       0.004073507 0.043090954 0.048313312 0.05554131
000060 f4 88 d2 3b 20 da b5 3d d5 e1 c4 3d ca cd 5a 3d
       0.0064250175 0.08879495 0.096133865 0.053418912
000070 4d 4e 17 bd 4b 43 04 bd f3 e7 0f 3d 90 ce 1a bd
       -0.036939908 -0.032290738 0.035133313 -0.03779465

policy_net.2.weight f4 [32, 32]
000000 2a b4 6d 3e 8e 79 10 bf d5 f6 8c 3e ce fb ba 3e
       0.23213258 -0.5643548 0.27532068 0.36520237
000010 99 f9 08 3d 28 a8 26 bd 5a 3e fb bb eb c8 a7 3e
       0.03344116 -0.04068771 -0.007667345 0.32770476
000020 d9 3b 23 3e 7f 02 79 3e b1 a6 b6 3e 17 2d 04 3f
       0.15940799 0.24317358 0.3567405 0.516313
000030 52 05 75 3e 45 aa 4c 3d 64 88 2a 3e fb d9 56 3e
       0.23927811 0.04996707 0.16653591 0.2098159
000040 b3 84 6d 3d 34 47 d3 bd 12 6f 6d 3d 65 b6 18 3e
       0.05798788 -0.10316315 0.057967253 0.14913328
000050 60 f7 ad 3d fd 5b 06 3f 90 68 c0 be 41 e8 47 3f
       0.08494449 0.5248411 -0.37579775 0.78088766
000060 5c 42 37 3e 0c 6a 37 bc 51 2e 0f 3f fc ad f8 3c
       0.17896408 -0.011194717 0.5593005 0.0303564
000070 74 0f ce be 5a 06 55 3e 0c 3f 37 be 63 9b 6c 3d
       -0.40246165 0.20803204 -0.17895144 0.057765376
000080 a3 cc 85 be 59 3a d8 3e 23 4e 67 bd 23 8a e1 3e
       -0.26132688 0.42232016 -0.056471 0.44050702
000090 7d f8 93 3e dc 15 11 bf ec 38 07 3e c6 9f 88 be
       0.2890052 -0.5667398 0.13205308 -0.26684397
0000a0 80 bc 57 3e 4a 07 d8 be ab 1b 8c 3e a7 35 1f be
       0.21068001 -0.4219306 0.2736486 -0.1554781
0000b0 bb 86 59 3e 66 26 19 be e7 8c 92 bd e7 b9 32 3d
       0.21242802 -0.14956054 -0.07155781 0.04363432
0000c0 70 94 95 be 24 55 52 3e 3a 61 af be b2 6b 35 3e
       -0.2921481 0.20540291 -0.34253865 0.17716864
0000d0 c7 e8 fa be 2a ea 97 bd 0f ee 58 3e 35 d6 9a be
       -0.4900572 -0.0741771 0.21184562 -0.30241552
0000e0 4f be 84 be 1f 4b 44 bd 65 0c 8e 3d 74 b3 72 be
       -0.25926444 -0.047923204 0.06935958 -0.23701268
0000f0 e4 87 b7 3e e9 fe a0 3e 9d e5 1f 3e 16 62 72 bd
       0.35845864 0.3144448 0.15614934 -0.059175573
000100 62 79 43 3c f7 d7 19 3e a9 63 14 be e1 51 13 3f
       0.011930795 0.1502379 -0.14491142 0.5754681
000110 70 16 01 3e fd ef c5 3a 0f c0 93 3e de 81 d3 be
       0.12606215 0.0015101429 0.28857467 -0.41310018
000120 35 6f cf 3e 27 ce a3 3e da 51 15 bf 46 cf 28 bd
       0.40514532 0.3199322 -0.5832802 -0.041213296
000130 18 91 45 3e 0f 4d a0 bc b6 06 93 be 21 bc 42 3d
       0.1929363 -0.019567994 -0.28716058 0.047542695
000140 7a c1 8f 3d d2 e0 cb 3e e8 4a d6 bd 1a 51 83 3e
       0.070193246 0.39819962 -0.10463506 0.25647813
000150 c6 ce 87 3e e1 14 76 be a5 57 23 3e 49 4b 8c be
       0.26524943 -0.24031402 0.15951402 -0.27401188
000160 1c 7e 60 3d 8b 7f c2 be 90 76 ee be ca c9 c9 be
       0.054807767 -0.37987933 -0.4657483 -0.39411765
000170 d4 17 82 be bf 03 bd bd bd 82 1f be 22 bb cf 3e
       -0.25408804 -0.0922923 -0.15577216 0.40572459
000180 e0 a3 e3 3d 53 b8 5a bd d8 c6 dd bd 0d c5 83 be
       0.11115241 -0.05339844 -0.10828942 -0.25736275
000190 7e 60 2c 3f 3a 25 79 3d e3 75 ce be b5 b0 ce bd
       0.67334735 0.060826518 -0.40324315 -0.10092298
0001a0 99 1c 44 3e 32 a4 93 3c 88 db c9 3e 2b d9 c6 be
       0.19151534 0.01802263 0.39425302 -0.3883756
0001b0 a5 0c 8c 3d 8d 87 bc 3c f9 4e 9d bd dc c5 92 bd
       0.06838349 0.023013854 -0.076810785 -0.07166645
0001c0 f9 3d 0e bf 6a 47 c0 be 5d 1b b9 3e 19 c2 83 3e
       -0.5556331 -0.37554485 0.3615369 0.25734022
0001d0 8f a8 af 3e 60 41 0b 3e fa 03 9d bd e6 02 73 3d
       0.34308288 0.13599157 -0.07666774 0.059328936
0001e0 50 4e 17 3d be 6b 86 be 9d 8c 8f be 27 b9 90 be
       0.03693992 -0.26254076 -0.28036967 -0.2826626
0001f0 d8 42 4b 3e 27 52 e2 39 c0 05 03 3e b3 39 5a be
       0.19849718 0.00043167287 0.12795162 -0.21311073
000200 e1 6f 4d be 35 7e c6 bc aa 30 2d 3e 91 6a 07 bd
       -0.2006221 -0.024230102 0.16913095 -0.033060614
000210 a7 5a 9e 3d 94 57 5d 3e 33 2c 6d be e5 c3 14 be
       0.07732134 0.2161544 -0.23161392 -0.14527853
000220 db 10 a6 be 61 bb 45 be 91 8b 55 be 24 c9 31 be
       -0.32434735 -0.1930976 -0.20854022 -0.17361885
000230 33 b0 da bc 0e d8 0e 3e ee f4 af bc 07 48 0c 3e
       -0.026695346 0.13949606 -0.021479096 0.13699351
000240 b8 e6 e0 3d 9a ab 94 3e 2a 1f dc be 96 14 af bd
       0.10981506 0.29037172 -0.42992526 -0.08548848
000250 1a 1a 9a be 3c 71 66 be bb a7 19 bf be 54 14 bf
       -0.3009804 -0.22504133 -0.6002156 -0.57941806
000260 82 03 ed 3c ad 62 17 bf 6e 8c da bd 99 7e 65 bf
       0.028932337 -0.5913494 -0.10671316 -0.896463
000270 9f b1 53 be a2 67 aa 3c c3 70 6e 3e 51 e4 28 3c
       -0.20673226 0.02080137 0.23285203 0.010308341
000280 2a 63 29 be 92 64 af 3e a2 50 95 3e 89 84 ed 3e
       -0.16541734 0.34256417 0.2916308 0.4639018
000290 d0 a7 02 be eb 14 9a bd bf 23 94 3e cf 85 81 bd
       -0.12759328 -0.07523521 0.28933522 -0.0632435
0002a0 28 5d f9 be fe 24 db 3d 5d 7d fa be 52 98 54 3d
       -0.48703885 0.10700415 -0.4892377 0.051903076
0002b0 2a 17 1f be 2a e1 98 be 67 cc 0e 3f 7f a0 f9 bd
       -0.1553618 -0.29859287 0.55780643 -0.12188815
0002c0 98 2c cf be 32 df cd be cb 09 5d be be 48 a8 bd
       -0.4046371 -0.40209347 -0.21585767 -0.082169995
0002d0 e6 f2 8d 3e e3 a8 f4 bd 49 55 45 be fb e6 9d 3e
       0.2772438 -0.11946275 -0.19270815 0.30840287
0002e0 e3 28 1f 3e 7c b2 ef 3d 40 76 c2 bd dd ee 10 3d
       0.15542941 0.11703965 -0.09495211 0.035384048
0002f0 2d 86 8d be 0d 0f 92 3d 17 91 91 3d 75 16 d8 bd
       -0.2764143 0.07131777 0.07107752 -0.10551158
000300 38 16 d5 be 7b e6 09 3f 0e 17 6c be ad 89 88 3e
       -0.41618514 0.5386731 -0.2305567 0.26667538
000310 d4 b5 88 3e ae 92 9a 3e cf 0a 8c 3e 65 a1 68 3d
       0.26701224 0.30190033 0.27351996 0.056794543
000320 0c ab 15 3e a4 85 89 3d 54 da b6 be f2 5e 8f be
       0.1461603 0.06714943 -0.35713446 -0.28002125
000330 43 aa bd 3e a2 90 2f 3f ea a0 44 3d 41 11 ce be
       0.37043962 0.6858007 0.048005022 -0.4024754
000340 15 47 88 be 25 2e 97 bd 50 03 31 3d f2 75 99 be
       -0.2661673 -0.07381848 0.04321605 -0.29972798
000350 e2 37 5d bd 20 43 89 be e7 44 89 be c7 a6 33 bf
       -0.054008372 -0.26809025 -0.2681038 -0.7017636
000360 1a a4 38 bd cd 5b ac be 88 d4 8e 3e 89 1a 55 bd
       -0.045078374 -0.33663788 0.27896523 -0.05202726
000370 bf e0 a2 bc 1c be 91 3e a6 ab 39 be 9f 84 6f 3e
       -0.019882558 0.28465354 -0.18131885 0.23390435
000380 e7 7f 25 3f d6 2a 95 be 6e c2 7a 3c b6 44 40 3c
       0.6464829 -0.29134244 0.015305145 0.011735132
000390 43 3f 00 3d 6b ab 17 3e 0a 30 e6 3e 9f 64 e4 3d
       0.03131033 0.14811485 0.44958526 0.111520045
0003a0 d0 01 d2 be c5 be b4 3d 00 e5 10 be b1 09 94 3e
       -0.41017008 0.08825449 -0.14149857 0.28913644
0003b0 16 d1 f0 3d 68 8f 1a be fd 63 f0 3e 3b 9b 20 3e
       0.1175863 -0.15093768 0.46951285 0.15684216
0003c0 48 00 0b bc 50 68 4a 3e 15 60 c3 3e 9e 8a f1 bd
       -0.008483954 0.19766355 0.38159242 -0.11794017
0003d0 fb 9d 77 bd 31 06 d4 bd e6 17 40 3e 1d 12 ab bd
       -0.060453396 -0.103527434 0.18759117 -0.08353064
0003e0 7d 82 15 be 70 71 9a 3d 6a 9f 7e be ab a8 71 bd
       -0.14600559 0.07541168 -0.24865499 -0.058998745
0003f0 50 7e 3e be 99 65 11 3f 65 fd ba be 1c dd c9 be
       -0.18602872 0.5679565 -0.3652145 -0.39426506

policy_net.2.bias f4 [32]
000000 c8 a9 7e 3d b7 f4 a9 bd 83 3b ae bd a6 e1 eb 3c
       0.062173635 -0.08298629 -0.08507445 0.028794121
000010 89 6c 63 bd af ab da bd 7b a6 6a bc 15 a5 34 bd
       -0.05552343 -0.10677277 -0.014321919 -0.044102747
000020 c5 ce b0 bd 57 0b c8 bd 4d 60 32 3d 55 c9 1c bd
       -0.08633188 -0.09767788 0.04354887 -0.038277943
000030 47 c2 20 bd af 27 98 3d a3 56 c5 3a 50 25 32 3d
       -0.039247777 0.07429444 0.0015055727 0.043492615
000040 b4 24 90 bd c6 f4 af bc dc c4 75 bd f8 83 b5 bd
       -0.070382506 -0.021479022 -0.060002193 -0.08863062
000050 a8 58 7f bd 28 cd b4 3d 97 8b 3c bb 86 6d 7b bc
       -0.06234041 0.08828193 -0.0028769725 -0.015345937
000060 4a 89 d8 3b 52 68 00 bd 0c 59 86 bd a7 60 10 bd
       0.006608163 -0.031349488 -0.06559953 -0.035248425
000070 d4 0d 42 bd f8 54 ff 3d bb a5 9b 3d 23 db d2 3d
       -0.04737647 0.124673784 0.0759997 0.10295703

policy_net.4.weight f4 [32, 32]
000000 fb 86 18 be 47 46 9f 3d 65 26 87 3e 8a 17 83 bd
       -0.14895241 0.07777076 0.2639648 -0.06400974
000010 d3 96 15 3f 00 0e 3b 3d 8f 11 f3 3e 44 27 30 be
       0.58433264 0.04566765 0.47474334 -0.17202479
000020 16 b3 47 3f 93 db 86 3e 6f f3 12 3e 88 82 0a 3f
       0.7800764 0.26339397 0.14350675 0.54105425
000030 77 a2 88 bc d0 c7 23 bf 3f 40 37 be 2b cb 44 bd
       -0.016679032 -0.63976765 -0.17895602 -0.04804532
000040 98 25 07 3e d5 e6 03 3d 40 fa 2d 3f d6 ac 34 3e
       0.13197935 0.03220256 0.67959976 0.17644057
000050 ad 80 36 be 19 c4 3a be df af d2 bd d5 75 0b 3d
       -0.17822523 -0.18238868 -0.10287451 0.03404792
000060 12 ff 73 3e ff c0 18 3e 72 18 e7 bd 00 d2 9c bc
       0.2382777 0.14917372 -0.112839594 -0.019143105
000070 ff a1 4c 3f 71 9b 79 be a6 86 ee 3d 80 5a f3 bd
       0.79934686 -0.24375702 0.11646776 -0.11882496
000080 8d 8f 08 3e f3 bf cb 3e 51 f5 1f be 96 af 1c bf
       0.1333601 0.39794883 -0.15620925 -0.6120542
000090 c9 5e 12 3e 73 ed 2d 3f a3 4c fb 3d 15 2e b3 3e
       0.1429397 0.67940444 0.12270477 0.34996095
0000a0 39 c4 b5 3e 81 7e 3d 3e 22 d9 c2 be 2f bf df be
       0.35501269 0.18505289 -0.38056284 -0.4370055
0000b0 e2 ed 83 be d8 f3 a7 3d 25 3b a7 3e 14 c3 54 be
       -0.25767428 0.082008064 0.3266231 -0.20777541
0000c0 eb 23 35 3e 0f d6 6d bd af 8e 90 bd 4f 94 4b 3d
       0.17689483 -0.05806547 -0.07058465 0.049701985
0000d0 16 bb fc be 1b 3e db be 85 22 ea 3d 8e 0e a7 3e
       -0.49361485 -0.4282082 0.11432365 0.32628292
0000e0 e8 8b 81 be ab 1a 9c 3e dc 29 94 3c b9 3a e1 be
       -0.25302052 0.30489096 0.018086366 -0.43990114
0000f0 f0 13 fe bc f5 4a 44 be ef 8a 7d be 3e 39 19 bf
       -0.031015366 -0.19169219 -0.2476003 -0.5985297
000100 dc 32 7d be 3f a2 b7 be 18 97 1d 3c b3 ec 2c bf
       -0.24726433 -0.3586597 0.009618543 -0.67548674
000110 b0 02 20 3e ca 80 1f 3e ec 48 e1 3c bb a5 43 be
       0.15626025 0.15576473 0.027500592 -0.1910619
000120 06 67 11 3f 83 2f cb be 68 a9 3f bd f9 fd 5b 3d
       0.56797826 -0.39684686 -0.046792418 0.053709004
000130 a7 bf a5 be 66 23 f2 3c 1f bd 90 3e 76 76 c6 be
       -0.32372782 0.029557895 0.28269288 -0.38762254
000140 55 e2 31 be 19 13 ab 3d ae 42 53 3d a8 ac 9f bd
       -0.17371495 0.08353252 0.051577263 -0.077966034
000150 ff 84 ea 3c 8f f9 d3 be 97 c8 83 3e 40 4d 8c be
       0.02862787 -0.41401336 0.25738975 -0.27402687
000160 37 c2 2e be aa 9f b2 3e 67 f1 a8 3b b7 41 8d 3e
       -0.17066275 0.3488744 0.0051557305 0.275892
000170 87 46 8c be ce c4 09 bf 7e 30 1e bf 13 ae d3 be
       -0.27397558 -0.53815925 -0.61792743 -0.41343746
000180 98 61 a2 3e da 74 dc be f6 bf d5 be 4f 71 f4 be
       0.31715083 -0.430579 -0.41748017 -0.47742698
000190 0f 15 51 3e 12 21 91 3e 95 c6 ba be 8b b8 03 3f
       0.2041819 0.28345543 -0.3647963 0.51453465
0001a0 76 27 6c 3e 21 7e c6 3e 5f 57 c3 be a0 aa a1 3e
       0.23061928 0.38768104 -0.38152596 0.3157549
0001b0 a5 0a 2e be 01 fe d2 be 47 fd 6c 3e df 8a b5 be
       -0.16996248 -0.41209415 0.23143493 -0.35457513
0001c0 ce ad a8 be cd 06 1a 3e 7e 86 18 be bd 44 e8 3d
       -0.32945102 0.15041657 -0.14895055 0.11341236
0001d0 51 c1 6f be 4a 19 ce be dc 15 12 3f 72 7a e2 3d
       -0.23413588 -0.4025367 0.57064605 0.11058511
0001e0 cf 03 a9 be 61 97 43 3e 62 b6 9c 3e f7 e0 ba bc
       -0.33010718 0.19100715 0.30607897 -0.02281235
0001f0 c0 87 09 3d 2b 33 af be 85 00 47 be c1 7d 9a 3e
       0.033576727 -0.34218726 -0.19433792 0.30174068
000200 16 d6 11 3e aa 03 0c bd f9 a5 9d 3d 65 ce 3b 3f
       0.14241824 -0.03418318 0.076976724 0.7336181
000210 53 47 ae 3e b6 68 93 be 13 67 6d 3e c1 16 4d be
       0.3403879 -0.28790826 0.23183851 -0.20028211
000220 99 b7 fc be f8 58 eb be 4d f8 1e 3e 7b 90 7c 3e
       -0.49358824 -0.45966315 0.15524407 0.2466449
000230 e6 e7 1f bd 6f 65 30 3c 58 6f f9 3d 90 e1 f3 bd
       -0.039039515 0.010766371 0.1217944 -0.11908257
000240 92 43 f8 3e 38 18 0c bf 92 7f a3 3e 2a 60 26 be
       0.48489052 -0.54724455 0.31933266 -0.16247621
000250 f6 68 bc bd c9 58 9e 3e 87 71 82 bb 8f 25 6b bd
       -0.09199707 0.30927113 -0.0039808187 -0.057408866
000260 86 f4 10 bf b6 03 eb be 8e e3 6e be 74 d1 64 be
       -0.56623113 -0.4590127 -0.23328993 -0.22345525
000270 7b eb 72 be 83 b4 68 bd 5d 6b a1 3e 6d 31 19 3e
       -0.23722641 -0.056812774 0.31527224 0.1496026
000280 5e d7 e3 bc 2e 2c d6 be fe 49 56 be a7 07 6f bc
       -0.027812656 -0.4183058 -0.20926663 -0.014589227
000290 38 f8 38 3d 5c 05 a9 3e 52 5a cd 3e 2d 40 8f 3d
       0.045158595 0.330119 0.4010797 0.069946624
0002a0 d4 15 8b 3e f8 92 6a 3e 5a e3 3e bf 06 c9 6e be
       0.2716509 0.22907627 -0.7456566 -0.23318872
0002b0 02 76 2e 3e 48 6b 26 bc d0 8f 1f 3f f5 16 a7 be
       0.17037204 -0.010157414 0.62328815 -0.32634702
0002c0 1f 1b c8 be 98 b5 80 3e be f0 94 3e f9 8c b0 bc
       -0.39083192 0.25138545 0.29089922 -0.021551596
0002d0 40 ca 3b bf 10 df da bd dd 52 07 3b f5 fd d0 bd
       -0.73355484 -0.10687077 0.0020648756 -0.102046885
0002e0 2a b0 99 3e d3 a2 3f 3d bb 93 f7 3e 91 e8 16 3e
       0.30017215 0.04678614 0.48354897 0.14737155
0002f0 2d 56 4d 3c 86 cf e9 be db 7a 04 bf e8 dc 85 be
       0.012532753 -0.4566614 -0.5174996 -0.261451
000300 d7 ea 0d 3f 72 50 9c be 07 79 88 3e 38 cd d1 be
       0.5543646 -0.30530125 0.26654837 -0.40976882
000310 6c d1 1a bd e0 a2 61 3c a2 e2 32 3d cc 9a b2 bd
       -0.037797377 0.013771743 0.043673165 -0.087209314
000320 d5 23 97 3e 22 50 4d 3e 7e ae 55 bd bd b7 ef bd
       0.29519525 0.200501 -0.05216836 -0.11704967
000330 4e 07 55 be 50 57 4d 3e 35 89 41 3f e2 4b e0 bc
       -0.20803568 0.20052838 0.75599986 -0.027379934
000340 6a aa 31 be 14 e6 13 3f 1e a3 a9 3e 4a c3 33 bd
       -0.17350164 0.57772946 0.3313226 -0.043887414
000350 03 13 34 3d ec 27 21 be 00 ec 67 3d b9 b8 e0 3e
       0.043963443 -0.15737885 0.05662155 0.43890932
000360 13 c8 ac be 1a 66 13 3f 65 12 ff 3e fe 94 ab bd
       -0.33746395 0.5757767 0.4981872 -0.083780274
000370 20 d2 85 3e 37 55 cc be c0 9c 87 bd 5e 4e 97 be
       0.26136875 -0.39908764 -0.066216946 -0.29551977
000380 93 76 34 3f 60 1f 63 be 1d 8f 82 be 45 88 c0 3d
       0.7049343 -0.22179937 -0.25499812 0.09400991
000390 a9 6e b6 3b 72 ca 12 3f 8a e5 8d be 84 ad 9c 3e
       0.005567391 0.5734016 -0.27714187 0.30601132
0003a0 07 ec 59 3e ad 8d 04 bf fa 05 05 3f de cb 47 be
       0.21281444 -0.5177868 0.51962245 -0.19511363
0003b0 2e 6a e1 bc 79 12 0d 3f 18 03 b2 be cb 06 9f 3e
       -0.02751645 0.5510631 -0.34767985 0.3105987
0003c0 ff d5 e4 be e5 15 58 3e 8f 9f 5e be 8c 53 87 be
       -0.44694516 0.21102102 -0.21740554 -0.2643093
0003d0 84 4d 45 be ff 6d 48 3e ca 06 b3 3b c2 00 a2 bc
       -0.19267851 0.1957321 0.005463456 -0.019775752
0003e0 0b 0b 84 3e 74 5e 24 bd b7 43 c3 3e 42 1e 08 bf
       0.25789675 -0.04012914 0.381376 -0.5317117
0003f0 97 9e c8 be 85 8f a6 be 54 9b 10 be c3 cf 4b 3e
       -0.39183494 -0.32531372 -0.14121753 0.19903474

policy_net.4.bias f4 [32]
000000 4b 6d 73 bd 63 a4 6d be 4d f0 59 be 39 fe 44 be
       -0.0594304 -0.2320724 -0.21283074 -0.19237603
000010 2e 50 f9 3d 3b 28 71 be f7 0a 64 be 4a ca 86 3c
       0.12173496 -0.23550503 -0.22269808 0.01645388
000020 fe d8 d2 bd c3 1c 4e bd 3a 52 15 3e 68 aa 0c 3e
       -0.10295294 -0.050320398 0.14582148 0.1373688
000030 59 db 1b be 06 2e 66 3e 5d 86 0e 3d 37 a0 98 3e
       -0.15220393 0.22478494 0.034796108 0.29809734
000040 7a 39 40 bb 51 e5 3a 3d 3e fb c2 3d eb a5 77 be
       -0.0029331134 0.04562885 0.09520577 -0.24184386
000050 df 02 2d be 96 04 6b 3d 31 b7 4e be c0 e4 75 be
       -0.16895626 0.05737742 -0.2018707 -0.24013042
000060 bd 89 54 bd ca d2 51 be 41 f8 1d bc 87 74 56 3e
       -0.05188917 -0.20490566 -0.009641708 0.20942889
000070 17 91 6c 3e 59 d7 63 be df 18 47 be 96 5e 84 bd
       0.23102222 -0.22250117 -0.19443081 -0.06463353

policy_net.6.weight f4 [21, 32]
000000 20 97 39 3e 15 5a 8d be 35 e8 88 be 7d 3b 8e be
       0.18124056 -0.2760779 -0.2673966 -0.2777976
000010 15 98 aa 3e 6c 9d 86 be 9f 22 84 be 91 27 f6 be
       0.33319154 -0.26291978 -0.25807664 -0.48077062
000020 e5 6e b1 be 8c 50 cd 3e 67 fe 93 3e d5 b4 9d 3e
       -0.34654918 0.40100515 0.2890503 0.30802026
000030 ce 2e 9c be 66 55 8a 3e 62 70 bd be 69 9d 8e 3e
       -0.3050446 0.2701828 -0.36999804 0.2785447
000040 60 6b f5 be 34 c7 dd be 9a 0b a6 be dd 04 88 be
       -0.47933483 -0.43316042 -0.32430726 -0.2656621
000050 d4 6b 91 be 9a 18 ce be e5 74 8b be 90 4a 8b be
       -0.2840258 -0.40253145 -0.2723762 -0.27205324
000060 1e 2e c5 3e 0c f7 90 be 84 e4 dc 3e cb 8f 87 3e
       0.38511747 -0.28313482 0.43143094 0.26476893
000070 a7 99 89 3e 64 84 8d be 71 78 8e be 59 80 e6 3e
       0.2687504 -0.2764007 -0.27826265 0.45019796
000080 d5 9f e8 ba 4a bc c8 ba 7d c0 79 3b 07 81 13 ba
       -0.0017747829 -0.0015314904 0.0038109117 -0.00056268316
000090 97 54 5c ba 49 3b e5 b9 32 54 f3 b9 66 71 cd ba
       -0.0008404939 -0.00043722455 -0.00046411302 -0.0015674054
0000a0 56 16 31 bb 32 86 1b bb bc eb 75 b9 2b bc e5 3a
       -0.002702137 -0.002373111 -0.00023452839 0.0017527392
0000b0 49 1b 2e 3a 27 d7 64 bb e5 93 4d 39 79 46 56 3a
       0.0006641639 -0.003491828 0.00019605418 0.00081739534
0000c0 33 c1 3d ba e5 a7 42 ba 97 26 83 39 f6 9a 18 3b
       -0.0007238567 -0.0007425531 0.0002501502 0.0023285723
0000d0 46 70 72 3a ae 4e f0 ba e2 c2 a3 3a 93 59 90 b9
       0.00092482974 -0.0018333995 0.0012493993 -0.00027532558
0000e0 09 72 3b ba 2f b6 67 b9 06 9c 5e ba a8 24 91 3b
       -0.00071504764 -0.00022097745 -0.0008491877 0.0044294186
0000f0 96 33 04 ba 2f 79 3e bb 91 61 9f 3a 3d 75 ea 3a
       -0.00050430873 -0.002906393 0.0012159814 0.0017887723
000100 90 4c 46 3b 1c 36 18 b9 f3 32 34 ba eb ed 19 3b
       0.0030258037 -0.00014516007 -0.0006874047 0.0023487757
000110 b1 71 22 3a f5 f9 04 3b 61 46 85 b7 a9 c8 cf ba
       0.0006196751 0.0020290588 -1.5887608e-05 -0.0015852648
000120 84 cd e6 ba 77 e3 a2 39 72 83 ff ba 8a 8d af ba
       -0.0017608856 0.00031068522 -0.001949413 -0.0013393622
000130 e6 a7 ba 3a 79 0a 77 b8 6e 97 a3 39 ef ee de ba
       0.0014240711 -5.8899142e-05 0.00031202607 -0.0017008464
000140 29 42 7e 3a de d3 1c ba ff 44 81 ba 05 58 ac ba
       0.00096991897 -0.00059824984 -0.0009862481 -0.001314879
000150 2b 39 71 ba bd 0d 72 ba c7 67 0a 3b c1 04 d3 ba
       -0.0009201939 -0.00092336145 0.0021118985 -0.0016099439
000160 65 d5 90 bb 20 0b 9a 3b 3d 4c ec 3a 4b 75 92 3a
       -0.00441997 0.0047010332 0.0018028092 0.0011173872
000170 00 71 04 3b 77 06 49 39 58 84 40 b8 db eb 82 3a
       0.0020208955 0.00019171262 -4.5899622e-05 0.0009988503
000180 1d bf 05 3b cf 85 03 3a 2b eb 71 b8 93 0d 46 3b
       0.0020408102 0.00050171925 -5.7677895e-05 0.0030220493
000190 f7 60 27 bb 1d 72 06 ba 61 12 4e 3b 46 91 8b ba
       -0.0025539973 -0.00051286985 0.003144406 -0.0010648153
0001a0 21 75 b4 ba bb f8 23 ba 87 1e 19 ba 6e 21 99 b9
       -0.0013767817 -0.000625502 -0.0005841036 -0.0002920734
0001b0 65 1b 00 bb 42 83 41 3b 6a 98 ea 3a 80 ba 7a 3b
       -0.0019547578 0.0029527699 0.0017898206 0.0038258135
0001c0 2a 28 58 ba 87 f4 90 ba 21 14 df 3a 9d b3 f4 b8
       -0.0008245731 -0.0011059203 0.0017019549 -0.00011668282
0001d0 ae 1b d1 3a 20 6d 4f bb c6 34 53 ba 12 3f 27 3a
       0.0015953684 -0.0031650737 -0.0008056875 0.00063799426
0001e0 ce 76 34 ba 04 ad ce 36 fb ec 14 bb ab 09 18 ba
       -0.00068841584 6.15942e-06 -0.002272426 -0.00057997805
0001f0 00 d7 84 ba 5a c9 92 ba 04 8a 41 bb 65 7b c2 b9
       -0.0010134876 -0.0011198923 -0.0029531727 -0.000370945
000200 bb 22 46 be df da 9c be dc a5 9b be a5 a2 9c be
       -0.19349186 -0.30635735 -0.30399978 -0.30592838
000210 e4 e0 9c 3e b2 9f 9b be e9 92 9b be e0 6e 9f be
       0.30640328 -0.30395275 -0.3038552 -0.31139278
000220 fb 32 9a be b0 21 8a bd a0 13 9b 3e 63 f1 9d 3e
       -0.3011702 -0.06744707 0.3028841 0.30848226
000230 2b 2b ab be 98 17 9e 3e 25 3d 6f be a7 e0 9f 3e
       -0.33431372 0.30877376 -0.23363169 0.31226084
000240 6d e5 9f be 58 ca 2f be 34 f3 32 3d 9a 45 9b be
       -0.31229725 -0.17167032 0.043688968 -0.3032654
000250 bd 25 9d be d0 11 83 3d 44 ac 9c be cc 4a 9b be
       -0.30692855 0.06399882 -0.30600178 -0.30330503
000260 02 0e 20 bd 01 bc 9d be 02 0b a7 3e 50 3a 9e 3e
       -0.03907586 -0.30807498 0.32625586 0.30903864
000270 7e 66 9e 3e 94 a2 9f be 78 5b 9b be ba 5e 8e bd
       0.3093757 -0.31178725 -0.30343223 -0.069516614
000280 f3 33 58 3b 8a 44 97 3c 30 dd cb 3c b8 c4 87 3c
       0.0032989949 0.0184653 0.024885744 0.016573295
000290 b5 62 98 bc ef e9 a4 3c b5 2b af 3c fc ee 37 be
       -0.018601755 0.02013108 0.021383146 -0.17962259
0002a0 f1 ae b3 3c 65 06 3d 3d b3 c8 9d bc 39 b1 8f bc
       0.021934005 0.046148676 -0.01926074 -0.017540561
0002b0 25 cb 7f 3b 44 0e 8a bc 7e 4a f6 bd 14 cc 8e bc
       0.0039030996 -0.016852506 -0.12025927 -0.017431296
0002c0 c8 56 06 be fe d2 84 bd ab a7 81 bc ea b2 a0 3c
       -0.13119042 -0.06485556 -0.01582702 0.019616563
0002d0 bf 0d d8 3c 75 8b 8d 3d 57 cc a5 3c 12 4f 94 3c
       0.026373742 0.06911365 0.020239038 0.01810411
0002e0 c5 7f 6d bd ab ea d5 3c 8b a8 23 3e 03 c1 92 bc
       -0.05798318 0.026112875 0.15982263 -0.0179143
0002f0 24 2f a6 bc 77 2f b4 3c 4a 8c 03 3d 08 91 93 bc
       -0.02028615 0.02199529 0.032116212 -0.018013492
000300 dd 67 49 bd a5 d2 af bc d8 80 b9 bc 1d e9 da bc
       -0.049171317 -0.021462748 -0.022644445 -0.026722485
000310 ad ab de 3c 5d 37 f9 bc b3 74 e7 bc 28 63 d1 bd
       0.02718147 -0.030421907 -0.028253889 -0.10223991
000320 46 ff 48 bc e0 d7 03 3c ed 8b ab 3c 09 30 fc 3c
       -0.012267893 0.008047074 0.020940745 0.030784624
000330 74 4f be bb ac d7 ad 3c 7c 13 75 bd 7d 84 01 bc
       -0.0058078114 0.021221004 -0.059833035 -0.007905123
000340 b6 08 47 be 61 73 a0 3a 6f e2 8b 3b 76 69 ba bc
       -0.19436917 0.0012241417 0.0042689363 -0.022755366
000350 0c e7 05 bd ce 6c f7 3c 72 b9 c2 bc ec 56 c4 bc
       -0.032691047 0.03020325 -0.023770068 -0.023967229
000360 b9 b4 68 bd 72 8e a0 bc ce 82 61 3d 34 dd da 3c
       -0.056812976 -0.019599173 0.055056386 0.026716806
000370 4f ca f5 3c e7 fb 80 bc 9a 2b 98 bc 6b 4c 9c bc
       0.030003695 -0.015745116 -0.018575478 -0.019079408
000380 d3 8a 86 bd fd 9b a3 bc 3f 58 b2 bc 00 cd 9d bc
       -0.06569447 -0.019971842 -0.021770595 -0.01926279
000390 5f 29 74 3c 77 c1 e2 bc 9f e0 af bc dd 51 0f be
       0.014902442 -0.027680142 -0.021469412 -0.13996072
0003a0 95 56 a5 bc c4 be 9d bd 06 9d 98 3c 46 c2 f2 3c
       -0.020182887 -0.07702401 0.018629562 0.029633652
0003b0 ed 99 c1 bb 43 9f dc 3c b9 05 c0 3c bd 07 65 3c
       -0.005908242 0.02693141 0.023440229 0.013978896
0003c0 0f 80 0a be 53 3d 4f 3d c4 ad 86 3d bb bd c9 bc
       -0.13525413 0.050595593 0.06576112 -0.024626603
0003d0 63 58 16 bc 62 a9 a3 3d c5 86 cd bc 83 09 11 bd
       -0.0091763465 0.079912916 -0.025088677 -0.03540946
0003e0 a9 aa 9c bd a7 1d 84 bc 39 d8 d3 3d 2e ef a8 3c
       -0.07649738 -0.01612742 0.103439756 0.020621862
0003f0 80 a3 a2 3c 5c ab c0 bc 29 80 c0 bc e6 a3 4c bd
       0.019853354 -0.02351921 -0.023498612 -0.049960993

policy_net.6.bias f4 [21]
000000 a2 26 84 3e 00 00 00 00 00 00 00 00 00 00 00 00
       0.25810724 0.0 0.0 0.0
000010 31 b6 9a 3e 2d 8e a9 bc 26 85 f1 3c be 39 d5 3c
       0.30217126 -0.020697678 0.029482435 0.02602851
000020 80 aa 96 bb 65 12 aa 3d ae 86 8b bb 21 52 8e bb
       -0.004597962 0.0830429 -0.0042579984 -0.0043432866
000030 45 f1 c1 3c f7 c1 ce 3d b9 a2 a5 3e ba 4a 0d 3a
       0.023674617 0.100955896 0.3235071 0.0005389858
000040 a2 61 05 bd fa 1b a3 3d 0b 5c 5e 3d 97 e4 dc bd
       -0.032563813 0.079643205 0.054286998 -0.107857876
000050 17 a6 14 bd
       -0.036291208

value_net.0.weight f4 [32, 460]
000000 6c 86 2c be 36 75 85 bd ec 6f 8b bc f7 93 d0 bd
       -0.16848153 -0.06516497 -0.017021142 -0.10184472
000010 48 c2 53 bd 93 a5 52 bb e9 5b ae bd b0 8b 70 3d
       -0.051698953 -0.0032142147 -0.08513624 0.058726966
000020 ec 4c 87 bc cf 6f 64 3d a2 d8 14 bc 94 5b da 3d
       -0.016516171 0.05577069 -0.009084852 0.106619984
000030 1b b6 aa 3c 8e db 1e bd a8 2e 20 3d a7 3e a2 bd
       0.020838788 -0.038783602 0.039106995 -0.07922106
000040 46 58 77 3d 28 e3 3e bd b3 dd 99 bd dc 34 f0 bd
       0.06038692 -0.04660335 -0.07512989 -0.11728832
000050 a2 0b 48 3c 44 61 9f bd ba 38 c7 bd 33 1f c6 bc
       0.012209805 -0.07782224 -0.097276166 -0.024184799
000060 98 d9 ba bc 17 43 07 bd 96 d9 70 3e 24 fa 0a 3e
       -0.022808835 -0.033022966 0.23520502 0.13571984
000070 04 7f 46 bd e5 30 6a be fc 11 4a bd d5 08 95 bd
       -0.048460975 -0.22870214 -0.049333557 -0.07277075
000080 b2 ec 08 be 40 8e da bb f1 a7 c8 bd 47 e1 8a 3d
       -0.13371542 -0.0066697896 -0.09797657 0.067812495
000090 21 75 1f bc 97 e7 10 bd e3 2f 68 bd e2 3c 49 3b
       -0.009732516 -0.03537711 -0.056686293 0.0030706455
0000a0 fb a7 26 bd a1 fe 47 3e 78 fc 05 3e 3a e5 cf 3d
       -0.040687542 0.19530727 0.1308459 0.10151143
0000b0 7b 27 ce bd 33 b7 73 bd 61 4c c1 3c 44 50 24 3d
       -0.10066124 -0.059500884 0.02359599 0.04011561
0000c0 ed 7f 13 be 40 1e e6 3d 18 88 54 3c 6a eb c1 bb
       -0.14404269 0.112362385 0.0129719 -0.005917956
0000d0 8c 9b ad 3d ff 8a cc 3d 8b 84 67 bc da cf 77 bd
       0.08476934 0.09987449 -0.014130722 -0.060500957
0000e0 7e 43 d8 3c 04 ee c4 bc 87 b2 9d bd bb 95 0b 3e
       0.02639937 -0.024039276 -0.07700067 0.13631336
0000f0 57 ce aa bd 09 a6 70 bd eb 1e 0a 3e 19 6d 75 3d
       -0.083401375 -0.058752093 0.13488357 0.059918497
000100 dd f9 98 bc 6f 4a 62 3d 5b 71 67 3d ec 81 57 bc
       -0.018673832 0.055246767 0.05650459 -0.013153534
000110 b3 03 24 bd 1f cb d8 bd ae 81 31 bd 9d 73 f8 bd
       -0.04004259 -0.10585617 -0.043336563 -0.121314265
000120 35 cb 61 bd 2b 14 09 be 07 8a 17 be 6a 96 2f bd
       -0.055125434 -0.133866 -0.14798747 -0.042868055
000130 a4 79 ad bd 50 e9 0d 3d 95 be 2b bd 03 62 f4 bd
       -0.08470467 0.034646332 -0.0419298 -0.11932757
000140 d7 ec 89 3d d9 a6 83 3c 12 8c 45 bd 68 31 1b 3b
       0.06734627 0.01607077 -0.048229285 0.0023680571
000150 ca 9f e1 3c 31 48 b2 bd b4 c9 8f bd 23 2c 30 bc
       0.027542014 -0.08705176 -0.07020894 -0.0107527105
000160 49 41 2a bc 2b 75 1e 3d 82 db ca bd d0 69 81 3d
       -0.010391542 0.03868596 -0.09905149 0.0631901
000170 da d2 d5 bc 7a 3c 5c be ba 7d ad 3c 96 3a 4e bc
       -0.026101518 -0.21507445 0.021178115 -0.01258721
000180 c5 b5 8e bd 7d a9 0e be 75 ed 95 3a b0 b4 b3 bb
       -0.069682635 -0.13931842 0.0011438566 -0.005484186
000190 59 0c 5c bd 88 11 2b be 6a b3 37 3d 25 88 ef ba
       -0.053722713 -0.16705906 0.044848837 -0.0018274827
0001a0 7a 54 9e 3d c9 71 95 bd 51 07 2a 3d 08 c8 3a 3c
       0.077309564 -0.072970934 0.041510884 0.01140023
0001b0 f8 e2 31 be f5 96 18 bd 68 8f 44 3c b3 42 4b 3d
       -0.17371738 -0.03725334 0.011997081 0.049624156
0001c0 14 a9 0a 3d a6 3c 4a 3e d4 85 59 3d 2b c0 31 3d
       0.03385265 0.19749698 0.053106144 0.043396156
0001d0 5f 05 53 bd f8 eb 0e 3c 47 06 ee bd 21 e3 8b bc
       -0.051518794 0.0087232515 -0.11622291 -0.017076077
0001e0 10 7a c3 bd b1 15 aa 3c d6 e0 54 bc bd 14 70 3d
       -0.09544766 0.020762296 -0.012993058 0.058613528
0001f0 16 49 7c 3d 38 71 27 3d 78 87 4a 3c 00 96 38 3c
       0.061593138 0.04087946 0.0123614 0.011266232
000200 a0 79 82 bc f7 9a 39 bd bd e4 85 3d ee 9f 7f 3d
       -0.015927136 -0.0453138 0.06537769 0.06240838
000210 bf b2 d5 3d 2f 13 ed 3d df 1b 6e bd c2 f3 66 bd
       0.10434484 0.115759246 -0.05813205 -0.05638481
000220 ff f6 3c 3d ab 63 8c bd 2d cf 2e be d5 b9 4d 3d
       0.04613399 -0.06854948 -0.17071219 0.05022605
000230 45 cf 9c bc df ec e4 bd 86 36 a8 3d 70 e1 b3 3d
       -0.019141803 -0.11177992 0.082135245 0.08783233
000240 02 7e 4d be 55 59 bb bc 82 9e fc bc cc e7 1c bd
       -0.200676 -0.022869745 -0.030837301 -0.038306996
000250 b8 28 90 bc fa a1 66 3e a8 b2 fd bd 93 72 3e bd
       -0.017597541 0.22522727 -0.123875916 -0.046495985
000260 33 56 0c bd b0 e0 8b bc d7 48 ac 3b 64 41 cf bc
       -0.034261893 -0.017074913 0.0052577066 -0.025299735
000270 58 56 b4 3d 63 1e 60 bd e0 a5 12 be 0c aa 36 3e
       0.08805531 -0.05471648 -0.14321089 0.17838305
000280 89 f3 00 bd 35 e1 be 3d f1 ef e9 3c fb 04 8a 3d
       -0.031482253 0.093202986 0.028556796 0.06739231
000290 65 55 4d bd 15 36 de bd 5a 91 86 3c d9 c7 8c bd
       -0.050130267 -0.10850159 0.01642673 -0.068740554
0002a0 69 2d da bd 5b 7d 86 bd ab a0 a7 3d 65 74 d3 bb
       -0.106531925 -0.065668784 0.08184942 -0.0064530843
0002b0 9e 76 de bc 08 a2 a2 3d 99 50 29 be fc f8 fb 3d
       -0.02715617 0.07941061 -0.16534652 0.123033494
0002c0 46 16 bb 3c 61 6e a3 bd 6a 78 44 3d eb 5f a6 3e
       0.02283777 -0.079800375 0.0479664 0.32495055
0002d0 e5 dc 0a 3c 30 30 91 3d 5d d9 7f 3d 2b a3 3a be
       0.008475517 0.07089269 0.062463153 -0.18226306
0002e0 c4 90 cf 3d fd e4 97 bd 95 a8 ac 3d 02 a2 11 3e
       0.10135034 -0.07416723 0.08430592 0.14221957
0002f0 00 b6 95 bc 0a 1c ca 3d 72 f3 af 3c b7 bf 1d 3d
       -0.01827526 0.09868629 0.021478388 0.03851291
000300 42 49 54 bd 2f be 92 bc 1e 0f 08 3e 24 90 77 bd
       -0.051827677 -0.017912952 0.13287017 -0.060440198
000310 90 82 89 bd 76 8d 4b be a6 c6 b7 bc a0 d7 2a 3d
       -0.06714356 -0.19878182 -0.02243359 0.041709542
000320 55 17 79 3d 9d de 10 3e 39 cc 55 3d 71 86 08 be
       0.060813267 0.1414742 0.052196715 -0.13332535
000330 3a 0b e9 3c 57 50 92 bc dc a9 a9 3c f4 92 8f bd
       0.028447736 -0.017860575 0.020710878 -0.07010451
000340 8b b8 a6 bd b3 68 55 3e 22 15 b3 3d 52 7d 0f bd
       -0.081406675 0.20840721 0.08744265 -0.035031624
000350 1c 04 e3 bd ac 86 04 bd b0 93 f9 3b 44 1f 72 3d
       -0.11084768 -0.032354996 0.0076164827 0.05911185
000360 56 fa b6 3d 40 44 c7 bd 87 a9 06 be 57 7d 74 3c
       0.089344665 -0.097298145 -0.13150607 0.0149224615
000370 b9 04 dc bc 5a 7e bd 3d d5 4f 16 be 9f 42 08 bd
       -0.02685772 0.09252615 -0.14678891 -0.03326666
000380 ae 30 3c bd 39 93 9b bd ec eb 85 3c 9a 83 61 bc
       -0.045944862 -0.0759644 0.016347848 -0.013764286
000390 12 62 81 bd 02 89 45 3e 10 25 2f 3b 37 dc 2d be
       -0.063175336 0.19290546 0.0026724972 -0.16978537
0003a0 96 78 c4 bc 44 6f 0f 3e 57 bb bd bd 7b 74 08 bd
       -0.023983281 0.14007288 -0.09264248 -0.03331421
0003b0 93 38 ba bd 4e e9 97 3b 8c b1 9e bb d1 7d 1d 3e
       -0.09092822 0.0046359664 -0.0048429426 0.15380026
0003c0 b3 cf ab bc 6f 4a 85 3d 0b 45 97 be 69 be 23 3a
       -0.020973062 0.06508338 -0.29544863 0.000624633
0003d0 a8 96 45 3e 81 55 76 3d 42 c9 0c 3c 75 81 89 3d
       0.19295752 0.060140137 0.0085929055 0.06714145
0003e0 a3 ed d0 bc a9 3a 41 be 13 bc 8c be 27 86 a8 3d
       -0.025503939 -0.18870033 -0.2748724 0.082287125
0003f0 c4 41 0d 3c 4f 3c 11 3e 34 6f d0 bd bb 2c 07 bb
       0.008621637 0.14183162 -0.1017746 -0.0020626027

value_net.0.bias f4 [32]
000000 c3 37 85 bc 8e d5 2e 3d 53 37 36 bd 81 bd 28 bd
       -0.01626194 0.04268413 -0.044486355 -0.04119635
000010 85 14 42 3d 79 38 a1 bc f5 d2 49 bd ce 12 89 3c
       0.04738285 -0.019680249 -0.04927345 0.0167326
000020 3d 39 84 3d 7f af a9 bb c0 a8 39 3d 41 17 0d 3d
       0.0645623 -0.0051783915 0.04532695 0.034446005
000030 03 f0 65 3d 97 62 5d 3d 35 6f 86 3c 4c 5a 09 bd
       0.056137096 0.0540491 0.01641045 -0.03353338
000040 37 39 27 3d 5b 6b 33 3d ef c1 ca 3c 09 37 56 bc
       0.04082605 0.043803554 0.024750678 -0.013074645
000050 05 e6 b8 3c 71 26 5c 3d 77 7d bc 3c cb 8f dd 3b
       0.02257062 0.053747598 0.023009045 0.006761526
000060 3a 47 3f 3d 84 c8 cf 3c de e3 25 bd 95 b3 4d bc
       0.046698786 0.025364168 -0.040500514 -0.012555023
000070 c4 5d 5a 3d 33 d8 68 bc 4a 7d 6a 3d 42 7b b4 3c
       0.053312078 -0.014211702 0.05724839 0.02203143

value_net.2.weight f4 [32, 32]
000000 ce a9 80 3e ee 42 c1 bc 52 72 3c bd f5 21 67 be
       0.2512955 -0.023591485 -0.04600746 -0.22571547
000010 b2 be d9 be 8b 40 23 3e 53 1a 20 bf c3 af 0b 3e
       -0.425283 0.1594259 -0.6254017 0.13641267
000020 34 2d c8 bd eb 50 68 3e 2e c2 23 3d fe 90 af bc
       -0.09774247 0.22687118 0.039980106 -0.021431442
000030 cc c3 60 3c 5f ff c2 3e ea d2 6f bd 32 71 1c be
       0.013718557 0.38085458 -0.058550753 -0.15277556
000040 b4 45 a1 3c 4f c0 da 3e 16 c0 21 3e de 2e a0 3e
       0.019686557 0.42724845 0.15795931 0.31285757
000050 70 ba 05 be 41 02 d5 bd 3f 75 88 bd 79 e4 d1 be
       -0.13059402 -0.104008205 -0.06662988 -0.40994623
000060 2f e5 30 be c2 f7 b3 3e 02 74 a8 bb 6c cb ca be
       -0.17274927 0.35149962 -0.0051407823 -0.39608324
000070 b5 26 84 3e cf ae f8 bc 6c 35 4c bc 5e f4 b4 3e
       0.2581078 -0.030356793 -0.012463909 0.35342687
000080 24 6a da be 2a e7 09 3f 83 9b db be 14 24 2e be
       -0.42659104 0.53868353 -0.42892084 -0.1700595
000090 bd 0a 5f 3c 77 f7 18 be 9e 5b 6f 3d 86 85 3d 3d
       0.0136134 -0.1493815 0.058436982 0.046269916
0000a0 4c dd 18 be cc 02 c5 3e a0 02 49 3d 44 8f a6 3c
       -0.14928168 0.38478696 0.04907477 0.020331986
0000b0 88 e7 dd 3e 46 ee e8 3d c9 0b 06 3e c5 33 bd 3e
       0.43340707 0.11373572 0.13090433 0.3695356
0000c0 d8 b5 25 3c 7d 61 64 3e 82 b7 c6 bd 7f dc a6 3e
       0.010114156 0.22302814 -0.0970297 0.325901
0000d0 e3 d4 10 bd c8 1a c0 3e 01 a5 42 bd 99 e7 06 bf
       -0.035359275 0.37520432 -0.04752064 -0.5269714
0000e0 66 2e 50 bd 49 8b b2 be e0 08 6e 3e f4 6d 01 bf
       -0.0508255 -0.3487189 0.23245573 -0.505584
0000f0 32 8e f5 bd f6 e3 a2 be f1 b1 2c be f0 27 12 3e
       -0.11990012 -0.31814545 -0.16864754 0.14273047
000100 04 77 05 be d0 63 f4 be 5b e6 cc 3e 82 00 0f be
       -0.13033682 -0.477324 0.40019497 -0.13965037
000110 08 c1 fb bd 4f 08 53 be bb 52 1a 3f dd 89 a5 3c
       -0.12292677 -0.20608638 0.60282487 0.02020734
000120 6b 64 95 bb c3 cf f0 be 89 e6 8f bd 01 e6 8d be
       -0.00455909 -0.4703351 -0.07026393 -0.27714542
000130 76 f7 f0 3d dd 82 e1 be 5e 96 00 3f ed 11 f6 be
       0.117659494 -0.44045153 0.5022944 -0.4806055
000140 d1 66 dd bd 3f ae 4f bc 9f 57 5d be 4a 07 88 3e
       -0.10810626 -0.012675821 -0.21615456 0.2656806
000150 b8 dc 36 bd 82 1e c8 bd b0 ce f1 3e 21 21 1d 3d
       -0.044644088 -0.09771444 0.47228003 0.038361672
000160 b2 86 c0 3e 78 c1 6c 3e 15 7e 93 3e 80 92 e6 bc
       0.37602764 0.23120677 0.2880713 -0.028146029
000170 4b 10 1d be de 84 5c 3e 2e 3e a9 bc a9 b0 92 be
       -0.15338247 0.2153506 -0.020659532 -0.28650406
000180 2a 91 8b be 3d 91 56 3e 2b 3b 2a be 4a d1 ef 3e
       -0.2725919 0.20953842 -0.16624133 0.46839362
000190 95 57 9b 3e 60 70 23 3f 2c 18 90 be 00 bd ab bc
       0.30340257 0.63843346 -0.28143442 -0.020964146
0001a0 e7 50 8a be 57 96 66 be ae 99 51 3d 34 0d 57 bd
       -0.2701485 -0.22518288 0.05117195 -0.052502826
0001b0 f3 47 66 3e 77 ec 3d be 3c e5 4b 3f d7 4f 3a 3d
       0.22488384 -0.18547235 0.7964666 0.045486297
0001c0 20 9a d1 be 13 e6 49 3e dc 07 c7 3e de 42 cd 3e
       -0.409379 0.19716673 0.38873184 0.40090078
0001d0 b7 d3 d7 bd f0 68 99 3e 0a aa 04 be 94 d2 f5 bc
       -0.10538428 0.29962873 -0.1295549 -0.030007638
0001e0 63 ff c8 be 6d a7 7e be b5 21 b9 be 83 ef 0d 3e
       -0.39257345 -0.24868555 -0.3615853 0.13860898
0001f0 41 5e 79 3e 48 ed 8b bd 11 7d c6 bd a0 f2 49 bd
       0.24352361 -0.06832367 -0.09691823 -0.04930365
000200 21 0f 93 be c5 b5 1d 3e d2 f1 ac be 9e e1 a2 3e
       -0.2872248 0.15401371 -0.33778244 0.31812757
000210 ef 94 62 3e 99 34 23 be 8c b6 20 bf 35 14 5b bd
       0.22127126 -0.15938033 -0.62778544 -0.053486068
000220 1f 10 e6 3e fc 2f 75 3e 38 4c a7 bd cb 4e f9 3e
       0.44934174 0.23944086 -0.081688344 0.48692927
000230 7f 9d 48 3e 2a 50 5d be 1d a3 49 3e 27 93 6e 3e
       0.1959133 -0.21612611 0.19691129 0.23298322
000240 d6 b2 90 3c 42 0b 9c 3d 1c 1d 77 3e 8c 10 d9 bd
       0.0176634 0.07619335 0.24132198 -0.10598859
000250 1f e3 8e 3e 68 67 33 be f2 b2 b4 be b6 3e e0 be
       0.27907655 -0.17519915 -0.35292774 -0.43797845
000260 05 ce 14 3e e0 b9 02 3f 5a 64 66 3e 24 11 3b be
       0.14531715 0.5106487 0.22499219 -0.18268257
000270 d9 f3 33 3e 41 01 7c 3e f9 d0 a3 be 6e 7e 49 be
       0.17573489 0.24609853 -0.3199537 -0.19677135
000280 43 50 05 3e fa 20 22 3e d3 9e e7 be f5 25 ef be
       0.13018899 0.15832892 -0.4523836 -0.46708646
000290 9d 55 38 3e d5 1f af be 45 24 77 bd 10 b9 20 3e
       0.18001409 -0.34203973 -0.060337324 0.15695596
0002a0 57 a4 0d 3f 8e fb 57 3e db a9 07 be 34 fe 76 be
       0.5532889 0.21092054 -0.13248388 -0.24120408
0002b0 4b 9f cd 3e 86 50 bb bd 71 ef f1 3e a9 fe 28 3b
       0.40160593 -0.09146218 0.47252992 0.0025786555
0002c0 8c d8 90 3d c6 6c 6b 3d 1f ef ff 3e 4f 50 76 be
       0.07072553 0.05747678 0.49987122 -0.24054073
0002d0 e5 c7 07 be 95 3a a2 3d b7 7e e9 bd 8b 2a 25 bd
       -0.13259847 0.0792133 -0.11401122 -0.040323775
0002e0 6e 26 10 bf 47 55 05 3e 4a 2f 25 bd e9 4c b1 3d
       -0.5630864 0.13020812 -0.0403283 0.086572476
0002f0 02 37 0c 3f f1 55 3a be 0a ba 1c 3e 1c 07 68 3e
       0.54771435 -0.18196847 0.15305343 0.22658962
000300 bd 77 80 be df 09 55 bf 6a b9 9d 3d 49 a3 8b bb
       -0.25091353 -0.8321819 0.077013806 -0.0042614085
000310 b1 f3 94 be 49 92 c4 3e 53 19 61 3e 9f dc e6 bc
       -0.29092172 0.38392857 0.21982317 -0.028181372
000320 a0 2c c0 3b 8a 51 aa 3c 5f 6b 3c 3e 43 f3 f6 be
       0.0058646947 0.020790834 0.18400334 -0.4823247
000330 0d 8d 00 be 90 36 b8 bd 6e 0d 9a be 07 0e 11 3e
       -0.12553807 -0.08994782 -0.3008837 0.14165507
000340 06 36 1a be ec ad 41 be 8a 49 d8 bd cc 2d ab be
       -0.15059671 -0.18914002 -0.105609015 -0.33433378
000350 05 0d b7 3d 35 83 9a 3d ed e8 71 be 2a 92 b7 3c
       0.0893803 0.07544557 -0.2362401 0.022408564
000360 14 81 13 bc 57 fd cc bd 25 ac a7 3d f9 52 d3 be
       -0.009002943 -0.10009258 0.08187131 -0.4127424
000370 41 9e bd 3d 80 fd 09 be 07 ff 4f 3e 40 69 bb be
       0.092587 -0.13475609 0.20312129 -0.36603737
000380 dd a3 69 bd 59 24 8c be 66 00 18 3f 58 d1 40 be
       -0.057041038 -0.2737148 0.5937561 -0.18829858
000390 f2 1a 90 3d e6 70 6f bd d6 b7 df 3d 59 26 2b be
       0.070363894 -0.058457278 0.10923736 -0.16713847
0003a0 84 0d 0a bd 15 fc a4 be 06 54 c0 3e d0 70 fa be
       -0.033704296 -0.32223573 0.37564105 -0.48914194
0003b0 7a 7f f0 bd 60 f2 8d be 08 7b 4a be c8 da 9c bd
       -0.11743064 -0.2772398 -0.19773495 -0.07658917
0003c0 35 9c 10 3e 6b 86 93 3e f0 60 b8 3e f6 a6 06 3e
       0.14122088 0.2881349 0.36011457 0.13149628
0003d0 16 23 1f 3f 8c 2b 81 3e e9 eb 94 3c 49 8b 56 3e
       0.6216291 0.25228536 0.018178897 0.2095157
0003e0 27 f4 28 be 58 09 d1 be 97 ec 55 3e a9 1a bb 3e
       -0.16499387 -0.4082744 0.20891033 0.36543778
0003f0 18 4a c7 be 4a ff 14 3e 54 b4 a4 be 3a 5f 71 be
       -0.38923717 0.1455051 -0.3216883 -0.23571482

value_net.2.bias f4 [32]
000000 7e 3e bc bd 1a c2 0c be a9 a6 08 3d 74 57 51 be
       -0.09191607 -0.13745919 0.033362065 -0.20443517
000010 e7 89 01 be 05 08 01 be 8a d6 11 3d 5a 10 f2 bc
       -0.12650262 -0.12600715 0.03560499 -0.029548813
000020 14 44 db 3d bd 67 88 bd fd 38 5b 3e c7 12 aa 3d
       0.10706344 -0.066604115 0.21408458 0.08304363
000030 95 7a 6c bc 65 45 b0 3d e8 32 14 3e 54 0f bf bd
       -0.014433523 0.08606986 0.14472544 -0.093290955
000040 59 66 0f bd b7 46 98 3d 9c 4e 1f be 11 f6 06 3d
       -0.035009716 0.07435363 -0.15557331 0.03294951
000050 8c 95 41 ba a8 e6 33 3e 94 de c4 3c a8 6f 94 bd
       -0.000738465 0.17568457 0.024031915 -0.07247859
000060 dd 4c 14 3c f5 0c d2 bd 22 b6 12 3e bf d3 78 be
       0.009051529 -0.102563776 0.1432729 -0.24299525
000070 95 ef 19 bb 37 38 d4 3d f8 24 83 be 33 f2 fb 3b
       -0.002348875 0.10362285 -0.25614142 0.0076887845
