MAPPO/Graph_H/save/SY_4_T1/agent_5_MAPPO_c.pt (torch, 127942 bytes, 15 tensors)

policy_net.0.weight f4 [32, 26]
000000 cc a0 c1 bc f6 b4 5f 3e da fc ae 3e 8e ba 62 3c
       -0.023636244 0.21846375 0.34177285 0.013838423
000010 0d bd b8 3e 9f 55 4c bd df 4d e9 3e 8c 82 18 3e
       0.36081734 -0.049886342 0.45567223 0.1489355
000020 62 92 09 3f 8b c3 38 be ed 75 c7 3b 1c 32 05 3a
       0.5373899 -0.18043344 0.006087056 0.0005081014
000030 a7 1f a4 3a 14 88 ab 3e 73 48 a0 3e 2d 69 ad bd
       0.001252164 0.33502257 0.31305274 -0.08467326
000040 83 f1 42 3e 7e c9 cb 3c 71 b6 8f 3d ae b9 93 3e
       0.19037442 0.024876352 0.0701722 0.288526
000050 c7 39 8a 3e 94 47 81 3e 71 b8 17 3e cd af 4d bd
       0.26997206 0.25249922 0.14816453 -0.050216485
000060 c9 02 cc bc 8e 95 8f be 5b c1 0a 3d a4 44 fc bd
       -0.024903672 -0.2804379 0.033875804 -0.1231778
000070 f7 4f 2d bf fc 51 2c bf fa 89 50 bd 73 88 b1 be
       -0.6770014 -0.673126 -0.050912835 -0.34674415
000080 d7 5d 85 bd ac f0 31 bd d2 f8 41 bd 0a 9e 7a be
       -0.06512039 -0.043442413 -0.047356434 -0.2447435
000090 95 a6 4c be 59 7e 1e 3e a4 35 8d be 49 c1 18 be
       -0.19985421 0.15477885 -0.27579987 -0.14917482
0000a0 e0 b6 f9 3c 7c 63 94 3d a2 b2 8a 3b d0 8e 4b be
       0.03048271 0.07245538 0.0042327205 -0.19878697
0000b0 74 d3 36 be bd ae 5e 3e a8 3b 2e 3e 14 48 c2 bd
       -0.178541 0.21746345 0.17014945 -0.09486404
0000c0 bc ed a0 3e de 6b 07 3f 8c 9a 08 3e c8 28 4c bd
       0.31431377 0.5289897 0.13340205 -0.04984358
0000d0 31 84 51 be 02 2b e5 be 6a 93 bb be e2 09 b1 3d
       -0.20460583 -0.44759375 -0.36635906 0.08644463
0000e0 12 cb 0d be 23 56 e1 3e 06 7c 80 3e 6f 18 9c 3d
       -0.13846996 0.4401103 0.25094622 0.07621848
0000f0 c9 a3 4d be dc 26 e7 3e c6 bd 84 3e 21 33 af bd
       -0.2008201 0.45146835 0.25926036 -0.08554674
000100 e9 cf 24 3e 64 78 cf be b9 a9 1c bc 21 95 35 be
       0.16094936 -0.40521538 -0.009561949 -0.1773267
000110 a6 7d 61 be 7c 35 28 3e 31 3a d7 bd 56 a5 98 3e
       -0.22020587 0.16426653 -0.10509146 0.2981364
000120 ab 28 b0 3e bb 79 ab 3e 77 cd 42 bd 8f c9 44 3d
       0.34406027 0.3349131 -0.047559228 0.048043784
000130 91 e5 6a bd 55 58 84 be 0a 7f 02 be fb 54 80 3e
       -0.057347838 -0.25848642 -0.12743774 0.25064835
000140 1e cc e5 3e 3e 1a 2c 3e 36 81 a8 bd 80 df 87 be
       0.44882292 0.16806886 -0.0822777 -0.26537704
000150 49 bf 88 bd 97 dc 9a be 3c b9 90 bc f2 33 28 3d
       -0.0667711 -0.30246422 -0.017666452 0.041065164
000160 9b c8 dc bd 73 00 56 3e 50 2d 1e be 94 80 d2 be
       -0.1078045 0.20898609 -0.15446973 -0.41113722
000170 80 67 b4 bd 62 7c ae 3e 87 dc b4 3e ea ef 3c 3f
       -0.088088036 0.34079272 0.353245 0.7380358
000180 b6 f5 27 bd b7 30 91 be 50 c5 51 3e 13 26 52 3d
       -0.041005813 -0.2835748 0.20485425 0.05130584
000190 52 b4 33 3e a0 f2 6f 3b 8f 78 4f 3e 3a 3c 12 3e
       0.17549255 0.0036613122 0.20260833 0.14280787
0001a0 06 17 32 3e 39 87 55 bd fe 81 b1 3e 11 b8 ee bc
       0.17391595 -0.05213091 0.3466949 -0.029140504
0001b0 05 e6 79 bc 1d b2 b9 3e 5c c0 c3 be 32 7d df be
       -0.015252595 0.36268702 -0.38232696 -0.43650204
0001c0 f3 bb 16 be c7 43 9d 3e 12 2b 36 bb d2 3b a7 3e
       -0.14720134 0.30715773 -0.0027796668 0.32662827
0001d0 76 f6 77 bd 94 da 89 3e d6 65 bd 3d 7f 9b fa 3e
       -0.060537778 0.26924574 0.09247939 0.4894676
0001e0 8d 62 cf 3d 1a 44 93 be 85 7d 2e be c2 fa 9c be
       0.10126219 -0.28762895 -0.1704007 -0.30660063
0001f0 35 fe b8 3d b3 eb a6 3e 2d 0d ea bd bc 70 29 3d
       0.09032861 0.326017 -0.11428294 0.041367278
000200 7c f0 85 be 74 08 21 bd a5 bb a3 be cf 17 d7 3c
       -0.26160038 -0.039314702 -0.319791 0.02625647
000210 6e 2f 98 be ce 30 c9 be 52 14 5e be 79 81 e1 bd
       -0.29723686 -0.39295048 -0.21687439 -0.11011023
000220 bc 41 55 bd e6 b0 31 bc 58 a6 f5 be 12 d9 99 bd
       -0.052064642 -0.0108453985 -0.47978473 -0.07512106
000230 59 92 d7 be a8 47 a7 be 3d c0 aa 3c 1b 96 0d 3e
       -0.42103842 -0.32671857 0.02084362 0.13826792
000240 89 1f ed be 9a ed 6e 3d 9b be f4 bd f5 99 1e be
       -0.46313122 0.058332063 -0.119504176 -0.15488417
000250 b3 b3 48 bd b7 97 55 3e 41 17 53 be 75 b5 b3 be
       -0.0489995 0.20858656 -0.2061434 -0.35099378
000260 97 82 2b be 59 83 d9 be 1d ec 1b 3e a9 9f ec 3d
       -0.16749035 -0.42483023 0.15226789 0.1155389
000270 eb 4b 00 bf 55 e7 80 3e 63 f3 4e be 97 d8 86 be
       -0.5011584 0.25176492 -0.20210032 -0.2633712
000280 8c 28 09 3e b6 49 79 3e 4b d9 37 3d ea 1e 9f be
       0.13394374 0.24344525 0.04488496 -0.31078273
000290 6c af 3e be bb da 68 be bc 48 8d bd 5c b4 5e bf
       -0.18621606 -0.22739689 -0.068986386 -0.86993957
0002a0 fb e3 2a be 58 19 3d 3d ed c0 9e 3e 22 c0 55 3e
       -0.1668853 0.046166748 0.31006566 0.20874074
0002b0 6d 27 2b 3e 50 53 d7 bd 19 69 1c 3e ba 7e b7 bd
       0.16714258 -0.105139375 0.15274467 -0.08959718
0002c0 67 6a 6a 3d 21 00 c4 3e fa 4b 3b be f5 a4 43 3e
       0.05723038 0.38281348 -0.18290702 0.19105895
0002d0 1a 1e f9 3b 03 74 f6 3d aa e7 ae 3e 03 a1 3c 3e
       0.0076024653 0.12033846 0.3416112 0.18420796
0002e0 6e 6a 6f 3e 38 ef ba 3e dd 70 6a 3c 7c 2d 03 bd
       0.23380443 0.36510634 0.014309135 -0.0320258
0002f0 ed 53 9c 3d 94 a3 c7 3d d9 36 b8 be 05 1e 50 be
       0.07633195 0.09747997 -0.35979345 -0.20323952
000300 5b 3a 8f be d5 a8 f6 3c be f1 1e be 61 cc 84 be
       -0.2797421 0.030109802 -0.15521905 -0.2593718
000310 cc 59 e5 be a4 a0 2d bd a1 c6 04 3e 9c 77 55 3d
       -0.44795072 -0.042389527 0.12966396 0.05211602
000320 d7 a6 db 3d e4 af 0f 3e 6a 66 1d 3e 26 18 9e 3e
       0.107251815 0.1403194 0.15371099 0.308778
000330 60 c0 c2 be 79 de 9d 3e 30 0d e3 be 1b 95 b9 be
       -0.38037395 0.30833796 -0.44346 -0.3624657
000340 1e 95 48 be 78 de 70 be 7e 3b 04 bd 90 18 c1 be
       -0.19588134 -0.23522365 -0.0322833 -0.37714052
000350 4d 0e ba 3e 0c fe 12 3f 80 01 6d 3d c8 5d 24 be
       0.36339036 0.57418895 0.05786276 -0.160514
000360 d8 49 91 3e 09 05 6b 3e 4b 01 77 bd 55 5f 7d bd
       0.2837665 0.2295114 -0.060303967 -0.061858494
000370 1e ba 17 bf 9a ed c3 3c 23 15 da be 73 1c 4d be
       -0.5926837 0.023917008 -0.4259425 -0.20030384
000380 c2 e9 80 be 7b 43 ce bd d8 e4 2e 3e 8b 07 f7 3b
       -0.25178343 -0.10071465 0.17079484 0.007538741
000390 c3 5a e6 be 84 7b 99 be 57 40 96 bd 1a 7b 2d bd
       -0.4499112 -0.29977047 -0.073364906 -0.042353727
0003a0 7e 6f ea 3d a6 62 50 3d 6b ef 91 be 4a fd 76 be
       0.11447047 0.05087533 -0.28502974 -0.2412006
0003b0 18 d8 7d 3d 68 d5 d3 be 5c 73 2d bc c4 57 96 bd
       0.06197366 -0.41373754 -0.010586586 -0.07340959
0003c0 d2 28 d2 3e bc 54 e4 bc cc 7c 84 be 98 89 b1 be
       0.41046768 -0.027872436 -0.25876462 -0.34675288
0003d0 4b 46 fd bd 29 e5 b6 3e c6 f1 b2 bd de 77 8e bd
       -0.12366923 0.3572171 -0.08737521 -0.069564566
0003e0 41 7a 14 3e 82 d0 3d 3d c7 b4 e2 be d9 a0 ae bd
       0.14499761 0.046341427 -0.44278547 -0.08526773
0003f0 28 b9 c5 3e 05 a1 df be 0b fa 77 bc 0b 4b b9 bd
       0.38617826 -0.43677536 -0.0151352985 -0.090475164

policy_net.0.bias f4 [32]
000000 62 6b b5 3d 97 be 96 bd 15 f5 1c bc 13 16 9a 3d
       0.08858372 -0.07360571 -0.0095799165 0.075237416
000010 db 1c dd 3d d5 d2 d1 bd c6 30 c8 bd 8b 97 d2 3d
       0.10796519 -0.10245291 -0.09774928 0.10282811
000020 75 52 db bd 8d e1 00 be 02 d5 ca 3d 04 77 db 3d
       -0.10709087 -0.12586041 0.09903909 0.1071606
000030 21 62 5e bd e2 08 a4 3d 2a 67 bf 3d 7b da b1 3d
       -0.0542928 0.08009507 0.09345849 0.0868425
000040 4b 32 cb 3d 7a 68 7d bb ed 06 45 3d ec 25 1e 3d
       0.09921702 -0.003866701 0.048102308 0.038610384
000050 84 cd 0c 3d 55 72 d3 3b 5b 76 c2 3d a8 39 96 bd
       0.034375682 0.0064528384 0.09495231 -0.07335216
000060 5d 88 d4 bd 16 e6 93 bd c1 75 ef bd c2 9b b9 3d
       -0.10377572 -0.0722162 -0.11692382 0.090629116
000070 4a 3e d0 3d e8 16 d5 bd 78 57 ce 3d 18 fa a9 bd
       0.10168131 -0.1040476 0.10075277 -0.08299655

policy_net.2.weight f4 [32, 32]
000000 e0 5e e4 be 1e c1 e8 3d 58 3c 6e be 04 c6 d2 bd
       -0.44603634 0.11364959 -0.23265207 -0.10291675
000010 05 51 85 3d 89 ca 3e bd e2 d1 b7 be 8c 0b 0c bd
       0.06509594 -0.04657987 -0.35902315 -0.0341907
000020 bf c2 a4 be 15 6e 57 bd 23 ee ba 3e 12 72 4d 3e
       -0.3217983 -0.052595217 0.3650981 0.20063046
000030 5b 37 f0 b9 41 7d 37 be bb dc 8b 3d 29 82 ef 3e
       -0.0004581761 -0.17918874 0.0682921 0.46778992
000040 80 2b ba bd 96 ea 8a be d1 e8 b3 3e dc 07 c2 be
       -0.09090328 -0.271321 0.35138562 -0.3789662
000050 59 01 d9 3c bd 3f 89 3e f1 c3 a3 3e eb ef 56 be
       0.0264899 0.2680644 0.3198543 -0.20989959
000060 3d b8 ab 3e a6 ed 04 be cd 8c ac be 70 e9 68 3e
       0.33539 -0.1298128 -0.33701172 0.227453
000070 49 39 6c 3e 7c 41 60 be 25 68 f9 3e 44 97 35 bd
       0.23068728 -0.2189998 0.48712268 -0.04433371
000080 6f 34 a0 3e ec c1 44 be 80 44 a3 3d b0 ff c4 3e
       0.31290004 -0.192146 0.0797205 0.38476324
000090 4a 06 58 3e 15 a7 b7 be a4 71 46 be dc fc 8c 3e
       0.21096149 -0.3586966 -0.19379288 0.27536666
0000a0 24 a9 03 3d f0 c4 85 be 67 47 3b 3d 0f 18 13 3e
       0.032143727 -0.26126814 0.04572239 0.14364646
0000b0 7d 53 f0 3e 81 cd 09 3e 6e c6 a8 3d 29 67 2c 3f
       0.46938697 0.134573 0.082409725 0.6734491
0000c0 1c 57 c8 3e 2e ba 8f 3d 23 ac b2 3d df a5 06 be
       0.3912896 0.07017933 0.08724239 -0.13149212
0000d0 1e 8b 2e 3e 7a f5 06 bf 92 31 2a 3b 4f c7 60 bc
       0.17045256 -0.5271832 0.0025969488 -0.013719394
0000e0 f4 5a 64 3e 92 8e c4 bd 4d dc e0 bd 79 36 29 be
       0.22300321 -0.09597506 -0.10979519 -0.16524686
0000f0 0f d6 b9 be 3e ca d8 3d 14 ca cf 3e 15 0e 75 be
       -0.36296126 0.1058545 0.4058386 -0.23931153
000100 c0 2e 7a 3e c4 3a ab bd 0a 63 7b be 11 79 27 3d
       0.24431896 -0.08360818 -0.24549499 0.040886942
000110 f1 ed 6c be bd b4 36 bf 40 75 0b be 68 e1 85 3e
       -0.23137642 -0.71369535 -0.13618946 0.26148534
000120 64 0f 56 be aa 9e 2a 3d 1d fb 77 3e 58 6b 14 3f
       -0.20904309 0.04165522 0.24216886 0.57976294
000130 f3 e7 0b be 72 9d 73 bc 53 05 17 be 6e 00 33 3e
       -0.136627 -0.014869081 -0.14748125 0.17480633
000140 c9 d5 20 3d 49 56 1c be 50 99 b7 3e 79 a6 29 3e
       0.03926638 -0.1526729 0.35859156 0.1656741
000150 10 24 02 3f 4b 02 34 3e 4c 86 82 be e4 a6 8e bb
       0.50836277 0.17579 -0.25493085 -0.004353391
000160 7c 1e 91 be 38 52 84 be 26 e9 0d 3e c7 e4 28 be
       -0.2834357 -0.25843978 0.1385847 -0.16493522
000170 c2 7e db bd a4 24 ed be 24 a7 b4 bd 4d fa 8f 3e
       -0.107175365 -0.46317017 -0.08820942 0.28120652
000180 83 98 f1 3e 17 8f 1f bd 21 b3 16 3c 17 a1 09 3f
       0.4718667 -0.03895482 0.009197981 0.5376143
000190 57 bc 5a bd 52 dc 8e 3e 7c 7e b5 be b0 61 d6 3e
       -0.05340227 0.27902466 -0.35448062 0.41871405
0001a0 23 dd 73 bc 82 fb e2 bc 4c ee ec 3e 54 aa 5d 3d
       -0.014884266 -0.027707819 0.46275556 0.054117516
0001b0 7c 85 a8 3e d1 9b 23 be 6e 38 64 3e c4 a2 c2 3c
       0.3291434 -0.15977408 0.22287151 0.023759253
0001c0 ad d8 c2 3d d4 4d c9 be 9e c4 3d 3e b5 1a 1f 3e
       0.09513984 -0.3931719 0.18532035 0.15537532
0001d0 94 e5 0e 3e 7b 14 3b 3e 36 cd 75 3c 24 e0 f2 be
       0.13954765 0.18269531 0.015002539 -0.4743663
0001e0 c6 9f e4 be ca 0f ae 3d ab ab 28 be 21 7b 0f be
       -0.44653147 0.08499105 -0.16471736 -0.14011814
0001f0 a1 dd 02 3f e5 dd 73 3e 7d 0a a2 3d 3f 0a b0 3a
       0.5111943 0.23815115 0.07912157 0.0013430788
000200 80 cc 5e be ed 53 cf be 0b 8f 2e 3e f4 03 46 3e
       -0.21757698 -0.40493718 0.17046754 0.19337445
000210 a9 ec bc bc 0b 85 84 3d d6 83 05 be 08 b3 d7 3d
       -0.023062067 0.064706884 -0.13038573 0.105321944
000220 77 8f 85 be 71 84 c3 3e 32 cc 73 3c b1 e2 b3 be
       -0.26086017 0.38186982 0.014880227 -0.3513389
000230 71 a8 05 bd db d8 ca 3e 10 0e 9a be a6 02 85 be
       -0.03263134 0.39618573 -0.30088854 -0.25978583
000240 eb 4a ba be b7 6c 05 be c3 15 74 bd 81 c8 68 3d
       -0.36385283 -0.13029753 -0.059591066 0.05683184
000250 09 6b c8 be 66 9f d8 3e 7d e3 3f be 67 87 73 3d
       -0.3914416 0.4230911 -0.18739124 0.0594553
000260 41 fb f3 3e 43 e8 95 3d bb c1 02 3e ca d0 d6 be
       0.4765263 0.07319691 0.12769215 -0.41956168
000270 a1 d3 f8 be fc 0a 98 3e 32 68 c4 3d 18 c6 9e 3e
       -0.4859896 0.2969588 0.09590186 0.3101051
000280 77 90 e5 bd fa 53 ab be a7 c1 e1 3d b4 64 0e be
       -0.11209195 -0.33462507 0.110232644 -0.13905603
000290 2f 28 77 be aa f3 e7 bd 44 4b 74 be 05 ab d8 3e
       -0.24136423 -0.11325772 -0.23856837 0.42317978
0002a0 87 82 3e be 96 0f 0b bf 17 75 0f 3e f1 77 b6 bb
       -0.1860448 -0.5432066 0.1400951 -0.0055684973
0002b0 42 a9 7f 3e 1e 02 5a be a5 a7 06 3f ae c8 96 3e
       0.2496691 -0.2128987 0.52599555 0.2944998
0002c0 a8 bc 61 3e 0e cd a4 be ec 35 04 be b0 70 89 3e
       0.22044623 -0.32187694 -0.12911195 0.26843786
0002d0 00 3c d7 be 4a 96 9f bc 38 5a 76 bd 9b b3 76 3e
       -0.42037964 -0.019480843 -0.060144633 0.24091952
0002e0 6c f6 3b be f6 01 f8 be 1d 5c 56 be d7 17 ea 3d
       -0.18355721 -0.48438996 -0.20933576 0.11430328
0002f0 ec bf 96 bb c0 d1 30 be de bc 9f be 3b d5 00 3e
       -0.0046005156 -0.17267513 -0.31198782 0.12581341
000300 f1 95 87 3e e7 67 be 3d e7 1e fb bd 59 b9 0b 3e
       0.26481584 0.092971615 -0.122617535 0.13644923
000310 b5 e0 4b bd f5 d2 00 bf 16 57 0b bf b8 49 fd be
       -0.049774844 -0.50321895 -0.5442976 -0.49470305
000320 7d 8a 83 3e 43 8f b8 bd 56 31 74 bb 0e 8d 5a 3c
       0.25691596 -0.090117 -0.0037260852 0.013339294
000330 81 8f 6e 3c 81 b2 c4 bb 00 e4 0e 3f 74 9e 9c be
       0.014560581 -0.0060027246 0.5581665 -0.3058964
000340 e0 60 63 3e 9e 79 1a be d1 5d ce 3d c4 1c 8e 3e
       0.22204924 -0.15085456 0.10076488 0.2775632
000350 7c 32 bf 3c 04 1c b4 3d fb 12 de 3e ee 8d 6b bb
       0.023339503 0.08794406 0.43373856 -0.003594275
000360 2e 00 bb bb c9 ff 0e 3e 6d 51 03 bf 6e 50 89 be
       -0.0057068085 0.13964762 -0.5129612 -0.26819175
000370 27 e5 63 be 84 28 32 be 54 5b db 3d fb 5f 01 3c
       -0.22255383 -0.17398268 0.10710779 0.007896419
000380 f2 82 e0 3d 69 7b 43 3f e7 db e9 bd 5c a2 4c be
       0.10962476 0.76360184 -0.11418896 -0.1998381
000390 bd b4 d4 bc bb 43 f5 3e 47 25 40 3b 39 89 7b 3e
       -0.025965089 0.47903237 0.0029319094 0.24564065
0003a0 bc 25 cd be 7a 3b 63 bd 87 d9 96 be 5e e4 c0 3d
       -0.40067852 -0.055476643 -0.29462835 0.094185576
0003b0 26 e3 48 3e a7 13 02 bd 4d 04 6d be 26 c7 d1 bb
       0.196179 -0.031757023 -0.23146172 -0.006401914
0003c0 d4 ad 9a be f5 d0 28 3e a5 8e d0 3c e8 51 c0 3e
       -0.30210745 0.16485961 0.025458643 0.3756249
0003d0 c4 ef 5e bd a2 b6 8e bd 9c fe a0 3e bc 1a 9b 3d
       -0.054427877 -0.06968428 0.31444252 0.075734586
0003e0 89 65 bd 3e 72 b9 ee 3d 45 a8 b8 bd dd fd a6 be
       0.36991528 0.11656465 -0.0901647 -0.32615557
0003f0 8a d6 89 be 72 78 79 bd a9 ba 9b be 54 0d c3 3d
       -0.26921493 -0.06090588 -0.30415848 0.095240265

policy_net.2.bias f4 [32]
000000 aa a5 a6 3d 33 01 8e 3d db 6e 7d 3d 34 a0 90 3d
       0.08137067 0.069338225 0.0618733 0.07061806
000010 08 f6 af bd c0 91 d2 3d a5 ca af 3d 97 d9 bb bd
       -0.085918486 0.10281706 0.08583573 -0.09172361
000020 83 2b cb bd 1b 1b 58 3d 07 71 97 bd d6 30 0d bd
       -0.099204086 0.052760225 -0.07394605 -0.0344704
000030 b0 e2 74 3d 6c d2 99 3d b5 8f e0 bd 74 75 bc 3d
       0.0597865 0.07510838 -0.1096491 0.0920209
000040 ce 0a c2 3d f6 b8 a7 3d 9a 2b ad bd 5e 28 97 bd
       0.09474717 0.081895754 -0.08455582 -0.07380746
000050 93 fe 97 bd e0 d0 bb bd e1 f1 99 bd fd 34 c2 bd
       -0.07421603 -0.09170699 -0.07516838 -0.09482763
000060 f6 13 96 3d 04 3b 8b 3d a1 d1 9e 3d b9 8c c4 bd
       0.07328026 0.06798366 0.07754827 -0.09597153
000070 6a 2e ad bd 4d 0d c8 3d 33 0e 91 3d ef dc 9d 3d
       -0.084561184 0.09768162 0.070827864 0.07708155

policy_net.4.weight f4 [32, 32]
000000 6b b7 da bd f2 97 3b 3f 44 fe 5c 3e f8 3a 05 3e
       -0.106795155 0.73278725 0.2158137 0.13010776
000010 fc eb 4d be 60 a4 1a 3e 83 c5 64 3e 1f e8 8e be
       -0.20109552 0.15101767 0.2234097 -0.2791147
000020 3b 8a d9 bd 10 5f 88 3e 79 e9 2c bc b3 f0 6e be
       -0.106220685 0.26635027 -0.010553711 -0.23334007
000030 0b 37 2a 3f 51 b1 fe 3d a5 13 7f 3e 57 0a 56 be
       0.6649024 0.12436164 0.24909838 -0.20902382
000040 b2 97 94 be 62 8c 24 3f 7d d7 7f bc b0 f3 72 be
       -0.29021984 0.6427671 -0.015615341 -0.23725772
000050 cf f2 6f bd c0 0a 21 bd 6c fc 9b be e8 2f a1 be
       -0.05858117 -0.039316893 -0.3046602 -0.31481862
000060 b3 97 d7 3e 39 b5 41 be 7c 90 b0 3e ef 18 61 3e
       0.42107925 -0.18916787 0.34485233 0.21982168
000070 1f 01 97 be ef ed ed 3d 61 42 c0 bd 6a 06 43 3e
       -0.29493043 0.11617648 -0.09387661 0.19045416
000080 59 29 14 bb b4 3a ce 3e 59 38 23 be 74 01 c1 3e
       -0.0022607653 0.40279162 -0.15939464 0.3769642
000090 e7 23 bc bd 93 36 3c be 90 11 80 3d 30 d0 1f bf
       -0.09186535 -0.18380193 0.0625335 -0.62427044
0000a0 3e 2b d1 be fb 30 6e be 01 c9 71 3e 5d 2a a7 bc
       -0.40853304 -0.23260872 0.23611833 -0.020405943
0000b0 d9 ee 67 3e 8f 1f 28 be 29 2c 93 be 3e 1c dd 3e
       0.22649707 -0.16418289 -0.2874463 0.4318561
0000c0 75 08 6f 3e a4 bd b3 bd c9 dc f5 bd ed c3 e8 3d
       0.2334307 -0.087764055 -0.12005002 0.11365495
0000d0 a2 98 00 be 66 d8 0e 3d e2 18 1d bf e7 2e 2a be
       -0.12558225 0.034874342 -0.61366093 -0.16619454
0000e0 94 46 37 3e ad 87 05 3f 99 3e 85 3e de bb 18 3e
       0.17898017 0.5216015 0.2602432 0.14915416
0000f0 bf f4 b1 be ae 0e f9 3e 07 fe a6 3e a4 b4 ba bd
       -0.3475704 0.48644012 0.32615682 -0.09116486
000100 85 2f c8 3e bb 8e b9 3d 4c 02 42 be 7a e3 6f be
       0.39098755 0.09060427 -0.18946189 -0.23426619
000110 01 9c e4 3e 57 1c a8 3d 6f a4 20 be 53 40 29 be
       0.44650272 0.082085304 -0.15687726 -0.16528444
000120 7b de 08 3f aa 20 9c be 95 1c bf 3d 12 1c fe bd
       0.5346448 -0.3049367 0.093316235 -0.12407698
000130 d7 da f2 be 5f 25 4e be e2 28 06 3e 4f c0 86 bd
       -0.47432587 -0.20131443 0.13101533 -0.06579649
000140 01 98 76 be de ed 76 be 50 fe 44 3e eb 91 26 3e
       -0.24081422 -0.24114177 0.19237638 0.16266601
000150 16 62 c0 3e b7 d3 a1 3d 1c 4f 4f 3e d8 13 b7 3e
       0.37574834 0.079017095 0.20245022 0.35757327
000160 5c 77 54 3d 5a 14 e9 be 1c 46 4d 3d c2 6b e2 3e
       0.051871642 -0.4552334 0.05011569 0.44222838
000170 3f e7 49 bd e4 1d 1e bf 78 94 fe 3e 38 9e 59 be
       -0.0492928 -0.6176436 0.49722648 -0.21251762
000180 8c cc cf bd e6 d2 c9 bd eb 38 e7 3d 32 50 51 bd
       -0.10146436 -0.09854679 0.11290153 -0.05110187
000190 49 d9 ca be 4c 74 9a be cf 51 2b be fb 0f df 3e
       -0.396189 -0.30166852 -0.16730426 0.4356688
0001a0 98 c8 f4 3e 6e 81 7d be cf b9 dd bd 2e 43 9f bd
       0.4780929 -0.24756405 -0.10826456 -0.077764854
0001b0 f0 a4 92 be 44 34 6b be bf 2a 20 bd e4 fb c0 be
       -0.28641462 -0.22969157 -0.039103266 -0.37692177
0001c0 af c6 cb bd ca e7 72 be 1d 2b 18 3d b6 4e 70 3f
       -0.09950005 -0.23721233 0.03715049 0.93870103
0001d0 78 ae 2d 3e 03 44 53 3e 87 c7 18 be 46 79 62 3e
       0.16961086 0.20631413 -0.14919864 0.22116575
0001e0 3f 0f 42 bd 1c d4 f4 3c 0e a8 6b 3d ba 9b 60 3e
       -0.04737782 0.029886298 0.057533316 0.21934405
0001f0 c8 3a bc bc e9 5b 04 bf 5e e5 ee be 43 6d 2e be
       -0.022977248 -0.51702744 -0.46659368 -0.17033868
000200 93 91 80 be c9 93 04 3f 49 7f 7b 3e 15 75 f2 3e
       -0.25111064 0.51788 0.24560274 0.47354952
000210 57 30 29 be 8f 20 3a 3f 2f 2d d6 be f2 0c 5a 3e
       -0.16522346 0.7270593 -0.41831347 0.21294
000220 d4 38 05 3d 45 c7 91 bc 81 21 2e 3d 2a 1d 10 bf
       0.0325249 -0.017795214 0.04251242 -0.562945
000230 8b f8 eb bd c6 31 5b 3e 5a 52 7a bd 9c 9d 0a 3f
       -0.11522015 0.21405706 -0.061113693 0.5414674
000240 ff 3c 78 3d c8 35 c0 3d 84 0b fa 3d 0c 52 41 be
       0.060605045 0.09385258 0.12209228 -0.18878955
000250 fd 56 a4 be 18 c1 5d be b9 da 52 be 55 d4 87 be
       -0.32097617 -0.2165569 -0.20591249 -0.26529184
000260 d9 3d 9b 3e dd 41 97 3e 09 9a 9e 3b 3b 16 b2 be
       0.30320624 0.29542437 0.0048401398 -0.34782586
000270 b0 cd 06 be 6f b3 2b 3e df 98 37 3e ed 00 39 3e
       -0.13164401 0.16767667 0.1792941 0.1806676
000280 1e 75 aa be 02 90 48 3d 29 44 85 be 89 3a e6 be
       -0.33292478 0.04896546 -0.26028565 -0.44966534
000290 05 bd ae bd 8e f2 0a bf 5d 25 ed be b5 86 92 3e
       -0.08532146 -0.5427636 -0.46317568 0.28618398
0002a0 b0 97 bd 3d 6f 5a 48 be 37 fe b1 bd 2e 58 3f 3d
       0.09257448 -0.19565748 -0.08691066 0.046714954
0002b0 68 74 98 be f7 8f 8c be 6b 8f f7 3e 01 cb 8e bd
       -0.2977631 -0.27453586 0.48351607 -0.06972314
0002c0 0a da eb 3d 96 d2 05 3f 45 97 f5 3c 4b 12 c9 3c
       0.11516197 0.52274454 0.029979357 0.024544856
0002d0 61 a1 e2 3d 79 c8 aa 3e 28 a3 c2 3e 0c ef cc 3e
       0.11065937 0.33356073 0.38015103 0.40026128
0002e0 4f 53 37 be d4 9c 63 3e 24 68 e7 be 67 68 ac 3e
       -0.17902873 0.22227794 -0.4519664 0.33673403
0002f0 5d 62 27 3e 98 3e 48 be b4 a2 a9 3e 94 20 e4 bd
       0.16346116 -0.19555128 0.33131945 -0.11139026
000300 82 fe b0 be f3 f7 54 be de fa 83 3e 76 3a 94 be
       -0.34569174 -0.2079771 0.25777334 -0.28950852
000310 db db 31 3f 63 01 67 be b3 f3 85 be 4b bf fe 3d
       0.694761 -0.22559123 -0.2616249 0.1243883
000320 b5 84 44 3e ff 46 6b be 5a 72 5f 3e b0 19 3c 3f
       0.19191249 -0.22976302 0.21820965 0.73476696
000330 03 06 e5 bd d0 c3 53 3d c5 1f c5 3d 70 92 b7 3d
       -0.11182787 0.051700413 0.096252 0.089634776
000340 76 c5 26 bf bc 44 49 bd 95 2d 95 3e 32 30 9f 3e
       -0.6514505 -0.049137816 0.2913634 0.31091458
000350 a0 d1 9b bc de f1 23 3e 19 43 9f bd 2b f1 a1 3e
       -0.019020855 0.16010234 -0.0777647 0.3162931
000360 dd 21 59 bc c5 cd 8a 3c 9f ac e0 bd 4e c0 de bd
       -0.013252703 0.016943822 -0.10970425 -0.10876523
000370 79 79 8a 3e 07 ff be be 5e 1e 5d bd db 5d e3 3d
       0.270458 -0.37303945 -0.05398404 0.11101886
000380 3f bf 21 3e 02 4d 60 be 1b 35 22 bd fc 19 92 be
       0.15795611 -0.21904376 -0.039601427 -0.2853545
000390 8d d2 f4 3b 1c 14 78 3b ee 4a cb be 49 f2 80 3e
       0.0074713887 0.0037853783 -0.39705604 0.2518485
0003a0 81 a6 f4 3e e4 89 f6 bd b7 8f 93 3e e4 93 f6 3e
       0.47783282 -0.12038019 0.28820583 0.48159707
0003b0 b0 84 c0 3e 3e 24 c2 be 0d 42 f0 3e ae d4 b5 bd
       0.37601233 -0.37918276 0.46925393 -0.08878456
0003c0 13 67 24 bc ae 2b 7a be 44 94 88 3e 25 1e ae 3d
       -0.01003434 -0.24430725 0.26675618 0.08501843
0003d0 46 a9 2e 3e f9 57 b4 be 27 47 87 3e 71 dd 4c be
       0.1705676 -0.35223368 0.26421472 -0.20006348
0003e0 63 54 b7 bd f4 bf 7d 3e bb f9 ed bd af 6e 19 3e
       -0.08951642 0.24780256 -0.11619898 0.14983629
0003f0 f6 f3 7e 3e 11 7a b3 be fe 0e c7 bd 8d fc 4f bf
       0.24897751 -0.35054067 -0.097196564 -0.81244737

policy_net.4.bias f4 [32]
000000 26 97 04 3e 92 7f 0a 3e af b5 dc bd 6f d4 bb bd
       0.12948284 0.13525227 -0.10776841 -0.09171378
000010 6c a1 de 3d ef 34 d1 bd 33 63 9f bd 0b f4 e7 bd
       0.108706325 -0.102151744 -0.077825926 -0.113258444
000020 de ca f6 bd 56 a2 ed 3d e6 13 c6 bd 3c 54 ca bd
       -0.120504126 0.11603229 -0.09671764 -0.09879348
000030 e9 6c ec 3d ce 0f 05 be c6 c6 d4 3d 0b 73 cb bd
       0.115442105 -0.1299431 0.103894755 -0.09934052
000040 42 e9 e9 bd 48 8e 9f 3d e4 d7 db 3d 30 68 db bd
       -0.114214435 0.0779081 0.10734537 -0.107132316
000050 59 1a b9 bd 23 a8 b7 3d 22 2b c0 bd fb 3b a8 bd
       -0.090382285 0.089676164 -0.09383227 -0.08214565
000060 7f e3 d0 3d c9 82 a4 bd f9 36 02 be 12 88 f8 bd
       0.101996414 -0.08032758 -0.12716283 -0.12135328
000070 63 3b 15 be 8d 01 e4 bd a7 76 d9 bd b9 42 ee 3d
       -0.14573435 -0.11133108 -0.10618334 0.1163382

policy_net.6.weight f4 [21, 32]
000000 75 d3 af 3e 65 37 b0 3e fe 8e b3 be 0e ef b3 be
       0.34341016 0.34417263 -0.35070032 -0.35143322
000010 8a 0a af 3e 32 a6 b5 be 3b 04 b3 be 52 23 b7 be
       0.34187728 -0.3547836 -0.34964165 -0.35769135
000020 e3 b2 b4 be ff 2d b1 3e a6 32 b1 be f4 01 b1 be
       -0.3529273 0.34605405 -0.34608954 -0.34571803
000030 a6 84 b5 3e 67 41 b2 be f7 7e b6 3e f9 8c b4 be
       0.35452765 -0.34815523 0.3564374 -0.35263804
000040 fe 42 b8 be 70 4c af 3e b5 99 af 3e c0 24 b4 be
       -0.3598861 0.34238005 0.34296957 -0.35184288
000050 3f 78 b1 be 72 fe ac 3e f1 9d b4 be 40 42 b1 be
       -0.34662053 0.33787876 -0.3527675 -0.34620857
000060 23 cd b1 3e 28 54 b2 be 21 80 b4 be 2b 95 b1 be
       0.3472682 -0.3482983 -0.35254005 -0.3468412
000070 6b 6a b3 be 40 d7 af be cf 4f b4 be 3a a4 b1 3e
       -0.35042128 -0.3434391 -0.3521714 0.34695607
000080 a4 0a 35 ba c8 54 9a 3a 3b 62 f1 3a a1 c7 40 bb
       -0.00069061876 0.0011774534 0.0018416116 -0.0029415863
000090 58 63 b6 ba ef d5 72 3a 5f ff 92 3a 95 4b e0 3a
       -0.0013915105 0.0009263446 0.0011215023 0.0017112369
0000a0 82 6e 0f 3a 19 4c 2d b9 2f 82 ac 3a 84 bd a3 ba
       0.0005471484 -0.00016526914 0.0013161356 -0.0012492393
0000b0 2e 20 38 ba a1 84 dc b9 65 8b e8 ba 0f 8c 3d 3b
       -0.0007023838 -0.00042060486 -0.0017741738 0.0028922593
0000c0 93 8b 66 39 33 c2 5b b8 52 05 51 3b 90 eb 43 3a
       0.00021986505 -5.239453e-05 0.003189404 0.0007473761
0000d0 32 ed 16 3a 30 d2 86 b9 90 19 be 3a d4 c4 48 3b
       0.0005757391 -0.00025715074 0.0014503468 0.0030634897
0000e0 9c e5 39 ba 5b ac b2 bb 34 4c 04 bb c7 3f df 39
       -0.00070914044 -0.0054526753 -0.0020187022 0.00042581392
0000f0 f5 b4 ec ba f7 31 95 ba ef 4d ec 39 9a 85 9a 3a
       -0.00180593 -0.0011382689 0.00045071493 0.0011789084
000100 74 44 f4 ba 2f a8 a1 3a 84 aa 0a 3b 97 0d c0 3a
       -0.0018636123 0.0012333448 0.0021158764 0.0014652488
000110 0b 2a 04 ba 70 34 93 bb 4c 05 15 3b 81 5a ca b7
       -0.0005041665 -0.004492335 0.0022738753 -2.412242e-05
000120 81 25 ae ba 37 a6 d8 3a 0c aa ea 3a e2 cb d5 3a
       -0.0013286324 0.0016529028 0.0017903461 0.0016311372
000130 75 69 fc ba 6e 31 31 3a e6 cd 6f bb 1c 21 4f ba
       -0.0019257503 0.000675938 -0.003659123 -0.0007901357
000140 05 b7 49 ba 19 6f f4 39 4e 54 d5 ba 27 8c 8f bb
       -0.00076948135 0.0004662208 -0.0016275735 -0.004380721
000150 d7 bd 07 3b 33 2b 6f 3a 21 4e 2b 3a ca 45 ab ba
       0.0020712519 0.00091235637 0.00065347744 -0.0013067063
000160 63 66 92 ba c2 ef 35 ba 6e 54 4c 3a 31 cd 1d ba
       -0.001116943 -0.0006940329 0.00077945634 -0.00060196506
000170 20 94 9e ba 26 0f 4e 38 45 16 cf b9 0d af a0 38
       -0.0012098588 4.9128335e-05 -0.0003949871 7.662e-05
000180 5d c9 4a bb 4e b6 cd ba 95 70 34 39 f3 ba e0 b9
       -0.0030942776 -0.001569459 0.00017208078 -0.00042863897
000190 97 f0 91 ba 97 eb cb ba db 72 4b 3b 69 1e 56 b9
       -0.0011134323 -0.0015557882 0.00310438 -0.00020419959
0001a0 4d 74 b2 ba 8e a3 a3 ba 86 d9 c1 3a d8 33 45 b9
       -0.0013614983 -0.0012484656 0.0014789558 -0.00018806697
0001b0 c2 3b 5b 3b 86 c7 2f b8 52 ae 83 3a 02 1e 89 b8
       0.0033452366 -4.1909072e-05 0.0010046458 -6.5382585e-05
0001c0 44 c5 09 3b 27 c3 59 3b 25 09 ae 3a e0 c8 8a 3a
       0.002102212 0.0033227892 0.0013277872 0.001058843
0001d0 5d 81 cb ba 7b c4 07 3b dc 67 8a 39 a2 39 76 ba
       -0.0015526224 0.0020716477 0.00026398792 -0.0009392743
0001e0 d3 60 5f 3b ad 05 c1 b9 c9 6e 0d 3a 95 58 ed b9
       0.0034084811 -0.00036816057 0.00053952314 -0.0004527016
0001f0 2b 78 92 3a ce d2 2c bb e4 e8 33 bb 0b 9b d2 ba
       0.0011174729 -0.0026370767 -0.0027452046 -0.0016067935
000200 b7 bd 5c bb 0c 23 f1 b9 1f 41 8d 38 a7 f2 1a 3b
       -0.0033682415 -0.00045993214 6.735534e-05 0.0023643167
000210 a1 5c af ba 25 c0 a2 39 1c d2 cb b9 e9 2b 15 ba
       -0.0013379046 0.00031042207 -0.0003887572 -0.0005690442
000220 79 8e 50 3b 9b 83 74 ba a1 38 0d 3a 1d bc 59 39
       0.0031823202 -0.0009327472 0.00053871615 0.0002076481
000230 1e 91 91 ba e1 2b 49 37 ea d2 46 3b 0b 6d 1c 3a
       -0.001110587 1.199075e-05 0.0030338117 0.00059671764
000240 a6 d0 5c 3a 31 5c 8e bb a5 85 c6 ba 2f 08 02 bb
       0.0008423425 -0.004344486 -0.001514603 -0.0019841304
000250 fb 84 1c bb 06 ed 6c 3b 50 ef d0 b9 90 57 21 3b
       -0.0023882973 0.003615202 -0.00039851153 0.0024618842
000260 9d 34 39 3a 04 9e 4e ba d8 5b f6 39 26 38 f2 ba
       0.000706503 -0.00078818225 0.00046989205 -0.0018479868
000270 fb 04 b5 ba 94 64 ce b9 d9 5b b9 39 bc 04 4d 3a
       -0.0013810688 -0.00039366318 0.00035354382 0.0007820835
000280 7e 0c ed 3a 75 a5 d7 ba 66 b0 14 ba ec 08 1e 3a
       0.0018085388 -0.0016452508 -0.00056720374 0.0006028551
000290 87 bc 84 3a 5c 24 fa b9 bf 90 93 38 a9 56 1d 3a
       0.0010126986 -0.00047710806 7.036467e-05 0.0006001988
0002a0 a0 eb 67 3b 3b 7e 4e 3a 3e 36 5e b8 27 00 3a 3b
       0.0035388246 0.0007877086 -5.297944e-05 0.0028381438
0002b0 da be 19 3a 9b a1 6b ba 42 21 0b bb c6 58 61 3b
       0.0005864926 -0.00089886197 -0.002122954 0.0034385188
0002c0 c9 f6 7c 3a 44 96 26 3a ae 23 c6 39 00 7e d3 38
       0.0009649811 0.0006354789 0.00037792086 0.000100847334
0002d0 0c e5 04 3b 98 df 09 3b f3 16 fb ba bc e0 9d 38
       0.0020278124 0.0021037813 -0.001915662 7.5282034e-05
0002e0 44 ac 84 3b d0 70 37 ba 92 69 e2 3a 96 7e 20 3b
       0.004048856 -0.00069977064 0.0017273894 0.0024489514
0002f0 fb 85 e0 38 73 ba 61 3b 84 6c 30 ba ed 09 8c 3a
       0.00010706108 0.0034443408 -0.0006730037 0.001068411
000300 d5 ef 47 3c 7c aa 6e 3c 3c 64 79 bc b5 ed 4a bc
       0.0122031765 0.014567014 -0.015221652 -0.012385775
000310 17 b0 4a 3c ce de 56 bc 81 af 59 bc a3 56 0b bc
       0.012371085 -0.013114644 -0.013286472 -0.0085045425
000320 46 82 41 bc da 03 75 3c 7a cd 41 bc 46 d5 6a bc
       -0.011810845 0.014954532 -0.011828775 -0.014333075
000330 17 54 5b 3c 96 3c 6f bc 64 8a 81 3c 7d 4e 69 bc
       0.013386748 -0.014601847 0.01581306 -0.0142399045
000340 c0 81 75 bc 04 8a 80 3c 6a e9 19 3c b8 3a 47 bc
       -0.014984548 0.015690811 0.009394029 -0.012159996
000350 9c bc 46 bc 98 45 5e 3c 94 84 20 bc f0 9a 51 bc
       -0.012129929 0.013566397 -0.009797234 -0.012793288
000360 95 47 5e 3c 94 f4 5e bc a7 5e 43 bc d2 e8 27 bc
       0.013566871 -0.013608117 -0.011924422 -0.01024838
000370 cc f1 6e bc e4 cb 54 bc 60 7e 51 bc 14 ce 66 3c
       -0.014584016 -0.012988064 -0.012786478 0.014087219
000380 49 7f 96 3e 94 b9 95 3e c3 5a 95 be 3e 72 96 be
       0.29393986 0.29243147 -0.29170808 -0.29384035
000390 9f de 93 3e 1c 71 95 be 98 6a 95 be 3d 4a 95 be
       0.28880784 -0.29187858 -0.29182887 -0.29158202
0003a0 c4 35 97 be 0b 26 95 3e a5 14 96 be ff 77 96 be
       -0.29533207 0.29130587 -0.29312626 -0.29388425
0003b0 58 62 94 3e fc 6e 96 be f7 b6 95 3e 46 f8 95 be
       0.2898128 -0.2938155 0.29241154 -0.2929098
0003c0 fc b6 97 be 80 58 94 3e 4b fb 94 3e c2 ea 95 be
       -0.29631793 0.2897377 0.2909797 -0.29280668
0003d0 3f 1e 95 be 69 fa 96 3e 5b b4 96 be b8 58 95 be
       -0.29124638 0.29487923 -0.29434475 -0.2916925
0003e0 6b 02 96 3e 22 b6 96 be 99 ac 94 be 65 f0 95 be
       0.2929872 -0.2943583 -0.29037932 -0.2928497
0003f0 c6 1d 96 be 62 26 94 be 16 59 96 be 06 e5 93 3e
       -0.2931959 -0.28935534 -0.29364842 0.2888567

policy_net.6.bias f4 [21]
000000 b6 c2 ae 3e 00 00 00 00 00 00 00 00 00 00 00 00
       0.34132928 0.0 0.0 0.0
000010 00 00 00 00 00 00 00 00 58 82 54 3c 72 ca 94 3e
       0.0 0.0 0.0129705295 0.29060704
000020 44 ff 09 3f b1 0b b6 3d 9f 64 62 bd 6f 2d aa bd
       0.5390513 0.08888949 -0.05527174 -0.08309447
000030 a6 77 71 bd 26 2c 83 bd dc 5e dc bc c6 64 cd bc
       -0.058951996 -0.06404905 -0.026900701 -0.025072467
000040 4c 91 1f 3c 3a 7c 93 3d 9d 13 e3 bc 0d 3f ce bc
       0.009739231 0.07201429 -0.027719313 -0.02517655
000050 41 fb 84 bd
       -0.064932354

value_net.0.weight f4 [32, 770]
000000 97 3f 6d ba c2 12 e8 bd 8f 81 fd bd e1 2e 16 3d
       -0.0009050308 -0.11331703 -0.12378227 0.0366658
000010 db a6 7b 3d 55 0b 30 3d ce 85 22 bc 8d 4f 0f 3d
       0.061438423 0.042979557 -0.009919597 0.034987975
000020 20 d7 4b 3d 09 d6 c7 3c 9b d5 cb bd 10 39 9e 3d
       0.049765706 0.024394052 -0.099528514 0.077257276
000030 4a d7 ed bd fb 54 d2 b9 70 c5 98 3c f3 cc 98 bb
       -0.11613329 -0.00040117637 0.018648833 -0.0046631037
000040 cb 6d 7c 3d 89 68 72 3c 2e 92 94 bd 9d 66 89 3b
       0.061628144 0.014795431 -0.07254444 0.0041931407
000050 16 34 d4 bd b5 46 83 3d 08 f8 86 bd 87 86 ac bd
       -0.10361497 0.06409971 -0.06590277 -0.084240966
000060 4c 45 92 3d 79 f3 0a be 7f e4 ee bc cd e5 9e bc
       0.071421236 -0.1356944 -0.02916169 -0.019396687
000070 e4 de 0d 3d f8 c8 01 3e 5f 55 ff 3b 83 90 93 3c
       0.034636393 0.1267432 0.0077921594 0.018013244
000080 65 1d 84 bd a3 c7 82 3d e1 f7 6e 3d 54 61 9e 3d
       -0.06450919 0.06385734 0.058341864 0.077334076
000090 d7 14 a1 3d 19 37 76 3a 51 f7 b2 3d 6a 9d 93 bc
       0.07865303 0.00093923655 0.08738578 -0.018019397
0000a0 3d 64 11 3d 5f 47 67 bd e3 1c 0e bd 41 b4 3f 3c
       0.035495985 -0.05646455 -0.034695517 0.011700691
0000b0 b3 f4 32 be f5 d8 ac bd 10 d1 df 3d 30 a6 95 3d
       -0.17476158 -0.08439819 0.109285474 0.073070884
0000c0 a8 81 72 bd d5 26 97 3b 00 7c 4a 3d a7 0c 12 be
       -0.05920568 0.0046127834 0.049434662 -0.14262639
0000d0 35 95 e7 bd ff 81 c5 bc 2f 4b 64 bc 79 90 d2 3b
       -0.11307756 -0.024109839 -0.013933941 0.006425914
0000e0 69 b2 ec 3c 82 43 ba 3d 6d 85 8d 3d 55 4e 0e bd
       0.028893666 0.09094907 0.069102146 -0.034742672
0000f0 e4 29 e7 3c 9d 8f 25 bc 9e 54 5e bc e0 3b 20 be
       0.028218217 -0.010105041 -0.013569979 -0.1564784
000100 08 65 53 bc b8 02 2f bd de 0d ca 3a ea cc a3 3d
       -0.012902506 -0.042727202 0.001541551 0.07998069
000110 74 e4 04 bd e7 00 b3 bd c8 d6 05 3d 86 55 8c 3d
       -0.032444432 -0.087404065 0.032675534 0.0685225
000120 e9 c6 b7 bd 66 5c 16 bd 4e 50 ef bc 54 2a 8b bd
       -0.08973486 -0.03670921 -0.029213097 -0.06795183
000130 6c 5f 4c 3d be d9 5a 3c 5f c9 6a 3c 58 f9 68 3c
       0.04989569 0.013357578 0.014330237 0.014219604
000140 e3 97 f9 bc fd c7 60 3b d7 99 eb bd 63 c0 15 bd
       -0.030467933 0.003429889 -0.11503952 -0.036560427
000150 27 d4 53 3c 61 30 92 bc 6d ed cc 3c c2 f8 6b bd
       0.012928999 -0.017845334 0.025015557 -0.05761028
000160 e9 2d 0a 3d f7 f0 28 bc 1c ed c7 3c 02 99 b0 bd
       0.03373519 -0.010311357 0.024405055 -0.08622934
000170 6c 7f 78 bd 5a 71 16 bd fe 16 bc bd 76 85 9a 3d
       -0.060668394 -0.036729194 -0.09184073 0.07544987
000180 1d 70 95 3c 73 ed 80 3c c7 e3 68 3d 2f 11 6c bc
       0.018241936 0.015738225 0.05685785 -0.014408394
000190 2c 44 06 bd b7 01 87 bd 61 72 b2 3d b6 19 05 bd
       -0.032779858 -0.06592124 0.08713222 -0.032495223
0001a0 27 0d 16 be b7 41 a1 bc c4 96 f6 3d 89 18 1b 3c
       -0.14653455 -0.019684656 0.12040475 0.009466299
0001b0 46 4f 77 3d f4 de 87 3d 6d cf 00 3d 74 94 72 bd
       0.060378335 0.06634322 0.031447817 -0.059223607
0001c0 cf a3 18 3c de 93 2c bb 01 c2 c8 3c f0 3f 4b bc
       0.009316399 -0.0026333253 0.02450657 -0.012405381
0001d0 26 5f b4 bc f2 04 94 bc 07 8d 99 bd b3 c1 81 bd
       -0.022018027 -0.018068764 -0.07497602 -0.06335773
0001e0 8e 9e 97 bd 89 fe cc 3d 9a aa da bc 5a 69 7e 3d
       -0.07403289 0.10009486 -0.026692677 0.06211219
0001f0 b3 b1 4a be 24 bb 26 bd 49 b9 94 bd 69 bb 1a 3d
       -0.1979435 -0.040705815 -0.07261903 0.037776385
000200 31 10 64 3e 80 80 39 3d 37 74 30 bb 16 f7 5b bd
       0.22271802 0.045288563 -0.0026924738 -0.053702436
000210 9c 8d 01 3e 7a ff be bd 71 34 e2 3d 23 62 03 bc
       0.12651676 -0.09326072 0.11045159 -0.008019003
000220 84 24 69 3d af 37 09 3e e9 5d 1f 3c 37 75 92 bd
       0.05691959 0.13400148 0.00972698 -0.07151263
000230 fb 59 87 3b 14 99 6c bd 82 b7 dd 3d 81 1b 42 bd
       0.0041305996 -0.057763174 0.10826017 -0.04738951
000240 f5 ab 6b be 66 89 ef bc d5 d8 0e 3d af 80 80 3a
       -0.23014815 -0.029240321 0.034874756 0.0009803976
000250 86 33 8d bd f5 0c 95 bd 8a 88 ab bd 21 06 c0 bd
       -0.06894593 -0.07277862 -0.08375652 -0.09376169
000260 f7 82 57 3d ba 67 2a 3e ae e9 ac 3d 3c 4d cf 3c
       0.052615132 0.16641131 0.08443008 0.025305383
000270 a7 56 92 3b 64 eb 45 bb 69 fd f6 3c 68 ee 3e 3d
       0.004465896 -0.0030200118 0.030150132 0.04661408
000280 ef 17 54 3c 56 dc 51 3c 23 4e 74 3d 05 76 40 bc
       0.012945159 0.01280888 0.05964483 -0.011746888
000290 5a 02 8d bd e3 11 c4 bc 31 90 c3 bd 98 89 a6 bd
       -0.06885214 -0.02393431 -0.09548987 -0.08131713
0002a0 97 e8 ac bc 23 d6 98 3c 93 4c 10 be 83 cf 56 3d
       -0.021107001 0.018656796 -0.14091711 0.052443992
0002b0 52 4a 60 3d 6c 5d da 3b e3 fb 65 3d f7 d2 07 be
       0.054758377 0.006663969 0.05614842 -0.1326407
0002c0 25 64 f0 bc 54 78 98 bd ba ec b7 3d 49 fa 67 3d
       -0.029344628 -0.07444826 0.08980699 0.056635175
0002d0 13 13 f6 bc d0 bc b3 bc a0 21 0d bc 0d 4b 2e bc
       -0.030038392 -0.021940619 -0.008613974 -0.010638011
0002e0 0e a4 a2 bd 3c 8d 67 3d 06 1c 80 3d 43 e1 24 bc
       -0.07941447 0.056531176 0.06255345 -0.010063472
0002f0 d0 e9 1f 3d 7f 08 3a 3d 60 2f 55 3d e3 46 0e bd
       0.03904134 0.04541826 0.052047133 -0.03473557
000300 6b b0 46 bb c7 a5 73 3d 06 a8 24 bd c0 2b af 3d
       -0.0030317556 0.05948427 -0.040199302 0.085532665
000310 42 64 2d bd 5a ca aa bd a5 dd a5 bd 60 b2 93 3d
       -0.04233194 -0.08339377 -0.08098916 0.07211757
000320 b5 ab bd bd b3 70 eb bc da f0 ba bd 2f 2b 88 bd
       -0.09261266 -0.028740263 -0.0912797 -0.066488616
000330 a9 b5 34 3d e5 ce 25 bd 01 8f bb bb d6 27 e0 3c
       0.044118557 -0.040480513 -0.0057238345 0.027362745
000340 c7 10 c4 bc c6 8e 97 3d 5b db 02 bc 9c 84 83 bd
       -0.023933781 0.07400279 -0.007986869 -0.064217776
000350 71 fb 3f 3b d3 43 b6 3d a1 a1 cb 3d d2 bd 0c 3e
       0.0029294158 0.08899655 0.09942938 0.13744286
000360 6c 56 a5 bd b6 28 05 be 47 3a 8a 3c ac 1a 7d bd
       -0.08073124 -0.13003811 0.016873492 -0.061793014
000370 05 04 95 3b eb 3f ea 3c ed 54 72 3c dd 69 25 bd
       0.0045475983 0.028594932 0.014790756 -0.040384162
000380 4d fc 8c bd 8f c7 a5 bd 79 1c bd bd eb 23 46 bd
       -0.0688406 -0.080947034 -0.09233946 -0.048374098
000390 b6 3f f2 3c af c1 e4 3b 64 2f 1e 3b 16 81 ef 3b
       0.029571395 0.0069810967 0.0024137134 0.0073090894
0003a0 cc 3e c6 bd 6e 32 ae bc 8b 67 fb 3b 00 f0 0d 3c
       -0.09679946 -0.021264281 0.0076722554 0.0086631775
0003b0 b3 73 fa bc 0e c1 26 bd 25 ec 18 3d 98 05 87 bc
       -0.030572748 -0.040711455 0.03733458 -0.01648216
0003c0 60 1e 01 3a 72 c9 0f be 37 97 0b 3d 35 c1 c4 ba
       0.00049254857 -0.14041689 0.034079757 -0.0015011193
0003d0 c1 c9 4a bc a3 c3 c1 bc ae 1b 80 bc f7 7a 20 bd
       -0.012377203 -0.023652857 -0.015638199 -0.03917977
0003e0 d7 00 fc bc 74 dc 99 3d 51 c4 05 3c 55 3e d2 bd
       -0.03076212 0.07512751 0.008164481 -0.10265795
0003f0 a2 67 e5 bd da 55 1a bb e1 82 b2 3d 5b b5 6d bd
       -0.11201407 -0.0023549707 0.087163694 -0.058034282

value_net.0.bias f4 [32]
000000 98 13 75 bd 8a 41 45 bd 0a 00 af bc e6 df e6 bc
       -0.05983314 -0.048158206 -0.021362323 -0.028182935
000010 6a cf 0a bd 75 ec ef bc 03 23 49 bc 8d 43 ab bb
       -0.03388921 -0.029287556 -0.012276414 -0.0052265585
000020 f2 0d 73 3b 1f 19 6c bc 64 f3 32 3d 35 ac 5d 3d
       0.003708717 -0.014410286 0.043689147 0.054119308
000030 3f 73 89 bc 93 cd 58 3c fa 98 26 3d 71 34 00 3d
       -0.016778586 0.013232606 0.040673234 0.031300012
000040 a1 a9 2d bd 7d c9 1d bd d2 10 d3 bb fe 72 51 bd
       -0.0423981 -0.038522232 -0.006441214 -0.051135056
000050 e3 66 a8 bb 20 ad b2 bc 76 6f ae bc 59 c9 76 3d
       -0.005139218 -0.021811068 -0.021293383 0.060250614
000060 88 7f 0b bc cf 41 18 bd d1 d7 10 3c c5 85 08 3d
       -0.008514293 -0.037172135 0.008840517 0.033330698
000070 aa 23 36 3d 1a 7b 54 3d 30 52 4a 3d d5 fe 25 3d
       0.044467606 0.05187521 0.049394786 0.04052623

value_net.2.weight f4 [32, 32]
000000 23 93 84 3e 3c 46 1f bf 4c d8 35 bc d0 c2 28 be
       0.25893506 -0.62216544 -0.0110989325 -0.16480565
000010 90 b1 97 bd 52 f9 02 be ec ff e6 be 07 f0 56 be
       -0.07406914 -0.1279042 -0.45117128 -0.2099
000020 1d b6 b0 bb 88 a9 3b 3f 03 80 e6 3d b0 f9 b3 3d
       -0.0053928033 0.7330556 0.11254885 0.087878585
000030 53 5b 03 3e 37 15 54 3e bb df 13 bd 0b ac df bd
       0.12827806 0.20711218 -0.036102038 -0.109214865
000040 f5 99 aa 3d 56 00 09 3e e7 a3 84 3e 2c 86 11 be
       0.08330146 0.13379034 0.25906298 -0.14211339
000050 a2 67 cd be a7 b3 86 bd 35 b0 a1 3e 4a c2 d2 3d
       -0.40118128 -0.06577235 0.31579748 0.10290964
000060 62 19 9a be 68 dc 49 3f 9d 59 4c 3e da 08 11 be
       -0.3009749 0.7885194 0.1995606 -0.14163533
000070 22 a4 7c bd 41 ba 46 be 48 93 5c 3d 95 99 82 bd
       -0.061679967 -0.19406988 0.053851396 -0.0637695
000080 18 73 e0 3d 06 33 9a 3d ad 9b 88 3d d7 e6 08 bd
       0.109594524 0.07529263 0.06670318 -0.03342327
000090 90 5c c2 3e cd 45 2b 3e f5 3a 67 be 00 c3 bf be
       0.37961245 0.16725846 -0.22581084 -0.3745346
0000a0 46 a4 40 be ab 95 f6 bc 6f 69 04 3f 2f 01 40 be
       -0.18812665 -0.030100664 0.5172338 -0.18750452
0000b0 d1 23 07 3f ee de cc be db 44 96 be 89 21 8c 3d
       0.52789026 -0.40013832 -0.29349408 0.06842334
0000c0 88 64 93 3c d8 0b 09 be 75 82 2a 3e f1 42 5f be
       0.017992273 -0.13383424 0.16651328 -0.2180288
0000d0 b1 00 2e bd 30 b1 95 be 95 5b 3a 3e d6 f7 31 3e
       -0.042481128 -0.29236746 0.18198998 0.17379698
0000e0 b7 f7 41 3f fb a5 ad 3d 52 8c a5 be 07 97 8a 3d
       0.7576861 0.08478924 -0.32333618 0.067670874
0000f0 14 69 e4 be b5 e1 68 bd c9 56 28 3e 0d 63 ff 3e
       -0.44611418 -0.056855876 0.16439356 0.49880257
000100 8f 07 e4 bd d9 0f 7a be 18 47 f6 bd c5 91 84 3e
       -0.11134254 -0.24420108 -0.12025279 0.25892463
000110 05 76 a5 3b 86 77 5f be 1c c4 5c 3e 48 c7 5a 3e
       0.0050494694 -0.21822938 0.21559185 0.21365082
000120 85 49 0a be 2e 56 95 bd 19 61 ef 3e fa 83 f2 bc
       -0.13504608 -0.07291828 0.46753767 -0.029603947
000130 91 2f 60 be 60 64 03 3e 26 d6 56 be 5b 2e 0f 3e
       -0.21893145 0.12831259 -0.20980129 0.13982527
000140 1f a1 41 3f 0b 20 03 3e 2c 57 c7 3e 3b 00 d2 3e
       0.75636476 0.12805192 0.38933694 0.410158
000150 6f 47 bc 3e 12 e7 30 bd b7 ff a0 be 22 75 71 be
       0.3677325 -0.043189116 -0.31445095 -0.23579839
000160 24 11 ff be 82 7e 27 be 11 f3 42 3e 9b ab f7 3d
       -0.49817765 -0.16356853 0.19038035 0.12093278
000170 24 a8 e1 be 6b e1 d2 bd e9 78 75 3e b3 44 5f be
       -0.44073594 -0.10296901 0.23971905 -0.2180355
000180 67 5b da be 4a e6 1b be 05 ed 4b bc 3a 2f 9a 3d
       -0.4264786 -0.15224567 -0.012446647 0.07528539
000190 c3 7a ea 3e af 00 d2 bd 58 37 9e be 66 ff 18 bf
       0.45796785 -0.10254037 -0.309016 -0.5976471
0001a0 8a 96 c8 be df 9f 3d be 10 eb 32 bc 55 9c 10 bf
       -0.39177352 -0.18518017 -0.010920301 -0.56488544
0001b0 d8 8b 60 3d 47 c7 de 3e ab b9 22 3e d2 96 fb be
       0.054820865 0.43511412 0.15891139 -0.49138504
0001c0 02 67 27 bf df 2d 3e be 80 9d 2a bd fb fe 28 3d
       -0.6539155 -0.18572186 -0.04165411 0.041258793
0001d0 c7 ca 5a be 88 68 bf bd d3 8b f0 3d 9a cf 4a 3d
       -0.21366416 -0.0934611 0.11745419 0.04951439
0001e0 41 b2 05 bd fc 20 2b be 8d 7c c4 3c 3c 45 07 3f
       -0.0326407 -0.16711801 0.023985172 0.5284002
0001f0 d5 14 8a 3d bd 2c 5a be 13 d8 a0 bd 94 b8 11 3e
       0.06742255 -0.21306129 -0.07853713 0.14230567
000200 9c 96 e0 bd 45 7f 13 bf f1 d3 aa be 9a 8a 8b 3e
       -0.109662265 -0.5761607 -0.33364823 0.27254182
000210 b6 4d 5c bd 69 ec 15 3e 44 6a 7d bd 05 a5 46 be
       -0.05378505 0.14640965 -0.06186892 -0.19398887
000220 bf a2 9b bd 8e 65 9b bd 91 f5 65 3e ff fb 68 be
       -0.07599401 -0.075877294 0.22456957 -0.22752379
000230 48 e2 fe 3d 89 fc cb be b3 b4 73 be 62 de 5a 3d
       0.124455035 -0.39841107 -0.237994 0.053434737
000240 eb 49 fd 3c a4 7d 44 be b1 f2 f8 be c7 27 55 3e
       0.030919036 -0.19188553 -0.4862266 0.20815955
000250 de 71 e9 3e 91 4f df 3d bf 07 4e 3e 3e 6c 84 3c
       0.45594686 0.10903848 0.20120142 0.016164895
000260 12 48 34 bd ac 9e c3 3e 71 c2 c1 bd 74 3f a2 bb
       -0.044014044 0.38206995 -0.09460915 -0.004951412
000270 ea 40 18 3f 7d d3 66 bd 39 ed 5a 3d e2 2a b4 3e
       0.5947405 -0.056354035 0.05344889 0.35188967
000280 e6 f6 bd 3e a0 30 a9 be 13 6c a5 3d 9d 1f f3 3c
       0.3710243 -0.3304491 0.08077254 0.02967816
000290 8d 23 25 3e 1c 93 52 be 53 c0 50 3f 87 8c 76 3e
       0.16126843 -0.2056393 0.81543463 0.24077044
0002a0 bd 4d 69 3e fe 3c 1a 3e 77 6c cb be e1 15 8c bd
       0.22783561 0.15062329 -0.3973119 -0.068401106
0002b0 0f d0 b5 3e 9e 5d 0a bd 05 fc ba 3d 0b 40 1a be
       0.355103 -0.033780687 0.091301 -0.15063493
0002c0 2e 94 e8 3e 6a a8 76 3e 25 ff 5e be b5 54 8d 3e
       0.45425552 0.24087682 -0.21777017 0.2760369
0002d0 2d 00 e5 3e ea 97 d3 be 21 dd 92 3e 4f 57 0c bd
       0.44726697 -0.4132684 0.28684333 -0.03426295
0002e0 8b c4 97 3d aa e3 0b 3e 58 12 5f 3e 03 de be bc
       0.074105345 0.13661066 0.21784341 -0.023299223
0002f0 54 ea eb be d4 79 94 3e bd ff b5 be 25 08 9d 3e
       -0.46077216 0.28999197 -0.35546675 0.30670276
000300 2f f7 a2 bd e6 fa a5 bc c4 62 44 3e 16 6e fb be
       -0.07957303 -0.02026124 0.19178301 -0.49107426
000310 e4 b8 98 3e a4 50 53 bd b5 4f 16 be 37 9c fb 3e
       0.2982856 -0.051590577 -0.14678843 0.4914262
000320 a0 ea e6 be 1b c2 85 be 1d 62 8d bb 3f 7f ef bd
       -0.4510088 -0.26124653 -0.0043146745 -0.11694192
000330 0a 42 b7 be 7e 52 08 3e 00 4b 94 be 87 e9 86 3e
       -0.3579257 0.13312718 -0.2896347 0.26350042
000340 32 db 42 3e a9 77 56 3e c0 13 3f be d0 63 0c bf
       0.19028929 0.20944084 -0.18659878 -0.548398
000350 81 62 df 3e 50 66 98 bc b2 06 cc 3e 23 39 d5 3d
       0.4362984 -0.018603474 0.39848858 0.104112886
000360 17 0d b8 bd 79 59 50 3e 7f 99 88 bd b8 aa ad bd
       -0.08986872 0.20346631 -0.06669902 -0.08479828
000370 a9 2b 0e be c3 ed fb bd 50 86 4e be c1 88 1b bc
       -0.13883843 -0.12301209 -0.20168424 -0.009493054
000380 b9 d5 c9 3e 82 9a 06 3e b6 25 f7 3d 07 ca 80 3e
       0.3942087 0.13144878 0.1206774 0.25154135
000390 f4 ef cb bd ee 42 cb 3e 6b d6 51 be 24 59 ff bd
       -0.09957877 0.396995 -0.2049195 -0.12468174
0003a0 43 bb ad be 7d 5b c8 bc da 4e ae bd 2f 4d c4 3d
       -0.33931932 -0.024457688 -0.085111335 0.09585034
0003b0 60 04 8a 3d df e2 86 3e 1c a5 93 bd dd ee 64 3e
       0.06739116 0.26344964 -0.072092265 0.22356744
0003c0 cb 9d 81 bd ae 63 e2 3e 9e 3b 88 3e 65 92 b5 3e
       -0.06328925 0.44216675 0.26607984 0.35463253
0003d0 16 bb 1d 3f 52 1c 01 3e 38 51 d8 bc f5 cc 2f 3e
       0.61613595 0.1260846 -0.026405916 0.17168029
0003e0 44 12 b9 3d 2f 14 78 3e 95 dd fa 3e f0 01 1e be
       0.09036687 0.2422645 0.4899718 -0.15430427
0003f0 9b 1b 20 bd c0 3c 80 3e 8c 45 8a 3d e2 d9 9e be
       -0.039088827 0.2504635 0.06751546 -0.31025606

value_net.2.bias f4 [32]
000000 41 f5 58 3d 9e 5a 03 3c d8 7e 45 bd e2 8b e6 3c
       0.052968267 0.00801721 -0.04821667 0.028142873
000010 0b fe 8e 3d 95 ed a2 3b 6d 87 3d bd 68 73 9c 3d
       0.069820486 0.0049721696 -0.04627173 0.076391995
000020 08 a8 8d 3d 04 14 c5 3d a8 38 1c 3d e2 97 ea bc
       0.06916815 0.09622958 0.03813997 -0.028636876
000030 29 8d a6 bb 42 b6 ba bd 16 56 d4 bd c9 5d 17 3e
       -0.0050827456 -0.09116794 -0.10367982 0.1478187
000040 bb 31 0e bd 5b 0a 1e bd 5d 11 27 3d 21 0f 67 3c
       -0.034715395 -0.038584094 0.040788043 0.014102728
000050 6f 80 b3 3d 88 1a b2 3c 2a b0 ba bc 43 d2 a1 3b
       0.08764731 0.021741167 -0.02278908 0.004938395
000060 d8 be b1 3d 60 9c 89 bb 4d aa 4a bd ab 4e b5 bc
       0.08678979 -0.0041995496 -0.049478818 -0.022132238
000070 99 9f 60 3d 99 81 9b 3d dc 03 b4 bc 11 85 b1 bd
       0.054839704 0.07593078 -0.021974497 -0.086679585
