MAPPO/Graph_H/save/SY_4_T1/agent_16_MAPPO_c.pt (torch, 127962 bytes, 15 tensors)

policy_net.0.weight f4 [32, 26]
00000000: cf73 3d3d 4669 e3bd 763f e0be 7b31 d1be
00000010: 7710 80be c245 e8bd 8a2b 453d 44b9 8039
00000020: c848 023f 7732 21be 8b89 b2bd f6d1 5d3d
00000030: 2fdc 823e 8f52 783e a9b3 16bd 18d7 833e
00000040: d2e1 d3bc 9ab3 96be c695 3dbe 7503 823e
00000050: 1d32 2b3f 9566 173e 6345 bf3e bddb bb3e
00000060: 7baa 19be d6a2 c43d 8901 433e d2ec a3bd
00000070: ef78 fe3e 3ee9 303d ed6b ad3e fe7a 453e
00000080: 4f4d e13e 0609 b8bd a6cc 5c3e bf38 17bc
00000090: e5cc 1dbe 0264 e8bd 875c 133d f2de a93d
000000a0: 3127 853c 2988 c9be c8a6 e33e 3cfb 2bbe
000000b0: 2218 493e 7876 b53d ea73 babc 98e9 213d
000000c0: ab31 a63d 7a10 543e 6eee 92be ff64 793e
000000d0: b20d c9bd 8f68 87be a0a6 68bd 3b16 283e
000000e0: 778b 053d ed7a 8a3d a55d e3be ce15 fd3d
000000f0: 71e6 0abe f193 013f 83d0 e03e e3b5 bbbc
00000100: 2cc2 ef3d d668 f73e 6fb1 d9be dc1b 933e
00000110: 8937 44be 0df7 4ebe 0532 ae3d 98f5 203f
00000120: 6d9a 71be 0a77 94be 5aa8 30be d6e5 a8be
00000130: 51a1 2abd e11e 9ebd f650 013f 61c6 0fbc
00000140: c7cf 863e 174e b23e ac90 c9be 1e54 3abe
00000150: dfde 45bd c12b 093e 9bff 433e e548 b6bc
00000160: ee7d 34be b216 073e 2db0 1a3e fa09 023e
00000170: 60c7 3abe ed49 dfbc cc26 d83e 060e 53bd
00000180: 3a5e 46bb 77cf 83be e1e6 9b3d 197b 04bf
00000190: 5319 213e 824e 6ebe f4dd d3be cae7 1bbe
000001a0: c70b 393e e928 e8be c717 fd3d 90ce 51be
000001b0: 1dd6 43be 9fe0 2ebc c9d7 213e 2a6e 60be
000001c0: 5954 223d ce25 b83c 2a69 5b3e e254 cfbd
000001d0: 0b65 04be 9169 d0be af8b 3d3e 3b7c c8bd
000001e0: e1a3 82bd 9503 22be 7176 a63d 9da4 be3e
000001f0: 2761 b73d 622d 4cbf 9890 26be 4cca 8fbe
00000200: 4ded 4a3f b716 25bd 9190 3abd 3810 4f3e
00000210: 6803 1a3f db6a 06be 140c 33bd 335a ac3c
00000220: 86c2 9cbd 8ff9 8e3e 03c4 b23e 26dd 923e
00000230: c000 adbe 8f4c 24bf 0b7f 2d3d 2e9f 15bd
00000240: e594 26be f8d0 8bbe 84e7 debd 7d4a 4c3e
00000250: 768f a8bc c007 ac3e 157c a13d 0087 0c3e
00000260: 93b1 c5bd 4424 7dbe e9bc 7abd 4508 bd3d
00000270: ee77 8abe e774 b23e fb9c 913e c121 bdbe
00000280: 1cc7 80bd 701b febd 8c9a 4cbe 69f5 7dbe
00000290: 0094 43be 3d3a 203e a3d5 91be ebc0 803e
000002a0: c1c6 2d3d c241 0abe 9c85 ee3e 9bd5 823d
000002b0: 690c b63e b983 403f b4dd c5bd b40b b73c
000002c0: a420 7b3d acec aabd 2811 1dbd be9b 53be
000002d0: 1361 84be 2c72 1bbe bec3 2cbe 1666 513e
000002e0: fa55 96be 18a1 ee3b 1853 293e 498b 42be
000002f0: d5b2 f83e 8d75 c83c 3e2b 653e 081e 543d
00000300: 20a9 96be 3266 92be 2957 02bf d75c d6bd
00000310: b84d 8d3c f818 1e3e 8f25 dbbd e21b 173c
00000320: f6cc 4ebd a718 b43d 2f23 2a3e 4a85 4cbb
00000330: 093c 1bbf 5e9b f03d b4bb 1abe d4d2 1bbd
00000340: eb37 e6bd 2954 81be 293a 763e 6e9f 3fbf
00000350: 8cfa 9c3e f7af 61be f32e 473e 63f4 1fbe
00000360: 85c6 fd3d 856c 363e 4e60 a0ba 8614 7e3e
00000370: 0fa6 983b c546 b23d bbd4 b83e 3b0a 8f3e
00000380: 46ba 4abe fdab c33e b0c3 f03d 0aee 103e
00000390: d93a d93e 7067 fb3e 44b7 0e3e 5f3d 8d3e
000003a0: 7ce1 87be c1c3 2dbe bedd b5bd c9f0 993e
000003b0: de0a 833e cbf7 293d a0e6 6c3d afd8 9f3e
000003c0: 7856 c73d daaf 4e3e 8547 c3ba c45c b0be
000003d0: e018 9abc ff05 823e c685 03bf daa9 593f
000003e0: f3ff a43e b276 773e 8656 41be ba1b 73be
000003f0: 0f58 1bbe e61d 8bbe 438c a4bd fb95 8fbd
0.04625302 -0.11104064 -0.43798417 -0.40858063 -0.25012562 -0.1134143 0.048137225 0.00024552096
0.50892305 -0.15741907 -0.087176405 0.054155312 0.25558612 0.24250244 -0.03679243 0.2575004
-0.025864515 -0.294339 -0.18514165 0.25393263 0.6687334 0.14785226 0.37357625 0.36691085
-0.1500644 0.09601371 0.19043554 -0.08004154 0.4970164 0.043191187 0.33871403 0.19285199
0.44004294 -0.08986096 0.21562442 -0.009229838 -0.15410192 -0.113472 0.035976913 0.082944766
0.01625404 -0.39361694 0.44463181 -0.16795057 0.19638112 0.08860487 -0.02276035 0.039529413
0.08114942 0.2070941 -0.28697532 0.24354933 -0.09817065 -0.2644696 -0.05679953 0.1641473
0.032603707 0.067617275 -0.44407383 0.123576745 -0.13564469 0.50616366 0.43909082 -0.022913879
0.11706957 0.4832217 -0.42518184 0.28732193 -0.1916181 -0.2021143 0.08505634 0.62874746
-0.23594065 -0.2899707 -0.17251721 -0.3298785 -0.04165775 -0.077207334 0.5051416 -0.008775325
0.26330397 0.34825203 -0.39368188 -0.1819615 -0.04830825 0.13395597 0.19140474 -0.022251556
-0.17626163 0.13192251 0.15106268 0.12699118 -0.18240118 -0.02725693 0.422171 -0.051527046
-0.0030268566 -0.2574422 0.07612396 -0.5175033 0.15732317 -0.23272136 -0.41380274 -0.1522514
0.18070899 -0.45343712 0.12358051 -0.20488954 -0.19124646 -0.010673671 0.15804972 -0.21917024
0.03963122 0.022478964 0.21426836 -0.10123612 -0.1292917 -0.4070554 0.18510316 -0.0978932
-0.06378914 -0.15821679 0.0812806 0.37234965 0.08954077 -0.7975675 -0.16266096 -0.28084028
0.7926834 -0.040304866 -0.045548026 0.2022103 0.6016145 -0.131267 -0.04371269 0.021039104
-0.0765429 0.27924773 0.3491517 0.28684348 -0.33789635 -0.6417932 0.042357486 -0.03652876
-0.16267736 -0.27307868 -0.10884002 0.1995029 -0.02057622 0.33599663 0.07884995 0.13723373
-0.0965301 -0.24720865 -0.061215315 0.09230093 -0.27044624 0.34854814 0.2844008 -0.36939815
-0.06287977 -0.12407577 -0.1998083 -0.24800648 -0.19099426 0.15647216 -0.28483304 0.25147185
0.042425875 -0.13501647 0.4658631 0.06388398 0.35556343 0.7520099 -0.09661427 0.022344448
0.061310425 -0.08345923 -0.03834644 -0.2066488 -0.25855312 -0.15180272 -0.16871545 0.20449099
-0.2936247 0.0072823875 0.16535604 -0.18998446 0.48573938 0.024470115 0.22379777 0.051786453
-0.29425907 -0.28593594 -0.50914246 -0.104669265 0.017248973 0.15439212 -0.10700523 0.009222956
-0.050488435 0.087937646 0.16614984 -0.0031207376 -0.6063848 0.11748384 -0.15110666 -0.03804286
-0.11241134 -0.25259522 0.24045624 -0.74852645 0.30659902 -0.22039782 0.19451503 -0.1562057
0.1239138 0.17814834 -0.0012235732 0.24812517 0.0046584676 0.087049045 0.360998 0.27937493
-0.1979762 0.38217154 0.117560744 0.14153305 0.4242771 0.49102354 0.13937098 0.27585885
-0.26539218 -0.16969205 -0.088801846 0.30066517 0.25594229 0.04149608 0.05783713 0.31220004
0.097332895 0.2018427 -0.0014898634 -0.34445775 -0.01881069 0.253952 -0.51376 0.850248
0.32226524 0.24166372 -0.18880662 -0.23741046 -0.1517031 -0.27171248 -0.08034565 -0.070110284

policy_net.0.bias f4 [32]
00000000: ba9e 4c3c 4b93 95bc 4649 5abd 44f8 f83b
00000010: 0d98 6dbd c5b2 913d ea60 0b3d 902e 55bd
00000020: d2e0 253d 3fcd 2bbd 939f 063d 1cd2 0abd
00000030: 170c d93c 0d6f 6abc aa4e 40bd 75c2 b63d
00000040: b635 b13c 22ec e33d 8028 ad3d ac09 6abd
00000050: 6a50 993d df80 f83d 37ae b9bb a754 e73c
00000060: cb8a 3ebd f32d c63d 5b7d 1abd 8eb2 96bc
00000070: b4d6 cfbd 3879 86bd 5ef8 503e dc17 99bd
0.012489015 -0.018258711 -0.053292535 0.007597955 -0.058006335 0.07114176 0.03402797 -0.05204636
0.04049761 -0.041943785 0.032867026 -0.033891782 0.026495023 -0.014308703 -0.04695002 0.089238085
0.021632057 0.11129023 0.084549904 -0.05713813 0.07486041 0.12133955 -0.00566652 0.028238608
-0.046519082 0.09676733 -0.037717205 -0.018395688 -0.10148373 -0.065660894 0.20407245 -0.07475254

policy_net.2.weight f4 [32, 32]
00000000: 89c9 05be d678 f73d 8701 a03e 86d3 8dbe
00000010: f365 8d3e 77f3 a0be 8c54 6cbe 584f 893e
00000020: f24b 26bf c231 573e 55fb 493e e79d 263e
00000030: 8d12 da3d e40e 85bd ae3b a63e ab39 54bf
00000040: 8dfe 87bd ba47 f23c a840 cebe 7136 e43e
00000050: 678f 72be 4e58 b43d 36ef b43e 120a a8be
00000060: b1ab 133d 2e9e 3ebe 1a3d 893e bcb4 313e
00000070: 2904 cebd 3073 a8be 9ea4 ce3c b7f2 153f
00000080: 3879 523e b873 30be c282 a23e 13e6 95bd
00000090: 22eb 60be 168f 24be d59c c2be c434 193f
000000a0: dd94 933e b342 0a3f 9fca 1ebe 8422 e0bd
000000b0: d362 5abe d316 2fbe ab65 0ebf a07f e0bd
000000c0: cff8 7e3b 7e0f f5be d549 df3e 268d b6bb
000000d0: cb4c 2e3e 0791 86be 8561 023e 7b6f 2d3e
000000e0: 8af7 2bbe 4f8c a4be 8410 a43c f066 b63c
000000f0: ab9b ab3d c96e 8f3d 8d15 94be 82fa 54be
00000100: 121d 03bf fb9b 653e b207 86bc 7183 ddbd
00000110: d78c 6b3e 77d2 893e 493a 303f 4118 52be
00000120: b0ab 7f3e 694b 683e 84c0 b23d cb58 75be
00000130: e8aa 613e 7b34 4dbc e856 62be 6ac9 5fbe
00000140: 7236 943e 3105 9c3e 9679 0cbe e3a3 72be
00000150: 2d73 acbe 11f3 afbe 3b26 9c3e f50e 99be
00000160: 6c20 20be 1a80 e73e 456e 8f3c 2c29 9abe
00000170: ae62 34be 7b50 973e e029 6dbe c544 1fbf
00000180: b81d 8fbe be13 c13e 7f2b 7a3e 9d8d 903d
00000190: eb80 833e a9db e1bd 45df 06bf d81e 82bd
000001a0: c6a3 783e 8124 333e d408 b5bd 8743 56bd
000001b0: 7d86 a63e 7e7b bd3e 0985 7b3e d0c4 4c3e
000001c0: e590 3abe 7ea9 803e 8684 10bf c358 5f3e
000001d0: f709 6d3d 0885 edbd caff 05bf 9246 8abe
000001e0: a664 96be 52e2 3d3e 5564 1dbe fbe0 16be
000001f0: 6c7b ed3d 02bb 013d e389 7bbe eb9e f83c
00000200: 9de6 d23d 6be8 d1be 6b31 9cbd 499e 00bf
00000210: eb6c a4be 7fa9 e0be fbcc 9d38 19f7 933e
00000220: f86f b03e 3a31 93bc 1932 58be b92e b63e
00000230: 3a45 c53c d167 013f 2196 f0bd 1b1c 973c
00000240: f66f 803e 108a 8ebe 926a edbe 5866 ae3e
00000250: e9b6 673e 3736 753e bb6b 06be 66f6 b23e
00000260: ec65 5a3e bf02 453c 8fbd 9a3e fea2 ba3d
00000270: abc0 53bd 605f 09be 736c 3f3e 9cac 4cbe
00000280: b2f2 5dbe b774 a03e aa55 bd3e f758 c73e
00000290: a8e4 6fbe 7857 713d bb67 1b3f 9672 99be
000002a0: c330 813e 49ce 143f 53b1 c03e 5bf2 e2bc
000002b0: 82ad b8be 813d ba3e 2c49 183e 0215 41bd
000002c0: bf69 3cbe c4fc b6be 6267 763b f18a 29bd
000002d0: b366 5f3e ce1a 783e d0c4 c43d 3a79 99be
000002e0: f3e9 1fbd d7be 91bc 7be5 5bbe 4869 2ebc
000002f0: 3bcf 3e3c d728 1f3c f74f 6b3e acf2 683e
00000300: a730 f5be b6ba 3abe 1dbe f9be 2798 863e
00000310: db40 17bf 6f28 533e 64d9 c4bc fd29 f63d
00000320: cd3a 2e3e a47a 1d3e 517c dcbe 8b1b 8bbf
00000330: cd91 b5bd dd9c 053e a7b0 9fbe a90b 0c3e
00000340: 2a71 233e 80f1 b83c 6cef 023f f35b 303e
00000350: e257 09be 9b3b bd3e 7596 13bd 03ba 96bd
00000360: 73d9 a13c 4e6b c8bd 31ec e33d a180 f5bc
00000370: c867 08be 97e6 d3bd 3bbc 5f3e 3db0 a7be
00000380: 6658 82be f985 6f3d 1d56 3bbe 1ffa a93e
00000390: 40ea 313e 3578 a6be af37 b83b c4db 80be
000003a0: fa08 cabe 47a8 ebbe bb60 a53d 3351 d83e
000003b0: b4ec 82be 840e b1bc f947 6abe 4b45 3b3d
000003c0: cad9 d63e fde2 83be 3737 6ebe 6182 ea3d
000003d0: 8c5e 90be 68e6 553d 0699 dbbe 9050 afbe
000003e0: 8f36 fcbe 6aa1 9bbe 507f 0cbe dd66 2c3e
000003f0: 1191 c4be 6881 973e 3d8e c0be fa66 27bc
-0.13065161 0.120835945 0.31251165 -0.27700442 0.27616844 -0.3143575 -0.23079127 0.26818347
-0.64959633 0.21015075 0.19724782 0.16271172 0.106480695 -0.06496981 0.32467407 -0.82900494
-0.066403486 0.029575218 -0.40283704 0.44572785 -0.23687516 0.08805905 0.35338753 -0.32820183
0.03605241 -0.18615028 0.2680443 0.17354101 -0.10059387 -0.3290038 0.02522498 0.5857348
0.20554054 -0.17231643 0.31740385 -0.07319274 -0.21964696 -0.16070208 -0.38010278 0.5984614
0.2882451 0.54008025 -0.15506981 -0.10944083 -0.21326761 -0.1709855 -0.55623883 -0.109618425
0.0038905626 -0.47863382 0.43611017 -0.0055710254 0.17021482 -0.26282522 0.12732513 0.16937058
-0.16793647 -0.32138297 0.020027407 0.022265881 0.08379301 0.070035525 -0.28922692 -0.20798686
-0.5121623 0.22422783 -0.016361091 -0.10816086 0.23002945 0.26918384 0.68838936 -0.20517065
0.24967837 0.22685017 0.08728126 -0.23959653 0.22037852 -0.012524719 -0.22103465 -0.21854177
0.28947788 0.3047271 -0.13718256 -0.2369533 -0.33681622 -0.34365132 0.30497918 -0.29894224
-0.15637368 0.4521492 0.017508635 -0.30109537 -0.17615768 0.2955359 -0.23160505 -0.6221431
-0.2795236 0.37710375 0.24430655 0.070582606 0.25684294 -0.11028225 -0.5268443 -0.06353539
0.24281225 0.17494394 -0.088395745 -0.052310493 0.3252448 0.3700828 0.24562468 0.19996953
-0.18219335 0.25129312 -0.56452215 0.21811204 0.05787083 -0.11597639 -0.5234343 -0.27006966
-0.29373664 0.18543366 -0.15370305 -0.1473426 0.115958065 0.031672485 -0.24564318 0.030349215
0.10297892 -0.40997633 -0.07626613 -0.50241524 -0.32114348 -0.43879315 7.524524e-05 0.28899458
0.34460425 -0.017967809 -0.2111286 0.35582522 0.024080861 0.50549036 -0.11747385 0.018446019
0.2508542 -0.27839708 -0.4637037 0.34062457 0.22628368 0.23946463 -0.13127033 0.34953612
0.21327943 0.0120245805 0.30222747 0.091131195 -0.051697414 -0.13415289 0.18693714 -0.1998772
-0.21674612 0.31339046 0.3697942 0.38935062 -0.23427069 0.058921307 0.60705155 -0.29970235
0.25232515 0.58127266 0.37635288 -0.027703455 -0.36069876 0.3637505 0.14871663 -0.047139175
-0.18399714 -0.3573972 0.0037598242 -0.04139227 0.2181652 0.24228975 0.096078515 -0.299753
-0.03904147 -0.017791195 -0.21474259 -0.010645218 0.011646087 0.009714327 0.22979723 0.22748822
-0.4788868 -0.18235287 -0.48777857 0.26287958 -0.59083337 0.20620893 -0.024029441 0.120197274
0.17014618 0.15378815 -0.43063596 -1.086778 -0.088657 0.1304812 -0.31189463 0.13676323
0.15961137 0.022576094 0.5114658 0.17222576 -0.13412431 0.36959538 -0.03603216 -0.07359698
0.019757008 -0.09786092 0.11129034 -0.029968562 -0.1332084 -0.10346716 0.21849148 -0.32751647
-0.25458068 0.058477376 -0.18294568 0.3319864 0.17374516 -0.32513586 0.0056218724 -0.25167668
-0.39459974 -0.46026823 0.080750905 0.4224945 -0.25571215 -0.021613367 -0.22879018 0.04572038
0.41963035 -0.25759116 -0.2326325 0.11450649 -0.28197134 0.052221686 -0.42890185 -0.34241152
-0.49260375 -0.30396587 -0.13720441 0.16836114 -0.38391927 0.29590917 -0.3760852 -0.010217423

policy_net.2.bias f4 [32]
00000000: 1bd7 aabd c93f 71bd 675a 283e 61c2 99bc
00000010: 2676 26bd ae3c c23d c50f 9d3d ef2f aabd
00000020: 3f95 f6bd e39c 86bc e66e afbc f4ba a8bb
00000030: 6f1e e9bd ab5f 42bd 0be3 3fbc 1fc9 cebc
00000040: aa6a 0cbc 6df8 c63a 2464 85bb 80ae 38bc
00000050: b9ad c1bd 66cc a03c 2129 5a3d 4127 fabc
00000060: 90b2 173c 24fc a1bc d794 213d 80b7 2a3d
00000070: 3a12 08bd cc83 383d d4d0 f93c 9eea 95bd
-0.08341809 -0.05889872 0.16440736 -0.018769445 -0.04064002 0.0948423 0.076690234 -0.08309924
-0.12040185 -0.016432231 -0.021415185 -0.0051492397 -0.11382758 -0.047454517 -0.011711846 -0.025242386
-0.008570353 0.0015180238 -0.0040707756 -0.011272073 -0.09456963 0.019628715 0.05326188 -0.030536296
0.009258881 -0.01977355 0.039448585 0.041678905 -0.033220507 0.045047566 0.030495085 -0.0732014

policy_net.4.weight f4 [32, 32]
00000000: 2403 023f 9256 963e 4869 aebc 8d41 c7be
00000010: 9cae 7f3e 0fb7 95be da7c e73e 9606 06bf
00000020: 40dd 1c3e 3103 c53e dca8 ab3e cc47 133e
00000030: c145 3c3f cdd7 e73e cc6b 0abf ff36 c73e
00000040: 98d6 113d 27b1 143e 1d5d 90be fb46 e33e
00000050: 4391 02bf de0e 4a3e b8ab fc3d ccc3 063e
00000060: 468d b2bd 20f2 9b3d fae8 5b3e 80c3 a43e
00000070: 3afc 903e 4c13 bcbd c677 193e 9bce e03d
00000080: d605 9a3e 3ddf 84bb c068 f63d 93c3 3b3e
00000090: f964 87be d6eb 12be 2d0a 0fbd 06da 1e3e
000000a0: 9ad9 20bf 9988 4a3d ff37 15be bdf9 f6be
000000b0: d280 af3b e0c2 153f a927 223f b953 043e
000000c0: fd3c 9dbd 9f4d 533e e6f1 e33e def5 8dbe
000000d0: a540 463f c90b c5bd 3538 983d e866 aa3e
000000e0: ce94 603d 2d29 acbe 4806 83be 16ed cf3e
000000f0: b4d7 333e b988 9abd acca b33d 442e 80be
00000100: 478f 83be c0ed 90be a52a d83e cb7f 9a3d
00000110: 7058 d73d 5bd5 643e 7665 28be 9b23 503e
00000120: b0c7 dabe e6c2 40bd cf18 99be c65c 963e
00000130: 1a18 be3d eadd 04bd 39e7 9cbd 6cf8 4ebf
00000140: a145 683d 29a1 d13e db67 993e 225a 04bf
00000150: b80d cc3e 73ab 6ebe 5d54 9d3e 332e bc3e
00000160: de91 93be 472b d6bd 4f64 3ebe 5109 4b3e
00000170: 0a55 efbe f0a5 243e 539a 15be 97fd 403e
00000180: e647 0f3e e276 fe3e 879f 983d 7d5b e33d
00000190: 7966 f4bd f1f8 213e 2573 02bd 5c7f 3b3f
000001a0: 402e 38be 9651 1cbe f21f 69be fd5c 02bf
000001b0: 660a 5d3e 2507 cdbc 4bff 653e 0f6a d73e
000001c0: 0224 053d 998b 543e 6cf1 1ebe d05a a5be
000001d0: 6188 4d3d 7f91 b2bb 9148 5f3e 7f40 ee3e
000001e0: 96d2 d1be ace6 76be 056c 86be 3b30 6c3e
000001f0: 72bd 04be 7913 ed3b 42ed ddbe 4df1 263f
00000200: 4f22 163f 1fc0 4e3d d5c4 a2be 59ec 483d
00000210: 2624 9dbe c3fb 9cbd 3bb7 9abe 567e c93c
00000220: 2b88 db3e 624d b3bd c74a 97bc a3fe 11bd
00000230: acfa 7e3e 7440 3e3f 0c3d 30be 32e9 98bd
00000240: 3c88 6c3e a87b 253e 1ba5 193e 0660 c2be
00000250: d927 703e a527 153e 6dbc c0be 7edb 5f3e
00000260: d972 953e 5557 9bbe 8101 9ebe 67dc f3be
00000270: 6612 19bd 1fec 19be ba49 c9be f5a7 6c3f
00000280: 74eb a3be 7b99 9d3d ae47 08bf 1bb0 18be
00000290: 63f9 253d 308c 123f d1ad e13e 88c6 0cbf
000002a0: bd84 903d 516f 2c3e fb3e 9f3d 22cc 273f
000002b0: da9e 67be 587c 94bd 8311 c9bd 8a19 9f3e
000002c0: 4de4 dc3c a833 b8be 92ec 723e c7e9 283e
000002d0: 1d10 ccbe b9f8 8c3e cfad a93d 374a c83e
000002e0: 6c5c 083f b7e8 583e 9de1 a13e 4047 f23d
000002f0: 7285 c73c 89f6 98be 6146 0b3d a7b7 c5bc
00000300: 9c25 fbbd f679 7dbe 2854 4abe 8c35 78bd
00000310: ec43 3e3f d3f7 85be 9602 ed3d c10e 4d3c
00000320: 2635 893e dc63 063e 661a 953e 943f 863e
00000330: b41c 2fbd 3b5e 643e 9c6f 553e b2ac 013f
00000340: 04ca 86bd 1137 ab3e ef42 45bf 4cd3 c23e
00000350: 47a9 a5bd 4f9b 233f 168c edbe a643 b3bc
00000360: 1837 3f3e a4df a43c d826 023d cb4b a73e
00000370: 3ca4 7f3e 16f3 a8be 0bc9 c63d 3f02 533e
00000380: e083 73be e3dc 9c3e eafb 79be 0cca 2cbf
00000390: e28d 253d 478d 22bf 4341 d3bc 93d9 3abe
000003a0: be9c 0d3f 7651 4a3e d3b7 b5bd 2b4f d73e
000003b0: 6d7c fe3e 157c 69bd d483 c5bd 5739 253f
000003c0: 8c9b c93e aa7c 8ebe 0abb 6abe 2886 a03e
000003d0: 0efd d93d cf6e f93d cccc afbe 7665 c63d
000003e0: ff10 783e 9ba6 403d 2d18 dfbd d206 df3e
000003f0: 22b1 8cbe 84b8 103c e1a4 c83d dfb0 45be
0.5078604 0.29362923 -0.021290436 -0.389172 0.24968952 -0.29241225 0.45212442 -0.523538
0.15318775 0.38478997 0.33527267 0.14382857 0.73543936 0.4528183 -0.54070735 0.38909146
0.035605043 0.14520703 -0.2819604 0.4439009 -0.510029 0.19732234 0.1233744 0.13160628
-0.08718352 0.07614541 0.21475592 0.32180405 0.28317434 -0.09183368 0.14987096 0.10976907
0.30082577 -0.0040549324 0.12031698 0.18336324 -0.26444224 -0.14347777 -0.034921814 0.15512857
-0.62832034 0.049446676 -0.14572142 -0.4823741 0.0053559327 0.5850048 0.63341767 0.12922563
-0.07677648 0.20635079 0.4452049 -0.27726644 0.7744239 -0.096213885 0.07432596 0.33281636
0.05482941 -0.33625165 -0.2559073 0.4061057 0.17562753 -0.07545609 0.08778891 -0.25035298
-0.2569525 -0.2830639 0.42220035 0.07543906 0.10514915 0.22347014 -0.16444954 0.20326082
-0.42730474 -0.04706087 -0.2990174 0.29367656 0.09281941 -0.032438196 -0.0766129 -0.8084781
0.05670703 0.40943268 0.29962048 -0.5170003 0.39854217 -0.2330759 0.30728427 0.36753997
-0.28822225 -0.10457473 -0.18592952 0.19827773 -0.46744567 0.16078925 -0.14609651 0.18846737
0.13992271 0.49700075 0.074523024 0.111014344 -0.119336076 0.1581762 -0.03184809 0.7324121
-0.17986393 -0.15265498 -0.22766092 -0.5092314 0.21585998 -0.02502782 0.22460668 0.42073104
0.032505043 0.20756377 -0.15521783 -0.32295847 0.05017889 -0.0054494734 0.21805026 0.46533582
-0.40980977 -0.24111432 -0.26254287 0.23065273 -0.12962893 0.0072349873 -0.43345076 0.65211946
0.586461 0.05047619 -0.31790796 0.049053524 -0.30691642 -0.07665207 -0.3021792 0.024596374
0.42877325 -0.08754994 -0.018468274 -0.03564323 0.24900311 0.743171 -0.17210788 -0.074663535
0.23098844 0.16160452 0.15004389 -0.37963885 0.234527 0.14565904 -0.37643757 0.21861073
0.29189184 -0.30340067 -0.30860522 -0.4762909 -0.03737106 -0.1503148 -0.3931406 0.9244378
-0.32015574 0.0769529 -0.53234375 -0.14910929 0.040521037 0.5724516 0.44077924 -0.54990435
0.07056568 0.16839339 0.077756844 0.65545857 -0.22619191 -0.07250279 -0.09817793 0.31074172
0.026964331 -0.3597691 0.23723057 0.16495429 -0.39856043 0.2753351 0.082851045 0.3911912
0.53266025 0.21182524 0.31617442 0.11829996 0.024355624 -0.2987559 0.034002665 -0.024135424
-0.12263033 -0.24753556 -0.19758666 -0.06059794 0.7432239 -0.26165637 0.11572759 0.012515725
0.26798362 0.13124031 0.29121703 0.2622038 -0.042751983 0.22301571 0.20843357 0.5065414
-0.065815 0.3344045 -0.7705526 0.38051832 -0.08088928 0.6390886 -0.4639594 -0.021882843
0.1867336 0.020126171 0.031775326 0.32675013 0.24964994 -0.3299796 0.09706315 0.20606326
-0.23780775 0.30637273 -0.24412504 -0.674958 0.040418513 -0.6349682 -0.025787955 -0.1824706
0.55317295 0.19757637 -0.08872952 0.42052588 0.49704304 -0.0570031 -0.09644285 0.6454062
0.39376485 -0.27829486 -0.22922912 0.31352353 0.106439695 0.12179338 -0.34335935 0.09687321
0.24225233 0.047033887 -0.10893283 0.4355989 -0.27478892 0.008833054 0.09797073 -0.19305752

policy_net.4.bias f4 [32]
00000000: 0763 53be 27a0 3d3d 73f1 e73d 76f7 af3c
00000010: 66f9 babd 6f37 60bd 2242 6dbe 7ea6 68be
00000020: b1d2 373d 5b91 fe3d 444b 0f3e 2d3e a6be
00000030: 3d9d 7bbc 0e36 3f3e 313f 933e 073d 5fbe
00000040: cb17 29bd 6862 fd3b 7784 2f3e 86cf 2f3d
00000050: ec58 d1bb d143 b73d 9270 9dbd c45d 193d
00000060: 785c 3dbe 2752 303e 523c a2bc 8289 75be
00000070: 4014 6fbd d4c2 aa3c 8f30 533e b056 9ebc
-0.20643245 0.04629531 0.1132535 0.021480303 -0.091296 -0.054740366 -0.23169759 -0.22719762
0.044878665 0.12430068 0.13993555 -0.3246931 -0.015357313 0.18672964 0.2875915 -0.21800624
-0.041282456 0.007732678 0.17140375 0.04292252 -0.006388774 0.08948482 -0.07687487 0.037442937
-0.18492305 0.17218839 -0.019804154 -0.23978236 -0.05836892 0.020844854 0.20623992 -0.019328445

policy_net.6.weight f4 [21, 32]
00000000: d0ed 69be 8f7f b73e 1a1d 743e 6a99 4f3e
00000010: 787f c8be 23f9 acbe 9dd1 63be 9fcc 6dbe
00000020: c370 053f 37f9 583e 1314 8b3e f6f6 76be
00000030: 296f 5dbe 2b03 8e3e 4264 743e 58be 6fbe
00000040: 9a72 c0be 0acf 21bf 4f89 823e 4a02 d23e
00000050: 38b6 00bf a9d7 883e c5af b7be 5909 b73e
00000060: 2061 71be 21ba 623e 940b 183f f3d3 78be
00000070: 96d7 ccbe 7e3e 8bbe 1060 653e 1406 17bf
00000080: 9d97 153b 0afd 4e3b a16e 1fb9 229a 8939
00000090: 7ef0 9a3a 2662 83ba a1a8 e5ba b643 1dbb
000000a0: d019 e43a 81fa d9ba f634 aeba f4e7 fb3a
000000b0: b932 deba ae67 99b7 2593 efba 3464 823a
000000c0: 30b5 913b 55e4 e7ba 86de 25bb 5d83 0b3b
000000d0: 7b28 b8ba 6048 1f3b 4d3b 4a3a b2b7 de3a
000000e0: 8756 973a 1404 4e39 5d82 dab9 2d5c b03a
000000f0: 2665 f239 a07b 7ab9 6cf4 063b 6e92 b7ba
00000100: 8b31 ed3a ed6d 3e38 b697 10bb 220c 983a
00000110: f8dc b239 5d1c 8b3b 7bf6 1dba 3e1c 0f3b
00000120: 4e62 c1ba 4f9d a5b9 9a15 8838 73e8 58ba
00000130: 8ba2 8bba 19c6 c3ba e759 40bb 93cc d13a
00000140: 1eca 243a 622c 3dbb 7270 953a 863c 1fbb
00000150: 314a 04bb 14c8 a0ba 6bc9 a4b8 93e6 4fbb
00000160: dc9f 74ba 4698 21ba c9b6 adba d938 6b3a
00000170: 1532 173b f901 1bbb b7ac e6b9 337e ebba
00000180: 2155 64ba 35c6 313b 2b64 d3b9 0fff be3a
00000190: fe91 c238 8618 f8b9 a6b1 c9ba 99cc 4e3b
000001a0: 37e6 ab39 9a0a 9d3a 18c7 773b d76d 15bb
000001b0: 0b4c 9a3a 3436 a6ba a2ea 9b3a 491a 5db9
000001c0: 8de2 843b 5473 d23a 894f 673a 0fb1 953a
000001d0: 3cd4 ac3a ef28 c439 169d 89ba 0a67 ae3a
000001e0: 5d17 89bb eb49 c93a e49a 9fba 5258 95ba
000001f0: a729 f0b9 53f4 78b9 89c5 0db8 0e9c daba
00000200: a72c 11bb 0e45 803a 18dd ab3b 2488 40bb
00000210: 4755 9bbb d5d0 cb3a e06c 41bb 41f5 0dbb
00000220: 46fd 923b 1b7f 3f3b 522d 903b 1338 38bb
00000230: f77b 2bbb 8554 a43b bc1d a1b9 0b17 4eb9
00000240: c0e6 87ba a349 c4ba e15b 633a df46 893b
00000250: 3b9a 40bb ef21 58ba 3263 97b9 c87c 233b
00000260: 7f23 3dbb e2a8 f839 b6ea 573a 3ffe 8abb
00000270: db25 a0bb 661e 033b 95e2 5f3b e2ba b4ba
00000280: 4f15 6cbe 4ea7 c33d 133c 4f3e 4e9d 1ebe
00000290: 0bb8 33be c61b 07bd 4ee7 75be ba2c 71be
000002a0: 6303 313e 2299 363e e3da 673e 26c6 75be
000002b0: d796 2bbe f40c e33d f955 763e 429d 5bbe
000002c0: fd05 a7bc b646 26be 10ed 6f3e 7ae2 293e
000002d0: 7d8f 24be 0c23 7d3d b651 69be b699 30bd
000002e0: 8391 6abe 806d 713e a409 2a3e ef0b 6bbe
000002f0: f7e1 a3bd 7078 0f3e 6fb9 6c3e 4883 14be
00000300: adc4 cbbe b87f b93e 84bc c53e 9571 783e
00000310: fbf4 933d 06fa b0be e0be d0be f0ad cdbe
00000320: fd02 bebc 1b27 c53e b9b3 ce3e 2939 cebe
00000330: 08c0 ec3d ce03 ba3e 9ad1 d03e 5db3 c8be
00000340: d1b5 b8be 59d0 9b3c a250 ce3e 9b37 23be
00000350: 716c b73d 462c b63e 0545 cdbe 0130 ab3e
00000360: 3d47 cbbe 6c9d ce3e f384 64ba 0ea6 cdbe
00000370: 92ab c3be 6000 6fbe c418 ce3e d693 8039
00000380: 41cd 78be f101 883e 02cb 773e 4d63 603e
00000390: 747d 993e b4c2 75be b2f7 7cbe 004b 7dbe
000003a0: 7210 98be b6ea 7a3e de21 7a3e b9be 79be
000003b0: 1278 523e c0b7 7c3e dc26 7e3e 12f5 7ebe
000003c0: fbf7 82be f6b6 ae3e 5ad6 7a3e ccb7 6abe
000003d0: 611c b53e f0eb 763e 3788 7bbe 8ec5 793e
000003e0: 8273 80be 8de1 7d3e f9b7 a6be 1aa5 7cbe
000003f0: 4315 98be 4834 7abe d1b4 7a3e acef b23e
-0.22844625 0.35839507 0.23839226 0.20273367 -0.3915975 -0.33783826 -0.2224793 -0.23222588
0.52125186 0.21188818 0.27163753 -0.24117646 -0.21624435 0.27736792 0.2386637 -0.23412454
-0.37587434 -0.6320654 0.25495383 0.4101737 -0.50278044 0.26727036 -0.3587629 0.3574932
-0.23572206 0.22141315 0.59392667 -0.24299602 -0.4000823 -0.27196115 0.22399926 -0.5899365
0.0022825964 0.0031583929 -0.00015204634 0.00026245514 0.001182094 -0.0010023757 -0.0017521569 -0.0023996658
0.0017402712 -0.0016630442 -0.001329093 0.0019218908 -0.0016952372 -1.8287301e-05 -0.0018278105 0.0009948076
0.004446648 -0.001769195 -0.0025309636 0.0021288015 -0.001405015 0.0024304613 0.0007714525 0.0016992001
0.0011546173 0.0001964721 -0.00041677328 0.0013455205 0.00046233198 -0.00023887912 0.0020592464 -0.0014005431
0.001809643 4.5401906e-05 -0.0022063083 0.0011600296 0.0003411544 0.0042453245 -0.0006025803 0.0021836902
-0.0014754029 -0.00031588456 6.489009e-05 -0.0008274384 -0.00106533 -0.0014936357 -0.002935046 0.0016006402
0.00062862213 -0.0028865566 0.0011401309 -0.002429755 -0.0020185823 -0.0012266659 -7.8576464e-05 -0.0031723126
-0.0009331682 -0.0006164353 -0.0013253327 0.00089730095 0.0023070623 -0.00236523 -0.000439977 -0.0017966687
-0.0008710195 0.0027126197 -0.00040319687 0.0014571863 9.277834e-05 -0.00047320517 -0.0015388026 0.0031555055
0.00032787185 0.0011981309 0.0037807878 -0.0022801065 0.001177193 -0.0012680949 0.0011895488 -0.00021085994
0.0040553273 0.0016056099 0.00088238023 0.0011420565 0.0013185809 0.0003741453 -0.0010499086 0.0013305855
-0.0041836933 0.0015357112 -0.0012176898 -0.0011394119 -0.000458074 -0.00023742141 -3.380099e-05 -0.0016678588
-0.002215186 0.0009786205 0.0052448623 -0.002937802 -0.0047403905 0.0015549908 -0.0029514357 -0.0021661075
0.004485759 0.0029220048 0.004399934 -0.0028109595 -0.0026166418 0.0050149583 -0.00030730467 -0.00019654275
-0.0010368451 -0.0014975559 0.0008673054 0.0041893567 -0.0029388804 -0.00082448026 -0.0002887487 0.0024946202
-0.0028860269 0.00047428074 0.0008236574 -0.0042417343 -0.004887325 0.0020007133 0.0034162153 -0.0013788606
-0.23055004 0.09553395 0.2023776 -0.15489694 -0.17550676 -0.03298547 -0.24014017 -0.23552218
0.17286448 0.17831853 0.22642092 -0.24001369 -0.1675676 0.11086455 0.24056233 -0.21446708
-0.020388598 -0.16237912 0.23430276 0.165903 -0.16070361 0.061801 -0.22785076 -0.04311534
-0.22907071 0.23576927 0.1660524 -0.22953771 -0.08002084 0.14010787 0.23117612 -0.14503205
-0.3979849 0.36230254 0.38620389 0.24262078 0.07224461 -0.34565753 -0.40770626 -0.40171766
-0.023194784 0.38506398 0.40371493 -0.40277985 0.115600646 0.36331028 0.40784913 -0.39199343
-0.36076215 0.019020246 0.40295893 -0.1593918 0.089562304 0.35580653 -0.4009172 0.33435062
-0.39702788 0.40354478 -0.0008717321 -0.40165752 -0.38216835 -0.23339987 0.4025327 0.0002452421
-0.24297048 0.2656398 0.24198535 0.2191288 0.29978526 -0.24000055 -0.24703863 -0.24735641
-0.29700047 0.24503598 0.24426982 -0.24389161 0.20553616 0.2467947 0.24819511 -0.24898174
-0.2557982 0.34123963 0.24495831 -0.22921675 0.35373214 0.2411344 -0.2456368 0.24391767
-0.25088125 0.24793072 -0.32562235 -0.24672356 -0.2970372 -0.24434006 0.24483038 0.3494848

policy_net.6.bias f4 [21]
00000000: cf25 673e 0000 0000 0000 0000 0000 0000
00000010: 0698 2c3b 6794 733e 52e4 ce3e 90fc 7b3e
00000020: 1966 9c3e c60f b33e e981 b23e f026 153e
00000030: bca8 0cbe 9e8f 48be d3d0 29be 8cfd 5ebe
00000040: 419a 11be f774 56be 2967 64be b17c 23be
00000050: e437 42be
0.22573017 0.0 0.0 0.0 0.002633573 0.2378708 0.4040857 0.24608064
0.30546644 0.34972972 0.3486474 0.14565635 -0.13736242 -0.19586036 -0.16583566 -0.21776408
-0.14219 -0.20943056 -0.22304977 -0.15965535 -0.18966633

value_net.0.weight f4 [32, 770]
00000000: f4f4 96bd 3290 8ebd dea9 52bd 5683 01be
00000010: f2e9 203d 4951 95bb ac20 7fbd e842 273d
00000020: 4c5d 0cbc ba43 8c3c ef69 6b3d 7a58 d73d
00000030: 0f73 c1bd 5f05 79bc 5daf 353d 9043 75bb
00000040: 0250 613c 827d 073d c548 62bd 6010 393d
00000050: a503 863d f30b bcbe dccb 733d 0411 ff3c
00000060: 2580 4d3e f183 17be e28e 9e3c e72e 6bbd
00000070: 61d4 0cbe 12d8 633e 3493 d43a fe78 1ebc
00000080: 4acd 96bd abf0 94bc 8e8e 643b 1a07 a0bd
00000090: 4f87 6d3d 77c9 c43b 128e 26bc c58e c53c
000000a0: 7a8c 173d c033 b33d 2b4a 9abd f404 b93d
000000b0: eed8 c23d c514 a63d 631d 9bbe cdd6 39bc
000000c0: 4181 6fbd 0b60 823e bd6b c6bd 7d78 8abd
000000d0: 96d4 e1bd 388d 35be 1f82 c7bd c0f6 3fbc
000000e0: edcf 5e3b b741 643c 3f3f ab3c 77bd 19bc
000000f0: aff6 d3bc ee0e eebc 62a2 843d 1137 1bbe
00000100: 0b0e 0cbd f68f 69bd 8ffe 803d 1dc4 fc3d
00000110: 9cd8 4d3d b8ed a13d 9f39 55bd 023f 183e
00000120: 0578 d33d 8158 80bd f910 d5bd d3d5 4ebd
00000130: 8bc7 983b 12e2 3abe 9ace 5bbc b2df b2bd
00000140: fcf2 223d ac01 a73d 76fe 8b3d 8fb1 c13c
00000150: 67a4 be3d 5648 bd3b d81b 59bd 33ad 433d
00000160: a5c7 0cbe 918c 313c c55d 7cbc 92d2 fdbc
00000170: 26db 673d 2fbb 5c3c 136f 4abc 5dd4 4fbd
00000180: ac77 93bd 0670 0c3d 41d7 1a3e e438 fdbd
00000190: a37a 2abd 0248 d3bc 4428 0abe 0482 00be
000001a0: c6c1 a23d 96a8 2dbc 09b4 b43d 5422 323d
000001b0: 8ffd 6e3c 4f57 46bd d958 853d b166 963d
000001c0: 8c15 d43d b25c 813c baa7 a93c 9163 2c3c
000001d0: 11d6 1cbc 71ea efbb c7d9 643d 37a4 00be
000001e0: 66e6 083e 627a 8cbd bef8 4dbd 9e6c 59bd
000001f0: 25c4 2b3d 9ffe 31bd 7ad1 70bd 5c1a 01bd
00000200: 01f9 3a3e 334f 1cbe 951c 213d 6a4a 14bd
00000210: 42f7 213d 65df 64bc ea61 0abd 8f41 e5bc
00000220: 0b18 cb3b 223e 093c d7f2 8dbd ad60 96bd
00000230: ec7d 813c a6f4 6dbc 3a4f adbb 2dc0 b03d
00000240: f27e 41bd 15f0 273e 3b89 54be fe78 80bc
00000250: 48b5 5dbd c246 eb3c 259e 6cbd 2c06 95bd
00000260: 5b75 62bd 752b a93d f50e 82bd b0e2 093d
00000270: 262c 713d e6c4 07bc 0fa1 ef3b 1b5a 43bc
00000280: a46a 823d 0935 ac3b 113c bc3c c6ce cabd
00000290: c73c e93d 0a3b 5d3d c975 7ebb c0ec ca3c
000002a0: b57f 213d 1f4e aebd 8108 963a 3403 abbc
000002b0: 2ef9 b6bd 3e7b 953d 82c2 8a3c 56ed 10be
000002c0: 8e91 a5bc 72bb 063d bb38 28be 7bf9 563e
000002d0: ed80 8c3c cb66 1c3c 4d2c 433d f6e4 da3a
000002e0: b6ea 2dbe a68d 823c 394f 613d 5dc8 243d
000002f0: 5c0e ddbc fed9 cb3c 6073 873d 4b72 fbbc
00000300: e397 98bd f3aa 123d 9454 34bd 3d36 06bc
00000310: 63e3 29bd 71a3 843c c05f 5c3c 4e45 c73d
00000320: 69e1 03be 16ea 88bd 114c 3bbe c9dd dbbd
00000330: e6f7 18bd 8d15 223d fbac 2bbd cf04 2f3c
00000340: 887d c33d c183 07be 0504 95bc 17ca 393d
00000350: a0b1 d1bc fd57 f3bd 069e 863c fed0 a43d
00000360: e3cd e3bd d81a 633c 46d7 12bc 603e 81bc
00000370: 1bc3 a7bc c8f0 97bd 752d 2c3a 65e7 943d
00000380: 9c9c 60bd a27c c33c 6d62 6fbd b651 09bd
00000390: 5a5f 0cbe 7aaa 0d3d 2d2d e83b 7c2b 843d
000003a0: a32c c83c 7d41 bf3b 64fe 6bbd 1f6c 503d
000003b0: 5c83 9f3d 226f aabc 20d0 7bbd 8324 b5bc
000003c0: 783b c03c fd97 c2bc cee2 ffbd dc0f 8e3c
000003d0: cb0e 043e c2a0 6c3d 8794 1e3d 9686 873c
000003e0: 7c9e 83bc 28f9 9bbd 5857 c43d 395b 4bbd
000003f0: 2950 19bd 8bdf 853e 7b1f b0bd b88d 003e
-0.0737094 -0.06961097 -0.05143153 -0.12647757 0.039285608 -0.004556809 -0.062287018 0.04083529
-0.008567166 0.017122138 0.057474073 0.105149224 -0.09445774 -0.0151990345 0.044356693 -0.0037424304
0.0137519855 0.033078678 -0.05524518 0.045181632 0.06543664 -0.36727867 0.059520587 0.031136043
0.20068415 -0.14796425 0.019355241 -0.057417776 -0.13752891 0.22250393 0.0016218186 -0.0096724015
-0.073633745 -0.018181166 0.0034875008 -0.078138545 0.05799037 0.006005462 -0.010165708 0.02411593
0.036999203 0.08750105 -0.07533678 0.09034148 0.09514032 0.0810943 -0.30295858 -0.011342716
-0.058472876 0.254639 -0.09688518 -0.067612626 -0.11026876 -0.17729652 -0.097416155 -0.011716545
0.0033998445 0.013931683 0.020904182 -0.009383551 -0.025874464 -0.029059853 0.064762846 -0.15157725
-0.03419308 -0.057022057 0.06298553 0.12342093 0.050255403 0.079066694 -0.052056905 0.14867786
0.10325626 -0.06266881 -0.10403628 -0.050496887 0.0046624593 -0.18250301 -0.013415957 -0.08734073
0.03978251 0.08154616 0.06835644 0.023644237 0.09308701 0.0057764454 -0.05300507 0.047772598
-0.13748033 0.010836736 -0.015403216 -0.030984197 0.05660548 0.013472362 -0.012355584 -0.050739635
-0.0720056 0.03428652 0.15121175 -0.12364367 -0.04162086 -0.025791172 -0.13491923 -0.12549597
0.079471156 -0.010599276 0.088234015 0.04348977 0.01458682 -0.048423108 0.06511087 0.073438056
0.10355672 0.01579127 0.020709861 0.010521785 -0.009572522 -0.0073216488 0.05587175 -0.12562643
0.1336914 -0.0685928 -0.050286047 -0.0530821 0.041935105 -0.043455716 -0.058793522 -0.03151928
0.1825905 -0.15264587 0.0393339 -0.03620378 0.039542444 -0.013969277 -0.033784784 -0.027985362
0.0061979345 0.00837663 -0.06931084 -0.07342658 0.015807115 -0.014523661 -0.0052889856 0.086304046
-0.047240205 0.16400178 -0.20755474 -0.015682694 -0.05412796 0.028720263 -0.057768006 -0.07276568
-0.0552877 0.08260242 -0.06350509 0.03366345 0.058879994 -0.00828669 0.007312901 -0.011923338
0.06367996 0.0052553457 0.02297786 -0.0990272 0.113885455 0.054011382 -0.003882753 0.024771094
0.03942843 -0.08510994 0.0011446626 -0.02087555 -0.08934246 0.07298897 0.016938452 -0.14153036
-0.020211007 0.032893606 -0.16427891 0.20993607 0.01715132 0.009545992 0.04764967 0.0016700316
-0.16984066 0.015936684 0.055007193 0.040230144 -0.026984386 0.02488422 0.06613803 -0.030694148
-0.07450845 0.03580756 -0.044025972 -0.008191642 -0.04147662 0.016191216 0.013450563 0.09730016
-0.12878956 -0.06685273 -0.18290736 -0.107356615 -0.03734579 0.039571334 -0.041913014 0.010682299
0.095454276 -0.13233854 -0.018190393 0.045358744 -0.025597394 -0.11882017 0.016432773 0.080476746
-0.11123254 0.0138613805 -0.008962458 -0.015776813 -0.020478776 -0.07418972 0.0006568053 0.072706975
-0.054836854 0.02386314 -0.058443476 -0.03352519 -0.13708249 0.034586407 0.0070854635 0.064536065
0.024435347 0.0058366642 -0.057615653 0.050884362 0.07788727 -0.020804945 -0.06147778 -0.022112137
0.023465857 -0.023754114 -0.124944314 0.017341547 0.12896268 0.057770498 0.038715865 0.016543668
-0.016066782 -0.07615882 0.09586972 -0.049647544 -0.037429962 0.26147112 -0.085997544 0.12554061

value_net.0.bias f4 [32]
00000000: e772 76bd 6fcb 5f3d fd85 4ebd 59e0 273d
00000010: b1bd 3cbd 2a20 443a a41b 7cbd eed4 453d
00000020: 2209 72bd c792 7cbd 2055 863d ccd8 703d
00000030: 60ac 3c3d 34f7 b33c bcbf c5bc 1a27 3e3d
00000040: 3f00 483d 3f34 2d3d ad25 74bd 8188 a2bc
00000050: 32cb e03c 139c c3bd 74ca 323d 19af 3dbd
00000060: cbba 253d 8426 843c d2d3 d4b7 1482 b4bd
00000070: b907 80bd f2b9 353c b1f2 023d 1b81 503d
-0.060168173 0.05463737 -0.05042075 0.04098544 -0.04607934 0.00074815995 -0.061549798 0.04829877
-0.05909074 -0.061663415 0.06559205 0.058800504 0.046062827 0.021968462 -0.024139278 0.04642401
0.04882836 0.042286154 -0.059606243 -0.01984048 0.027440641 -0.09551253 0.043650106 -0.046309564
0.040461343 0.016131647 -2.5371006e-05 -0.08813873 -0.06251473 0.011091696 0.03196973 0.050904375

value_net.2.weight f4 [32, 32]
00000000: a5ab 8bbe 6790 93bd 858e 9c3d 8d59 ccbe
00000010: 2e2f 1c3e 5ed9 b6be 02c3 99bd ae23 af3e
00000020: 9a72 babe 81c8 f6be 3a7e 8cbe b981 b53e
00000030: 7862 99bd 5dc9 14be 06a6 273e 4421 593c
00000040: 85c0 183e ca26 6abe 271a 55be 9ace c03e
00000050: bf63 97bd f980 db3d a732 f03e c90d 233e
00000060: e06a 4e3e 86ea 833e fbba 003e 4b79 853e
00000070: b5b9 d6be d15f fdbd 91ac fb3e 37f1 cfbe
00000080: 3643 01be 0603 2e3f 2b56 f9bd b8c5 56be
00000090: 75f4 093e ac2a a9be b3f3 ca3d 76a4 543e
000000a0: 461d 8b3e adfd e1be 707b 8c3c 79ef de3d
000000b0: 0d95 0fbc 883c 28be 50c9 91bc c90c 633e
000000c0: aad4 653d 9a7c 833e 5698 643e 4d3e da3d
000000d0: 2e9f 163e ea86 a13e 9697 66be 9c08 0fbe
000000e0: 1d7b a23e b51b 303f ccbf 513e acd1 aa3e
000000f0: 87db f73e faa9 83bc aaf3 843e 2bf0 783d
00000100: 77a6 8dbd 3496 05be 0ad0 9f3c 3c6c 873e
00000110: b077 473e 2b27 22bc e88a b63e 1a06 2fbd
00000120: 2653 f0bc 362b 983d 9fe2 053d 8886 853e
00000130: 712a adbe 15c3 073e aef2 53be f89e 90be
00000140: 6497 01bc 85dc d4bd fcd4 70bd 5866 53bf
00000150: 312d b7be 7c64 003f 3d4d 933d b32b f33d
00000160: 34d2 7ebe 1e9d 123f 6725 b1bd 22b3 0e3f
00000170: 03f4 543e 74c9 833d f917 263e 4ab3 623e
00000180: bc9c 873e a9f1 50be f09e 953e 8083 fa3d
00000190: d205 92bd 4583 073c b23b 4c3c 9cb5 14be
000001a0: 7eca cebe bbda 523e a981 853e c9ad ecbd
000001b0: 2c3d 69be c9a6 833d 057a cbbe 0ae3 da3c
000001c0: d6a3 433e 566a 973e 6814 b73d 9b87 c73e
000001d0: e624 fb3c f04c f83d 89ff d93e 2d53 c1be
000001e0: 11f9 0cbf a7b9 193e 6632 f03e 677f 643c
000001f0: 83ca 35bb f01c e8be c1f4 e2bc 0d49 e53e
00000200: d7c9 3fbe b32d e23e 8f15 dcbd 6c81 f73d
00000210: 6161 75be 4cac 803e ea60 8b3e 7ab1 763e
00000220: 5e00 a03c 3f0a 9fbe e9c7 003f a6f8 6a3e
00000230: 8b54 ec3e 3985 0b3e db09 863c b650 46be
00000240: e5aa aa3e d201 db3e f3f8 433e 83c5 013e
00000250: 97ca 3a3e 4739 40be 49b7 06bf 2581 da3e
00000260: a257 13be 2fc3 9c3e f803 5e3e f092 ab3d
00000270: 317f febe 4123 68be b5b0 09be 60cb 1abe
00000280: f8c0 113e a99c 8f3e 6967 91bd 0e2c bebe
00000290: dd1f aabe 43a9 b2bd 982c f2be 0fbc 633e
000002a0: d809 03bf 2433 29be 7d1d e0ba 8944 52be
000002b0: f65a 173f 081f a6be c08e 2abe a1e9 04bf
000002c0: 48c9 223e e976 3b3e c5ad babe a480 94be
000002d0: beca f83b c35d 233f 4085 6b3e 6362 54be
000002e0: ccb6 e23d 75ab 0abe 683f 173d 8cf0 9fbe
000002f0: 4072 4cbe 0796 aa3e 62ba 8a3e 1260 b23d
00000300: 3260 b2be aaba 52be 652c e53d de2e b1be
00000310: ef89 a3be 3d81 8bbe 4b05 62be 2699 023f
00000320: 5e3d 88be 9a7a e03d 278e 353d fe00 2fbe
00000330: 0ffd 843e ac39 79be fb1f 533d c40b 663e
00000340: 639e e0be ba53 a23e 6d4c 91be bbd3 c2be
00000350: 8d70 0ebf a752 a0be 46ab a8bd 8941 f2be
00000360: 5e4e 1b3e 2c63 3a3e 1ee8 3a3e 1460 1e3e
00000370: 14d2 d6bd 3c27 7f3d 79f5 c2bd 01c4 543e
00000380: 4639 2fbf cb24 fbbd bf36 adbe 8dbc 9f3e
00000390: 41a3 f13d ec79 f73c ad4a 8d3d 3add 9e3e
000003a0: 1e7a d23d 355b 93be 7e4f f3bd c2a6 2dbd
000003b0: 65c9 d7be f9f4 9ebe c776 9b3e 7e5e debd
000003c0: 73b4 773d 5fcf 313f 8539 5bbe edd2 4abd
000003d0: eca8 123f e5ca 413e 8e22 e13d 7f72 c93d
000003e0: 9c85 8d3e 5215 d9be 0812 63bd efb8 26be
000003f0: 7b60 35bd 12e5 4cbe 97c8 c7bd 4b92 0e3d
-0.27279392 -0.07205277 0.07644371 -0.39912072 0.15252373 -0.35712713 -0.07507898 0.3420691
-0.3641556 -0.48199847 -0.27440053 0.35450533 -0.074894845 -0.14529939 0.16371927 0.01325256
0.1491719 -0.2286636 -0.20810758 0.37657624 -0.07392072 0.10717959 0.46913645 0.15923227
0.20157957 0.25764865 0.12571327 0.26069102 -0.41938558 -0.12371791 0.49155095 -0.4061372
-0.12623295 0.67973363 -0.12174638 -0.20973861 0.13472159 -0.3304037 0.09909763 0.20765862
0.2717077 -0.44138852 0.017148703 0.108855195 -0.008763564 -0.16429341 -0.017796189 0.22172846
0.056111015 0.25681 0.22323737 0.10656414 0.1470916 0.31548244 -0.22518763 -0.13968128
0.31734553 0.6879228 0.20483321 0.33363092 0.48409674 -0.016072262 0.2596715 0.060775917
-0.06916516 -0.13045579 0.01950838 0.26449764 0.19479251 -0.009897034 0.35652852 -0.04273043
-0.029336523 0.07430117 0.032686826 0.26079202 -0.33821443 0.13258012 -0.20698044 -0.28246284
-0.0079096295 -0.10393623 -0.058796868 -0.8257804 -0.35776666 0.50153327 0.071924664 0.11873569
-0.24884874 0.5727099 -0.08649712 0.55742085 0.20796208 0.064349085 0.16220082 0.22138706
0.26486766 -0.20404686 0.29222822 0.12232113 -0.071300164 0.008271043 0.012465404 -0.14522403
-0.40388864 0.20591252 0.26075485 -0.115565844 -0.22777241 0.06428296 -0.3974153 0.026719589
0.19105467 0.29573315 0.08939439 0.38970646 0.030657243 0.1212405 0.4257777 -0.3775877
-0.55067545 0.15012227 0.4691345 0.013946391 -0.0027739115 -0.45334578 -0.027704598 0.44782296
-0.1872934 0.4417549 -0.107462995 0.12085232 -0.23962928 0.25131452 0.27222377 0.2409114
0.019531425 -0.31062505 0.5030504 0.22946414 0.4615825 0.13625039 0.016362121 -0.19366726
0.33333507 0.42774826 0.19137935 0.12673001 0.18241344 -0.1877185 -0.5262342 0.42676654
-0.14388898 0.30617663 0.21681201 0.083776355 -0.49706414 -0.22669698 -0.13446315 -0.15116644
0.14233768 0.2804921 -0.07099802 -0.37142986 -0.33227435 -0.0872369 -0.47299647 0.22239707
-0.51186895 -0.16523415 -0.0017098632 -0.20533957 0.5912317 -0.3244555 -0.16656017 -0.5191899
0.15897095 0.1830708 -0.364607 -0.29004395 0.007592528 0.63814944 0.2300005 -0.20740657
0.11070022 -0.13541968 0.036925703 -0.3123821 -0.19965458 0.33317587 0.27095324 0.0870973
-0.34839016 -0.20579019 0.11190108 -0.3460607 -0.31941172 -0.27247038 -0.22072332 0.51014936
-0.2660932 0.109608844 0.04432502 -0.17090222 0.25974318 -0.24338406 0.05154417 0.22465426
-0.4387084 0.31704503 -0.2837862 -0.38052163 -0.5564049 -0.3131306 -0.08235793 -0.47315624
0.15166613 0.18201894 0.18252608 0.15466338 -0.10489288 0.062293276 -0.095194764 0.20777895
-0.6844677 -0.12262877 -0.3383083 0.3119854 0.11798716 0.030209504 0.06899009 0.31028157
0.10277198 -0.28780523 -0.11880396 -0.04239536 -0.4214584 -0.31046274 0.30364057 -0.10857867
0.060474824 0.6945705 -0.2140866 -0.04951756 0.57289004 0.18925054 0.10992919 0.098362915
0.27640998 -0.4239908 -0.055437118 -0.16281484 -0.044281464 -0.20009258 -0.09755056 0.034807485

value_net.2.bias f4 [32]
00000000: b38d 0f3e e52c 883c 9be8 d3bc 3d44 063c
00000010: b3a2 513c bec5 3f3e 57c7 3a3e ab8c 0dbc
00000020: d13d 7b3d 7652 fa3d 6b3d d43c 7f9a be3b
00000030: fb8c 8d3c 6b05 a53d b9ff a03d bf01 edbd
00000040: f728 1c3e aa30 a5bb fbdb 3abd 02f4 003e
00000050: 74d0 bbbd cec4 3e3d 5d71 a4bd cc1b 1cbd
00000060: 5a76 f53d 346e 303d 37d2 d13d a333 8dbd
00000070: 5d9c ae3c 6381 143a 9e89 9ebd 3cfd 0bbd
0.14018898 0.01662297 -0.02586775 0.00819498 0.012795138 0.18727776 0.18240105 -0.008639495
0.06133825 0.122227594 0.025908193 0.005816757 0.017279139 0.08057674 0.07861275 -0.11572599
0.15250002 -0.0050412016 -0.045619946 0.12593082 -0.09170619 0.046574406 -0.08029435 -0.038112447
0.119854644 0.043073848 0.102451734 -0.068946145 0.021314794 0.0005665032 -0.07741092 -0.03417705

value_net.4.weight f4 [32, 32]
00000000: f22d d4be 7df8 1ebe 5fbc 08bf 1448 cd3d
00000010: baa8 51bd ea75 0b3e ef5d 6c3e 74c6 223e
00000020: a20e 82be f25e 553e 77c1 69be ae6e afbc
00000030: 53c1 59bd 3713 fc3d bc4d 043f ca1c 57bc
00000040: afde 853e fcb9 893d eb12 543e c743 ed3c
00000050: af46 ce3c 6f89 353e a4ab 353e 0823 cdbe
00000060: 9ae6 eb3e 7ebc 54be abd2 05be 5a21 93be
00000070: 1d85 c0be 90b1 b93e 3b57 bc3e aecf 9dbe
00000080: 49a6 52be e891 793e 15fa 183e 3490 833e
00000090: c9a4 edbe fe01 adbe 92c5 8e3d 57d2 d23e
000000a0: d105 6fbe 1ead e4bc 839e 75be 028a d1be
000000b0: 3e2c 1ebf 930c d0bc 1d74 46be cb9a ad3d
000000c0: 880b dbbe a280 87be 9295 adbc 8285 84be
000000d0: 633b 8f3e 7133 6f3e a4ad b33e b80f 8f3d
000000e0: 517c 81be 21c5 5cbc 61e7 cf3c 4ebc d1be
000000f0: f519 953e b669 f83d cd70 d53d f2e0 cc3e
00000100: 1ef1 d9be 6a14 d53c dd34 c23e 9398 213d
00000110: 50bb 123d a99f a13c 2c67 2abe 9393 8ebe
00000120: 3be4 5a3e 4784 303e a1ae a7bd e591 b0bc
00000130: 7917 b5bb 3542 ed3e c21a 29be b83d ecbd
00000140: 6ca8 1bbe b80e b1be 15c6 233e 1522 1f3f
00000150: de87 0cbe 9a04 003e 516e be3e f6b7 ea3d
00000160: dd5f 7fbd 088c 8dbd a47d 57bd f31a 0d3d
00000170: 34ca 9abe 589e 0c3f 9b1d 9b3e 09d7 0bbd
00000180: 93a6 80bd f0e4 8f3c a47e 3e3f d6e6 0f3d
00000190: d371 943e 1747 a5be 5df9 64be 64f3 b63e
000001a0: 3914 9ebe 119a aebe be26 333e e942 943d
000001b0: 0920 ec3e 256c 3fbe 5f7d e7be 591e 963e
000001c0: bca0 5bbe 49b2 a83e ff7c ba3e 1aa3 0bbf
000001d0: b488 ffbe 3278 9abd 9e8e 85bd 7709 fa3d
000001e0: 2dd4 7c3e 98cf 19be 6491 bebe 447b 1a3e
000001f0: 3289 5fbe 0370 40be 6777 6d3e 6c5a 983e
00000200: 3d4b 733e 98b9 4ebe 7151 1f3e 78fa b6bb
00000210: 5879 903e 741c 34be b2f3 493d 57ff b43d
00000220: d316 043f c0c6 cfbd 9be8 19bd 902b 6bbe
00000230: effc 8c3d 89fa ab3e c22f 243f 9cfe 2c3e
00000240: f967 a43d 5719 9bbe 357a cbbb c643 e23e
00000250: 94ea 1e3c be55 b0bd ec4e c53d 3fc6 91be
00000260: baa3 b83e ee13 cfbd 2343 7a3e 364e b2be
00000270: 8666 303e 1914 80bd 3a16 d1be b922 dc3e
00000280: 1246 7abd 7b76 053e 7fa4 89bd cdaa cfbc
00000290: b554 053d 073b 073f d1c0 363e 005f 9fbd
000002a0: 5547 22bd 4948 c93e d072 aabd 52cc 393f
000002b0: e8f6 f9bd 96c5 3e3e 6ed8 883e 22b8 923d
000002c0: ccc0 8a3d 866b e0bd cc25 3e3e c93c cf3d
000002d0: be13 ad3d b7b7 95be c8a9 a9bd 298a debc
000002e0: c967 debe 4e4c 093f d2a5 f53e b391 20bf
000002f0: 7856 8bbe 6cd9 1cbe 9fe7 1f3e 4a6d da3d
00000300: 30bc eebe 4cb7 90be d43d 1a3e 0a40 c73e
00000310: 3a0a ae3e 9302 56be 91b3 53bc 3425 92be
00000320: e2a3 4bbe ab37 0dbf a46a 4ebe aef8 af3d
00000330: 0b7f 863b 6140 903d bc45 e23b 6931 183d
00000340: 6763 6e3d 1f4f 733e 7e41 afbe 6897 213e
00000350: 9612 b73e abd0 b0be 64c5 f7bd cc01 98be
00000360: 6c89 b7be f00f 18be c375 6a3e 92ce 4cbb
00000370: 8ba4 8a3e 46df 36bd 138a 753e 18b3 ae3c
00000380: ac34 d13e bad8 38bc f854 973e 0851 69be
00000390: c38a c3be 3fef a2be e456 c3be 857d 1bbf
000003a0: 1ee4 adbe cea7 0a3c 6419 c3be f2e0 e93e
000003b0: 1d8e 493e 5d76 773e 41ec 9f3e c8d4 c1bb
000003c0: 5a3d c7bc f454 353e 065c 9dbd d8c8 b3be
000003d0: 2554 003f 58b3 f13d 3425 e03d e8a9 79bc
000003e0: 72d5 aa3d 9550 ce3d ee6d 9f3a e364 1d3d
000003f0: f26e 363e 52d0 043e 9e4c 953c 7c65 acbd
-0.41441303 -0.15524478 -0.5341243 0.100235134 -0.0511863 0.136192 0.23082708 0.15896016
-0.2540179 0.20837 -0.22827707 -0.02141508 -0.053162884 0.123083524 0.51681113 -0.013129422
0.26146457 0.06724927 0.20710342 0.028962983 0.025180189 0.17728208 0.17741257 -0.4006579
0.46074373 -0.20775029 -0.13068645 -0.28736383 -0.37601557 0.36268282 0.36785302 -0.3082251
-0.20571245 0.24372065 0.14939149 0.25695956 -0.46414784 -0.33790582 0.06971277 0.41176102
-0.23342063 -0.02791458 -0.23986249 -0.40925604 -0.6178626 -0.02539662 -0.19380231 0.0847679
-0.42782235 -0.26465327 -0.021189485 -0.25883108 0.27974996 0.23359467 0.35093415 0.0698542
-0.25290158 -0.013474734 0.025378885 -0.40963978 0.29121366 0.12129538 0.10421906 0.4001537
-0.4256677 0.02601071 0.37930956 0.039452147 0.035823166 0.019729452 -0.1664092 -0.27846965
0.21376126 0.1723796 -0.08187605 -0.021553943 -0.00552648 0.46339574 -0.16514114 -0.115352094
-0.15200967 -0.34581542 0.15993531 0.6216138 -0.13723704 0.12501755 0.3719354 0.11460869
-0.06234728 -0.069114745 -0.052610055 0.03444953 -0.30232394 0.54929113 0.30296025 -0.03414062
-0.062817715 0.01756522 0.7441199 0.03513225 0.2899309 -0.322808 -0.2236075 0.35732567
-0.30874804 -0.34101918 0.17495248 0.072393246 0.4611819 -0.18693598 -0.45212838 0.29320028
-0.21448034 0.3294852 0.3642349 -0.5454575 -0.49908984 -0.07542457 -0.06521343 0.122088365
0.24690314 -0.15020597 -0.372203 0.15086085 -0.2182968 -0.18792729 0.2319008 0.29756486
0.2375917 -0.20187986 0.15558411 -0.0055840574 0.28217578 -0.17588979 0.04930467 0.08837765
0.51597327 -0.101453304 -0.037575345 -0.22965837 0.06884181 0.3358958 0.6413537 0.16894001
0.08027644 -0.3029277 -0.0062096366 0.44192332 0.0096994825 -0.08610104 0.09634194 -0.28471562
0.36062413 -0.10111223 0.24439673 -0.34825295 0.1722661 -0.06253833 -0.4083727 0.4299524
-0.06110198 0.13033478 -0.06720828 -0.025349999 0.032551486 0.52824444 0.17846991 -0.07781792
-0.03961881 0.39312962 -0.0832268 0.72577393 -0.12205297 0.1863006 0.26727623 0.07164027
0.06775054 -0.109580085 0.18569106 0.10119016 0.08451031 -0.29241726 -0.08284336 -0.02716549
-0.43438557 0.53632057 0.47978073 -0.6272232 -0.27214408 -0.15317315 0.156157 0.106653765
-0.4662795 -0.28264844 0.15062648 0.38916045 0.33992177 -0.2089942 -0.01292123 -0.2854401
-0.19886735 -0.5516307 -0.20157868 0.08592354 0.0041045 0.07043529 0.0069052856 0.037156496
0.058200266 0.23760651 -0.34229654 0.15780413 0.35756367 -0.345342 -0.12098196 -0.2968887
-0.35847032 -0.1484983 0.22896485 -0.0031251055 0.2707866 -0.044646524 0.23978452 0.021325633
0.40860498 -0.01128214 0.29557014 -0.22784817 -0.38191804 -0.31823155 -0.3815223 -0.607384
-0.33963102 0.008462859 -0.3810531 0.45679432 0.19683118 0.24166246 0.31234935 -0.005915258
-0.024321247 0.17708188 -0.07683568 -0.3511417 0.50128394 0.11801785 0.10944596 -0.015238263
0.08341493 0.100739636 0.0012163499 0.03842629 0.1781576 0.12970093 0.01822501 -0.08417794

value_net.4.bias f4 [32]
00000000: 6b33 0dbd 2131 e9bd f760 cd3d f722 9dbe
00000010: 585e 7f3d 4981 1b3e 4dd0 e1ba f2b5 073d
00000020: ab4d ae3d 55a7 183e 2933 223d 1509 87bd
00000030: b38e 00bd 2b91 b0bc 67a7 04bd 147a 7e3e
00000040: 2373 80be 306d 38bd 07f0 a63d 79a4 afbb
00000050: 2f2b 97bd a8d0 883e 5ea6 d9bc 5db4 613c
00000060: 6237 7f3d f00f d1bc ada8 49be 0e92 263a
00000070: 5587 0d3c 663e 01bc a26a f5bc 6ed9 95be
-0.034472864 -0.11386324 0.1002826 -0.3069074 0.062345833 0.15186037 -0.0017228216 0.0331325
0.08510908 0.14907582 0.03959957 -0.06593529 -0.03138609 -0.021553596 -0.03238621 0.24851257
-0.25087842 -0.045026004 0.0815125 -0.005360183 -0.073812835 0.26721692 -0.026568588 0.013775912
0.062308677 -0.025520295 -0.19693251 0.00063541613 0.008638223 -0.007888412 -0.029958073 -0.29267448

value_net.6.weight f4 [1, 32]
00000000: d1b8 113e 0775 823e d7ca aa3b 2f1c a23e
00000010: 197a 8a3c 53ed ddbd 7cfb 44bd 24a0 08bd
00000020: 2b71 52bd 692a 35be 847e 23be c9b4 2a3d
00000030: 7ef2 8bbd a638 0a3a d6b4 1e3e 9f24 b3be
00000040: 3725 503e 34e7 8d3e 5afd 00bc 6516 ae3e
00000050: e81a 343e a2db 41be 08f1 703e 0943 813d
00000060: f3ad 67be 80b5 9ebd 9404 8f3d a34b ecbb
00000070: 43ef 553d 5873 83bc 2363 b73c d697 ca3e
0.14230658 0.2547991 0.0052121687 0.31662127 0.016903924 -0.108362816 -0.048091397 -0.033355847
-0.051377457 -0.1769196 -0.1596623 0.041676316 -0.06833361 0.00052727235 0.15498671 -0.34988877
0.20326696 0.27715456 -0.007872904 0.3400146 0.17588389 -0.1893144 0.23529446 0.06311614
-0.2262495 -0.07749462 0.06983295 -0.007211165 0.05223013 -0.016046211 0.02238614 0.39568967
