MAPPO/Only_C/save/SY_4_T1/agent_9_OC_c.pt (torch, 127818 bytes, 15 tensors)

policy_net.0.weight f4 [32, 26]
000000 9e b2 30 bd a1 90 db 3d f4 57 b7 3e 1d 44 ec 3e
       -0.043139093 0.10720945 0.3580929 0.46145716
000010 ce a0 b5 be bf e9 d7 3e 7b 5f c7 be 8b 6f 60 3e
       -0.35474247 0.42170522 -0.38940033 0.2191755
000020 07 eb d1 3e ff a5 24 3f 51 d5 24 bf 1a 0b 10 bc
       0.40999624 0.6431579 -0.64387995 -0.008791709
000030 3a ab 88 bd 32 5f f2 bd bd b2 b6 be ba 2e 12 be
       -0.06673284 -0.11834563 -0.3568324 -0.14275637
000040 9f 3a 8c be e0 82 89 3e f0 ae 3d be df 1c 97 bd
       -0.27388474 0.26857662 -0.18523765 -0.073785536
000050 e8 99 03 3e 26 61 0d 3c e4 66 96 3d 45 75 31 3e
       0.1285168 0.008629119 0.073438436 0.17329891
000060 a9 46 83 3e cb 58 d7 be 6b 6f 89 3e ab 4d 4b be
       0.25639847 -0.4205993 0.26842818 -0.19853847
000070 36 db 03 3d 93 67 6f 3e 60 55 70 be d4 39 93 be
       0.032191478 0.23379354 -0.23470068 -0.28755057
000080 f2 93 a8 be 47 56 d8 bd 59 06 e1 bd c8 7c 99 3e
       -0.32925373 -0.10563331 -0.10987539 0.29978013
000090 eb bb 17 bd 2f 39 99 be b2 89 c8 3b 47 5d 10 be
       -0.037044447 -0.2992644 0.00611993 -0.14098082
0000a0 c0 09 f9 3e cd f7 82 be 2e eb 37 bd 4f 3c 32 bc
       0.4864025 -0.25579682 -0.04490202 -0.0108786365
0000b0 dc a7 37 bf ac 06 75 be 3f 72 d4 bc 85 b2 8f bd
       -0.7174051 -0.23928326 -0.025933383 -0.07016472
0000c0 86 fa 90 3e 29 23 0e bc d4 af b1 bd 7d 96 69 be
       0.28316134 -0.008675375 -0.08676115 -0.22811313
0000d0 be 07 27 3e 64 75 7f 3d e2 a5 00 3d 68 ad 9b be
       0.16311547 0.06236781 0.0314082 -0.30405736
0000e0 57 58 2a 3f a4 03 be be 63 ab ce bd 01 9c 39 be
       0.66541046 -0.37112153 -0.10091283 -0.18125917
0000f0 46 06 8b bd a9 98 ec be 75 f3 6f 3e 4c a9 12 3f
       -0.06788306 -0.4621022 0.23432715 0.57289577
000100 2d 70 d9 3e d6 40 50 3e 80 11 94 be e0 9f 47 3d
       0.42468396 0.20337233 -0.289196 0.048736453
000110 7f 17 62 bd 1b 3d ad bd 7b 8d 02 bf f6 8b 5a be
       -0.05519819 -0.084589206 -0.5099713 -0.21342453
000120 d3 e8 55 3e 0b e1 15 3e 7c b9 a0 3c 4a 8e 62 be
       0.20889597 0.14636628 0.019619696 -0.22124591
000130 33 37 e4 3d 1e 8c ce 3d 27 b5 0c be c4 71 d1 bd
       0.11143341 0.10085319 -0.13740979 -0.10226777
000140 1b 0d 4b be 9b 76 1b bd 75 6c 0b bf ab d4 a8 bd
       -0.19829218 -0.037954908 -0.5446237 -0.08243688
000150 97 43 9b 3e 11 6e 16 be 77 90 38 3e 9d 85 62 3e
       0.30325004 -0.14690425 0.18023859 0.22121282
000160 4d 8f b5 be 3b 4f b7 3e 71 00 a4 3d 78 f4 57 3c
       -0.35460892 0.35802636 0.08007897 0.0131808445
000170 8a 52 b7 3e 34 81 a3 be 2f 1f 34 3e e4 81 6c be
       0.3580516 -0.31934512 0.1759002 -0.23096424
000180 4c 9b a0 be ee 86 1e be 42 64 69 3e 2b ff d5 3e
       -0.31368482 -0.15481159 0.22792152 0.4179624
000190 3d 68 17 be ae a2 f5 3e 55 13 7e 3c 53 aa c4 bd
       -0.14785857 0.47975677 0.015507539 -0.09602799
0001a0 b8 78 ed bc ed 13 05 3e fe 73 9d bd 46 1d 98 3e
       -0.028988227 0.12995882 -0.076881394 0.29709834
0001b0 38 76 b5 be 73 26 3f be 06 cb a6 bd 57 1b a1 be
       -0.35441756 -0.18667011 -0.081441924 -0.3146617
0001c0 fc 5d e8 bd 66 db d3 3d de c8 76 bf 8c 16 32 be
       -0.11346051 0.10344581 -0.9640025 -0.17391413
0001d0 73 a4 d9 3e 8b c7 03 3c 5e ca 4d be 54 5a 5c be
       0.42508277 0.00804318 -0.20096728 -0.21518832
0001e0 0a 4f 20 be 2f 4f d7 3d 3c 9a 87 3d c8 06 ee 3e
       -0.15655151 0.1051315 0.06621215 0.4648955
0001f0 46 09 c4 be d9 4f 74 be 66 06 b6 be a8 01 25 be
       -0.38288325 -0.23858584 -0.35551757 -0.16113913
000200 fa ce 93 3e b4 fe 63 3d fa 16 87 3e 24 58 4b 3d
       0.28868848 0.055662826 0.26384717 0.049644604
000210 ff 38 c3 3e 39 5d cc 3e 48 bf c0 bc 6f 36 a8 bc
       0.38129422 0.39914873 -0.02352871 -0.020533768
000220 38 37 cb 3e 79 a1 8d 3e 2b 41 d5 bd 64 94 cc 3d
       0.39690566 0.27662256 -0.104128204 0.09989241
000230 c9 49 87 3e d0 e0 4d be 89 b8 85 bd 9f 1e 5b be
       0.2642348 -0.2010529 -0.06529338 -0.213984
000240 eb f1 9e 3e 1b ac ff 3c 96 47 6f be c1 98 bb be
       0.31043944 0.031209996 -0.23367152 -0.3663998
000250 ed 02 9e 3e 90 91 82 3e 6a f7 ed 3d b4 fa e1 3e
       0.30861607 0.2550168 0.11619456 0.44136584
000260 a9 a1 81 3e aa 3d 3b be d6 b3 8c 3e 96 67 9e be
       0.2531865 -0.18285242 0.27480954 -0.30938405
000270 54 6b b4 3e 89 39 a2 3e da 13 79 bd 3a 56 84 3e
       0.35238135 0.3168452 -0.060809948 0.25847036
000280 0f e7 8d 3e 8c 1f e5 3e 30 9c 9c 3e 8c 50 84 be
       0.27715346 0.4475063 0.30587912 -0.25842702
000290 35 6f 97 be cf 9b 7b 3f d1 b4 03 bf e3 32 56 be
       -0.29577032 0.9828462 -0.5144778 -0.20917849
0002a0 67 13 ba 3e 15 30 b2 3e 78 be 92 3d eb 27 ba 3e
       0.36342928 0.3480231 0.07165235 0.3635858
0002b0 83 76 49 bd e3 67 e8 3d 92 cc 87 3c ef ca 2f be
       -0.049185287 0.1134794 0.016577039 -0.17167257
0002c0 62 c6 4a 3e 34 48 54 3d a0 aa 1d be 4f 5b 6b 3e
       0.1980224 0.05182667 -0.1539712 0.2298405
0002d0 46 ca 64 be cf 2f 19 bd ed 9a ba be de 81 d8 bd
       -0.22342786 -0.03739911 -0.36446324 -0.10571645
0002e0 ca d2 12 bb 62 97 b1 3e 3e d0 09 bf 11 2f 86 3b
       -0.0022403472 0.34685808 -0.5383338 0.004094966
0002f0 69 6e c3 3d bd 6f 67 bd 2d bd 99 be a1 e4 bc 3e
       0.095425434 -0.056503046 -0.30027142 0.3689318
000300 bb 87 21 bf 78 07 0b be 0e 55 dd 3e b4 04 9c be
       -0.63097733 -0.13577068 0.43228954 -0.30472338
000310 7f ab 03 be 59 52 67 3e 1c e1 05 3f d4 bf 33 3e
       -0.1285839 0.22590007 0.52296615 0.17553645
000320 2a 48 54 be d3 7f 5b 3e 9c 33 86 bc 61 60 b1 3e
       -0.20730653 0.2143548 -0.016382031 0.34643844
000330 02 66 1d bd bc 15 a6 bc 88 0d 8d be d9 95 91 bb
       -0.03842736 -0.020274036 -0.27549386 -0.004442912
000340 27 ce 7e 3d 59 69 11 be a2 51 81 3e 14 7c f3 bd
       0.06220832 -0.14200343 0.25257593 -0.118889004
000350 7f e3 83 bd 65 91 8c 3e dc 80 fa bd 27 2f 7d be
       -0.06439876 0.27454677 -0.12231609 -0.24725018
000360 6f f1 22 be 39 dd 43 bf 3a b9 48 3e 74 07 96 3e
       -0.15912412 -0.76509434 0.19601908 0.2930256
000370 04 29 47 be 7d 74 95 be 68 6c 0d be 1a c7 24 bc
       -0.1944924 -0.29190436 -0.13810885 -0.010057235
000380 98 95 cf 3c 35 25 b7 3d d5 26 37 bd 94 12 98 3e
       0.025339887 0.089426436 -0.044714767 0.29701674
000390 ea 51 13 3f ee 38 d8 be 26 8e 56 3e 01 5e 84 3e
       0.57546866 -0.42230934 0.20952663 0.2585297
0003a0 76 5c ce 3d f8 30 d0 be 68 cd cc be 17 41 9d be
       0.10076229 -0.4066236 -0.40000463 -0.30713722
0003b0 54 bc dd 3e 5c ff b2 3e 36 29 3d bd cc ca 3b 3d
       0.43307745 0.3496045 -0.04618188 0.0458477
0003c0 e8 84 29 bd e2 ae 3d 3f 0b 2f be be 1e 0b 08 3e
       -0.041386515 0.74094975 -0.37145266 0.13285491
0003d0 27 4c b0 3d d6 b1 47 be a7 06 d1 3d fd 84 db 3d
       0.08608275 -0.19501433 0.10206347 0.10718725
0003e0 80 40 74 be 6e 64 c5 3c 5b c4 18 be a3 10 15 be
       -0.2385273 0.02409574 -0.14918654 -0.14557128
0003f0 54 ab 87 be e4 6c eb bd 38 51 01 3e 46 e7 a4 3d
       -0.264979 -0.114953786 0.12628639 0.080519244

policy_net.0.bias f4 [32]
000000 05 0b e4 bd ba f2 42 be 57 b9 c2 3d ee f4 42 bd
       -0.11134914 -0.19037905 0.09508007 -0.047596864
000010 c0 c6 23 be 10 43 b9 3d 64 a9 f4 3d 59 6b 84 bd
       -0.15993786 0.09045994 0.11946371 -0.064657874
000020 73 8b f4 3b 1d 0b 98 bd b3 a4 83 bd 77 e2 38 bd
       0.0074629127 -0.07423995 -0.06427898 -0.04513785
000030 a5 d7 d4 bd 3a 14 47 bd f6 91 38 3d d8 ef 37 3c
       -0.103926934 -0.048603274 0.045061074 0.011226617
000040 b5 3b 80 bd f3 f7 62 3c 09 ac 38 bd 7b 28 54 bd
       -0.06261388 0.013853061 -0.04508594 -0.051796418
000050 4a bd 49 bd f7 8a 48 bd b0 6c af 3c fe 47 50 3d
       -0.049252786 -0.048960652 0.02141413 0.050849907
000060 67 cf a1 3d 11 29 ef 3d 1f 4d aa bc 66 84 48 3d
       0.07900887 0.11677755 -0.020788727 0.04895439
000070 7e 34 19 be c0 07 56 3d 5c 6c 31 ba 1f 8e f3 bd
       -0.1496143 0.052253485 -0.0006768161 -0.11892342

policy_net.2.weight f4 [32, 32]
000000 03 3c cb 3d 82 2a 00 3e 03 71 81 3e fa 69 22 bf
       0.09923556 0.12516215 0.25281534 -0.6344296
000010 02 f2 8b be c3 00 8c be 0b 57 f4 be 37 21 18 3e
       -0.27333075 -0.2734433 -0.4772266 0.1485642
000020 4f 73 f3 3e 8d 04 4c 3e e4 fa d8 3e 67 8c 93 be
       0.4754891 0.19923611 0.42378914 -0.28818056
000030 3e 11 cf bb f0 e1 14 3e b2 c7 ba 3e d6 a3 6d 3e
       -0.006319194 0.14539313 0.3648048 0.2320703
000040 3f 10 47 3e 5d 07 93 be be e4 1f bf 52 2a 3a be
       0.19439791 -0.28716555 -0.6245841 -0.18180206
000050 55 f5 aa bd 9f a5 43 bd 1b c1 20 3e dc 54 a1 bb
       -0.083475746 -0.04776537 0.15698664 -0.004923446
000060 f8 24 88 3d c4 2a db 3d 66 0a a9 3e fc b6 61 bd
       0.06647676 0.10701516 0.33015746 -0.055106148
000070 c2 b3 e1 bd 85 fa 6e be d8 b1 87 3c 71 24 09 bf
       -0.11020614 -0.23337753 0.016564295 -0.5357123
000080 eb f0 cf 3e 23 68 86 be 64 28 db be 41 00 02 bd
       0.40613493 -0.26251325 -0.42804253 -0.031738523
000090 94 07 e0 3b 17 a3 ba be a6 92 89 3d 6d 5c d4 3e
       0.006836841 -0.36452553 0.06717424 0.41476765
0000a0 9d aa e8 bd ef 3d 02 3f 07 cb 08 3e df d5 35 3d
       -0.11360667 0.50875753 0.13358699 0.044393416
0000b0 c1 b0 fb 3e 65 22 a2 3e 0e dc 1a be 76 7c b0 bd
       0.4915829 0.31666866 -0.15123007 -0.08617489
0000c0 22 ca 26 be 46 7a f6 be 86 41 88 3e 95 a6 9c be
       -0.16288045 -0.48140162 0.2661249 -0.30595842
0000d0 41 65 af 3e b0 a0 0e be fb bf 93 be ac 11 2d bc
       0.34256938 -0.13928485 -0.28857407 -0.010563295
0000e0 2c 5e ef be 20 84 93 be 46 ce a5 3e c8 44 12 3e
       -0.46751535 -0.2881174 0.32383937 0.1428405
0000f0 66 59 88 3e 8f 7a 5a be aa 0e 8b be 41 f1 e3 3d
       0.26630706 -0.21335815 -0.27159625 0.1113
000100 90 15 f6 3d b7 85 17 be ed 47 4f be 5f c0 06 3e
       0.120158315 -0.14797102 -0.20242281 0.13159321
000110 72 7c 00 bf 1b 63 d4 3a 2a b6 20 3e fe 98 87 be
       -0.5018989 0.0016203852 0.1569449 -0.2648391
000120 19 50 c4 3e b4 22 f5 be 2f bb 96 3e 43 7f af be
       0.3834236 -0.4787804 0.29439685 -0.3427678
000130 d6 5c 0a be 3c 92 83 3e 98 9a 15 3e 8b 48 a3 3e
       -0.13511977 0.25697505 0.14609754 0.31891283
000140 bc 7d 58 be 0e da f7 3e 1c 61 0e be 3a 9f f3 be
       -0.21141714 0.4840855 -0.13904232 -0.47582418
000150 a1 51 b2 be 95 38 41 bd f1 18 7f 3e 03 6c 26 bf
       -0.34827903 -0.0471731 0.24911858 -0.6500856
000160 52 b3 2a be 22 8b 75 3e d7 4d ab 3d 43 07 f0 3e
       -0.16669968 0.23978856 0.08364456 0.4688054
000170 37 a6 2b 3e 3f 25 c0 3e 7f 98 9b 3e 93 05 e3 3d
       0.16762625 0.37528417 0.30389783 0.110850476
000180 89 36 1f 3e 68 b1 7c 3e 88 2b af bd 37 6d a0 be
       0.15548147 0.2467705 -0.08553225 -0.31333324
000190 f3 92 fc 3e 64 fd f6 be 5c e5 f3 3d 57 6b 15 be
       0.49330863 -0.48240197 0.11908981 -0.14591728
0001a0 d8 e2 62 bd f7 8e 40 bd c3 29 fa be 75 3b 97 3e
       -0.055392116 -0.047011342 -0.48859987 0.2953755
0001b0 26 d8 d8 3d f1 d7 e0 3e ae 89 89 be e6 e8 ff 3e
       0.10588102 0.4391475 -0.26862854 0.49982375
0001c0 11 80 1d be 5a 17 90 bc 99 7f 91 3e aa 03 92 3e
       -0.15380885 -0.01758926 0.28417662 0.2851842
0001d0 90 bf 24 3e 07 ad be 3d 86 d8 92 3c d5 e1 e8 bd
       0.160887 0.09310346 0.017925512 -0.11371199
0001e0 d6 e7 d6 be f6 2b f4 3e 60 b4 8a 3d 8c c1 a6 bd
       -0.41973752 0.4768979 0.06772685 -0.08142385
0001f0 8d 67 18 be 06 12 78 3e c0 81 fa bd 33 62 f7 be
       -0.14883251 0.24225625 -0.12231779 -0.48317108
000200 dd 8d f2 3e 57 5f 23 bd 60 4b c6 bd f6 f9 f2 3d
       0.47373858 -0.039885845 -0.096823454 0.118640825
000210 c9 11 67 be 5a d2 b5 3e 39 0d af be 21 79 0c 3e
       -0.22565378 0.35512048 -0.34189776 0.13718082
000220 fe ec cd bd cf 1b d4 be ee f6 04 3d 86 d8 ca be
       -0.10054968 -0.41427466 0.032462053 -0.3961832
000230 d4 3c 75 3e c3 33 07 bd 24 9b ff 3d 20 17 c1 3e
       0.23948985 -0.03300835 0.124807626 0.37712955
000240 37 0d b8 3d 22 d4 b5 be ea a6 1b 3c 25 59 1b 3f
       0.089868955 -0.35513407 0.009500245 0.606829
000250 66 0c b9 bd 06 08 7b bd a1 d1 96 3e bb 2f 85 3e
       -0.09035568 -0.06128695 0.2945681 0.26012978
000260 2f 3d 2e be 7f 69 5e 3d 28 0b ca 3e ea 65 fc bd
       -0.17015527 0.054299828 0.39461637 -0.12324126
000270 42 65 c1 3d cd 8f d0 bd 55 74 5d bd 6a 3e 0c 3f
       0.094431415 -0.10183678 -0.05406602 0.54782736
000280 ff 0f f4 bd e7 ad 94 be 4b 5e 9c bd 87 28 05 3e
       -0.119171135 -0.29038927 -0.076351725 0.13003741
000290 32 22 47 3e 0b 18 0c be 27 64 09 bf 3a fe 52 be
       0.19446638 -0.13681047 -0.53668445 -0.20604792
0002a0 c1 63 92 3d 12 ac 18 be 69 b4 72 bd 2d 68 68 3e
       0.07147933 -0.1490939 -0.059254084 0.2269599
0002b0 94 9f e2 3d d8 e0 f4 be 54 e6 3e 3e be 1f 57 3d
       0.11065593 -0.47827792 0.1864255 0.052520506
0002c0 7e c3 bc 3e 92 12 8f 3e 81 f2 d4 3e a2 3a 9a 3d
       0.368679 0.27943856 0.41591266 0.075307146
0002d0 de 4a a6 3e 62 7f 7a be 89 d9 6b be 91 81 10 3c
       0.32478994 -0.24462655 -0.23032202 0.008819954
0002e0 3c e2 1c be 4a ee d0 3d eb 0c 9b 3e 5e 01 b9 3e
       -0.15320677 0.102017 0.30283293 0.36133856
0002f0 b4 32 4f be 4b 60 f1 3e 03 28 d2 bd 94 11 db be
       -0.20234185 0.47143778 -0.10261538 -0.4278685
000300 6c d7 90 3d 42 77 f6 be 08 e8 cc 3e c0 1b 39 bf
       0.070723385 -0.48137861 0.40020776 -0.7230797
000310 cf 5c cc be 5c bc 8f bc 04 9e 9b be e8 83 6b be
       -0.39914557 -0.017545871 -0.30393994 -0.22999537
000320 8f 10 c8 bc b5 c0 5e 3c 46 5c 16 be 4a c0 27 be
       -0.024421958 0.01359575 -0.14683637 -0.16381946
000330 94 db 50 3e 43 d2 39 3d 06 52 ea 3d 97 21 f0 bd
       0.20396262 0.045366537 0.11441426 -0.11725157
000340 d5 fd eb be 8f ed 12 3e 19 c9 f5 bd e7 7a fa be
       -0.46092096 0.14348434 -0.12001247 -0.48921892
000350 d7 37 96 be 64 76 d5 be 70 7f bb be 70 49 95 3b
       -0.29339477 -0.41691887 -0.36620665 0.0045558736
000360 c9 7e 8c be 2a f5 78 3e 1d bb c3 be 9e e4 b7 be
       -0.2744048 0.24312273 -0.38228694 -0.3591661
000370 36 d9 01 bf 51 d7 8c 3e e2 8f 08 bc ad 1e d1 3d
       -0.5072206 0.27508023 -0.008335086 0.10210929
000380 45 c6 15 bf 4f 4b 64 3d 1a 99 71 be bc 1e cb bd
       -0.5850566 0.055735882 -0.2359356 -0.099179715
000390 90 61 09 bf f4 b8 b1 3b 94 72 cb bd bb 79 57 be
       -0.53664494 0.0054236595 -0.099339634 -0.2104253
0003a0 92 1e af 3e d7 65 b6 bd 2b 8c d9 be c2 58 43 bc
       0.3420301 -0.08906143 -0.42489752 -0.011923017
0003b0 e2 19 79 bd 86 1b 0e 3e a1 18 52 bd 60 2a 70 3e
       -0.0608157 0.13877687 -0.05129302 0.23453665
0003c0 2f c2 e6 3e 01 52 98 bd a7 dc da 3e ce 58 54 be
       0.45070025 -0.07437516 0.4274647 -0.20737001
0003d0 af 00 04 be a4 2c 10 be 31 5a 66 be 3b 8c 32 3e
       -0.12890886 -0.14079529 -0.22495343 0.17436306
0003e0 e4 dd f5 bd 8c d2 a6 3e 61 8c af be 10 16 db 3d
       -0.12005213 0.3258251 -0.34286788 0.106975675
0003f0 11 75 fa 3d 7e e5 98 be 96 52 e2 be e6 93 67 be
       0.1222936 -0.2986259 -0.44203633 -0.22615013

policy_net.2.bias f4 [32]
000000 1e 7d 0c bd 52 d1 5d be da f2 83 3d b3 43 5c bd
       -0.03429901 -0.2166188 0.06442805 -0.0537755
000010 b6 35 09 bd e0 95 da bc 36 cf 08 3c 12 cf fe 3a
       -0.03349849 -0.026682794 0.008350184 0.0019440374
000020 61 4a 3e 3e 31 f3 0c 3e 67 72 35 bc 57 3d 37 3e
       0.18583061 0.13764645 -0.011074639 0.17894493
000030 3d 8e 18 bd 8a 09 55 be 75 cf e0 3d 4c c0 5d be
       -0.037245024 -0.2080442 0.10977069 -0.21655387
000040 c5 05 99 be 05 b4 d7 bd 97 44 dc 3a df 28 fd bd
       -0.29887214 -0.10532383 0.0016805109 -0.12361311
000050 19 fd 8f 39 db 9a d9 bd 56 4b 78 3b b8 76 4a 3d
       0.00027463658 -0.106252395 0.00378867 0.049429625
000060 31 57 f9 3d ea f6 70 3c 4d c4 e2 3c 30 21 d3 3d
       0.121748336 0.014707306 0.027681494 0.103090644
000070 b4 9f 92 bb 84 13 da 3d bb c0 5a bb 2b 98 e9 3d
       -0.0044746045 0.106482536 -0.0033379036 0.11405977

policy_net.4.weight f4 [32, 32]
000000 4d 37 87 be 43 2a 8d 3e 9b 54 89 3c 5b 0d 47 3f
       -0.2640938 0.27571306 0.016763976 0.77754754
000010 c0 6b 19 be 52 8f e3 be 37 e3 a5 3e 22 40 30 3e
       -0.1498251 -0.44445282 0.32399914 0.17211965
000020 64 6d e6 be af 5c 42 be 72 a5 00 3e 29 90 19 bf
       -0.45005333 -0.18980668 0.12563112 -0.59985596
000030 72 69 2a 3e e9 c2 89 3d 61 f3 a4 3e 44 fe 29 bd
       0.16641787 0.06726629 0.32216933 -0.041502252
000040 2f c9 2d 3f 17 c5 c2 be 3d 2e 09 3d ab 75 f5 3e
       0.67885107 -0.38040993 0.033491362 0.47941336
000050 de 57 ce be 44 30 5b 3e fa a6 fe bd 99 2b 42 be
       -0.40301412 0.2140513 -0.12434192 -0.18961944
000060 68 36 d4 be dd b3 1c be e0 7f a2 3e a9 68 98 bd
       -0.4144776 -0.15302987 0.31738186 -0.07441837
000070 8a 2d 16 3e 41 b2 6c be 57 eb 7f 3d d4 cd 6e 3a
       0.1466581 -0.23114873 0.062480297 0.000910965
000080 47 d1 f0 3e ff 62 69 b9 3f 83 1a be 19 cc 29 3e
       0.47034666 -0.0002225749 -0.15089129 0.16581763
000090 73 c6 13 3f 14 65 07 be e6 79 6e bd 37 ad 1d bf
       0.57724684 -0.13222152 -0.05822172 -0.6159243
0000a0 7b 29 83 be 01 74 aa be e0 df fc be 4b 77 84 3d
       -0.25617585 -0.3329163 -0.49389553 0.06468066
0000b0 01 28 08 3e 40 4a 3d 3e e7 4b 26 3f 0f 90 12 3e
       0.1329651 0.18485355 0.6495957 0.14312766
0000c0 f6 29 92 bd 36 71 03 3f a6 38 d5 3d c3 a2 a4 bd
       -0.0713691 0.5134462 0.104111955 -0.08038857
0000d0 74 40 8b be e3 ac 8d 3d c7 54 a4 3d 3b 40 23 3d
       -0.2719761 0.06917741 0.080239825 0.039856177
0000e0 1c 27 13 3e 86 2b 09 be 65 cd c0 bd b0 65 78 3e
       0.14370388 -0.13395509 -0.09414176 0.2425754
0000f0 f5 40 11 bd bf bf 26 bf 7c 99 21 3f d9 33 23 bf
       -0.03546234 -0.6513633 0.63124824 -0.6375099
000100 e4 73 b4 bd 23 98 42 bd ba 1e a4 bd 0a 3d 89 3d
       -0.08811167 -0.04750837 -0.08013673 0.067010954
000110 23 08 db 3b eb dd ab be 87 06 cb 3e 3f bf 27 3e
       0.0066843196 -0.33567747 0.39653417 0.16381548
000120 08 c6 0b bc 2b 64 46 bf f9 fe 37 be c8 1c 91 be
       -0.008531101 -0.77496594 -0.17968358 -0.2834227
000130 dd 37 c2 bd 95 e7 86 3d c5 9d b8 bc 6f 40 33 3e
       -0.09483311 0.065871395 -0.022536168 0.17505048
000140 19 86 e7 3b 09 3a 1b 3f 08 4a 1e be 06 3e dd bd
       0.0070655462 0.6063543 -0.15457928 -0.10802846
000150 2e 04 25 3e cd c3 8d 3e fd 71 5e 3e 3f be bc be
       0.16114876 0.27688447 0.2172317 -0.36863896
000160 46 a8 36 3d 46 3e 6d be 72 6a 45 bf 5a aa 14 3f
       0.04459407 -0.23168287 -0.7711555 0.58072436
000170 8c ef 36 3e e7 26 b4 be f1 c6 b4 3e bd c4 6e bf
       0.17864817 -0.3518593 0.3530803 -0.9326895
000180 f9 93 43 3e 45 ef 27 3f 1b 88 85 3d 6a a4 c6 3e
       0.19099416 0.6559947 0.06520101 0.38797313
000190 cd 20 9d 3e 83 9f 9f 3d 07 41 40 be 6a 9c b8 3e
       0.30689088 0.07794096 -0.18774806 0.36056834
0001a0 70 c8 1b bf 3e 31 1e be bc 86 ab bd 8d 7c d0 be
       -0.6085272 -0.15448472 -0.08375308 -0.40720025
0001b0 d4 d3 66 3e bd 6c 6b 3e fd 75 f0 3d 47 b7 1e 3e
       0.22541744 0.22990699 0.117412545 0.15499602
0001c0 f2 85 79 3f b5 fd 34 3e 1d 8e 41 be 58 32 a6 bb
       0.9747001 0.17674907 -0.18901868 -0.0050719194
0001d0 24 65 ac 3e b7 56 c0 3c 24 7f e1 3e 15 9d f1 3d
       0.33670914 0.023478849 0.44042313 0.11797539
0001e0 8d 91 70 be 5a 06 70 be 94 17 80 bd a5 4c 63 be
       -0.23493023 -0.23439923 -0.06254497 -0.22197206
0001f0 a8 a4 05 3f 91 60 cf 3e bf 7d 68 bc 92 4a f1 3d
       0.5220437 0.40503362 -0.014190136 0.11781801
000200 8b b3 2c 3f 92 ed 05 be 90 34 cb be 36 8a 76 be
       0.6746146 -0.13078907 -0.3968854 -0.24076161
000210 06 67 2a 3e fc 08 6a be ca 35 b7 3d 6b d6 18 3e
       0.16640863 -0.2285499 0.08945806 0.14925544
000220 37 12 56 be 60 08 9f 3e 10 8a 12 be 51 b3 f3 bc
       -0.20905386 0.31061077 -0.14310479 -0.02974859
000230 10 1c 7d be 3a 47 21 bf 83 0e 54 3e b3 d8 38 3c
       -0.24717736 -0.6299931 0.20708661 0.011282134
000240 15 37 84 3d 8c 1a 87 3e 6c 33 c9 be 08 b5 8d 3c
       0.064558186 0.2638744 -0.39297044 0.017298236
000250 ea 52 50 3e 90 a5 04 3f c3 de 02 bf b6 dc a9 be
       0.20344129 0.5181513 -0.5112116 -0.33176202
000260 13 dc 37 3d e7 01 f5 bc bb 61 46 3d ec 18 5b 3d
       0.044887614 -0.029908134 0.048433047 0.053490564
000270 c5 75 9c 3e 2a 1e 39 be a8 8f a8 3e 6f 60 1f bf
       0.305586 -0.18077913 0.329221 -0.6225652
000280 b9 43 ad be 07 3b c6 3e 6d f3 01 3e 50 fd 82 3e
       -0.3384073 0.3871691 0.12690516 0.25583887
000290 5d 60 1a be d3 50 e5 3e 47 1f bd be a8 1d 96 be
       -0.15075822 0.44788226 -0.36937925 -0.293195
0002a0 6e fd 34 bf fb 7e 6b be 6a b3 93 3e 1d 3b d1 3d
       -0.70699203 -0.22997658 0.2884782 0.10216353
0002b0 16 f3 c9 be bf 18 4b bd 32 3b 15 bf 53 67 21 3f
       -0.39443272 -0.049584147 -0.5829345 0.63048285
0002c0 bb 95 e0 3e 05 6e 0b be 30 f0 90 3e b2 ad 5b 3e
       0.43864235 -0.13616188 0.2830825 0.21452978
0002d0 87 41 12 bd e7 8e 1c bd 22 71 04 3e ef 5a 81 3d
       -0.035707023 -0.03822222 0.12933782 0.06316172
0002e0 02 63 9e be d6 d6 0d 3f 45 4b 78 be 8c 83 74 be
       -0.30934912 0.5540594 -0.24247463 -0.23878306
0002f0 3d fa 8d be 0b 39 27 be 12 fe 36 3e c0 93 b3 bd
       -0.2772998 -0.16330354 0.17870358 -0.087684155
000300 f6 cb 5c be 2a 2b 94 3e 4d 7f d1 be 79 20 50 be
       -0.2156218 0.28939182 -0.40917435 -0.20324887
000310 42 8f 4b 3e 61 2b 02 3d 4d 01 75 be b8 0e a9 be
       0.19878867 0.03177965 -0.23926277 -0.33019042
000320 7c ac 7e 3e 75 7a e5 be d1 91 45 3d 67 cc 0d bf
       0.24870485 -0.4481999 0.048234764 -0.5539002
000330 f2 6c 4e be 39 7c be be 8c 4d 8b be 92 e1 93 3c
       -0.20158747 -0.3720415 -0.272076 0.018051896
000340 85 5d 58 3e 1e c4 ea 3e 4e b4 aa 3e 01 e4 da 3e
       0.21129425 0.4585275 0.33340687 0.42752078
000350 4a 29 eb be ed ee 25 3f 65 28 15 3e 1d df 3c 3f
       -0.4592994 0.64817697 0.1456619 0.73777944
000360 f2 8f 9e 3d 46 b9 5e bb 8d a9 c0 be 86 d6 f7 3d
       0.07742299 -0.0033984943 -0.37629357 0.12101464
000370 e4 a1 73 be 62 b7 f3 3c 52 bb 96 bc 34 ec 2d 3e
       -0.23792225 0.02975053 -0.018399868 0.16984636
000380 54 8e b5 be 24 6f 84 3a fd 40 ca 3b 77 1f 31 bf
       -0.3546015 0.0010103923 0.006172298 -0.69188637
000390 fe 37 9a bd 60 0d a3 3d 95 4d 2c bc f9 23 5d be
       -0.07530211 0.079615355 -0.010516544 -0.21595754
0003a0 00 2e ce 3e 2c 21 de 3e c9 49 b7 be 3f b1 0b 3f
       0.4026947 0.43384683 -0.3579848 0.5456733
0003b0 56 e5 aa bc 7d 14 bf be 5c 64 a7 3d 66 5c a3 be
       -0.020861309 -0.3732032 0.08173439 -0.31906432
0003c0 92 63 25 3e c4 b2 99 bd 48 20 e4 3e 72 23 58 be
       0.16151264 -0.075048 0.4455588 -0.21107271
0003d0 cd 1b 1e bd 94 5c 5f 3e fb 11 c8 3e cd 4d e0 be
       -0.03860073 0.2181266 0.39076218 -0.43809357
0003e0 a9 cb 41 3d b8 4e 42 be d3 db 3f 3d 29 54 f7 3e
       0.047313366 -0.18975341 0.0468405 0.48306397
0003f0 ff cf 95 be 65 fa ae 3b af b9 a4 3e 12 4d e9 3c
       -0.2926025 0.005339908 0.32172915 0.028479133

policy_net.4.bias f4 [32]
000000 6f 98 8b be 70 8e 94 3c 6f e8 b4 bd 5c bf a5 be
       -0.27264735 0.018134326 -0.08833396 -0.32372558
000010 af 2f 87 3d 48 8b 32 be 4d 20 a8 bc c7 0c 54 3e
       0.06600892 -0.17435944 -0.020523215 0.20707999
000020 6b 92 4e 3c 31 e4 73 3e a8 49 21 3d 40 18 32 bd
       0.012608151 0.23817517 0.039376885 -0.043480158
000030 ff 8d 99 3e 83 73 86 3e 60 ac de bc 6d 53 07 3c
       0.29991147 0.26260003 -0.027181804 0.008259636
000040 15 3d 9d 3e 9c 67 fc bc 27 63 52 3d a9 9c e6 bc
       0.30710664 -0.030811124 0.05136409 -0.028150873
000050 4a 24 30 bd 3b 34 8d 3e 0c 3f 93 3b 15 5b 78 be
       -0.043003358 0.2757891 0.0044935998 -0.24253495
000060 63 bc c7 bc f7 bc 90 be 84 5e 58 bd 91 c6 89 3e
       -0.024381822 -0.2826917 -0.052824512 0.26909307
000070 1a 61 8b bc 42 4e 6f be 00 08 0a bc 87 48 34 bd
       -0.017014075 -0.23369697 -0.008424759 -0.04401448

policy_net.6.weight f4 [21, 32]
000000 8a a5 ec be 01 04 09 3f 02 ef 03 3f 57 0b ed be
       -0.46220046 0.53521734 0.5153657 -0.46297714
000010 66 95 da 3e ce 87 d3 be af f6 02 3e 75 cc f1 3e
       0.42692107 -0.41314548 0.12789415 0.472263
000020 51 75 07 bf 50 08 e3 3e d1 7d c1 bd e7 95 96 bd
       -0.52913386 0.4434228 -0.09447826 -0.0735281
000030 5d 42 ee 3e e9 a1 f1 3e 24 99 0a 3e 21 75 0c bf
       0.46535006 0.4719384 0.13534981 -0.54866225
000040 f1 33 f1 3e b2 bb 08 3f 3d 16 06 3f b6 e5 01 bf
       0.4710994 0.534114 0.5237768 -0.50741136
000050 1b c2 09 3f 9f 6c ec 3e 29 95 06 3e 10 64 ef be
       0.53811806 0.4617662 0.13142838 -0.4675603
000060 e5 d8 19 3e 56 d4 ec be 0a 1a d6 3d 4f a1 ed 3e
       0.15024145 -0.4625575 0.10454185 0.4641213
000070 75 90 54 3c 51 22 ed be 49 c1 11 bf 2e 80 15 bf
       0.012973894 -0.46315244 -0.56935555 -0.5839871
000080 8e fe 74 bb 59 3a d8 b8 49 93 a9 39 20 b9 58 3b
       -0.0037383172 -0.00010310551 0.00032343928 0.0033069327
000090 ec de ea 3a 7e 35 e0 3a 77 57 b4 3a ad 12 86 ba
       0.0017919219 0.0017105786 0.0013758977 -0.0010228954
0000a0 92 09 35 3b 44 89 8c 3a b2 cb ab b9 2e 6c 63 bb
       0.0027624113 0.0010722061 -0.00032767426 -0.0034701931
0000b0 1b 0f 5e b7 04 d5 67 3a c1 f6 76 3b 52 89 9f ba
       -1.3235748e-05 0.00088436925 0.0037683698 -0.0012171662
0000c0 4b 64 cf 3a 26 49 87 39 ee d4 b5 ba 0f f8 3e ba
       0.0015822736 0.00025803706 -0.0013872662 -0.00072848884
0000d0 53 51 aa 39 3b ae ad 38 a0 4d 0e bb f0 d1 ef 39
       0.00032485518 8.281736e-05 -0.0021713749 0.00045742048
0000e0 69 fd 22 3b 60 1d e5 ba 34 be 7f 3a 94 db 84 ba
       0.0024870283 -0.0017480068 0.00097558205 -0.001013624
0000f0 76 28 1b ba ef 26 ec ba fc 7d bc ba 35 86 a3 ba
       -0.000591881 -0.0018016974 -0.0014380808 -0.001247591
000100 90 51 f1 b9 07 1d 82 ba 6d e5 10 bb c7 a6 01 bb
       -0.0004602787 -0.0009926864 -0.0022109405 -0.0019783245
000110 22 4a bf 3a fb 84 bb b9 bb ba 31 3a 37 a2 fa 3a
       0.0014594237 -0.00035766498 0.0006779839 0.001912183
000120 dc 42 b6 38 a9 fc c6 3a c4 f7 a3 3a c4 2d 3f 3b
       8.69089e-05 0.00151815 0.0012509753 0.0029171566
000130 0b 0a 94 ba 52 aa b2 39 6d f3 c7 3a f3 0c 4f 3b
       -0.0011294497 0.00034077704 0.0015255042 0.0031593412
000140 ed f6 ac ba d2 90 1d 3b 58 5f de 39 55 a7 53 3b
       -0.0013196148 0.0024042618 0.00042414176 0.0032295783
000150 32 79 1b b9 29 3e 60 39 1f 14 96 ba c6 0f fa 3a
       -0.000148271 0.00021385461 -0.0011450088 0.0019078187
000160 a6 cf 2a 3b e3 cd 1b bb a9 30 78 ba d0 85 80 3a
       0.002606371 -0.002377384 -0.00094677 0.0009805504
000170 42 4f 6e 3b 7d a1 d6 ba ed e6 80 38 2f f4 05 bb
       0.003636316 -0.0016375032 6.146529e-05 -0.0020439734
000180 20 9c e9 3a e0 c6 6d 3b 9d 62 26 ba 4b d3 2e 3a
       0.0017823018 0.0036281869 -0.0006347092 0.00066690583
000190 58 b8 c9 ba 2c 29 eb 3a 8b 32 87 39 92 01 3e 3b
       -0.0015390022 0.0017941347 0.00025786864 0.0028992635
0001a0 79 13 54 3b 39 59 e3 b9 06 f6 0e 3b a6 03 02 bb
       0.003236024 -0.0004336329 0.0021814122 -0.00198386
0001b0 d4 5d 97 3a 53 59 0f 3a 61 11 81 39 16 fe 8c b9
       0.0011548349 0.00054683274 0.00024617746 -0.0002689219
0001c0 cd d3 a7 3a 35 f5 ec ba c9 89 84 ba cf 42 be 3a
       0.001280421 -0.0018078448 -0.0010111864 0.001451576
0001d0 d0 6d 61 bb 66 1e 4c 3a ea c3 d5 ba b2 ba 26 ba
       -0.0034397729 0.0007786512 -0.0016308997 -0.0006360217
0001e0 72 a7 7b ba d5 da e0 3a c4 43 8e ba 6b b4 95 39
       -0.00095998414 0.0017155061 -0.0010853936 0.00028553916
0001f0 b2 ad 5f 3b cf 0a e8 39 38 6f 2e 3b 25 57 4f b9
       0.003413063 0.0004425854 0.0026616585 -0.00019773522
000200 b8 7c 26 bb e4 db 01 3a 3d 40 a2 3a 0d 11 95 3a
       -0.0025403928 0.0004953726 0.0012378764 0.0011372879
000210 78 37 cc ba 21 d9 00 bb 22 d0 22 3b 3e 5e b2 b9
       -0.0015580496 -0.001966067 0.0024843295 -0.00034021022
000220 c4 5b 2f 3a 2a 33 cd ba 5e 96 18 3b 20 d9 1e ba
       0.00066893944 -0.0015655507 0.0023282985 -0.0006059576
000230 1d 05 e3 3a a1 f2 d9 ba 93 9b 75 bb 92 b0 fd 3a
       0.001732025 -0.0016628095 -0.0037476763 0.001935499
000240 7d 61 4f 3a 94 0e f9 3a 47 bd 5e ba 6e af a4 ba
       0.000791095 0.0019001537 -0.00084968325 -0.0012564489
000250 37 81 0f 3b 04 e1 2a ba c5 86 2a ba fb 01 cc ba
       0.0021897086 -0.00065185153 -0.00065050676 -0.0015564555
000260 0e be b5 38 d3 4c 2c ba 8e 67 fc b8 e9 c4 1b ba
       8.666153e-05 -0.0006572727 -0.00012035585 -0.00059421227
000270 99 0c 86 3b 6e 1c dc 3a d7 9b 50 bb 34 4a 43 3a
       0.004090857 0.0016793141 -0.003183117 0.0007449717
000280 cb d7 0e 3b 41 a5 6e 3b 5d d3 45 b9 64 5b 55 ba
       0.0021796103 0.0036414417 -0.00018866123 -0.00081389234
000290 15 79 47 ba d7 44 89 3a e0 9a 87 ba 42 2d 81 bb
       -0.000760929 0.0010472786 -0.0010345839 -0.0039421627
0002a0 e7 a4 fe 3a b5 f2 03 bb e4 a5 d5 ba 1c 8c 5b ba
       0.0019427807 -0.0020133678 -0.001630005 -0.0008375065
0002b0 d4 c0 f3 b9 b9 92 81 ba f4 8b 91 37 b7 8f 65 3a
       -0.0004649224 -0.0009885646 1.7350518e-05 0.0008757072
0002c0 78 f5 45 bb 92 28 82 b9 58 38 ba b8 ab 64 49 3a
       -0.0030206125 -0.0002482576 -8.879666e-05 0.0007682542
0002d0 81 8d 1c bb c9 95 50 ba 50 4d 41 3b 1e 3c 78 b9
       -0.0023888054 -0.000795689 0.0029495545 -0.00023673518
0002e0 fe 62 9f 3a 3e f9 5e bb bb a2 f2 3a 2f 1f 0c ba
       0.0012160239 -0.0034023072 0.0018511632 -0.0005345223
0002f0 b0 40 82 3a 6b 19 03 ba ab 47 28 bb 80 a5 21 ba
       0.0009937491 -0.0005001041 -0.0025677483 -0.0006166324
000300 df 17 14 b9 e9 97 29 3a 85 9e f9 ba c1 e0 54 ba
       -0.00014123273 0.0006469475 -0.0019044435 -0.0008120649
000310 14 b7 cf 3a b9 af 25 bb fe c3 2c 39 d3 3c 51 3a
       0.0015847408 -0.002528174 0.00016476211 0.0007981781
000320 b3 27 32 3b f8 fc 30 bb 30 3e a0 3a 33 9f 9b b9
       0.0027184307 -0.002700625 0.0012225565 -0.00029682516
000330 50 f3 a5 ba 73 01 c7 ba 74 be 91 ba 51 28 21 b9
       -0.0012661014 -0.0015182927 -0.0011119382 -0.00015369176
000340 a2 17 c9 3a c2 ce 2c 3b 47 e0 66 3a 88 a6 0f b9
       0.0015342126 0.0026368354 0.00088072236 -0.0001369958
000350 5e e1 72 ba 05 8a db 39 db 50 a5 ba 18 ca 7d 3b
       -0.000926515 0.00041873768 -0.0012612598 0.0038725194
000360 53 14 74 bb ef 0b d9 b7 f7 62 75 3b b4 39 6a ba
       -0.003724356 -2.5873973e-05 0.003744302 -0.000893499
000370 9b b5 16 bb e9 ff 15 b9 1a c1 00 39 50 cf d0 ba
       -0.002299643 -0.00014305081 0.00012278967 -0.0015930925
000380 c5 bb 29 3d 47 12 32 bd b2 bb 32 bd e3 69 35 3d
       0.041438837 -0.043474462 -0.04363603 0.044290435
000390 31 86 34 bd ec e2 2c 3d 6e 47 39 3d 11 bc 2c bd
       -0.044073287 0.042208597 0.045234136 -0.04217154
0003a0 c4 c3 38 3d 04 ff 38 bd b6 19 39 bd fa 5e 33 3d
       0.04510857 -0.045165077 -0.045190535 0.04379175
0003b0 7c 10 30 bd 18 3b 36 bd 5a 49 3c 3d a7 34 30 3d
       -0.04298447 -0.04448995 0.04596839 0.043018963
0003c0 1b 9e 4c bd 05 23 3a bd 34 d4 27 bd d3 d5 3e 3d
       -0.04995547 -0.045443553 -0.040973857 0.046590637
0003d0 88 77 39 bd 39 c5 33 bd 1d b7 3a bd 82 7d 3b 3d
       -0.04528001 -0.043889258 -0.045584787 0.04577399
0003e0 a9 30 39 3d f5 93 3a 3d 21 fd 33 3d 5d a9 34 bd
       0.04521242 0.04555126 0.043942574 -0.04410683
0003f0 bc 0d 38 3d a3 77 3c 3d 11 56 33 3d 07 0a 45 3d
       0.044934973 0.046012532 0.04378325 0.048105266

policy_net.6.bias f4 [21]
000000 10 e0 ec 3e 00 00 00 00 00 00 00 00 00 00 00 00
       0.46264696 0.0 0.0 0.0
000010 00 00 00 00 00 00 00 00 00 00 00 00 60 e4 36 bd
       0.0 0.0 0.0 -0.04465139
000020 cd fb 24 bd c0 d5 cb bd 17 e5 89 3e 5e d1 9d 3d
       -0.0402792 -0.09952879 0.26932594 0.07705949
000030 1d 0a 73 bd 5d 23 82 3e e6 e8 f8 3d 3d c1 8c 3d
       -0.059335817 0.25417605 0.12153797 0.06872795
000040 45 d7 8d 3d f7 29 b2 3d 5b 9e ed 3d 58 c9 97 bd
       0.06925825 0.086994104 0.116024695 -0.0741145
000050 3d 75 91 bd
       -0.071024396

value_net.0.weight f4 [32, 770]
000000 08 9b 54 bb d8 28 a3 bd ee d9 d3 bc 1e e1 71 bb
       -0.0032441039 -0.07966775 -0.025860753 -0.0036907862
000010 d4 5a 0b 3e 20 ca 33 3d c2 31 12 3d 68 b5 4a bb
       0.13608867 0.043893933 0.035691984 -0.003093088
000020 7b 40 96 bd 9b a1 ef bc d2 d5 9d bd f4 01 96 3d
       -0.073365174 -0.029251864 -0.077067986 0.07324591
000030 c7 45 1e bc 91 56 0f bd e3 68 22 3d b7 9b 12 bd
       -0.009660191 -0.034994666 0.03965081 -0.035793032
000040 1a 84 30 bd 08 68 02 3d 77 3d fc 3c 64 85 20 bd
       -0.043094732 0.031837493 0.030791027 -0.03918971
000050 f5 1d 1b 3d 9c 4c 2e 3d 75 80 72 3d 26 44 fb 3c
       0.037870366 0.04255353 0.059204537 0.030672144
000060 59 00 30 3e ea 44 12 be cd f7 2d bd 3f f2 55 bd
       0.17187633 -0.14284101 -0.04247265 -0.052232977
000070 2f c8 b5 3b c5 9b 9a 3d 2a 03 45 bb 8c 43 3b bc
       0.0055475454 0.07549242 -0.00300617 -0.011429679
000080 79 4b fe bd cd b7 ee 3a 77 ed f2 bd 57 48 88 3c
       -0.12416739 0.0018212736 -0.11861699 0.016636057
000090 b8 6a 78 bc 61 8a af 3c cf a7 0f 3d 8f 0b 1d bd
       -0.0151621625 0.021428289 0.035072144 -0.0383411
0000a0 8a 1f 95 bd e8 99 1c 3d 70 62 02 3c 08 5c b3 bc
       -0.07281406 0.038232714 0.00795804 -0.02189447
0000b0 9d 50 9a 3d 07 e6 67 bd 7b 19 90 bd 0a 0d 04 3d
       0.07534907 -0.056615856 -0.0703611 0.032238998
0000c0 95 7d 58 3d de ca 94 3d 8f 71 14 be 83 97 56 bd
       0.05285414 0.07265256 -0.14496444 -0.052390587
0000d0 5a 53 11 bd b2 b3 e6 3b b9 74 c6 3e c4 fb 8d bd
       -0.03547988 0.0070404643 0.38760927 -0.06932786
0000e0 b2 7b f6 bd 4a 6e af bd d9 de 9f 3c 32 68 05 be
       -0.12035312 -0.08565958 0.019515442 -0.13028029
0000f0 67 1f 9c bb 0c 20 10 bd 9b 29 27 3d 98 f6 34 3d
       -0.0047644856 -0.035186812 0.040811162 0.044180483
000100 7c d1 9c bb de 4a 90 bc 26 7e 05 3b da 6c b4 bd
       -0.0047857147 -0.017613824 0.002036938 -0.08809824
000110 2a 27 23 bd 8c b3 6d 3d 16 ce 0c bd db 53 d2 bc
       -0.03983227 0.058032557 -0.034376226 -0.025674751
000120 13 b6 b3 39 16 ba 17 bd 2c 36 c4 3e bf 39 00 be
       0.00034277196 -0.0370427 0.3832258 -0.12522028
000130 8d 5c c4 bd f7 6a cd bd f5 1b da 3d cb d1 27 3e
       -0.09587965 -0.100301675 0.10649864 0.16388623
000140 c4 0e 4a bd 10 be 87 3c 89 48 c4 bd f1 e2 1f bd
       -0.049330488 0.016570121 -0.095841475 -0.039034788
000150 27 c6 1e bd 68 e8 e1 3d 3b 0b cf 3a 3e be 30 bd
       -0.03876319 0.11030656 0.0015796194 -0.04315018
000160 bb 8a c6 3d a7 88 0c 3b 80 cc bb 3d 22 a0 cd bc
       0.096944295 0.0021443756 0.09169865 -0.025100771
000170 87 a0 a8 bc 8e 15 ba 3c ba e7 b7 bd d8 c2 6d bd
       -0.020584358 0.022715356 -0.08979745 -0.058047146
000180 67 f2 26 bc 1e 40 d6 3d f9 a3 41 bb dd b6 27 3e
       -0.010189629 0.10461448 -0.0029547198 0.1637835
000190 42 73 a0 bd 54 fc d4 bd bf bf 06 bd 4c 07 39 bc
       -0.07834484 -0.1039969 -0.032897707 -0.011293244
0001a0 8b 68 35 3e d0 7a a0 3d fd 88 5f bd db 66 97 bd
       0.17715661 0.078359246 -0.054574 -0.07392665
0001b0 4e fb 22 be 4d d1 da bb 85 65 bb bb dc b8 14 3c
       -0.15916178 -0.0066777826 -0.005718889 0.009077277
0001c0 5b ae 9f 3b 32 9e 09 be 45 8c 54 bd e6 d9 23 3d
       0.0048730797 -0.13439253 -0.051891584 0.040002726
0001d0 6d 40 86 3b 2e cb 10 3c 5d 2f 99 bd 9f 84 b7 3b
       0.0040970356 0.008837504 -0.07479737 0.0056005265
0001e0 b8 ff 5c 3d 35 aa 88 3d 12 18 e1 3d 94 47 e7 3c
       0.05395481 0.066730894 0.10990919 0.028232373
0001f0 fc d5 41 3e a1 12 0e be 22 71 57 bd 37 a9 af bd
       0.18929285 -0.13874294 -0.052598126 -0.08577197
000200 48 6a 99 3b f5 82 15 3e 43 74 5f bc b1 59 b1 3c
       0.004681859 0.14600737 -0.013638559 0.021649214
000210 de 3d 59 bd 94 50 79 bd 42 81 0a 3e 8d 85 83 3c
       -0.053037517 -0.06086786 0.1352587 0.016054893
000220 a7 e3 3b bc 64 1c b1 3d 6b bb 23 3d 33 3d 51 3d
       -0.011467851 0.08647993 0.039973658 0.051083755
000230 63 15 9b 3c 4f d8 bd bc 76 35 13 3d 17 ea 8e bb
       0.018931096 -0.023174433 0.035939656 -0.004361402
000240 d2 a2 0f 3d cf b3 9a bc e7 a7 eb bc 19 5c 80 3d
       0.035067387 -0.018884568 -0.028766586 0.06267566
000250 4b 65 75 bd 00 ab e8 3d dc cd 79 bc da 8c 00 be
       -0.059911054 0.11360741 -0.015246835 -0.1255373
000260 3d 95 af bc 77 28 05 3e 94 39 3a 3e 67 70 00 3d
       -0.021433467 0.13003717 0.18186027 0.031357195
000270 83 4c 14 3c 8b cc 39 3d e7 ff 0a be 96 61 0f 3c
       0.009051445 0.045361083 -0.13574181 0.008751294
000280 21 21 a8 3c e5 7c a5 bc 2c 85 b1 bc 0d 86 d6 3c
       0.02052361 -0.020201156 -0.021669947 0.026186967
000290 06 6a 9a bc 62 d3 89 3d dc 43 12 3d 8c 4b a8 bd
       -0.018849384 0.06729771 0.035709247 -0.082175344
0002a0 3d b8 8f bc fa f4 53 bc db ae cb bc c9 97 7c 3c
       -0.017543906 -0.012936825 -0.024863651 0.015417048
0002b0 2a 0e 6e 3d 60 f6 6e bc 26 a2 34 3e c0 04 c8 bd
       0.058118977 -0.014585108 0.1763998 -0.09766531
0002c0 ae 96 1a be 5f 60 85 bd e7 80 63 3e 27 4a c9 3e
       -0.15096542 -0.06512522 0.22217141 0.39314386
0002d0 0b 12 8a 3d 5b 5c 21 be 30 2f 6b bd aa 01 35 bd
       0.06741723 -0.15757887 -0.05741805 -0.04419104
0002e0 9c a5 06 be 2d 64 4c 3c 60 df f1 3c 25 24 92 bd
       -0.13149112 0.012475056 0.029525459 -0.071358
0002f0 cb 06 6c 3d 83 05 c8 bc 4a 29 d0 3c 89 ae 91 bd
       0.057623666 -0.02441669 0.025410313 -0.07113368
000300 31 cc 45 3d 48 2c 6e bd a9 c5 a5 3d ef c6 33 bd
       0.048290435 -0.0581477 0.08094341 -0.04389089
000310 49 5d 30 3d 45 af 87 bd 3b 5a 24 3d 61 40 e1 3e
       0.043057714 -0.06625227 0.040125113 0.4399443
000320 17 20 99 bc 8a a1 d1 bc f2 f2 e0 bd cb 0d d1 3a
       -0.01869206 -0.025589723 -0.10983838 0.0015949545
000330 5c 95 16 3c e1 1d 23 bd ba 72 9c bc 4f 11 c8 bd
       0.0091908835 -0.039823417 -0.019097675 -0.09768926
000340 76 b9 1a bd 94 bb 65 3d 8f 83 d9 bd 6d 96 33 bd
       -0.037774526 0.05608709 -0.10620796 -0.04384463
000350 e3 32 7e bd be e2 53 bb e9 ee 0f bc f4 76 c4 bb
       -0.062060248 -0.0032331194 -0.008784988 -0.0059956256
000360 92 46 c3 3d 5f fe 65 bd 95 2a c8 3c 5e 29 96 bd
       0.095349446 -0.05615079 0.024434367 -0.07332109
000370 d6 07 45 bc b6 4f 8e 3c 5f d5 44 3d da 7e 5c 3d
       -0.012025794 0.017371994 0.04805505 0.053831913
000380 08 79 be 3d 16 36 6f 3d f2 4f aa bd a2 72 44 3c
       0.09300429 0.05840119 -0.083160296 0.011990221
000390 23 04 43 3e 2c f8 de bd e2 05 88 3c 0c 1c b5 bd
       0.19044547 -0.10887179 0.016604368 -0.0884324
0003a0 f7 3c 72 be 05 43 9d 3d fe 8c 94 3d 4e c4 3c 3d
       -0.23656069 0.076787986 0.072534546 0.04608565
0003b0 50 66 a0 bc 07 89 bf ba 96 a2 01 3e ba 8d 2b bc
       -0.019580036 -0.0014612981 0.12659678 -0.010470802
0003c0 a2 a6 72 3c 72 b1 f8 bc 3c dd a7 bd b4 f9 54 3c
       0.014810236 -0.03035805 -0.08196494 0.012998987
0003d0 88 0e ec bc 81 b9 99 bc b3 9e 00 bc e4 61 b2 3c
       -0.028815523 -0.018765213 -0.007850337 0.021775194
0003e0 1c 34 09 3d ed 63 45 bd 6b 18 01 be 98 91 87 bd
       0.03349696 -0.048191 -0.12606971 -0.06619567
0003f0 d9 4c df 3d 9c cd cc 3d 19 a7 ba 3d 36 a3 1a be
       0.109033294 0.100001544 0.091139026 -0.15101323

value_net.0.bias f4 [32]
000000 05 cf 8e bd 2e c7 79 bd f4 05 be 3d ee 6a bb bd
       -0.069730796 -0.06098097 0.09278479 -0.091512546
000010 e2 b1 9c 3d 3d f6 8c 3c c7 cb aa 3d 9f b7 d4 3d
       0.07651116 0.01720726 0.08339649 0.103865854
000020 da 3d 14 3d 67 85 4c bd 57 73 81 bd 99 e0 dd bd
       0.0361918 -0.04993191 -0.063208275 -0.10833854
000030 2e 9e c7 bd e4 e9 82 bd 97 9d 3d bd ee 45 70 bd
       -0.09746967 -0.06392267 -0.046292868 -0.05866044
000040 e0 d2 65 3d 92 02 3b bd 2f 24 3f bb 4c c6 85 bd
       0.05610931 -0.045656748 -0.0029165854 -0.06531963
000050 8c 49 bd bd 9d df 69 38 80 80 56 3d 94 37 7f ba
       -0.092425436 5.5759785e-05 0.05236864 -0.000973576
000060 8b 08 9e bd 03 45 95 bc 52 d0 7b bd 49 74 84 bc
       -0.07716473 -0.018221384 -0.061477967 -0.01616873
000070 fd d2 c0 bd 34 72 89 bd 28 c2 4a 3d 0a 53 e8 3c
       -0.09415243 -0.06711236 0.049501568 0.028359909

value_net.2.weight f4 [32, 32]
000000 14 63 01 bf e3 35 39 be 22 0b c9 be 1b 78 14 be
       -0.50541806 -0.18086962 -0.39266306 -0.14498942
000010 14 f7 d8 3e e3 b2 56 bd 58 e6 1f be e5 5c b7 3e
       0.42376006 -0.052416693 -0.15615213 0.3581306
000020 ff 6e 1d 3e 62 1b 39 3e 90 70 9f be 94 e7 13 be
       0.15374373 0.18076852 -0.31140566 -0.14443809
000030 00 44 c7 3e a6 c7 ac 3b 67 4a 73 be 12 70 0e 3f
       0.38919067 0.0052728234 -0.23758851 0.55639756
000040 f2 df a6 bb 35 5d be be 66 12 04 3e ae 71 9a 3d
       -0.0050926143 -0.37180486 0.12897643 0.07541214
000050 f8 5e a9 3e a2 7f 11 be 2e 8d 11 3f a8 ec 1c be
       0.33080268 -0.14208844 0.5685605 -0.15324652
000060 b2 03 74 3e 4e 62 19 bd 94 14 c0 3d a0 41 ff bc
       0.23829535 -0.037447266 0.09378925 -0.031159222
000070 21 08 65 3e 03 1a 07 bf da 95 7b 3e 3f 84 91 bd
       0.22366382 -0.52774066 0.24568883 -0.07105302
000080 65 4a 04 3f 7d ae 68 bc aa c8 a9 be 52 7d 9d 3e
       0.5167602 -0.0142017575 -0.33160907 0.30759674
000090 80 28 a5 3e 43 3f dc 3e 0f 90 f6 bd 99 69 ed bd
       0.32257462 0.43017015 -0.12039196 -0.11592407
0000a0 d6 3c 1e 3e 82 72 df 3e 3d 42 b6 be 66 f4 3f 3e
       0.15452895 0.4364205 -0.3559741 0.18745574
0000b0 a9 65 ae 3e 5d 22 67 be 3b ac 2e be 09 7d 72 be
       0.34061936 -0.22571702 -0.17057888 -0.2368051
0000c0 eb a7 ef be b4 34 a3 3e 0d 74 06 bf 89 b3 ca 3d
       -0.468078 0.31876147 -0.5252083 0.09897525
0000d0 18 eb 9d be 3c 33 c6 3d cc 08 c6 be 7e fa 23 3e
       -0.30843425 0.09677741 -0.38678586 0.16013524
0000e0 f6 30 ed 3e 06 62 d7 bd a2 e7 ff 3b de 84 66 3e
       0.46326417 -0.10516743 0.007809595 0.22511622
0000f0 43 f2 81 be 98 8c 63 bd 47 b1 ca bd a2 8c 5b be
       -0.25380144 -0.055554003 -0.09897094 -0.21440366
000100 26 1a 53 3e 68 f9 bb 3d 59 fa ca be 94 76 66 3d
       0.20615444 0.0917843 -0.39644125 0.05626543
000110 77 65 86 3e c7 ee 36 be 94 23 db 3d 8b aa 32 3c
       0.26249287 -0.17864524 0.10700145 0.010904918
000120 83 21 7b be 6d 65 02 bf 69 92 33 3e 8c 8e 33 3e
       -0.24524502 -0.50936013 0.1753632 0.17534846
000130 34 f9 b4 3e ec b4 25 3f d5 52 61 be 62 4d b2 3e
       0.35346377 0.6472919 -0.22004254 0.34824663
000140 43 54 06 bc b5 03 d4 3e 12 d4 e6 bb f9 ec 14 be
       -0.0081988005 0.41409078 -0.0070443237 -0.14543523
000150 4a 9b 16 bf 67 c5 8d 3e 2a d6 95 be e2 09 4e bc
       -0.588307 0.2768967 -0.29264957 -0.012575598
000160 a5 5c d0 bd 19 8e 0f bd c2 5d a4 3e c2 a6 3b 3d
       -0.101739205 -0.035047624 0.32102782 0.04581333
000170 45 16 71 be 5a d3 72 bd d0 ae 14 bd fe 8a 84 3e
       -0.23543651 -0.05928359 -0.036299527 0.25887293
000180 31 29 68 3e fa 15 3b 3e 6c 42 f8 3e 05 b8 82 be
       0.22671963 0.18270102 0.48488176 -0.2553102
000190 8d eb c3 3e d7 f7 35 3e 10 13 e9 3d f2 81 74 be
       0.38265648 0.17770325 0.11380589 -0.23877695
0001a0 1f ed c1 3e 3b 64 2e be 1a 8c 1e bf d5 da 25 be
       0.37876222 -0.17030422 -0.6193253 -0.16196759
0001b0 0c c1 14 bd 65 7f 9b 3e 67 62 6f 3d 0b d7 49 3b
       -0.036316916 0.30370632 0.058443453 0.0030798342
0001c0 cd e3 d8 3e 31 88 68 be 17 69 c4 be ec 22 ff bd
       0.42361298 -0.22708203 -0.38361427 -0.12457833
0001d0 ec 99 d9 bd e7 66 22 3e 51 4b ad 3d 75 e0 57 bd
       -0.106250614 0.15859567 0.08461631 -0.052704293
0001e0 b4 a5 81 be 9b 71 d2 3e fc 9b ef be a3 ee dd be
       -0.25321734 0.411023 -0.46798694 -0.43346128
0001f0 e9 16 81 3c b0 55 e8 be 2a 05 f2 bd 54 90 54 3c
       0.015757995 -0.45377874 -0.11817391 0.012973864
000200 27 bf 71 be 9f 92 c2 bd 65 5e 2d 3e a0 54 a5 3e
       -0.23608075 -0.09500622 0.1693054 0.32291126
000210 50 94 29 bd 70 93 2a 3f e1 9b 07 be 4a 1a 01 be
       -0.041401207 0.6663122 -0.13243057 -0.12607685
000220 36 e0 6a 3d ae 00 1b be 44 8d 7a 3d bf 77 a9 bc
       0.05734273 -0.15136978 0.061169878 -0.020686982
000230 33 25 1d 3f a9 4b af 3e b2 cd cc 3e cc 7c de 3d
       0.61384887 0.34237412 0.40000683 0.10863647
000240 35 0c 3c 3e 6d 02 96 3e cd ca 9a bd 11 b8 f9 3c
       0.18364032 0.29298726 -0.075582124 0.030483278
000250 1a 51 4e 3e b0 cc d3 be e5 40 3e bb 30 2a bb 3e
       0.20148125 -0.41367102 -0.002903038 0.36555624
000260 c9 1e c9 3e 13 ee 49 be 15 d1 2f bd 4c 16 77 be
       0.392813 -0.19719724 -0.042924006 -0.241296
000270 34 95 aa bd 54 81 8a 3e 2e 65 b1 be 04 c8 7b 3d
       -0.083292395 0.27051795 -0.34647506 0.061470047
000280 0d 77 8f 3e 58 dd 75 3d 67 cc c4 3d ab d6 d7 3b
       0.28020516 0.060025543 0.09609299 0.0065868697
000290 b1 49 9c be fb 84 a6 3e af 00 2c be b9 e6 ca 3b
       -0.30524972 0.3252333 -0.16797136 0.006192055
0002a0 d8 62 4e 3e cb f3 5f bc 12 87 04 3e d9 86 3c ba
       0.20154893 -0.013668965 0.1294215 -0.0007191725
0002b0 be 4e 32 be f9 8f cd 3e 5a ec 70 be c3 4d 8b 3e
       -0.1741285 0.40148905 -0.23527661 0.27207765
0002c0 17 dd f4 bb 07 7c e6 3e b8 e2 ca bd 7d 9b 2b 3e
       -0.007472645 0.450165 -0.099065244 0.16758533
0002d0 93 88 e4 3e 3f e7 8f 3e 29 3b 3d be aa a4 53 be
       0.44635448 0.28106114 -0.18479599 -0.20668283
0002e0 1c ed a3 3e 94 2b 1c 3f 03 0f 15 3f ad 85 d2 3e
       0.32016838 0.61003995 0.5822603 0.41117612
0002f0 aa 92 b2 3d 85 1c e4 3e 71 57 2c 3e 40 5c c1 3d
       0.0871938 0.4455301 0.16830231 0.094414234
000300 63 69 ea bd a5 bf b1 3e 80 b2 81 be 90 4e 46 3d
       -0.11445882 0.34716526 -0.25331497 0.048414767
000310 0d e4 82 3e c9 51 dc 3e ec 72 fc 3e 26 6a 62 bd
       0.25564614 0.43031147 0.49306428 -0.055277012
000320 fa f3 ef be 8a 80 de be 79 f1 4a be 44 48 c1 3d
       -0.46865827 -0.43457443 -0.19818677 0.09437612
000330 c1 32 01 be fe 84 bd be a0 e7 78 be ac 84 db bd
       -0.12617017 -0.37015527 -0.24307108 -0.107186645
000340 d9 db 2b 3d 02 1f 83 3e 5b f4 a8 3e 26 fe 40 3d
       0.04195771 0.25609595 0.32998928 0.047117375
000350 b1 51 3f 3e 9f 20 49 be df 7a 52 be ec 78 5a 3d
       0.18683507 -0.1964135 -0.20554684 0.053337976
000360 50 44 2f 3e bd 51 98 3e e5 09 e3 bd f5 85 24 bf
       0.17115903 0.2974986 -0.110858716 -0.642669
000370 be 46 ab bd c3 c2 2d be 08 55 4b bc 59 ee 20 bf
       -0.083631024 -0.16968827 -0.01241041 -0.6286369
000380 47 2d 6b be 54 3b e7 be 4c b9 bc 3e 0a c1 fd 3c
       -0.2296649 -0.4516245 0.3686012 0.030975837
000390 e2 5b 8a bd a2 f8 d2 bb 43 70 ad 3e ec c2 91 3e
       -0.067558065 -0.0064383307 0.3387471 0.28469026
0003a0 45 3c 4f be e3 46 2d be 33 29 18 bf 4b 8d 4f bd
       -0.20237835 -0.16921572 -0.59437865 -0.050671857
0003b0 8b 9b 58 3e d6 c5 db 3e fe ef d4 bd 73 5e 18 bf
       0.21153085 0.42924374 -0.103973374 -0.5951912
0003c0 74 f9 5c be 38 07 bb be 18 aa 96 3e 2f f8 d5 3d
       -0.21579534 -0.36528945 0.29426646 0.10447728
0003d0 9f 50 30 bd a5 de 9b bd a9 1c 27 3e bd 3d ac bc
       -0.043045636 -0.076108254 0.16319527 -0.021025533
0003e0 2b 35 87 3e fe 5a 2c bd 72 cc 16 3e a3 cb f8 3d
       0.2640775 -0.042078964 0.14726427 0.121482156
0003f0 46 e4 92 3e 48 e8 69 be 58 99 6e 3e 06 7a 87 bd
       0.28689784 -0.22842515 0.23300683 -0.06615071

value_net.2.bias f4 [32]
000000 fc 26 de 3d c7 c0 3c 3c 6b 4b e7 bc 75 2b c7 3d
       0.108472794 0.011520571 -0.028234204 0.09725086
000010 c1 25 a2 bd f2 23 91 bd 56 82 5a 3d ad d7 af 3d
       -0.07917357 -0.07086934 0.053346954 0.08586059
000020 07 07 70 bd b1 2d 49 be cc 39 f2 bc 62 19 e7 bc
       -0.05860045 -0.19646336 -0.029568575 -0.028210346
000030 f3 52 7c 3c a1 f2 2d 3d 1f 06 12 3d 9b 75 75 3d
       0.015400636 0.042467717 0.03565037 0.05992661
000040 2b 4b cc 3d 0c d9 39 bd 5d bc 2d 3e 5c 29 96 3d
       0.09975275 -0.045373008 0.16966386 0.073321074
000050 cd b6 40 3d 56 91 24 bd 0e 51 02 3d 8e d2 98 bd
       0.047049332 -0.040177666 0.03181558 -0.07462035
000060 eb b9 47 3d 1d 8d 4c be 00 d1 3a bd eb a7 46 be
       0.04876129 -0.19975705 -0.045609474 -0.19399993
000070 94 d9 82 3d 2b 1f 99 3d 68 ee cc 3b 0a 32 1c 3d
       0.06389156 0.07476648 0.006254006 0.03813366
