MAPPO/PS/save/LS1_4P_Train/agent_6_MAPPO.pt (torch, 60382 bytes, 15 tensors)

policy_net.0.weight f4 [32, 7]
00000000: 4754 be3e 2267 353e 7b71 e1bc 0b78 143f
00000010: 2990 453e 5c8c 833e 6bd9 093d bc5d 1e3f
00000020: 9f61 b53c 8b09 b9bd 3edf 87be 54df a1be
00000030: be2c e33b bba2 ee3d 9d23 333f 4cc1 efbc
00000040: cef6 f1bc 300f 183f 5f8d 9d3e e867 8cbe
00000050: c0a3 32be e5e8 80be 1208 fbbc 0838 a63d
00000060: 25dd 173f 6959 a43e 196f 61be d595 443e
00000070: 7601 c5be 76e6 70be ca96 f8be f1b1 0dbf
00000080: 12cd 04be 9255 84be 4b7e acbd 5248 603e
00000090: fe0e ea3d 54a2 ffbc ea9b 0a3f fb79 2d3f
000000a0: b98c ad3d 0bb9 1f3e 0fa4 203e 6235 e03d
000000b0: 2505 e63e 2ef5 3d3e 94f1 7f3e 44f1 cdbe
000000c0: c541 553d aada 82be e1e7 2e3f e9e1 f5be
000000d0: 7743 cb3d 7081 b5bd 345f 47be 5bc9 623d
000000e0: 7945 a63d 99f6 a83e 3ccb f83e 7431 2c3d
000000f0: 61a2 07bf 3320 5b3e 085e 263e 6e22 e23e
00000100: 3f3c b13d 34cd 9bbd 89be 62be de19 10bf
00000110: 76f4 0a3f 3d70 d13d ee68 d53e 185e a53d
00000120: b338 09bf 403b 10be 0cbd 203e f29c 413e
00000130: b061 033f c3c9 363f df0f 0f3e eabb a5bd
00000140: 525b f23e 36ab 42be e5d2 873d b3ef 04be
00000150: da22 d23e 906a f8bd 37e3 f23e 19e1 f2be
00000160: b4f5 fb3d f7b1 dbbe 749c 85be b819 cebd
00000170: f6eb 843d 9647 e5be 1cec 203d 5bd8 1bbd
00000180: ff36 48be 4443 2ebd 1f2b 4ebd 8fb9 8b3d
00000190: 3cca e9be 6000 02bc f732 87bc f352 54be
000001a0: e8f3 05bd 8bb9 b33e 2447 f2bd bb14 4ebc
000001b0: bf2b 3d3f e592 5abe f248 e9be 04f1 173f
000001c0: bcf8 383e 5c71 0f3e 0362 a5bd 1c3e bdbd
000001d0: 6ea2 bdbe 5e43 33bd 1189 113d c20b ac3e
000001e0: 57ef 9c3e a699 01bf 4a20 d0be 40ca 1ebf
000001f0: 6565 29be 7f5e acbd 01c0 27bf 6e16 03be
00000200: 52bf 683d 0ac3 0fbf 026e 80bc b72f eb3e
00000210: e6bb 8d3c 558b f5be 21aa 833e bd9d 843d
00000220: 2a9a 4a3e 8a48 2f3f cd84 5b3e 83d7 833d
00000230: 1732 ffbd 0e3a 703e 4536 a5bd f4bc ca3e
00000240: a6d7 10bf 9028 d5bd b639 f13b fae9 a4be
00000250: 4db9 19bc adc7 cf3c 32a0 06bf 3005 3fbe
00000260: acd0 08be 4547 c0b9 c79e 653e 0191 f53e
00000270: 3546 d5bc 0764 813e 3591 263f 18d2 4d3e
00000280: f7c8 b3bd e737 c6be 3b2d babc e70c b53d
00000290: 0890 45bd 1f34 f83e c681 94be 6a01 343f
000002a0: 95b6 023d 7367 07bf e17a f3be e037 6cbe
000002b0: 22d0 0b3d 224d 0a3c f872 093f a91d 90be
000002c0: 6dd0 be3d 756e 63be ae79 f1bd 5eb8 fdbd
000002d0: 6c32 15be 0218 423e ddb1 a63d f19d e9bd
000002e0: ba77 0c3f f54c bfbc ef31 22be 4bc5 65be
000002f0: f65e 87be 967a b1be eb71 15bf d7f7 04bf
00000300: baf6 9a3e e1e3 bc3d edd6 213e 4b89 5cbe
00000310: a323 9ebc b294 5a3d 77fb 183f 4df0 2c3d
00000320: 5ff5 71be 0af3 253e d5ac 993d 415a 773e
00000330: dacb 13be c857 afbd 7398 b23d 6dff e0be
00000340: d7b1 e4bd 25bc d53c 030a a9be 176e 2c3e
00000350: d578 fbbe 7182 3fbe 648b 4e3e 03e8 93be
00000360: f57e 53be babf 2dbf 0e12 89be eb9f 993d
00000370: db31 fabe e6ec 493e 09ce 8d3e d6d7 bc3e
0.37173674 0.17715123 -0.027519932 0.5799567 0.19293274 0.25693023 0.03365461 0.6186178
0.022141276 -0.09035023 -0.26537508 -0.31615698 0.006932824 0.11652132 0.69976217 -0.029266976
-0.029536631 0.59398174 0.3077192 -0.27423024 -0.17445278 -0.25177684 -0.030643497 0.08116156
0.59321815 0.32099465 -0.22015037 0.19197781 -0.38477677 -0.23525414 -0.48552543 -0.5534964
-0.12968853 -0.25846535 -0.08422526 0.21902588 0.11428641 -0.031205334 0.54144156 0.6776425
0.08474106 0.15597932 0.15687583 0.10947682 0.449258 0.1855056 0.24994498 -0.40223134
0.052064676 -0.25557452 0.6832257 -0.48023918 0.09924977 -0.08862579 -0.19469911 0.05536781
0.081187196 0.3300064 0.48592556 0.04203935 -0.52982146 0.21399002 0.16246808 0.44166893
0.08654069 -0.07607499 -0.22142996 -0.5628947 0.5427927 0.10226486 0.41681617 0.080745876
-0.5360214 -0.14085102 0.15697116 0.18907526 0.51320934 0.71401614 0.13970898 -0.080924824
0.47335297 -0.19010624 0.06632022 -0.12982063 0.41042215 -0.121297 0.47438976 -0.4743736
0.123027235 -0.42909214 -0.26095927 -0.10063499 0.064903185 -0.44781178 0.03928767 -0.03804813
-0.1955223 -0.04254462 -0.050334092 0.06822502 -0.45662105 -0.00793466 -0.016503794 -0.20734768
-0.03270331 0.35102496 -0.11829975 -0.012578185 0.73894876 -0.21345098 -0.45563465 0.59352136
0.18063635 0.14008087 -0.08075335 -0.09240362 -0.37037987 -0.04376542 0.035531107 0.3360272
0.30651352 -0.50625074 -0.40649635 -0.6202736 -0.16542585 -0.08416461 -0.6552735 -0.12801525
0.056823082 -0.5615698 -0.015677456 0.4593484 0.017301511 -0.47957864 0.25715736 0.06475399
0.19785371 0.6847006 0.21437378 0.0643759 -0.12460726 0.23459646 -0.08066992 0.39597285
-0.56579053 -0.10408127 0.007361616 -0.3220976 -0.009382558 0.025363768 -0.5258819 -0.18654323
-0.13360852 -0.00036674194 0.2242385 0.47962192 -0.026034454 0.25271627 0.6506532 0.20099676
-0.087785654 -0.38714525 -0.022726646 0.088403516 -0.048233062 0.48477265 -0.2900526 0.7031466
0.031912405 -0.52892226 -0.47554687 -0.2306819 0.034134038 0.008441241 0.53691053 -0.2814763
0.09317098 -0.22210105 -0.11790787 -0.12388681 -0.14570016 0.18954471 0.081393935 -0.11407078
0.5487019 -0.023352126 -0.1583936 -0.22438543 -0.26439637 -0.34663838 -0.5837695 -0.51940674
0.30266362 0.09223152 0.15804644 -0.21536748 -0.019304102 0.053364463 0.59758705 0.042221356
-0.23628758 0.16205993 0.07503668 0.24155523 -0.14433232 -0.08561665 0.08720484 -0.43944874
-0.11166733 0.02609069 -0.3301545 0.16838871 -0.49115625 -0.18702103 0.20170361 -0.28887948
-0.20653899 -0.67870677 -0.26771587 0.07501205 -0.48866162 0.19719276 0.27696255 0.3688342

policy_net.0.bias f4 [32]
00000000: fbf7 a23c aaf9 3b3e cfb2 87bb d1b9 07be
00000010: 90bd c1bd c32b 6d3d afa9 c63d f080 77bd
00000020: baea e93d 832f 063e a4e8 b9bd 32e4 143e
00000030: c0d6 de3d a6de e3bd 93af 00be 783e f7ba
00000040: 1411 d53d 9e3d f4bd b407 03be 73e5 17be
00000050: de01 453e f7f2 51bd 78ce 44bb 2ec0 5ebe
00000060: 8764 ebbd cd00 9b3d ee78 8e3d 22b5 7abd
00000070: 514c 593d 5f9a 4d3e 015b 3dbd e5d2 1abe
0.019893637 0.18356958 -0.0041411887 -0.13254477 -0.09459984 0.057903063 0.09700333 -0.0604257
0.11421724 0.13104062 -0.09077576 0.14540175 0.10880804 -0.11126451 -0.12566976 -0.0018863222
0.10403648 -0.11925815 -0.12795907 -0.14833622 0.19238994 -0.0512571 -0.0030030292 -0.21752998
-0.114937834 0.07568512 0.06956659 -0.061207898 0.053051297 0.20078419 -0.046229366 -0.15119512

policy_net.2.weight f4 [64, 32]
00000000: fc6c 51be 2a0c 473e e9b8 10be cc38 213e
00000010: 2db3 953c 33f2 023e f93d 97bd 3898 3c3e
00000020: 7c0e 773e 8412 973e f016 323c f1fe fbbd
00000030: 1d85 37be e293 ab3d cf76 843d 13f4 4cbe
00000040: a1be 48bd 4d1a cc3d fc6a 363f 4d96 ce3c
00000050: 4e9f 4bbe be11 9e3e e6ed 8bbe 8b42 e03d
00000060: 2478 a73c 6782 6e3e 4513 9d3d dab7 043e
00000070: 30c2 32be 436e f6bd 2a24 ef3d f356 bcbd
00000080: 7dea d6be 3801 b83b 9e6e c0be b212 b83d
00000090: d696 89be 2387 7ebd 8b69 f0bd 1cae d13d
000000a0: d2bf 48be c65a c23d d92d f5bd 077e 3abc
000000b0: 0a48 c5bd 9d3e d4bd c84c d6bd d560 8ebf
000000c0: 194b ffbd 2097 063e e509 083e fa41 753e
000000d0: 5060 2cbe 545d a23e 5f4b 93be 85c1 dabd
000000e0: 418c 88bd 277a 4a3c 41f2 90be b774 443d
000000f0: 4f17 563d 7668 8ebe e0b9 983d 8c69 083e
00000100: 89ed 203e cf05 4fbd 477f 4f3f 57e4 d8be
00000110: 3a26 05be fe73 ec3e 3d34 083e bce0 c23d
00000120: 73ce 883e a660 cebc 333c 84bd 213d cd3e
00000130: 0bce 1bbd 6162 673e 8e6e 28be 56c8 bb3e
00000140: 91cf 103e 829d c3be b3d0 87be 54c9 de3e
00000150: 18a9 8bbd 0579 a9be e34f d43e a359 103e
00000160: 6f2f b7bd a040 b63d 11c2 5fbd 0f9f edbd
00000170: 9881 c63c 9f45 29bd 3cea 673e 5755 6cbe
00000180: e9ac 1fbf 418e 28be 2d29 09bf f0c7 7d3d
00000190: db4b 343e 58b9 c7be c5cc d33d f13c 53be
000001a0: a284 b3bd 77ca 27be 22e7 f43b a22b b1bd
000001b0: 30e2 c6be 6d62 5e3e 7c20 21be dc24 8bbe
000001c0: ba13 31be 9683 073e 8af6 dbbd 2ac8 ed3b
000001d0: 397a 5cbe cd7e 093f 3915 90be 9e05 d8bd
000001e0: 2b70 29be ca69 943d 2ee6 eebd 7730 2c3e
000001f0: a908 ccbd f1e5 74be 5532 51bd 8454 c83e
00000200: 5683 ed3c 1e52 c3be da19 c43c 8519 b5bb
00000210: bae2 d03e 2840 783e 9fe7 2dbe fba7 6a3e
00000220: a3c7 2cbe c11d 453e 28ca e4bd bd2e 9cbc
00000230: f08d b8be ff43 1dbe f2fa 8b3d d980 8bbd
00000240: b3e2 84be b98e 4d3e 2052 f0be 7fa0 3b3e
00000250: 27a1 4e3e 14ed a63d a3e3 a8bd cdaf 6abe
00000260: 29bb ff3d ba93 6e3e 8e12 1a3e 42e3 ae3e
00000270: e5e9 f2bd d5b4 63be 44b9 2c3d ebd3 c13d
00000280: 36c6 fabc cb6b 0f3a 082b 853e 3edd 183c
00000290: 65d1 773b 7392 d03d 021d 5a3d a7c7 0a3e
000002a0: 4328 2a3e 1697 a83e 1cdb 20be 2afd 43be
000002b0: b048 aa3b 1bc6 563e fcd1 6d3e 0aa9 4dbe
000002c0: 90e4 b33e 743b f03d 1079 ff3c 8622 3d3e
000002d0: 211a 073e 7fd9 0b3d b69a ec3d d942 113e
000002e0: 0230 0d3d fe20 0fbe a919 083e 50a5 ff3d
000002f0: d9ee 79be 71c0 94bd cd6a 513d 41d4 053e
00000300: 0210 9a3e ba38 18be b5f6 af3e 2b8c 093e
00000310: e47c 69bd 5615 bc3c 669e 803e 8451 c33e
00000320: ae22 92bd b917 b6be d9b9 953d 280a 4abe
00000330: c807 f53d c63d f13d 39d2 88be 5d02 4abe
00000340: 677f 2e3e 385f 8d3e 4e9d 073b 429d 6aba
00000350: f410 21be 62b5 8d3e 4882 eb3e b377 023e
00000360: dd18 3c3e 3d2b 733d 4a32 3fbe 53f4 88bd
00000370: 5972 233e 71c4 8cbd e285 8bbe 7fba cc3d
00000380: 8a8e 5abc d21c bebb 427a 903c bdf8 4ebd
00000390: ed15 7abd 39d6 93bd 4b8a efbe 2bdf ba3e
000003a0: ac97 543d 062f adbd d8fd 543e fcf5 63bd
000003b0: a7da 983d 3524 603e 0868 503e 56dc a33c
000003c0: 91ad 73be d392 a33e 12fb c5bc 1309 163d
000003d0: 92e2 d03e b995 363e 9136 d63d 9e99 273d
000003e0: 05a5 9c3e e8f8 363e 8fa2 143e 2e14 c7bd
000003f0: 0342 8abc dccd 5bbc b6ff aabe 57fc 4abe
-0.2045173 0.19438234 -0.14133038 0.15744323 0.018273914 0.12787704 -0.07384867 0.18417442
0.24126619 0.29506314 0.010869727 -0.123044856 -0.17921872 0.08377816 0.064679734 -0.20014982
-0.049009923 0.09965954 0.71256995 0.025218153 -0.19884989 0.3087291 -0.2732994 0.10950192
0.02044303 0.23291932 0.07669691 0.12960759 -0.17456889 -0.120327495 0.116768196 -0.09196272
-0.41975775 0.0056153797 -0.37584394 0.08987941 -0.2687289 -0.062140595 -0.11738881 0.10238287
-0.19604424 0.0948997 -0.11971635 -0.011382586 -0.09632881 -0.10363505 -0.104638636 -1.1123301
-0.124654956 0.13143587 0.13285024 0.2395095 -0.16833615 0.3171183 -0.2876844 -0.10681442
-0.06667376 0.012358225 -0.28309825 0.04796287 0.052268323 -0.27814072 0.07457328 0.13321513
0.15715612 -0.05054265 0.81053585 -0.4236171 -0.13002864 0.46182245 0.13301177 0.09515521
0.26720008 -0.02519257 -0.064567946 0.400857 -0.038038295 0.22596122 -0.16448423 0.36676282
0.1414168 -0.38206106 -0.26526412 0.43512976 -0.068193614 -0.33100143 0.414672 0.14096694
-0.08944594 0.08899045 -0.054628436 -0.11602604 0.024231717 -0.04132616 0.22647947 -0.2307943
-0.62373215 -0.16460516 -0.53578454 0.061958253 0.17607062 -0.39008594 0.10341791 -0.20628716
-0.08765532 -0.16385828 0.0074738422 -0.086509004 -0.38844442 0.21717234 -0.15735048 -0.2717656
-0.17292681 0.1323379 -0.10740383 0.0072565274 -0.21530999 0.5370911 -0.28141192 -0.105479464
-0.16546695 0.0724674 -0.11664997 0.16815363 -0.09962589 -0.2391584 -0.05107339 0.3912698
0.02899329 -0.38148588 0.023938108 -0.005526724 0.4079798 0.24243224 -0.16982888 0.22915642
-0.1687303 0.19249631 -0.11171371 -0.019065255 -0.3604579 -0.1535797 0.068349734 -0.06811685
-0.25954208 0.20073976 -0.46937656 0.18322943 0.20178662 0.08150688 -0.08246543 -0.22918625
0.1248687 0.2329854 0.1504614 0.3415776 -0.11861018 -0.2223695 0.04216887 0.09464248
-0.030612092 0.00054710795 0.26009393 0.009330092 0.0037814018 0.10184183 0.05325032 0.13552724
0.16616921 0.3292777 -0.15708584 -0.19139543 0.0051966533 0.20974009 0.23224634 -0.20084015
0.35135317 0.1173009 0.031185657 0.18470201 0.13193561 0.034142967 0.11552946 0.14185657
0.034469612 -0.1397743 0.13291039 0.12482703 -0.2440752 -0.07263268 0.051127244 0.1306925
0.30090338 -0.1486539 0.3436791 0.13432376 -0.05700387 0.022959393 0.25120848 0.3814813
-0.07135521 -0.35564974 0.07310838 -0.19730437 0.11964375 0.117793605 -0.26722887 -0.19727464
0.17040788 0.2761171 0.0020693126 -0.0008949825 -0.15729123 0.27677447 0.45997834 0.12740974
0.1836886 0.059367407 -0.18671528 -0.06687226 0.15961589 -0.06873406 -0.27250582 0.09996509
-0.013339648 -0.0058017755 0.017636422 -0.050530184 -0.061056066 -0.07218594 -0.46785197 0.3649839
0.051902458 -0.08456235 0.20799959 -0.05565451 0.074635796 0.21888812 0.20352185 0.020002525
-0.23796679 0.31947955 -0.024167571 0.036629748 0.4079786 0.17830552 0.104596265 0.040917985
0.3059465 0.17868388 0.14515136 -0.09720646 -0.01687718 -0.01341578 -0.33398217 -0.19822823

policy_net.2.bias f4 [64]
00000000: 7399 36bd 26e8 0bbd df59 493d 8362 60bd
00000010: 4453 47bd 567b 0bbd 46bc a9bc d40c 8bbd
00000020: 01ae 0abd 3ab6 553b dd54 cdbc 6188 2f3c
00000030: 9a8f 243d 4f57 a23d 85f8 9e3c 3a87 5bbd
00000040: a57a 0bbd 7ae3 96bb f8ee 5fbd d7c0 8cbd
00000050: 9da5 42bd 696c 62bd c783 0cbc 718c 9dbd
00000060: 090d 793c 8056 743c ac61 2bbd 7443 2abd
00000070: e879 a9bd 6e60 63bd bd15 fdbb c005 31bc
00000080: 1b79 3e3c b3ba ab3d 75ad e73c c9f1 d0bc
00000090: e637 803c 7edc c33c 2365 dd3c b068 9abc
000000a0: bb81 9d3d 8dea 0c3d 73d3 153c 9233 a4bc
000000b0: e84a ebbc 6b0d 3dbd 00a3 f43a 03ff 9cbc
000000c0: 1cc1 0bbd ff13 ccbc e92e c53c 22ce 0f3c
000000d0: 5332 d43b 6ade 7ebd 9b5e a0bd 26f5 4e3c
000000e0: 2ea6 abbd 75e6 0bbc 6a17 0b3d b008 b33c
000000f0: 0c6a 433d 6bcf 403d 543d 3dbd 9478 89bd
-0.044579934 -0.03415694 0.049157973 -0.054781448 -0.048663393 -0.03405317 -0.020719659 -0.06789556
-0.03385735 0.0032609836 -0.02506488 0.010713668 0.04017601 0.07926809 0.019405613 -0.05359576
-0.03405251 -0.004604754 -0.054671258 -0.06872719 -0.047521222 -0.05527917 -0.00857634 -0.07692803
0.015200862 0.014913201 -0.041841194 -0.041568235 -0.08275205 -0.055511884 -0.0077235387 -0.010804594
0.0116255535 0.083852194 0.028280953 -0.025505917 0.015651654 0.02390885 0.027025765 -0.018848747
0.0769076 0.034403373 0.009144652 -0.020044122 -0.028722242 -0.046155374 0.00186643 -0.019164568
-0.03411971 -0.024911879 0.02407022 0.008777173 0.0064757257 -0.06222383 -0.078305446 0.01263169
-0.08381306 -0.008538832 0.033957876 0.021854728 0.047708556 0.04707281 -0.046201065 -0.067124516

policy_net.4.weight f4 [32, 64]
00000000: e6d9 193e e5d4 a1bd e2f9 173e f6f0 a03d
00000010: 4e20 40be ba08 7abe 4063 063e b6d3 64bd
00000020: eb74 aebe 28f2 873e ee70 863e c379 3d3e
00000030: c71a 553e 9a3f 2b3e e9dd 1ebf f6db babe
00000040: 44a9 ca3d 9d48 99be d0f6 af3c 6140 4fbe
00000050: 44f4 5fbe 9d85 3ebc dc83 8e3d ff00 e4be
00000060: fa18 8e3c 3612 13bd 10f7 53be e703 803c
00000070: 9b05 8bbe aa42 b8bd fc01 cd3d b434 0b3d
00000080: e65c 36be 6eaf 26bd c6d9 9bbe cb12 e9bd
00000090: 0d2a c4bd 373b e73d 8bdb 8bbe 19a7 72be
000000a0: 9d57 88be 13c6 843e d917 303e 4a62 b33e
000000b0: 7f1b d6bd 4ec5 303e 658f 583e 625e 6ebc
000000c0: 6478 2bbe 162e 873d 7735 323d 529c fc3c
000000d0: 0bdc 953d cf58 c7bd b386 34be 502d 8b3e
000000e0: 3174 9fbe 8462 263e 9bc0 e6bc e11a 6fbe
000000f0: 6280 5c3e 44ca 82be 8985 60be 56e8 74be
00000100: 21ce 5b3e d0ef 8ebd 22fa e83e ac9b 7fbe
00000110: 75b3 883e 0be8 39be 2cca 683e 64ea a43e
00000120: 0293 a5be cdec 8fbc c9a9 f1bd 5547 8c3e
00000130: ddf4 813e a35c 93bc 1912 14be e6d1 7dbe
00000140: 8846 18bf bcef 623e 783e e7bd 7396 2cbe
00000150: acfd 323d 9f41 9ebd c217 373e 3afd 103e
00000160: 76c7 0f3e 2406 a3bd 99fa a3be 05f0 62be
00000170: 64f8 a1be 0db4 f3be 4aeb 8b3e 20cb 38bf
00000180: 67ce 6fbc 5b84 813e 4e33 423e 161c c43d
00000190: 7e67 383e 2922 e5be 5d54 88be c27e 96be
000001a0: cb49 0c3e 24d1 fb3d ec32 613e f5b8 113e
000001b0: d249 0d3f cac2 21be cca1 a63e 9e8c 93be
000001c0: 53de 1bbe 665c 95be 5227 1e3f 0fcd 0abe
000001d0: e0ad 5d3e 42ef c43d 71be 85be d394 a7be
000001e0: 4cd3 4ebe de9e f4be 9d2c 1a3e 1292 493e
000001f0: b07e 6dbd 52bb 513d e22e b7be 77d8 cdbd
00000200: 6cae 093c 26cd 6c3e e43b eebe 6ea0 ab3e
00000210: 2a50 f13e bc23 4d3e 1fa6 723e 573e 413c
00000220: 4a1c ed3d beb6 903d 931f 243f 5709 61be
00000230: 71fd 2a3d 35fe 8cbd e06d 983e aedd 193e
00000240: e4d0 583d d80a d5be 6343 173f 0d62 56be
00000250: a263 97bd 0831 263e cd7b 31bf b6e0 15bd
00000260: fd24 aa3d dea2 01bf 3a8d 42bd 8713 693e
00000270: 0ea8 87be a670 603e 4a33 14bf f681 cc3e
00000280: 1c6d 4d3d 1a7f d0be 6c98 b43b 8137 463d
00000290: 4e95 85be 310d 1a3f 79db d53e b6db 483e
000002a0: ae29 7f3e e8c7 9abd a7d0 073e e535 6f3e
000002b0: 0693 a73d 1448 1a3f b9c8 88bd d94a 543e
000002c0: 93ec ffbd c6a1 1b3e b609 3ebe e579 d13d
000002d0: 83a1 01bf edd9 e03d e282 2dbe c3a5 b03e
000002e0: 4bb6 4e3d 9f7b 7a3e 535b c0bd 3923 acbe
000002f0: 668f 56be 7d0a 28be 0c08 083e c0f6 a03d
00000300: 56df 36be 4d75 263c a9f6 ccbd cd83 9c3e
00000310: ffca 0a3e 9e11 97bd d378 c2bb a593 eb3d
00000320: 4eb5 c3bd 8428 52be cdd5 8c3d 0cd9 043d
00000330: ad6e 20be a5bb de3d f0fc 043e 7dfd 0fbe
00000340: 525a 42be 5d29 693d b3b2 15be 4443 a63e
00000350: a6c9 47bd 1a69 233d 1e49 5dbe 9ef9 c03e
00000360: ecd0 16be 62f8 8b3d f293 953e 542a b8bb
00000370: 021b 5c3e 600c 693e ef2f 72be c593 8b3d
00000380: 9b67 b63e a0b1 39be d58d 28be 6a12 e1be
00000390: 81b8 b33d 1458 763e 6b26 48bd b88e 9dbd
000003a0: eae8 eebe 2c8f c6bd 5403 90bd c349 053e
000003b0: 509b 9b3e 486f 39be f2a3 4cba 491e f83d
000003c0: a573 bc3e 64df 6a3e 7f8e 9ebd 416a 8fbe
000003d0: c07a e03b 4c99 e63d 421c fe3b 9ead 58be
000003e0: 7891 cc3d 67da d03e be01 32be ca34 9dbc
000003f0: 198c f8be d61c b33e 00cc 833e bb5c a23e
0.15024528 -0.079019345 0.14841416 0.0785846 -0.18762323 -0.24417391 0.13123798 -0.055865966
-0.34073576 0.26551938 0.26258034 0.1850348 0.20810996 0.16723481 -0.6205736 -0.36495942
0.09895566 -0.29938212 0.021479994 -0.20239402 -0.21870524 -0.011628536 0.06958744 -0.4453201
0.017345894 -0.03590604 -0.20699716 0.01562686 -0.27152714 -0.0899709 0.10010144 0.03398581
-0.17808875 -0.040694647 -0.30439585 -0.113805376 -0.09578333 0.11290591 -0.27315935 -0.23696555
-0.26629344 0.2593237 0.17196597 0.35035926 -0.10454463 0.17262766 0.2114845 -0.01454887
-0.16745144 0.06600587 0.04350802 0.030836258 0.073173605 -0.09733736 -0.17629509 0.27183008
-0.31143335 0.16248518 -0.028168013 -0.23350097 0.21533349 -0.2554494 -0.2192594 -0.23916754
0.2146535 -0.06979334 0.45503336 -0.24961728 0.26699415 -0.18154924 0.22733372 0.32210076
-0.3233872 -0.01756897 -0.11799962 0.27398172 0.25382128 -0.017988509 -0.14460029 -0.24787101
-0.5948262 0.22161764 -0.11291212 -0.16854267 0.04369895 -0.0772736 0.17880157 0.14159098
0.14040932 -0.079601556 -0.32027128 -0.22161873 -0.3163482 -0.47598305 0.2732795 -0.72184944
-0.0146366125 0.25296292 0.18964884 0.095756695 0.18008229 -0.44752625 -0.26626864 -0.29393584
0.13700025 0.1229575 0.21992081 0.14230712 0.55190766 -0.15796962 0.32545316 -0.2881822
-0.15221529 -0.29172057 0.6177875 -0.13554786 0.2164836 0.09615947 -0.26121858 -0.3273073
-0.20197791 -0.47777456 0.15056081 0.19684628 -0.057982147 0.051204033 -0.35777956 -0.10051053
0.008403402 0.23125133 -0.46530068 0.33520836 0.47131473 0.20033163 0.23696183 0.011794648
0.11577661 0.07066105 0.6411068 -0.21976219 0.041745607 -0.06884424 0.29771328 0.1502597
0.05293359 -0.41609836 0.590872 -0.20935841 -0.0739205 0.16229641 -0.6932953 -0.036591254
0.08307836 -0.5063914 -0.047497965 0.22761355 -0.26495403 0.21917972 -0.5789076 0.39942902
0.050152883 -0.4072197 0.005511334 0.048392776 -0.26090473 0.6017638 0.41769007 0.19615063
0.24918243 -0.0755766 0.13263188 0.23360403 0.08182339 0.6026623 -0.0667891 0.20731677
-0.12496295 0.1519843 -0.18558392 0.10228328 -0.5063707 0.10979066 -0.16944459 0.34501466
0.050466817 0.2446122 -0.09392419 -0.33620623 -0.2095314 -0.16410251 0.1328432 0.07859564
-0.17858633 0.010159803 -0.10007984 0.30569306 0.13554 -0.07376407 -0.0059348135 0.1150277
-0.095560655 -0.20523268 0.06876717 0.032433555 -0.1566722 0.10875634 0.12987113 -0.14061542
-0.18979767 0.056924213 -0.1461895 0.32473195 -0.04877629 0.039895155 -0.21609923 0.37690443
-0.14728135 0.06834485 0.29214436 -0.0056202803 0.21494678 0.22758627 -0.23651098 0.06815294
0.3562592 -0.18134165 -0.16460355 -0.4395936 0.08775426 0.24057037 -0.048864763 -0.07693237
-0.46662074 -0.096952766 -0.07031885 0.13016419 0.30391932 -0.18108857 -0.0007806412 0.121151514
0.3680698 0.2293678 -0.07742023 -0.28010753 0.0068505704 0.11259708 0.0077548334 -0.2115998
0.099886835 0.40791628 -0.17383477 -0.01919021 -0.48544386 0.34982938 0.25741577 0.31711373

policy_net.4.bias f4 [32]
00000000: d1cf 023e 0260 383d b223 c53c ff43 e0bd
00000010: 3886 f83d b551 edbd 33ed a63c 3eae 07be
00000020: be98 083d afd8 e1bd f581 f7bd f4dd e4bd
00000030: cab3 cf3d c317 00be cb21 80bc bfb0 0d3d
00000040: c3dc bf3d 9355 b6bd e2d8 bd3c 19f0 3c3d
00000050: 283d d9bd 513d d13d 2666 ba3d 8f66 04be
00000060: fba4 d7bd a418 e0bb 6e68 0ebd 0b9b 1f3c
00000070: 9269 c13d 7e5a 4f3c b236 3bbd dda3 c83c
0.12774588 0.045013435 0.024064872 -0.10950469 0.12134975 -0.1158785 0.020376777 -0.13250062
0.03334879 -0.11027657 -0.12085334 -0.11175147 0.10141714 -0.12509064 -0.015641114 0.034592386
0.09368279 -0.08903041 0.023174707 0.046127412 -0.10607368 0.10216773 0.091015145 -0.12929748
-0.105295144 -0.006838875 -0.03476756 0.009741555 0.09443964 0.012655852 -0.04570646 0.024492199

policy_net.6.weight f4 [21, 32]
00000000: 6b8d 4d3e 7188 7e3e 3b5d 25bf 3cef 57be
00000010: fb77 523e e6e0 57be 4710 093f eb43 4abe
00000020: 243a 793e b0fd 5dbe efdf 54be e711 4fbe
00000030: 6bdd 613e 841a 50be 3d63 97be 35e8 893e
00000040: c2d4 633e 4ee4 4bbe 9663 30bf 44ec 6a3e
00000050: cefa 4fbe 2e56 513e 1702 593e fdb9 4dbe
00000060: c4c5 53be c858 1d3f 9708 1e3f 7b84 113f
00000070: 6c02 683e d1e7 793e de55 173f 4d88 fb3e
00000080: 0df5 2aba e9b7 93ba 2d68 313b 32a4 77bb
00000090: 7d90 c838 2224 29b9 0118 4a39 27fc 58bb
000000a0: 422a ee3a c0ba bb3a ca15 f039 4ae5 4d38
000000b0: 056b 30bb a66d b0ba 1e89 b839 f7f3 2aba
000000c0: 6260 f1ba af5c 2f3a e153 2d3a 9d90 d1b8
000000d0: 47d0 07bb a7bd 67ba 8bc6 443b 5838 ecba
000000e0: ba2a 80bb 429c 4d3a 5e9d 51ba 3caa 5ebb
000000f0: 7ebc a4b8 70a6 0c3a 6f4f ebb9 95fa 08ba
00000100: bbb4 0aba ad8e 80bb 1007 83ba 772c c93a
00000110: ed79 303a 7b34 223b 4bcd 933b 0b69 faba
00000120: 3834 113b ffab 14bb 5258 0539 5425 9bb9
00000130: 7e6f 7bba bde1 d0ba cac0 fdba 251f 06bb
00000140: 4df4 93ba bbc1 79ba d411 f4b9 9c5c cfba
00000150: 2db1 18bb 0ec2 9039 4167 3b3a d5a2 3c3b
00000160: b816 6b3a 1132 9fba 37e6 86b9 89e6 0c3b
00000170: a068 dab7 d24f 353a 4e79 153a 6e36 b33a
00000180: 3c87 813a d5e7 8c39 f32c e5ba 265c 5d3a
00000190: 0f4c 0d3a c617 8abb a090 9139 97f8 f2b9
000001a0: c006 633a 7300 bab9 9fcc 92bb 377a c93a
000001b0: d0bd 2bbb d269 a13a c474 a8b8 5e12 803a
000001c0: b0e7 4ebb f6c9 89ba 530c 61ba dc65 00ba
000001d0: 6612 033a feb9 443a 2fa8 3cba e1f4 c2ba
000001e0: 22d9 6fba 1b9e 3dba bdc3 0d3b ddbe 963a
000001f0: 9066 acba a9bd 8e3b e72b d639 5a9f 1c3a
00000200: 6126 ab3e 09a9 aa3e c3a5 60bd d38c a8be
00000210: ee0e aa3e d0d6 a9be a408 8f3e 041f a9be
00000220: 20c7 aa3e 4d03 a9be d82b a9be 0419 a8be
00000230: bc61 a83e 54d7 a8be 60d1 a9be 5f1b a83e
00000240: b43a a93e 961e a9be e84d d2bc b717 a93e
00000250: ba76 aabe ee05 aa3e 4f10 ab3e 7657 a8be
00000260: 008f a8be beda d33c e321 e73c 5089 293e
00000270: e3b9 a93e f4e2 a93e 0827 173d 045d 973e
00000280: 34f0 eb3e bd71 0c3f 4472 b5be 59dc eebe
00000290: 81e4 ed3e d0fb f2be 6111 dd3e 13e1 ebbe
000002a0: c0c9 083f 5a52 fdbe 4564 f0be 93c0 ebbe
000002b0: 3796 fa3e 7f80 ecbe 1562 0fbf ca25 083f
000002c0: 87a9 f93e 4caa eabe 41cd ccbe 4b19 063f
000002d0: abcf ebbe 71dd ea3e d5d2 eb3e 6b4c edbe
000002e0: 4daf ecbe 36c3 cf3e c85e b83e 105f ce3e
000002f0: 5191 023f 7922 0e3f 9a2b de3e 7bde f73e
00000300: 297b bdbd bb9a 7cbc 6943 02be 7f12 b43d
00000310: 05af bbbd 8936 993d 905f 873c e0df c63d
00000320: b08c cabc eaea 433d 1ca0 a03d 148c bd3d
00000330: 9fd6 70bd 8495 b33d 0e6f 7c3b bcb9 a6bc
00000340: f062 63bd 1ade ba3d 3227 21be 3410 ccbc
00000350: cca2 c13d d86a c7bd 2b9e c6bd d3a9 be3d
00000360: ba8f bc3d 52e4 143e 343d 243e ec7a 453d
00000370: 20d3 07bd ba5d 75bc 694f 0a3e 0904 cb3b
00000380: c656 1e3e 5e54 523e e4d1 943e 9ba3 1ebe
00000390: 7bc8 1f3e 9bc6 1ebe ac31 0d3d b9fc 1ebe
000003a0: e842 5d3e 3711 31be 7746 24be 2ed7 1fbe
000003b0: e37c 253e 734a 1cbe 5b44 50be 311e 353e
000003c0: fb0f 2e3e b909 22be e3e6 bb3e 1cd9 4e3e
000003d0: d107 22be f371 203e 6340 1d3e c8ce 20be
000003e0: 0ba2 20be 5bd8 a6be 4a7a a6be 9a2c f7bd
000003f0: e8fc 3a3e 0127 613e b0e9 95be 5a77 d43d
0.20073478 0.24856736 -0.64595383 -0.21087354 0.20553581 -0.21081886 0.5354046 -0.19752471
0.24338585 -0.21678805 -0.20788549 -0.20221673 0.2205712 -0.20322615 -0.295679 0.26934972
0.2224913 -0.1991131 -0.68901956 0.2294169 -0.20310518 0.20443031 0.21192203 -0.2009048
-0.2068091 0.61463594 0.6173186 0.56842774 0.22657174 0.24404837 0.591154 0.49127427
-0.0006521501 -0.001127002 0.002707015 -0.0037787077 9.563656e-05 -0.00016130556 0.00019273163 -0.003310928
0.0018170553 0.0014322624 0.000457926 4.908935e-05 -0.0026919257 -0.0013460412 0.00035197375 -0.0006521339
-0.0018415565 0.0006689531 0.0006611925 -9.992833e-05 -0.0020723508 -0.0008840211 0.0030025567 -0.0018022163
-0.0039113434 0.00078434136 -0.0007996167 -0.003397598 -7.855239e-05 0.00053653773 -0.00044881876 -0.0005225328
-0.0005291213 -0.0039232583 -0.0009996612 0.0015348335 0.00067320355 0.002475052 0.004510557 -0.0019104792
0.002215637 -0.0022685525 0.0001271677 -0.00029591715 -0.0009591504 -0.0015936416 -0.0019359824 -0.002046534
-0.0011288017 -0.0009527464 -0.0004655259 -0.0015820446 -0.0023298964 0.00027610402 0.000714887 0.002878358
0.0008967924 -0.0012145658 -0.00025729995 0.0021499714 -2.6036345e-05 0.0006916496 0.0005701975 0.0013672838
0.0009882222 0.0002687561 -0.0017484709 0.0008444212 0.0005390057 -0.00421426 0.0002776431 -0.0004634305
0.00086603686 -0.0003547702 -0.004479959 0.0015371506 -0.0026205666 0.0012314862 -8.0326136e-05 0.0009771099
-0.0031571202 -0.001051246 -0.00085849053 -0.0004897991 0.0004999995 0.00075045216 -0.0007196692 -0.0014874005
-0.0009149482 -0.00072333374 0.0021631562 0.0011500973 -0.0013153125 0.0043561053 0.0004084997 0.0005974673
0.33427718 0.3333209 -0.054845583 -0.3291994 0.33214515 -0.331717 0.2793628 -0.33031476
0.33355045 -0.3301033 -0.33041263 -0.32831585 0.32887065 -0.32976782 -0.33167553 0.32833382
0.330526 -0.33031148 -0.025671914 0.33025905 -0.33293706 0.3320765 0.3341088 -0.32879227
-0.329216 0.02586114 0.0282144 0.16556287 0.33149633 0.33180964 0.036902457 0.29563153
0.46081698 0.5486105 -0.3543874 -0.46652487 0.46463397 -0.47457743 0.43177322 -0.46070156
0.53432846 -0.49476892 -0.469515 -0.4604536 0.4894273 -0.46191785 -0.56009036 0.5318266
0.48762152 -0.4583305 -0.40000346 0.52382344 -0.46056876 0.4587207 0.4605929 -0.46347365
-0.46227494 0.40578622 0.36009812 0.40306902 0.51002985 0.5552135 0.4339264 0.48411927
-0.092520066 -0.01541775 -0.12721027 0.0879259 -0.09164242 0.07481105 0.01652506 0.097106695
-0.024725288 0.047831453 0.078430384 0.092552334 -0.05879843 0.08768752 0.0038518342 -0.020352237
-0.055514276 0.09124394 -0.15737608 -0.02491007 0.09454879 -0.09737176 -0.09698137 0.09309735
0.09207101 0.14540222 0.16038972 0.04821293 -0.03316033 -0.014975959 0.13506855 0.0061955494
0.15462789 0.20539996 0.29066384 -0.15492098 0.15603821 -0.1550545 0.0344712 -0.15526094
0.21607554 -0.17291723 -0.16042505 -0.15609428 0.16160922 -0.15262775 -0.20338576 0.17687298
0.16998284 -0.15824021 0.3669959 0.20200008 -0.15823294 0.15668468 0.15356593 -0.15703881
-0.15686814 -0.3258694 -0.32515174 -0.12069054 0.18260539 0.21987535 -0.29279852 0.10374327

policy_net.6.bias f4 [21]
00000000: 7957 4b3e 0000 0000 0000 0000 0000 0000
00000010: 5e80 a93e 8fa0 ec3e fa11 c2bd 6357 203e
00000020: b019 2cbe e993 44be 4d9f 4abe 0a7b 30be
00000030: f07f c8bd f0fc 3cbe e293 4c3e 3123 42be
00000040: b2d0 2bbe 3cf3 4abe 7e9a 5fbe d96d 52be
00000050: ee50 44be
0.19857587 0.0 0.0 0.0 0.3310575 0.46216246 -0.09476085 0.15658335
-0.16806674 -0.19197048 -0.19787331 -0.17234436 -0.09790027 -0.18455863 0.19978288 -0.18958737
-0.1677883 -0.19819349 -0.21836278 -0.20549716 -0.19171497

value_net.0.weight f4 [32, 132]
00000000: 4cdd 323d df34 743d a732 debb 2ba0 a2bd
00000010: c198 d73c ffef a4be f430 cd3d 9caa cc3c
00000020: d297 393e aa5c 1d3e e9f2 21bd 80f7 d2be
00000030: 047d c2bd feda 553e df96 9bbd af65 2dbd
00000040: 26f5 993d 425b 49be 7df8 dfbd 9870 563e
00000050: ff29 1cbe 39ab 1b3c 4ca7 d4bd b73c b2be
00000060: 70c3 ee3d 04af 623e c495 1d3e 55b9 86bd
00000070: 3225 77bd c452 32be 7306 cebb 4563 d4bc
00000080: 20f0 a3bd 2944 e5bd c529 fc3c f1bc 01be
00000090: 484b 05bf 4775 b93e 24ae aa3e d0da 14bf
000000a0: f570 cf3d e60d 483e cac4 163e f969 4ebd
000000b0: 4267 a7bd 4b0e 47be 0bfa efbe c042 cabe
000000c0: 7c8a 373e 9363 4e3e 8a76 c73d 3d9b 4cbd
000000d0: ee64 be3d 824e d2be c590 c23c d842 b63b
000000e0: 148c d83d c093 86be 8770 0cbc 0ffa f3be
000000f0: e2da 843e c787 073e 17c5 b1bc 8f8f f9bd
00000100: 2c07 aebd 6e5a 68be 84e8 af3c cc7e 1e3c
00000110: 4f33 88bd f240 83be f560 c9bd eef4 bebe
00000120: f7fe 673d 46cf 023e 282b 3b3e 1f73 883e
00000130: 26aa dbbd e979 24be a7c8 df3d b509 023e
00000140: 899a a6bd dd6f 933d 9c92 7bbe 3ead 71bd
00000150: 4dc7 f63d 5f75 fb3c 621e 75be 1447 8fbb
00000160: 1122 0c3d 7d8e 1dbe 49ae 0ebe 9a76 a33d
00000170: 7d5d 0cbe fb7b 1abe 632e 04be 5a12 73be
00000180: 4975 023d 8672 1b3e ddde 0abe 9bf7 88be
00000190: 6464 c5be 9657 e4be 5a1d 603c 3501 213e
000001a0: 6757 bb3b 90de d23b be05 a2bd bd69 46bc
000001b0: 11f7 dbbc f21d 1f3e ec60 84bc 69f0 dbbd
000001c0: fe17 06be 1be2 57be d8c7 813e 1ad5 3ebe
000001d0: 6743 ec3d 112b 9cbc 9302 b33d c4d6 12be
000001e0: 39ad 4f3e a92f 17be 450c 533d a90a 79bd
000001f0: c604 073d 47e8 7d3e 817e fe3c d2d8 523d
00000200: b53e 003e 1a6e 493d fdd7 b93d 8933 933e
00000210: 71bd 85be 50fc 0cbd 62e2 2a3d b6f3 1a3e
00000220: eb2b 71bd bab7 b3bc 7019 173e 9044 333e
00000230: ab1d 8f3c 283b b5bd 7b0e 403e d020 4dbe
00000240: d0ed 673d a00d 43be 0e2c 8dbd bfe6 9e3d
00000250: a380 8bbd faff e43d 256d 183e 388a f73d
00000260: 8eab 7ebe f029 23bc e067 b53d 48ae 06be
00000270: d204 2abd 587d 62be c111 e23c 259c f23d
00000280: f44f b83d c85b 743c c97c 1fbc 440e cd3c
00000290: 4af6 193b 8b9a 533e d734 ca3c 68b4 8c3d
000002a0: 7ae6 35be fd49 3c3d d6af 9c3b d97d cc3d
000002b0: 4b3e 153d 6adc ca3d 3686 a9bd 59c1 1d3d
000002c0: 70f7 bb3d 18f8 cf3d f137 51bd c208 7ebe
000002d0: b549 77be 97e4 dbbd e962 733d 964d afbd
000002e0: de4d 433e 8010 6f3b 5511 3bbe 2719 29be
000002f0: 3bd9 c23d a5b8 b73d 8963 283d 0eee f2bd
00000300: e6fe 08be e487 fabd 719c 673e fe15 d33d
00000310: 848d 3b3d 3a1a 473e b81b e4bb 1d99 35bc
00000320: 9b83 b5bd 4c79 113e d7bb b23c 6aea 893e
00000330: fcd0 4dbe f40e 07be b1fa a43e 7d05 abbb
00000340: 0694 213e 8f9d 84bd ee17 b3be 9aef 0fbe
00000350: e2cf 10be 8060 053e f31e ef3c c383 81be
00000360: 4ed9 10bd 21fa 80be 2a5b 2cbd 8488 e03c
00000370: 0cf2 8cbc 2c50 18be b437 8bbe 646c 45bc
00000380: 0a54 7b3e d8bc 003d 1f8b a33d 8ad2 7abd
00000390: 4109 37be 8bcb 63be 7fe2 f7bc 09ed cebc
000003a0: 7e24 1e3e 99f8 8c3b 6727 debc 3267 72be
000003b0: ea56 97bd f3c8 153e c78f 543e 05d9 fc3c
000003c0: 6e75 1f3d ec5a 4bbe 4ce3 efbb eda2 24be
000003d0: db3d 88bd 7d66 ea3d 9446 4cbe 550d 6cbe
000003e0: 91c2 1c3d d077 dcbd ede8 f5bd a4bf 563e
000003f0: 0781 d63d e0bb 38bc 0476 913d ced9 a73c
0.043668076 0.059620734 -0.0067809406 -0.07940706 0.026317956 -0.32214352 0.10019103 0.024983697
0.18124321 0.1536738 -0.039538298 -0.41204453 -0.09496501 0.2088432 -0.07597136 -0.0423333
0.075174615 -0.19663718 -0.10936067 0.20941389 -0.15250395 0.009501272 -0.10383472 -0.34811947
0.116583705 0.22137076 0.15389162 -0.06578318 -0.060338207 -0.17414385 -0.00628739 -0.025926242
-0.080047846 -0.11194641 0.030781636 -0.12669732 -0.52067995 0.36222288 0.33335984 -0.5814638
0.10128967 0.19536552 0.14723507 -0.050394032 -0.08173992 -0.19439046 -0.46870455 -0.3950405
0.17923921 0.20155172 0.097394064 -0.049952734 0.092965946 -0.41075522 0.023750672 0.0055621676
0.10573593 -0.262846 -0.0085717505 -0.47651717 0.25948244 0.13235389 -0.021700425 -0.12185585
-0.08497462 -0.22690746 0.021473177 0.009673785 -0.06650411 -0.25635487 -0.09832946 -0.37296242
0.056639638 0.12774381 0.18278182 0.2665033 -0.107258126 -0.1606213 0.10926943 0.12699015
-0.08134944 0.071990706 -0.24567646 -0.059003107 0.12049732 0.030695615 -0.23937371 -0.004372487
0.034212176 -0.15386386 -0.13933672 0.07981606 -0.13707538 -0.15086357 -0.1290832 -0.2373747
0.031850133 0.15180406 -0.13561578 -0.26751408 -0.38553154 -0.44598073 0.013678873 0.15723117
0.0057172063 0.006435223 -0.079112515 -0.012110171 -0.026851209 0.15538767 -0.016159497 -0.10739214
-0.1309509 -0.21082346 0.2534778 -0.1863598 0.115362935 -0.019063504 0.08740725 -0.14339739
0.20280923 -0.14764275 0.051525373 -0.060801182 0.032963537 0.24795638 0.031066181 0.051476307
0.12523921 0.049177267 0.090743996 0.28750256 -0.26121095 -0.03442031 0.0417198 0.15132031
-0.058879774 -0.021938194 0.14755797 0.17506623 0.017470201 -0.08849174 0.18755524 -0.20032048
0.05662328 -0.19048166 -0.068931684 0.07758855 -0.06811645 0.11181636 0.14885385 0.1208691
-0.2487013 -0.009958729 0.08857703 -0.1315242 -0.041508503 -0.22118127 0.027596356 0.118461885
0.08999625 0.0149144605 -0.009734341 0.025031216 0.0023492747 0.20664422 0.0246834 0.06870347
-0.17763701 0.045969 0.0047817035 0.09984941 0.03643636 0.09905322 -0.08277552 0.03851447
0.09178054 0.10154742 -0.05107874 -0.24808028 -0.24149211 -0.107369594 0.0594205 -0.0855972
0.19072673 0.003647834 -0.1826833 -0.16513501 0.0951409 0.08970765 0.04111055 -0.118618116
-0.13378486 -0.1223295 0.22618271 0.10306929 0.045789257 0.19443598 -0.006961312 -0.011083868
-0.088629924 0.14206427 0.021818085 0.26936656 -0.20099252 -0.13189298 0.32222512 -0.00521916
0.15779123 -0.064753644 -0.34979194 -0.14056244 -0.14141801 0.13025093 0.029189562 -0.2529584
-0.035363488 -0.25190833 -0.04207913 0.027408846 -0.01720526 -0.14874333 -0.27190936 -0.012049768
0.24543777 0.031430095 0.079855196 -0.061235942 -0.17874624 -0.22245614 -0.030259369 -0.025259512
0.15443608 0.004302096 -0.027118398 -0.23672178 -0.073896244 0.14627437 0.20757972 0.030865202
0.03893035 -0.19858903 -0.007320797 -0.16077776 -0.06652423 0.11445329 -0.19948798 -0.23051961
0.03827149 -0.1076504 -0.12007318 0.20971543 0.10473829 -0.011275262 0.07102588 0.0204896

value_net.0.bias f4 [32]
00000000: 3339 da3d ad72 94bd 44ca e8bd 0f2f 0bbc
00000010: e798 863d d00c 96bd 1c51 4bbd 07cb 013a
00000020: 3a03 853c 6f7d 28bd 4045 bebd d369 bfbd
00000030: 9ee5 d33c 5207 433d d190 fbbd 2b55 5d3c
00000040: 2707 f5bb 60cb 25bd 2827 fb3c b61c 4dbc
00000050: ff36 333e e3da 863c 7213 893d 6110 4cbd
00000060: a8e7 04bd afa0 88bc 5531 7b3d 9a53 173d
00000070: a317 37be dc2e 22be dbdb fe3c 431a 443e
0.10655441 -0.07248435 -0.11366704 -0.008495106 0.065721326 -0.073266625 -0.0496379 0.0004951213
0.01623689 -0.041135248 -0.09290552 -0.09346356 0.025866326 0.047614403 -0.12283481 0.013509075
-0.0074776593 -0.040477157 0.03065832 -0.012519052 0.17501448 0.016461795 0.06693162 -0.049820308
-0.032447487 -0.016678182 0.061326344 0.036944963 -0.1788011 -0.15838188 0.031110695 0.19150643

value_net.2.weight f4 [64, 32]
00000000: 116b 803e 720a 4fbe 5b7a da3d 15ad 663c
00000010: 9104 9a3e c46a c3bd e5d2 8fbd 317c 263e
00000020: ccb7 94be 849e 25be 6175 48bc 753e 4b3e
00000030: e5df 893e 8278 38bd 1793 153e 1bf2 343e
00000040: 93cf 1a3e afd5 2a3e 98ce 2fbd 96f7 12bd
00000050: 4cdd 81bd 990a 133e 9218 bdbc 5de0 89bd
00000060: f2c6 3abe 3318 11bf 7d00 f23c 3f5e 3ebe
00000070: 345c 693e 56ed 91be bf5f 983e 57c5 15be
00000080: 3456 983d 5747 bdbd 5bf5 e0bd 275e 18be
00000090: bf60 59bc 2192 2cbe 9416 8bbd 7290 1c3e
000000a0: 6f21 74bd 2399 ffbd 68c7 fc3e 2ca7 2e3e
000000b0: 3120 bbbd a440 1a3e 4d49 afbe 2ecd 213d
000000c0: 2f5f 9a3e 4bb5 6ebb 25ac 07bd 8201 b3bb
000000d0: 01db 413e 6bb3 c2bd 6687 a1be 781f 8dbe
000000e0: 63e4 d03d 4ce1 1d3d 5ea2 ff3d 2b9a 2cbe
000000f0: 37ba b93e 5358 aabe 520d e63b 1f3f a9bc
00000100: ddc8 3fbe 248b 133e 45e5 ef3d bb59 713e
00000110: ecb5 a93c 8716 1f3d 7bc8 6ebe 1973 ab3d
00000120: bce9 973e 103a 40be e501 28be 9da2 1c3d
00000130: 9d8b 29bd 2ec0 5cbd ba62 833e 3a4b 383e
00000140: 75f7 3abd a5ce 3a3e 86a3 22be c067 2ebd
00000150: 4ae2 63be d94c 81be bf49 cdbd ac71 153e
00000160: f5cd f53d 7f16 8c3d 958f 71be 05c5 e3be
00000170: 1a06 9a3e df8a 943e 7aa7 dfbd 26c1 9f3e
00000180: e350 64bb ed74 963e d417 7fbd 748a 1b3e
00000190: 1f85 243f 0a83 ed3c 01c0 c5be 4519 b03d
000001a0: b944 f2bd 6f62 20be f6f4 803e 95b9 113e
000001b0: 631b 96bd 62b6 84be 3ba6 193e a825 143e
000001c0: 9227 0e3e 4441 84be c4bc 1abd 55cc adbc
000001d0: 1d37 253d 7f0b 983d c102 44bd 58f0 893e
000001e0: 2bb7 45be 83a3 d6bc 3b96 0d3e 9af3 05be
000001f0: b90c 363e 6cb8 73bd 1a4d 0f3f fb9c 25bc
00000200: 5bea 04bd f3bc 2c3e 3867 98be dbb0 d5bd
00000210: 14ba 273d e220 19be 788a c1bd 44e8 ec3d
00000220: 5877 6f3e d8bf 56be dd03 693e cba6 3b3e
00000230: 9540 c2bc 8715 cc3e 17b3 f2bd 80ab dc3e
00000240: 1f84 163d 0340 763d 9288 c23e 26ea a83e
00000250: 6a59 8dbe d8a0 493d abac f0bc bf2f 6c3e
00000260: 7da9 2ebc c8a2 703d c28d 87ba 78f6 f0bd
00000270: af73 393e e892 d4bd a341 ef3c 57b4 03be
00000280: fa28 403e d320 173d 4610 f43b 2969 8e3c
00000290: a6e2 ecbc a83b 40be 4997 efbd a7c6 a83e
000002a0: aeed 443e 3c75 7bbd 2003 9dbb 41f4 ed3d
000002b0: 0080 8f3d 71b5 a03d 12c3 503e 8492 7ebe
000002c0: 798b 7bbd e8d4 47be 6c84 5cbe 7812 39be
000002d0: 8c77 423e 6e71 c03d a6bc fbbd b3ff 2cbe
000002e0: 65e3 be3d d061 4b3d 830a cebc 0b1b 7fbd
000002f0: 5c66 8bbe d01e b83d 2b96 3ebe 3273 d73d
00000300: 79e2 1abc d386 5c3e 43c8 8dbc 05d4 0c3e
00000310: 49dd 623e 87f2 d83e 4d1e da3e 005f 8f3d
00000320: 26d6 e53c a7dd 603d 08d1 ba3e 5025 4e3e
00000330: 3b54 ff3d 5090 57bd f4b4 9c3e 701b 89be
00000340: a6e3 f73c 576e fb3d 9b92 9c3e 36a2 dd3e
00000350: f2df 43bd 5c59 df3d 59ae 2f3e 3055 aabd
00000360: 7257 40be 082e 9e3c e2ec 53be 4874 923d
00000370: 92be a53c b5d2 233b 1641 c63d 79ef 7d3e
00000380: 3643 0e3f 29ad 9e3d 501e 6abe 0c0f 1d3e
00000390: 521a a23e 12f3 8fbd 2d80 5bbd 656a dbbd
000003a0: fa48 fbbd b82f 13bd b248 b13d 885e 0dbf
000003b0: 4078 093e 8997 c5bc 3864 c0bd 7c16 d93d
000003c0: 27b9 d23c f0e3 f93c ad7b 083e 05f1 533e
000003d0: 6f47 3f3e 5a1d 2a3c 8192 abbd 9f51 0fbe
000003e0: 2dbd f13e 5a01 b0bd e37f 913d 5644 afbd
000003f0: d638 62bd 2c37 383e e111 283d bf3d 94bd
0.25081685 -0.20218828 0.10667869 0.014079352 0.3008161 -0.09541848 -0.07022647 0.16258313
-0.29046476 -0.1617375 -0.012235017 0.19848044 0.2692863 -0.0450368 0.14606892 0.17670481
0.15118246 0.16683076 -0.042921633 -0.035880648 -0.06341037 0.14359511 -0.023083005 -0.06732247
-0.18239954 -0.5667755 0.029541248 -0.1859064 0.22789079 -0.28501385 0.29760548 -0.1462606
0.07438317 -0.092421226 -0.10984298 -0.14879666 -0.013267695 -0.16852619 -0.06791416 0.15289477
-0.059602197 -0.124803804 0.49370885 0.17055959 -0.091369994 0.15063721 -0.34235612 0.039502315
0.30150744 -0.0036423977 -0.033123154 -0.005462826 0.189312 -0.095068775 -0.31548613 -0.2756307
0.10199811 0.038544938 0.12482141 -0.16855685 0.36274883 -0.3327051 0.007020631 -0.020659981
-0.18728967 0.14408547 0.117136516 0.23569386 0.02071663 0.038839843 -0.23318665 0.083715625
0.29670513 -0.18772149 -0.16406973 0.038241018 -0.04139291 -0.053894214 0.2566126 0.17997447
-0.04564615 0.18242891 -0.15882692 -0.042579412 -0.22254291 -0.25253943 -0.100238316 0.14594144
0.12002174 0.06840228 -0.23589928 -0.4448625 0.3008278 0.290122 -0.109206155 0.31202048
-0.0034838251 0.29386082 -0.062278584 0.15189534 0.64265627 0.028993148 -0.3862305 0.0859857
-0.11829514 -0.1566255 0.2518689 0.1423095 -0.07329442 -0.25920397 0.15004818 0.1446749
0.13882282 -0.25831044 -0.037777677 -0.021215597 0.040335763 0.07424068 -0.04785419 0.2694118
-0.19308154 -0.026201015 0.1382684 -0.13081208 0.17778291 -0.05950205 0.5597702 -0.010108228
-0.03245006 0.16868953 -0.2976625 -0.10434123 0.040948942 -0.1495395 -0.09450239 0.11567739
0.2338537 -0.2097162 0.2275538 0.18325345 -0.023712436 0.39860174 -0.11850565 0.43099594
0.036747094 0.06011964 0.3799482 0.3299114 -0.2760728 0.04922566 -0.02937921 0.23065089
-0.010660526 0.05874899 -0.001034193 -0.1176576 0.18110536 -0.10379583 0.029206103 -0.12861763
0.18765631 0.036896538 0.007448229 0.017384129 -0.028916668 -0.18772757 -0.11698777 0.3296406
0.19231293 -0.0613911 -0.0047916323 0.11618853 0.07006836 0.07847107 0.20386913 -0.24860579
-0.06141231 -0.19514811 -0.2153489 -0.18073452 0.18990916 0.09396635 -0.12291841 -0.16894417
0.09320716 0.04965383 -0.025151497 -0.06228165 -0.27226532 0.08990252 -0.18611972 0.10520019
-0.009453409 0.21535806 -0.017307406 0.13752754 0.22154726 0.42372534 0.42601243 0.07000542
0.028056215 0.054898884 0.36487603 0.20131421 0.124672376 -0.05262786 0.30606806 -0.26778746
0.030259918 0.12276905 0.305806 0.4328782 -0.047820993 0.10905716 0.17156352 -0.083170295
-0.18783358 0.019309059 -0.20695832 0.07151085 0.020232473 0.0024997417 0.09680383 0.24798383
0.55571306 0.077478714 -0.22863126 0.15337771 0.31660706 -0.07028784 -0.053589035 -0.107136525
-0.122697785 -0.03593418 0.08656444 -0.5522237 0.13424778 -0.02412011 -0.09394115 0.10599992
0.025723053 0.030504197 0.13328429 0.2069741 0.18679594 0.0103829745 -0.08377553 -0.1399598
0.47214642 -0.08594008 0.071044706 -0.08557956 -0.055229984 0.17989796 0.041032676 -0.0723834

value_net.2.bias f4 [64]
00000000: a909 df3d d8b8 863d be5e 1c3c 4bc7 bf3d
00000010: 612a 243d a694 48bd 732b 893d 26a7 f83c
00000020: b874 bf3d fcf2 143a 27d8 3f3d 41c4 4dbb
00000030: 10b2 7ebd a260 cd3b 68f0 96bc 2d83 07bc
00000040: cecd cd3d 1a8a dd3b 558b 1a3e c985 3bbc
00000050: 0a42 7a3d ffa5 95bc 19c6 563d 5b11 10bd
00000060: 0343 00be d304 88bc e94e 7cbd d8eb 80bc
00000070: ee7e 89bd 7d41 1bbd a842 79bd 6039 1ebd
00000080: 1fdf e63d 9ee3 ad3d fe54 ec3d 862b b6bd
00000090: d9d1 1c3e ecb8 103d a990 b2bb 1221 ecbd
000000a0: 3071 da3c a855 74bd c859 dfbc 8f18 dcbd
000000b0: 12fa 09bd bf5a e1ba 8d57 cfbd a2ac 803c
000000c0: fef3 2cbd 0256 3e3d 944d 9fba deb6 99bd
000000d0: 2ac3 63bc 6320 b4bc d732 e93c b7fb 283d
000000e0: db19 9e3b 6942 ac3a 95fc 28bd 4fe2 3dbd
000000f0: 9a0c 00bd 2c89 f63c 73a5 57bc 67ea dbbc
0.108905144 0.06578225 0.009544073 0.09364184 0.04007948 -0.048969887 0.066977404 0.03035314
0.09348434 0.00056819594 0.046837 -0.0031397494 -0.062181532 0.006267623 -0.018425182 -0.008271021
0.1004902 0.0067608478 0.15092213 -0.011445471 0.061098136 -0.01826763 0.052435014 -0.0351728
-0.12525563 -0.016603863 -0.061598692 -0.015737459 -0.06713663 -0.03790425 -0.060854584 -0.038628936
0.11273026 0.0849068 0.115396485 -0.0889502 0.15314426 0.035332605 -0.0054493737 -0.11529745
0.0266653 -0.059652 -0.02726449 -0.10746872 -0.03368575 -0.0017193182 -0.10124121 0.015707318
-0.042224877 0.046468742 -0.0012153857 -0.07505582 -0.013901511 -0.0219881 0.028466625 0.04125568
0.0048248596 0.001314235 -0.041256506 -0.046358403 -0.031262018 0.030094706 -0.013162005 -0.02684517

value_net.4.weight f4 [32, 64]
00000000: 4741 b23d 2577 0abe 6570 7cbe 8101 a1bd
00000010: 98f0 07ba fdbc 3f3e 58f8 5c3e b199 1c3e
00000020: 9264 633e 60a9 db3d f01d c83d 6854 a63d
00000030: 9e68 d53c 6e91 713d d2e1 933e 3ad7 88be
00000040: 4015 3a3e 9eb7 043e f87c c83c c7c5 b3bd
00000050: 4a6a 62be a353 1b3d c0f8 7cbe ae68 9ebe
00000060: aed5 0bbe 3439 483d a876 d53d f95e fb3c
00000070: 0313 ad3c fff1 9f3c 1392 c4be e490 46be
00000080: d439 08be e575 863e bea0 edbd 51a6 2b3e
00000090: dc4a 393e 459e 19be f30e 733e e1ee e5bd
000000a0: bed4 c33d 1abb 99be 8cfb 463d aaee 45bd
000000b0: 6deb 163e f80b dbbe 9008 973d b6ea aa3c
000000c0: 52df 39bd 242c fc3d 7ed6 2dbd 4b6a af3d
000000d0: f588 20be 485e d5bc c3be 68bd ddf0 57be
000000e0: 5ecb 43be b963 8d3e 0bf0 66bd 5362 843e
000000f0: ee95 863d f5e1 b73d 2808 7fbd 89af d4bd
00000100: 0c1d 353e 062c 003f 47a4 60be ffc2 123e
00000110: f1ed 813e 32b3 9d3d 1da6 25be 6d98 283e
00000120: af73 a83d 55de 823e 03eb 3ebe 102e fdbc
00000130: 88ed bebe 9c41 393e 5d0b a73e 041b 863d
00000140: 3147 083d a480 85be 17fb c3bd e37c 923e
00000150: 64a4 11be bdc4 573d 57a2 18be 5720 0ebd
00000160: e892 cbbd cf88 293e 232b 99be f2ee a3bd
00000170: b3b6 27be d433 07be c657 e1bd 6758 623e
00000180: f874 3e3d ad92 643c dd2a 0b3e 4637 0bbe
00000190: 2d40 163e 215f aabc ec48 2e3d c745 cdbd
000001a0: de36 5fbe 5903 5dbe 52d1 c5bd 4838 953c
000001b0: 46c7 3fbd 4bf9 b0bd 6281 7a3d 0cdd adbd
000001c0: 4bd0 43be b37c c23d 5508 2fbe 2637 893c
000001d0: 0f05 3bbe 36b9 023f cb19 02bd 706f 7d3e
000001e0: 2c5e 663e a9a6 aebe 77e7 9bbd 2eae a9bd
000001f0: fb02 d13d 5206 88bd cd25 1dbd 3a6b 1bbe
00000200: 022e bbbe a5ad 1bbd 2604 4abd 9953 46bc
00000210: 30f7 c2be 00d9 493e 5660 eb3c 6e84 f0bd
00000220: 76b7 d53d aa6c a0bd af55 973e 85ef cd3e
00000230: 4ac3 2abe fec7 b0bd 2c86 92bc f044 773e
00000240: a8f9 48be fed8 a0bd 7bf1 763c 0611 fbbc
00000250: 6626 df3d 57fd 803d f959 bcbe 74ec 51be
00000260: 5a22 7fbc 592e 2abd e31e 403c 720d fd3d
00000270: 813a fbbe f920 48bc 2d54 833e e788 a53e
00000280: 657b 233e bccb b0bd c57f 2c3e 1c0b a63d
00000290: bd1e c63c e4c2 7a3e e1eb e5bd 66ec b3bd
000002a0: 6e57 30be ab6a d2bd a521 7dbe 127d b1bc
000002b0: 68d1 163d 023b 53be 21c6 afbc 1742 17be
000002c0: 8ee8 953d 23de e43e 4d90 213d db43 3b3e
000002d0: d043 253e 5112 babd 5214 33be d253 07bd
000002e0: 99be 11bd 39a3 22be 1e0c ae3c a4a0 d93c
000002f0: dfe2 bbbd 9c62 abbd 18af be3e ea3e c2bd
00000300: c62f 2dbd 1b64 eabd 04d3 40be 72fc 43bd
00000310: a652 5abe af2f a43e ecb8 9cbc cd7d 613e
00000320: 0414 01bf 7e7d 003e 268d 75be 2004 3fbd
00000330: e708 2a3e 8b58 7e3d 9899 8e3e e13b a23e
00000340: 52ff 5dbd c460 143e fb8d ddbd 9ba6 473e
00000350: 7927 573e ea44 ca3e 8697 9bbe 7153 463e
00000360: 2c2a a63d 77d8 383c e25d 0abd be53 a1bd
00000370: a421 053e 4edd 1c3e 4bfd a33e d49b 523e
00000380: 260d 4d3a 7b8c 18bf 0916 80b9 9984 1e3b
00000390: c3b6 3e3e 9cfe 37be d50d cf3d 996e a83d
000003a0: 2d93 d63d 5a81 803d f9a6 293e eeda 8d3d
000003b0: 8146 503e 61fe 1fbf 562d b4bd 8a4e d83d
000003c0: cd19 183e 89dd 0bbe 79ed 633e 3137 f2bd
000003d0: 5afb ebbd ce1e b7be 5860 d23e 7e62 8f3e
000003e0: 9823 dc3d de9b 403d c425 0fbf 184a 6f3d
000003f0: 68e7 70be e60c 693d eea8 e23c 121b e9bd
0.08703857 -0.13522013 -0.2465225 -0.07861615 -0.00051856926 0.18724437 0.2157911 0.15293004
0.22206333 0.10725665 0.09771335 0.08121568 0.026050862 0.058976583 0.28883225 -0.26726705
0.18172169 0.1296067 0.024473652 -0.087779574 -0.22110859 0.03792156 -0.24704266 -0.3093924
-0.13655731 0.04888268 0.104230225 0.030684935 0.02112723 0.019524572 -0.38392696 -0.19391209
-0.1330331 0.2626182 -0.11602925 0.16762663 0.18094963 -0.15001781 0.23736171 -0.11227203
0.09562062 -0.3002556 0.048579738 -0.04832331 0.14738245 -0.4278257 0.0737468 0.020863872
-0.04537899 0.12313107 -0.042440884 0.08565196 -0.15677245 -0.026045933 -0.05682255 -0.21087976
-0.19120547 0.27615145 -0.056381267 0.25856265 0.065715656 0.08978645 -0.062263638 -0.10385043
0.17686862 0.50067174 -0.21937667 0.14332198 0.25376847 0.077001944 -0.16176648 0.16464396
0.0822519 0.2556025 -0.18644337 -0.030905753 -0.37290597 0.18091434 0.32625857 0.065481216
0.03327102 -0.26074708 -0.09569376 0.28610906 -0.14222866 0.05267786 -0.14905678 -0.03469881
-0.099401295 0.16556095 -0.29915723 -0.080045596 -0.16378288 -0.13203365 -0.110030696 0.22104035
0.04649827 0.013950986 0.1359057 -0.13595304 0.14672919 -0.020797314 0.042550012 -0.100230746
-0.21798274 -0.21583308 -0.09659065 0.018215314 -0.0468209 -0.08641299 0.061158545 -0.08489427
-0.19122426 0.09496441 -0.17093022 0.01674993 -0.18263648 0.5106386 -0.03176288 0.24749541
0.22496861 -0.34111527 -0.07612508 -0.08285175 0.102056466 -0.066418305 -0.038366128 -0.15177622
-0.3655854 -0.038007397 -0.049320363 -0.012104892 -0.38079214 0.19711685 0.02873246 -0.11744009
0.10435383 -0.07833226 0.2955756 0.402218 -0.1667606 -0.086318955 -0.017886244 0.24147391
-0.19626486 -0.07853888 0.015072222 -0.030647766 0.10895996 0.06298321 -0.36787394 -0.20500356
-0.015572155 -0.041548107 0.011726114 0.1235608 -0.49068072 -0.012214893 0.2565016 0.3233101
0.1596504 -0.08632609 0.16845615 0.08107588 0.024184579 0.24488407 -0.11226631 -0.08785324
-0.17220852 -0.102742516 -0.24719866 -0.021666083 0.0368208 -0.20627978 -0.02145678 -0.14771305
0.07319747 0.44700727 0.039444257 0.18287604 0.1613915 -0.09085525 -0.1748822 -0.03303892
-0.03558216 -0.15882577 0.021246012 0.026565857 -0.091741316 -0.083684176 0.3724296 -0.09484656
-0.04228189 -0.11444875 -0.18830496 -0.047848172 -0.2132059 0.3206763 -0.019131146 0.22020645
-0.50421166 0.12547871 -0.23979625 -0.046634793 0.16604958 0.06209616 0.27851558 0.3168631
-0.05419857 0.14490038 -0.10818096 0.19497149 0.21011151 0.39505702 -0.3038904 0.19367768
0.081135124 0.011282078 -0.03378094 -0.07877301 0.13001114 0.15318796 0.32029185 0.20567256
0.00078220887 -0.59589356 -0.0002443048 0.002418792 0.18624406 -0.1796822 0.1011006 0.0822422
0.1047729 0.06274672 0.16567601 0.06926523 0.20339395 -0.62497526 -0.0879771 0.10561855
0.14853592 -0.13658728 0.22258557 -0.11826933 -0.11522551 -0.3576569 0.4108913 0.2800483
0.107489765 0.047023647 -0.55917 0.05842027 -0.23525774 0.056897067 0.027668443 -0.113821164

value_net.4.bias f4 [32]
00000000: 70d8 a03d 9b92 d13c b156 61bc 14f6 d8b9
00000010: 480a f5bd 6a96 ad3d da3c 66bd 2c1b 29bd
00000020: 4aaf d8bd 4fff 003e 2bdd e6bc b848 1abd
00000030: 5600 003e 5a2a 9e3c aeec d0bd 410f ecbc
00000040: f56d c2bd 1671 043e 20fb 77bd dd85 de3c
00000050: adc4 c8bd e5a3 543d 1576 ca3d 9541 aebc
00000060: ffb3 d63d 64eb 1f3d 280a 933c f3dc 51bd
00000070: bbb8 edbd 670e 51bc 6a8c 53bd ff06 63bd
0.07853782 0.025582602 -0.013753579 -0.00041382073 -0.119648516 0.08475955 -0.056210376 -0.04128568
-0.10580309 0.12597392 -0.028181633 -0.037667006 0.12500128 0.019307304 -0.10201393 -0.028815867
-0.09493629 0.12933764 -0.060542226 0.02716344 -0.09803138 0.051914115 0.098858036 -0.021271506
0.1048355 0.039042845 0.017949179 -0.051236104 -0.116075 -0.012759781 -0.05164758 -0.055426594
